code/Output/lightning1/pdl_e8000_1px_lr0.0001a10.0_up-conv5_1_W[1.0, 0.5, 0.1, 0.075, 0.075]/0/netG.pth (torch, 130368 bytes, 26 tensors)

head.conv.weight f4 [32, 3, 3, 3]
00000000: a036 1f3b 12cb 243d 1205 03bc a592 773c
00000010: 41c6 f9bc 2383 e83b 44cc 43bc 7447 c7bc
00000020: 9e38 b63c f3d6 dcbc 896d 14bd 4c08 2ebc
00000030: 4beb 73bb be52 443c c16d e8bc b56e 1c3d
00000040: 1167 b6bc 5175 d03c 3355 6d3c 220c 70bb
00000050: 4915 cf3c 99e5 47bc 3f19 3f3b 77be c03c
00000060: 4da6 b3bb 5862 ffbc c4ca 703d a754 04bc
00000070: c190 913b cc38 e8bc 9cc0 49bd 677a eabc
00000080: c1c1 9d3c 87f6 033d 66ee 203c 5d6b f03b
00000090: ae18 d5bc 1081 583c c78a ee3c 590b d9bc
000000a0: 3bf0 b23c b8ba 843b db1b b53b cd68 c2bb
000000b0: 1801 b33b dbd9 c4bb 7565 a9bc b87c 35bb
000000c0: 6cf5 a2bc 7a88 f6bb cae1 76bc 92dd 3f3c
000000d0: c6ce 2a39 0ad7 a7bb 993d a23c c6aa c5bc
000000e0: aabc e8bb 3e00 40bc 4b20 bf3b 495c 51bc
000000f0: 3dcb e83c 08c4 a0bc 3cab cb3b 759d 12bc
00000100: 512b cc3c 318f b5bc 29c1 483c b6e5 ebbc
00000110: 5f65 1ebc 2fea 623c 5c33 aeba 2c39 d13b
00000120: 05cf df3b 9248 463d 4fa3 bc39 ec6f 063d
00000130: db56 d7bc 4ab4 8a3c 6fb7 b6bb 549c 423c
00000140: f4c1 29bc 9db7 3dbc 5970 9fbc 7d84 58bc
00000150: 46c1 14bc 645e 4cbc e80b 04bc f95d 693c
00000160: 04c9 8b3c 6ca6 c3bc 4722 3fbb 3679 0c3a
00000170: 668a 02bd 6f69 58bc a43c 2bbb 1d28 fbbb
00000180: 27ce 8d3c 7b8e 3d3c c2ba be3c ed13 36bc
00000190: c3e2 1bbd 5b8b 41bb ae07 e03c b679 ae3c
000001a0: 667e 35bc 6edc a8bc 9299 04bc 5282 023c
000001b0: f8f6 48bb a353 c7b9 6e16 84bc ec3d 56bd
000001c0: d0bc 3e3c 79f7 873b e7d7 c9bb 77fe b13b
000001d0: 5b0d 2bbc 2c3c 083c c4ac 533c 5107 8f3b
000001e0: c823 503c 7fea 99bb db77 823b c240 42bc
000001f0: 715f 5fbc b5ab e7bc d013 453b b38b 57bc
00000200: b471 5d3b 33b2 8d3c f826 40bb ed83 223d
00000210: 3eb2 a33c f982 bfbc 27dd 8fbc 8e8b 223d
00000220: a4f0 3a3d 7934 a7bc 2073 023d 4aff a5bb
00000230: 5a11 753c fb55 1d3c e6c7 b53c 0846 21bd
00000240: 0031 f1bb 9446 1e3d 8a58 22bc c57b 363c
00000250: af85 66bc 3a15 e1bc 0a32 9e3c 408f 883c
00000260: b195 3abc 5b95 463d 627e a13c 0b64 87bc
00000270: c29c 373c acfa ccbc 53b5 7a3b 7307 35bc
00000280: 10f0 79bc ec21 a13a 5434 76bb a439 703c
00000290: f12a 253c 3735 b43c 4127 e3bb 8571 853c
000002a0: e967 fdbc 9fe6 943b 4835 603a 6949 1dbc
000002b0: 44f5 2e3b d1dd 14bd 3de8 3f3c b70c 73bb
000002c0: 0984 01bd dfd1 0ebd 1969 d9bc 1257 c1bc
000002d0: 3fd7 54bc 9fb7 733c 90eb 95bc 9548 3d3c
000002e0: ab0c b1bc 4589 83bc b9f8 1c3b a3cb 863c
000002f0: 559a e3bb 7fcf 16bc c4b6 a838 0aae efbc
00000300: ebf8 333a 5b29 59bb ca65 803c ed6f c5bc
00000310: 07b6 8fbb f88a 85bc 241a 9e3a e064 733d
00000320: 3ab7 6c3b cc35 323c 1560 863c dc11 b43c
00000330: 9b8b 3abc fa16 2abb 1459 8cbc 3947 f03a
00000340: 41e0 fe3c 8200 d93b 5213 10bc 21de 903c
00000350: d337 8cbb 00c0 bcbb b945 0e3d fea4 0ebc
00000360: 810a 8e3b bd9b 303c c463 1cbd b692 1c3b
00000370: d9dd 07bd a916 b8bb a47b 19bc 271f 1b3d
00000380: 31e0 923c bd11 ad3c 4845 43bc d4c8 08bc
00000390: 9d74 303b 69bd 2ebd b903 3a3b a3fd 96bb
000003a0: 2866 ddbb 8141 99bc 36a7 99ba 743b e23c
000003b0: 80c3 fd3c 6d7a 243c 9913 b0bb 67d0 60bc
000003c0: c872 29bd 4619 7fbc 3214 e33c e6b6 393c
000003d0: e0f8 a2bb c989 5c3b cea9 eabc 2cab e6bb
000003e0: 6a64 29bc a590 61bc 8875 11ba 9025 613b
000003f0: adb3 d93b 0e91 49bc e154 953c 96b2 30bd
0.0024294034 0.040232725 -0.007996814 0.015110646 -0.030490043 0.007095711 -0.011950556 -0.024326064
0.022243794 -0.026957965 -0.036237273 -0.010622095 -0.0037219103 0.011982618 -0.028372647 0.038191516
-0.022265943 0.025446566 0.014485645 -0.0036628325 0.025278704 -0.012200736 0.0029159335 0.02352832
-0.005482471 -0.031174824 0.058787122 -0.008076823 0.004442305 -0.028347395 -0.049255952 -0.02862282
0.019257428 0.03221753 0.009822464 0.0073370175 -0.026012745 0.013214365 0.029118909 -0.026494669
0.021843066 0.004050579 0.0055270023 -0.0059329034 0.005462777 -0.0060074157 -0.020678261 -0.0027692746
-0.019892417 -0.0075235935 -0.015068481 0.011710541 0.00016289492 -0.00512207 0.019804763 -0.024129283
-0.0071025686 -0.011718808 0.005832707 -0.01277835 0.028417224 -0.019624725 0.006215481 -0.0089486735
0.024922999 -0.022163006 0.012253084 -0.028796058 -0.009667723 0.013849779 -0.0013290453 0.0063849892
0.0068300986 0.048409052 0.0003597983 0.03282158 -0.026286533 0.016931672 -0.005576066 0.011878092
-0.010361183 -0.011579421 -0.019462751 -0.013215181 -0.009079283 -0.012473676 -0.008059479 0.014243596
0.017063625 -0.023883067 -0.0029164718 0.0005358638 -0.03187027 -0.013208731 -0.0026128674 -0.007664694
0.017310215 0.0115696145 0.023282412 -0.011113149 -0.038058054 -0.0029532525 0.027347412 0.02129827
-0.011077499 -0.020612922 -0.008093255 0.007965641 -0.0030664783 -0.00038018552 -0.016123977 -0.052305147
0.011641696 0.004149374 -0.006159771 0.005431946 -0.010440196 0.008315127 0.0129196085 0.004364886
0.012703843 -0.0046971436 0.003981573 -0.01185626 -0.013633595 -0.028280118 0.0030071624 -0.0131558655
0.0033789696 0.017296886 -0.0029320102 0.039676595 0.019982453 -0.023377882 -0.017561508 0.03968387
0.04563965 -0.020410763 0.031848073 -0.005065833 0.01495775 0.009603019 0.022190046 -0.039373428
-0.0073605776 0.038641527 -0.009908805 0.011137907 -0.014069959 -0.027475942 0.01931097 0.01666987
-0.011388228 0.04848228 0.019713584 -0.016527196 0.011206808 -0.025021873 0.003825505 -0.011049139
-0.015254989 0.0012293435 -0.003756781 0.01466218 0.010081039 0.021998031 -0.0069321697 0.016289482
-0.030933337 0.0045440937 0.00085528614 -0.009600022 0.0026696483 -0.036344353 0.011713085 -0.0037086436
-0.03162006 -0.034868117 -0.026539372 -0.023601089 -0.012990772 0.014875322 -0.018300802 0.011552949
-0.021612486 -0.016056666 0.0023951961 0.016454523 -0.006945888 -0.009204744 8.044907e-05 -0.029257793
0.00068654 -0.0033136222 0.015673537 -0.024101222 -0.004385713 -0.016301617 0.0012062234 0.059422374
0.0036119954 0.010877084 0.016403237 0.021981172 -0.011385824 -0.0025953637 -0.01713232 0.0018331773
0.031112792 0.006622375 -0.008793669 0.017684044 -0.0042791157 -0.005760193 0.03473446 -0.008706329
0.0043347483 0.010779318 -0.03818108 0.0023891157 -0.033170555 -0.0056179357 -0.009367857 0.037871506
0.017929168 0.021126622 -0.011918373 -0.008348662 0.0026924976 -0.042661104 0.0028383567 -0.0046078726
-0.0067565627 -0.018707993 -0.0011722806 0.02761624 0.03097701 0.010038954 -0.00537343 -0.013721562
-0.04136923 -0.0155699905 0.02771959 0.01133511 -0.004973516 0.0033651462 -0.028645422 -0.0070394482
-0.010338882 -0.013767396 -0.00055488246 0.0034354664 0.0066437335 -0.01230265 0.01822895 -0.043139063

head.conv.bias f4 [32]
00000000: b694 163e 7c65 a43d 21f7 263e ec74 dbbd
00000010: 381b 3dbd 73ad 13be 60da d53c 2908 d13d
00000020: 26ba 5dbd b5e1 60bd 0030 393e e87b 853d
00000030: bf01 9a3d c4d5 8a3d f741 ac3c e07a 13be
00000040: 1353 c03d 4b69 25bd f6c3 cd3d c774 873c
00000050: aaed 463e a0f9 af3d 9457 4f3d 21aa 293d
00000060: ec12 113c 4d96 a93d 0de5 90bd 9f60 a9bc
00000070: 39e4 b63b ecbf 393e 9786 9e3d d95e 873c
0.14705166 0.08027169 0.1630521 -0.107156605 -0.046168536 -0.14421634 0.026105106 0.102066346
-0.054132603 -0.05490275 0.18084717 0.06517774 0.07519864 0.06779054 0.021027548 -0.14402342
0.09390845 -0.04038362 0.10047142 0.016535176 0.19426599 0.08592534 0.05062063 0.041422013
0.008854609 0.08280621 -0.07074938 -0.020675955 0.0055814055 0.18139619 0.07740515 0.01652472

head.norm.weight f4 [32]
00000000: e844 823f 6180 813f a5f8 793f 6ccc 823f
00000010: 7d09 823f 2e89 793f 2135 803f ae12 803f
00000020: 847b 823f 671c 7b3f 06b1 7f3f 15eb 783f
00000030: 0db8 7d3f cb1b 783f 310a 7e3f 9220 803f
00000040: 4314 7d3f ec58 813f 3661 803f e373 803f
00000050: a7d5 7b3f d2c1 813f 8005 7a3f adb5 7d3f
00000060: 1f93 813f 5eaf 7b3f cc1f 783f a637 753f
00000070: 91c4 803f 38ec 823f f75d 7a3f 03ac 783f
1.0177279 1.0117303 0.97645026 1.0218635 1.0159146 0.97474945 1.0016214 1.00057
1.0193944 0.98090214 0.9987949 0.97233707 0.99108964 0.9691741 0.992343 1.000994
0.9885904 1.0105262 1.0029666 1.0035366 0.9837288 1.0137274 0.9766464 0.9910534
1.0123023 0.98314464 0.9692352 0.9578804 1.0059987 1.0228338 0.9779963 0.9713747

head.norm.bias f4 [32]
00000000: 7b35 e0bc 39a4 d7bc 859f 33bc 442c e23b
00000010: 7b09 eabc e82a 2d3b 77db d1bc d7dd 41bd
00000020: 31c9 08bd 1598 a3bb df3c 793c 8b6b 0cbd
00000030: e2fd 31bc db49 583b fe37 043c f975 02bc
00000040: de24 2dbc 12b3 91bc ba20 1a3c 1a48 063c
00000050: 5cf9 6e3c dfcb e73a 1935 acb8 ccb9 52bb
00000060: 3a95 25bd 14bb 01bd effb 39bb 3737 d6bc
00000070: 5062 abbc 12ff 09bd 62d2 7bbc 5c57 c1bc
-0.027369251 -0.026323425 -0.010963325 0.0069022495 -0.028568974 0.002642328 -0.025617344 -0.047330704
-0.033394996 -0.004992495 0.015212267 -0.03428225 -0.010863753 0.0033003006 0.00806999 -0.007962697
-0.010567872 -0.017785583 0.009407217 0.008195901 0.014585819 0.001768466 -8.211489e-05 -0.00321542
-0.040425517 -0.031672552 -0.0028378924 -0.026149375 -0.020920902 -0.03369052 -0.015369983 -0.023601227

head.norm.running_mean f4 [32]
00000000: 3fe3 163e 12c3 a23d e168 273e 827f ddbd
00000010: 0148 3fbd 5a6d 12be 7900 ca3c 9a7e d23d
00000020: 3e0d 60bd f1f5 61bd d18e 393e 38dd 813d
00000030: fb16 993d e82c 8c3d c453 a03c 5c49 10be
00000040: 2072 c33d dd6f 25bd deeb cb3d 1c32 8a3c
00000050: 5879 473e 17b6 b03d 985e 4f3d f742 323d
00000060: 90d7 0b3c 2ae4 a83d 9ce9 8ebd 45cd abbc
00000070: fa7d dd3b e91f 383e 7233 9d3d 61d3 913c
0.14735125 0.07947363 0.16348602 -0.10815336 -0.046699528 -0.14299527 0.024658429 0.102780536
-0.05470013 -0.05516619 0.18120886 0.06341022 0.07475086 0.06844503 0.019571193 -0.14090484
0.09543252 -0.040389884 0.099570975 0.016869597 0.19479883 0.08628481 0.05062732 0.043520894
0.008535281 0.08246644 -0.06978151 -0.020971904 0.0067594023 0.17980923 0.07675828 0.017800989

head.norm.running_var f4 [32]
00000000: dbda 393c cdac 093c 0ccb af3b 5a6b 983b
00000010: cd7b 903b 1789 8d3c 07c0 ff3b 64bc 173c
00000020: 5e3a 003c 25de 893c 448b e63b c1d5 263c
00000030: 00c1 1c3c cf85 9a3b ed00 093c 0912 5f3c
00000040: 74d7 043c 88f9 f33b 982f 053c 80c4 4b3c
00000050: aa81 873c 4569 273c 4705 7b3b af6f 3e3c
00000060: 3aa9 143c c672 f13b 5955 ba3b 714c e23b
00000070: 05fe e43b e166 c43c 5788 e13b 6337 cf3b
0.011343683 0.008403015 0.0053647812 0.004651469 0.0044092895 0.017277284 0.007804874 0.009261224
0.007826416 0.01682956 0.0070356447 0.010182799 0.009567499 0.0047156583 0.008362037 0.01361514
0.008108009 0.007445518 0.008129023 0.012436986 0.01654132 0.010217969 0.0038302706 0.011623307
0.00907355 0.0073684184 0.0056864438 0.006906085 0.0069882893 0.023974838 0.006882708 0.0063237413

body.block1.conv.weight f4 [32, 32, 3, 3]
00000000: cc3f e4bb a0cd b63c a10b 823c 3f98 87bc
00000010: 1d37 663c 2fbb 9c3a f20f 7c3c 5ad9 16bc
00000020: 0aa2 e4bc baba 883b eef4 963c d849 d03c
00000030: 4f9e b9b9 9f17 9cbc b9ab 48bb 57bb b03c
00000040: 89a4 f7bc c69f 6dbc a7e2 50bb 6450 90bc
00000050: 732c 223d b52b 083c 2bad abbb c2ec ccbc
00000060: b4a7 803c 9ac7 14bc 79e5 dd3c 2e03 873a
00000070: 369a 8b3b 6cfd af3c 7186 e8ba 99b4 e3bb
00000080: 0d09 ab3c 838c b23c bd2d 22bd 97aa abbb
00000090: f786 5dbc 7d3a ca3a 1e6e 8d3b 4476 573c
000000a0: b3df 98bc 3ce2 9cbb 3b8b 723b 8626 4d3c
000000b0: 0c20 6dbc 62c8 4c3a c259 30bd c750 513c
000000c0: a311 3c3b 5687 163b 60af 00bb 4aff 903b
000000d0: bb3b fb3b 6ac9 05bd 5a3c aebc 7f2c 153b
000000e0: 22a8 fd3c 2471 ecbc 1c78 7d3c 1022 9bbc
000000f0: d1b8 2c3c ce4c 2a3c a8b3 2bbc f37b 773b
00000100: e8f7 ee3c 0c71 edbc 2b0f a33c 55af 1b3d
00000110: 6258 39bc 6cee 87bc 98ef 4abc 83f4 b6b8
00000120: 8611 8cbb e648 38bd 4ff9 0a3c 77dd 97ba
00000130: 170d d0bc c059 10bd 7397 243b 19a2 e63a
00000140: aa91 e139 abfa 853a e570 fabb f65b 0cbc
00000150: 0025 1b3d 0671 edb9 922d 3f3b fad1 eaba
00000160: 3081 803b c520 963b e780 7c3c 2e18 ec3c
00000170: 8060 f93c 1ae0 2a3a 5459 e83c 8cd0 5e3c
00000180: 5cb7 3b3c bbf8 00bc 631d 0ebc 0bf7 4cbc
00000190: 47db af3b 9f3a e1bc e8a0 8abc 0789 913c
000001a0: 33ee 93bb def2 953c abc3 863c 5dd5 e2bb
000001b0: e458 933b 6e35 e4bb b195 c23c 4313 2e3d
000001c0: e39d 353c 515c df3b cb9d cf3c c321 6ebc
000001d0: deb2 c4bc 0498 ba3c 90bc bf3b 83c6 523b
000001e0: a2c4 063d db80 803c 4662 0a3d fb94 023c
000001f0: 4b81 aabb ccf3 8a3b bef9 7abc 8514 bfbc
00000200: 087f 6b3b deb4 993c ffa5 e4bc 83d3 3e3c
00000210: 5edf 5ebb 400e aabc 6d33 12bc a7ad 3dbc
00000220: 887a e0bb 8b05 50b9 ba2f 913c 3440 bcbb
00000230: e623 933c 3dd4 23bc 912c 9bbc 9620 073b
00000240: 59b3 c43b ac54 0fbd f91b 0dbc f1ab 953b
00000250: e7a7 dd3c a853 21bd 57f4 b1bc 2a9b 253d
00000260: 25af 0d3d 41b3 c83b c94a 183c 3e48 61bc
00000270: 128e 9fbc 3ef5 623c 4c97 25bc 13fc 743d
00000280: d4f9 1bbc 9612 2dbc 7b48 2abd 2c4b 933c
00000290: a91d 123c 2fa2 edbc f98c 403d f5b0 13bd
000002a0: 1c46 203b d94f 6f3a 7eab 71bc e9d1 9dbb
000002b0: 5cf4 653a d2d6 83bb 5d78 abbc d8df 02bc
000002c0: 58b6 bcbb 5ceb f33c 6047 403c 89d1 103d
000002d0: ee26 2a3d 5795 3bbd 4130 f43c fcc1 d4bb
000002e0: bb3a 6c3b a44c 4cbc 8665 f33c bbd2 f83b
000002f0: 790a 9b3a f705 b2bc 98ba de3c 53c9 2b3c
00000300: 8b87 96bc bc2c 23b9 a21b bcba 8aa6 093d
00000310: b9c8 51bd d93c 15bc 97c9 323c 6c41 c3bc
00000320: d90f cebc 43db ac3a 3aaa 043d f670 b03c
00000330: 1eb3 173c 8d2c 023d ec86 1a3c 3cf7 833c
00000340: edfc 4ebb 9e1b 82bc f234 923c 6073 9c3c
00000350: 2de0 33bd bf0c d4bc b7fd 3a3c b2ad 6d3c
00000360: 7fd0 153c 53e0 e43c 1d4f bd3c 2d3d d23c
00000370: a8c3 c3bc 2b08 fc3c f0ec f73c e844 99bc
00000380: a526 2d3c e6dd 9e3b 8039 77bb 3a9c 9c3a
00000390: 8040 46bb 5ff8 053b d3e5 79b9 ab6e d13c
000003a0: 1012 37bc 8a76 b9bc bc72 fa3c bfa6 d53b
000003b0: 00ad 3f3c a85a f73c d3b2 233c b710 453c
000003c0: 13e8 91bc 91c2 7f3c ec19 3f3c c608 843b
000003d0: 968f 9cbc 42a3 3b3c 28fe bd3b 7f37 a83b
000003e0: c179 023c 4871 a13c d955 8a3c 7397 4bbd
000003f0: ed35 cdbc 786e ccbc 7d26 64bc cffc 843b
-0.006965613 0.022314847 0.015874686 -0.016552089 0.014051226 0.001195764 0.015384661 -0.009207094
-0.027909297 0.00417265 0.018427338 0.025425836 -0.000354039 -0.019054232 -0.0030619933 0.021573706
-0.030229824 -0.014503425 -0.0031873377 -0.017616458 0.03959317 0.008311202 -0.005239149 -0.025015239
0.015704967 -0.009080792 0.02708696 0.001030063 0.0042603267 0.021483146 -0.0017740262 -0.006949019
0.02087834 0.021795517 -0.0395944 -0.0052388418 -0.013520948 0.0015428808 0.0043161055 0.013150755
-0.018661356 -0.0047877114 0.0037009257 0.012521392 -0.014472973 0.0007811842 -0.04305435 0.0127756065
0.0028697036 0.002296885 -0.0019635782 0.004424964 0.0076670325 -0.032662787 -0.021269012 0.0022762117
0.030963961 -0.028862543 0.015470531 -0.01893714 0.010542111 0.010394288 -0.010479845 0.0037763088
0.029170945 -0.028984569 0.019904694 0.038009007 -0.011312576 -0.01659318 -0.012386225 -8.72398e-05
-0.00427455 -0.044991396 0.008482291 -0.0011586387 -0.025396867 -0.035241842 0.0025114685 0.0017595916
0.00043023872 0.00102218 -0.0076428526 -0.008566847 0.037877083 -0.00045288372 0.002917145 -0.0017915361
0.0039216504 0.004581543 0.015411592 0.028820124 0.030441523 0.0006518379 0.028362907 0.013599526
0.0114572905 -0.007871802 -0.0086739985 -0.0125100715 0.005366716 -0.027493773 -0.01692243 0.017765535
-0.0045144795 0.018304285 0.016450724 -0.0069224075 0.0044966806 -0.006964377 0.023753019 0.04249884
0.011085006 0.006816425 0.025343796 -0.014534417 -0.024011072 0.022777565 0.005851336 0.003216178
0.032902367 0.015686443 0.033785127 0.00797009 -0.005203401 0.0042404886 -0.015318332 -0.023325214
0.003593387 0.018763002 -0.027911184 0.011647108 -0.003400765 -0.020758748 -0.008923394 -0.0115770465
-0.0068505444 -0.0001983849 0.017722953 -0.0057449583 0.017961454 -0.009999332 -0.01894215 0.0020618788
0.006002825 -0.03499286 -0.008612626 0.004567616 0.027057601 -0.03938642 -0.021722956 0.04043118
0.03459086 0.0061248844 0.009295174 -0.013750134 -0.019476924 0.013852416 -0.010106873 0.05981071
-0.009520013 -0.010563513 -0.04157303 0.01798018 0.008918204 -0.029008 0.047009442 -0.03605743
0.002445585 0.00091290247 -0.01475036 -0.004816283 0.0008772069 -0.0040234113 -0.020931417 -0.007987939
-0.0057590418 0.029775314 0.011735767 0.03535608 0.041541032 -0.04579672 0.029808166 -0.0064928513
0.0036045748 -0.012469444 0.029711496 0.0075934804 0.0011828683 -0.02173136 0.027188584 0.010485011
-0.018375179 -0.00015561556 -0.0014351497 0.03360609 -0.051216815 -0.0091087455 0.010912321 -0.023834907
-0.025154041 0.0013187904 0.032388903 0.021538239 0.009259013 0.03178077 0.009431582 0.016109101
-0.003158386 -0.01588231 0.017847512 0.019097984 -0.043914963 -0.025884984 0.011413029 0.014506744
0.009143948 0.027938997 0.023109013 0.025663937 -0.023897007 0.030765614 0.030264348 -0.018709615
0.010568296 0.0048482297 -0.0037723482 0.0011948415 -0.0030250847 0.002044223 -0.00023832107 0.025565466
-0.01117374 -0.022639532 0.030572288 0.006520122 0.011698961 0.030194595 0.0099913655 0.012027911
-0.017810857 0.015610353 0.011663895 0.004029366 -0.019111436 0.011452498 0.00579812 0.005133569
0.007963599 0.019707337 0.016886638 -0.04970498 -0.025050128 -0.02495502 -0.013925192 0.0040584574

body.block1.conv.bias f4 [32]
00000000: 0db1 ea3c dc0a 123c 1fd1 f63c 1427 21bd
00000010: c2bb 16bd 1fcf da3c 251e 393b 4639 1abc
00000020: 136c dfbc 2c52 353d b162 203d abc1 43bd
00000030: 0b1c 3ebc 028e 42bc 83ee 213d ea89 e0bc
00000040: b357 413d 7ec0 3bbd f772 823c b3ca 2bbd
00000050: 49dc 193d df06 55bd 70ba febc 16c2 debc
00000060: 458d de3c 4957 9bbc 17ea a93c 4c64 e6bc
00000070: c347 9cbb 040c 273b 7d4e 04bd 6cce 293a
0.028648878 0.008913722 0.030129014 -0.03934391 -0.036800154 0.026710091 0.0028246727 -0.009413069
-0.027273213 0.04426782 0.03915662 -0.047792118 -0.011603366 -0.011874678 0.039534103 -0.027409513
0.047202777 -0.04583787 0.01592396 -0.041941356 0.037563596 -0.052008506 -0.03109476 -0.027192157
0.027166972 -0.01896252 0.020741506 -0.028123997 -0.004769297 0.002548934 -0.032301415 0.00064775976

body.block1.norm.weight f4 [32]
00000000: 952e 7a3f d467 723f eb86 793f 9182 763f
00000010: 6e5e 7c3f ba0c 853f 9af9 803f f21a 7f3f
00000020: 31b5 7f3f b43a 853f 7d67 803f 2e8b 7a3f
00000030: c4c9 803f 9c1b 7e3f 32fc 833f c5d5 803f
00000040: 56a2 7b3f 99b5 833f 5a9b 7a3f 750e 7a3f
00000050: f6f7 7b3f 4265 853f 871e 813f d822 793f
00000060: cb24 813f e268 833f 1654 833f 2756 7e3f
00000070: 7672 803f 86a4 833f 53c3 713f 51c3 823f
0.9772733 0.9468968 0.97471493 0.9629298 0.9858159 1.0394509 1.0076172 0.9965049
0.9988585 1.040854 1.0031582 0.9786862 1.0061574 0.9926088 1.0311339 1.0065237
0.9829458 1.0289794 0.978933 0.9767831 0.98425233 1.0421526 1.0087441 0.9731879
1.0089353 1.0266383 1.0260036 0.9935021 1.0034931 1.0284584 0.94438666 1.0215856

body.block1.norm.bias f4 [32]
00000000: 7fa6 aebc b3c9 1fbd 2085 81bc 3ac2 7bbc
00000010: 5631 d9bb c6cf b9bb 9f3b 9ebb 910b bebb
00000020: 7df9 17bc 395f 9fbd fa08 cd3b 89d7 483b
00000030: 4941 d7bb 121c 64bc 1ca0 c6bc 8aff 32bc
00000040: 84bc cdbc 3e06 deba 9afe d2bc c9ca 15bc
00000050: 15f0 acbc 2088 70bc f3d9 46bc 70de a7bc
00000060: f1e9 5abc 16e9 183a 3dca 1ebb 19f4 bbbc
00000070: 4499 9bbc 89db c5bc 3bbf 8fbc e0c2 173b
-0.021319626 -0.039010715 -0.01581055 -0.015366131 -0.0066281958 -0.0056705205 -0.0048288847 -0.0057997187
-0.009275791 -0.07781834 0.0062571736 0.0030646047 -0.006569062 -0.013922708 -0.024246268 -0.010925183
-0.025114305 -0.0016939116 -0.02575617 -0.009142586 -0.021110574 -0.014680892 -0.012136924 -0.020491809
-0.01336144 0.00058330724 -0.002422943 -0.022943543 -0.018993981 -0.024152534 -0.01754724 0.0023156926

body.block1.norm.running_mean f4 [32]
00000000: 883d 3c3e 563c 9e3d 7f9a 993d d184 8ebd
00000010: 4c15 6fbe 4166 e3be ec6f 193c a3d0 91be
00000020: c549 00be 0138 883d acfe 9bbd 8b8b 363c
00000030: fae4 9f3e 9288 f73d 31e1 91bd 5884 b73d
00000040: d3ab b3bd d988 13bf 281a e23c 1b96 79bd
00000050: 2f4e 23bd 587a 04be 0a88 353d 078d 88bd
00000060: 24ae a83d cc9f afbc 1ae6 1dbe 9fe4 7f3e
00000070: 4079 563d 41b8 d7bc 550c 0ebe 6f24 0bbe
0.18382847 0.07726352 0.07500171 -0.069589265 -0.23347968 -0.4441395 0.009365063 -0.2847949
-0.12528141 0.06651307 -0.07616934 0.011141668 0.31229383 0.120865956 -0.0712303 0.089607894
-0.08773007 -0.5763069 0.027600363 -0.060934167 -0.039869484 -0.12937295 0.04431919 -0.06667524
0.0823634 -0.021438502 -0.15419808 0.24989556 0.052361727 -0.026332976 -0.13871892 -0.13588117

body.block1.norm.running_var f4 [32]
00000000: fff2 553d d958 943d 5bd9 cb3d 9c3e f33c
00000010: 5231 963d 6df1 c73d 87d8 9a3d 36b1 e33d
00000020: e2ce 013e 926c 9b3d 09a4 3e3d 8608 173d
00000030: 2fb0 7c3d eddc b93d b6c3 8c3d c299 813d
00000040: d270 733d 234a ff3d cc5d 8a3d bdd3 823d
00000050: 4ad7 213d 8ab1 ce3c a328 2d3d d510 bb3d
00000060: dc29 0b3d 5531 8b3d b6fe 543d dc65 5b3d
00000070: cd83 db3d 27a4 7b3d ce03 823d 9bec 393d
0.052233692 0.07243509 0.09953567 0.02969294 0.07333626 0.09762845 0.075608306 0.11117785
0.12676576 0.075890675 0.046543155 0.036873363 0.06169146 0.090753414 0.068732664 0.06328155
0.059433766 0.12465312 0.067561716 0.06388042 0.039511956 0.025231142 0.042275082 0.0913407
0.033975467 0.06796519 0.052000724 0.053563938 0.107184984 0.061435845 0.06348382 0.04539166

body.block2.conv.weight f4 [32, 32, 3, 3]
00000000: 00e0 fbbc 4dc8 8e3a 6bae 41b8 f6a8 883c
00000010: 4cf7 19bc d254 ad3b cd43 8fbc 749a ff3b
00000020: 6035 b5bc 4ef8 173d 5aa9 4fbc f886 3a3b
00000030: a1e3 88bc 75fb a8bc 876f d4bc dfa0 e0bc
00000040: b774 913c fcde 8cbc 5ee1 a2ba e604 4c3c
00000050: 2433 c1ba a592 6739 4066 cf3b 3bfa 1cbd
00000060: 0251 123b 51f4 33bc 6639 b63b cbeb acbb
00000070: 8e15 943a 08ca 3bbc 12a4 3e3c 737e 5d3c
00000080: 19f5 813b 92e5 8b3b 26b6 8f3c eb93 9c3c
00000090: c7a5 51bd c74e 113d 1392 ab3b 1ad0 3a3c
000000a0: 6526 25bd d3c8 95bc 9ab0 fa3c 6217 e43b
000000b0: 819d d63c b101 50bc c4d3 4e3d ca31 3439
000000c0: 53e4 a23b 8bbf 103d 7650 753c 4ef3 1c3d
000000d0: 604d 033d 4b0f 0d3d 7e73 b53b 170d 26bc
000000e0: 75dd 2bbc 564e 063c fdc8 b73b 6d6d 88bc
000000f0: 3a6e 7abc aadf c63c 9253 debc 986d 093b
00000100: b4af c9bb b9c9 013c c24f 3b3c 6370 c5bc
00000110: 83d4 e3bb 489d 21bc df35 743c b605 eb3b
00000120: 8cb7 383b 0dda 5ebb b788 a13c aedf 9abc
00000130: 79e8 da3b 0da7 693b 545a 12bc 6ea1 163d
00000140: 0029 c83c 837b 2bbb 078f c4bb 3d4a 223c
00000150: cbdd dbbc 381e 6fbc 8e35 0b3c 16ec 04bd
00000160: 6312 2d3b c174 f23b dc4d ebbc 7f87 b3bc
00000170: 8a20 95b9 d655 dc3a 30bd 2d3d b613 833d
00000180: 8ade 663d e06f 553c 421e 903b 0ea2 69bb
00000190: 9050 333b d5ee 30bc 6ca5 75bc 83f8 19bc
000001a0: e3df c9bc 95d9 8dbc 474c 62bc 7427 95bc
000001b0: 81b8 b6bc 93ef bf3b 9235 c9bc 778b a13b
000001c0: 47f9 ee3b b377 e9bc 8de4 edbb c17f b83c
000001d0: 6a7e 0abd 18d7 f33b b6f7 c93c be84 b23c
000001e0: 1ea2 8d3c 246b 25bd b4f6 9fbc 59d8 4a3b
000001f0: 17e9 e0bb 221d 173c 991c fcbb b8ed f23c
00000200: f289 8cba 8c6d a1bc c448 c83c bcce 20bc
00000210: 7c4b 453c c5d1 c8ba 7283 d63c 94a5 c53c
00000220: f9b1 55bd ef15 053d e833 d6bb d15b 013c
00000230: 53ea 383c 081a 74bb 5185 00bc 7729 d9bc
00000240: 5e2c f2bc 3554 7fbc 5d04 123d 2471 bf3c
00000250: 718b 423c 2f79 c93c eedb 133d 04a8 043c
00000260: aaef b93c 97ed 9fbc 5e1c d83b aaa6 37bc
00000270: 73c2 25bb 38d0 05bd dacb 94bc 6dc6 533b
00000280: d53b 1b3b eec8 e83c 4ee3 4ebc f345 82bc
00000290: 13cb 253c 3823 59bc e0cb 533c 7ad6 6e3c
000002a0: 05a6 533c d697 263d 68e6 ceba 9793 543c
000002b0: b60c d03b 448f 8cbc 7ceb 073d 4f6b debc
000002c0: 946f 03bd 15d8 b1bc e747 b23c 8ed5 923c
000002d0: 3f65 64bd e485 17bc 0f17 a8bc e050 12bd
000002e0: ab3c 74bc bf55 28bc aba2 993c d3ba a73b
000002f0: 7fce 87bb d1ee 5bbc 6460 6dbb c0d8 afba
00000300: 08f5 54bd da14 15bc e040 7abc 98d3 17bb
00000310: 210a c73c bb62 fbbc b816 adbc dece 053c
00000320: b099 51ba 28a2 9b3b 176c 16bc 4544 643c
00000330: 36dc 11bc 1d04 babb 527e 543b c6aa b6bc
00000340: b086 9a3c 6ecf 1fbd a94c 003c 54a6 96bc
00000350: 66e6 f6b9 0c85 313b a9dd 713d e203 9bbc
00000360: e220 0abc 49e4 6abc 5620 e43b 06d7 ef3b
00000370: 15d1 4a3c 8e40 ccbc f1d7 953b f6bc 29bb
00000380: 29bb 94bc 558b 28bd 95fb b1bc d801 1ebc
00000390: 598d 85bc f5a2 8d3c df9b 64bc 1233 20bc
000003a0: 2ece 7fbc 5ace be3b 5e8c d43c 2672 853b
000003b0: f9bd 9cba 0d9d 2d3d 2999 25bc 43f8 24bc
000003c0: d141 863c 90dc 9b3c 7f8d 253d de3d 623c
000003d0: 4a44 923b d924 9cbc 10a6 88bb f2ed 153b
000003e0: 6b4f f83b ee35 92bc 22a9 8a3c fef6 233b
000003f0: 163c 993b a43d 66bc be57 b5bc 2061 1abc
-0.03074646 0.0010893435 -4.6177225e-05 0.01668213 -0.009397339 0.0052896524 -0.017488385 0.0078003947
-0.022120178 0.037102036 -0.012674654 0.0028461795 -0.016710104 -0.020627717 -0.025932087 -0.02742046
0.01775585 -0.017196171 -0.0012426784 0.01245234 -0.0014739973 0.00022084506 0.006329328 -0.038324576
0.0022326116 -0.010983543 0.0055610416 -0.005277132 0.0011297928 -0.011461742 0.011635797 0.013518917
0.0039659855 0.0042693103 0.01754291 0.019113502 -0.05118349 0.03547552 0.0052359193 0.011402154
-0.04031982 -0.018284237 0.030601788 0.0069607953 0.02619815 -0.012695716 0.050494924 0.00017184686
0.004971066 0.03533892 0.014972797 0.03831797 0.032056212 0.034438413 0.0055374494 -0.010134957
-0.010489811 0.008197388 0.0056086765 -0.01665374 -0.015285069 0.024276573 -0.027139459 0.0020969864
-0.0061549786 0.00792163 0.01143259 -0.024101442 -0.0069528236 -0.009864159 0.014905422 0.0071723117
0.0028185574 -0.003400448 0.019718511 -0.018905487 0.006680545 0.0035652549 -0.008932669 0.036775045
0.024433613 -0.0026166148 -0.0059984955 0.009905395 -0.026839158 -0.014594607 0.008496655 -0.03245171
0.0026408664 0.007399172 -0.02872365 -0.021915196 -0.00028443738 0.0016810249 0.04241675 0.06400244
0.056364574 0.013027161 0.0043981383 -0.003564957 0.0027361251 -0.0107991295 -0.014993053 -0.009397629
-0.02464289 -0.017315665 -0.013812131 -0.01820729 -0.022304775 0.005857417 -0.024561677 0.0049299556
0.0072929 -0.02849946 -0.0072599114 0.022521855 -0.033811964 0.0074414127 0.02465425 0.021791812
0.017289218 -0.04038538 -0.019526817 0.0030951707 -0.006863724 0.009223254 -0.007693839 0.029654369
-0.0010722263 -0.019705556 0.02444876 -0.009814914 0.012041923 -0.0015321305 0.026185725 0.024126805
-0.05217168 0.03249162 -0.0065369494 0.007895426 0.011286336 -0.003724696 -0.007844285 -0.02650903
-0.029562172 -0.015584041 0.035648692 0.02336938 0.011874066 0.024593918 0.036098413 0.008096699
0.022697289 -0.019522471 0.0065951785 -0.011209169 -0.0025292903 -0.032669276 -0.01816361 0.0032314316
0.0023686786 0.028416123 -0.012627436 -0.015902495 0.010119217 -0.013253026 0.012927026 0.014577502
0.012918 0.040672146 -0.0015785219 0.012974641 0.0063491715 -0.017158158 0.03318356 -0.027150778
-0.03208883 -0.021709481 0.021762801 0.017924096 -0.05576062 -0.009248231 -0.020518808 -0.03572166
-0.0149070425 -0.01027435 0.018754324 0.0051187067 -0.0041444893 -0.0134236375 -0.0036220783 -0.0013416037
-0.051991493 -0.00909921 -0.0152742565 -0.0023166891 0.024296822 -0.030686727 -0.021128997 0.008166997
-0.00079956185 0.004749555 -0.009181044 0.013932292 -0.0089026 -0.00567676 0.0032423926 -0.022298228
0.018863052 -0.03901618 0.007830777 -0.018389858 -0.00047092437 0.0027087359 0.059049282 -0.01892275
-0.008430691 -0.014336654 0.0069618626 0.007319334 0.012378951 -0.024933126 0.0045728614 -0.0025899983
-0.018155651 -0.041148502 -0.021726409 -0.009643994 -0.016302751 0.017289618 -0.013953178 -0.009777801
-0.015613122 0.005822939 0.025945839 0.0040724454 -0.0011958472 0.042386103 -0.010107317 -0.010068956
0.016388806 0.01902607 0.040418144 0.013808696 0.004463707 -0.01906054 -0.004170187 0.0022877422
0.0075778267 -0.017847981 0.016926352 0.0025019045 0.0046763523 -0.014052782 -0.022136565 -0.0094225705

body.block2.conv.bias f4 [32]
00000000: ddd7 133c 8782 99bc 3b25 893c 4284 b13c
00000010: f02a 73bd c6fb 9cbc 471a 0fbd 778d c3ba
00000020: 32e7 b6bb 8a66 b73c 9cfa 263c 6402 553d
00000030: 794f 4fbd a8c9 023d a11c 45bd 8f4c f5bc
00000040: 066b 183d db77 713d 5c77 c13c 215f 12bd
00000050: 75fb 5abd 1af7 393d 0260 353d ede8 143d
00000060: 3115 dbbc ceb9 7d3c bb3f 253d 0e07 a43a
00000070: 38e5 34bd 5363 5b3c 1d98 853c f5ac 393d
0.009023634 -0.018738998 0.016741386 0.02166951 -0.05936712 -0.019163024 -0.03493717 -0.0014919479
-0.00558176 0.022387762 0.010191586 0.052004233 -0.0506129 0.031930596 -0.048123006 -0.029943733
0.03721144 0.058952194 0.023616485 -0.035735253 -0.053462464 0.04540167 0.044281013 0.036354948
-0.026743503 0.015486194 0.04034398 0.001251431 -0.044163913 0.01339038 0.016307885 0.04533096

body.block2.norm.weight f4 [32]
00000000: 410e 863f 8ad3 793f 4231 833f 2d7b 823f
00000010: d257 763f 9d62 803f eeff 7a3f 1a12 7c3f
00000020: 7802 783f 1475 7c3f 2050 813f 5653 833f
00000030: ba7e 793f 8822 7a3f f93b 813f 6443 823f
00000040: c04f 833f dc6f 7b3f 9ab9 813f 3314 7c3f
00000050: ac5f 7d3f c625 823f c912 7e3f 2993 7c3f
00000060: dfe1 773f 4561 753f 06b7 7e3f 723e 813f
00000070: 6c03 703f 8029 833f 9b7b 843f 45e9 813f
1.04731 0.9758841 1.0249407 1.019384 0.96227753 1.0030094 0.9804677 0.9846512
0.96878767 0.9861615 1.0102577 1.0259807 0.97458994 0.9770894 1.0096427 1.0176816
1.0258713 0.9821756 1.0134766 0.9846832 0.9897411 1.0167778 0.99247414 0.9866205
0.96829027 0.95851547 0.9949802 1.0097182 0.9375522 1.024704 1.0350221 1.0149313

body.block2.norm.bias f4 [32]
00000000: fede efbc 8062 34bc 5ed2 7c3a 369c 12bc
00000010: ac6d b9bc c143 2f3b 3ec2 ddbb b4b0 263c
00000020: 5a79 16bd b83a f8bc 5eca 33bd 5e61 c43c
00000030: 6ba0 50bb 8d83 1fbd 8781 1ebc 2898 eabc
00000040: 635d 8cbc e866 65bc f162 563c 4980 b0bc
00000050: 85f3 10bd bf22 a7bc 7a1b d7bc 4793 debc
00000060: 2820 d5bc 1f8f 28bc 63fc 1abd bc71 dabb
00000070: 4bfe cfbc 4ad6 e8bc d3da d3bb 0c34 4fb8
-0.029281136 -0.011009812 0.0009644384 -0.008948376 -0.022635303 0.0026743265 -0.0067675402 0.010173965
-0.036736824 -0.030301437 -0.043894164 0.02397221 -0.0031833898 -0.038943816 -0.009674436 -0.028637007
-0.017134374 -0.014001586 0.013085113 -0.021545546 -0.03538849 -0.02040231 -0.026258219 -0.027169837
-0.02601631 -0.010288029 -0.03783835 -0.00666639 -0.025389811 -0.028422493 -0.006465295 -4.940112e-05

body.block2.norm.running_mean f4 [32]
00000000: a8d7 f7bd b643 553d d732 213e f118 6dbe
00000010: 86cb 443e 8094 47be d666 193d 2e1f 00be
00000020: fccd 8b3e 6a7c 9ebc 182e 91bc ae09 8dbe
00000030: 6eb4 acbd dfaf 1d3e 31dd e3bd ef8c 94be
00000040: c5d5 30bd 66b8 4f3d ced6 48bd 391e b8bd
00000050: 49bf d4bd 0f7f 7bbd b215 d43d cab6 6f3d
00000060: dc21 18be 2793 74be 851e 5cbe da84 993d
00000070: 0204 1dbd d80b 593e 4b24 29be 997c 363e
-0.1210168 0.052066527 0.1574205 -0.23154046 0.19218263 -0.19490242 0.037451588 -0.12511894
0.2730559 -0.019346435 -0.017722175 -0.27546448 -0.08432852 0.15399121 -0.11126173 -0.29013774
-0.043172617 0.050712965 -0.04903298 -0.089901395 -0.10388047 -0.06140047 0.103557006 0.05852393
-0.14856666 -0.23884259 -0.21496017 0.074960425 -0.0383339 0.21195924 -0.16517751 0.17820968

body.block2.norm.running_var f4 [32]
00000000: 6db7 cc3d 7eb9 f13d 9f5e 883d 755c 9d3d
00000010: c52c 853d 7e4e 1b3d 770c 4f3d 2d6e 3e3d
00000020: 6b00 573d ba3d 963d de73 643d fa56 473d
00000030: 2fc0 863d 883c 823d 4de4 6b3d 8223 743d
00000040: 9288 913d b1eb 893d 38ce 383d f241 343d
00000050: c286 833d b62b c93d 3b91 943d 8766 2e3d
00000060: f2af 6a3d d4b3 7f3d 3cd5 463d 77d7 803d
00000070: ef45 473d b551 413d f185 b53d 2607 853d
0.09995923 0.11802958 0.066586725 0.076836504 0.0650268 0.037916653 0.050548997 0.04649179
0.052490633 0.07335992 0.055774562 0.04866693 0.06579625 0.06359202 0.05759077 0.059604175
0.07106127 0.06734408 0.04511854 0.044008203 0.064221874 0.0982279 0.07254263 0.042578246
0.0572967 0.062427357 0.0485432 0.06291097 0.04865068 0.047197063 0.08863438 0.06495504

body.block3.conv.weight f4 [32, 32, 3, 3]
00000000: 0436 cabc a684 8a3c 6f7a dabc 7c46 0b3c
00000010: 2026 823c 9543 283c 2dd8 f13c 2444 0d3d
00000020: 7a01 013d 6998 183c 6973 ac3b a937 92bc
00000030: dd62 663c b8a9 b03c 3eda bcbb 8715 4f3c
00000040: 79b7 d63c a9cd 1fbc a729 903b 185b c93b
00000050: 9746 d5bc 7ba9 9ebc 8157 0cbc 868a 77bd
00000060: dbb7 f33b 4c47 c4bc a1c7 60bc 7fa7 7ebc
00000070: ebce b43b 22a8 833c 9cfd 833c 00fe cb38
00000080: 1ad5 053c a0bc 9a3c 22a5 59bb 6da7 edbc
00000090: 6892 d2bb b158 fcbb 910b 8a3c f147 23bd
000000a0: 14c7 b5bc 1d2f 9bbb 9c6e 8fbb 73dd ffbb
000000b0: d17c 583b 0822 8dbc 31c3 21ba b4f0 a63c
000000c0: 6e26 52bc 2d19 b1bc 8d32 4e3d be50 63bb
000000d0: 01a3 9dba 028f 823c dc3f 293c 7012 9bbc
000000e0: 82a3 cebc 9924 573c 67b2 aa3c ac36 6fbc
000000f0: 3b0e 1dba 9a5a c53b 0bea 84bc 8645 c7bc
00000100: f9b6 2ebc 4a78 88bc 74dd f13c 1ab0 cabc
00000110: 1976 1dbd ec9f 0fbd f8a2 283d f5f4 24bd
00000120: a8fe 9dbc db42 01bc 2524 643c 335b 59bb
00000130: 5f29 823c 95c0 95bc 5c5e b83c a8ab a63c
00000140: ca74 ea3a 6abb be3c 83ae 83bc 6d19 48bd
00000150: c44f 1cbc be7e 0dbc e799 00bd 61de 063d
00000160: 3741 5ebc 134e 073c 1f14 943c 94c7 abbc
00000170: a95b 943b b7ab 0b3c 1a5e 3abb f004 15bd
00000180: 5438 963c c44f 3e3b 4be0 cebc b642 1f3d
00000190: 7843 543b 1e91 30bb 8378 fe3c 54d9 2e3c
000001a0: 9d6b b0bb 183b 20bd 6e13 a9bc 3dcf cbbb
000001b0: 0b05 afbc 0f22 34bc cbcd 9f3b 85c3 6a3c
000001c0: 1dee 223c 7fdd 09bc 9ea1 19bd b7e4 09bb
000001d0: 421d ee3c 1bba 91bb ac02 923c 458f a9bc
000001e0: 06be 993b 4685 a9bc b170 92bc d05f 1cbd
000001f0: 34c9 6e3c a98b 0c3b b069 10bd aa04 01bd
00000200: 878d 88bc 6ce0 e53a 7586 de3b 9b23 de3c
00000210: d261 df3c c492 e8bb 3a1a 71bc 65ed d9bc
00000220: d669 d33c a3cb 653c c160 3fbd 1d75 53bb
00000230: fac4 4bbd 75fe 34bc 0ab8 953c af4d d6bb
00000240: b72c 813c c7b3 2bbb 6ab7 c53b 9fe3 0abd
00000250: 6446 01bc d3d3 42bc 0383 15bd 2ea1 a23b
00000260: 2b90 883c 0cb9 aabc a9d2 97ba 9197 85bb
00000270: b18e 3d3b bb68 dfbc 4f25 8ebc 7d52 2c3c
00000280: 0546 4bbc c900 bfbc 7b49 eeba 71ce d43c
00000290: 9c21 653c de1f b6bc b724 e8bb dcac 0abc
000002a0: 2b74 43bc 1060 f53c bacb 08bd c4b3 d9ba
000002b0: 7d77 9f3b fea9 b73c bd53 7a3b a0b6 adbc
000002c0: affe fe3c 86cb 9dbc 5984 efbc 1f6c cf3c
000002d0: 79bd f9bb f881 39bc 049f c5bc 751e 03bc
000002e0: 506a 4ebd ee86 473c 8c5e eb3c 95d4 acba
000002f0: 39cd 12bd 0359 a9bc 189d 9d3c 25e4 df3a
00000300: 002c 97bb 944e 6f3c 0bce 5b3c d6ca 39bc
00000310: eea6 b73c 2095 613c 2103 6fbd e0b3 353d
00000320: 872a 2abd bf10 adbc d8b2 033d 5c40 96ba
00000330: 1109 363d 196f 1b3d 3660 db3c 0e36 99bc
00000340: 4ee7 b3bc c137 ecbb 7252 8fbc f282 57b9
00000350: bad5 18bc cd64 c93c 7cb8 42bc b89c 38bc
00000360: 327e 8b3c 1dc7 cc3c cff5 7c3c 4d20 e63c
00000370: 2930 283c 7577 49bd 101f 39bc 7ab4 423b
00000380: 6ac2 333b e34b 50bb 93c0 00bd 1263 f2bc
00000390: ca28 f4bb 864d 453c ee86 25bc 6e29 043d
000003a0: d98b 273c 148d 0f3c b343 acbc a9ac 22bc
000003b0: 9b9a f13c 2b94 d0bb f56b d5bc d300 a33c
000003c0: d787 223d 5813 95bc d7b0 ef3c 17a4 693c
000003d0: e31e cfbb f305 b9bc b322 41bc 4e72 43bd
000003e0: 0e89 7b3b 1c5a 4cbb 14d8 3e3c 6368 053c
000003f0: 5956 81bc 47f1 413c d8b8 be3c ca34 9fbc
-0.02468396 0.016908955 -0.026669709 0.0085006915 0.01588732 0.010270019 0.029522026 0.034488812
0.03149555 0.009313681 0.0052627814 -0.017848806 0.014061657 0.021565303 -0.005763321 0.01263941
0.026210533 -0.009753623 0.0043994966 0.0061448924 -0.026034636 -0.019367924 -0.008565784 -0.06043484
0.0074376888 -0.023959778 -0.01371947 -0.015542864 0.0055178306 0.016071383 0.016112141 9.7271055e-05
0.008168483 0.018888772 -0.003321 -0.029010499 -0.0064261444 -0.0077010025 0.016851218 -0.03986353
-0.022189654 -0.004735841 -0.0043771993 -0.007808381 0.003303338 -0.017228141 -0.00061707484 0.020378448
-0.012826545 -0.02161845 0.050341178 -0.0034685577 -0.0012026728 0.015937332 0.010330167 -0.01892969
-0.025224451 0.013131284 0.020837022 -0.014600437 -0.0005991195 0.0060227634 -0.016224882 -0.024325144
-0.010663741 -0.01665892 0.029524542 -0.024742175 -0.038442705 -0.035064623 0.041171044 -0.04027267
-0.019286469 -0.007889475 0.013924633 -0.0033165931 0.015888868 -0.018280307 0.022505932 0.020345524
0.0017887589 0.023282725 -0.016074425 -0.048852373 -0.009540502 -0.008636175 -0.031396773 0.03292692
-0.013565353 0.00825836 0.018076 -0.02096919 0.0045275283 0.008524827 -0.0028437437 -0.036381662
0.018337406 0.0029039243 -0.025253436 0.03888198 0.0032388847 -0.0026941965 0.031063324 0.010671932
-0.0053839223 -0.039118856 -0.020639148 -0.006219773 -0.02136471 -0.010994448 0.0048768274 0.014328842
0.009944466 -0.008414625 -0.037507646 -0.0021040866 0.029066686 -0.0044472343 0.01782354 -0.020698199
0.004691842 -0.020693433 -0.017876001 -0.03817731 0.014574338 0.0021445549 -0.03525704 -0.03149859
-0.016669048 0.0017538196 0.006790931 0.027116587 0.027268324 -0.007097574 -0.014715726 -0.026602456
0.025807302 0.014025602 -0.04672313 -0.003226585 -0.0497484 -0.011046995 0.018276233 -0.0065400223
0.015768392 -0.0026199685 0.0060338276 -0.033908483 -0.007890318 -0.011891323 -0.036501896 0.004963062
0.016670307 -0.02084019 -0.0011583167 -0.004076906 0.0028924162 -0.027271619 -0.017351774 0.010517714
-0.012406831 -0.023315804 -0.0018179858 0.025977345 0.013985064 -0.022231992 -0.007084455 -0.008464064
-0.011929552 0.029953033 -0.033397414 -0.001660936 0.004866539 0.022419926 0.0038196885 -0.021205246
0.031127302 -0.019262087 -0.029237913 0.02532011 -0.007621464 -0.011322491 -0.024123676 -0.008002867
-0.050394356 0.012178166 0.028731607 -0.0013185913 -0.035840247 -0.020672327 0.019239947 0.0017081542
-0.0046133995 0.014606137 0.013415824 -0.011339864 0.022418465 0.013768464 -0.058352593 0.044360995
-0.041544463 -0.02112615 0.03215298 -0.0011463272 0.04444224 0.037947748 0.026779275 -0.018702533
-0.02196088 -0.007208795 -0.017495368 -0.00020552779 -0.0093283 0.024584198 -0.011884805 -0.011267833
0.017027948 0.024997288 0.015439465 0.028091574 0.0102653885 -0.04918619 -0.01129891 0.0029709623
0.0027429112 -0.0031783513 -0.031433653 -0.029588256 -0.0074511515 0.012042409 -0.0101029705 0.032266073
0.010226213 0.008761663 -0.021028375 -0.009928861 0.029492667 -0.0063653192 -0.026052454 0.019897854
0.03968033 -0.0181977 0.029259128 0.0142603135 -0.0063208207 -0.022585845 -0.011788058 -0.04771643
0.0038381252 -0.003118164 0.011648197 0.0081425635 -0.015788244 0.01183731 0.0232815 -0.019434351

body.block3.conv.bias f4 [32]
00000000: 6cda 0dbd adf8 a13b 8260 7abb 77db 4e3d
00000010: e24e 9fbb b420 58bc d3a3 f63c 5e7f 533d
00000020: 0235 493b 6c8c c0bc 3d57 cabc 2825 fb3c
00000030: 660a 973c 60d7 33bd 9293 893c fd32 d63c
00000040: a4fa 6bbc 8636 4f3c 408c a53b 6907 173c
00000050: 61d6 1e3d 279e 0a3d d36b 933b 28aa b6bc
00000060: 0581 06bc 1fab ca3c d25c bebc 45fe a8bc
00000070: b085 21bd 43b4 383d cfec 113d 903f 35bb
-0.03463213 0.0049429745 -0.0038204496 0.050502267 -0.0048616985 -0.013191391 0.030107414 0.05163514
0.003070176 -0.023504458 -0.024699802 0.030657366 0.018437576 -0.04390657 0.016794 0.02614736
-0.014403019 0.012647277 0.0050521195 0.009218075 0.038778666 0.033842232 0.0044989376 -0.022297934
-0.008209472 0.0247398 -0.02323762 -0.020629058 -0.039434135 0.045093786 0.03562623 -0.0027656294

body.block3.norm.weight f4 [32]
00000000: 7adb 843f a0f1 873f 6822 803f c133 763f
00000010: 0a6b 7e3f bccb 843f 3f79 843f 4815 803f
00000020: 7b44 793f 2f8d 7e3f 06b0 803f a8cc 7f3f
00000030: 71f8 833f 4f17 843f 13f5 833f d9cb 793f
00000040: c305 7f3f dcd8 833f bfcc 853f 2205 7a3f
00000050: dce7 813f 56b2 833f 0836 843f c725 783f
00000060: 4214 7c3f faed 7b3f 3c9b 823f d17d 783f
00000070: 576d 7d3f 9aad 7e3f 2751 7d3f 9fee 803f
1.0379479 1.0620613 1.00105 0.9617272 0.9938208 1.0374675 1.0349501 1.0006495
0.9737012 0.9943418 1.0053718 0.99921656 1.0310193 1.0319613 1.0309166 0.9757667
0.99618167 1.0300555 1.0453109 0.9766408 1.0148883 1.0288799 1.0328989 0.96932644
0.9846841 0.9841 1.0203624 0.9706698 0.98994964 0.99483645 0.98951954 1.0072821

body.block3.norm.bias f4 [32]
00000000: 65aa 933b 4f80 aebc b657 223c 94af ccbc
00000010: f773 d6bc a198 033c b679 52bc 426f 09bc
00000020: 17e4 5bbc 42a5 56ba c095 2d3b 9415 c8bb
00000030: ed8e 27bc 20f4 6fbc 4137 8ebc a1e3 16ba
00000040: b8a7 11bb d8c7 c43b 73ca 54bc ee21 dabc
00000050: cd8b 0c3c 9067 813b 79d3 003c c09c 823b
00000060: 9637 f63b 38ca d9bb 7d38 303b bfb0 253b
00000070: 0546 353c 1e83 24bc 7c08 a53b b735 0a3a
0.0045063966 -0.021301417 0.009908607 -0.024986066 -0.026178343 0.008031995 -0.012846401 -0.008388342
-0.01342108 -0.00081880775 0.0026486963 -0.006106088 -0.010226947 -0.014645606 -0.017360331 -0.0005755965
-0.0022225212 0.0060052685 -0.012987721 -0.026627507 0.008578253 0.003949113 0.007862919 0.003985971
0.0075139506 -0.006646421 0.0026889138 0.002528235 0.011064057 -0.010041026 0.005036412 0.00052722864

body.block3.norm.running_mean f4 [32]
00000000: 2a17 15be 0736 c43d 480b 23be 5673 293e
00000010: 062f 283d 170d d5bd f641 923d ef18 2d3e
00000020: 070d 3c3e c0d5 aebe 32d6 06be 994f 3b3e
00000030: 8555 013e 8f1b a3bd 2e0b 083e 1d69 823d
00000040: 2e0d 1a3e 0574 14be 4f57 99bb 8cb8 413d
00000050: dbb8 57be 69b2 0dbd e022 8d3c 1158 47be
00000060: 1953 5fbe d87c 70bd f095 003e 21d0 e53d
00000070: abc4 05be 5306 10be 26a6 8dbe 6bd0 82bd
-0.14559618 0.095806174 -0.15922272 0.16547903 0.04106047 -0.10402887 0.07141487 0.16904043
0.18364345 -0.34147453 -0.13167647 0.18292083 0.1263028 -0.07964241 0.13285515 0.06367705
0.1504409 -0.14497383 -0.0046795974 0.04729514 -0.2106661 -0.034593973 0.017228544 -0.19467188
-0.21809043 -0.05871281 0.12557197 0.11221338 -0.13063304 -0.14064912 -0.27665824 -0.06387409

body.block3.norm.running_var f4 [32]
00000000: a0f1 893d e35f d33d 8cf0 e23d 44c7 c03d
00000010: 8504 913d e638 c03d c4b4 063e e444 873d
00000020: 01de bd3d ffcc aa3d d324 903d f3f8 9d3d
00000030: ee6c be3d 4430 8c3d b525 bd3d b54d c13d
00000040: 9f69 6f3d de68 0b3e 1fe9 f43d dfb3 733d
00000050: f368 de3d 0be9 b63d 5f4d 8f3d eefb 583d
00000060: 1946 893d d296 963d a74c 973d ecab b83d
00000070: f29b ad3d c2d1 bc3d 9821 eb3d ce8f db3d
0.067355394 0.10321023 0.11081037 0.09413007 0.0708094 0.093858525 0.13154894 0.06604937
0.092708595 0.08339881 0.07038274 0.07713499 0.092981204 0.068451434 0.09235708 0.094386496
0.058450337 0.13614222 0.11958527 0.05949771 0.10859861 0.08931168 0.06997179 0.052974634
0.06702823 0.073529854 0.07387667 0.090171665 0.0847701 0.09219696 0.11481017 0.10720788

tail.0.weight f4 [3, 32, 3, 3]
00000000: 611c d83b be97 b7bc 7055 993b 6ac3 f4bb
00000010: 8029 57bd 63ee 39bb accb c0bc c621 20bc
00000020: 5795 14bd 2631 1c3b 45be 983d c19a 02bd
00000030: c97c 70bc 9dec 9d3a 046f ebbc fd57 c73c
00000040: 6528 c53b 16d8 9fbc c846 27bc b4fb a5bc
00000050: a138 d93b 339a 76bb 293b 21bc 48bd a8bb
00000060: f6b0 7fbc 8371 0dbc 1820 d03c e6db 613d
00000070: ef68 a03c c11d c63b 9ac3 383a 4880 69bc
00000080: 63bb 76bb 9b87 2ebc 4813 cc3a 661e 743c
00000090: e3ca b6bc 1d41 5abc 5363 debc 748a b6bc
000000a0: 8836 8cbc 6118 1ebc b145 07bb cc4e 573c
000000b0: a647 323b 976d 253d 49a0 843b b14b 95bb
000000c0: c7dd 493c 99f4 7c3c b9c4 00bc ec5a ce3c
000000d0: b48d 633d b326 aa3c dc60 353d c58b 3e3d
000000e0: f21b dbbc 9e4b cebb 6221 f5bb f9ea bdbc
000000f0: 0dd7 47ba 127b 99bc e981 09ba 3b81 46bd
00000100: 2a37 1c3b 0ff5 ccbc 24c7 743b d5cc 2f3c
00000110: 56a5 12bc c8e2 cf3c 5ff4 3cbc a3bc 633c
00000120: 0904 2abd 1970 f63b 14d2 77bc 9bf8 60bc
00000130: 9d12 573c 80ab 123c cb62 68bc c977 273c
00000140: 3fbc 8d3b bbcc c3bc 67ac fdbb e3b4 b2bb
00000150: 663f 04b8 0d14 163b 697d 313d 6b48 ddbc
00000160: 7e86 a9bc 75d0 35bc 6e97 833b 1597 e1bc
00000170: 3c9b 39bc 62d9 233d 3c41 48bc 4efc 23bd
00000180: c9fb 46bc aa73 c6bc a24c 50bc c81e 933b
00000190: 2453 74bc 431a deba 32a5 08ba 024f 923c
000001a0: e2d2 473c 13db 32bc 98c7 1b3d 1ed9 e6bb
000001b0: 4c1c 0e3b 7f7e 8dbc c0cc 2fbd def0 213b
000001c0: 24ea 5bbb 51e7 5fbc 6f5d 5f3c 86a6 c8bb
000001d0: bca6 8fbd 95c7 14bc 5eaf ce3c dada 363d
000001e0: 77fd bf3b 1447 ce3c 4679 1e3c bd7c 9e3b
000001f0: 59d5 4d3c 8fb4 96bc d53a 47bc 3ed5 1b3b
00000200: 2573 adbc 16ac 89bc f40c 883c ecf5 9cbc
00000210: 1916 b8bc a102 e9bc 1626 0c3a 9ef6 c03a
00000220: 4dd9 3abc e1a8 343c 009c c53c 0efc c83c
00000230: e191 b5bc 5664 9a3b 086f d3bb 5f88 a9bc
00000240: a1c7 adba 62e2 813c 2957 1dbd b171 703a
00000250: de14 05bc e33f ddbc 3732 2dbd f041 27bd
00000260: cd77 32bc 8aa9 a93c e1a1 9fbc 5f05 5cbd
00000270: 4886 78bc 4833 013d 1dd1 16ba af41 aabb
00000280: 0a6f 9abb 2e64 d5bc 7b71 963c a49b ca3c
00000290: b9b8 86bb e702 e6bc dcab 553c 24de 183c
000002a0: c2d1 80bc 3999 37bd 50a4 cabc b71a 123c
000002b0: 8576 caba be75 443c 2d3a 61bb 1b45 62bd
000002c0: 0ff0 41bc 7b3c c53c dfd6 2938 a0cc 83bc
000002d0: 9faf 9abb 58f0 b0bd 1a3d edbb f0d3 40bd
000002e0: abbc a9bc 4ad7 94bc 626b bebb 2506 9abc
000002f0: 4184 d9bc baf6 ed3b dcb9 543a df76 75bc
00000300: afa8 a8bc fe34 bbbc de18 81bc e15d d63c
00000310: 4b24 c9bb 24ca 4f3b ef2e e3bc 1a25 41bd
00000320: 3a68 45bc bb74 18bc b42c 29bd 77e8 783b
00000330: 05cf bbbb e5a2 cdbc 70c1 44bd e777 90bc
00000340: bba5 70bc c7f2 83bb 0b21 6e3c 6d51 44bb
00000350: b16d 3c3b 8575 48bb 65f2 12bd a053 d43b
00000360: 3cef 3abb 65cb a0bc d441 3ebc b703 a3bc
00000370: c824 0fbd b5ba 34bc aabe 4ebc 3b5a 963c
00000380: 0c1d 183a 67bf 073a 1cdf bb3c 6707 c43c
00000390: c6a6 453c 90ee 323d d044 073c ac09 523b
000003a0: 9e11 e63b 9614 ce3c b4ea 20bd b78f 773c
000003b0: 84f5 5bbc a39a b1bc e049 b4bc 9b5c b9bc
000003c0: dbef 703c a3c4 6bbc f36c 633b 355b 4ebd
000003d0: 5ab1 82bb 9592 31bd 126b 0ebd 687c e0bc
000003e0: cc7c 033c 4812 2fbc 3902 d9bb 4893 74bc
000003f0: 1881 28bc 3840 153c e4ae 1bbd a468 f2bc
0.00659518 -0.022411224 0.0046793744 -0.0074695842 -0.05252981 -0.002837085 -0.023534618 -0.009773677
-0.036275234 0.0023833006 0.07458166 -0.031885866 -0.014678189 0.0012048666 -0.02873946 0.024333948
0.0060167783 -0.019512217 -0.010209747 -0.020261623 0.006629065 -0.003762853 -0.009840765 -0.005149517
-0.015606156 -0.00863302 0.025405928 0.055141352 0.019581286 0.0060460274 0.000704819 -0.014251776
-0.0037648312 -0.010652448 0.0015569711 0.014899826 -0.02231354 -0.013321188 -0.02714697 -0.022282816
-0.017115846 -0.009649367 -0.0020640905 0.013141345 0.002720335 0.040387716 0.004047428 -0.0045561423
0.012320942 0.015439176 -0.007859402 0.02518984 0.05555506 0.020770406 0.044281825 0.046520013
-0.026746724 -0.0062956354 -0.007480786 -0.023183333 -0.00076232926 -0.018735442 -0.00052454934 -0.048463088
0.0023836591 -0.025019197 0.0037350142 0.010729988 -0.008950552 0.025376692 -0.011532872 0.013899955
-0.041507754 0.0075206873 -0.01512577 -0.013731147 0.013126996 0.008952022 -0.01418371 0.01022143
0.004325419 -0.023901334 -0.007741499 -0.0054536923 -3.1530297e-05 0.0022900135 0.04333249 -0.02701207
-0.020694014 -0.011097063 0.0040158546 -0.027537862 -0.011328515 0.040002234 -0.012222584 -0.04003554
-0.012144991 -0.024225075 -0.012713583 0.0044897534 -0.0149124 -0.0016945082 -0.00052126043 0.01785994
0.0121962745 -0.010916489 0.038032144 -0.0070449254 0.0021684347 -0.017272232 -0.042919874 0.0024710218
-0.0033556307 -0.01366599 0.013633116 -0.0061233668 -0.07014224 -0.009080787 0.025230106 0.044642307
0.005859073 0.025180377 0.0096724685 0.0048366473 0.012563073 -0.018396644 -0.012160023 0.0023778225
-0.02117307 -0.01680569 0.016607739 -0.019160233 -0.022471474 -0.028443636 0.00053462514 0.0014721935
-0.011404348 0.011026592 0.024122238 0.024534252 -0.022164287 0.004711668 -0.006452445 -0.02069491
-0.0013258347 0.015855018 -0.0384132 0.0009172215 -0.008122651 -0.027008003 -0.042284217 -0.040834367
-0.010892821 0.020710725 -0.01948637 -0.05371606 -0.015168734 0.031543046 -0.0005753206 -0.0051958184
-0.004712944 -0.026048746 0.018364659 0.024732418 -0.004111376 -0.028077556 0.013041463 0.009330306
-0.01572502 -0.04482386 -0.024736553 0.008917502 -0.0015446699 0.011990963 -0.003436695 -0.055241685
-0.01183702 0.02407669 4.0492854e-05 -0.016088784 -0.0047206427 -0.08639592 -0.00723995 -0.04707712
-0.020719847 -0.018169064 -0.005811141 -0.018801758 -0.026552321 0.007262078 0.00081148534 -0.014981954
-0.020588247 -0.022852417 -0.015758928 0.026167812 -0.0061383597 0.0031706179 -0.02773234 -0.047154523
-0.012048775 -0.009305174 -0.041302398 0.0037980357 -0.0057314658 -0.025102088 -0.04803604 -0.017635299
-0.014687951 -0.004026744 0.014534245 -0.002995576 0.0028751905 -0.0030587625 -0.035875697 0.0064796954
-0.0028523942 -0.019628236 -0.011612374 -0.019899232 -0.034947187 -0.011030843 -0.0126187 0.018353572
0.0005802668 0.00051783625 0.022933535 0.023929311 0.012063688 0.043684542 0.008256152 0.0032049222
0.007021143 0.0251563 -0.03928633 0.015109948 -0.013425235 -0.021680182 -0.022007883 -0.022627166
0.0147056235 -0.014390144 0.003470239 -0.05037995 -0.003988427 -0.043352682 -0.03477008 -0.027403072
0.008025359 -0.010685511 -0.0066225794 -0.014927693 -0.010284685 0.009109549 -0.038008586 -0.029590912

tail.0.bias f4 [3]
00000000: b08d 9e3b 1fd3 483c ace8 c0bc
0.004838668 0.012257366 -0.023548447
