code/Output/seascape/pdl_e8000_1px_lr0.0001a10.0_up-conv5_1_W[1.0, 0.5, 0.1, 0.075, 0.075](5)/0/netG.pth (torch, 130284 bytes, 26 tensors)

head.conv.weight f4 [32, 3, 3, 3]
0.005945802 0.040505853 -0.007882209 0.016382623 -0.030206556 0.009013075 -0.007643007 -0.022011997
0.01901666 -0.023441514 -0.035964143 -0.010507442 -0.0024499882 0.012266187 -0.02645528 0.04249891
-0.019951873 0.022219459 0.018002098 -0.003389683 0.025393507 -0.010928768 0.003199523 0.025445689
-0.0011749474 -0.028860752 0.0555601 -0.01537211 0.011730316 -0.03232072 -0.039141532 -0.03470427
0.012911524 0.02936753 0.010019906 0.012578225 -0.03330809 0.020502316 0.025145752 -0.016380241
0.01576165 -0.0022953283 0.002677035 -0.0057354397 0.010703988 -0.013302693 -0.013390396 -0.006742429
-0.009778019 -0.013605159 -0.021414332 0.00886057 0.0003603429 0.00011912742 0.020849954 -0.021136278
-0.008854727 -0.0063470146 0.008226923 -0.008394857 0.026622165 -0.01939293 0.0025719383 -0.007903499
0.027916003 -0.02391522 0.017624866 -0.026401784 -0.0052842544 0.012054739 -0.001097225 0.002741451
0.007875276 0.05140196 -0.001392325 0.0381936 -0.02389226 0.021315224 -0.007371091 0.012109918
-0.014004763 -0.008486033 -0.028871799 -0.014176921 -0.006136595 -0.012729644 0.0048409463 0.010692445
0.010010596 -0.026082637 0.00017688665 -0.008873039 -0.032832086 -0.010266035 -0.0028688298 0.005235746
0.013759071 0.0045166663 0.021082843 -0.008019768 -0.047466923 -0.0039149458 0.030290045 0.02104236
0.0018229043 -0.024163991 -0.01514625 0.005766115 -0.0121320505 -0.0022537524 -0.014851571 -0.048116975
0.009632998 -0.002001473 -0.011513159 0.0027736786 -0.018004179 -0.00075048493 0.011046015 0.005637373
0.016891878 -0.0067058178 -0.002169267 -0.01720961 -0.016291995 -0.035844114 -0.0060584266 -0.015029453
0.0046514734 0.021485072 -0.0049406756 0.03352586 0.014629097 -0.026036115 -0.025125498 0.03799735
0.052538555 -0.02238263 0.02084594 -0.008383389 0.013865848 0.006890824 0.025982227 -0.03129577
-0.009046996 0.045540433 -0.011880797 0.00013574991 -0.017387446 -0.028567877 0.016598765 0.020462047
-0.003310422 0.04679576 0.026612405 -0.018499093 0.00020465205 -0.02833942 0.0027336092 -0.013761318
-0.011462782 0.009307187 -0.0092917 0.007640495 0.014021577 0.008219505 -0.011582741 0.016666105
-0.018072218 -0.003420192 -0.017620586 -0.015134983 -0.004352024 -0.032403853 -0.0020653314 -0.008359185
-0.031243445 -0.022006791 -0.03450366 -0.0420771 -0.018525762 0.00785363 -0.014360317 -0.0022254672
-0.026262935 -0.015680032 0.015256318 0.008490176 -0.025421795 -0.0074731284 0.002015171 -0.024398968
0.008081632 -0.008697819 0.0003516842 -0.024455255 -0.0035884315 -0.019155003 0.00293783 0.061356936
0.008470677 0.01827214 0.011018997 0.0066593084 -0.011739805 -0.001798099 -0.019985694 0.0035647938
0.03304753 0.011481056 -0.0013986122 0.0122998 -0.01960098 -0.006114153 0.035531607 -0.011559613
0.019491317 0.0016963352 -0.034952745 0.004858074 -0.026101405 -0.0024556147 -0.0061723855 0.039134193
0.013907875 0.0362832 -0.021001404 -0.005120528 0.005161459 -0.03559208 0.006000695 -0.001412397
-0.00549396 -0.02272928 0.013984282 0.018533133 0.03420536 0.012507893 0.0016956353 -0.010559221
-0.03817356 -0.01430742 0.023698304 0.0069632116 -0.020142859 -0.0060916306 -0.029563822 -0.00799515
-0.009855649 -0.0100167915 -0.008835576 -0.007857074 0.0022718515 -0.02747198 0.008772077 -0.04405747
00000000: 01d5 c23b 77e9 253d 6124 01bc da34 863c
00000010: bd73 f7bc 94ab 133c 3172 fabb 8152 b4bc
00000020: d4c8 9b3c 6b08 c0bc 234f 13bd 6827 2cbc
00000030: fb8f 20bb 1ef8 483c beb8 d8bc 5613 2e3d
00000040: 1c72 a3bc 9505 b63c 2379 933c 7225 5ebb
00000050: 0b06 d03c 930e 33bc 17af 513b 7a73 d03c
00000060: b100 9aba 626d ecbc fd92 633d 4ddb 7bbc
00000070: 8330 403c bb62 04bd df52 20bd 1126 0ebd
00000080: db8a 533c 2d94 f03c 882a 243c e614 4e3c
00000090: 106e 08bd 79f4 a73c 77fe cd3c db2f 86bc
000000a0: 931e 813c 386d 16bb 3271 2f3b 5bf0 bbbb
000000b0: c85f 2f3c 8af3 59bc 6463 5bbc 98ef dcbb
000000c0: fc33 20bc 2ce8 5ebc 1c6d afbc ed2b 113c
000000d0: 68ec bc39 0cd4 f938 86cd aa3c fd25 adbc
000000e0: 6b13 11bc 9efa cfbb 37ca 063c 958a 09bc
000000f0: ba16 da3c ecdd 9ebc f78d 283b ad7d 01bc
00000100: 1ab0 e43c dae9 c3bc 0662 903c 8e48 d8bc
00000110: 8a27 adbb 3d81 453c c3d0 8fba eaa9 333b
00000120: 4d07 013c dd8a 523d ad7e b6ba e470 1c3d
00000130: b3b9 c3bc 449d ae3c 3189 f1bb ad68 463c
00000140: 3c74 65bc 0109 0bbc 8d84 ecbc 5146 68bc
00000150: 7d15 c9bb ff8f 50bc cda0 9e3b 5d2f 2f3c
00000160: 7c03 243c 41ab d5bc a67a 3939 3960 11bc
00000170: f07a 06bd df32 28bc fa02 3cbb 9f90 ab3b
00000180: ba6d 613c 8b00 943b edb5 ac3c 5865 03bc
00000190: ad6c 42bd f248 80bb d422 f83c 0761 ac3c
000001a0: 85ee ee3a 90f3 c5bc fa27 78bc aef1 bc3b
000001b0: 82c5 46bc b1b3 13bb 0154 73bc 4e16 45bd
000001c0: b9d3 1d3c 252b 03bb b0a1 3cbc 9bc6 353b
000001d0: 807d 93bc 31bc 44ba 58fa 343c b6b9 b83b
000001e0: d660 8a3c 7abc dbbb 432a 0ebb 2bfb 8cbc
000001f0: ca76 85bc 47d1 12bd c485 c6bb 183e 76bc
00000200: 636b 983b 7601 b03c 64e5 a1bb 6a52 093d
00000210: e1ae 6f3c b149 d5bc fdd3 cdbc 1ca3 1b3d
00000220: ab32 573d c75b b7bc 1bc5 aa3c 7b5a 09bc
00000230: 952d 633c 6ccc e13b aed8 d43c fe2f 00bd
00000240: da39 14bc 9b88 3a3d ada7 42bc 1758 0e39
00000250: 1e70 8ebc 2e07 eabc 22fa 873c 06a0 a73c
00000260: aaf3 58bb e9ac 3f3d 4202 da3c 698b 97bc
00000270: de97 5639 1228 e8bc 5a26 333b 2777 61bc
00000280: 64ce 3bbc 2c7d 183c 373c 18bc 1e5d fa3b
00000290: c2ba 653c 1aab 063c 89c5 3dbc 5b87 883c
000002a0: 300c 94bc 4d25 60bb 0c59 90bc b8f8 77bc
000002b0: 6c9b 8ebb e7b9 04bd 835a 07bb f7f4 08bc
000002c0: 41f2 ffbc 9647 b4bc b653 0dbd 0a59 2cbd
000002d0: 57c3 97bc 83ac 003c 8947 6bbc 25d9 11bb
000002e0: 5e25 d7bc 6973 80bc a3f5 793c 611a 0b3c
000002f0: 5e41 d0bc 25e1 f4bb f610 043b 58e0 c7bc
00000300: d268 043c 4c81 0ebc 4162 b839 6356 c8bc
00000310: e42b 6bbb f4ea 9cbc 9c88 403b 6951 7b3d
00000320: 98c8 0a3c 74af 953c 0689 343c 5436 da3b
00000330: 5058 40bc 31ae ebba 0ab9 a3bc 519f 693b
00000340: d95c 073d 0a1b 3c3c a351 b7ba 1a85 493c
00000350: 3c92 a0bc 3c59 c8bb 9789 113d 8864 3dbc
00000360: 41ac 9f3c 9057 de3a 9c2a 0fbd 7a30 9f3b
00000370: 9dd2 d5bc 61ee 20bb b941 cabb 2d4b 203d
00000380: dbdd 633c b19d 143d 230b acbc 1aca a7bb
00000390: 7521 a93b 00c9 11bd 7aa1 c43b 2e20 b9ba
000003a0: ad06 b4bb c132 babc 541e 653c ccd2 973c
000003b0: eb1a 0c3d e8ed 4c3c 1440 de3a 9500 2dbc
000003c0: e15b 1cbd ab69 6abc f222 c23c a72b e43b
000003d0: a302 a5bc 4d9c c7bb d42f f2bc 17fe 02bc
000003e0: 9779 21bc 781d 24bc 17c3 10bc f5ba 00bc
000003f0: 58e3 143b eb0c e1bc c2b8 0f3c 9b75 34bd

head.conv.bias f4 [32]
0.15641658 0.07507597 0.18014097 -0.12266817 -0.05002422 -0.14423205 0.020813389 0.09026039
-0.052468438 -0.04988939 0.18060786 0.07249677 0.07058741 0.07270558 0.015722858 -0.14314277
0.090843715 -0.03662816 0.10234726 0.015056746 0.19302681 0.079054415 0.043125752 0.041244403
0.0085065905 0.0848317 -0.072811596 -0.019274533 0.0025884246 0.18128812 0.059669487 0.027950814
00000000: ab2b 203e 6ec1 993d e076 383e 7339 fbbd
00000010: 32e6 4cbd 91b1 13be d780 aa3c 70da b83d
00000020: 25e9 56bd d158 4cbd 44f1 383e 3079 943d
00000030: 2290 903d aae6 943d 39cd 803c 0594 12be
00000040: 450c ba3d 6907 16bd 719b d13d 92b0 763c
00000050: d2a8 453e 48e7 a13d a1a4 303d e4ef 283d
00000060: 3a5f 0b3c 3ebc ad3d 3f1e 95bd a0e5 9dbc
00000070: 8fa2 293b 98a3 393e fe67 743d 1bf9 e43c

head.norm.weight f4 [32]
1.0252595 0.99980384 0.99593973 1.017238 1.0067827 0.97349757 1.0086801 0.997627
1.0055877 0.9898943 0.98293775 0.99293727 0.9913309 0.9671199 0.99246097 0.9790614
0.98861045 0.9964008 0.9896621 0.9969529 0.97416365 0.9955133 0.9798064 0.97804624
1.0231845 0.9870634 0.96499693 0.96268785 1.0061123 1.0188435 0.98576057 0.98355556
00000000: b43b 833f 25f3 7f3f e8f5 7e3f db34 823f
00000010: 41de 803f 2337 793f 6e1c 813f 7c64 7f3f
00000020: 19b7 803f b669 7d3f cfa1 7b3f 2331 7e3f
00000030: ddc7 7d3f 2b95 773f ec11 7e3f c5a3 7a3f
00000040: 9315 7d3f 1f14 7f3f 7f5a 7d3f 4e38 7f3f
00000050: ca62 793f f6d9 7e3f 98d4 7a3f 3d61 7a3f
00000060: b6f7 823f 30b0 7c3f 0a0a 773f b672 763f
00000070: 4ac8 803f 7769 823f ce5a 7c3f 4cca 7b3f

head.norm.bias f4 [32]
-0.015056668 0.008455453 -0.028094891 0.012036458 -0.034421016 -0.035674684 -0.0070840656 -0.01696481
-0.040980726 0.03713491 -0.043905437 -0.08947076 -0.027237486 -0.0012501054 -0.024473328 0.020216437
-0.025660025 -0.019993274 0.008943529 -0.013531444 -0.013950697 -0.0058673224 -0.02082101 -0.01460409
-0.06790725 0.018184468 -0.01112275 0.009280887 -0.006634295 0.024767924 0.01378819 -0.030161131
00000000: 3eb0 76bc be88 0a3c 4227 e6bc 9034 453c
00000010: 0dfd 0cbd 9e1f 12bd 7321 e8bb c9f9 8abc
00000020: 68db 27bd c61a 183d 30d6 33bd 723c b7bd
00000030: 2621 dfbc 94da a3ba 4a7c c8bc f19c a53c
00000040: f934 d2bc efc8 a3bc e187 123c fdb2 5dbc
00000050: 7791 64bc ab42 c0bb d390 aabc fe45 6fbc
00000060: f512 8bbd 98f7 943c 323c 36bc dd0e 183c
00000070: 8064 d9bb 1ae6 ca3c dce7 613c 7a14 f7bc

head.norm.running_mean f4 [32]
0.15743712 0.07354831 0.18131165 -0.124579735 -0.05230972 -0.14230359 0.01645026 0.09113413
-0.052355394 -0.0525248 0.1823034 0.067686774 0.071584396 0.073851354 0.012159607 -0.1412361
0.09393328 -0.035189457 0.099641815 0.015557445 0.1952443 0.07917696 0.04235291 0.044294123
0.00427999 0.08362843 -0.07113924 -0.020290207 0.0030978567 0.17727348 0.059165616 0.030783394
00000000: 3237 213e 7fa0 963d c3a9 393e a923 ffbd
00000010: b842 56bd 08b8 11be b2c2 863c 88a4 ba3d
00000020: 9c72 56bd 3f24 57bd bead 3a3e 5d9f 8a3d
00000030: d79a 923d 613f 973d 1739 473c 32a0 10be
00000040: 1760 c03d d222 10bd 0211 cc3d a7e4 7e3c
00000050: 1fee 473e 8827 a23d 3f7a 2d3d c16d 353d
00000060: 293f 8c3b 6245 ab3d 73b1 91bd a637 a6bc
00000070: 6905 4b3b 2e87 353e a557 723d 752d fc3c

head.norm.running_var f4 [32]
0.009459846 0.0072763273 0.0061577167 0.006345997 0.005656932 0.01786191 0.00873833 0.009303927
0.0070241415 0.015617502 0.0079035815 0.0091409 0.009650974 0.004804894 0.008416588 0.013280049
0.008006511 0.007065193 0.008552745 0.013356217 0.016828066 0.010123163 0.004666358 0.011181644
0.009597757 0.0073690517 0.006275773 0.006907501 0.006815328 0.021474933 0.0061485223 0.008398285
00000000: 78fd 1a3c 426e ee3b acc6 c93b 15f2 cf3b
00000010: c95d b93b 2453 923c 362b 0f3c 806f 183c
00000020: c52a e63b 8de0 7f3c 067e 013c b7c3 153c
00000030: 1e1f 1e3c 5f72 9d3b bbe5 093c 9094 593c
00000040: be2d 033c 2283 e73b d020 0c3c 09d4 5a3c
00000050: 03db 893c a0db 253c 40e8 983b 3733 373c
00000060: e93f 1d3c 1678 f13b 00a5 cd3b 5158 e23b
00000070: 1d53 df3b 33ec af3c 8b79 c93b f698 093c

body.block1.conv.weight f4 [32, 32, 3, 3]
-0.008572441 0.014784451 0.002266739 0.009045241 0.008886501 -0.005157776 0.006604571 -0.00408922
-0.029889142 0.003347131 0.022930242 0.03512758 0.0047261985 -0.005928937 -0.00092453783 0.012790474
-0.022066707 -0.004176694 0.009119189 -0.0076078777 0.024864994 0.013594623 -0.0072893617 -0.03662263
0.008096408 -0.0021736247 0.035664584 0.015945503 0.00820206 0.026435055 0.003751362 0.0009295457
0.030927943 0.026748128 -0.02956341 -0.0043741004 -0.004256698 -0.0039046023 -0.0038831225 0.0043336316
-0.008226823 -0.0076211165 0.012335546 0.020495767 -0.015301501 0.0038691054 -0.026054671 0.0020043207
-0.010001036 0.0015134802 -0.0026963977 0.01000689 0.0014105075 -0.040242717 -0.029951785 -0.0075334692
0.04127492 -0.030365044 0.018987998 -0.02231205 0.004778492 0.00270692 -0.012094963 -0.012689225
0.031359497 -0.038936935 0.01847959 0.04227697 0.0003650973 -0.010693826 -0.028738944 0.013420381
0.00088239857 -0.01594073 0.008618714 -0.0022699423 -0.02612236 -0.019918662 0.028089393 -0.0075978134
-0.0046850587 0.0005713993 -0.007597368 0.0012804423 0.040997397 0.004205914 -0.0003258783 0.00050307246
0.016053284 0.020959137 0.0047634505 0.016722152 0.03525248 -0.0055563427 0.0262456 0.013396038
0.011823203 -0.008681632 0.011504933 -0.017542077 0.008091274 -0.027437765 -0.013729214 0.0022381234
-0.0084300395 0.021186791 0.023316162 -0.001316117 -0.002374635 -0.011957403 0.021252774 0.05673329
0.0012027037 0.016415607 0.0268846 -0.002038694 -0.005859358 0.016498294 0.017003441 -0.0021289554
0.050486095 0.018091228 0.034544125 0.014838313 -0.0017216953 0.00066176616 -0.0210042 -0.031377107
0.0022481447 0.025740191 -0.024194218 -0.0064607207 -0.0019933823 -0.009246343 -0.00919781 -0.012003829
-0.010781883 -0.006109915 0.021266427 -0.013799237 0.019420328 0.010782946 -0.019422807 0.011856534
0.0027364544 -0.022299154 0.0018899966 0.003076537 0.038063575 -0.030533474 -0.005341583 0.028662153
0.04340255 -0.006794439 0.0064724158 -0.010403837 -0.00361596 -0.004581821 -0.0009000207 0.04953285
-0.0125804115 -0.016290152 -0.035784777 0.007995388 -0.0035190426 -0.018268194 0.0461963 -0.031561036
0.014796905 0.0013848252 -0.014505524 0.013138988 0.0017856022 -0.012340417 -0.009304087 -0.0016497745
0.014647854 0.020303348 0.024976628 0.025512185 0.030876579 -0.044104107 0.007866749 0.00011438249
0.004655913 0.0055085975 0.029683817 0.011644353 -0.028818345 -0.0127735445 0.034518775 0.0087281745
-0.025017682 0.0040559242 0.0034441561 0.0236641 -0.0469753 -0.004114763 0.0039838143 -0.028127212
-0.009497607 0.0017177607 0.017213736 0.017307708 0.022346772 0.019742472 0.0172599 0.02562093
0.00082457956 -0.023569917 0.014597241 0.018867394 -0.039470192 -0.013326734 0.014390544 0.00104034
0.0088288775 0.019595122 0.027208062 0.029269388 -0.014110908 0.016685257 0.041408792 -0.02852794
-0.0062015615 0.006471123 -0.016382521 0.009760756 -0.00922223 -0.0045223664 0.012468168 0.01325111
-0.021475062 -0.019849135 0.020889353 0.014965929 0.015734272 0.011405634 0.020404385 0.015495966
0.0056966688 -0.0013030935 0.022438858 0.0063923444 -0.027801348 0.004596877 -0.003433903 0.0136349145
0.014514769 0.0036552465 0.024952758 -0.039577644 -0.011390563 -0.013249366 -0.0033938265 3.9914074e-05
00000000: 6c73 0cbc 7b3a 723c 928d 143b 7e32 143c
00000010: b098 113c 9002 a9bb 286b d83b ddfe 85bb
00000020: 13da f4bc 8a5b 5b3b 34d8 bb3c f0e1 0f3d
00000030: 3ade 9a3b 8747 c2bb af5c 72ba 238f 513c
00000040: 3dc5 b4bc a6dc 88bb a768 153c 814b f9bb
00000050: acb1 cb3c fbbb 5e3c 99db eebb 9c01 16bd
00000060: cca6 043c 5f73 0ebb 0715 123d 25a0 823c
00000070: ef61 063c 548e d83c 69d9 753b c2ac 733a
00000080: 995c fd3c e41e db3c f72e f2bc 9d54 8fbb
00000090: c57b 8bbb 5be4 7fbb fc7b 7ebb 2301 8e3b
000000a0: ccc9 06bc 8fba f9bb 081b 4a3c bde6 a73c
000000b0: 26b3 7abc d190 7d3b 9b70 d5bc ec5a 033b
000000c0: 63db 23bc f85f c63a 0cb6 30bb f0f3 233c
000000d0: c7e0 b83a 8cd5 24bd 725d f5bc 52db f6bb
000000e0: e40f 293d 1dc0 f8bc b88c 9b3c c3c7 b6bc
000000f0: e594 9c3b 9566 313b f429 46bc 78e6 4fbc
00000100: d172 003d 567c 1fbd 8262 973c 9e2a 2d3d
00000110: 886a bf39 2835 2fbc ef6d ebbc 28e1 5b3c
00000120: c450 673a 2296 82bc 8235 0d3c 50c3 14bb
00000130: 8ffe d5bc 762c a3bc ba1b e63c 14f7 f8bb
00000140: 1f85 99bb f5c9 153a 58f3 f8bb 84d4 a73a
00000150: e3ec 273d c4d1 893b a5da aab9 9fe0 033a
00000160: 2d82 833c 7fb2 ab3c b816 9c3b e5fc 883c
00000170: e864 103d fb11 b6bb 0301 d73c 0e7b 5b3c
00000180: 1cb6 413c 673d 0ebc 307f 3c3c 67b4 8fbc
00000190: 4391 043c 2ac5 e0bc 7ff0 60bc 7bad 123b
000001a0: 261e 0abc ec8f ad3c 8901 bf3c 8f81 acba
000001b0: c49f 1bbb fce8 43bc 4c1a ae3c 2b61 683d
000001c0: 0aa4 9d3a 067a 863c 183d dc3c 9c9b 05bb
000001d0: dbff bfbb 6e27 873c cd4a 8b3c f285 0bbb
000001e0: 82ca 4e3d 0e34 943c 247e 0d3d 651c 733c
000001f0: 82aa e1ba 607a 2d3a 0011 acbc 4885 00bd
00000200: 9c55 133b 18dd d23c f432 c6bc 74b4 d3bb
00000210: 68a3 02bb f97d 17bc 69b2 16bc b5ab 44bc
00000220: 7fa6 30bc af35 c8bb ee36 ae3c 3216 62bc
00000230: 6117 9f3c f4aa 303c 941c 9fbc e841 423c
00000240: 1656 333b b7ac b6bc c3b9 f73a ba9f 493b
00000250: 8de8 1b3d 5621 fabc 7208 afbb e4cc ea3c
00000260: dfc6 313d e3a3 debb 8f16 d43b db74 2abc
00000270: bef9 6cbb 1a23 96bb 5eef 6bba f5e2 4a3d
00000280: 121e 4ebc ed72 85bc 0f93 12bd 16ff 023c
00000290: bd9f 66bb 2ea7 95bc 5538 3d3d 2546 01bd
000002a0: b86e 723c 0683 b53a 94a8 6dbc e944 573c
000002b0: de0a ea3a 762f 4abc 2b70 18bc 3f3d d8ba
000002c0: 8dfd 6f3c 3553 a63c c99b cc3c eefe d03c
000002d0: e1f0 fc3c 82a6 34bd 89e3 003c a2e0 ef38
000002e0: a190 983b 7781 b43b 7a2b f33c f5c7 3e3c
000002f0: 7314 ecbc 2148 51bc 8f63 0d3d 9e00 0f3c
00000300: e2f1 ccbc 8fe7 843b 5ab7 613b 37db c13c
00000310: 2c69 40bd 22d5 86bb a88a 823b 0a6b e6bc
00000320: da9b 1bbc 7c26 e13a d203 8d3c e5c8 8d3c
00000330: 9410 b73c f7ba a13c a264 8d3c fce2 d13c
00000340: 9928 583a b315 c1bc 4429 6f3c cb8f 9a3c
00000350: 7fab 21bd 6058 5abc 51c6 6b3c 055c 883a
00000360: ffa6 103c f385 a03c 71e3 de3c 5bc6 ef3c
00000370: 7031 67bc 85af 883c 449c 293d 6db3 e9bc
00000380: 7836 cbbb b70b d43b a334 86bc 94eb 1f3c
00000390: d618 17bc 5c30 94bb 4947 4c3c 2f1b 593c
000003a0: 78ec afbc a79a a2bc 2620 ab3c a833 753c
000003b0: 29e5 803c b2de 3a3c 1927 a73c cbe2 7d3c
000003c0: 1fab ba3b 90cc aaba b2d1 b73c df76 d13b
000003d0: a7bf e3bc 66a1 963b 550b 61bb fa64 5f3c
000003e0: 5bcf 6d3c dc8c 6f3b ba69 cc3c 2b1c 22bd
000003f0: 7c9f 3abc de13 59bc f66a 5ebb 6969 2738

body.block1.conv.bias f4 [32]
0.035449587 0.01038503 0.032320343 -0.03514857 -0.042173933 0.022395905 0.00033638004 -0.008035497
-0.025559757 0.041433807 0.034325127 -0.04997876 -0.012575724 -0.015272208 0.03717967 -0.025000853
0.0482107 -0.046963673 0.021855168 -0.03841192 0.03593886 -0.054489512 -0.023384485 -0.031475578
0.024866225 -0.012868132 0.009929927 -0.022427917 0.0015168786 -0.00024420876 -0.030859414 0.0015795467
00000000: 9633 113d f925 2a3c 5662 043d f2f7 0fbd
00000010: 93be 2cbd 9e77 b73c 2a5c b039 51a7 03bc
00000020: b262 d1bc 7fb6 293d 8198 0c3d 87b6 4cbd
00000030: 690a 4ebc 4838 7abc b649 183d 97ce ccbc
00000040: 9578 453d fb5c 40bd 9c09 b33c d155 1dbd
00000050: a034 133d 6530 5fbd d290 bfbc 89ec 00bd
00000060: 41b4 cb3c dcd4 52bc 22b1 223c c0ba b7bc
00000070: 00d2 c63a 2509 80b9 e2cc fcbc cb08 cf3a

body.block1.norm.weight f4 [32]
0.984983 0.94871336 0.9766336 0.95089805 0.9929532 1.0428703 1.0150685 0.98998255
0.9860631 1.0409477 0.9927704 1.0003175 0.99401784 0.9864955 1.0235946 1.0342386
0.98697644 1.0153066 0.9733857 0.98096716 0.981304 1.0017421 1.0062224 0.97028327
0.996658 1.024039 1.0633793 0.98669523 1.0031587 1.0292559 0.9524006 1.0296477
00000000: d927 7c3f e1de 723f a904 7a3f 0e6e 733f
00000010: 2e32 7e3f c67c 853f c4ed 813f 7f6f 7d3f
00000020: a26e 7c3f c63d 853f 3326 7e3f 670a 803f
00000030: f477 7e3f f88a 7c3f 2605 833f ee61 843f
00000040: 7daa 7c3f 91f5 813f ce2f 793f aa20 7b3f
00000050: bd36 7b3f 1639 803f e5cb 803f 7c64 783f
00000060: fb24 7f3f b613 833f d01c 883f 0f98 7c3f
00000070: 8167 803f a8be 833f 87d0 733f 7fcb 833f

body.block1.norm.bias f4 [32]
-0.0022669549 -0.033069395 -0.03775106 -0.022819052 0.000492484 0.007172406 0.008830604 -0.019423313
-0.012266763 -0.031679187 -0.029223667 -0.00197578 -0.05361 -0.015565731 -0.0031324911 -0.052836195
0.0015804581 -0.0123939905 -0.007308722 -0.0058577633 -0.035521064 -0.020324575 -0.01485853 -0.07243392
-0.026163157 -0.054180905 0.06287776 -0.05538236 -0.05660084 0.0069805495 -0.02056063 0.011329811
00000000: 3191 14bb c673 07bd dba0 1abd 05ef babc
00000010: 0b1a 013a 8106 eb3b 3dae 103c a41d 9fbc
00000020: 88fa 48bc 09c2 01bd 7966 efbc 167c 01bb
00000030: 2996 5bbd 6807 7fbc 7b4a 4dbb c46a 58bd
00000040: 6027 cf3a 2a10 4bbc 017e efbb 7bf2 bfbb
00000050: 897e 11bd b97f a6bc 3171 73bc 3c58 94bd
00000060: 1e54 d6bc ccec 5dbd 0ec6 803d 9dd8 62bd
00000070: 48d6 67bd 18bd e43b c46e a8bc aca0 393c

body.block1.norm.running_mean f4 [32]
0.32382357 0.061386682 0.14647943 -0.04154785 -0.20111448 -0.40624002 -0.06748279 -0.001904337
0.1828567 -0.00086368545 0.046391077 -0.17478503 0.25018817 -0.025375789 -0.021681778 0.26617372
-0.1150541 -0.32178813 -0.094408825 -0.14962743 0.050852913 -0.058008175 -0.030580623 0.22811489
0.016165026 0.18473078 -0.4596007 0.1873355 0.20734937 -0.19179583 -0.018304912 -0.10890414
00000000: 34cc a53e 9a70 7b3d b4fe 153e 142e 2abd
00000010: f4f0 4dbe b1fe cfbe 6b34 8abd f29a f9ba
00000020: c93e 3b3e f368 62ba 9204 3e3d d9fa 32be
00000030: aa18 803e e3e0 cfbc fc9d b1bc ec47 883e
00000040: 7ca1 ebbd 6ac1 a4be 6a59 c1bd ef37 19be
00000050: 254b 503d fb99 6dbd 3784 fabc f396 693e
00000060: 846c 843c 112a 3d3e c850 ebbe e1d4 3f3e
00000070: 6553 543e 2066 44be 2ff4 95bc 2209 dfbd

body.block1.norm.running_var f4 [32]
0.05065059 0.077990435 0.065235406 0.05304567 0.07053505 0.08626532 0.052935 0.07096308
0.10088915 0.06420438 0.046487063 0.025035368 0.06100454 0.054846503 0.08198353 0.058211397
0.071006365 0.083302304 0.04203592 0.035543635 0.06709541 0.05331322 0.06816869 0.07530962
0.047749158 0.06475016 0.09687694 0.05345447 0.10631287 0.07729036 0.07679622 0.02398786
00000000: fe76 4f3d 73b9 9f3d 249a 853d 6b46 593d
00000010: ae74 903d dfab b03d 5fd2 583d 1755 913d
00000020: f89e ce3d 967d 833d 3869 3e3d f916 cd3c
00000030: e6df 793d baa6 603d fbe6 a73d 136f 6e3d
00000040: c96b 913d 669a aa3d db2d 2c3d 3496 113d
00000050: 5169 893d f75e 5a3d 079c 8b3d ee3b 9a3d
00000060: 9f94 433d bb9b 843d 6b67 c63d 13f3 5a3d
00000070: 90ba d93d 694a 9e3d 5647 9d3d 3082 c43c

body.block2.conv.weight f4 [32, 32, 3, 3]
-0.028847745 -0.00019734206 -0.0077157505 0.03027075 -0.0004372349 0.01947382 0.0058789463 0.009367365
-0.009736112 0.04567983 -0.014766567 0.001717251 -0.00034917035 -0.010214003 -0.004433011 -0.027517816
0.021238362 0.0072266846 -0.009146503 0.008856449 0.009832718 0.010213718 0.005478591 -0.023741247
-0.014019745 0.0011831955 0.012598738 0.0015879289 0.0037610529 0.0036362559 0.008196334 0.0043577407
0.017722474 0.031181574 0.031747196 0.025174351 -0.030908138 0.024952523 -0.001162164 -0.026828902
-0.025077332 -0.028233359 0.028206442 -0.005611862 0.001069439 -0.0026091938 0.053336073 -0.01185374
-0.02911175 0.01626196 -0.018333193 0.0037151328 0.0007624214 0.00015665837 0.031244943 -0.011659741
-0.010428862 0.022109564 0.028291307 -0.013942856 -0.011896639 0.027934005 -0.0030386816 0.011372646
-0.009268569 0.010622335 0.018143535 -0.026616337 0.0011053008 -0.004681628 -0.0067165582 -0.016326891
0.0061930553 0.0019540936 0.040581957 -0.00040245787 -0.0175061 0.0096371975 -0.012585593 0.021942096
0.028287616 0.01477575 -0.027950048 0.042107295 0.0011809111 -0.01217788 0.029153168 -0.02868773
0.01649571 0.025182743 0.00042812055 -0.0144714 -0.0012562044 0.010516498 0.03023051 0.055865664
0.030564684 -0.006402407 -0.013388191 0.0047937254 0.018945439 0.010303181 0.012087535 -0.0104293795
0.0013984339 0.00046807836 -0.005313835 -0.027907738 -0.022171214 0.0051149665 -0.026614795 0.00228724
0.002733522 -0.032686193 -0.0027794982 -0.0011543238 -0.036353916 -0.0073805116 0.01609053 0.021375403
0.014522356 -0.036164947 -0.008216017 0.0010887499 -0.02402983 -0.008195592 0.008434866 0.032531388
0.011281863 0.0052948263 0.028604385 0.0077017504 0.007776507 -0.019811135 0.021525761 0.04020495
-0.037664037 0.057458773 0.0006063396 0.024703816 0.007855056 -0.014311212 -0.003142037 -0.02472981
-0.017410839 0.0050025946 0.038441103 0.019217484 0.0063715344 -0.015133522 0.007785696 0.0032526182
0.0014895357 -0.01909176 0.0011964121 -0.0070636305 0.0021059492 -0.018059792 -0.019447334 -0.009404883
-0.026230061 0.009098687 0.0029487761 -0.012089856 0.023486353 -0.039083503 0.040053606 -0.00025655533
-0.0038645668 0.020639416 0.016716938 0.0003514512 0.046785317 -0.028465621 0.042844884 -0.00944943
-0.03863732 0.00051545363 0.005820853 0.011168978 -0.06359201 -0.026773237 -0.01807057 -0.027972674
-0.0043544485 -0.032629326 -0.0037334685 0.008069664 -0.019022793 0.011320345 0.013668532 -0.00424315
-0.029398642 0.007478519 -0.005541095 -0.00064002944 0.029508997 -0.014672332 -0.032330193 -0.008521524
-0.013784774 0.0010942628 -0.012100783 0.0035856166 -0.031217832 0.00551876 0.023982821 -0.022324586
0.021689346 -0.021895291 0.008775292 -0.02653799 0.014506749 0.006131281 0.07669044 -0.036336377
-0.008883707 -0.025594182 -0.0005023935 -0.012647908 -0.001079359 -0.042126894 7.3911783e-06 -0.017654743
-0.00706725 -0.013476569 -0.014811941 0.0012842302 -0.012519147 0.02690327 0.009000145 0.013819353
-0.019263502 -0.004142348 0.014821259 0.01689261 -0.033017598 0.027326403 -0.020026492 -0.035463654
0.035919175 0.028666925 0.061695293 0.023535399 0.0026945109 -0.001685081 -0.0099506555 0.0017005296
0.020253876 -0.016373878 0.01804045 -0.010168684 0.004898243 -0.011291753 -0.0067373873 0.0077905864
00000000: 1b52 ecbc 9bed 4eb9 68d4 fcbb 5dfa f73c
00000010: ad3c e5b9 9087 9f3c 2da4 c03b 9479 193c
00000020: 3784 1fbc c61a 3b3d 79ef 71bc 6215 e13a
00000030: da10 b7b9 a258 27bc cb42 91bb 0b6d e1bc
00000040: 13fc ad3c d3cd ec3b 37db 15bc a41a 113c
00000050: 6919 213c 7057 273c c185 b33b 017d c2bc
00000060: 13b3 65bc 7415 9b3a f06a 4e3c 0d22 d03a
00000070: ff7b 763b 404e 6e3b eb49 063c 61cb 8e3b
00000080: b92e 913c 8070 ff3c 5909 023d 713a ce3c
00000090: 1033 fdbc 3c69 cc3c c153 98ba 49c8 dbbc
000000a0: fa6e cdbc a549 e7bc 3211 e73c b6e3 b7bb
000000b0: 6b2c 8c3a 02ff 2abb ed76 5a3d 3036 42bc
000000c0: c47b eebc cd37 853c 7e2f 96bc 9679 733b
000000d0: 3cdd 473a a944 2439 65f5 ff3c 8008 3fbc
000000e0: d1dd 2abc 1e1f b53c 2cc3 e73c 9470 64bc
000000f0: 1fea 42bc dbd5 e43c 9e24 47bb 5654 3a3c
00000100: 32db 17bc 4d09 2e3c c0a1 943c 810a dabc
00000110: bedf 903a 5868 99bb 9316 dcbb f9bf 85bc
00000120: 1def ca3b 4010 003b 4439 263d fb00 d3b9
00000130: f468 8fbc 56e5 1d3c ce33 4ebc e9bf b33c
00000140: 6ebb e73c fd15 723c 80f7 e4bc b378 2c3d
00000150: cdc8 9a3a bb85 47bc a0d2 ee3c 8802 ebbc
00000160: 0322 873c 0a4c ce3c 5e75 e039 7319 6dbc
00000170: 3aa7 a4ba 644d 2c3c f9a5 f73c 65d3 643d
00000180: ca62 fa3c 48cb d1bb 255a 5bbc af14 9d3b
00000190: 7733 9b3c acce 283c cc0a 463c fddf 2abc
000001a0: a84b b73a 6a68 f539 ae1f aebb c59e e4bc
000001b0: 68a0 b5bc 739b a73b 4507 dabc 85e5 153b
000001c0: e424 333b f5e1 05bd 3e28 36bb ae4c 97ba
000001d0: d8e7 14bd 38d8 f1bb 4ad0 833c 781b af3c
000001e0: 2def 6d3c b221 14bd 799c 06bc 62b4 8e3a
000001f0: 35da c4bc ce46 06bc 6432 0a3c a23f 053d
00000200: 90d7 383c 3980 ad3b be53 ea3c f75e fc3b
00000210: 12d2 fe3b f64a a2bc cb56 b03c f2ad 243d
00000220: 9b45 1abd e459 6b3d c3f2 1e3a a85f ca3c
00000230: 7eb2 003c 9379 6abc a2ea 4dbb 2c96 cabc
00000240: 2da1 8ebc ceec a33b 6b74 1d3d fc6d 9d3c
00000250: 4ec8 d03b 98f2 77bc 271f ff3b e129 553b
00000260: 863c c33a 5366 9cbc eed0 9c3a 0776 e7bb
00000270: f703 0a3b 21f2 93bc 0450 9fbc f016 1abc
00000280: 6de0 d6bc a912 153c 4140 413b 8814 46bc
00000290: 7466 c03c 0616 20bd 400f 243d 4682 86b9
000002a0: ac44 7dbb fe13 a93c f6f1 883c fb42 b839
000002b0: f6a1 3f3d bc30 e9bc 1e7e 2f3d c8d1 1abc
000002c0: 2b42 1ebd 821f 073a dbbc be3b 17fe 363c
000002d0: 873c 82bd 8c53 dbbc bb08 94bc f326 e5bc
000002e0: c3af 8ebb 54a6 05bd 35ad 74bb a036 043c
000002f0: b0d5 9bbc f878 393c faf1 5f3c 1f0a 8bbb
00000300: 6cd5 f0bc 5d0e f53b 1392 b5bb a6c7 27ba
00000310: dabc f13c 3964 70bc aa6c 04bd dd9d 0bbc
00000320: 88d9 61bc 5e6d 8f3a 5d42 46bc aafc 6a3b
00000330: 8abc ffbc b7d6 b43b 9f77 c43c 0de2 b6bc
00000340: dbad b13c c15d b3bc 3ec6 0f3c 3366 d9bc
00000350: b7ad 6d3c eae8 c83b e10f 9d3d 74d5 14bd
00000360: f88c 11bc e4aa d1bc 0fb3 03ba 2c39 4fbc
00000370: 4779 8dba 408d 2cbd bd01 f836 aea0 90bc
00000380: 6494 e7bb d4cc 5cbc c9ad 72bc 9d53 a83a
00000390: 1c1d 4dbc 3f64 dc3c 5875 133c 916a 623c
000003a0: 7ece 9dbc 89bc 87bb ded4 723c 5f62 8a3c
000003b0: 763d 07bd 9fdb df3c 990e a4bc 5642 11bd
000003c0: fc1f 133d e6d6 ea3c 34b4 7c3d 4fcd c03c
000003d0: 6496 303b f0dd dcba 1308 23bc 4ee4 de3a
000003e0: 75eb a53c 8322 86bc 91c9 933c 8d9a 26bc
000003f0: 7181 a03b 0b01 39bc 4dc5 dcbb 2d48 ff3b

body.block2.conv.bias f4 [32]
0.008116817 -0.019518038 0.014753124 0.017637245 -0.059741896 -0.018847836 -0.035455186 -0.0032225987
-0.0022516195 0.020802671 0.009498063 0.05199721 -0.055102717 0.033818975 -0.051220868 -0.027967317
0.036487892 0.057632025 0.022340905 -0.038831096 -0.054935917 0.04945201 0.04121753 0.04175917
-0.0327632 0.01892783 0.04011334 0.00083286385 -0.05240446 0.008287726 0.016047047 0.044172853
00000000: 66fc 043c 4be4 9fbc 16b7 713c fc7b 903c
00000010: ebb3 74bd c766 9abc 7539 11bd 3c32 53bb
00000020: e88f 13bb 5d6a aa3c c39d 1b3c 07fb 543d
00000030: 63b3 61bd c485 0a3d f9cc 51bd b71b e5bc
00000040: 5474 153d 8f0f 6c3d 4604 b73c 5b0d 1fbd
00000050: 7c04 61bd 318e 4a3d b6d3 283d aa0b 2b3d
00000060: b532 06bd 890e 9b3c e34d 243d 8c54 5a3a
00000070: 0fa6 56bd 3ec9 073c 1975 833c 98ee 343d

body.block2.norm.weight f4 [32]
1.0110645 0.9833936 0.9987386 1.0530518 0.95774174 0.98860365 0.9847692 0.97223765
0.9663261 1.0136548 0.9951447 1.0314133 0.94654346 0.98862463 0.99250716 1.006063
1.0581776 0.98395294 1.0108349 0.9862488 0.99692917 1.0238794 0.97238636 0.9875948
0.96666217 0.972168 0.99327964 0.99104613 0.9548086 1.0285343 1.0509622 1.021199
00000000: 906a 813f afbf 7b3f 55ad 7f3f 67ca 863f
00000010: 902e 753f 2115 7d3f d619 7c3f 91e4 783f
00000020: 2661 773f 71bf 813f cec1 7e3f 5a05 843f
00000030: ac50 723f 8116 7d3f f314 7e3f acc6 803f
00000040: 5d72 873f 57e4 7b3f 0a63 813f cd7a 7c3f
00000050: c036 7f3f 7b0e 833f 50ee 783f 03d3 7c3f
00000060: 2c77 773f 01e0 783f 9347 7e3f 33b5 7d3f
00000070: 566e 743f 03a7 833f ee85 863f a6b6 823f

body.block2.norm.bias f4 [32]
-0.014807586 -0.022931196 -0.012078945 -0.021556366 -0.022446146 -0.031192344 -0.0434829 -0.008279875
0.01759898 -0.009441782 -0.0038162582 -0.009460701 -0.007178375 -0.028279595 -0.044754274 0.0057489714
-0.08460632 -0.029728519 -0.083735645 -0.012729482 0.024503175 -0.0012424256 -0.009956987 -0.010787848
-0.012687799 0.013868136 -0.006560959 -0.06712879 -0.030969443 -0.041740168 0.034612093 -0.024469147
00000000: 849b 72bc 34da bbbc c4e6 45bc fa96 b0bc
00000010: fbe0 b7bc 1687 ffbc 201b 32bd 50a8 07bc
00000020: bc2b 903c b4b1 1abc 301a 7abb 0e01 1bbc
00000030: 9338 ebbb 9caa e7bc 4250 37bd de61 bc3b
00000040: 1446 adbd 3989 f3bc 987d abbd 518f 50bc
00000050: e2ba c83c e3d8 a2ba a122 23bc 84bf 30bc
00000060: 7ce0 4fbc 2e37 633c 50fd d6bb d27a 89bd
00000070: a1b3 fdbc bdf7 2abd 69c5 0d3d 8573 c8bc

body.block2.norm.running_mean f4 [32]
0.056831293 0.10326871 0.071915194 -0.18717277 0.23923655 -0.14923295 0.1036167 -0.0940413
0.121289186 0.029012928 -0.19050424 -0.23633721 -0.042960946 0.1400443 -0.004604659 -0.3838738
0.33370405 0.10803158 0.30535743 -0.09536599 -0.30075768 -0.10158669 -0.057718027 0.059013598
-0.24045832 -0.20531106 -0.085604146 0.061288137 0.0293796 0.46811858 -0.13731824 0.34191808
00000000: eec7 683d 8c7e d33d 4648 933d 38aa 3fbe
00000010: 6dfa 743e 86d0 18be fe34 d43d ba98 c0bd
00000020: 7766 f83d 85ac ed3c 8b13 43be 6202 72be
00000030: d1f7 2fbd c667 0f3e aee2 96bb 1b8b c4be
00000040: 42db aa3e a93f dd3d cf57 9c3e 3f4f c3bd
00000050: e9fc 99be af0c d0bd bd69 6cbd 3eb8 713d
00000060: b53a 76be 103d 52be 3a51 afbd 4509 7b3d
00000070: 7dad f03c 3dad ef3e 279d 0cbe e30f af3e

body.block2.norm.running_var f4 [32]
0.060058665 0.12371274 0.039629016 0.037697498 0.06172353 0.052431736 0.059273705 0.047635604
0.047290113 0.09625309 0.057255108 0.05363844 0.0770936 0.07104643 0.061853036 0.09689444
0.07170833 0.103966296 0.04745964 0.03559838 0.07780804 0.092090346 0.06460978 0.052048646
0.05531305 0.074041255 0.07837003 0.07038363 0.05194989 0.06459238 0.07532801 0.048163597
00000000: 1300 763d 1b5d fd3d 0952 223d b168 1a3d
00000010: d0d1 7c3d a9c2 563d fcc8 723d 8d1d 433d
00000020: 47b3 413d 5720 c53d 5584 6a3d fbb3 5b3d
00000030: 40e3 9d3d ca80 913d 9c59 7d3d 9870 c63d
00000040: d1db 923d 48ec d43d 0a65 423d 9bcf 113d
00000050: d259 9f3d dd99 bc3d 2252 843d f630 553d
00000060: f08f 623d f1a2 973d 7780 a03d 4b25 903d
00000070: 68c9 543d 0249 843d 9245 9a3d 3147 453d

body.block3.conv.weight f4 [32, 32, 3, 3]
-0.020574609 0.013284175 -0.01436972 0.006440138 0.0073291324 -0.009773926 0.007809879 0.02102694
0.012349267 0.011011825 0.0043339925 -0.010134642 0.0010556525 0.020795003 0.0023631053 -0.023597825
0.01056802 -0.03009487 0.028293245 0.0068909684 -0.008545791 -0.0033840765 0.018184803 -0.041177005
-0.01676059 -0.027985422 -0.0131012425 -0.024921887 0.0072303405 0.026474379 0.008219301 0.0049901437
0.001266747 -0.0053790375 0.015684761 -0.029691065 0.0008134576 -0.0030956678 0.004864952 -0.026822297
-0.010610044 -0.011526636 0.003907266 0.021450879 0.01919427 -0.012551611 0.0051249284 -0.0035558844
-0.024701895 -0.03460256 0.033916347 0.0001994057 -0.0048782337 0.02137347 -0.0074945474 -0.0124511765
-0.008640598 -0.012856431 0.0182143 -0.03639448 -0.007491798 -0.012245485 -0.013411882 -0.04617095
-0.027362611 -0.0158045 0.030603677 -0.01556536 -0.01181373 -0.061092537 0.01910664 -0.021240937
-0.012865815 -0.016449891 0.02377875 0.0038028585 -0.0019699638 -0.0006239744 0.02460709 0.014427885
-0.005767582 0.017955577 0.005432646 -0.026231758 0.00465116 -0.015938763 -0.0107408855 0.012474357
-0.013063873 0.02884519 -0.0018791386 -0.0043090563 0.02174305 0.010443515 -0.02425497 -0.022200447
0.0068592215 -0.007507906 -0.029939465 0.020986177 0.001393993 0.020140318 0.02216669 0.022858331
-0.00735333 -0.020012958 -0.0038525006 -0.010406124 -0.01747517 -0.022036377 0.0031927363 -0.0010460968
-0.0029510052 -0.0032058437 -0.04132001 -0.010016608 0.0050886995 -0.009967035 0.025497478 -0.015334345
0.020285804 -0.023193313 -0.0023373277 0.010161153 0.039220683 0.038585022 0.0038987808 -0.020072743
-0.004877852 0.003934781 0.0066456497 0.02456591 0.04440574 -0.0028364141 -0.011662662 -0.01022745
0.04757499 0.042988997 -0.05504478 -0.0038898643 -0.038970016 -0.03361487 0.016725149 0.0008408153
0.032025706 -0.004073774 0.004060149 -0.027001716 -0.0071917735 -0.010174238 -0.026712416 0.0074686944
0.0035975873 0.00242239 -0.016606675 -0.014136653 -0.011814131 -0.041417677 0.011419558 0.020672865
-0.0028044588 0.001735004 0.01106532 0.02543211 -0.00058821467 -0.033262923 0.00094753463 -0.029819075
-0.018371757 0.027688742 -0.027881704 -0.006312563 -0.0056227557 -0.023972936 0.026656125 -0.02643081
0.01310204 -0.038422517 -0.010012015 0.028127147 -0.004438172 -0.026091725 -0.029720638 0.0117863715
-0.055090714 0.028304093 0.028039759 0.012787368 -0.026712095 -0.0075588813 0.0059818993 0.017798387
0.020250618 0.01950583 0.004236512 0.016770173 0.027772918 0.015987946 -0.033239216 0.05085769
-0.038821068 -0.033200126 0.027767446 -0.024474302 0.022965714 0.019178057 0.009965706 -0.00863007
-0.012561716 -0.00012857525 0.0033553496 0.0014644888 -0.0024197989 0.0037029115 -0.010577246 0.017844504
0.009899563 0.021448415 0.016364167 0.02113898 0.014001891 -0.04617835 0.004895608 0.013949966
0.0009899343 -0.0077999234 -0.026895046 -0.009393123 0.011768199 -0.0017228611 0.0049586175 0.02005142
0.011847339 0.024486516 0.0021371394 -0.008315894 0.017572654 -0.011979301 -0.003944855 0.04526855
0.032084513 -0.050053548 0.028196616 0.014137864 0.008863383 -0.011838451 -0.010503021 -0.028528355
0.015217497 -0.026611019 0.00790554 -0.0062864674 -0.0064283414 0.002628376 0.025232978 -0.019892184
00000000: 158c a8bc dea5 593c f96e 6bbc cb07 d33b
00000010: 3829 f03b d122 20bc 03ea ff3b b040 ac3c
00000020: 9454 4a3c f16a 343c 2a04 8e3b c50b 26bc
00000030: d25d 8a3a 485a aa3c 54de 1a3b 3a50 c1bc
00000040: 7d25 2d3c 8489 f6bc 3cc7 e73c a2cd e13b
00000050: a503 0cbc 62c7 5dbb 4cf8 943c 38a9 28bd
00000060: 814d 89bc af41 e5bc 98a6 56bc fc28 ccbc
00000070: 7eec ec3b cce0 d83c 3faa 063c 5c84 a33b
00000080: fa08 a63a a342 b0bb 547d 803c ad3a f3bc
00000090: 373e 553a b0e0 4abb 2d6a 9f3b 6fba dbbc
000000a0: c0d5 2dbc 37da 3cbc 8608 803b c1b9 af3c
000000b0: 4d3d 9d3c 46a5 4dbc 04ef a73b d709 69bb
000000c0: a15b cabc 6abb 0dbd deeb 0a3d 8f17 5139
000000d0: 97d9 9fbb 6a17 af3c d294 f5bb 0500 4cbc
000000e0: 4b91 0dbc c8a3 52bc 2836 953c 6112 15bd
000000f0: c27d f5bb 49a1 48bc 83bd 5bbc c01d 3dbd
00000100: 8e27 e0bc 7078 81bc 90b4 fa3c da05 7fbc
00000110: 608e 41bc 2b3c 7abd 8785 9c3c 7901 aebc
00000120: 24cb 52bc ecc1 86bc a7cb c23c 6139 793b
00000130: 821a 01bb 3792 23ba cf94 c93c f062 6c3c
00000140: fcfd bcbb 9317 933c 5604 b23b fce3 d6bc
00000150: c268 983b 0292 82bc 8afa 2fbc 3f61 4c3c
00000160: db09 56bc bf4c ec3c 6e4d f6ba fc32 8dbb
00000170: 7b1e b23c 471b 2b3c 5cb2 c6bc b6dd b5bc
00000180: 52c3 e03b e104 f6bb 9c43 f5bc 34eb ab3c
00000190: a5b6 b63a 4ffd a43c eb96 b53c 6541 bb3c
000001a0: 34f4 f0bb 37f2 a3bc 3c7a 7cbb 737e 2abc
000001b0: 1628 8fbc a285 b4bc 3a3d 513b 2f1d 89ba
000001c0: a765 41bb 2219 52bb 2c3f 29bd b31c 24bc
000001d0: 1bbf a63b c64c 23bc 16e0 d03c e83c 7bbc
000001e0: 6a2e a63c e7ff bdbc da2d 19bb f77a 263c
000001f0: dea5 203d 540b 1e3d b082 7f3b 986f a4bc
00000200: 63d6 9fbb 56ef 803b c0c3 d93b 733e c93c
00000210: cbe2 353d 22e3 39bb c014 3fbc 0991 27bc
00000220: fedd 423d 3b15 303d a376 61bd 18ed 7ebb
00000230: 069f 1fbd bfaf 09bd 2e03 893c 296a 5c3a
00000240: 632d 033d 4b7d 85bb 000b 853b b432 ddbc
00000250: f8a8 ebbb d9b1 26bc ffd3 dabc f3bb f43b
00000260: 80c5 6b3b f6c0 1e3b b90a 88bc 6c9d 67bc
00000270: 0f90 41bc 95a5 29bd 1919 3b3c 245a a93c
00000280: 03cb 37bb 1369 e33a 514b 353c 0057 d03c
00000290: 6b32 1aba b43e 08bd f963 783a 2247 f4bc
000002a0: 5e80 96bc 80d3 e23c 2c68 e4bc 9ed9 cebb
000002b0: 183f b8bb e462 c4bc f25d da3c 6d85 d8bc
000002c0: f0a9 563c ee60 1dbd 6f09 24bc e76a e63c
000002d0: 166e 91bb 50be d5bc b278 f3bc a01b 413c
000002e0: cda6 61bd fcdd e73c a3b3 e53c 1c82 513c
000002f0: 53d3 dabc 7eb0 f7bb cf03 c43b eccd 913c
00000300: a0e4 a53c b1ca 9f3c 70d2 8a3b 9a61 893c
00000310: 0884 e33c 27f9 823c d825 08bd 2750 503d
00000320: d702 1fbd dbfc 07bd 8e78 e33c 557e c8bc
00000330: 9822 bc3c 4d1b 9d3c 3347 233c 2365 0dbc
00000340: a8cf 4dbc 28d2 06b9 6de5 5b3b 17f4 bf3a
00000350: 7d95 1ebb 8cac 723b 2f4c 2dbc a32e 923c
00000360: c731 223c 96b4 af3c 250e 863c a72b ad3c
00000370: 3068 653c 8225 3dbd 566b a03b 668e 643c
00000380: afc0 813a 8096 ffbb 0053 dcbc 9de5 19bc
00000390: 67cf 403c a0d1 e1ba e67b a23b e042 a43c
000003a0: 571b 423c f297 c83c 400f 0c3b 633f 08bc
000003b0: 87f4 8f3c d544 44bc d843 81bb 846b 393d
000003c0: 0d6b 033d f304 4dbd 97fc e63c 80a2 673c
000003d0: b937 113c 10f6 41bc dd14 2cbc 4cb4 e9bc
000003e0: cf52 793c 5aff d9bc 3d86 013c b6fe cdbb
000003f0: d6a4 d2bb d540 2c3b 64b5 ce3c eff4 a2bc

body.block3.conv.bias f4 [32]
-0.041436348 0.0013369032 -0.0049327766 0.05276518 -0.0056771305 -0.012664236 0.023278894 0.052703287
0.003519675 -0.020532817 -0.02498226 0.025081316 0.01860281 -0.04717523 0.01748865 0.024346592
-0.010086509 0.006556291 0.006662482 0.0119593525 0.030592926 0.034144543 -8.108868e-05 -0.024312923
-0.008285641 0.02667581 -0.021302283 -0.024888128 -0.042536832 0.046906065 0.030053131 -0.010427986
00000000: 29b9 29bd 073b af3a 21a3 a1bb 4d20 583d
00000010: 3907 babb a87d 4fbc 61b3 be3c 67df 573d
00000020: 59aa 663b 7034 a8bc 99a7 ccbc 5577 cd3c
00000030: ec64 983c d03a 41bd 5b44 8f3c 8172 c73c
00000040: e341 25bc 28d6 d63b f350 da3b 29f1 433c
00000050: 049e fa3c 26db 0b3d 270e aab8 e52b c7bc
00000060: 7fc0 07bc 3a87 da3c 2082 aebc 30e2 cbbc
00000070: 1a3b 2ebd 9320 403d fc31 f63c 25da 2abc

body.block3.norm.weight f4 [32]
1.0209764 1.0013127 0.98675245 0.94051266 0.96807307 1.0202676 1.0351194 0.9828853
0.9369004 1.0036649 0.95672446 0.99599093 0.9696094 0.9891282 0.99706614 0.9508261
0.9477001 0.98657346 1.0354203 0.94896024 0.9787112 1.0113522 1.0084558 0.9673667
0.964979 0.9713161 0.9929605 0.95570874 0.9539206 0.9432966 0.9575438 0.98271996
00000000: 5baf 823f 042b 803f cf9b 7c3f 70c5 703f
00000010: a3d3 773f 2198 823f cb7e 843f 5f9e 7b3f
00000020: b4d8 6f3f 1778 803f e5eb 743f 43f9 7e3f
00000030: 5238 783f 8137 7d3f ba3f 7f3f 5769 733f
00000040: 799c 723f 1490 7c3f a788 843f 0fef 723f
00000050: d18c 7a3f fd73 813f 1415 813f 58a5 773f
00000060: dd08 773f 2ca8 783f a932 7e3f 54a9 743f
00000070: 2434 743f e37b 713f 9721 753f 8993 7b3f

body.block3.norm.bias f4 [32]
0.007855694 0.00330427 -0.019335795 -0.02056527 -0.034562696 -0.009380445 -0.051140405 -0.009831945
-0.005515624 0.006916048 -0.0075486554 -0.06091148 0.00021701142 -0.0024063422 0.0062894267 -0.008536889
-0.0030163017 0.020083433 -0.01262333 -0.0047078296 0.014273847 -0.009151844 -0.03870018 -0.023674417
-0.014890628 -0.014001835 -0.00719129 -0.011638138 -0.04155748 -0.009445023 -0.013893856 -0.022258995
00000000: 2bb5 003c 748c 583b 1a66 9ebc 7f78 a8bc
00000010: 9d91 0dbd 70b0 19bc 9a78 51bd 2b16 21bc
00000020: 68bc b4bb 04a0 e23b b65a f7bb 517e 79bd
00000030: 8f8d 6339 b9b3 1dbb 8917 ce3b 4fde 0bbc
00000040: 25ad 45bb 0386 a43c 15d2 4ebc 2344 9abb
00000050: dbdc 693c 9ef1 15bc 1484 1ebd daf0 c1bc
00000060: d2f7 73bc f467 65bc eaa4 ebbb e4ad 3ebc
00000070: 2d38 2abd 4cbf 1abc 0ea3 63bc 7f58 b6bc

body.block3.norm.running_mean f4 [32]
-0.033968195 -0.12671643 0.03211472 0.19561015 -0.04279416 0.07482774 -0.011672523 -0.03852842
0.057047956 -0.4295154 -0.016318105 0.21991067 0.17184617 -0.111140564 -0.03731387 0.35321897
0.05828094 -0.25667524 -0.03213029 0.007884849 0.008658841 0.12825572 0.02675038 -0.08946501
0.028822357 -0.062232006 0.18734547 0.055431753 0.0874773 -0.10809481 0.11637522 -0.094089314
00000000: 3c22 0bbd f4c1 01be ba8a 033d 074e 483e
00000010: ee48 2fbd 493f 993d 1c3e 3fbc facf 1dbd
00000020: 1eab 693d 71e9 dbbe 8cad 85bc 4330 613e
00000030: 71f8 2f3e aa9d e3bd 6ed6 18bd 1ed9 b43e
00000040: ffb7 6e3d f06a 83be 0d9b 03bd 742f 013c
00000050: d0dd 0d3c 7855 033e 9d23 db3c 6e39 b7bd
00000060: dd1c ec3c fde6 7ebd 7ed7 3f3e 680c 633d
00000070: 4c27 b33d d060 ddbd 2256 ee3d e6b1 c0bd

body.block3.norm.running_var f4 [32]
0.07912862 0.09117072 0.07468848 0.0754153 0.09926307 0.0642286 0.07320369 0.081398
0.04842648 0.09200879 0.067046314 0.06707702 0.06695292 0.085065745 0.07482262 0.11076436
0.05471885 0.13072896 0.097866565 0.065072775 0.09379921 0.12893707 0.07482514 0.079899564
0.052465957 0.07026715 0.09266342 0.15531288 0.08807284 0.0956561 0.08382907 0.10324771
00000000: 300e a23d b7b7 ba3d 46f6 983d 5673 9a3d
00000010: 704a cb3d 498a 833d d1eb 953d ffb3 a63d
00000020: d85a 463d 1b6f bc3d 944f 893d ad5f 893d
00000030: 9d1e 893d f336 ae3d 9a3c 993d 6dd8 e23d
00000040: df20 603d d0dd 053e 446e c83d e044 853d
00000050: cd19 c03d 1408 043e ec3d 993d 62a2 a33d
00000060: 8be6 563d 39e8 8f3d 52c6 bd3d 570a 1f3e
00000070: 885f b43d 58e7 c33d 93ae ab3d 8973 d33d

tail.0.weight f4 [3, 32, 3, 3]
0.01347037 -0.008409407 0.008756277 -0.003824481 -0.03477108 0.016947536 -0.017579004 0.009808729
-0.026429998 0.027401026 0.042902004 -0.0042053466 0.0027147569 0.0031050444 -0.015437043 0.018390762
0.014125721 0.009536624 -0.0058785863 -0.027081225 0.013006223 0.00445201 -0.0046886783 -0.018092118
-0.0040291823 0.0034430723 0.02968829 0.0320145 0.035821736 0.009892688 -0.00043858014 -0.010752663
0.004612163 0.0028952134 0.006952042 0.008658015 -0.0022790406 -0.028594743 -0.047344282 0.0046674786
-0.010953005 -0.0006969071 0.03403473 0.038307052 0.018382736 0.045545947 0.029501358 0.025602948
0.018806843 0.00607567 -0.0006312431 0.016625246 0.038826376 0.021518888 0.075279415 0.06136661
0.0040353155 0.010114025 0.005168734 -0.0016429939 0.014821183 -0.007383407 0.012538084 -0.026318166
-0.0035969864 -0.0092186965 0.016057272 0.030202804 0.0025273997 0.0014160539 0.00052902545 0.014461675
-0.026975885 0.0071566883 -0.012570757 0.0081133535 0.009425246 -0.009292095 0.006229407 0.031403784
-0.003974131 0.0003651172 0.009286522 -0.002899848 0.018629683 0.033339173 0.034038622 -0.0085444655
-0.0014004976 -0.012160188 0.007957418 -0.008464339 -0.0011322688 0.041920435 0.005472588 -0.023795314
0.014295082 -0.008103401 0.0018502986 0.023048472 0.012043336 0.010580349 0.024757195 0.03988204
0.02247408 -0.00066267594 0.03236664 -0.00047936448 -0.008450966 -0.009053106 -0.029676626 -0.009602479
-0.0067297984 0.008492991 0.008191469 0.0030198896 -0.027336124 0.01204695 0.009143443 0.034247316
-0.0093874 0.014960954 0.017708475 -0.009527116 0.0014830728 0.0037360252 0.01105282 -0.013408538
0.0018793367 -0.0026683449 0.0152348755 0.012774252 -0.0071517257 -0.016109396 0.017165614 0.0023037374
-0.00438552 0.007371536 0.030723795 0.04847054 0.004360949 0.013882136 0.009151516 -0.0015250909
-0.0005255875 0.009289516 -0.0022439559 0.0016709414 0.006805101 -0.013063598 -0.02701422 -0.027488185
0.0026527739 0.002454731 -0.027095357 -0.03985835 -0.00023524609 0.03410695 0.022734609 0.0134043135
-0.0013712638 0.0047650775 0.04120951 0.012273201 0.003120621 -0.04011649 0.0048998 0.009718752
0.0009262372 -0.008190993 -0.018110776 0.015275038 -0.004275055 0.008776384 2.0733578e-05 -0.025334263
-0.012501093 0.02791967 0.013649269 -0.0041694497 -0.0018932996 -0.048923194 -0.010736781 -0.022574248
-0.01811143 -0.015625827 -0.0049660844 -0.030114857 -0.017299984 0.016254794 0.022265816 -0.00074156077
-0.012506326 -0.030850075 -0.0055739903 0.020051662 0.009744424 0.015960844 -0.009289677 -0.02604425
-0.0009310416 -0.017995527 -0.044206094 0.0017118596 -0.00028138535 -0.028726662 -0.041775934 -0.0010835002
-0.008057973 0.006743614 0.009512362 0.011098244 0.012151002 0.011974459 -0.022953283 0.022386597
0.010739304 -0.009235497 0.013947106 -0.0062973676 -0.01856871 0.004862097 0.0050250012 0.05056879
0.030613234 -0.004397469 0.011931194 0.016229006 0.0040286775 0.03976665 0.006760024 -0.0018839797
0.012376316 0.018614465 -0.0052276463 0.018831573 0.0027009076 0.0029218425 -0.01442958 -0.0111070955
0.02111669 0.00019274272 0.02291058 -0.036962595 0.006924775 -0.043993104 -0.031847235 -0.019680727
0.013003211 0.0019179572 -0.014117038 -0.010529385 0.017211976 0.01951915 -0.016497826 -0.02428276
00000000: d4b2 5c3c 9cc7 09bc 7d76 0f3c 25a4 7abb
00000010: 1f6c 0ebd 8fd5 8a3c d801 90bc cbb4 203c
00000020: b983 d8bc 1e78 e03c 03ba 2f3d 01cd 89bb
00000030: 10ea 313b 007e 4b3b a7eb 7cbc 39a8 963c
00000040: 916f 673c 803f 1c3c 28a1 c0bb 72d9 ddbc
00000050: 0e18 553c 2be2 913b 7ca3 99bb ec35 94bc
00000060: 3b07 84bb 2ba5 613b db34 f33c a321 033d
00000070: d0b9 123d f114 223c 3bf1 e5b9 f02b 30bc
00000080: a121 973b 9fbd 3d3b f5cd e33b 59da 0d3c
00000090: f55b 15bb 863f eabc 14ec 41bd a6f1 983b
000000a0: 3c74 33bc a5b0 36ba 0068 0b3d dbe7 1c3d
000000b0: 6497 963c 638e 3a3d d5ac f13c 46bd d13c
000000c0: cf10 9a3c 6a16 c73b 027a 25ba ab31 883c
000000d0: 6808 1f3d 6148 b03c 182c 9a3d 8e5b 7b3d
000000e0: ae3a 843b 4cb5 253c 7c5e a93b ba59 d7ba
000000f0: 8cd4 723c 82f0 f1bb 896c 4d3c 3299 d7bc
00000100: 6bbb 6bbb 040a 17bc 8a8a 833c df6b f73c
00000110: bba2 253b e29a b93a 4cae 0a3a a9f0 6c3c
00000120: 88fc dcbc a782 ea3b 94f5 4dbc dfed 043c
00000130: 596c 1a3c df3d 18bc 0e20 cc3b 41a1 003d
00000140: 6d39 82bb 336d bf39 7f26 183c 600b 3ebb
00000150: 479d 983c a88e 083d 156c 0b3d 16fe 0bbc
00000160: e790 b7ba 863b 47bc d55f 023c 03ae 0abc
00000170: a368 94ba c3b4 2b3d 6553 b33b 64ee c2bc
00000180: eb35 6a3c 21c4 04bc b885 f23a 26d0 bc3c
00000190: 6a51 453c 3359 2d3c 9acf ca3c 5a5b 233d
000001a0: 901b b83c 6eb7 2dba e292 043d 3653 fbb9
000001b0: ec75 0abc 7b53 14bc 651c f3bc b753 1dbc
000001c0: a485 dcbb 3026 0b3c 8335 063c 57e9 453b
000001d0: 02f0 dfbc 9260 453c 61ce 153c ea46 0c3d
000001e0: 9ccd 19bc ca1e 753c 5d11 913c 9f17 1cbc
000001f0: aa63 c23a 1ad8 743b e316 353c 7caf 5bbc
00000200: 1354 f63a 66df 2ebb b39b 793c 194b 513c
00000210: 0659 eabb daf7 83bc e79e 8c3c 4dfa 163b
00000220: 68b4 8fbb ed8c f13b 78b0 fb3c 0c89 463d
00000230: 4be6 8e3b e671 633c 3df0 153c 8fe5 c7ba
00000240: 94c7 09ba 0e33 183c 550f 13bb 7d03 db3a
00000250: 53fd de3b b408 56bc ed4c ddbc e72e e1bc
00000260: 29da 2d3b 8ddf 203b 15f7 ddbc 8242 23bd
00000270: 64ac 76b9 bbb3 0b3d ee3d ba3c c49d 5b3c
00000280: fabb b3ba 5e24 9c3b 4ecb 283d 8915 493c
00000290: 5583 4c3b 3051 24bd 808e a03b 663b 1f3c
000002a0: bace 723a 8433 06bc 0d5d 94bc 2744 7a3c
000002b0: c315 8cbb d3ca 0f3c 05ed ad37 cd89 cfbc
000002c0: 62d1 4cbc cbb7 e43c 2fa1 5f3c e19f 88bb
000002d0: 9828 f8ba b063 48bd 53e9 2fbc a1ed b8bc
000002e0: 6c5e 94bc bc01 80bc 89ba a2bb 6fb3 f6bc
000002f0: b2b8 8dbc c628 853c cd66 b63c 4d65 42ba
00000300: 55e7 4cbc 4cb9 fcbc 05a6 b6bb 6243 a43c
00000310: 14a7 1f3c 51c0 823c bb33 18bc c05a d5bc
00000320: 2511 74ba 5b6b 93bc 7311 35bd 7a60 e03a
00000330: e786 93b9 2d54 ebbc 3e1d 2bbd 3c04 8eba
00000340: 9705 04bc 89f9 dc3b bdd9 1b3c 69d5 353c
00000350: ff14 473c 8530 443c 8608 bcbc 1964 b73c
00000360: e8f3 2f3c 7b50 17bc 6782 643c 265a cebb
00000370: 681d 98bc 3a52 9f3b c4a8 a43b 3821 4f3d
00000380: 9bc8 fa3c a518 90bb 0e7b 433c b1f2 843c
00000390: ff02 843b 5be2 223d 3183 dd3b deef f6ba
000003a0: 08c6 4a3c 5d7d 983c ad4c abbb ac44 9a3c
000003b0: b601 313b 627c 3f3b 0c6a 6cbc 89fa 35bc
000003c0: e9fc ac3c fb1a 4a39 f8ae bb3c 1766 17bd
000003d0: 39e9 e23b 1d32 34bd 3f72 02bd 7a39 a1bc
000003e0: 6b0b 553c f763 fb3a 264b 67bc 7183 2cbc
000003f0: 2100 8d3c a0e6 9f3c 7326 87bc a4ec c6bc

tail.0.bias f4 [3]
0.0055421693 0.02050126 -0.033193205
00000000: 169b b53b 42f2 a73c 99f5 07bd
