code/Output/birds/pdl_e8000_1px_lr0.0005a10.0_up-conv5_1_W[1.0, 0.75, 0.2, 0.2, 0.2](4)/4/netG.pth (torch, 471621 bytes, 26 tensors)

head.conv.weight f4 [64, 3, 3, 3]
000000 e5 2c 60 3d 02 c5 ac 3b 1e a1 23 ba 3d e2 9f 3c
       0.054730315 0.0052725086 -0.0006241965 0.019517059
000010 4b a9 3e 3a 7f 4a 4f 3c be 28 3b bd 73 9b 01 bd
       0.00072731514 0.012652039 -0.04569315 -0.03164239
000020 3b 32 3d bc 37 9a c5 3c bc df 40 3b e0 17 e8 bc
       -0.01154762 0.024121387 0.002943023 -0.028331697
000030 dd 29 16 3b 47 23 b0 bd 88 1d 5e bd 2a 95 93 bd
       0.0022913136 -0.086004786 -0.054227382 -0.07206185
000040 22 a4 7f 3b a3 bd cc 3c 05 42 b5 3d 44 72 4e 3d
       0.0039007743 0.02499277 0.08850483 0.05040194
000050 d1 91 e4 3c 4d 69 b2 3c 2a 66 df 3c e6 d1 c1 3c
       0.027901562 0.021778727 0.027270395 0.023659658
000060 ef 6c 8d 3c c8 71 01 3d 0d 6d 19 3c 1a 43 88 3c
       0.017263858 0.03160265 0.009364379 0.016633559
000070 e6 4a 33 3d a5 27 64 3d 0d 17 ff 3b 64 d5 38 3b
       0.0437726 0.05570187 0.0077847303 0.0028203363
000080 5c 35 2c bc 93 5b 20 bb ed 39 3a 3c c8 0e f9 bb
       -0.010510769 -0.0024468645 0.01136635 -0.007600639
000090 df 06 6e bd 55 ce 57 bd 11 a7 78 3b 01 f5 a1 bc
       -0.05811202 -0.052687008 0.0037941376 -0.019770147
0000a0 b2 11 6f bd dc db 1f bd 8e ff a8 3c 4f ac 43 bd
       -0.058366485 -0.039028034 0.02062967 -0.04777175
0000b0 a9 ed 71 bd 20 6f c2 bd cb e1 60 bd f7 28 2c bd
       -0.05906454 -0.09493852 -0.054902833 -0.042031255
0000c0 cb fd 6c 3d da da 5d 3d 61 31 1e 3d a9 c5 97 3d
       0.057859223 0.05416379 0.03862131 0.074107476
0000d0 3f 1f 36 3d 7f 24 41 3d 8c 21 09 3c 14 d8 d8 bc
       0.044463392 0.047153946 0.008369815 -0.026470222
0000e0 af 04 6c bc b9 17 33 3d b7 bc b3 bb 59 1e 8b bc
       -0.0144054135 0.043723796 -0.005485143 -0.016982244
0000f0 0f d7 80 3d 2c b1 e6 bc 5a 9c ec bc 5d 83 9c bc
       0.06291019 -0.028160654 -0.028883148 -0.019105608
000100 c9 38 1e 3b 52 b0 22 bd cc 8e cb 3d 8e 2b c6 3b
       0.0024142733 -0.039718933 0.09939346 0.0060476726
000110 57 c6 21 bd b4 80 05 3e 3d 76 37 3d 79 36 84 3c
       -0.039495792 0.13037378 0.044790495 0.016139256
000120 6d 05 d4 bc ba 9b 6d bc 56 d2 34 bd 33 20 d1 3c
       -0.025881493 -0.01450246 -0.044145904 0.02552805
000130 4a 24 53 bd 6f 80 9b bd b5 81 a6 3c 1b a9 41 bd
       -0.05154828 -0.07592856 0.020325521 -0.047280412
000140 07 cd 9f bd 98 d5 d8 bc 0b 59 13 3c 1f 78 fd 3c
       -0.07802778 -0.026469037 0.0089933975 0.030941067
000150 5d 1c 93 bb 56 2b c8 3c 85 2a 88 bc e0 8a e0 bc
       -0.004489465 0.024434727 -0.016621837 -0.02740997
000160 74 ed 45 bc e6 3f 21 3c 8b e7 c2 bd e7 63 d7 bc
       -0.012080539 0.009841895 -0.095168196 -0.026292754
000170 f1 48 32 bc e7 2e a5 3b da 1d 5d 3c a3 7c 29 bd
       -0.010881648 0.0050409916 0.013495887 -0.04137863
000180 15 03 93 3d fe 40 5f 3d 69 b3 b1 bb f7 3f a7 bc
       0.07178322 0.05450534 -0.0054229987 -0.020416243
000190 8b 1d 40 bd 8e 5a 25 bc 00 d0 dc bc 7b 4c 9f bd
       -0.046903174 -0.010092391 -0.02695465 -0.07778259
0001a0 ab 48 b3 bd 4b 5a d3 3c 28 97 ca bc 89 5b 92 bd
       -0.08754095 0.025799891 -0.02473028 -0.07146365
0001b0 29 38 ea 3c 60 86 66 3b 47 2c 63 3c f7 34 39 bc
       0.028591232 0.0035175309 0.013865537 -0.011304132
0001c0 23 f9 51 bb 67 7f 6d bc eb 8b cc bc 20 8c 3a bc
       -0.0032039366 -0.014495707 -0.024969062 -0.0113859475
0001d0 4d 3d 63 3d bf e3 84 3d 8c b1 c4 3c 43 d7 d7 ba
       0.055478383 0.064887516 0.024010442 -0.0016467351
0001e0 7d 11 e9 ba 99 3c 89 bc 82 d2 92 bd d2 7e 05 bc
       -0.0017781701 -0.016752528 -0.071690574 -0.008147912
0001f0 65 62 29 3d 02 c1 67 39 17 36 a0 3d ab b6 c0 3b
       0.041353602 0.00022101778 0.07822817 0.0058811507
000200 d6 e2 92 bc 9f 50 7b 3c 90 d8 e7 3a e0 38 93 bc
       -0.01793043 0.015339046 0.0017688442 -0.017971456
000210 40 80 53 bc b1 b2 00 3d 16 cb 10 bd 8e 39 04 3c
       -0.012908995 0.031420413 -0.035349928 0.008070363
000220 d0 32 4a 3b 9d d8 31 3d 17 89 76 3c 75 a2 b6 3c
       0.003085304 0.04341947 0.015047333 0.022294262
000230 2e 79 6f bc 30 29 5c 3c c3 61 a9 3d a4 01 9c 3c
       -0.014616294 0.013437554 0.082706 0.019043751
000240 d8 21 5b 3c 15 8e 4f bd 50 52 2d bd 38 c3 03 bd
       0.013374768 -0.05067261 -0.042314827 -0.032168597
000250 2b 83 af bd 88 06 40 bd 50 ea 43 bd fe e6 e1 bc
       -0.0856994 -0.04688123 -0.04783088 -0.027575966
000260 45 a5 1a bd 18 e1 49 3d b9 63 5a 3c e8 94 b8 3c
       -0.03775527 0.04928693 0.01332944 0.022531942
000270 f1 93 d7 3c 64 9d 5c bb a9 1f 8a 3c 10 2c e2 bc
       0.026315661 -0.0033663148 0.0168608 -0.027608901
000280 d8 b2 21 3c 40 c9 3e 3a 17 bd 4c bd 70 2f 06 bd
       0.0098693 0.00072779134 -0.049985018 -0.032760084
000290 7a 16 57 bc b2 64 fc bc 2a 47 87 39 01 94 6c 3b
       -0.013127917 -0.030809734 0.00025802228 0.003609896
0002a0 c5 57 8c 3d 9c 59 36 3d b7 0c 0e 3d 7b d8 c4 bd
       0.06852678 0.044519052 0.034680095 -0.09611603
0002b0 af 1b 97 bc 0a 3d bb bc f7 fa 37 3a 37 06 f4 bb
       -0.018445818 -0.022856254 0.00070182927 -0.00744703
0002c0 47 39 5d 3c 29 96 a3 3d 64 bc fb 3c 0e 70 2b 3c
       0.0135024255 0.07987625 0.03072948 0.010463728
0002d0 07 d5 61 bd 53 4f f1 bc 64 43 84 bc 84 be 1c 3c
       -0.0551348 -0.02945677 -0.016145416 0.009566907
0002e0 c4 1a 12 3d 6e 9d 77 3b 53 ee 8d 3b 22 e4 22 b9
       0.035670057 0.0037783044 0.004331389 -0.0001553451
0002f0 9b e0 28 3c 7c 3d 65 3c 23 fa c5 3c e9 d5 6d 3c
       0.010307456 0.01399171 0.024167126 0.014516332
000300 96 8c 62 bd e1 33 33 3d aa 94 67 3b 4d 5c 0c bc
       -0.055309854 0.043750647 0.0035336413 -0.008566928
000310 bf f0 98 ba fe 5d 99 bd a7 60 68 3b 3f d8 3d bd
       -0.0011668428 -0.07488631 0.0035458 -0.046348806
000320 9a 61 72 bc 8b 9d 90 bc b5 01 67 3d 81 2d 04 3c
       -0.014793778 -0.017653247 0.056398112 0.00806749
000330 db 62 24 bd 9b 8f 16 bc 54 e3 aa bc 1b 0a 66 bc
       -0.04013334 -0.009189512 -0.020860352 -0.014040495
000340 26 31 b0 bc 0c e2 8a 3a 91 df 75 3d 62 03 65 3d
       -0.02150781 0.0010595932 0.060027663 0.05591143
000350 a1 ed f0 3c ba cb dc 3c bc 6f 38 3c cc f4 e2 3c
       0.029410185 0.026952613 0.011257108 0.027704619
000360 25 9d 48 bb 48 14 16 3b 04 da 9c bd 22 04 70 bd
       -0.0030611244 0.0022900272 -0.07658771 -0.05859769
000370 9c 12 43 3c ce 3d b5 3b b6 21 07 bd f4 f9 8f bb
       0.011906292 0.0055310493 -0.032991134 -0.0043938104
000380 34 4a 7b ba 1b 79 7d 3d ad 2d d6 3b b1 e0 83 bb
       -0.0009585947 0.061883073 0.0065362067 -0.004024588
000390 40 39 a7 bd 85 59 4e 3d 3e ab 40 3d f8 69 d6 3a
       -0.081652164 0.05037834 0.04703831 0.0016358485
0003a0 26 20 81 3c b2 0f 63 bb fa 38 9a bc 4e 98 16 bb
       0.0157624 -0.0034646806 -0.018825997 -0.0022978964
0003b0 a3 07 f7 3c f1 40 98 bd 96 a8 de bc 13 34 ed bb
       0.030155009 -0.074342616 -0.027179997 -0.0072388737
0003c0 92 48 78 bd 98 eb 0c bc fc 44 c6 ba 85 91 74 bc
       -0.060616083 -0.008601092 -0.001512676 -0.014927273
0003d0 9e 5b a6 3c 48 ad 3f 3c 74 9a 41 bd b4 c1 c0 bd
       0.020307358 0.011699028 -0.04726644 -0.09411946
0003e0 7d 16 ed bc 9c 81 69 bc 7b a1 91 bd e5 a7 dd 3c
       -0.028941387 -0.014252093 -0.07110878 0.027057597
0003f0 04 12 fc bc 2c 8b 05 3d 81 85 6b 3c d9 68 89 bc
       -0.03077031 0.032603428 0.0143750915 -0.016773628

head.conv.bias f4 [64]
000000 d2 c2 51 3c 50 76 ec bd 7f 40 1e bd f9 f8 25 3e
       0.012802796 -0.11546004 -0.038635727 0.16208257
000010 9f 52 d9 3d 42 4a 33 3e 29 1d aa bd 6c 81 49 be
       0.10611462 0.17508796 -0.08306343 -0.19678277
000020 ce 0b aa 3d 26 d8 23 be da 63 7f bd 4e 4c 90 bd
       0.08303033 -0.16000423 -0.062351085 -0.07045804
000030 3e 5c 53 3e 53 33 a9 bd 30 74 59 3d 3a 27 31 be
       0.20640656 -0.082617424 0.05308932 -0.1730012
000040 71 fa 2e be 1c f8 bf bd 1f 94 f9 3b 4a 41 ca bd
       -0.17087723 -0.09373495 0.0076165344 -0.09875734
000050 88 ce 0f 3e 0b a2 34 be 47 66 24 bc ef f6 3a be
       0.14043629 -0.1763994 -0.01003415 -0.1825826
000060 0e c5 1e 3d f8 b8 2c 3e bc bc cb bc 9f ba db 3d
       0.038762145 0.16867435 -0.024870269 0.107289545
000070 80 d7 1a 3c ba 4a 29 3e f0 d3 a9 bd 88 c3 e7 3d
       0.009450793 0.16532412 -0.08292377 0.113165915
000080 0c 38 99 3c 78 f7 16 3d 92 73 16 be 78 73 18 be
       0.018703483 0.0368571 -0.14692524 -0.14887798
000090 3e 32 0b 3d ba 3e 38 be 06 96 a8 3d 1f 27 2f be
       0.03398346 -0.17992678 0.0823174 -0.17104767
0000a0 6b 69 fa bc 0f ac 97 bd 94 e0 2a 3e f6 4a c7 bc
       -0.030567845 -0.074058644 0.16687232 -0.024327736
0000b0 5c bd 00 3e d2 3a 1c 3e 6f 78 a2 3d 47 fa d2 3d
       0.12572235 0.15256813 0.07933127 0.10301643
0000c0 4a 6c 16 bc e8 55 03 3e e8 87 17 be 15 b0 01 3e
       -0.009181092 0.1282574 -0.14797938 0.12664826
0000d0 36 fd c0 3c 5f d1 6a bd 41 27 20 3d 2b fd 8d 3c
       0.02355824 -0.057328578 0.039099935 0.017332634
0000e0 48 b1 5b 3e 6c eb 13 3b 27 b3 67 3c 49 72 cc ba
       0.21454346 0.0022570742 0.014141834 -0.0015598024
0000f0 73 71 b3 3b 74 28 24 bd ca 60 0d 3e 91 4a 49 3e
       0.0054761707 -0.04007764 0.13806453 0.19657351

head.norm.weight f4 [64]
000000 a0 d9 6d 3f c2 ff 7f 3f 91 90 89 3f 02 98 70 3f
       0.92910194 0.9999963 1.0747243 0.93981946
000010 77 b3 86 3f e1 d3 80 3f c0 f4 83 3f 2b a1 69 3f
       1.0523518 1.006466 1.0309067 0.9126155
000020 f3 c4 5c 3f 66 d0 5e 3f c0 e7 6b 3f 72 e9 79 3f
       0.8623802 0.8703674 0.921505 0.97621834
000030 ba 9a 84 3f 99 d8 6f 3f 98 df 8b 3f e0 44 7e 3f
       1.0359719 0.93689877 1.092761 0.99323845
000040 00 20 7d 3f ee 03 82 3f 65 4b 7c 3f 14 fb 67 3f
       0.98876953 1.0157449 0.9855254 0.9061749
000050 85 a1 81 3f 2a 21 81 3f 49 71 85 3f 44 94 7e 3f
       1.0127417 1.0088246 1.0425197 0.99444985
000060 a8 23 80 3f 5a 87 88 3f c0 16 84 3f a0 f4 83 3f
       1.0010881 1.0666306 1.0319443 1.0309029
000070 f0 ff 83 3f 22 20 7e 3f d6 82 81 3f ef 11 7e 3f
       1.0312481 0.9926778 1.0118053 0.99246114
000080 13 ce 7b 3f 48 61 8e 3f c3 b1 74 3f 80 7e 7b 3f
       0.9836132 1.1123438 0.9558374 0.982399
000090 18 3b 8b 3f 49 25 7b 3f b7 11 82 3f 89 76 6e 3f
       1.0877409 0.9810377 1.0161656 0.9314962
0000a0 be 30 6c 3f 16 a6 6f 3f 2f 24 77 3f 5a a0 81 3f
       0.92261875 0.936128 0.96539587 1.012706
0000b0 fd a1 7f 3f fd fc 7b 3f 46 75 68 3f 8c b4 7b 3f
       0.9985655 0.98432904 0.90803945 0.9832237
0000c0 40 73 81 3f 5c e9 53 3f 90 3f 77 3f 8d 94 86 3f
       1.0113297 0.82777953 0.96581364 1.0514084
0000d0 71 f7 63 3f a4 ae 67 3f 5d 54 70 3f f0 13 7b 3f
       0.8904944 0.90500855 0.9387873 0.980773
0000e0 5c 71 7a 3f 5f fc 6a 3f 84 f0 7d 3f eb 62 81 3f
       0.9782922 0.9179134 0.9919512 1.0108312
0000f0 03 4b 6e 3f 36 5a 92 3f 2f b8 75 3f 3c d7 72 3f
       0.9308321 1.143378 0.95984167 0.9485967

head.norm.bias f4 [64]
000000 60 40 8f bd 8d 81 05 be b8 ed b6 bd e4 0f 19 be
       -0.069947004 -0.13037701 -0.0893206 -0.14947468
000010 18 0e 77 bd 8b 91 a0 bd c5 fe 63 be 41 54 f9 bc
       -0.060316175 -0.0784026 -0.22265156 -0.030435683
000020 a6 f0 fd bd 3a 0e 18 be ce 80 bc bd 1e 79 cb bd
       -0.12399416 -0.14849177 -0.09204255 -0.09935211
000030 d4 1f 18 be 4b 21 06 be a0 26 43 be f1 66 d3 bd
       -0.14855891 -0.13098638 -0.19057703 -0.10322369
000040 59 81 87 bd f3 e5 fc bd cd f8 be bd af 83 69 bd
       -0.06616468 -0.12348547 -0.09324799 -0.05701035
000050 6d fa 41 be 5c 21 c9 bd d8 c4 32 be 4d ba cc bd
       -0.18943186 -0.09820816 -0.17457902 -0.099964716
000060 cf 08 01 bc 41 b8 b5 bd 5a a2 8b bd ff 5c 84 bd
       -0.007875635 -0.08873034 -0.068180755 -0.0646305
000070 ea a4 92 bd 7e cf 08 be 84 ca 46 bd 32 3f d6 3c
       -0.07160361 -0.13360402 -0.048532978 0.02615318
000080 9a a0 ad bd 57 a7 98 bd ac 65 cd bd 7e bf 4d bd
       -0.08477898 -0.074537925 -0.10029158 -0.05023145
000090 a1 70 29 be 5c c7 e6 bd b0 55 c7 bd c1 f1 b2 bd
       -0.16546871 -0.112684935 -0.097331405 -0.08737517
0000a0 8e c7 b7 bd 71 f5 99 bd eb ef f1 bd ca ba 0a be
       -0.08973609 -0.07517517 -0.11813339 -0.13547817
0000b0 35 ff fe bd 3b 9c 9b bd 06 0a 84 bd 04 09 1e be
       -0.12451021 -0.07598158 -0.06447224 -0.15433127
0000c0 40 9f 4a 3c e4 a7 ce bd f2 65 50 bd 9e 0c 6a be
       0.01236707 -0.10090616 -0.050878473 -0.22856376
0000d0 46 2e cb bd 65 f8 a4 bd e9 f1 12 be e5 78 ba bd
       -0.09920935 -0.0805519 -0.14350094 -0.0910509
0000e0 3a 76 d0 bd da 43 bf bd 20 f3 96 bd 07 7a 8a bd
       -0.101788 -0.093391135 -0.07370591 -0.06761556
0000f0 76 0e ee bd 48 66 df bd 07 7a dc bd 13 b4 38 be
       -0.11623852 -0.109081805 -0.10765462 -0.18037443

head.norm.running_mean f4 [64]
000000 ed 8a e3 bd db 3c 0f be a8 57 ae 3d 17 36 85 3e
       -0.11110482 -0.13988058 0.08512813 0.2601783
000010 ba 04 ec 3d 2d e8 42 3e 24 aa 6f bd e7 1f 94 be
       0.11524339 0.1903388 -0.058511868 -0.2893059
000020 b8 4a 87 3d 9d e3 9a be c4 5b 28 be e4 39 dc bd
       0.06606048 -0.3025178 -0.16441256 -0.10753229
000030 4e 62 9e 3e 48 53 5e be 8d 5b 3d 3d 5f 25 33 3d
       0.30934376 -0.21711457 0.046229888 0.04373681
000040 c4 fb 06 3e 84 6b 95 be db 09 21 be b4 91 8b be
       0.13181978 -0.2918359 -0.15726416 -0.272596
000050 c6 33 0d 3e d9 ec 45 3d 6f 52 4a bb be 9b 0e be
       0.13789281 0.04832158 -0.0030871888 -0.13926598
000060 73 c8 dc 3d 7d 1a 74 3d 02 20 21 be c3 9d b4 3e
       0.1078042 0.059595574 -0.15734866 0.35276613
000070 5b 34 fb 3d b3 62 54 3e 93 f1 9e bd eb 5c 89 3e
       0.122658454 0.20740776 -0.077609204 0.26828703
000080 ec 16 71 3d 71 08 1c be 29 30 18 be 4d cf 02 3c
       0.05885975 -0.15237595 -0.14862122 0.007983995
000090 ae 52 31 3d 02 cf b6 be 4f 76 69 3e d0 e8 87 be
       0.04329174 -0.3570481 0.22799037 -0.2654481
0000a0 a8 97 f4 bd 94 70 91 bd 8f 76 aa 3e b4 4b 1c bc
       -0.11942989 -0.07101551 0.33293578 -0.009539533
0000b0 26 9d 32 3e 1a 33 fa 3d 68 db 7b 3d cb 67 89 bd
       0.1744276 0.12216778 0.06148854 -0.0670925
0000c0 9f 68 e0 3b ce 4b e2 bc a6 65 52 bd 0b 4a e4 3d
       0.0068484093 -0.027624037 -0.05136647 0.11146935
0000d0 c5 af f5 bd 3e 53 62 be 70 e6 b5 3d e7 d2 ff 3c
       -0.11996416 -0.22102067 0.08881843 0.031228496
0000e0 f1 6d d7 3e 5f 31 59 3d 12 24 ed 3d 16 b4 3f 3e
       0.42076066 0.0530256 0.115791455 0.18721041
0000f0 78 af 16 3d 01 a8 dc bc f5 30 55 3e 27 42 96 3e
       0.036788434 -0.02693558 0.20819457 0.29347345

head.norm.running_var f4 [64]
000000 d5 6f 51 3b 48 ec 18 3b 7c e6 99 3b 4d da 03 3c
       0.0031957526 0.0023334194 0.0046966653 0.008047652
000010 5d cd cf 3a bd 3b 66 3a ad d5 65 3b 78 33 04 3b
       0.001585405 0.00087827054 0.0035069988 0.002017228
000020 ff 7a 98 3b 56 3d 72 3c 80 fd 89 3b 25 b4 33 3b
       0.004653334 0.014785131 0.0042111278 0.0027420607
000030 18 69 e4 3b 61 87 31 3c b0 b9 17 3b 30 c0 93 3c
       0.006970536 0.0108354995 0.002315145 0.018035978
000040 a7 8e 2f 3d fb 72 03 3c 0f aa 0c 3c 17 5d f0 3b
       0.042860653 0.008023019 0.008585467 0.007335316
000050 82 f7 8e 3a c2 69 b6 3c bb 94 9c 3a 62 2f 2b 3d
       0.0010907503 0.022267226 0.0011946181 0.041793235
000060 ed ca 2a 3b a2 f7 18 3b c5 93 88 3b 5b 75 f4 3c
       0.0026060895 0.002334096 0.004168006 0.029841116
000070 9c 4e 4a 3b 5a 7a f6 3b eb ea b4 3a 75 f9 9b 3b
       0.0030869609 0.0075219097 0.0013802921 0.004759962
000080 95 81 ab 3c 85 df 02 3c 80 52 8f 3b 97 75 af 3b
       0.020935813 0.0079878615 0.0043738484 0.005354594
000090 bc 32 c8 3a c9 a2 d2 3b bf fe 00 3c d7 6a 45 3b
       0.0015273909 0.006428097 0.007873236 0.0030123496
0000a0 37 ef 3b 3b eb a9 90 3c f5 f6 a0 3b 8b 38 ee 3a
       0.0028676519 0.017659148 0.004912252 0.001817481
0000b0 34 59 08 3c 95 78 ce 3c 11 a9 0d 3d 30 8d be 3b
       0.008322049 0.025203982 0.034585062 0.0058151707
0000c0 d3 95 91 3a 4f d4 c2 3b 35 00 39 3c e0 2c 08 3a
       0.0011107273 0.0059457193 0.011291553 0.0005194675
0000d0 02 4c f2 3c f9 a4 ea 3b ed dc 5f 3b cf da 87 3a
       0.029577259 0.0071607796 0.0034158782 0.0010364893
0000e0 6a fd 05 3d 2e 5c 88 3c de 81 cd 3b 85 3a 77 3c
       0.032712378 0.016645517 0.006271585 0.015089636
0000f0 15 da c6 3c 27 ae 1c 3c 05 05 f6 3b 32 dd 08 3b
       0.024273911 0.0095630055 0.0075079226 0.0020883796

body.block1.conv.weight f4 [64, 64, 3, 3]
000000 c4 b2 0d be 41 46 18 bc ae 96 7e bd 1d b0 cb 3c
       -0.13837725 -0.009294094 -0.062155418 0.02486425
000010 ca ca 24 bc 57 97 e8 bc c8 43 02 bc 7c 66 ea bb
       -0.010058114 -0.028392477 -0.007950731 -0.0071533304
000020 4a f4 7a bc 45 6b 34 3d 29 bf f4 3c 72 e9 16 bc
       -0.015317032 0.044047613 0.029876309 -0.009210931
000030 88 9f 9a 3b 90 90 d2 bc ce 1c 7a bc 9c e8 ca bc
       0.0047187246 -0.025703698 -0.015265657 -0.02476912
000040 01 64 8d bb 11 f9 13 bc 13 4b b6 bc 76 e1 5c bc
       -0.0043149 -0.00903155 -0.022252595 -0.013481488
000050 1c bd 2d bd 7b 88 49 bd 3d 84 dc 3b 09 73 af bb
       -0.042416677 -0.049202424 0.006729631 -0.0053542894
000060 ad 3f 0b bd 66 86 39 bd f4 31 0f bd 4a 4a 60 3c
       -0.033996273 -0.045294188 -0.03495975 0.013689587
000070 09 24 20 bc 21 02 ef 3c cf 25 42 bd a8 74 f2 bc
       -0.009774216 0.02917582 -0.04739934 -0.029596642
000080 d5 40 b8 bc 23 70 08 3d f4 cf 8e bc 7f 00 4e bc
       -0.022491852 0.033310067 -0.017433144 -0.01257336
000090 39 44 da bc ad ef 60 3c ae 0a a3 3d 5a 92 87 3c
       -0.02664386 0.013729018 0.07961021 0.016549278
0000a0 4d 37 b8 3b 21 76 38 bc 20 63 ba bc 23 19 26 3c
       0.0056218267 -0.011258633 -0.022752345 0.010137829
0000b0 90 3f fb bc 59 2d 83 bd ed af 3d bd 50 d7 df bb
       -0.030669957 -0.06405134 -0.046310354 -0.006831087
0000c0 44 31 3c 3b 37 42 c1 bc 9a fd f8 bc e6 9f ad bb
       0.0028715888 -0.023591144 -0.030394364 -0.0052986024
0000d0 fa b8 98 bb 88 7c 7d 3c 2c b2 2a 3d 2b b1 31 3d
       -0.004660723 0.015471585 0.041673824 0.04338185
0000e0 1c 8e e8 3c f7 fe 3d 3c 02 19 bb 3c 2e 5e 9f 3c
       0.028388076 0.011596433 0.022839073 0.019454088
0000f0 37 d9 8a bd 39 fd 7d bd 66 24 ed bc 76 41 20 3c
       -0.06779712 -0.06200907 -0.02894802 0.009781232
000100 dc 5b bc bd 3c c8 ae bd f4 b5 59 3a a0 c6 a7 bc
       -0.09197208 -0.085342854 0.0008305006 -0.020480454
000110 3a ba d8 3a 8a 47 1a 3d 95 b1 92 3a e0 2a 24 3b
       0.0016534992 0.03766588 0.001119184 0.002504997
000120 c5 91 42 3d 6f 96 b3 3c 74 26 5a bd 80 7e cd 3c
       0.047502298 0.021922318 -0.053259328 0.025084734
000130 3d 0d 02 bc 76 73 bb 3b 82 ec e1 bc f3 2d 0a 3c
       -0.007937727 0.005720551 -0.027578596 0.008433807
000140 0d 82 22 bd 93 0e 3d 3c 0a bc fa bc e3 c6 9e bb
       -0.039674807 0.011539119 -0.030607242 -0.0048454865
000150 92 f3 00 bc 5a 9a 1c bc 27 d8 1b bc 44 7e f5 bb
       -0.007870572 -0.009558285 -0.009511984 -0.0074918587
000160 0e 9d 04 bc b3 a4 d9 bc f8 0f b8 3c 61 6f d5 bc
       -0.008094085 -0.026567793 0.022468552 -0.026054086
000170 8c ee 39 bc 9c b5 c6 bc 84 5f 29 bb 04 3e ab 3c
       -0.011348378 -0.02425652 -0.0025844285 0.020903595
000180 df f2 11 3d cb dc e5 3c 5a 8e 0d 3d 3c 65 e3 bc
       0.03563201 0.028059384 0.034559585 -0.027758233
000190 92 d7 6c bc 46 4a 56 3c 03 54 3a bc da 04 4f bd
       -0.014455693 0.013079232 -0.011372569 -0.050541736
0001a0 6e 13 9f 3b d0 ef 5f 3c 40 c6 1c bc 8f a2 35 bc
       0.004854611 0.013668016 -0.009568751 -0.01108612
0001b0 80 5c 88 bd 17 9b f9 bc 36 32 f7 3c 1d 95 17 bd
       -0.06658268 -0.03046946 0.03017531 -0.03700744
0001c0 6f 62 24 bc 47 1f 6d 3c b8 93 85 bd 85 4d 54 bd
       -0.010033234 0.014472789 -0.06522316 -0.05183174
0001d0 4d c9 3f bd 8f 0f 83 bd 8a ef 9b bd 4e b9 68 bd
       -0.046822835 -0.06399452 -0.07614048 -0.056817345
0001e0 db 05 0e bd ce e7 12 bd da 43 f9 bb 5f ca 19 bd
       -0.034673553 -0.035865597 -0.0076069655 -0.03754651
0001f0 05 db 07 3d 16 33 17 bd 1b 23 a4 bd 8f 07 57 bc
       0.033167858 -0.036913954 -0.08014508 -0.013124361
000200 e4 eb e2 bd 4b 64 9a bd 22 17 9a bb d1 e0 cb 3c
       -0.11080149 -0.075386606 -0.0047024647 0.024887474
000210 22 23 0e bd c2 6c 16 bb 0f 8c 02 3d ba 87 7e bd
       -0.034701474 -0.0022953008 0.03187185 -0.062141158
000220 e7 66 05 bd 21 69 22 3c 76 e4 1e bd 35 a2 ac bc
       -0.03256884 0.00991276 -0.038792096 -0.02107344
000230 05 73 a5 3b 16 5a 95 bd 09 66 f4 bc b0 27 59 bd
       0.005049112 -0.07292573 -0.02983381 -0.053016365
000240 90 50 49 bc 06 7f 0f bd e2 c4 0b bd a8 97 7f bc
       -0.012287274 -0.03503325 -0.03412331 -0.0156001225
000250 28 c9 50 bd 7f 22 00 bd 5c 1f 3b bd 57 aa 4d 3c
       -0.050973088 -0.031282898 -0.045684204 0.012552819
000260 ef 8c 92 3c de 0c af bd 9c 1a 5a bd 9a 45 5a bd
       0.017889468 -0.08547376 -0.053248033 -0.053289033
000270 ef 41 b7 bb 49 20 77 bc 4c d8 3a bc 0a 58 50 3c
       -0.0055925767 -0.015083381 -0.011404108 0.012716303
000280 c2 22 9f 3c 76 0a b9 ba ff ed f6 bc 31 f1 0a bd
       0.019425754 -0.0014117497 -0.030142782 -0.033921424
000290 16 5c 9f bd b2 fa 3f bb 0a 31 42 bc 51 9b b9 bd
       -0.07781236 -0.0029293713 -0.011852512 -0.090628274
0002a0 76 6a b5 3c 8a a6 ee bc d4 cd 2c 39 e5 56 a3 bd
       0.022145491 -0.029132146 0.00016479875 -0.07975558
0002b0 ba a8 49 bc 15 e3 5d 3c 60 f9 a5 3a 16 81 08 3d
       -0.012308294 0.01354291 0.001266282 0.03332623
0002c0 81 89 1b bb 69 3b 3b bc 55 1c cf bc 79 7d 18 bc
       -0.0023733082 -0.011427739 -0.025282064 -0.009307259
0002d0 8b 55 88 3d 25 cd 9f 3c c1 b7 f8 bc e1 46 9b bd
       0.06656941 0.019507 -0.030361058 -0.075818785
0002e0 6d 8a 34 3c 61 c7 1c bd ec ab 05 3d ad ba 45 bd
       0.011019331 -0.03827608 0.03263466 -0.04827373
0002f0 48 bc 19 bd e3 c1 78 bb 0a bf 53 3d c5 4b e5 3a
       -0.037533075 -0.0037957362 0.05169586 0.0017493895
000300 29 28 1e bd 10 8c f7 3c 17 79 b3 3c ee 37 a1 bc
       -0.03861252 0.030218154 0.021908326 -0.01967999
000310 32 79 fe bc 3a ef 1f 3c 53 8d 2a bc aa b7 b4 3c
       -0.03106365 0.009761626 -0.010409671 0.022060234
000320 ba f0 cc bc cd f6 43 bd fd d3 0d 3d 61 a4 2d 3a
       -0.025017131 -0.04784279 0.034625996 0.00066239206
000330 35 0b 4a 3d 99 ae fb 3c ae f7 17 3c 49 35 52 bd
       0.049327094 0.030722903 0.00927536 -0.051320348
000340 7d a0 1f bd e8 d4 86 3b e5 c2 19 bc 4d 32 9c bd
       -0.038971413 0.004114736 -0.009384845 -0.076267816
000350 2c a0 e3 bc 40 0a b1 bc 86 34 65 bd fb a2 06 bd
       -0.027786337 -0.021611333 -0.055958293 -0.032870274
000360 d7 23 b5 bd 42 5b 4b bd e6 8e 5f 39 7a 25 f6 bc
       -0.088447265 -0.049647577 0.00021320171 -0.030047167
000370 34 85 13 bc d7 4a 99 3b d0 4a 7b bc 49 8a 01 bd
       -0.009003926 0.004678111 -0.015337661 -0.03162602
000380 3d 33 82 bc 4e ca fa 3c f6 a7 9b bd ed b2 be bd
       -0.015893573 0.030614045 -0.076003954 -0.09311471
000390 ed 60 19 3c b2 aa 21 3c 87 a9 48 bd 4d db 97 bc
       0.009361488 0.009867357 -0.0489898 -0.018537188
0003a0 d7 bf db 3c 72 46 a4 bb ca 7a 7d 3d 45 b3 45 3d
       0.026824875 -0.0050132805 0.06188468 0.048266668
0003b0 71 90 46 bc c9 75 5c 3d 0d cd a8 3d 67 08 01 3d
       -0.012119398 0.053823266 0.08242235 0.031502154
0003c0 58 b9 1b 3d a4 e5 2f 3d 2d 66 f2 3c ca 08 00 3c
       0.038018554 0.04294361 0.029589737 0.0078145955
0003d0 d1 4e 86 3c a8 3f 5c bc 16 30 a2 bd 30 e8 4d 3c
       0.016395004 -0.013442911 -0.07919328 0.012567565
0003e0 98 4b 3a 3d 7d 83 3b bd 75 d9 95 3b ef 2b 1a 3c
       0.045482248 -0.045779694 0.004573042 0.009409889
0003f0 93 a6 9a 3c fa b9 1b 39 48 70 8e 3c 9d db 0b bb
       0.018878257 0.00014851234 0.017387524 -0.0021340617

body.block1.conv.bias f4 [64]
000000 1b 10 0d bb b8 d4 59 3c 18 39 a0 bc 2b 3e 07 bd
       -0.0021524492 0.013295345 -0.019558474 -0.033018272
000010 b6 c6 2e 3d 6c e5 82 bc 36 03 01 bd 8b 95 0e 3c
       0.042669974 -0.015978537 -0.031497203 0.008702646
000020 bf 7d 8d bc 38 02 40 3c 11 59 5a 3c 2c 31 42 3c
       -0.017271874 0.011719279 0.013326899 0.011852544
000030 50 71 28 3d 88 15 fe 3c ff 81 f4 3c 29 c5 34 3c
       0.04112369 0.031016126 0.029847143 0.011033335
000040 38 f4 1b bd 6d 00 16 3c c5 b2 c1 3c c2 8f 9e bc
       -0.038074702 0.009155375 0.023644814 -0.019355658
000050 ee 98 9c bb dc d0 0b 3d 42 55 ab 3c 80 9d 04 bd
       -0.004778973 0.03413473 0.020914678 -0.032376766
000060 72 b8 fd bb 8a 73 0d bc 14 35 c0 3c 78 8f 01 bd
       -0.007742935 -0.008633504 0.02346281 -0.031630963
000070 09 bb 0f bd be c5 ab bc 4a fd 5f ba 70 c0 ce bb
       -0.03509048 -0.020968314 -0.0008544518 -0.0063095614
000080 1b 8a c9 bb 93 1d d2 3c 3a 65 00 3d ee ee 07 3c
       -0.0061504967 0.025648868 0.031346537 0.008296711
000090 64 36 b8 3c 1c 4b bb bc 8a 36 35 bc 28 60 d3 bb
       0.022486873 -0.022862963 -0.011060366 -0.0064506717
0000a0 f6 e8 83 3c 7d a6 88 bc b6 95 b6 3c 23 b9 63 bb
       0.016102295 -0.01668095 0.022288185 -0.0034747801
0000b0 78 d9 51 3c 3f b1 c5 3c 16 ac ba 3c e2 f0 29 3d
       0.012808196 0.02413237 0.022787135 0.04148949
0000c0 59 af 77 bb 59 1e a0 3c 10 a5 0b 3c 4d 5d de bc
       -0.0037793724 0.01954572 0.008523241 -0.027144099
0000d0 33 08 13 bc 7f f8 b3 3c b1 cc 76 bc 36 b4 1a bd
       -0.008974123 0.021969078 -0.015063451 -0.03776952
0000e0 eb 01 a9 bc bd 21 38 3c 28 dc 22 3d f5 2c d6 3c
       -0.020630797 0.011238513 0.03976074 0.026144484
0000f0 c7 ea 47 3c 8a 0e a5 bc c4 91 2b bc a6 ce b2 3c
       0.012201971 -0.020148534 -0.010471765 0.021827053

body.block1.norm.weight f4 [64]
000000 2c f0 75 3f 6d 9a 86 3f f5 dc 7f 3f 75 bc 7e 3f
       0.960696 1.0515877 0.9994653 0.9950631
000010 e3 52 77 3f c5 4c 7e 3f a5 8f 7c 3f 66 79 7e 3f
       0.9661085 0.9933589 0.98656684 0.9940399
000020 92 79 73 3f a2 45 80 3f 54 73 71 3f fc 22 80 3f
       0.95107377 1.002125 0.943166 1.0010676
000030 19 b9 70 3f fb 4b 7b 3f 59 fb 81 3f f4 bc 7f 3f
       0.94032437 0.9816281 1.015483 0.99897695
000040 70 c3 79 3f d8 a7 85 3f 19 1f 71 3f 97 34 78 3f
       0.9756384 1.0441847 0.94188076 0.96955246
000050 81 d1 78 3f 02 bb 87 3f d6 5d 80 3f 14 c5 7b 3f
       0.9719468 1.0603945 1.0028636 0.9834759
000060 e7 ef 6e 3f 78 02 71 3f c3 34 7f 3f 95 78 6c 3f
       0.9333481 0.9414439 0.99689883 0.92371494
000070 a1 b2 79 3f 1b 8d 77 3f e4 80 7a 3f de 25 77 3f
       0.9753819 0.96699685 0.9785292 0.96542156
000080 8f 54 80 3f e4 fd 81 3f 25 9c 74 3f f5 1f 72 3f
       1.0025805 1.0155606 0.9555076 0.9458001
000090 74 15 77 3f b8 79 81 3f 7f 85 74 3f 07 b8 82 3f
       0.9651711 1.0115271 0.955162 1.0212411
0000a0 d0 fc 78 3f 81 ce 7f 3f 4e 67 7e 3f a7 e1 80 3f
       0.9726076 0.99924475 0.9937638 1.0068864
0000b0 56 cb 74 3f 43 e3 78 3f 02 b9 81 3f 33 49 75 3f
       0.95622766 0.97221774 1.0134585 0.9581482
0000c0 52 ab 7c 3f 6e ef 80 3f 10 31 86 3f ba 01 75 3f
       0.98698914 1.0073068 1.0483723 0.9570576
0000d0 87 c3 80 3f a9 bd 82 3f f3 0a 69 3f b6 4f 72 3f
       1.005967 1.021413 0.9103233 0.9465288
0000e0 95 eb 82 3f 87 df 81 3f f0 96 81 3f 51 2a 74 3f
       1.0228144 1.014634 1.0124187 0.9537707
0000f0 a9 92 6a 3f 66 15 6f 3f f7 86 72 3f 28 04 7c 3f
       0.91630036 0.93392026 0.9473719 0.9844384

body.block1.norm.bias f4 [64]
000000 de 06 a6 bd 7e cd 12 bd d3 ed b6 bd 2c 99 61 bd
       -0.081067786 -0.035840504 -0.0893208 -0.055077717
000010 63 ab a7 bd 50 11 40 be a7 97 99 bd 67 61 6c bd
       -0.08186986 -0.18756604 -0.074996285 -0.057710078
000020 cd e2 bd bd 1b 2c 10 bd 98 45 49 bd b3 3f 88 bd
       -0.092717744 -0.035198312 -0.049138635 -0.06652775
000030 c6 4e 2a bd fa e7 10 bd 41 87 2c bb 76 3f 9f bc
       -0.04157903 -0.03537748 -0.0026325735 -0.01943944
000040 b9 49 09 be 71 5b a4 bb ab b6 3b bd 35 89 e3 bb
       -0.13407029 -0.0050157835 -0.045828503 -0.0069438466
000050 d6 d6 24 bd 53 7e d6 3b d8 65 5a bd e5 26 d8 bd
       -0.040243946 0.0065458207 -0.053319782 -0.105542935
000060 2b 8f ca bd ef d8 33 be 87 c1 66 bd 5e 4a b8 bd
       -0.098905884 -0.17563222 -0.056336906 -0.089985594
000070 71 fa 5f bd 8a e6 a3 bd 36 2f 62 bd f0 35 d1 bd
       -0.0546822 -0.08002956 -0.055220805 -0.10215366
000080 80 7f e5 bc 9b 4a a0 bd 5e 4e bf bd 68 8a aa bd
       -0.028014898 -0.0782673 -0.09341119 -0.0832718
000090 13 2f 82 bd ab eb b2 bc 30 fe d7 bd 05 90 fe bc
       -0.06356635 -0.02184089 -0.10546529 -0.031074533
0000a0 48 9e 30 bd 64 c9 17 bd ef 0d 14 be 50 87 78 bd
       -0.0431197 -0.037057295 -0.1445844 -0.06067592
0000b0 c2 54 d0 bd af 39 b0 bd ad d6 56 be 89 bd 61 be
       -0.10172416 -0.08604752 -0.2098033 -0.22044958
0000c0 d7 2b 35 bd 73 b2 98 bd 32 3c 98 bd 03 a0 2f bd
       -0.044231262 -0.074559115 -0.07433356 -0.04287721
0000d0 f3 ef 21 bd ff a7 0a bd 47 17 b9 bd 59 b8 e0 bd
       -0.039535474 -0.03385162 -0.09037643 -0.109726615
0000e0 d5 66 c3 bd 19 2d 27 bd 09 cd a1 bd 47 b9 fc bd
       -0.09541098 -0.040814493 -0.079004355 -0.12340026
0000f0 19 69 09 be f3 e8 fa bd ae 97 5a bd c8 ff 40 bd
       -0.13418998 -0.12251463 -0.05336731 -0.047118932

body.block1.norm.running_mean f4 [64]
000000 5d 73 dd bf 1f 71 df bf 31 bf 18 bf 4f a3 87 3f
       -1.7300831 -1.7456397 -0.59666735 1.0596713
000010 aa bf 73 3e c8 aa 29 bf a3 64 15 bf 05 ce 4b bf
       0.23803583 -0.66276217 -0.58356684 -0.79611236
000020 53 9d 38 bf d8 e0 09 bf 91 4d 10 3f a2 e4 ea 3f
       -0.7211506 -0.5385871 0.56368357 1.8351023
000030 db 60 a2 3d 0a e5 a3 bf a7 33 d3 bf 81 ba 3d bf
       0.0792863 -1.2804272 -1.6500138 -0.7411271
000040 9b 77 17 40 45 b1 92 bf a3 38 fc be e7 51 56 bf
       2.3666751 -1.1460348 -0.4926196 -0.83718723
000050 70 90 66 bf 42 ec 60 bf 37 b2 4a 3e c1 af 87 3f
       -0.90064144 -0.878605 0.19794546 1.0600511
000060 04 d7 39 bf 37 4f 0e 3f 17 6c b9 3d 78 29 15 bf
       -0.7259371 0.5558962 0.090538196 -0.582664
000070 69 45 5e be ff 0e cd 3d 57 c5 af 3e 32 57 51 bf
       -0.21706165 0.10012626 0.34330246 -0.81773674
000080 fc d7 81 be 1d c9 49 bf eb 1f 21 40 df c5 17 3e
       -0.25360096 -0.788225 2.517573 0.14821576
000090 70 1d 99 3e 20 a9 18 bf 96 51 c7 bf 3b 4b f6 bf
       0.29905272 -0.59633064 -1.5571773 -1.9241709
0000a0 ce a1 13 bf df 23 45 bf 6f 66 0e 3f f6 0d b3 be
       -0.5766877 -0.7700786 0.5562505 -0.3497159
0000b0 e0 a1 f3 3d 29 2b 8d 3f cb d8 cb bd 46 60 19 bf
       0.118961096 1.1028796 -0.09953459 -0.59912527
0000c0 21 72 42 bf 64 2d 73 3d fd f5 69 bf 55 8f 61 bf
       -0.75955397 0.05936946 -0.91390973 -0.8810933
0000d0 17 5c 75 be bb 70 c3 3e 40 55 13 be 97 8f fa be
       -0.2396091 0.38171944 -0.14387989 -0.48937675
0000e0 1f 11 9d bf c7 7a 15 bf 18 ca 16 bf 1a 2e 39 bf
       -1.227085 -0.5839047 -0.5890212 -0.7233597
0000f0 a0 c2 d2 3e 46 2e 48 3f b0 d9 f0 3e 46 7a 85 be
       0.41164112 0.7819561 0.47041082 -0.2606985

body.block1.norm.running_var f4 [64]
000000 19 82 c2 3f fd b0 b0 3f c6 d0 48 3f 94 82 23 40
       1.5195953 1.3804013 0.78443563 2.5548449
000010 77 a9 1e 3f 15 c0 5e 3f eb a8 14 3f 35 9d b2 3f
       0.6197733 0.87011844 0.5807025 1.3954226
000020 83 c1 2e 3f 6b b5 b6 3e 57 d8 9c 3f ee b3 00 40
       0.68264025 0.35685286 1.2253522 2.010982
000030 02 76 1f 40 12 1f 37 3f a4 eb 86 40 21 91 0b 40
       2.4915776 0.71531785 4.2162647 2.180733
000040 b4 56 68 3f 08 7e b9 3f 46 0d 54 3f 5f 8a 99 40
       0.907573 1.4491587 0.82832754 4.798141
000050 d7 e3 93 40 e9 be 06 3f c8 ac 4c 40 c0 c2 96 3f
       4.6215625 0.52635056 3.1980457 1.1778183
000060 69 3e 86 3f 43 0b c8 3e 42 06 3b 40 8b 5c 0c 3f
       1.0487796 0.39071092 2.922257 0.5482871
000070 08 88 e2 3f de bf c1 3e e0 8b c9 3f 89 f3 26 3f
       1.7697763 0.37841696 1.5745811 0.65215355
000080 6a 4a 83 40 15 91 dd 3f b6 12 cb 3f 4a 05 16 40
       4.1028337 1.73099 1.5865085 2.3440728
000090 9b ed 23 40 15 e0 5e 3f ef 8f 44 3f e0 78 9a 3f
       2.5613773 0.8706067 0.76782125 1.2068138
0000a0 7e d9 87 3f 65 b6 54 41 a7 4e 16 3f 02 9a 20 3f
       1.0613248 13.29453 0.58713764 0.62735
0000b0 f4 fd 53 3f 1a fa 66 40 2f 8e 9c 3f 27 f8 1e 3f
       0.82809377 3.609015 1.2230891 0.620974
0000c0 b9 7c 25 3f 0d 20 27 3f cf b8 40 3f 23 b7 52 40
       0.64643437 0.6528328 0.75281996 3.2924278
0000d0 3f f8 0f 41 b2 39 bf 40 50 4c 11 3f a7 8a 9d 3f
       8.998107 5.975793 0.5675707 1.2307938
0000e0 cd 66 ee 3e b3 e7 57 40 83 ab 3a 3f cc 8c 93 3e
       0.46562806 3.3735168 0.72917956 0.28818357
0000f0 b5 85 a1 3e 7a e2 91 3f 02 61 bf 3f 85 b0 45 3f
       0.31547323 1.139724 1.495148 0.7722247

body.block2.conv.weight f4 [64, 64, 3, 3]
000000 7b 82 04 3c 2e 9b 20 3b a9 40 9d 3c 6c 13 88 bc
       0.00808775 0.0024506557 0.019195871 -0.016610824
000010 7d 88 74 3c 5f 84 ca bc a3 f1 4a bd 2b df 03 bd
       0.0149251195 -0.024721323 -0.04954685 -0.03219525
000020 69 a6 f7 bc 23 77 f2 bc 37 f2 6d bb df 0c ed bc
       -0.030230718 -0.029597824 -0.0036307701 -0.028936801
000030 db 59 23 bd 96 50 87 ba 86 a0 6e 3d 9e 51 96 bd
       -0.039880615 -0.0010323699 0.058258556 -0.07339786
000040 f5 d3 92 bd 7d 76 02 3c 0a c3 57 3c 0a 5a 23 3d
       -0.07169334 0.00796282 0.0131690595 0.03988079
000050 8b a3 c5 3c bd 85 08 3d cf 4b c7 3c b1 c5 a8 bc
       0.024125835 0.033330668 0.02432814 -0.02060208
000060 1e 49 b4 3c b6 b9 04 3d 7b ac b7 3c aa 60 13 bd
       0.022007521 0.03240367 0.022421112 -0.035980858
000070 c4 41 b9 bc 4b 51 ea 3c ca e2 19 bd dd 73 27 bc
       -0.022614367 0.028603217 -0.0375698 -0.010220495
000080 07 cd d4 bc 0a 28 41 3c ef 75 06 ba 00 09 08 3c
       -0.02597667 0.011789331 -0.0005129268 0.008302927
000090 63 76 79 bd c6 f6 bb 3b 58 93 cb bb 2f 95 0e bd
       -0.060903918 0.005736205 -0.006212633 -0.03481024
0000a0 36 03 c4 39 3b ad ba bc c6 0c 1d bd 95 6c c4 bb
       0.00037386426 -0.02278768 -0.03834226 -0.0059943893
0000b0 53 23 29 3b a2 63 e9 ba 41 3b 44 bc 65 be e3 bc
       0.0025808408 -0.0017806182 -0.011977018 -0.027800748
0000c0 2c 88 0c 3d 42 61 03 3d 66 71 65 bd f8 5b c1 3b
       0.03430955 0.032075174 -0.05601635 0.005900856
0000d0 36 69 3e bd 03 57 20 bd b7 1b ac ba da 7b 69 3d
       -0.046487056 -0.03914548 -0.0013130818 0.05700288
0000e0 a1 02 84 3d 8f 96 9a 3c d6 21 14 bd d5 63 89 3b
       0.06445814 0.01887062 -0.03616508 0.004192809
0000f0 ad 91 6c bd 23 06 1a bd 13 ef 41 bd 4b 76 25 bd
       -0.057756115 -0.03760351 -0.04734714 -0.040396016
000100 e9 16 9c bc d8 1a 9c bc cf 35 30 3c 6f a5 d9 3c
       -0.019053893 -0.019055769 0.0107550165 0.026568143
000110 6e 53 20 3d 05 66 b6 bb 36 60 f3 bc e0 e8 cb 3a
       0.039142065 -0.005566361 -0.029708963 0.0015557073
000120 88 95 de 3c f8 05 29 bd 7f 02 7b bc a9 42 e2 bc
       0.027170911 -0.041265458 -0.015320419 -0.027619677
000130 b6 89 0f 3d f0 47 84 3c 8b bd fd bc 5f fc 2a bb
       0.03504344 0.016147584 -0.03097417 -0.0026090366
000140 2c 93 04 bb 08 a7 36 3d a5 e0 29 bc c4 2e 28 3c
       -0.0020229323 0.044592887 -0.010368501 0.010265056
000150 7d 6d a3 3c d8 16 e9 bb b3 d4 e9 bc 55 f1 cd bc
       0.019949669 -0.007113319 -0.028543806 -0.02513949
000160 73 82 9c bd 06 82 44 bd b7 3a 31 bd b5 11 90 b9
       -0.07642069 -0.047975563 -0.043268885 -0.00027479013
000170 88 48 b7 bc 65 c0 15 bd 41 cc b6 bc d3 bc 25 bd
       -0.022373453 -0.036560435 -0.022314193 -0.04046328
000180 04 ae 0a bd 8c a9 4a bc 8a 3d a5 bc 67 6f a4 3b
       -0.03385736 -0.012369525 -0.020170946 0.005018163
000190 0e 14 eb bc 04 89 a0 3c fa e3 37 3c 16 16 80 3c
       -0.028696086 0.019596584 0.011223787 0.015635531
0001a0 f9 00 db 3c c6 3f c0 bc 08 ae ce bc 27 28 f9 3b
       0.026733862 -0.02346791 -0.025229469 0.0076036635
0001b0 14 8a b8 bc a1 39 40 bd 93 51 36 b9 c8 af e8 bc
       -0.022526778 -0.04692996 -0.00017387261 -0.028404132
0001c0 31 10 70 3c ee be f0 bb ea 85 85 bc 45 db 1d 3c
       0.014652298 -0.0073469793 -0.016299207 0.009634797
0001d0 fe 59 1a bc 34 83 00 3d 0a dd e6 3c 55 4d 71 3b
       -0.00942087 0.031375125 0.028181572 0.0036819775
0001e0 3f 8c ad 3c 1e e4 66 3c f3 25 36 bc 8f d9 0b 3d
       0.021185039 0.014092473 -0.011117446 0.034143027
0001f0 0e d1 1b 3d 7a 0b 0b bc 05 cc 49 bd 8a ac 3e bd
       0.038041167 -0.008486623 -0.049266834 -0.046551265
000200 1b ce a9 b9 42 98 a0 bd 24 3b bf bd ac 74 2c ba
       -0.00032387752 -0.07841541 -0.09337452 -0.0006578665
000210 1a 66 0f bd 1f 8e 82 bd e9 36 3b 3c f2 ba 02 bc
       -0.03500948 -0.06374764 0.011426666 -0.007979142
000220 b2 39 60 bc d5 16 7f 3b 82 8c cd bc 20 53 4d bd
       -0.013685631 0.003892352 -0.025091413 -0.050128102
000230 76 37 bd bc 27 5a dd 3b 5f 3c 49 3d d3 d0 18 3d
       -0.023097735 0.0067551318 0.04912984 0.037308525
000240 ae 85 b8 3b ac 8d 0c bb c3 ce 9e 3c 05 4e 0e 3d
       0.0056311702 -0.0021446748 0.019385701 0.034742374
000250 42 99 9c bc 04 e0 09 3d 44 d9 d8 3c 37 c8 0e 3c
       -0.019116048 0.033660904 0.026470788 0.008714727
000260 6b bd 7e bb 46 6c 30 bd 87 f0 9b bd b3 ea 04 bc
       -0.0038870226 -0.043072008 -0.07614236 -0.008112597
000270 ff b4 11 3b 8e 4f a6 bd cd 6a 87 bd 28 b4 ba bc
       0.0022233126 -0.081206426 -0.066121675 -0.022790983
000280 d0 0c 37 bd fe 0e f5 bc 9e 41 16 bd c7 83 6e bd
       -0.044689953 -0.029914375 -0.03668367 -0.05823114
000290 e4 37 87 bc 19 e5 00 bd d6 5a 92 bb f7 15 cc 3c
       -0.016506143 -0.031468485 -0.004466395 0.024912817
0002a0 80 32 b0 bc 20 07 40 bd 5a 79 f1 3b c6 fa 1a bd
       -0.021508455 -0.046881795 0.0073692026 -0.037836812
0002b0 52 a8 a3 bb d2 64 bc bb 58 df 98 bd 0a 7e 0c bd
       -0.0049944306 -0.0057493234 -0.074644744 -0.034299888
0002c0 cd 15 50 bc e2 38 92 bc 4a c9 8b bc c2 fd 9c bc
       -0.01270051 -0.01784939 -0.017063756 -0.01916397
0002d0 5c 45 b4 3b e2 c8 1d bd 81 22 65 bd af a2 05 bc
       0.0055014323 -0.038521655 -0.05594111 -0.008156463
0002e0 b5 aa 4d bc 17 2a ef bc ee 12 85 ba 72 38 1d bb
       -0.012552907 -0.029194875 -0.0010152736 -0.0023989943
0002f0 5e e2 10 bc 96 92 75 bc 84 e9 7c bc 2c c2 bf bb
       -0.008843033 -0.014988562 -0.015436534 -0.0058520045
000300 2b 1b 1e bd 71 dc bd bc 79 44 f0 bc 31 c7 9b bc
       -0.03860013 -0.023176404 -0.029329525 -0.01901588
000310 90 54 a2 3c a0 4c 4e 3d 67 7e 08 bd 7f ad ee 3a
       0.019815713 0.050366044 -0.03332367 0.0018209665
000320 d3 cf ed 3c 48 42 f4 3c b7 6a 66 bc b4 40 26 3d
       0.029029762 0.029816762 -0.014063529 0.04058905
000330 22 a0 1d bd c9 d3 3c 3d db 74 06 3d f2 04 3f bb
       -0.038482793 0.04610041 0.032826286 -0.0029147235
000340 c2 a0 39 bd b4 17 19 bd 53 f6 cb bc 69 e0 54 bc
       -0.045319326 -0.03737612 -0.02489773 -0.012992957
000350 a9 3e 46 bd 76 46 31 3b 78 65 34 bd a3 90 57 bc
       -0.0483996 0.0027050055 -0.04404208 -0.013157043
000360 53 26 bc bc 96 73 00 bc a6 78 cc 3c 93 cc f0 3b
       -0.022967493 -0.007840058 0.024959873 0.007348606
000370 a7 70 d8 3c d0 cf 95 3c 59 ad 2b bc 45 32 07 3b
       0.026420904 0.01828757 -0.010478341 0.0020629328
000380 2b 2e 17 bd b0 f8 d3 3c 78 55 9a bc ed 33 bf bc
       -0.036909264 0.02587542 -0.018839583 -0.02334019
000390 15 4a 09 3d b1 05 4c bc 0e 4a 50 bc 0c f0 99 3d
       0.033517916 -0.012452529 -0.0127129685 0.075164884
0003a0 e0 d4 cd bc 87 c4 e0 3b 8f 13 37 bc f8 2b 3d bd
       -0.02512592 0.0068593654 -0.011174097 -0.04618451
0003b0 96 51 26 bc 7e 94 f7 bc 52 8f d4 bb 5d 65 c9 3c
       -0.010151288 -0.030222174 -0.0064868117 0.024584467
0003c0 7c 99 db bc d9 3f 34 3d 59 23 94 3b 8f ae 32 bc
       -0.026806585 0.044006202 0.0045208153 -0.010905876
0003d0 37 ff c1 3a a7 48 16 bd a7 ce 61 bb 10 57 43 3d
       0.0014800791 -0.03669038 -0.003445545 0.04769045
0003e0 d1 e6 48 3d 5f 94 93 bc 6c 82 5a bc f9 f2 73 3b
       0.04904825 -0.018015085 -0.013336759 0.003722368
0003f0 ff 93 79 bc 11 b4 aa bb 2d 34 17 bc 3b f3 85 bd
       -0.015233039 -0.005209454 -0.009228748 -0.06540533

body.block2.conv.bias f4 [64]
000000 ab b1 d6 bb 39 62 4c bc d7 07 fe 3c 59 77 14 3c
       -0.0065519414 -0.01247459 0.031009598 0.009061658
000010 a8 2a b3 3c 40 06 ae bc 73 6f 05 3c 2e 85 26 bd
       0.021870926 -0.021243215 0.008144247 -0.040654354
000020 08 1e 43 3c 7b f7 3c bd 54 0c e7 3c 3a ba 98 bc
       0.0119090155 -0.046134453 0.02820412 -0.018643487
000030 ca d4 27 3c f4 eb c6 3c 3a 81 02 bd af 07 02 bd
       0.010243604 0.024282433 -0.03186152 -0.03174561
000040 3a e7 20 3b 61 e4 de bc cc 54 1f 3d dd fa 64 bc
       0.0024551884 -0.027208509 0.038899228 -0.013975826
000050 61 b9 45 3b ab 87 2d 3d 44 ae 11 bd 3b 16 07 3c
       0.003017031 0.04236571 -0.035566583 0.008245046
000060 26 7b ce 3c 9c 3a a5 3c a3 46 69 bc bc e0 4f 3c
       0.025205206 0.020169549 -0.0142380325 0.012687858
000070 02 9d 1e 3d c3 97 19 3a 50 51 55 3c 7f 5e 0d bc
       0.038723953 0.0005859101 0.013019875 -0.008628487
000080 e2 f0 a8 bc 51 7f ff bb a0 eb 52 bb 94 a3 81 3c
       -0.020622674 -0.0077971597 -0.00321839 0.01582507
000090 d7 c3 37 bc bf ef fb 3c 2a 06 f1 3b 46 d7 18 bd
       -0.011216125 0.030753968 0.007355471 -0.037314676
0000a0 d1 ae 2c 3d 8b 54 fc 3c ca 8f a5 3c 7d d5 f2 3c
       0.042158905 0.030802032 0.020210166 0.029642815
0000b0 9e 1a 17 3b ff 71 a1 3c af 82 a9 3c 80 db 0b bd
       0.0023056637 0.019707678 0.020692198 -0.03414488
0000c0 1c 7a eb bb 1d 25 94 3c 5e 9c 18 bd 83 82 d2 bc
       -0.0071861874 0.018084103 -0.0372585 -0.025696998
0000d0 16 64 8a bc 3b 76 2c bb 12 5d 08 3d 28 04 55 bc
       -0.016893428 -0.0026315588 0.033291884 -0.013001479
0000e0 c3 b4 2b 3c 8f 82 37 bc af 8d 47 bc 25 5d 25 ba
       0.010480109 -0.011200561 -0.012179776 -0.000630813
0000f0 bb 47 e0 bc 14 c0 62 3c 71 32 51 bc 4e ac 11 3c
       -0.027377954 0.01383974 -0.012768374 0.008891178

body.block2.norm.weight f4 [64]
000000 6d d8 85 3f da a1 7b 3f e0 5a 88 3f 39 3a 81 3f
       1.0456673 0.9829384 1.0652733 1.0095893
000010 08 4e 83 3f 46 e4 81 3f 80 82 6f 3f ec 7b 83 3f
       1.0258188 1.0147789 0.935585 1.0272193
000020 7f 65 77 3f cb d4 80 3f e0 b3 7a 3f e4 0d 7e 3f
       0.96639246 1.0064939 0.9793072 0.99239945
000030 28 a5 72 3f d4 10 78 3f f2 02 79 3f b1 24 86 3f
       0.9478326 0.9690068 0.9727012 1.0479947
000040 8f 5d 7a 3f 1e 23 88 3f 06 49 78 3f 07 ef 87 3f
       0.9779901 1.0635717 0.96986425 1.061982
000050 19 64 67 3f 67 f7 63 3f 35 20 75 3f 32 bb 83 3f
       0.9038711 0.8904938 0.9575227 1.0291502
000060 7e 5e 85 3f 88 38 7e 3f 9c 4d 73 3f 04 32 8a 3f
       1.0419462 0.9930501 0.950403 1.0796514
000070 cd 67 87 3f 0a 47 7c 3f 56 37 76 3f b2 f5 70 3f
       1.0578552 0.98545897 0.96178186 0.941249
000080 6b 0b 88 3f 44 a7 6e 3f fa 36 84 3f 2a b8 72 3f
       1.0628484 0.9322398 1.0329278 0.9481226
000090 b2 a5 7e 3f 5c df 73 3f 1c 02 6b 3f 61 17 67 3f
       0.9947158 0.95262694 0.91800094 0.9027005
0000a0 c4 a9 71 3f d8 06 81 3f d1 fb 81 3f 9e 66 7c 3f
       0.94399667 1.0080214 1.0154973 0.9859408
0000b0 d8 03 85 3f d7 ea 83 3f 2f 79 75 3f 68 79 88 3f
       1.0391798 1.0306042 0.95888036 1.066205
0000c0 de 1f 83 3f f2 20 8a 3f 38 de 6a 3f 5a 29 80 3f
       1.02441 1.0791304 0.9174533 1.001262
0000d0 d0 47 82 3f 36 79 88 3f 3d 98 7a 3f 9b 3c 7f 3f
       1.0178165 1.0661991 0.9788855 0.9970185
0000e0 92 5e 7c 3f 5a cc 85 3f 03 08 6b 3f f5 30 7b 3f
       0.985818 1.0452988 0.918091 0.9812158
0000f0 13 cb 88 3f f0 bc 7a 3f 6f be 75 3f 76 84 71 3f
       1.0686973 0.97944546 0.95993704 0.94342744

body.block2.norm.bias f4 [64]
000000 51 62 12 be cf 79 a3 bd b5 92 73 bd 9c 53 74 bd
       -0.14295317 -0.079822175 -0.059466083 -0.05965005
000010 34 7e d9 bd 6e a0 91 bd 6c 99 9b bd db 4a 85 bd
       -0.106197745 -0.07110678 -0.07597622 -0.06508418
000020 79 bd cc bd 32 a4 60 bd a3 49 34 be 07 67 ca bd
       -0.099970765 -0.05484409 -0.17606215 -0.09882932
000030 70 1f 19 be a5 88 0c be 1f 1a 27 be d1 57 4f be
       -0.14953399 -0.13724001 -0.16318558 -0.20248343
000040 34 22 61 bd 22 71 8d bd f6 62 62 bd 54 03 d3 bd
       -0.05496426 -0.06906344 -0.055270158 -0.10303369
000050 19 3c f4 bd a1 b6 f2 bd f8 64 16 bd 90 6a 78 bd
       -0.11925525 -0.1185124 -0.036717385 -0.0606485
000060 8a 43 ad bd f9 04 04 be 2d 70 4a be f6 e1 bf bd
       -0.08460148 -0.12892522 -0.19769354 -0.093692705
000070 81 78 e3 bd 36 4b 80 bd 29 53 0a bd bd 9d 4b bd
       -0.11106969 -0.06264345 -0.033770714 -0.049710978
000080 5e 8d b0 bd e8 f0 1b be b2 0b 01 be fb 8d 19 be
       -0.08620714 -0.15228617 -0.12602118 -0.14995568
000090 a3 fb c6 bd 84 d2 eb bd ae 93 fd bd ec a8 04 be
       -0.09715965 -0.11514762 -0.12381683 -0.12955064
0000a0 b2 07 07 be 57 c0 61 bd 81 09 fb bd 36 9f 4c bd
       -0.1318653 -0.05511507 -0.12257672 -0.049956523
0000b0 ac 4f e7 bc ca 25 c0 bd 5b 50 a0 bd f9 18 08 bd
       -0.028236233 -0.09382208 -0.078278266 -0.03322694
0000c0 a4 71 b8 bd 39 69 ab bd ff 33 28 bd 7a b8 81 bd
       -0.0900605 -0.08369679 -0.041065212 -0.06334014
0000d0 ce 32 97 bd ea 7e 7e bc a4 b0 e0 bc 69 15 93 bd
       -0.07382737 -0.015533188 -0.027427979 -0.07181818
0000e0 9b 5d 22 bd cb 0a 13 be 65 0c 91 bd 43 a3 2a bd
       -0.03964005 -0.14359586 -0.07082442 -0.041659605
0000f0 de 3c 36 bd 1f 87 56 be fb 98 bc bd 20 62 e0 bd
       -0.04449164 -0.20949982 -0.09208866 -0.10956216

body.block2.norm.running_mean f4 [64]
000000 05 a5 9c bf 24 6b 5d 3e 1f 2c 60 3f 8f 69 c1 bd
       -1.223786 0.21622902 0.87567323 -0.09443962
000010 de db 71 3f d3 ee d7 bc e9 a6 92 be 55 50 8a be
       0.94476116 -0.026358997 -0.28642967 -0.27014413
000020 45 5b 40 3e 97 d2 98 be 9a 19 44 3f ee b8 e4 3d
       0.18784817 -0.29848167 0.76601565 0.11168085
000030 8c 13 3c bd 12 27 2f bf 29 c4 00 3f 2e b0 aa bd
       -0.04591708 -0.6841899 0.50299317 -0.08334385
000040 9e ce 6e 3e dc 99 b6 3f 57 16 27 3f bd 62 b1 bf
       0.23321006 1.4265704 0.6526846 -1.3858258
000050 6b 53 2b 3f b9 79 94 be 16 d3 a2 be 64 87 38 bf
       0.6692416 -0.28999117 -0.3180167 -0.7208159
000060 cc d9 8c be 58 b3 52 3f 9e 30 eb be d0 96 a6 3e
       -0.27509916 0.82304907 -0.4593553 0.32536936
000070 42 ad f4 be a6 b3 70 3f c9 91 6c 3f 37 75 2b 3e
       -0.47788435 0.9402412 0.9240995 0.16743933
000080 26 1c 19 3e a2 e2 a8 bf 26 62 80 3e dc 34 02 3f
       0.14952144 -1.3194163 0.2507488 0.50861907
000090 f1 68 e6 be 9e d2 59 3f 31 51 67 3f 1f 50 b0 be
       -0.4500194 0.85087 0.90358263 -0.34436128
0000a0 f0 c2 e3 bd aa 1f 0a 3f 77 cc f1 bd ad b8 d8 3e
       -0.11121166 0.53954566 -0.11806577 0.42328396
0000b0 59 fa bb 3c 6d a9 1a be 51 49 7d bc 12 ec 44 bf
       0.022946524 -0.15103693 -0.0154593745 -0.76922715
0000c0 79 c7 73 3f b0 15 09 3f 10 e6 1f be 17 db e5 bd
       0.95226246 0.5354872 -0.15615106 -0.11223429
0000d0 9e d7 59 3f 86 94 df be 32 86 da 3e 2c 84 a0 3e
       0.8509463 -0.43668002 0.42680508 0.3135084
0000e0 1d a5 84 3f 9d 85 84 3f 92 fd 49 bc dd 22 4f 3e
       1.0362889 1.0353276 -0.012328522 0.20228143
0000f0 4a c9 f5 bd 6f 49 f7 3d bb c2 fa 3e e3 85 df 3d
       -0.120012835 0.12074553 0.48976693 0.10914209

body.block2.norm.running_var f4 [64]
000000 8a 98 9f 3e ce 07 8e 3f 32 e0 1c 3f 1e b8 29 3f
       0.31171066 1.1096132 0.61279595 0.66296566
000010 95 5c d6 3e 5c af 37 3f 27 4c a7 3e 0d 32 35 3f
       0.4186751 0.7175195 0.32675287 0.70779496
000020 c6 52 02 3f ae 52 a4 3e b3 46 11 3f 82 a2 20 3f
       0.5090755 0.3209433 0.56748503 0.6274797
000030 49 74 0b 3f e4 1c c2 3e 44 2d 20 3f 1b 39 cd 3e
       0.5447431 0.37912667 0.6256907 0.4008263
000040 7f 14 3a 3f 69 b0 3d 3f b7 88 66 3f 16 17 a2 3e
       0.72687525 0.74097306 0.9005236 0.31658238
000050 82 69 07 40 21 50 69 3f 6a 16 79 3f 2a 04 8c 3f
       2.1158147 0.9113789 0.97299826 1.0938771
000060 c8 94 12 3f d2 19 9c 3f ab e6 bb 3e f2 52 58 3f
       0.5725827 1.219538 0.36699423 0.84501565
000070 a8 3a 38 3f 70 e2 a0 3f 19 f9 07 3f 9c 5d a1 3f
       0.719645 1.2569103 0.5311447 1.2606692
000080 d4 e2 a5 3f 89 a0 c4 3e 9a 27 6b 3f db 04 99 3e
       1.2959847 0.3840373 0.918573 0.29886517
000090 61 ea 92 3f 9f 0a 34 3f b0 d1 d7 3f 24 0a 7a 3f
       1.1477777 0.70328707 1.6860867 0.97671723
0000a0 54 11 85 3f 60 43 33 3f b4 cf 35 3f fc 64 83 3f
       1.0395913 0.7002468 0.71020055 1.0265193
0000b0 25 d0 26 3f 07 cf 1b 3f 8d 59 7b 3f bd 6e 5c 3f
       0.65161353 0.60862774 0.9818352 0.86106473
0000c0 4e 81 5b 3f fa f4 9e 3f ec 01 1a 3f 67 7a 3f 3f
       0.8574418 1.2418511 0.6015918 0.74796146
0000d0 cc 9c 6d 3f a8 6e 47 3f de 06 3a 40 99 a5 0f 3f
       0.9281738 0.77903223 2.9066691 0.56112057
0000e0 60 c5 95 3f 5d a0 b9 3e a8 70 70 3f 0d d1 4b 3f
       1.1700859 0.3625516 0.939219 0.7961586
0000f0 b0 43 1d 3f 1b af 52 3e 72 de 6d 3f 57 24 16 3f
       0.6143141 0.2057461 0.9291755 0.586492
