code/Output/starry_night_full/gram_e8000_1px_lr0.0007a3.0_up-conv5_1_W[1, 0.75, 0.2, 0.2, 0.2](5)/6/netG.pth (torch, 471621 bytes, 26 tensors)

head.conv.weight f4 [64, 3, 3, 3]
0	0xbcb2427a	-0.021760214
1	0x3d68a979	0.056802247
2	0x3d2d8471	0.042362634
3	0x3c022e5f	0.007945626
4	0x3bd6e159	0.0065576253
5	0x3cb39be7	0.021924926
6	0xbc1e1371	-0.00964819
7	0x3c9fa843	0.019489413
8	0xbbbe7e94	-0.005813429
9	0xbcceb8bf	-0.025234578
10	0xbd0d9c84	-0.034573093
11	0x3c533757	0.012891612
12	0xbd330bb4	-0.043712333
13	0xbd47da3b	-0.048792105
14	0x3c715ad9	0.014731132
15	0xb9207a62	-0.0001530438
16	0x3c6cdde3	0.014457199
17	0xbdb3d8c0	-0.08781576
18	0xbc3d9407	-0.011570937
19	0x3c1a8c71	0.009432898
20	0x3c23f425	0.010006939
21	0xbaf5b700	-0.0018746555
22	0xbcbb1006	-0.022834789
23	0x3d30c7af	0.043159183
24	0x3c757ccb	0.014983366
25	0xbcdec449	-0.027193205
26	0xbc4311dc	-0.0119061135
27	0xbb127232	-0.0022345898
28	0x3b8c0075	0.0042725154
29	0xbd275aac	-0.040857956
30	0x3bc7d7a5	0.006098705
31	0x3c9b96b8	0.018992767
32	0xbab71542	-0.0013968127
33	0xbc9bac9d	-0.019003207
34	0x39f5f62d	0.00046913457
35	0xba79c1e7	-0.000952749
36	0xbd360061	-0.044433955
37	0xbcc36311	-0.02385095
38	0xbcfbc684	-0.030734308
39	0xbb10b9e3	-0.0022083453
40	0x3be97b1c	0.0071252715
41	0x3964e9b0	0.0002183083
42	0x3b8d8bad	0.004319629
43	0x3d444a03	0.047922146
44	0xbc254f44	-0.010089699
45	0xbc1633df	-0.0091676405
46	0x3c20e102	0.009819271
47	0x3d5077aa	0.05089537
48	0xbd2314c1	-0.039814714
49	0x3b5a47c5	0.0033306938
50	0x3d334974	0.043771222
51	0x3cfd0f68	0.030891135
52	0xbcb2e793	-0.021838939
53	0xbd5ddd4b	-0.05416612
54	0x3cc341c7	0.023835076
55	0x3bd47859	0.006484073
56	0xbce765c5	-0.02824677
57	0xbca4097b	-0.020024052
58	0xbcba2be3	-0.022726005
59	0xbc8a1af1	-0.01685855
60	0x3c9a3430	0.018823713
61	0x3c207129	0.0097926045
62	0x3d2b13b1	0.041766826
63	0x3b2dcd29	0.002651999
64	0xbd32411f	-0.043519136
65	0xbc586510	-0.013207689
66	0x3c09a08e	0.008400096
67	0x3d2446c2	0.040106542
68	0x3c8b3a7d	0.016995663
69	0xbc87fc9f	-0.016599951
70	0xbc34b7a5	-0.011030112
71	0x3c12a4af	0.008950396
72	0x3c4eb7ed	0.0126170935
73	0xbbdac04e	-0.0066757565
74	0x3d807cf4	0.06273833
75	0xbcbeda8d	-0.023297573
76	0xbc67da7d	-0.014151213
77	0x3d7f9ba8	0.062404305
78	0x3cdad02c	0.026710592
79	0xbcb36be8	-0.02190204
80	0xbc2bfd3b	-0.010497387
81	0xbd019657	-0.031637516
82	0x3cafa272	0.021439765
83	0x3cd284ce	0.025698092
84	0x399ef682	0.0003031977
85	0xbc92d1df	-0.01792234
86	0x3d4f4dd6	0.05061134
87	0xbc478a3e	-0.012178956
88	0x3d839550	0.064249635
89	0x3d6dfc4c	0.058101937
90	0x3cf6184d	0.030040884
91	0xbc252a1c	-0.01008084
92	0x3ba2133f	0.004946142
93	0x3d298bde	0.041393153
94	0xbca02501	-0.019548895
95	0xbcd9f799	-0.026607322
96	0xbc8304e5	-0.015993545
97	0xbcceb577	-0.025233014
98	0xbcf82c72	-0.03029463
99	0xbcae21ba	-0.021256316
100	0x3ccb9568	0.024851516
101	0x3ce5eb47	0.02806629
102	0xbd27d851	-0.04097778
103	0xbc33e1d6	-0.010979136
104	0xbc6462d1	-0.013939575
105	0x3d50116b	0.05079786
106	0x3cb7b3ae	0.022424545
107	0x3c781509	0.015141734
108	0xbd2031d8	-0.039110035
109	0x3c0aa755	0.008462747
110	0x3c1c4490	0.009537831
111	0xbbdbe412	-0.0067105377
112	0x3c406090	0.011741772
113	0x3ce90548	0.028444901
114	0x3cea49e9	0.028599696
115	0x3c80080e	0.01562884
116	0xbbb1f4cf	-0.005430795
117	0xbd22c2ac	-0.039736435
118	0x3d008ad9	0.031382415
119	0x3ca3c46f	0.019991128
120	0xbcd753a4	-0.026285
121	0x3d341019	0.043960664
122	0xbcd3df25	-0.02586324
123	0x3aacf9f7	0.0013197054
124	0x3bd2e190	0.0064355806
125	0x3b54000b	0.0032348658
126	0xbd1a00fe	-0.037598602
127	0x3c166cb0	0.009181187
128	0x3c6a12b9	0.01428669
129	0xbcdd8718	-0.027041957
130	0xbc6b5fc5	-0.014366095
131	0x3ca013d1	0.0195407
132	0x3cbe34b9	0.0232185
133	0x3c50154b	0.012700389
134	0xbd27786c	-0.040886328
135	0xbca944f0	-0.020662755
136	0x3ce8c980	0.028416395
137	0x3cde54a8	0.027139977
138	0x3d1c55cf	0.03816777
139	0x3ca49d18	0.02009444
140	0xbc96102f	-0.018318264
141	0xbc85f609	-0.01635267
142	0x3c562b94	0.013071913
143	0xbbb1848a	-0.005417411
144	0x3c695372	0.014241086
145	0x3bf053e6	0.00733422
146	0x3b0128ca	0.001970815
147	0x3c964617	0.018343968
148	0xbd318f3d	-0.043349493
149	0xbd1ef641	-0.038809065
150	0x3d07e53f	0.03317761
151	0xbc8362d7	-0.016038341
152	0xbcc1f968	-0.023678496
153	0x3d0c5d9c	0.03426896
154	0xbc7f0c16	-0.015566846
155	0xbca2bc97	-0.019865317
156	0xbd06ba0e	-0.03289228
157	0x3c305b29	0.010763922
158	0xbcabd21f	-0.020974217
159	0x3cdffcfa	0.027342308
160	0xba808736	-0.0009805921
161	0xbd75ad20	-0.059979558
162	0x3c41933e	0.01181489
163	0xbc0537aa	-0.008130947
164	0xbc6a6e42	-0.014308514
165	0x3c326b68	0.010889865
166	0x3cd71413	0.02625469
167	0xbac67438	-0.0015140837
168	0xbb867dcc	-0.0041043516
169	0xbc46e8e8	-0.01214049
170	0x3c94dc6a	0.018171508
171	0x3ce98b08	0.028508678
172	0x3ba700ad	0.005096516
173	0x3bfaecce	0.007657624
174	0x3d208439	0.039188597
175	0xbc02dd33	-0.007987308
176	0x3b4b656b	0.0031035792
177	0xbca2ae0f	-0.019858388
178	0x3b36fd95	0.0027922143
179	0xbc429d22	-0.011878284
180	0x3c4120c2	0.011787595
181	0x3cd14389	0.025544899
182	0x3d240c52	0.040050812
183	0x3ce1b1ff	0.027550695
184	0xb8a6bac7	-7.950287e-05
185	0xbb8d1e98	-0.0043066256
186	0x3cb02df8	0.021506295
187	0x3d5c654d	0.053807545
188	0xba95dad0	-0.0011433009
189	0x3c801c49	0.015638487
190	0xbd6b70d0	-0.057480633
191	0x3d2c6496	0.042088114
192	0x3bb7b542	0.0056063244
193	0xbd1c9902	-0.038231857
194	0x3cee87ee	0.02911755
195	0x3d0632b6	0.032763205
196	0x3d2cd6f9	0.0421972
197	0x3c6767ba	0.014123851
198	0xbb8756dc	-0.0041302275
199	0xbd02d43a	-0.031940676
200	0x3c05c06c	0.008163553
201	0xbb3792ba	-0.002801104
202	0xbccb0e1c	-0.024787001
203	0x3d2793e3	0.04091252
204	0xbd13638e	-0.035983615
205	0xbd01f4ec	-0.031727716
206	0x3b9b35cc	0.0047366377
207	0x3cc1f0a7	0.023674322
208	0xbd0126d7	-0.03153118
209	0x3c889305	0.016671667
210	0x3c37ffa0	0.011230379
211	0xbcb853ed	-0.022500956
212	0xbbeb3b25	-0.0071786814
213	0x3c8790e9	0.01654859
214	0xbd71f137	-0.05906793
215	0x3c0be323	0.00853804
216	0xbcf49fd2	-0.029861365
217	0x3c78f74e	0.015195681
218	0xbc0c4bfb	-0.008563037
219	0xbd3c3204	-0.045946136
220	0xbcd9327e	-0.026513334
221	0xb9f285b4	-0.00046257454
222	0xbd1c7547	-0.038197782
223	0xbaeaa300	-0.0017901361
224	0x3964e03d	0.0002182731
225	0xbbfdd6a8	-0.0077465363
226	0x3d1ea731	0.038733665
227	0x3d04709c	0.032333955
228	0x3cb41fa0	0.021987736
229	0x3bf9f578	0.007628139
230	0xbc355282	-0.011067035
231	0xbcf6e025	-0.030136177
232	0x3d0fabe7	0.03507605
233	0xbce8439d	-0.028352553
234	0xbd0cf6f7	-0.03441521
235	0xbbf7a5d0	-0.007557608
236	0x3b124c82	0.0022323434
237	0x3d609374	0.054828122
238	0x3cd9f4a6	0.026605915
239	0xbd0a1c77	-0.033718552
240	0x3cbdb48a	0.023157377
241	0x3b70744d	0.0036690414
242	0xbc845721	-0.016154828
243	0xbcb22eb2	-0.021750782
244	0x3b7d7833	0.003867638
245	0x3cf37809	0.029720323
246	0x3b65dac6	0.0035073026
247	0xbc682a85	-0.014170294
248	0xbcbd7d14	-0.023130931
249	0x3c512757	0.012765727
250	0x3d460a81	0.04834986
251	0x3cf9190e	0.030407455
252	0xbccf18c2	-0.02528036
253	0xbd81cf0c	-0.06338319
254	0xbd612189	-0.054963622
255	0xba840bcd	-0.0010074318

head.conv.bias f4 [64]
0	0x3dd470b1	0.10373057
1	0xbe24bbd8	-0.16087282
2	0xbe0cf52d	-0.13765402
3	0xbdb5fc14	-0.08885971
4	0xb9bae2fd	-0.00035645804
5	0x3d5a9405	0.05336382
6	0xbe00fe4d	-0.12597008
7	0x3dd5d034	0.10440102
8	0x3e286c81	0.16447641
9	0x3d150782	0.036384113
10	0x3d639c22	0.05556882
11	0xbda30fca	-0.07961996
12	0xbe067c6f	-0.13133405
13	0x3e1cc592	0.15309742
14	0xbe10abc9	-0.14128031
15	0x3da1e7a4	0.0790551
16	0x3e2d500d	0.16925068
17	0xbdd5350c	-0.104105085
18	0xbe007dbd	-0.12547965
19	0xbd0af046	-0.03392055
20	0x3d18a699	0.037268255
21	0x3dbfa77a	0.093581155
22	0xbe0ed59e	-0.13948676
23	0xbb95fb08	-0.0045770444
24	0xbd98fa3d	-0.07469604
25	0x3dd25272	0.102696314
26	0xbe0e1bdc	-0.13877815
27	0x3e233034	0.15936357
28	0xbd257c4d	-0.040401746
29	0xbd23c1f0	-0.039979875
30	0x3e2cdf06	0.16881952
31	0x3e0de933	0.1385849
32	0xbe1fbf93	-0.15600424
33	0x3d857316	0.065160915
34	0x3d21f317	0.03953847
35	0xbca57ec0	-0.02020204
36	0xbbe79a9c	-0.0070679914
37	0x3de348eb	0.110978924
38	0xbcb93ab0	-0.022610992
39	0x38d49c4f	0.000101380625
40	0xbdd79153	-0.10525765
41	0x3d683cfa	0.056698777
42	0x3e12cd1b	0.14336054
43	0xbd536904	-0.051613823
44	0x3ca12dcc	0.019675158
45	0xbc4daff9	-0.012554162
46	0xbe0c1779	-0.13680829
47	0xbe00c7b5	-0.12576182
48	0xbdf2a57b	-0.11847969
49	0xbe1bff62	-0.1523414
50	0x3e224039	0.15844811
51	0x3d84ca7c	0.06483933
52	0x3e332e0b	0.17498033
53	0x3c6b4d4a	0.014361689
54	0xbc496fe2	-0.012294741
55	0xbd5fc9ec	-0.054635927
56	0x3d2b011d	0.04174911
57	0x3d3b2d01	0.045697216
58	0x3d3f44b1	0.04669637
59	0x3e356caa	0.17717233
60	0xb9fab9ee	-0.00047822244
61	0xbe172656	-0.14760718
62	0xbdb03966	-0.08604698
63	0xbb80b9f9	-0.0039284197

head.norm.weight f4 [64]
0	0x3f7affe0	0.98046684
1	0x3f8061a3	1.0029796
2	0x3f7ad177	0.9797587
3	0x3f6adb42	0.9174081
4	0x3f855938	1.0417852
5	0x3f7de413	0.9917614
6	0x3f739b90	0.95159245
7	0x3f8117ac	1.0085349
8	0x3f86c802	1.0529788
9	0x3f76a69d	0.9634798
10	0x3f71bcbc	0.9442861
11	0x3f6dacc9	0.92841774
12	0x3f82566e	1.0182626
13	0x3f757303	0.9587862
14	0x3f86b22c	1.0523124
15	0x3f84c689	1.0373088
16	0x3f846495	1.0343195
17	0x3f742282	0.95365155
18	0x3f7ea5d8	0.9947181
19	0x3f8ba616	1.091006
20	0x3f7e2fdc	0.9929178
21	0x3f75bee2	0.9599439
22	0x3f7f869a	0.9981476
23	0x3f813b94	1.0096307
24	0x3f7bf9d4	0.9842808
25	0x3f74d6a3	0.9564001
26	0x3f73b388	0.9519582
27	0x3f82f03d	1.0229565
28	0x3f834ad6	1.0257213
29	0x3f795a5b	0.97403497
30	0x3f74d6d6	0.95640314
31	0x3f81c361	1.013775
32	0x3f76d602	0.964203
33	0x3f7ba3b2	0.98296654
34	0x3f78c532	0.97175896
35	0x3f831487	1.024064
36	0x3f785ee3	0.97019786
37	0x3f7719e5	0.96523887
38	0x3f81e1e5	1.0147063
39	0x3f7eecc3	0.9958002
40	0x3f8604ab	1.0470175
41	0x3f80f5ed	1.007505
42	0x3f83362e	1.0250909
43	0x3f82f0af	1.0229701
44	0x3f82e444	1.0225911
45	0x3f80e086	1.0068519
46	0x3f7c068e	0.984475
47	0x3f839900	1.0281067
48	0x3f82f581	1.0231172
49	0x3f830e22	1.0238688
50	0x3f7463c3	0.95464724
51	0x3f756ef4	0.95872426
52	0x3f89542d	1.0728813
53	0x3f7810ef	0.9690084
54	0x3f7d6c3c	0.9899328
55	0x3f860095	1.0468928
56	0x3f7b3f89	0.9814382
57	0x3f75ac0e	0.9596566
58	0x3f83bc4a	1.0291836
59	0x3f7a60b0	0.97803783
60	0x3f808e90	1.0043507
61	0x3f85a66b	1.0441412
62	0x3f774d62	0.9660245
63	0x3f6fa971	0.9361792

head.norm.bias f4 [64]
0	0xbc87427f	-0.0165112
1	0xbd00b0c9	-0.031418595
2	0xbdacbddb	-0.084346496
3	0xbb93aac4	-0.004506441
4	0xbdd8c0f4	-0.10583678
5	0xbd518782	-0.05115462
6	0xbcf398fa	-0.02973603
7	0xbdbca536	-0.09211199
8	0xbd58dcf1	-0.05294508
9	0xbde7cf29	-0.113188095
10	0xbe124c7b	-0.14286987
11	0xbd2698eb	-0.040673178
12	0x3d7c1f6e	0.06155341
13	0xbe0594eb	-0.13045089
14	0xbc68f898	-0.014219426
15	0xbdf4cd9b	-0.11953279
16	0xbdb95c43	-0.09050801
17	0xbd9ea672	-0.07746591
18	0xbdc563b3	-0.09638157
19	0xbcd3298e	-0.02577665
20	0xbbf4face	-0.0074761873
21	0xbc8080cc	-0.015686415
22	0x3d5698c4	0.052391782
23	0x3da2c8ab	0.07948431
24	0xbdc1ebf1	-0.094688304
25	0xbd43c175	-0.047791917
26	0xbd7b9343	-0.061419737
27	0xbc31da4f	-0.0108552715
28	0xbc02033b	-0.0079353405
29	0xbcddc912	-0.027073417
30	0xbd2486a2	-0.04016746
31	0xbcd45250	-0.025918156
32	0xba13f4a5	-0.000564406
33	0xbd83a072	-0.06427087
34	0xbd8fd101	-0.07022286
35	0xbd80f507	-0.06296735
36	0xbd294e7c	-0.041334614
37	0xbdd6bd50	-0.10485327
38	0x3d0e6917	0.03476819
39	0xbd34efda	-0.044174053
40	0xbb8cbf81	-0.00429529
41	0xbd804530	-0.062631965
42	0xbae53b79	-0.0017489038
43	0x3c372a9d	0.011179593
44	0xbd8f4f29	-0.069975205
45	0xbdb8f75b	-0.09031554
46	0xbcdb67c1	-0.026782872
47	0xbdc882be	-0.09790562
48	0xbc192651	-0.009347514
49	0xbd3d95d9	-0.046285484
50	0xbcd72164	-0.02626104
51	0xbda6e16d	-0.08148465
52	0xbd2806a3	-0.041021954
53	0xbd8d820b	-0.06909569
54	0xbddba66b	-0.10725101
55	0xbcb7be51	-0.022429617
56	0xbd1e53bb	-0.03865407
57	0xbdab3fb0	-0.08361757
58	0xbd770390	-0.06030613
59	0xbd33ca9e	-0.043894403
60	0xbdda3c76	-0.10656063
61	0xbdef63e9	-0.11688978
62	0xbd1d4fa3	-0.038406026
63	0xbd51d84f	-0.05123168

head.norm.running_mean f4 [64]
0	0x3ddd9ecf	0.10821306
1	0xbe0ead43	-0.13933282
2	0xbe16bfa5	-0.14721544
3	0xbe091f47	-0.13390838
4	0xbc8bc879	-0.017063366
5	0x3d4485e8	0.047979265
6	0xbe227352	-0.15864304
7	0x3dc5da6a	0.096608
8	0x3e478083	0.19482617
9	0x3d728241	0.05920625
10	0x3db4fb50	0.088369966
11	0xbdf53ed7	-0.119748764
12	0xbdff2d3a	-0.12459798
13	0x3e3243cd	0.17408676
14	0xbdccd884	-0.100022346
15	0x3d997ae6	0.07494144
16	0x3e248878	0.16067684
17	0xbe063f0a	-0.13109985
18	0xbdb36612	-0.08759703
19	0xbc7dfb13	-0.015501755
20	0x3da398df	0.07988142
21	0x3da0f761	0.07859684
22	0xbe0ae079	-0.13562192
23	0xbc7eda41	-0.0155549655
24	0xbda36df6	-0.07979958
25	0x3dbe6bd1	0.09297908
26	0xbe22e637	-0.15908132
27	0x3e34e999	0.17667235
28	0xbd24dea2	-0.04025138
29	0xbd969cd3	-0.073541306
30	0x3e0c99c3	0.1373053
31	0x3e05ab56	0.1305364
32	0xbe2efa2e	-0.17087623
33	0x3d6a9cd3	0.057278465
34	0x3c9016e4	0.01758904
35	0xbd172c6e	-0.036907606
36	0x3cba9430	0.02277574
37	0x3de553b1	0.111976035
38	0xbcd0fa9b	-0.025510123
39	0xbb7644ed	-0.0037577704
40	0xbdb8ceb6	-0.09023802
41	0x3d6688dd	0.056282867
42	0x3df41b08	0.11919218
43	0xbd983163	-0.07431295
44	0x3c3d39d4	0.011549432
45	0x3a1874fc	0.0005815772
46	0xbe242193	-0.16028433
47	0xbdf71bdf	-0.12065863
48	0xbdec5ae5	-0.11540774
49	0xbe332e20	-0.17498064
50	0x3e2e5e71	0.17028214
51	0x3daedcf5	0.08538238
52	0x3e26af2f	0.16277765
53	0x3d096454	0.033542946
54	0x3ce4e4f7	0.02794121
55	0xbd62522e	-0.055254154
56	0x3cedfdc1	0.029051663
57	0x3d592556	0.053014122
58	0x3d87ec5f	0.06636881
59	0x3e1935f9	0.14961995
60	0xbc3281dc	-0.010895219
61	0xbe238b8a	-0.15971199
62	0xbe1329dc	-0.14371437
63	0xbcd5961c	-0.026072554

head.norm.running_var f4 [64]
0	0x3a6f45a8	0.0009127506
1	0x3a1f7826	0.0006083272
2	0x3a354376	0.00069146545
3	0x3ad9b5ea	0.0016610001
4	0x39e65014	0.0004392868
5	0x3a595220	0.00082901306
6	0x3b876c6e	0.004132799
7	0x39ef2574	0.00045613537
8	0x3a162a3d	0.000572834
9	0x3af8a5f6	0.0018970359
10	0x3a3eb04b	0.00072741945
11	0x3b7d6eb2	0.0038670716
12	0x395dec26	0.00021164175
13	0x3a5c5356	0.0008404752
14	0x3ae13c9e	0.0017184203
15	0x39adc57a	0.00033144263
16	0x39e65b83	0.000439372
17	0x3a5553eb	0.000813781
18	0x3aaa0902	0.0012972655
19	0x39ac9450	0.00032916898
20	0x3bcfd7b5	0.006342853
21	0x39a9cd06	0.00032386946
22	0x3981cbb6	0.00024756574
23	0x39922c84	0.00027880457
24	0x3974a4c8	0.00023331039
25	0x3b401ef4	0.0029315325
26	0x3abaacb8	0.0014242148
27	0x3b056284	0.002035291
28	0x39f60014	0.00046920835
29	0x3b7d44be	0.003864571
30	0x3aa8f577	0.0012890537
31	0x3a33c618	0.00068578264
32	0x3a0cf37b	0.00053768576
33	0x3a380b70	0.0007020747
34	0x3a782555	0.0009466012
35	0x3989b889	0.00026268166
36	0x3ad71b27	0.001641129
37	0x3a1c5310	0.0005963305
38	0x39825fff	0.00024867055
39	0x39c8ceef	0.0003830115
40	0x396e2e8d	0.0002271479
41	0x395aa600	0.0002085194
42	0x3a1315b9	0.0005610842
43	0x3a638b55	0.0008680125
44	0x38da1453	0.00010398836
45	0x3b294ce9	0.0025833196
46	0x3acb12de	0.0015493294
47	0x3a36b8be	0.0006970278
48	0x39fba2aa	0.00047995645
49	0x39e158b7	0.00042981442
50	0x3a8fe0f9	0.0010977081
51	0x3a983b36	0.0011614326
52	0x39ef2645	0.00045614145
53	0x3a0f5a14	0.000546844
54	0x3a853aaa	0.0010164578
55	0x39b8d179	0.00035251284
56	0x3ac6bcd0	0.0015162472
57	0x398b9258	0.0002662118
58	0x3a06f68e	0.0005148434
59	0x39fcb91b	0.000482031
60	0x3a3cdaa6	0.0007204212
61	0x3a6a96b9	0.0008948851
62	0x3b37cab1	0.0028044397
63	0x3a7c0d47	0.00096150156

body.block1.conv.weight f4 [64, 64, 3, 3]
0	0xbdaf6858	-0.08564824
1	0xbc52a7f2	-0.012857424
2	0xbcad120b	-0.021126768
3	0x3c52a963	0.012857768
4	0xbb455b12	-0.0030114097
5	0xbd0c22da	-0.034212925
6	0x3c368969	0.01114116
7	0xbc80a1cf	-0.015702156
8	0x3d115f15	0.035491068
9	0x3c973e86	0.01846243
10	0x3cfa1968	0.030529693
11	0x3bf406e8	0.0074471124
12	0xbbde1038	-0.006776836
13	0x3c6715e4	0.01410434
14	0x3d14b494	0.036305025
15	0xbbd022d9	-0.0063518104
16	0x3bb9be47	0.005668435
17	0xbbe3cf14	-0.006952176
18	0xbcb024b7	-0.021501882
19	0x3d3fda86	0.04683926
20	0x3d3b2bed	0.045696188
21	0xbbeaa942	-0.0071612904
22	0xbce8a4c0	-0.028398871
23	0xbbe9dbf9	-0.0071368185
24	0x3c118ef7	0.008884183
25	0xbc1998eb	-0.009374837
26	0xbc188b07	-0.00931049
27	0xbbd0631e	-0.006359472
28	0xbc8f7c43	-0.017515307
29	0x3c80a586	0.015703928
30	0x3c6334e1	0.013867588
31	0x3ca5732f	0.020196525
32	0x3c06fec4	0.008239452
33	0xbd21b8cd	-0.03948288
34	0x3c626ac5	0.013819401
35	0xbc660a31	-0.014040516
36	0x3cf4b96c	0.029873572
37	0xbc15557c	-0.009114619
38	0xbc31c7a2	-0.010850819
39	0xbc2dd46e	-0.010609729
40	0xbd8d10cb	-0.06887969
41	0xbd6a45ff	-0.05719566
42	0x3d0d782a	0.034538426
43	0xbcb3dc2a	-0.021955568
44	0xbd02682b	-0.031837624
45	0x3cd2874e	0.025699284
46	0xbc45b96e	-0.012068136
47	0x3d1c5c53	0.038173985
48	0xbb5c8023	-0.0033645711
49	0x3d197fbe	0.03747534
50	0xbbf623c3	-0.0075115873
51	0xbd159624	-0.03652014
52	0x3ca76eae	0.020438518
53	0x3d06f90d	0.032952357
54	0xbbfe8019	-0.0077667353
55	0xbbe834fb	-0.007086394
56	0xba523658	-0.0008018962
57	0x3cd58a87	0.026067032
58	0x3a8e5850	0.0010860059
59	0x3c52b1f2	0.012859808
60	0x3bc4a35e	0.00600092
61	0xbb8220dc	-0.0039712023
62	0xbadbb76d	-0.0016763039
63	0x3b9f55c5	0.0048625194
64	0x3c32e018	0.010917686
65	0x3ca5b650	0.020228535
66	0xbc681e68	-0.014167406
67	0xbd61242a	-0.05496613
68	0x3cc96c14	0.024587668
69	0xbd874257	-0.0660445
70	0x3c896ccd	0.016775513
71	0x3c7e7481	0.015530706
72	0x3c39ab82	0.011332395
73	0xbaab3ca7	-0.001306434
74	0xb9ca9c3f	-0.00038644855
75	0xbc6bb056	-0.0143853035
76	0x3c909471	0.017648907
77	0x3c8f94b7	0.017526967
78	0xbcd8c04b	-0.02645888
79	0xbaebd8aa	-0.0017993648
80	0xbc0b0622	-0.008485349
81	0x3cb972c0	0.022637725
82	0xbbd17115	-0.0063916543
83	0xbc82b90a	-0.015957374
84	0x3d32bcff	0.043637272
85	0xbb117a17	-0.0022198015
86	0xbcd3d303	-0.025857454
87	0x3cb9ef7c	0.022697203
88	0x3c68c23f	0.014206468
89	0xbb79e152	-0.0038128686
90	0x3d909b3c	0.070608586
91	0x3c6bb860	0.01438722
92	0x3bb94d8b	0.005654996
93	0x3ce97e22	0.028502528
94	0x3cdaa248	0.02668871
95	0xbc045dae	-0.008078976
96	0xbcc423eb	-0.023942908
97	0x3d0ea19e	0.0348221
98	0xbd280bad	-0.04102676
99	0xbcc2be37	-0.023772342
100	0x3d126b52	0.03574688
101	0x3cf1d741	0.029521586
102	0xbb81dc52	-0.003963032
103	0xbbe916b6	-0.007113303
104	0x3ca035b4	0.019556858
105	0x3d12bc27	0.035823967
106	0xbc32fc2d	-0.010924381
107	0xbce362e9	-0.027757125
108	0x3c0ec3fb	0.008713718
109	0x3cfb38a9	0.030666666
110	0x3c853824	0.016262121
111	0x3d091e58	0.033476204
112	0x3c959351	0.018258722
113	0xbbdc4211	-0.006721743
114	0x3d83f9ee	0.06444155
115	0x3c5db292	0.013531344
116	0x3bacedc2	0.0052773664
117	0x3c63f89d	0.0139142545
118	0xbcf583b3	-0.029970026
119	0xbc2d61e5	-0.010582422
120	0xbd4bf8a9	-0.049797688
121	0xbd1e8627	-0.038702156
122	0xbc884853	-0.01663605
123	0xbc2915b5	-0.010320117
124	0xb877d6d1	-5.9089452e-05
125	0xbd5afbd5	-0.053462822
126	0x3d0906af	0.03345364
127	0x3d481740	0.048850298
128	0xbbd107bb	-0.0063790954
129	0x3c7f5237	0.015583566
130	0xbadcac11	-0.0016835948
131	0x3cb5a596	0.022173684
132	0x3cc5b9de	0.02413648
133	0xbd691563	-0.05690516
134	0x3c47a479	0.012185209
135	0x3cba5607	0.0227461
136	0x3d0c5a14	0.034265593
137	0xbc28f3c2	-0.010312023
138	0xbca7002a	-0.02038582
139	0x3d070baa	0.032970108
140	0x3c877dbc	0.016539447
141	0xbc1e3574	-0.009656299
142	0x3d81698f	0.06318962
143	0x3d0e5e90	0.03475815
144	0x3ca0dc73	0.019636368
145	0xbcfad66e	-0.030619826
146	0xbd35334f	-0.044238385
147	0x3c8148fd	0.015781874
148	0xbd444c95	-0.047924597
149	0xbc87c031	-0.016571136
150	0xbbb2a45e	-0.005451723
151	0x3bd8f669	0.0066211713
152	0x3cefc561	0.029268922
153	0xbc91836c	-0.017762862
154	0x3ca1a318	0.01973109
155	0x3d22b3c0	0.039722204
156	0xbaa62f8c	-0.0012678965
157	0xbb4f536a	-0.0031635412
158	0x3affa4d5	0.001950408
159	0x3b9d661a	0.004803431
160	0x3c0e358f	0.008679762
161	0x3c8ba9b8	0.017048702
162	0xbc85366e	-0.016261306
163	0x3d877fd8	0.06616181
164	0xbc2cd449	-0.01054866
165	0x3bdf9cc6	0.006824109
166	0x3c1a5355	0.009419282
167	0x3cafd0b4	0.021461822
168	0xbcf51a52	-0.029919777
169	0xbca4a51d	-0.020098263
170	0x3c5e1d26	0.013556754
171	0xbd1bdc68	-0.038051993
172	0xbd79fc69	-0.061031733
173	0xbbbfa0e2	-0.005848036
174	0x3d43cdaa	0.04780356
175	0x3cd8a081	0.026443722
176	0x3d2d7ce2	0.042355426
177	0x3be6794c	0.0070335027
178	0xbcc242a3	-0.023713415
179	0xbc57a64a	-0.013162205
180	0xbcf75dbb	-0.030196061
181	0xbcc519ec	-0.024060212
182	0xbc9e3669	-0.019313054
183	0xbd9466cf	-0.07246172
184	0xbd1c7371	-0.03819603
185	0xbc89cfdf	-0.016822753
186	0xbd1122e8	-0.03543368
187	0xbcdc5945	-0.026898036
188	0x3ca2f786	0.019893419
189	0xbbdc1a0d	-0.0067169727
190	0xb9f27709	-0.00046246525
191	0xbcf966f0	-0.030444592
192	0xb869497c	-5.5619967e-05
193	0x3cfbe43d	0.03074848
194	0xbc20bb55	-0.009810288
195	0xbd13d14d	-0.036088277
196	0xbccf6a8d	-0.025319362
197	0xbcd242b1	-0.025666567
198	0x3cd2624c	0.025681637
199	0x3cb5175e	0.022105869
200	0x3baa3d0b	0.005195265
201	0x3d05e8fb	0.03269289
202	0x3d12883e	0.035774462
203	0xbd29d3c6	-0.04146173
204	0xbcc51ade	-0.024060663
205	0x3c3bef7f	0.011470675
206	0x3be78cc0	0.0070663393
207	0x3d0ce18d	0.03439479
208	0x3bded19f	0.006799891
209	0xbcce6b3c	-0.025197618
210	0xbc388bd6	-0.011263808
211	0x3c0f7c80	0.00875771
212	0x3b4ce2b7	0.0031263062
213	0xbce713eb	-0.02820774
214	0xbc57d9ac	-0.013174456
215	0xbd7e0ffc	-0.062026963
216	0x3cdab677	0.026698334
217	0x3cd1258f	0.025530605
218	0x3c018a7f	0.007906555
219	0x3c730da3	0.014834794
220	0x3c83c939	0.016087161
221	0xbd021f52	-0.03176815
222	0x3d1d5226	0.03840842
223	0xbc9eccd6	-0.019384783
224	0xbbab159b	-0.0052210814
225	0xbb17f849	-0.002318876
226	0x3cce581a	0.025188494
227	0xbcf112e7	-0.029427959
228	0xbc4cc460	-0.012497991
229	0xbc56e25d	-0.013115493
230	0xbd61dcc0	-0.055142164
231	0xbc76731f	-0.015042095
232	0xbd08d5e9	-0.033407126
233	0x3d35696f	0.044290002
234	0xbc1229b3	-0.008921075
235	0x3bb176c2	0.0054157684
236	0x3cfcaca7	0.030844046
237	0xbc9c9aaa	-0.019116718
238	0xbc5cd24a	-0.013477871
239	0xbca77a17	-0.02044396
240	0x3d245ca3	0.040127408
241	0x3cc0594a	0.023480076
242	0xbc875637	-0.016520603
243	0xbc0f9a98	-0.008764885
244	0xbd3cf041	-0.04612756
245	0xbd1aa83c	-0.037758097
246	0xbd227f94	-0.03967245
247	0xbcccfcab	-0.025022825
248	0xbd2cc314	-0.04217823
249	0xbc90d58e	-0.017679956
250	0xbb00c76c	-0.0019650115
251	0xbd232c1f	-0.039837
252	0x3cb34a13	0.021885907
253	0x3d0a186e	0.033714704
254	0xbcc402d9	-0.02392714
255	0xbc4e8b0d	-0.0126063945

body.block1.conv.bias f4 [64]
0	0xbb253cf5	-0.0025213335
1	0x3bb960d0	0.005657293
2	0x3caabcb6	0.020841938
3	0xbb5a9a01	-0.0033355954
4	0x3c72967b	0.014806385
5	0xbd1965c4	-0.037450567
6	0xbbf01135	-0.00732627
7	0xbd063917	-0.03276929
8	0xbd11f1e0	-0.03563106
9	0x3c28c0b2	0.010299848
10	0xbd188fad	-0.037246395
11	0xbc949176	-0.018135767
12	0xbd2998c6	-0.04140546
13	0xbc89d433	-0.016824817
14	0x3cafe59a	0.021471787
15	0xbc28f4c1	-0.01031226
16	0xbc8d3bb1	-0.017240377
17	0x3b4de978	0.0031419676
18	0xbcbda917	-0.023151917
19	0xbc16c1d8	-0.009201489
20	0xbc5a9db5	-0.013343264
21	0x3cf2fd5f	0.029661832
22	0x3cb2376f	0.021754948
23	0xbd16a36c	-0.036776945
24	0x3c3746d4	0.01118632
25	0x3b64728d	0.0034858317
26	0x3c8a4ba2	0.016881768
27	0x3bc0de8e	0.0058859056
28	0x3bd33845	0.006445917
29	0x3ce8def7	0.02842663
30	0xbcabc4ae	-0.020967808
31	0xbd214e22	-0.039381154
32	0x3a0b9af8	0.00053255213
33	0x3cf51b6b	0.0299203
34	0x3cfd36eb	0.030909976
35	0x3d21d95d	0.039513934
36	0xbaec5dea	-0.001803336
37	0x3c664d2b	0.014056484
38	0x3c039057	0.008030019
39	0x3ca19c89	0.019727962
40	0xb91801ed	-0.00014496567
41	0xbc8c6617	-0.017138524
42	0x3d05352a	0.032521404
43	0x3cba660b	0.022753736
44	0xbb8cb3c2	-0.0042938897
45	0x3d248a8f	0.040171202
46	0x3c628ae2	0.013827058
47	0x3cce10c8	0.025154486
48	0x3ce3408c	0.02774074
49	0xbd187f0f	-0.037230548
50	0x3c3de741	0.01159078
51	0xbc8ba5eb	-0.01704689
52	0x3c916262	0.017747108
53	0xbcb21e60	-0.021743
54	0x3c401e1f	0.011725931
55	0x3b8d5bf5	0.0043139406
56	0x3d12c625	0.035833497
57	0xbd106aba	-0.035258032
58	0xbcea4f1d	-0.028602177
59	0xbcee5a30	-0.02909574
60	0xbcaf7e93	-0.02142266
61	0xbd052cd0	-0.03251344
62	0xbd02f93d	-0.031975973
63	0x3d17467d	0.036932457

body.block1.norm.weight f4 [64]
0	0x3f803258	1.0015364
1	0x3f815581	1.0104219
2	0x3f84bea1	1.0370675
3	0x3f774b09	0.9659887
4	0x3f83c8df	1.0295676
5	0x3f7ea8c2	0.99476254
6	0x3f7d7deb	0.9902026
7	0x3f75c680	0.9600601
8	0x3f70880c	0.9395759
9	0x3f836a47	1.0266808
10	0x3f7ebd94	0.99508023
11	0x3f7cfb67	0.9882111
12	0x3f80171b	1.0007051
13	0x3f736b36	0.95085466
14	0x3f83abe0	1.0286827
15	0x3f8754e1	1.0572778
16	0x3f836150	1.0264072
17	0x3f80b235	1.0054384
18	0x3f7ca920	0.98695564
19	0x3f754402	0.95806897
20	0x3f834a7b	1.0257105
21	0x3f742377	0.95366615
22	0x3f73993e	0.95155704
23	0x3f8133c0	1.0093918
24	0x3f7cc531	0.9873839
25	0x3f7bbaf0	0.9833212
26	0x3f7b06d7	0.9805731
27	0x3f7fccbd	0.9992178
28	0x3f81fe01	1.0155641
29	0x3f7654b2	0.96222985
30	0x3f81a9ac	1.0129905
31	0x3f808664	1.0041013
32	0x3f7efd40	0.9960518
33	0x3f7c167d	0.98471814
34	0x3f809f3a	1.0048592
35	0x3f864129	1.0488635
36	0x3f834273	1.0254654
37	0x3f7e8f5d	0.99437505
38	0x3f78d83d	0.97204953
39	0x3f743dfa	0.9540707
40	0x3f773ac3	0.9657404
41	0x3f7d31b0	0.9890394
42	0x3f867d4e	1.050699
43	0x3f823395	1.0171992
44	0x3f80042e	1.0001276
45	0x3f796444	0.9741862
46	0x3f79ac6f	0.9752874
47	0x3f7d21fb	0.98879975
48	0x3f833054	1.0249124
49	0x3f7c9f8c	0.9868095
50	0x3f789e15	0.97116214
51	0x3f775bd2	0.9662448
52	0x3f7c2ce4	0.98506
53	0x3f7c1fb2	0.98485863
54	0x3f860371	1.04698
55	0x3f7741f6	0.96585023
56	0x3f8712d1	1.0552617
57	0x3f7f7618	0.9978957
58	0x3f80beea	1.0058262
59	0x3f82c4be	1.0216291
60	0x3f811b92	1.0086539
61	0x3f7f3e65	0.9970458
62	0x3f7a41d7	0.97756714
63	0x3f834632	1.0255797

body.block1.norm.bias f4 [64]
0	0xbc813a0f	-0.015774755
1	0xbd77dca5	-0.060513157
2	0xbcf77cc9	-0.03021087
3	0xbdbc067d	-0.09180925
4	0xbdae3d62	-0.085078016
5	0xbd865e3d	-0.06560943
6	0xbc4fee46	-0.012691086
7	0xbdd82379	-0.10553641
8	0xbdbd53c6	-0.09244494
9	0xbdc14e0c	-0.094387144
10	0xbd455960	-0.048180938
11	0xbdd0730f	-0.10178196
12	0xbdadc90f	-0.084856145
13	0xbd99ef69	-0.07516367
14	0xbe07d313	-0.13264112
15	0xbc77a913	-0.015115994
16	0xbd7b9416	-0.061420523
17	0xbdf391b9	-0.11893029
18	0xbe03337b	-0.12812607
19	0xbe15f72c	-0.1464507
20	0xbd7c9405	-0.0616646
21	0xbe0a0217	-0.1347736
22	0xbdbbe9ec	-0.091754764
23	0xbd7ecebc	-0.062208876
24	0xbcc858ee	-0.024456467
25	0xbdce3197	-0.10068052
26	0xbd92871b	-0.071546756
27	0xbd30d940	-0.043175936
28	0xbd41ceef	-0.047316488
29	0xbd9231ba	-0.07138391
30	0xbd86137d	-0.06546686
31	0xbdda0fcd	-0.10647545
32	0xbbd8cf5b	-0.0066165156
33	0xbdcb617c	-0.09930703
34	0xbdbfb97a	-0.09361549
35	0xbe1c4291	-0.15259768
36	0xbd9e837c	-0.077399224
37	0xbde8529a	-0.1134388
38	0xbdd2f85a	-0.103012756
39	0xbd915ce2	-0.07097794
40	0xbdc5810c	-0.09643754
41	0xbd212670	-0.039343297
42	0xbdad4474	-0.08460322
43	0xbd7b84e9	-0.06140605
44	0xbdb77383	-0.08957579
45	0xbda94b4f	-0.08266317
46	0xbc4f8d06	-0.0126679
47	0xbd798949	-0.06092194
48	0xbd063025	-0.032760758
49	0xbd99e86f	-0.07515036
50	0xbe0679c3	-0.13132386
51	0x3ca88c96	0.02057485
52	0xbdd16298	-0.102238834
53	0xbd940bf8	-0.07228845
54	0xbda166a8	-0.07880908
55	0xbccc3836	-0.024929147
56	0xbd5f8b5b	-0.05457626
57	0xbdc061bc	-0.09393641
58	0xbd738cbe	-0.059460394
59	0xbd155839	-0.03646109
60	0xbd9812be	-0.0742545
61	0xbd5a3c6a	-0.05328027
62	0xbd998b5e	-0.07497285
63	0xbdbfc8dd	-0.093644835

body.block1.norm.running_mean f4 [64]
0	0xbe08ec56	-0.13371405
1	0xbc386352	-0.011254149
2	0xbe62be2c	-0.22142857
3	0xbda5c957	-0.08095043
4	0xbe9f478f	-0.31109282
5	0xbe83f8b9	-0.25775698
6	0x3e37e00d	0.17956562
7	0xbe691d1e	-0.22765014
8	0xbe33f70d	-0.17574711
9	0xbe56d2de	-0.20978877
10	0x3f0451d2	0.5168735
11	0xbe25fb8c	-0.16209239
12	0x3c35118b	0.011051546
13	0xbe7e6f32	-0.24847105
14	0x3ee10266	0.43947142
15	0xbe8ad121	-0.27112678
16	0xbe5a35f4	-0.21309644
17	0xbd411c18	-0.047145933
18	0xbf23387f	-0.6375808
19	0xbe6ea4cb	-0.23305051
20	0xbee26520	-0.44217777
21	0x3ea9a29b	0.3313187
22	0xbd64f3f6	-0.05589672
23	0x3e1fe280	0.15613747
24	0xbe5d022f	-0.21582864
25	0x3af25683	0.0018488917
26	0x3e2d0a92	0.16898564
27	0x3d25d444	0.040485635
28	0xbeb66844	-0.35626423
29	0x3e50e0a0	0.20398188
30	0x3ed371f4	0.41297877
31	0x3f095cd6	0.5365728
32	0x3e2f8c64	0.17143399
33	0x3ebce61e	0.36894315
34	0xbe9ce9c4	-0.306471
35	0xbe552192	-0.20813587
36	0xbd89c27c	-0.06726548
37	0x3dc74759	0.09730405
38	0xbebdc077	-0.37060902
39	0x3e0ed5d9	0.13948764
40	0xbcf8504c	-0.030311726
41	0x3d5b5e23	0.053556573
42	0x3f0e0857	0.55481476
43	0x3d47e725	0.04880442
44	0x3dc91bd1	0.09819759
45	0xbe9e2dc6	-0.30894297
46	0x3ebc1c5d	0.3674039
47	0xbe5b88ef	-0.21438955
48	0x3e0c1ae1	0.13682128
49	0xbe462401	-0.19349672
50	0xbe4f405a	-0.20239392
51	0xbec3e17f	-0.38257977
52	0xbe3b30e9	-0.18280376
53	0x3c97dbaf	0.01853737
54	0xbee84064	-0.45361626
55	0x3e07ee63	0.13274531
56	0xbf0a4256	-0.5400747
57	0x3f2d6dbb	0.6774556
58	0xbd198450	-0.0374797
59	0x3cba7c09	0.022764223
60	0x3e09772d	0.13424368
61	0xbe15d939	-0.14633645
62	0xbd877091	-0.06613267
63	0xbeed9ada	-0.46407205

body.block1.norm.running_var f4 [64]
0	0x3dfcaf14	0.12338081
1	0x3e699aa5	0.22812898
2	0x3e089aa3	0.13340239
3	0x3e092032	0.13391188
4	0x3e030406	0.12794504
5	0x3e1fb0ac	0.15594739
6	0x3e78613d	0.24255843
7	0x3e2fdaff	0.17173384
8	0x3e3e5cb1	0.18590046
9	0x3e64f09e	0.22357413
10	0x3e4d2bcd	0.2003624
11	0x3e2727e8	0.16323817
12	0x3e23763a	0.15963069
13	0x3e0d0c19	0.13774146
14	0x3e632323	0.22181372
15	0x3e5ce630	0.21572185
16	0x3e2b5da5	0.16734941
17	0x3e393949	0.18088259
18	0x3df4bfa0	0.11950612
19	0x3e50f072	0.20404223
20	0x3e10549a	0.14094773
21	0x3e00db89	0.12583746
22	0x3e1395fe	0.14412686
23	0x3e05e40f	0.13075279
24	0x3e343212	0.17597225
25	0x3e0e65dc	0.13906044
26	0x3dc0f51f	0.09421753
27	0x3ddb8941	0.107195385
28	0x3e6f6408	0.23378003
29	0x3e3ca3d8	0.18421876
30	0x3e365e82	0.1780949
31	0x3e48a116	0.195927
32	0x3e3271d0	0.17426229
33	0x3e51ebbb	0.2050008
34	0x3e2d890c	0.1694681
35	0x3e3c8d74	0.18413335
36	0x3e9799ad	0.29609433
37	0x3de3c8f0	0.1112231
38	0x3dfe42c5	0.12415079
39	0x3de042f2	0.10950269
40	0x3e02d4b3	0.12776451
41	0x3ed53401	0.41641238
42	0x3e7dba87	0.24778186
43	0x3e4ed94d	0.20200081
44	0x3dcb9137	0.09939807
45	0x3e17ee1f	0.1483693
46	0x3dcc49ff	0.09975051
47	0x3e8a3f08	0.27001214
48	0x3e1b7160	0.15179968
49	0x3e0358c0	0.12826824
50	0x3e166bb1	0.14689519
51	0x3db01175	0.0859708
52	0x3e2c4d43	0.16826348
53	0x3de08494	0.10962787
54	0x3e474dba	0.19463244
55	0x3df24571	0.11829651
56	0x3e12bec4	0.14330584
57	0x3e18db69	0.14927448
58	0x3e815c5f	0.25265786
59	0x3e0ab3d2	0.13545159
60	0x3e4c3010	0.1994021
61	0x3e20434d	0.15650673
62	0x3deb2287	0.11481195
63	0x3e1ce2f5	0.15320952

body.block2.conv.weight f4 [64, 64, 3, 3]
0	0xbcabb3c3	-0.02095974
1	0x3b5b0527	0.003341982
2	0x3c787ebb	0.015166934
3	0xbd69f408	-0.057117492
4	0xbd2b3b9f	-0.041804906
5	0x3b11e21e	0.002226002
6	0xbd2e0d95	-0.04249342
7	0x3b75cead	0.0037507222
8	0xbd095b38	-0.03353426
9	0xbd225d5d	-0.03963982
10	0xbc76b460	-0.015057653
11	0xbd2733c4	-0.040820852
12	0x3c227d7c	0.009917613
13	0x3cfa0108	0.03051807
14	0xbc3f1ffe	-0.011665342
15	0x3c8c60d9	0.017136024
16	0x3c916b0c	0.01775124
17	0x3d05e490	0.032688677
18	0x3d330bcd	0.043712426
19	0x3bdb498a	0.006692116
20	0xbc92af7b	-0.017905941
21	0xbc8f8b80	-0.017522573
22	0x3b9330a5	0.004491883
23	0x3b8924a4	0.004185276
24	0x3d12549c	0.03572522
25	0x3c6e3299	0.014538431
26	0x3cdb7b5a	0.026792217
27	0x3c779581	0.015111328
28	0xbd05f885	-0.03270771
29	0x3c820020	0.0158692
30	0x3cf9c724	0.030490465
31	0x3ca1abb0	0.019735187
32	0xbb7a73fa	-0.00382161
33	0xbd354bfc	-0.044261917
34	0xbc76b677	-0.015058151
35	0xba99be2f	-0.0011729653
36	0x3ca35017	0.01993565
37	0x3c9f6393	0.01945666
38	0x3a1660bf	0.0005736462
39	0xbc3f2c0e	-0.011668218
40	0xbd135205	-0.03596689
41	0x3bed461c	0.0072410237
42	0x3a83271b	0.0010006161
43	0x3d015b54	0.031581238
44	0x3c2cb885	0.01054204
45	0xbd16f933	-0.03685875
46	0x3c811c3d	0.015760535
47	0xbb2571c8	-0.002524482
48	0x3bc49747	0.005999479
49	0xb950843d	-0.00019885688
50	0x3bf84829	0.0075769615
51	0x3d39b4f0	0.04533857
52	0xbc9d9541	-0.019236209
53	0x3b9b5fdb	0.0047416515
54	0xbc3955fe	-0.011312006
55	0xbd860ea4	-0.06545761
56	0xbbcb8c02	-0.0062117586
57	0x3ca38dc9	0.01996507
58	0x3be35a00	0.006938219
59	0x3c3f08ab	0.011659781
60	0xbc52fe16	-0.012877962
61	0x3ce480c5	0.027893433
62	0xbd01de5d	-0.031706203
63	0xbd34fb3a	-0.0441849
64	0xbd383781	-0.044974808
65	0x3cf04689	0.029330509
66	0xba8a5265	-0.001055312
67	0xbcc70687	-0.024295105
68	0x3cd5c984	0.026097067
69	0xbb8ac735	-0.004235173
70	0xbbdf09cb	-0.0068065873
71	0xbcbbfc70	-0.02294752
72	0x3c95c60b	0.01828291
73	0x3be594ab	0.007006248
74	0x3ce47b9c	0.027890973
75	0xbcceb031	-0.025230499
76	0xbd1cf319	-0.038317773
77	0x3d140300	0.036135674
78	0xbc03e280	-0.008049607
79	0x3c4c5002	0.012470247
80	0x3cbe3c74	0.023222186
81	0xbc7b9d29	-0.015357294
82	0x3bec4386	0.007210198
83	0x3cf9428b	0.030427238
84	0xbd2d526c	-0.04231493
85	0x3bcf410f	0.0063248943
86	0x3cad586f	0.021160332
87	0x3cbd7baa	0.023130257
88	0xbbc6b08c	-0.0060635265
89	0xbca0098e	-0.019535806
90	0x39e568ff	0.00043756512
91	0x3bb15b13	0.005412468
92	0x3c62cd14	0.01384284
93	0xbcdea787	-0.027179493
94	0x3c0d669f	0.008630424
95	0xbca4c9d1	-0.020115765
96	0xbcea9188	-0.028633848
97	0x3ca9ba65	0.020718763
98	0x3cab3741	0.02090037
99	0xbce1110d	-0.02747395
100	0xbc3e3aae	-0.01161067
101	0xbd0f27fd	-0.034950245
102	0x3cabed6f	0.02098724
103	0xbb51efd8	-0.0032033827
104	0x3b885c11	0.004161366
105	0x3d1a3597	0.037648764
106	0x3b1d2f20	0.0023984388
107	0x3b108448	0.0022051502
108	0x3cac3f79	0.02102636
109	0x3ca7be51	0.020476492
110	0x3cb0e0a1	0.021591486
111	0x3ca9644d	0.02067771
112	0x3bee7a32	0.0072777504
113	0xbc45f6f6	-0.012082806
114	0x3c5a4323	0.013321671
115	0xbbc3f65f	-0.0059802975
116	0x3ae129f0	0.0017178636
117	0xba739f88	-0.00092934864
118	0xba9a4f5e	-0.0011772921
119	0xbcc730e4	-0.024315305
120	0xbd06b2c2	-0.03288532
121	0xbb0b26b5	-0.0021232788
122	0xbc9be692	-0.019030843
123	0x3d1aeb79	0.03782222
124	0x3d09798b	0.033563178
125	0x3d20faed	0.0393018
126	0xbc8536ac	-0.016261421
127	0xbca15d81	-0.019697906
128	0xbc959467	-0.01825924
129	0x3c3132d4	0.010815341
130	0xb96b5b41	-0.00022445341
131	0xbc23615c	-0.009971943
132	0x3d1669b5	0.036721904
133	0x3baf0f2a	0.005342384
134	0x3d056077	0.0325627
135	0xbd11e488	-0.035618335
136	0xbc9b7770	-0.01897785
137	0x3bd3c9d7	0.00646327
138	0xbbf016d4	-0.00732694
139	0x3c4b5f19	0.01241281
140	0x3b999421	0.004686848
141	0x3c9366a4	0.017993279
142	0x3c3ef7fc	0.011655804
143	0xbc5ffe9b	-0.0136715425
144	0xbb7ba58f	-0.003839824
145	0xbcfac155	-0.030609766
146	0x3c3bd9f6	0.01146554
147	0x3c68f53b	0.014218624
148	0x3c370ca3	0.011172446
149	0xbc967510	-0.018366367
150	0xbbb68d82	-0.0055710683
151	0xbc3a8021	-0.011383087
152	0xbccd491c	-0.025059275
153	0x3d05635f	0.03256547
154	0xbcbb467e	-0.022860762
155	0x3d1486c5	0.03626134
156	0xbc94aec7	-0.018149747
157	0xbcce20b3	-0.025162077
158	0x3d062e74	0.032759145
159	0x3c0d0fcf	0.008609726
160	0xbc548a39	-0.012972408
161	0x3c18b699	0.009320878
162	0x3c9e1ce2	0.019300882
163	0x3b764e03	0.003758312
164	0x3cfe219d	0.031021887
165	0x3ccd3570	0.025049895
166	0x3c70785e	0.014677135
167	0xbc42e960	-0.011896461
168	0x3c972d93	0.018454349
169	0x3d045811	0.03231055
170	0x3d63f329	0.055651817
171	0x3c8acb98	0.016942784
172	0xbb6512b6	-0.003495378
173	0x3be79eaa	0.007068475
174	0xbb634765	-0.0034680006
175	0xbc9cc919	-0.01913886
176	0xbc3ac3a7	-0.011399186
177	0xbd5e3257	-0.054247227
178	0x3d3c0516	0.045903288
179	0x3cc5c497	0.024141593
180	0xbcb5fcbb	-0.022215238
181	0xbc920294	-0.017823495
182	0xbd2c8da7	-0.042127278
183	0x3cf8cec2	0.030372027
184	0xbd43e851	-0.047828976
185	0xbd5cb2af	-0.053881343
186	0xbbb899a6	-0.0056335507
187	0x3ca1f414	0.019769706
188	0x3c8475af	0.016169397
189	0x3cb1b834	0.02169428
190	0xbcf14e9a	-0.029456425
191	0xbbc86826	-0.006115931
192	0xbaa68a29	-0.001270597
193	0x3d6841cc	0.056703374
194	0x3a4dfd34	0.00078578596
195	0x3ca64c6d	0.020300115
196	0x3cea5fe0	0.02861017
197	0xbd0ccd8f	-0.034375723
198	0xbd024e04	-0.031812683
199	0xbbd2e4e0	-0.0064359754
200	0xbd0e0347	-0.034671094
201	0xbd0ecf33	-0.03486557
202	0x3c622505	0.013802771
203	0x3ca16264	0.019700237
204	0xbc5da64b	-0.013528417
205	0xb97dc694	-0.00024201936
206	0x3d28ffb2	0.041259475
207	0xbc319c66	-0.010840511
208	0xbc6557cc	-0.013997983
209	0x3cfb6c0f	0.030691175
210	0x3cf70653	0.030154383
211	0xbb99fa4e	-0.004699028
212	0x3cc67b33	0.024228668
213	0xbd0cbbb2	-0.034358688
214	0x3c2a84a1	0.010407598
215	0xbcb5828c	-0.022156976
216	0xbc5ad157	-0.013355575
217	0x3bebfdd7	0.007201891
218	0x3c88a1c0	0.01667869
219	0x3cba7535	0.022760967
220	0x3c481d60	0.012214035
221	0xbcf2b92a	-0.029629309
222	0xbbdcfa57	-0.00674371
223	0x3d05f37e	0.032702915
224	0x3d2d8c2c	0.042370006
225	0xbbb8df8f	-0.0056418846
226	0x3b0a3b17	0.002109235
227	0x3bab76fc	0.00523269
228	0xbcda7743	-0.026668197
229	0x3c95d5a6	0.018290352
230	0xbaea1c45	-0.0017861208
231	0x3c9feb63	0.01952142
232	0x3c737e20	0.0148616135
233	0x3c2662f7	0.010155431
234	0x3d0869b2	0.033303924
235	0x3c2d82ff	0.010590314
236	0x3ca5954b	0.02021279
237	0x3ca09902	0.01960421
238	0xbd1cc8a7	-0.038277294
239	0xba355f08	-0.0006918763
240	0x3d23aa99	0.039957616
241	0xbc1cfaf8	-0.00958132
242	0x3d06b486	0.032887004
243	0x3c0521ca	0.008125732
244	0x3afc9a33	0.0019272029
245	0x3af7a522	0.0018893818
246	0xbc118922	-0.008882793
247	0xba8a6994	-0.0010560029
248	0x3c8f7a57	0.01751439
249	0xbc8b19a5	-0.016980002
250	0xbc1ee22e	-0.00969748
251	0xbc66bd54	-0.014083225
252	0x3bb76aac	0.005597433
253	0xbc5e6f1d	-0.013576296
254	0x3c8c6261	0.017136754
255	0xbbb26b4c	-0.0054449197

body.block2.conv.bias f4 [64]
0	0x3d11607e	0.035492413
1	0xbbc7dda9	-0.006099422
2	0x3a664a62	0.00087848876
3	0x3d186c44	0.037212625
4	0x3cb97826	0.022640299
5	0xbb7c4c7b	-0.0038497734
6	0x3d172f8d	0.036910582
7	0xbd07a306	-0.033114456
8	0xbc1f9113	-0.009739178
9	0x3ca59a0b	0.020215055
10	0xbcee983e	-0.02912533
11	0x3cfb06b9	0.030642854
12	0xbd053947	-0.032525327
13	0x3c96a750	0.018390328
14	0x3cf928e2	0.030415002
15	0x3a8c56b6	0.0010706994
16	0xbce505fb	-0.027956953
17	0x3d02a55f	0.03189599
18	0x3d0aa0ee	0.03384488
19	0xbcc54b56	-0.024083775
20	0xbc96a800	-0.018390656
21	0x3b81c6cb	0.0039604655
22	0x3c876dc7	0.016531838
23	0xbd1d7e5d	-0.038450588
24	0x3c8796e7	0.016551448
25	0xbc789f01	-0.015174628
26	0x3cb657d1	0.022258671
27	0xba890786	-0.0010454513
28	0xbd006ba1	-0.031352643
29	0xbc9b88ed	-0.01898619
30	0xbcf220d3	-0.029556667
31	0x3ce9f474	0.028558947
32	0x3b4fc44f	0.0031702702
33	0x3c2dfadb	0.010618891
34	0xba257e2a	-0.00063130504
35	0x3d0b3525	0.03398623
36	0xbd16c593	-0.036809515
37	0xbd202d58	-0.039105743
38	0xbac87d46	-0.0015296123
39	0xbc21b85b	-0.009870614
40	0xbc4ae4ea	-0.012383679
41	0xbc21c60f	-0.009873881
42	0x3cc4dcc2	0.024031047
43	0xbcc8bef6	-0.02450512
44	0x3d13c309	0.036074672
45	0x3cae9582	0.021311525
46	0x3d2a4f88	0.041579753
47	0xbc167c5b	-0.009184922
48	0x3b059410	0.0020382442
49	0x3ce15515	0.02750639
50	0xbd17c71b	-0.037055116
51	0xbc79dc59	-0.015250289
52	0xbb683702	-0.0035433178
53	0x3c69d910	0.014272943
54	0xbc075684	-0.008260373
55	0x3bf5ae1c	0.007497562
56	0xbb48344c	-0.003054875
57	0x3b7536af	0.0037416627
58	0xbc862271	-0.016373845
59	0x3d187d7c	0.037229046
60	0xbd0e2269	-0.034700785
61	0x3d0fb0e5	0.03508081
62	0xbc96d5e2	-0.018412534
63	0xbc179085	-0.009250765

body.block2.norm.weight f4 [64]
0	0x3f7c34fe	0.9851836
1	0x3f806ef2	1.0033858
2	0x3f77c491	0.9678431
3	0x3f7a5567	0.97786564
4	0x3f7d8110	0.9902506
5	0x3f7749c6	0.96596944
6	0x3f778c2d	0.96698266
7	0x3f791ca9	0.97309357
8	0x3f755002	0.9582521
9	0x3f842367	1.0323304
10	0x3f7c42ad	0.9853924
11	0x3f7bb73b	0.9832646
12	0x3f80dbcd	1.0067078
13	0x3f838cad	1.0277306
14	0x3f7bb9a8	0.98330164
15	0x3f848251	1.035227
16	0x3f837f6c	1.0273261
17	0x3f85bbad	1.0447899
18	0x3f80501a	1.0024445
19	0x3f7cce7d	0.98752576
20	0x3f8595e3	1.0436367
21	0x3f80fc55	1.0077006
22	0x3f777014	0.9665539
23	0x3f72b47e	0.9480666
24	0x3f7b7356	0.98222864
25	0x3f840749	1.0314723
26	0x3f8223b6	1.0167148
27	0x3f7fa739	0.99864537
28	0x3f815ed1	1.0107061
29	0x3f8516d1	1.0397588
30	0x3f7f1407	0.99639934
31	0x3f7dfb64	0.99211717
32	0x3f83217a	1.0244591
33	0x3f7a0e5e	0.9767817
34	0x3f86fe7d	1.0546414
35	0x3f7fa28f	0.9985742
36	0x3f82d296	1.0220516
37	0x3f820984	1.0159154
38	0x3f7e9796	0.9945005
39	0x3f835916	1.0261562
40	0x3f7cdb29	0.9877191
41	0x3f83a3ab	1.0284323
42	0x3f80cfa4	1.0063367
43	0x3f789c7f	0.97113794
44	0x3f82d2ba	1.0220559
45	0x3f7cc94a	0.9874464
46	0x3f7b53c8	0.98174715
47	0x3f780315	0.968797
48	0x3f7aacdc	0.9792001
49	0x3f83e111	1.030306
50	0x3f8159c9	1.0105525
51	0x3f8501b8	1.039115
52	0x3f7ffa33	0.9999115
53	0x3f742637	0.9537081
54	0x3f729db0	0.9477186
55	0x3f7f71b4	0.9978287
56	0x3f7c3204	0.9851382
57	0x3f7ce795	0.98790866
58	0x3f7f7bfb	0.99798554
59	0x3f7b8d4f	0.98262495
60	0x3f7e69f0	0.993804
61	0x3f8278f9	1.0193168
62	0x3f7b13e6	0.9807724
63	0x3f8044c5	1.0020987

body.block2.norm.bias f4 [64]
0	0xbda2b319	-0.079443164
1	0x3b986d14	0.004651675
2	0xbdb3dc3a	-0.08782239
3	0xbd0a3eb5	-0.03375121
4	0xbdf61ce7	-0.120172314
5	0xbda1908a	-0.07888897
6	0xbd37e04e	-0.044891648
7	0xbd284c38	-0.041088313
8	0xbda0ed5b	-0.07857772
9	0xbbe8949f	-0.007097795
10	0xbdaba2cc	-0.083806604
11	0xbd9ec4ec	-0.077524036
12	0xbd81a111	-0.06329549
13	0xbd6ce7db	-0.057838302
14	0xbd662b29	-0.056193504
15	0x3ce7d9db	0.028302124
16	0xbd568c55	-0.052379925
17	0xbdd3f2af	-0.103490226
18	0xbd87a125	-0.06622533
19	0xbd65f1a2	-0.056138642
20	0xbde19b48	-0.11015946
21	0xbb5514a8	-0.0032513533
22	0xbd7ec664	-0.06220092
23	0xbdd5881a	-0.1042635
24	0xbd69158f	-0.056905326
25	0xbca8b7af	-0.0205954
26	0xbcad48ad	-0.021152819
27	0xbbc66ed5	-0.0060556927
28	0xbc9f778e	-0.019466188
29	0xbd87f4b1	-0.06638468
30	0xbd338e34	-0.043836787
31	0xbdf678ad	-0.12034736
32	0x3bd51dcb	0.0065037957
33	0xbd8d3278	-0.06894392
34	0xbca2a990	-0.019856244
35	0xbddd28d7	-0.10798805
36	0xbd114f4d	-0.035476018
37	0xbcfcd9a6	-0.030865502
38	0xbd7351ac	-0.05940406
39	0xbd0cbb11	-0.034358088
40	0xbd932fce	-0.071868524
41	0xbd135c6b	-0.03597681
42	0xbc9ea7ce	-0.019367125
43	0xbd847e9e	-0.06469463
44	0xbcd21417	-0.025644345
45	0xbd8fcbc6	-0.070212886
46	0xbdcbafc6	-0.099456355
47	0xbdb59aac	-0.08867392
48	0xbd3f9d7c	-0.04678105
49	0xbde5f242	-0.11227848
50	0xba912918	-0.0011074869
51	0xbd6f66eb	-0.05844776
52	0xbe02566f	-0.12728284
53	0xbe07bd75	-0.13255866
54	0xbe07e1d0	-0.13269734
55	0xbd4d7e82	-0.050169475
56	0xbd7040b3	-0.058655452
57	0xbd9c2e99	-0.07626075
58	0xbd6bdd8a	-0.057584323
59	0x3d2cd699	0.042196844
60	0xbc2fba98	-0.01072564
61	0xbcaa0039	-0.02075206
62	0xbdea66a1	-0.11445356
63	0x3b07f908	0.00207478

body.block2.norm.running_mean f4 [64]
0	0x3ed6fdd0	0.4199052
1	0xbe12c69f	-0.1433358
2	0x3ea6ecd8	0.32602572
3	0xbe548167	-0.20752488
4	0x3eb7177b	0.35760102
5	0xbe2aeab4	-0.16691095
6	0x3dfa7935	0.1223015
7	0xbe0a7179	-0.13519849
8	0x3db7f6ac	0.08982596
9	0x3d6038c6	0.054741643
10	0x3e10a012	0.14123562
11	0x3d65ba55	0.056085903
12	0x3df25427	0.11832457
13	0x3df4b4d9	0.119485565
14	0x3ea2cd4c	0.31797254
15	0xbe5a1b6e	-0.21299526
16	0x3d9105d3	0.07081189
17	0x3e1f5f5a	0.15563717
18	0xbd479e5b	-0.048735004
19	0xbf0e2600	-0.55526733
20	0x3ba7066f	0.0050972025
21	0x3e3659d3	0.17807703
22	0xbe2263d0	-0.15858388
23	0xbdbfbfaa	-0.09362729
24	0x3d218421	0.03943265
25	0x3d2f5bc1	0.042812113
26	0x3e0ef16b	0.13959281
27	0xbbf05358	-0.007334154
28	0xbe1ec977	-0.1550654
29	0x3d8e1007	0.06936651
30	0xbe48fb06	-0.19627008
31	0xbe10ecda	-0.14152852
32	0xbebee07b	-0.3728064
33	0xbdadb695	-0.084820904
34	0x3e84fb87	0.2597315
35	0xbe6077ea	-0.21920744
36	0xbe86c9a4	-0.26325715
37	0xbda96feb	-0.082733
38	0xbc92e39e	-0.017930802
39	0xbe597713	-0.2123683
40	0x3e411900	0.18857193
41	0xbee24b17	-0.44197914
42	0xbe975591	-0.2955747
43	0xbc319674	-0.0108390935
44	0x3cdbcd11	0.026831182
45	0x3e156dd0	0.14592671
46	0x3e17ff3e	0.14843461
47	0xbc941440	-0.018076062
48	0xbec62907	-0.38703176
49	0x3d71f2bf	0.05906939
50	0xbd843ce8	-0.064569294
51	0xbe6c317a	-0.23065749
52	0x3e9c505e	0.30530065
53	0xbe8379fe	-0.2567901
54	0xbd2cf121	-0.042222146
55	0x3e664134	0.2248581
56	0xbcc64004	-0.024200447
57	0x3e779922	0.2417951
58	0xbe2bc13e	-0.16772935
59	0x3df95144	0.12173703
60	0xbee1a71d	-0.4407281
61	0xbb8cd781	-0.004298151
62	0xbe86e776	-0.26348466
63	0x3dadaa40	0.08479738

body.block2.norm.running_var f4 [64]
0	0x3ea438df	0.3207464
1	0x3e1b0c66	0.15141448
2	0x3db52c86	0.08846383
3	0x3e3d0be3	0.18461566
4	0x3e358a9e	0.1772866
5	0x3dfb1329	0.12259514
6	0x3dcefc90	0.10106766
7	0x3e610bca	0.21977153
8	0x3eaca8f5	0.33722654
9	0x3dc73dbe	0.09728573
10	0x3e08d9bc	0.13364309
11	0x3e54b3e5	0.2077175
12	0x3e261d24	0.16222054
13	0x3df6602f	0.12030064
14	0x3e8155d1	0.25260785
15	0x3e5673d3	0.20942621
16	0x3e22e531	0.15907742
17	0x3e6b4dba	0.22978869
18	0x3e24d63a	0.16097346
19	0x3e155e26	0.14586696
20	0x3e1f0456	0.15528998
21	0x3e871593	0.26383647
22	0x3e4882f5	0.19581206
23	0x3e20ab02	0.15690234
24	0x3e5c64a1	0.21522762
25	0x3e111885	0.1416951
26	0x3e2b9bb2	0.16758612
27	0x3e107c0e	0.14109823
28	0x3e39b242	0.18134406
29	0x3e238adb	0.15970938
30	0x3e422aa7	0.18961583
31	0x3e1ad698	0.15120924
32	0x3e41acca	0.1891357
33	0x3e1520c0	0.14563274
34	0x3e1a0ed6	0.15044722
35	0x3db40c17	0.087913685
36	0x3e1cb924	0.15305
37	0x3e43df47	0.19128142
38	0x3df30152	0.11865486
39	0x3e8a8725	0.27056232
40	0x3e232dd3	0.1593545
41	0x3df17416	0.1178972
42	0x3e278b73	0.1636179
43	0x3e3308dd	0.1748385
44	0x3dcd77c6	0.100326106
45	0x3e24c4a9	0.16090645
46	0x3dd5681f	0.1042025
47	0x3dfa1277	0.12210553
48	0x3decb2da	0.11557551
49	0x3e2caccf	0.16862796
50	0x3e09c476	0.1345385
51	0x3e024b74	0.12724096
52	0x3e1c7993	0.15280752
53	0x3dfb593a	0.12272878
54	0x3e02e532	0.12782744
55	0x3e3711ad	0.17877837
56	0x3d827b7a	0.063712075
57	0x3e2d5237	0.16925894
58	0x3e2209df	0.15824078
59	0x3df43685	0.11924461
60	0x3dede6bc	0.11616275
61	0x3e06b038	0.1315316
62	0x3e038cec	0.12846726
63	0x3e38f50d	0.1806223
