code/Output/starry_night_full/gram_e8000_1px_lr0.001a3.0_up-conv5_1_W[1, 0.75, 0.2, 0.2, 0.2](2)/5/netG.pth (torch, 471621 bytes, 26 tensors)

head.conv.weight f4 [64, 3, 3, 3]
0	0x3d97c400	0.07410431
1	0xbcbf70d6	-0.023369234
2	0x3d7a8fc2	0.061172254
3	0x3d0fa043	0.035064947
4	0x3bd85f00	0.0066031218
5	0xbcee44f8	-0.029085621
6	0xba7e4a69	-0.0009700419
7	0x3c1409d6	0.009035548
8	0x3b71a1b0	0.0036870055
9	0x3bb08c25	0.0053878003
10	0x3c27d56c	0.010243755
11	0xbc857d0c	-0.016294979
12	0x39ffe8d9	0.00048810875
13	0x3b83393f	0.004004627
14	0xbc29d15b	-0.010364856
15	0xbcbc32e2	-0.022973482
16	0x3d69e7fc	0.057106003
17	0xbcd1e658	-0.025622532
18	0xbd86c5cf	-0.06580698
19	0xbd23ee57	-0.04002222
20	0xbd963b99	-0.07335586
21	0xbb7f62ea	-0.003896887
22	0xbcb864a6	-0.02250893
23	0xbd97bfdc	-0.07409641
24	0xbccb5b49	-0.024823802
25	0xbc9fc0ee	-0.019501176
26	0x3c9a64f1	0.01884696
27	0xbd8fc121	-0.07019258
28	0xbc08d685	-0.008351927
29	0xbcf24356	-0.029573124
30	0xbcc2cb58	-0.023778602
31	0x3d55baaa	0.05217997
32	0x3b23376c	0.002490486
33	0xbcb51bde	-0.022108015
34	0x3dc43cc6	0.09581904
35	0x3dafde39	0.085873075
36	0xbcc8f2d3	-0.02452985
37	0x3bce815d	0.0063020424
38	0xbca6b2b6	-0.020348888
39	0xbcab9ca0	-0.020948708
40	0xbc072d1f	-0.008250504
41	0xbbf5c4f5	-0.0075002857
42	0x3c0ab009	0.008464822
43	0x3c850735	0.016238788
44	0x3d032947	0.032021787
45	0xbcb378fe	-0.02190828
46	0xbd4225a2	-0.04739917
47	0x3c114e36	0.008868745
48	0xba0f242c	-0.0005460407
49	0xbb40fa6b	-0.0029446136
50	0xbd11bfa1	-0.035583142
51	0x3c82fe06	0.015990268
52	0xbc1b1623	-0.009465727
53	0x3af12aa0	0.0018399544
54	0xbc88f7fd	-0.016719813
55	0x3c941a63	0.018078988
56	0xbd57a0a1	-0.052643422
57	0x3cea6f2b	0.028617462
58	0x3d152216	0.03640946
59	0x3c270085	0.010192995
60	0x3d3b2df4	0.04569812
61	0xbbb35799	-0.005473089
62	0x3d59d734	0.05318375
63	0x3d31c013	0.043396067
64	0x3bdba892	0.0067034448
65	0x3d740e92	0.059584208
66	0x3d148145	0.036256094
67	0x3d5d4949	0.05402497
68	0xbc24fed2	-0.0100705195
69	0x3d08e2eb	0.03341953
70	0xbc77d191	-0.015125648
71	0x3cb8d265	0.022561261
72	0xbd52fe65	-0.05151214
73	0x3c2c2f65	0.010509347
74	0x3c95f288	0.018304124
75	0x3c4d21e0	0.012520283
76	0x3abb6e4d	0.001429984
77	0x3c6e080d	0.014528287
78	0x3b9926e2	0.0046738246
79	0xbd86d82d	-0.06584201
80	0x3c6ea59b	0.014565851
81	0x3d850af2	0.06496228
82	0x3cf3fd1e	0.029783782
83	0xbd48a8bd	-0.048989046
84	0x3c71b8d3	0.014753538
85	0xbc142180	-0.00904119
86	0xbbf6403a	-0.0075149806
87	0xbc92c3cd	-0.01791563
88	0x3cf12321	0.029435696
89	0x3b97c65a	0.0046317996
90	0x3d42c66a	0.047552504
91	0xbc589905	-0.013220076
92	0xbda3edd3	-0.08004346
93	0x3d45065d	0.04810177
94	0xbca7b4bb	-0.020471921
95	0x3c352602	0.011056425
96	0x3d3d2b94	0.046184137
97	0x3d8dc8c0	0.06923056
98	0xbcae7bbd	-0.021299237
99	0xbd5bd3f9	-0.05366895
100	0xbcafb1d5	-0.021447102
101	0x3c61b1bc	0.013775285
102	0x3c39ae8b	0.011333118
103	0xbbe39727	-0.006945509
104	0xbcc7ed0b	-0.024405023
105	0xbbf5fc9f	-0.0075069214
106	0x3d1dbc28	0.038509518
107	0xbb56cfc8	-0.0032777656
108	0xbb7e5bd7	-0.0038812065
109	0x3c7d0146	0.015442198
110	0x3c211d40	0.009833634
111	0x3d21cddf	0.039502975
112	0xbc6c11b6	-0.0144085195
113	0x3c942749	0.018085139
114	0x3d0c0470	0.03418392
115	0x3c48bd84	0.012252215
116	0xbc982c57	-0.01857583
117	0xbca411d9	-0.020028042
118	0x3d60b376	0.054858647
119	0x3cb0b2ef	0.021569697
120	0x3ce014ca	0.027353663
121	0x3bf35430	0.0074258074
122	0x3cb308b6	0.02185474
123	0x3d924534	0.07142106
124	0x3d5f16c1	0.05446506
125	0x3cdada18	0.026715323
126	0xbcfa1494	-0.03052739
127	0xbb6badb4	-0.003596169
128	0xbd1f954c	-0.03896074
129	0x3b95fc88	0.004577223
130	0xbbd0d47a	-0.0063729854
131	0x3b61a71e	0.0034431885
132	0x3ccfbd9d	0.02535897
133	0xbca5f37a	-0.0202577
134	0xbd8bd012	-0.06826796
135	0x3c2fa84b	0.0107212765
136	0x3d4212df	0.047381278
137	0xbc22b62a	-0.009931127
138	0x3d2d3594	0.042287424
139	0x3d8423ca	0.06452139
140	0x3d5d1005	0.053970356
141	0x3cbf8466	0.023378562
142	0xbd2c92d7	-0.042132225
143	0x3d033b51	0.03203899
144	0xbd4b2c43	-0.04960276
145	0xbb419857	-0.0029540265
146	0xbcb3ea07	-0.021962179
147	0xbd01290e	-0.031533293
148	0x3c320906	0.010866409
149	0xbb8d1617	-0.004305612
150	0x3c2b0e7d	0.010440466
151	0xbd07c53a	-0.033147074
152	0xbcce93b7	-0.02521692
153	0xbcfedf85	-0.031112442
154	0xbd61e4bd	-0.055149782
155	0x3c4404e3	0.011964056
156	0xbd1c38d0	-0.038140118
157	0x3b03e12f	0.0020123234
158	0x3d16fda7	0.036862995
159	0x3d365b26	0.04452052
160	0xbdb6a70b	-0.0891858
161	0x3c21fa1f	0.009886294
162	0x3d0d4ff1	0.034500066
163	0x39799824	0.00023803167
164	0xbca3e33a	-0.020005811
165	0x3c0f3d8f	0.008742704
166	0x3d04c3d1	0.032413308
167	0xbc0eac9b	-0.008708145
168	0x3ca765a2	0.020434204
169	0x3cdfd72f	0.027324287
170	0xbc554674	-0.013017286
171	0x3d80a4b8	0.062814176
172	0x3d689df3	0.056791257
173	0xbd17d343	-0.03706671
174	0xbcdb9e2d	-0.026808823
175	0x3d966f68	0.07345468
176	0x3a748adf	0.0009328555
177	0xbc333eb7	-0.010940245
178	0x3caceb71	0.021108361
179	0xbd66a222	-0.056306966
180	0x3cbf5397	0.023355288
181	0xbcb4d97e	-0.022076365
182	0xbd110df8	-0.035413712
183	0x3ca0c974	0.01962731
184	0xbc2a07e9	-0.0103778625
185	0xbd23543f	-0.039875265
186	0xbd357245	-0.04429843
187	0xbc5d6fb8	-0.013515405
188	0xbd3e7552	-0.046498604
189	0xbd12843b	-0.035770636
190	0xbce63718	-0.028102443
191	0x3c1330f3	0.008983838
192	0xbcc40d42	-0.023932103
193	0xbd3c0176	-0.04589983
194	0x3d439131	0.047745887
195	0xbbbcb875	-0.0057592937
196	0x3d631b92	0.055446215
197	0x3d64d261	0.055864695
198	0x3d90b9a7	0.070666604
199	0x3baf3123	0.0053464337
200	0x3d016f80	0.031600475
201	0x3c7df99e	0.015501408
202	0xbb9eefe8	-0.0048503764
203	0xbd1d3c47	-0.038387563
204	0x3be86cb3	0.007093036
205	0x3d05331f	0.032519456
206	0xbc54c5bc	-0.012986597
207	0xbccb5ae6	-0.024823617
208	0xbd4cd5f7	-0.05000874
209	0xbcb9f0bd	-0.0226978
210	0xbc2f89e5	-0.010714029
211	0xbc8b14f1	-0.01697776
212	0xbd02e417	-0.031955805
213	0xbd601e7d	-0.054716576
214	0xbc2183ae	-0.009858055
215	0xbd1f166a	-0.038839735
216	0xbcb35a66	-0.021893691
217	0xbc6e08b7	-0.014528445
218	0xbc9fc0ec	-0.019501172
219	0xbc0e8ed8	-0.008701049
220	0x3bb04210	0.005378969
221	0x3c08d080	0.0083504915
222	0xbd98b075	-0.074555315
223	0xbc169648	-0.009191103
224	0x3b178f82	0.0023126309
225	0xbc2ddb52	-0.010611372
226	0xbd65820e	-0.056032233
227	0xbc3014f3	-0.010747182
228	0xbd328bb9	-0.04359028
229	0xbb1e85aa	-0.0024188557
230	0x3cadabe1	0.021200122
231	0x3bfed865	0.007777261
232	0xbd1cb1f3	-0.038255643
233	0xbc5f03de	-0.013611762
234	0x3d9473a5	0.0724862
235	0x3d9b6c20	0.075889826
236	0xbbb3888c	-0.005478924
237	0x3bd4db8c	0.0064958986
238	0xbcc2567c	-0.02372288
239	0xbd079a9a	-0.033106424
240	0xbc291953	-0.010320979
241	0xbce6f1a7	-0.0281914
242	0xbc842534	-0.016131021
243	0x3c419b6f	0.011816843
244	0xbcf3f195	-0.029778281
245	0x3c1296c3	0.008947077
246	0x3cf9b187	0.03048016
247	0xbd49ced0	-0.049269497
248	0x3856a5f6	5.117614e-05
249	0xbd2c4d88	-0.042066127
250	0xbd9c67ba	-0.07636972
251	0xbd7d7199	-0.061875913
252	0x3d191e1f	0.03738224
253	0x3c9e1f09	0.019301908
254	0x3d1796ef	0.037009176
255	0x3d1a3457	0.03764757

head.conv.bias f4 [64]
0	0x3d637244	0.055528894
1	0xbdea9b36	-0.114553854
2	0x3c5833af	0.013195916
3	0xbce2b418	-0.027673766
4	0xbc780958	-0.0151389465
5	0xbd98f3a3	-0.07468345
6	0x3d7d094e	0.06177645
7	0x3d83f781	0.06443692
8	0xbd3afb08	-0.04564956
9	0xbe0c22b0	-0.13685107
10	0xbd2ef2a5	-0.042711873
11	0x3da3d562	0.07999684
12	0x3d33669b	0.043799024
13	0xbd76ac42	-0.06022287
14	0x3e344615	0.17604859
15	0x3e14449a	0.14479294
16	0x3d65ec0e	0.056133322
17	0x3e1837f5	0.14865096
18	0x3e038371	0.1284311
19	0xbdd39122	-0.10330416
20	0xbdc170bb	-0.0944533
21	0x3c083f4a	0.008315871
22	0xbd54feef	-0.052000936
23	0xbe03da32	-0.12876204
24	0x3d9ee499	0.07758445
25	0xbda68ff8	-0.081329286
26	0x3be48b72	0.006974631
27	0x3d482697	0.048864927
28	0x3cf85d98	0.030318066
29	0x3c62f578	0.01385247
30	0x3d76292e	0.060097866
31	0x3cafee04	0.0214758
32	0xbe2a8427	-0.16651975
33	0xbe10066f	-0.14064954
34	0xbd04b78e	-0.032401614
35	0xbe165472	-0.14680651
36	0x3e37aacc	0.17936248
37	0x3d3370fb	0.04380892
38	0x3e23e89a	0.16006699
39	0x3e01118a	0.12604347
40	0xbe18adc9	-0.14910044
41	0x3dc70751	0.09718192
42	0xbdf66e9b	-0.12032815
43	0x3d91b65a	0.07114859
44	0x3df946fd	0.12171743
45	0xbcf7c64b	-0.03024592
46	0xbdfdddd3	-0.12395825
47	0xbe147151	-0.14496352
48	0xbe1b5f7f	-0.15173148
49	0x3e2866cc	0.16445464
50	0x3a50258e	0.00079401664
51	0xbd5c97d7	-0.053855743
52	0x3dd0d04f	0.10195982
53	0x3e29a42b	0.16566531
54	0xbdaa4ee2	-0.08315827
55	0xbe085378	-0.13313091
56	0x3e1b3fa0	0.1516099
57	0xbe3fdab0	-0.18735766
58	0xbd0e02cf	-0.034670647
59	0x3da0ae80	0.07845783
60	0x3e2d5fb7	0.16931044
61	0x3e222774	0.15835363
62	0xbccc2bd8	-0.02492325
63	0x3ddb791f	0.107164614

head.norm.weight f4 [64]
0	0x3f6de07d	0.92920667
1	0x3f81cbfc	1.0140376
2	0x3f726f44	0.9470103
3	0x3f84ff1b	1.0390352
4	0x3f7be80e	0.9840096
5	0x3f77bd39	0.96773106
6	0x3f78ae7f	0.9714126
7	0x3f6f9da6	0.9359993
8	0x3f7aec9e	0.980173
9	0x3f7b97f4	0.9827874
10	0x3f83e445	1.0304037
11	0x3f747d4b	0.9550368
12	0x3f6f9e65	0.93601066
13	0x3f72fa9c	0.9491365
14	0x3f80da1f	1.0066565
15	0x3f867192	1.0503409
16	0x3f7f4629	0.9971643
17	0x3f6f90f3	0.9358055
18	0x3f7454eb	0.95442075
19	0x3f78436b	0.9697787
20	0x3f7cbcbc	0.98725486
21	0x3f703948	0.93837404
22	0x3f800dae	1.0004175
23	0x3f7f8ed6	0.99827325
24	0x3f7afd29	0.9804254
25	0x3f830e0f	1.0238665
26	0x3f706472	0.9390327
27	0x3f6c5e7a	0.9233166
28	0x3f839bb1	1.0281888
29	0x3f7d120e	0.98855674
30	0x3f762c2d	0.96161157
31	0x3f848847	1.0354089
32	0x3f7de904	0.9918368
33	0x3f7782c4	0.9668391
34	0x3f763c62	0.96185887
35	0x3f71fd45	0.94527084
36	0x3f7fe52e	0.99959075
37	0x3f7817be	0.9691123
38	0x3f6ff588	0.93734026
39	0x3f6ee408	0.933167
40	0x3f8e7c66	1.1131713
41	0x3f7d56bf	0.9896049
42	0x3f816a76	1.0110614
43	0x3f74d277	0.95633644
44	0x3f8a7704	1.0817571
45	0x3f79d5a5	0.9759162
46	0x3f8383f3	1.0274643
47	0x3f9677f4	1.1755357
48	0x3f862dfd	1.0482785
49	0x3f7f136a	0.99639
50	0x3f732f36	0.94993913
51	0x3f7fb5db	0.99886864
52	0x3f78263b	0.96933335
53	0x3f8a9db7	1.0829381
54	0x3f79687c	0.97425056
55	0x3f7f4632	0.99716485
56	0x3f80527b	1.0025171
57	0x3f7ac9fa	0.9796444
58	0x3f890d34	1.0707154
59	0x3f721b2e	0.9457272
60	0x3f861bc5	1.0477225
61	0x3f6c9edb	0.92429894
62	0x3f842ca3	1.0326122
63	0x3f88425e	1.0645254

head.norm.bias f4 [64]
0	0xbe1315ac	-0.14363736
1	0xbe068815	-0.13137849
2	0xbb9a1f83	-0.0047034635
3	0xbe50d304	-0.20392996
4	0xbd3b03d5	-0.04565795
5	0xbd2bc0fb	-0.041932087
6	0xbe39f394	-0.18159324
7	0xbde9a1d2	-0.11407818
8	0xbcdc5314	-0.026895083
9	0xbdf7c8d6	-0.12098853
10	0xbdef693b	-0.11689993
11	0xbe2a495a	-0.16629544
12	0xbe4f3ac1	-0.20237257
13	0xbe202c19	-0.15641822
14	0xbdcb6944	-0.09932187
15	0xbde45ae5	-0.11150149
16	0xbc8b74be	-0.01702344
17	0xbd9b0230	-0.075687766
18	0xbe7204c4	-0.2363463
19	0xbe594202	-0.21216586
20	0xbdfbd607	-0.12296682
21	0xbdbf3542	-0.0933633
22	0xbe0498af	-0.12948869
23	0xbde5e4b3	-0.112252615
24	0xbdafe074	-0.08587733
25	0xbe48f44e	-0.19624445
26	0xbdbb0f0a	-0.09133728
27	0xbd9c6c49	-0.07637841
28	0xbd95c4e5	-0.07312945
29	0xbe483acc	-0.19553679
30	0xbd1d864a	-0.038458146
31	0xbd53c76a	-0.051703848
32	0x3b875034	0.004129434
33	0xbdbd5d45	-0.092463054
34	0xbdb7e351	-0.08978904
35	0xbd81e0d8	-0.06341714
36	0xbdadcc1f	-0.08486199
37	0xbe238e55	-0.15972264
38	0xbd8eff82	-0.06982328
39	0xbddf2f6d	-0.108977176
40	0xbcb273b3	-0.021783685
41	0xbd97977d	-0.07401941
42	0xbdf21e1e	-0.11822151
43	0xbe495a50	-0.19663358
44	0xbe0a281c	-0.13491863
45	0xbd2cb85c	-0.042168006
46	0xbd86eaa8	-0.06587726
47	0xbc9221dc	-0.017838411
48	0xbc7f5597	-0.015584371
49	0xbd30caaf	-0.043162044
50	0xbd336c68	-0.043804556
51	0xbe0c1afc	-0.13682169
52	0xbda21a6d	-0.079151966
53	0xbde5135f	-0.11185335
54	0xbe4536d8	-0.19259202
55	0xbd5c17c3	-0.0537336
56	0xbe4a3fcf	-0.19750904
57	0xbd218d7b	-0.039441567
58	0xbe8bc690	-0.2729993
59	0xbe1181f4	-0.1420973
60	0xbe0cc929	-0.13748612
61	0xbdaa18c9	-0.08305509
62	0xbe4e7165	-0.20160444
63	0xbe02db00	-0.12778854

head.norm.running_mean f4 [64]
0	0x3d0d0b8b	0.034434836
1	0xbe05eb43	-0.13078026
2	0xbd9d5293	-0.076817654
3	0xbd828326	-0.06372671
4	0xbdc64656	-0.09681384
5	0xbdde051e	-0.1084082
6	0x3ce83062	0.028343383
7	0x3d579261	0.052629832
8	0x3cfa67d3	0.030567085
9	0xbdd26a84	-0.102742225
10	0xbcbbbbc5	-0.022916684
11	0x3d3304c5	0.04370572
12	0x3e1098c7	0.1412078
13	0x3c51bccc	0.01280136
14	0x3e798022	0.24365285
15	0x3e02fea0	0.12792444
16	0x3e17bdfb	0.14818566
17	0x3e72fd9a	0.23729554
18	0x3d9d28d8	0.07673806
19	0xbe0fe54f	-0.14052318
20	0xbe36026c	-0.17774361
21	0xbd8c5c8f	-0.06853592
22	0xbd971471	-0.07376946
23	0xbe51a7d8	-0.20474184
24	0x3ddea10c	0.10870561
25	0xbd4146ab	-0.047186535
26	0xbd93074c	-0.07179126
27	0xbcf70e7a	-0.03015827
28	0xbd5b6825	-0.053566117
29	0xbd9011d5	-0.07034651
30	0x3b443b22	0.0029942472
31	0x3d8119ea	0.06303771
32	0xbdab5565	-0.08365897
33	0xbe5c5f64	-0.21520764
34	0xbd958876	-0.073014185
35	0xbe866f47	-0.26256773
36	0x3e020be4	0.12699848
37	0x3dd6b7c3	0.104842685
38	0x3d891644	0.066937
39	0x3e2925d3	0.16518335
40	0xbe3d9f78	-0.18517864
41	0x3d6b7221	0.05748189
42	0xbd6df5c1	-0.058095697
43	0x3e133591	0.14375903
44	0x3df1fe3a	0.11816068
45	0xbdbec162	-0.093142286
46	0xbc79a965	-0.015238141
47	0xbe1171c1	-0.1420355
48	0xbdf4b58d	-0.119486906
49	0x3db79722	0.08964373
50	0xbcb48f10	-0.022040874
51	0xbde3af87	-0.111174636
52	0x3e0313be	0.128005
53	0x3e21e4de	0.15809962
54	0xbe0af1b7	-0.1356877
55	0xbca1d864	-0.019756503
56	0x3e30b504	0.17256552
57	0xbe7e002b	-0.24804752
58	0xbcd5bd02	-0.026091103
59	0x3e0999be	0.13437554
60	0x3e87acda	0.26499063
61	0x3d1a08c1	0.037606005
62	0xbd671b58	-0.05642256
63	0x3db20fbb	0.086944066

head.norm.running_var f4 [64]
0	0x3ba68c2a	0.005082627
1	0x3b07a98c	0.0020700423
2	0x3bf471e4	0.007459866
3	0x3ae66839	0.0017578668
4	0x3bc009af	0.0058605294
5	0x3acb6eb9	0.0015520669
6	0x3b079da3	0.0020693324
7	0x3b3da464	0.0028937096
8	0x3ba360b2	0.004985892
9	0x3b053010	0.0020322837
10	0x3b223b81	0.0024754705
11	0x3ae3d5d0	0.0017382447
12	0x3c469b91	0.012122051
13	0x3bfe41a1	0.0077592884
14	0x3b696c8d	0.003561768
15	0x3a858f67	0.0010189832
16	0x3c3f451d	0.011674193
17	0x3c13a5c4	0.00901169
18	0x3adf5cf0	0.0017041247
19	0x3ad44efb	0.0016197854
20	0x3c031239	0.00799995
21	0x3b5a4314	0.0033304142
22	0x3b64695c	0.0034852838
23	0x3b80b865	0.0039282315
24	0x3b987450	0.0046525374
25	0x3ab441ca	0.0013752517
26	0x3b958746	0.004563245
27	0x3b95fd3d	0.0045773075
28	0x3b8b2c53	0.004247227
29	0x3b9619db	0.004580719
30	0x3b15a085	0.0022831273
31	0x3af63a8b	0.0018785758
32	0x3bdbce2a	0.0067079263
33	0x3b9ab56c	0.004721334
34	0x3b88948d	0.0041680993
35	0x3c399e33	0.011329222
36	0x3b0ad3e2	0.002118342
37	0x3c8029e0	0.015644968
38	0x3c166141	0.009178461
39	0x3bad0d08	0.0052810945
40	0x3a8cfd85	0.0010756707
41	0x3b9e137f	0.0048241015
42	0x3b212a94	0.002459203
43	0x3bb7c9a8	0.005608756
44	0x3a244359	0.0006266139
45	0x3b613cf4	0.0034368606
46	0x3c40cf2e	0.0117681455
47	0x3a7cde7c	0.000964619
48	0x3ada8875	0.0016672747
49	0x3b7cbd71	0.0038565064
50	0x3ae1372b	0.0017182579
51	0x3b4611e0	0.0030223057
52	0x3ba6b9e1	0.0050880765
53	0x3a39610f	0.0007071653
54	0x3b2a8fcc	0.002602565
55	0x3c646334	0.0139396675
56	0x3b31929d	0.0027095445
57	0x3b12fa46	0.0022427007
58	0x3b0f5ef8	0.0021876674
59	0x3c00954b	0.007848094
60	0x3b8a064d	0.004212177
61	0x3c30b174	0.010784496
62	0x3ac707d7	0.0015184832
63	0x3af5d2c6	0.0018754832

body.block1.conv.weight f4 [64, 64, 3, 3]
0	0x39b09b44	0.00033685018
1	0xbcd3b6ec	-0.02584406
2	0xbc5c62f2	-0.013451325
3	0x3c6ae8a1	0.01433769
4	0x3c629ec4	0.013831798
5	0x3c0410aa	0.008060614
6	0x3d59aeb1	0.053145114
7	0x3d8feae9	0.070272274
8	0xba9466c2	-0.0011322128
9	0xbcab8401	-0.020936968
10	0x3d03e858	0.032204002
11	0xbbb768e6	-0.0055972217
12	0xbd55ae8b	-0.05216841
13	0x3bd6d774	0.0065564457
14	0x3d06d5c7	0.032918718
15	0xbd17c1df	-0.037050124
16	0xbca74548	-0.020418778
17	0xbb3a54b1	-0.0028431828
18	0x3cf6d2e2	0.030129854
19	0xbcb717f0	-0.022350281
20	0x3d10a95b	0.03531776
21	0xbd92df8f	-0.07171547
22	0x3a89873d	0.0010492575
23	0x3c39a897	0.011331699
24	0xbd10fcf4	-0.035397485
25	0x3d023cba	0.031796195
26	0x3d8505f5	0.06495277
27	0xbd89170d	-0.0669385
28	0xbd8480f2	-0.06469907
29	0xbb5cabd4	-0.0033671753
30	0xbd0ccbf9	-0.03437421
31	0xbbd07750	-0.0063618794
32	0xbd0112c0	-0.031512022
33	0x3d80614f	0.0626856
34	0x3d89470f	0.067030065
35	0x3c82cdc7	0.015967263
36	0xbd16d3f4	-0.036823228
37	0xbd3b5e0f	-0.045744
38	0xbc44dd49	-0.012015649
39	0x3b8e6e6c	0.0043466594
40	0xbca950c2	-0.020668391
41	0xbbf90266	-0.007599163
42	0xbcc82f22	-0.024436537
43	0xbcf18e0e	-0.029486682
44	0xbd54a17c	-0.051911816
45	0x3c5cf55f	0.013486235
46	0xbd559552	-0.052144356
47	0xbb979bba	-0.0046267183
48	0xbc1cc6c8	-0.0095688775
49	0x3b5fa482	0.0034125154
50	0xbcd1403b	-0.025543323
51	0xbc7216d2	-0.014775949
52	0xbd799238	-0.06093046
53	0xbc5f3d19	-0.013625407
54	0xbc4f599a	-0.01265564
55	0x3d42f504	0.047596946
56	0x3d1315b3	0.035909366
57	0x3b37da67	0.0028053762
58	0xbcdc7bb6	-0.026914459
59	0xbcf92975	-0.030415276
60	0x3d3ec858	0.04657778
61	0x3b7dd51a	0.0038731755
62	0xbb68bb0a	-0.0035511875
63	0xbd46dfe8	-0.048553377
64	0x3bcc0591	0.0062262495
65	0xbd068228	-0.03283897
66	0x3878aaf9	5.928704e-05
67	0x3a270b9b	0.0006372274
68	0xbd0d8c19	-0.034557436
69	0xbc9c5121	-0.019081654
70	0x3c68121d	0.014164475
71	0x3cdd745e	0.027033027
72	0xbb40ed68	-0.002943838
73	0x3d72e682	0.05930186
74	0x3d9f185c	0.07768318
75	0x3c78f225	0.0151944505
76	0x3cf3b43c	0.029749028
77	0x3c8f23a1	0.017473044
78	0x3cf70ee5	0.03015847
79	0x3c9103d0	0.017702013
80	0x3d9f0c61	0.07766033
81	0x3d82069d	0.06348918
82	0xbcf145f4	-0.029452302
83	0x3cbe7f9f	0.023254214
84	0x3cc25539	0.023722278
85	0xbce3272e	-0.027728643
86	0xbc36aeea	-0.011150101
87	0x3c13f1e1	0.009029836
88	0xbd2ea844	-0.04264094
89	0xbc85d31f	-0.016336022
90	0x3d2829fb	0.04105566
91	0x3c7e035a	0.015503729
92	0x3d369b8b	0.04458193
93	0x3d84020d	0.06445704
94	0x3d0d3916	0.03447827
95	0xbca00676	-0.01953433
96	0x3d29996a	0.041406073
97	0x3d487a72	0.048944898
98	0xbc2dfdec	-0.010619622
99	0x3c83322c	0.016015135
100	0xbd19be59	-0.037535045
101	0xbc6fa3a9	-0.014626422
102	0xbc8df209	-0.017327325
103	0xbcd57e9d	-0.02606135
104	0xbba04371	-0.004890852
105	0x3c0ee9a6	0.008722698
106	0xbd0e4ea4	-0.034742966
107	0xbc85e559	-0.016344713
108	0xbc0f424f	-0.008743837
109	0xbb672417	-0.0035269314
110	0x3ac60cdf	0.0015110037
111	0xbcc0dba0	-0.023542225
112	0xbd9af8db	-0.07566997
113	0xbce453be	-0.027871963
114	0xbcf7b40f	-0.030237226
115	0xbb96ce9c	-0.0046022665
116	0xbc8ef276	-0.017449599
117	0xbb8d31d5	-0.004308919
118	0xbd31f116	-0.043442808
119	0xbb322a07	-0.0027185695
120	0x3c98937b	0.018625012
121	0x3d0020e6	0.031281374
122	0xbd31ebfc	-0.043437943
123	0xbc1e2447	-0.009652204
124	0xbbe47e6c	-0.0069730785
125	0xbd744888	-0.059639484
126	0xbb829530	-0.0039850697
127	0xbd26e5b7	-0.040746417
128	0x3d259043	0.04042078
129	0xbd98ee51	-0.0746733
130	0x3b3f7707	0.0029215233
131	0x3bddf5e0	0.0067736953
132	0xbdbd7b14	-0.09251991
133	0xbc19810e	-0.009369148
134	0xbc3dec4f	-0.011591985
135	0x3b73ffa4	0.003723123
136	0xbbc2e43e	-0.0059476187
137	0x3d545076	0.051834546
138	0x3cf2d336	0.029641729
139	0xbc9d4ad8	-0.019200727
140	0xbd67c1ec	-0.056581423
141	0x3ca2e12c	0.019882761
142	0x3d04c699	0.03241596
143	0x3c1fece5	0.00976107
144	0x3c65547a	0.013997192
145	0xbd1d9181	-0.03846884
146	0xbba810f3	-0.0051289736
147	0xbc34af42	-0.011028113
148	0x3cd93c39	0.026517974
149	0xbc111ee7	-0.008857465
150	0x3cd5db2d	0.026105488
151	0x3b0a730c	0.0021125702
152	0xbc947429	-0.018121796
153	0xbc84bc34	-0.016203023
154	0xbcaf2e1f	-0.021384297
155	0xbd3893e1	-0.045062903
156	0xbd45c2ae	-0.048281364
157	0xbc2aee73	-0.010432827
158	0x3bc0b85a	0.0058813514
159	0xbd1f3aba	-0.038874365
160	0xbbf7b382	-0.007559241
161	0x3cf0ad7e	0.029379603
162	0x3c523652	0.012830334
163	0x3cede35f	0.029039083
164	0x3c95b1a5	0.018273184
165	0x3cd30650	0.025759846
166	0xbd15de96	-0.036589228
167	0x3d2d8dcc	0.042371556
168	0x3cea3b43	0.028592711
169	0x3bed1046	0.007234606
170	0xbc66fe10	-0.014098659
171	0x3d89304d	0.06698666
172	0x3cd387e9	0.025821643
173	0xbad95d8d	-0.0016583666
174	0xbc58c3e6	-0.0132303
175	0x3d2e0ff2	0.042495675
176	0x3d7711a6	0.060319565
177	0x3d088c9e	0.033337228
178	0x3d33f536	0.043935023
179	0x3c79e849	0.015253135
180	0x3d0c2415	0.034214098
181	0x3cd02f44	0.025413163
182	0x3daae6d5	0.08344809
183	0xbcb1bf7c	-0.021697752
184	0x3d14fc82	0.036373623
185	0x3d91e628	0.07123977
186	0x3c944319	0.0180984
187	0x3b42c882	0.0029721563
188	0xbb99a500	-0.004688859
189	0xbcb7b4d4	-0.022425093
190	0xbcf73d9d	-0.030180747
191	0xbc26293d	-0.010141668
192	0x3cc66966	0.02422018
193	0x3b3be71c	0.0028671687
194	0x3c700f41	0.014652074
195	0xbbbb3fb4	-0.005714381
196	0x3b31c6d0	0.0027126558
197	0xbd99ab94	-0.07503429
198	0x3c17446a	0.00923262
199	0xbc9dd255	-0.019265333
200	0x3cd4bdd2	0.02596942
201	0x3d2accea	0.041699328
202	0x3c9c92d2	0.019112978
203	0x3c850326	0.016236853
204	0x3cd7359b	0.026270678
205	0x3ad3d273	0.0016160741
206	0xbcbd7c4f	-0.023130564
207	0xbd0f1eb2	-0.034941383
208	0xbc96f2d9	-0.018426346
209	0xbcd39f08	-0.025832668
210	0x3c7c0c8c	0.015383851
211	0xbcbf2ebd	-0.023337716
212	0xbd9d6379	-0.076849885
213	0xbd4760de	-0.048676364
214	0x3bae4c21	0.005319134
215	0xbc05ef29	-0.008174696
216	0xb8e55d21	-0.000109369175
217	0x3d5a7182	0.053330906
218	0x3c7cd165	0.015430783
219	0x3cb897a7	0.022533251
220	0x3d24c4c9	0.04022673
221	0x3c442c41	0.011973442
222	0xbd2b11f9	-0.041765187
223	0x3d2347ba	0.039863326
224	0x3d238ef4	0.039931253
225	0x3d15d334	0.036578372
226	0x3c71c336	0.014756015
227	0xbcaf8274	-0.02142451
228	0x3ced3b43	0.028958922
229	0xbc1d9df9	-0.009620183
230	0x3af93c97	0.001901525
231	0x3cd876ca	0.02642383
232	0xbd0febf8	-0.035137147
233	0x3c3186c4	0.010835353
234	0xbd430cdc	-0.047619686
235	0x3c8881f9	0.016663538
236	0x3d102f34	0.035201266
237	0xbda15a7c	-0.07878587
238	0xbd493ca0	-0.049130082
239	0xbd8e97ed	-0.06962571
240	0xbdb0914e	-0.08621465
241	0x3ba10656	0.0049140854
242	0xbbccb45c	-0.0062470865
243	0xbc2e8e80	-0.010654092
244	0xbc021c3a	-0.0079413
245	0x3c7cca4d	0.015429092
246	0x3d1becf9	0.03806779
247	0xbd21c16d	-0.039491106
248	0xbcae0fcc	-0.021247767
249	0xbd38115b	-0.044938426
250	0xbd4f247c	-0.050571904
251	0xbd1dddd0	-0.038541615
252	0xbd0efb7c	-0.034907803
253	0xbd917566	-0.0710247
254	0xbcfa6d49	-0.03056969
255	0xbcf1f5e6	-0.029536199

body.block1.conv.bias f4 [64]
0	0xb9c96ec0	-0.00038420223
1	0x3c19b2a5	0.009380971
2	0x3ccd9043	0.025093203
3	0xbcf48e12	-0.0298529
4	0x3d287aa4	0.041132584
5	0x3c701da4	0.014655504
6	0xbd0603a3	-0.032718312
7	0x3bd911b2	0.006624424
8	0x3c9bbd53	0.019011175
9	0x3d0cabac	0.034343407
10	0xbb40bb83	-0.002940864
11	0xbb58b7ec	-0.003306861
12	0xbc93fd6d	-0.018065179
13	0xbcc5c17d	-0.024140114
14	0x3d28080e	0.041023307
15	0x3cc9fbdb	0.024656227
16	0xbc2eff3c	-0.01068097
17	0xbcac2589	-0.021013992
18	0x3d01d47b	0.031696778
19	0x3ce0921e	0.027413424
20	0x3d208b40	0.0391953
21	0x3cc98dbe	0.02460372
22	0xbce5a59d	-0.028033072
23	0xbbd5dc75	-0.0065265247
24	0x3cd78f79	0.02631353
25	0x3bb1f2e6	0.005430567
26	0x3cf6c933	0.030125236
27	0x3cab579e	0.020915803
28	0x3cdee0b7	0.027206762
29	0xb9ec3b54	-0.0004505763
30	0x3c74a91e	0.014932899
31	0x3d283ca4	0.041073456
32	0x3d1577f6	0.036491357
33	0x3d155955	0.036462147
34	0x3c09c9d9	0.008409941
35	0xbc6aedfe	-0.014338968
36	0xbc775bd5	-0.015097578
37	0x3cb5fd8d	0.022215629
38	0xbb9abc7c	-0.004722176
39	0x3d27a9e2	0.040933497
40	0x3c4381de	0.011932818
41	0x3c8eda50	0.017438084
42	0x3a6abeeb	0.00089548406
43	0x3d0973de	0.033557765
44	0xbca4f4f8	-0.020136341
45	0xbcb259f6	-0.021771412
46	0xbce919ac	-0.028454624
47	0xbc2daf7e	-0.010600923
48	0xbca09d9a	-0.0196064
49	0x3c74db6a	0.0149448905
50	0xbd25ed8d	-0.04050975
51	0xbc9c1324	-0.019052096
52	0xbc7f7f46	-0.015594309
53	0xbc7aa713	-0.015298623
54	0xbcd8f372	-0.026483271
55	0x3c35f191	0.011104957
56	0x3cd42138	0.025894746
57	0x3cb7877d	0.022403473
58	0x3d0cdb8d	0.034389067
59	0xbd2416e4	-0.040060893
60	0xbc751226	-0.01495794
61	0x3d1bb589	0.038014922
62	0xbcd46bd3	-0.02593032
63	0xbb968b2d	-0.0045942278

body.block1.norm.weight f4 [64]
0	0x3f79fc33	0.9765045
1	0x3f711267	0.94168705
2	0x3f7fa39d	0.9985903
3	0x3f8005e4	1.0001798
4	0x3f81046b	1.0079473
5	0x3f72f2e5	0.9490188
6	0x3f7c3eab	0.98533124
7	0x3f79a0e6	0.97511137
8	0x3f83cd58	1.0297041
9	0x3f710763	0.94151896
10	0x3f7691ea	0.963164
11	0x3f696f23	0.91185206
12	0x3f804892	1.0022147
13	0x3f7be319	0.983934
14	0x3f86495c	1.0491138
15	0x3f88e2ba	1.0694191
16	0x3f8855ff	1.0651244
17	0x3f82f643	1.0231403
18	0x3f79b5c5	0.97542983
19	0x3f88fa33	1.0701355
20	0x3f8282d7	1.0196179
21	0x3f6bb98f	0.92080015
22	0x3f7e9c29	0.9945703
23	0x3f8186ba	1.011924
24	0x3f7c2013	0.9848644
25	0x3f795378	0.9739299
26	0x3f78c61a	0.9717728
27	0x3f79e8d8	0.97620916
28	0x3f8112f2	1.0083907
29	0x3f7ce157	0.9878134
30	0x3f89989d	1.0749699
31	0x3f840db4	1.0316682
32	0x3f71ab84	0.9440234
33	0x3f7d0a26	0.9884361
34	0x3f82a6e8	1.0207186
35	0x3f78ce1a	0.97189486
36	0x3f80cdc2	1.0062792
37	0x3f85dfa2	1.0458872
38	0x3f685d8d	0.9076775
39	0x3f6f4684	0.93466973
40	0x3f7dbe7c	0.9911878
41	0x3f793466	0.9734558
42	0x3f7cf63d	0.9881323
43	0x3f853bf0	1.0408916
44	0x3f7f8ebb	0.99827164
45	0x3f9067ff	1.1281737
46	0x3f8158b5	1.0105196
47	0x3f757422	0.9588033
48	0x3f8ba263	1.0908931
49	0x3f7ba057	0.98291534
50	0x3f7ee431	0.9956694
51	0x3f7232cb	0.94608754
52	0x3f77a341	0.9673348
53	0x3f794810	0.97375584
54	0x3f84497c	1.0334926
55	0x3f75ee3f	0.9606666
56	0x3f83bda7	1.0292252
57	0x3f722156	0.94582117
58	0x3f7b6fed	0.9821766
59	0x3f7ec54f	0.9951982
60	0x3f797d58	0.97456884
61	0x3f7bcd3b	0.9836003
62	0x3f81b1ea	1.013242
63	0x3f81d68a	1.0143597

body.block1.norm.bias f4 [64]
0	0xbd85e0a5	-0.06536988
1	0xbdaf7620	-0.085674524
2	0xbe050510	-0.12990212
3	0xbdbf9e7b	-0.093563996
4	0x3cb04492	0.021517072
5	0xbdd09417	-0.10184496
6	0xbb9363ef	-0.004497997
7	0xbe068b82	-0.13139156
8	0x3c979205	0.018502245
9	0xbd9fa28c	-0.07794675
10	0xbe381594	-0.17976981
11	0xbdf5b3ef	-0.1199721
12	0xbe48fa4f	-0.19626735
13	0xbe42467c	-0.189722
14	0xbdcc3b3f	-0.09972238
15	0xbe3536f5	-0.17696746
16	0xbe16b815	-0.14718659
17	0xbc8d413a	-0.017243017
18	0xbdf07cfc	-0.11742589
19	0xbc2d81db	-0.010590042
20	0xbdc81e5f	-0.09771418
21	0xbe042257	-0.12903725
22	0xbdcdf13d	-0.10055778
23	0xbd69089d	-0.05689298
24	0xbdbbd3f2	-0.09171285
25	0xbda2b711	-0.079450734
26	0xbdbdbcb0	-0.09264505
27	0xbdc02fb9	-0.093841024
28	0xbd630c4a	-0.05543164
29	0xbdd254fa	-0.10270114
30	0xbd78f8e2	-0.06078423
31	0xbd35e843	-0.044410955
32	0xbe7215e2	-0.2364116
33	0xbdb1b840	-0.08677721
34	0xbb884f11	-0.004159816
35	0xbeb438da	-0.35199624
36	0xbc0d989d	-0.008642343
37	0xbe2e6278	-0.1702975
38	0xbe065a3d	-0.1312036
39	0xbe26858c	-0.16261882
40	0xbcda0acf	-0.026616482
41	0xbdbf17fd	-0.09330747
42	0xbd68463f	-0.056707617
43	0xbd152edf	-0.036421653
44	0xbdde6363	-0.108588
45	0xbddac529	-0.106821366
46	0xbe1effe5	-0.15527304
47	0xbdc1c633	-0.094616316
48	0xbd9f4be1	-0.07778145
49	0xbd08d641	-0.033407453
50	0xbe296e89	-0.16546072
51	0xbe1580e1	-0.14599945
52	0xbe11781f	-0.14205979
53	0xbc957782	-0.018245462
54	0xbc85141d	-0.016244942
55	0xbe2211a9	-0.1582705
56	0xbdd95ad9	-0.10613031
57	0xbdcc274c	-0.09968433
58	0xbd733848	-0.059379846
59	0xbbe9ce8b	-0.0071352175
60	0xbde59d9b	-0.112117015
61	0xbda3ae22	-0.079921976
62	0xbc887791	-0.016658576
63	0xbdc3f24a	-0.09567697

body.block1.norm.running_mean f4 [64]
0	0xbf134dcf	-0.575406
1	0x3f215cad	0.63032037
2	0x3eb0c0f2	0.34522206
3	0xbef36fa2	-0.47546107
4	0x3d674b84	0.0564685
5	0x3f149644	0.5804179
6	0xbf43ebb2	-0.7653152
7	0x3f5ba86a	0.85803854
8	0xbe3890b4	-0.1802395
9	0x3e438f78	0.19097698
10	0x3fcda3e4	1.606564
11	0x3ee7e603	0.45292673
12	0x3f2ce878	0.6754222
13	0x3fc02a86	1.5012977
14	0x3c8b7bd1	0.017026814
15	0x3f84d760	1.0378227
16	0xbf088193	-0.53322715
17	0xbf207249	-0.62674385
18	0x3ed811b9	0.4220102
19	0xbd6101e0	-0.05493343
20	0x3f02db37	0.51115745
21	0x3fa01847	1.2507409
22	0xbe533844	-0.20626932
23	0xbe44a3d0	-0.19203115
24	0x3e2cacbd	0.1686277
25	0xbf0cf760	-0.55064964
26	0xbf81328a	-1.0093548
27	0x3ee22eac	0.44176233
28	0x3eb1b526	0.34708518
29	0xbeb6ce9e	-0.3570451
30	0xbf92d838	-1.1472235
31	0xbf064ce8	-0.524611
32	0x3f3a1c71	0.7269965
33	0x3f02055a	0.50789416
34	0x3e6be6c3	0.23037247
35	0x3f709dd3	0.9399082
36	0x3e9eca34	0.31013644
37	0x3f2add0d	0.66743547
38	0x3e94168c	0.28923452
39	0x3fc62255	1.5479227
40	0x3eaecf60	0.3414259
41	0x3f3df0b4	0.7419541
42	0xbdbfa619	-0.093578525
43	0xbea64041	-0.32470897
44	0x3e456b6c	0.1927926
45	0x3db50e3c	0.088406056
46	0x3f130e4d	0.57443696
47	0x3f9d8c4a	1.2308438
48	0xbd40b401	-0.047046665
49	0x3d561604	0.05226709
50	0xbd8228e7	-0.06355458
51	0x3e3a578d	0.1819746
52	0x3f778dca	0.9670073
53	0xbe375136	-0.17902073
54	0xbf303d19	-0.6884323
55	0x3f9c4653	1.2208961
56	0xbe8d4383	-0.2759057
57	0x3f665ec3	0.89988345
58	0x3e914309	0.28371456
59	0xbf7ce49e	-0.9878634
60	0x3f1ae2d5	0.6050237
61	0x3e7a40ab	0.24438731
62	0x3eaea7e5	0.34112468
63	0xbe17138d	-0.14753552

body.block1.norm.running_var f4 [64]
0	0x3feeffc6	1.8671806
1	0x4053320e	3.29993
2	0x3fb437cd	1.4079529
3	0x3edc9c05	0.43087783
4	0x3f750d66	0.9572357
5	0x405c6df0	3.44421
6	0x4051c2fe	3.2775264
7	0x406d60b5	3.7090275
8	0x3f624411	0.8838511
9	0x402da481	2.7131655
10	0x3fa3f162	1.2808039
11	0x407db3c3	3.9640968
12	0x3fbe9d29	1.4891711
13	0x4083ed83	4.122743
14	0x3ec7cda0	0.39024067
15	0x3f744425	0.9541648
16	0x3dd6ee98	0.10494727
17	0x3f0f5aa6	0.55997694
18	0x3efa2bda	0.4886158
19	0x3e7f72fd	0.24946208
20	0x4095c0f6	4.679805
21	0x409cb9c8	4.8976784
22	0x3e9384ab	0.28812155
23	0x3e9d3bb9	0.30709627
24	0x3f8b4e83	1.0883335
25	0x4005bc16	2.0896049
26	0x402ec4dd	2.7307656
27	0x40db4af2	6.8528986
28	0x408fde15	4.4958596
29	0x3e8e16e3	0.27751836
30	0x3f524c14	0.82147336
31	0x3ec9cf6f	0.39416072
32	0x3f0e185b	0.55505913
33	0x3fadd794	1.3581414
34	0x4078f748	3.8900928
35	0x4008b516	2.1360526
36	0x3e50743a	0.20356837
37	0x3f10917a	0.5647198
38	0x3fb744ca	1.4317868
39	0x4122148f	10.130019
40	0x3f047e4e	0.51755226
41	0x4075d464	3.8410883
42	0x3e897b61	0.26851943
43	0x3f671b13	0.90275687
44	0x3f8fd155	1.1235758
45	0x3e8dcfd9	0.27697638
46	0x3fb09cac	1.3797812
47	0x40b3ee96	5.6228743
48	0x3e5cc2a3	0.21558623
49	0x403e30f3	2.9717376
50	0x3f9d86e1	1.2306787
51	0x3e810b55	0.25203958
52	0x40f2c4d1	7.5865254
53	0x3f6e3410	0.9304819
54	0x3e9d8a4e	0.3076958
55	0x4056cd6a	3.3562875
56	0x3e96e049	0.2946799
57	0x409fa149	4.988438
58	0x3f4826fc	0.78184485
59	0x3f7c2aa5	0.9850257
60	0x408b1cfe	4.347289
61	0x3fc35589	1.5260478
62	0x3ee10c7d	0.4395484
63	0x3e33708d	0.17523403

body.block2.conv.weight f4 [64, 64, 3, 3]
0	0x3cc8bc3e	0.024503823
1	0x3d50af9d	0.050948728
2	0x3cc625ab	0.024187883
3	0x3d10f315	0.03538807
4	0xba92968c	-0.0011183782
5	0x3cacbf06	0.02108718
6	0x3d19b990	0.03753048
7	0x3c6c2183	0.014412287
8	0x3d48bef6	0.04901024
9	0x3c0fa712	0.00876786
10	0x3d01155d	0.031514514
11	0x3d23e762	0.040015586
12	0x3c3d7241	0.011562885
13	0xbc906c22	-0.017629687
14	0xbab9d0af	-0.0014176572
15	0x3cf3ffc3	0.029785043
16	0x3cd97e99	0.026549624
17	0xbc076fa8	-0.008266367
18	0x3cab06ff	0.02087736
19	0x3ccc872e	0.024966802
20	0x3c96e701	0.018420698
21	0x3cb6fe4a	0.022338051
22	0x3d86b7a8	0.065779984
23	0x3c6e699d	0.014551547
24	0x3c54c682	0.012986781
25	0x3cce4881	0.025181057
26	0x3d83d689	0.06437404
27	0x3ccd78b4	0.02508197
28	0x3d5cac97	0.053875532
29	0x3b72005a	0.003692648
30	0x3d19e1d9	0.0375689
31	0x3b9be1bf	0.0047571356
32	0x3c168ce9	0.009188869
33	0x3c0b8065	0.008514498
34	0x3b67214d	0.0035267652
35	0x3d61abc1	0.055095438
36	0x3d27c6ed	0.040961195
37	0x3cf4dbbc	0.029889934
38	0x3d5a1e9e	0.053251855
39	0x3c7dc76a	0.015489439
40	0x3b9fe6d4	0.004879812
41	0x3d82614a	0.06366213
42	0x3c8adcdf	0.016951023
43	0x3ccc3326	0.024926733
44	0x3d00f638	0.031484812
45	0xbc1a9673	-0.009435284
46	0x3c3d334c	0.011547875
47	0x3cda266f	0.026629655
48	0x3ca0b8c2	0.01961935
49	0x3ca9e332	0.020738218
50	0x3c53b189	0.012920746
51	0x3cf264ac	0.02958902
52	0xbc6c66ea	-0.0144288335
53	0xbc82ea3a	-0.015980829
54	0x397ad16e	0.00023919877
55	0xbbebd53d	-0.007197051
56	0xbd98f19e	-0.0746796
57	0xbc02c3a2	-0.007981213
58	0xbd0cb452	-0.034351654
59	0xbc581436	-0.013188412
60	0x3cbeeceb	0.02330633
61	0x3c4aabe5	0.012370084
62	0x3b93a9fe	0.0045063486
63	0x3cd53b01	0.026029112
64	0xbcede238	-0.029038534
65	0xbd3b2019	-0.045684908
66	0xbd3eef8e	-0.046615176
67	0xba8a5a34	-0.0010555447
68	0x3c59ceca	0.013293931
69	0x3cfe970e	0.031077888
70	0x3c043d7c	0.0080713
71	0x3b25a25f	0.0025273783
72	0x3c430834	0.011903811
73	0x3ad5d28c	0.0016313358
74	0x3bba9cdd	0.005694969
75	0x3cba9f1d	0.02278095
76	0x3c649361	0.0139511535
77	0xbc8406bc	-0.016116492
78	0xbc270d04	-0.010195974
79	0xbc091382	-0.008366467
80	0x3c9929c2	0.01869667
81	0x3d14f32a	0.03636471
82	0x3d627857	0.055290546
83	0xba942f63	-0.0011305626
84	0xbbbdc59e	-0.00579138
85	0x3b278394	0.0025560604
86	0xbcc44ee4	-0.0239634
87	0x3ba4223e	0.005008965
88	0x3c67541c	0.014119174
89	0xbc5b8b34	-0.013399888
90	0x3c3db16b	0.011577944
91	0x3d68fee0	0.056883693
92	0x3c83b6ce	0.016078379
93	0xb9f6b86c	-0.0004705818
94	0x3c506e5a	0.012721622
95	0x3b9602a0	0.0045779496
96	0x3ce3abfd	0.027791971
97	0x3c8d83d5	0.017274776
98	0xbca3e325	-0.020005772
99	0x3d2213ed	0.039569784
100	0x3ba9755c	0.005171461
101	0xbcf81f31	-0.03028831
102	0x3cdab517	0.026697678
103	0x3b7a9fa4	0.0038242126
104	0x3ca1c168	0.019745544
105	0x3ba0a15f	0.0049020494
106	0x3be89ef1	0.0070990254
107	0xbc8db016	-0.017295878
108	0x3ce9d02d	0.028541649
109	0x3b88efd9	0.0041789827
110	0xbae46822	-0.0017426054
111	0x3d14b559	0.03630576
112	0x3d2281d0	0.03967458
113	0x3c1ff0a6	0.009761965
114	0x3cd3ceaf	0.02585539
115	0x3c090990	0.008364096
116	0xbb2df302	-0.002654255
117	0x3d2bb696	0.041922174
118	0x3c501883	0.012701157
119	0x3d217349	0.039416585
120	0x3d7f926d	0.062395502
121	0xbc2517c4	-0.010076467
122	0x3abb61bd	0.0014296096
123	0x3d08b1d2	0.033372708
124	0x3c18aaee	0.009318097
125	0x3c001453	0.007817346
126	0x3d0a624e	0.033785157
127	0xbcce3ffa	-0.02517699
128	0xbd00ebdd	-0.031474937
129	0x3b23cee9	0.0024995154
130	0x3caf8a41	0.02142823
131	0x3c51e0a3	0.012809905
132	0x3d0d43b4	0.034488395
133	0xb92f5461	-0.00016720734
134	0x3d11ada5	0.03556599
135	0x3d79836a	0.06091634
136	0x3d47dd6f	0.04879516
137	0x3c24bd2c	0.010054868
138	0x3cf2d3de	0.029642042
139	0x3cd47e8d	0.02593925
140	0xbc5e7b30	-0.013579175
141	0x3d3006e9	0.04297534
142	0xba10fab5	-0.00055305223
143	0x3d2d7279	0.042345498
144	0xbc06d03d	-0.008228359
145	0x3b627524	0.0034554685
146	0x3c39bdf1	0.0113367895
147	0x3d79cb89	0.060985122
148	0x3d68ac8f	0.05680519
149	0x3c8bde34	0.017073728
150	0xbd66f5e7	-0.056386854
151	0xbc879603	-0.016551023
152	0x3d399259	0.045305584
153	0x3cc78ab6	0.024358135
154	0x3c84e9ae	0.016224708
155	0xbd09181b	-0.033470254
156	0xbce7e81a	-0.028308917
157	0xbb23002d	-0.002487193
158	0xbd59f80f	-0.053215083
159	0xbb4abf7f	-0.0030936894
160	0x3ca18167	0.019715024
161	0x3cf23534	0.029566385
162	0x3d309b32	0.043116756
163	0x3d8c89dc	0.06862232
164	0x3d484060	0.048889518
165	0x3be7c70f	0.00707329
166	0x3cf223e6	0.029558133
167	0xbcbb5488	-0.022867456
168	0x3b5601f2	0.0032654968
169	0x3c38689f	0.011255412
170	0x3c45dc7b	0.012076492
171	0x3c83b863	0.016079133
172	0x3b089bec	0.002084489
173	0x3b3b30cd	0.0028563023
174	0x3d5930e4	0.05302514
175	0x3baec720	0.005333796
176	0x3d01a9ca	0.031656064
177	0x3c0062cf	0.007836058
178	0x3b92c20d	0.004478699
179	0x3d0b62b6	0.034029685
180	0xbcc164b9	-0.023607599
181	0xbcaa81af	-0.020813791
182	0x3cbd6a29	0.02312191
183	0x3cf7c06d	0.030243123
184	0xbc10c595	-0.00883617
185	0x3cf63069	0.03005238
186	0x3c0447af	0.008073731
187	0xbc8e742a	-0.017389376
188	0xbb91d8b7	-0.0044508833
189	0xbc4f4887	-0.012651569
190	0xbc89f7c9	-0.016841786
191	0xbc8d9be2	-0.017286245
192	0xbcd4e545	-0.02598823
193	0x3cc5ae51	0.024130972
194	0xbc80b7e9	-0.015712695
195	0x3c3f90ea	0.011692265
196	0x3c408a79	0.011751764
197	0x3c78b5e8	0.015180089
198	0xbd512704	-0.0510626
199	0xbd09ba00	-0.03362465
200	0x3c3846c0	0.011247337
201	0xbb8a5066	-0.00422101
202	0xbce2c5b8	-0.02768217
203	0xbbcbeeed	-0.0062235505
204	0xbc4bc0c4	-0.012436096
205	0x3cbe464c	0.02322688
206	0x3d64d30e	0.05586534
207	0xbca84bf9	-0.02054404
208	0x3c6f0c5d	0.01459035
209	0xbcfa7bde	-0.030576643
210	0xbbd190a4	-0.0063954163
211	0x3d78c3de	0.06073367
212	0x3cf8420a	0.030304927
213	0xbab6750a	-0.0013920378
214	0xba3f194a	-0.000728984
215	0xbc57854c	-0.013154339
216	0xbc1acb2d	-0.009447855
217	0xbc8c8278	-0.017152056
218	0xbd1ba889	-0.038002525
219	0x3ade5194	0.0016961568
220	0x3d0dfc73	0.034664582
221	0xbd05f90f	-0.032708224
222	0xba9d13b4	-0.0011984021
223	0xbb4c9bb9	-0.0031220748
224	0x3b5516ee	0.0032514888
225	0xbc18292b	-0.009287159
226	0xbd8384c0	-0.064218044
227	0x3ba65c0d	0.0050768913
228	0x3c54d748	0.01299078
229	0x3c46886a	0.012117485
230	0x3d2a3d69	0.04156247
231	0x3c5f161d	0.013616112
232	0x3c8f9ca3	0.017530745
233	0xbc1662b7	-0.009178809
234	0x3b9f004f	0.0048523317
235	0x3d2f1eee	0.042754106
236	0x3cf02d6e	0.029318538
237	0x3cc6d286	0.024270307
238	0x3caacfd3	0.020851051
239	0xbc3e80c7	-0.011627383
240	0xbacc45c2	-0.0015584754
241	0x3c964f6d	0.01834842
242	0xbc01e7f5	-0.007928838
243	0x3d0d3bf4	0.034481004
244	0xbc980272	-0.018555854
245	0x3c6f4ec1	0.014606179
246	0x3c9c5735	0.019084552
247	0xbc52edaa	-0.012874046
248	0xbd010312	-0.03149707
249	0x3ce2877b	0.027652493
250	0xbbe16611	-0.0068786223
251	0x3b641748	0.0034803916
252	0x3c89d93d	0.01682722
253	0x3d1a49dc	0.037668094
254	0xbca4f37f	-0.02013564
255	0xbbf8b504	-0.007589938

body.block2.conv.bias f4 [64]
0	0x3ced9303	0.029000765
1	0xbc813e00	-0.015776634
2	0x3b8f59a0	0.004374698
3	0x3cb014b7	0.021494253
4	0x3c85c7ef	0.016330687
5	0xbc9d8756	-0.019229572
6	0x3bf502c2	0.0074771354
7	0xbd08e6d7	-0.03342327
8	0x3d053bd9	0.03252778
9	0x3d0a26cf	0.033728417
10	0x3b01eae6	0.0019823848
11	0xbcaee8d4	-0.021351255
12	0xbc0049c5	-0.007830088
13	0xbcc5bf99	-0.024139212
14	0xbc9623e0	-0.018327653
15	0x3c9baf79	0.01900457
16	0x3d1c16d8	0.038107723
17	0x3ce2b385	0.027673492
18	0xbd0bd605	-0.03413965
19	0x3d0fb3cd	0.03508358
20	0x3c96f6d4	0.018428244
21	0x3c91150a	0.017710228
22	0x3c1c040f	0.009522452
23	0xbd1a9ea7	-0.03774896
24	0x3cfc3517	0.030787034
25	0x3c3a65ad	0.01137678
26	0x3cebc35f	0.028779684
27	0x3d0746d7	0.033026543
28	0xbca88f7e	-0.020576235
29	0xbcff2a10	-0.031147987
30	0xbcfe2b8a	-0.03102662
31	0x3d0f4630	0.034979045
32	0x3c19be12	0.009383695
33	0x3d24f281	0.040270332
34	0x3ce611d1	0.028084667
35	0xbb975a6e	-0.0046189344
36	0x3c9a8ce3	0.018866008
37	0x3d24a2da	0.04019437
38	0x3c1784fc	0.009248015
39	0xbd0a1a74	-0.033716634
40	0xbcdc9ccd	-0.026930237
41	0x3d2b0ca8	0.041760117
42	0x3d04c3f0	0.032413423
43	0xbcd6f04f	-0.026237635
44	0x3cf37255	0.029717604
45	0x3d1110a7	0.03541627
46	0xbc41ec1f	-0.011836081
47	0xbc5df3e8	-0.013546921
48	0x3d25d794	0.040488794
49	0xbc053906	-0.008131271
50	0x3ba6d271	0.0050910045
51	0x3a5947fb	0.0008288619
52	0xbd1254cd	-0.035725404
53	0xbc7f871b	-0.0155961765
54	0x3c9d9ae4	0.019238897
55	0x3c28c062	0.010299774
56	0x3bcef1d0	0.0063154474
57	0xbc28826d	-0.010285002
58	0xbca2e6d7	-0.019885464
59	0x3ccf254e	0.025286343
60	0x3c7164cd	0.014733505
61	0xbc156465	-0.009118174
62	0xbc4fcc67	-0.012683011
63	0xbcb311c4	-0.021859057

body.block2.norm.weight f4 [64]
0	0x3f7d34ae	0.9890851
1	0x3f6dabb7	0.9284014
2	0x3f78c78d	0.9717949
3	0x3f8d2225	1.1026045
4	0x3f6f42d6	0.9346136
5	0x3fa20217	1.2656888
6	0x3f733ad6	0.9501165
7	0x3f74d634	0.9563935
8	0x3f7c0724	0.98448396
9	0x3f744495	0.9541715
10	0x3f6f5b63	0.9349882
11	0x3f79a021	0.9750996
12	0x3f81273a	1.0090096
13	0x3f6fef46	0.9372448
14	0x3f895619	1.07294
15	0x3f7efc22	0.99603474
16	0x3f71e382	0.94487774
17	0x3f7bf3b2	0.98418725
18	0x3f81150a	1.0084546
19	0x3f78ce20	0.9718952
20	0x3f770937	0.96498436
21	0x3f77e6be	0.9683646
22	0x3f8b90fb	1.090362
23	0x3f7c33e0	0.98516655
24	0x3f83f4d9	1.0309097
25	0x3f84d355	1.0376993
26	0x3f80eaf2	1.00717
27	0x3f8b11ef	1.0864848
28	0x3f77b58d	0.967614
29	0x3f76b131	0.9636412
30	0x3f79a817	0.9752211
31	0x3f7c348a	0.9851767
32	0x3f7b92f2	0.98271096
33	0x3f74a24d	0.9556015
34	0x3f781277	0.96903175
35	0x3f8138be	1.0095441
36	0x3f753d77	0.9579691
37	0x3f82f378	1.0230551
38	0x3f7f65e0	0.99764824
39	0x3f798d0b	0.9748084
40	0x3f7f459b	0.99715585
41	0x3f7b3a6a	0.9813601
42	0x3f87fe4b	1.0624479
43	0x3f75ecce	0.9606446
44	0x3f7952bd	0.97391874
45	0x3f80eb80	1.0071869
46	0x3f83a91a	1.0285981
47	0x3f89be8e	1.0761278
48	0x3f877049	1.0581142
49	0x3f761434	0.9612458
50	0x3f79ccaf	0.9757795
51	0x3f7c5a95	0.9857572
52	0x3f7c3d8d	0.9853142
53	0x3f754fd3	0.9582493
54	0x3f7c398c	0.9852531
55	0x3f6cb29c	0.92460036
56	0x3f81959d	1.0123783
57	0x3f6709ee	0.90249527
58	0x3f796477	0.9741892
59	0x3f7cc985	0.98744994
60	0x3f86a472	1.0518935
61	0x3f9b239d	1.2120243
62	0x3f84f657	1.0387677
63	0x3f8383b7	1.0274571

body.block2.norm.bias f4 [64]
0	0xbde13b77	-0.1099767
1	0xbdbb5018	-0.09146136
2	0xbd94deb5	-0.072690405
3	0x3d70c3a3	0.058780324
4	0xbdc40fbe	-0.09573315
5	0x3e41fde0	0.18944502
6	0xbdae60f4	-0.08514586
7	0xbdae9059	-0.08523626
8	0xbd84ac4c	-0.064781755
9	0xbde0bb40	-0.10973215
10	0xbda8052d	-0.08204112
11	0x3ca23267	0.019799424
12	0xbe01f658	-0.12691629
13	0xbdc1bbeb	-0.09459671
14	0xbdae1228	-0.08499557
15	0xbd8beecb	-0.068326555
16	0xbdd0b685	-0.10191063
17	0xbd947b63	-0.07250097
18	0xbda83f5a	-0.08215208
19	0xbdef0379	-0.11670584
20	0xbddda09d	-0.1082165
21	0xbe2161bb	-0.15759937
22	0x3cddcedf	0.027076183
23	0xbdfdf4b9	-0.12400193
24	0xbda50e2c	-0.08059344
25	0x3ca84c60	0.020544231
26	0xbddc6130	-0.107607245
27	0xbd5d439a	-0.054019548
28	0xbd81e3a4	-0.06342247
29	0xbdb89e59	-0.090145774
30	0xbd8da4db	-0.06916209
31	0xbda7e4cb	-0.08197936
32	0xbd4f26b5	-0.050574023
33	0xbdfa6f84	-0.12228301
34	0xbcc2bbed	-0.02377125
35	0xbce2a8dc	-0.027668409
36	0xbd699857	-0.05703005
37	0xbdbda7e7	-0.092605405
38	0xbcf5d8d1	-0.030010613
39	0xbdd71bb5	-0.105033316
40	0xbddc7b72	-0.10765733
41	0xbc8c359a	-0.017115403
42	0xbd415ffe	-0.047210686
43	0xbe076912	-0.13223675
44	0xbdce7279	-0.10080428
45	0xbd91cf10	-0.07119572
46	0xbe1c1266	-0.15241393
47	0x3d13a861	0.03604925
48	0xbdbebd69	-0.09313471
49	0xbe00e7af	-0.1258838
50	0xbdc98cf2	-0.09841336
51	0xbdceb48a	-0.10093029
52	0xbdd07ffd	-0.10180662
53	0xbe60ba6c	-0.21946114
54	0xbdd0ee9e	-0.102017626
55	0xbe4efcbf	-0.20213602
56	0xbe0b99c9	-0.13632883
57	0xbdb4ea7b	-0.08833786
58	0xbe09406b	-0.1340348
59	0xbdf3a222	-0.11896159
60	0xbd8c40bf	-0.06848287
61	0x3e81e69d	0.25371256
62	0xbdbefa76	-0.093251154
63	0xbc043abc	-0.008070644

body.block2.norm.running_mean f4 [64]
0	0x3f769825	0.96325904
1	0x3f86aca7	1.0521439
2	0x3e13a325	0.14417703
3	0xbda65dd7	-0.08123367
4	0x3ef48906	0.4776079
5	0xbe815dd2	-0.25266892
6	0x3f010f53	0.5041401
7	0x3f1bc651	0.6084948
8	0xbf60cc46	-0.87811697
9	0x3fa9bc36	1.3260562
10	0x3f3d0423	0.7383444
11	0xbb838d5a	-0.004014653
12	0xbdec813f	-0.11548089
13	0x3e3cdb77	0.18443094
14	0x3efb8870	0.4912753
15	0xbe9590f5	-0.29212156
16	0x3ee10c90	0.43954897
17	0xbe24ea6d	-0.16105051
18	0x3f499351	0.7874041
19	0x3e977f7e	0.29589456
20	0x3f2d59f3	0.67715377
21	0x3f6422b8	0.89115477
22	0xbf02f7f1	-0.5115958
23	0x3f48bf8a	0.78417265
24	0x3ea3bb17	0.31978676
25	0xbaa0d521	-0.0012270549
26	0x3f5a667b	0.8531262
27	0xbf45444f	-0.77057356
28	0xbef36eb7	-0.47545406
29	0x3f203179	0.6257549
30	0x3f93b8dd	1.1540791
31	0x3f3109e8	0.6915574
32	0xbf8c80ec	-1.0976844
33	0x3f039e6e	0.5141362
34	0xbf5a3666	-0.85239255
35	0x3e9be3fb	0.30447373
36	0x3f351950	0.7074175
37	0x3f31ed43	0.6950266
38	0x3c843b62	0.016141597
39	0xbcc9d76c	-0.024638854
40	0x3f2877a4	0.6580756
41	0xbf28c077	-0.6591868
42	0x3fb921f9	1.4463493
43	0xbe26bfd9	-0.16284122
44	0x3e84dbe9	0.25949028
45	0x3f323e02	0.69625866
46	0x3f6f8cf6	0.93574464
47	0x3e4815b0	0.19539523
48	0x3f426fda	0.7595192
49	0x3e4e968f	0.20174621
50	0xbe4fb449	-0.20283617
51	0x3eaed448	0.34146333
52	0xbd9c6e37	-0.07638209
53	0x3e555a5f	0.20835255
54	0xbe0a0a83	-0.13480572
55	0x3f2202bd	0.6328543
56	0x3f73abb8	0.95183897
57	0x3f554428	0.83307123
58	0x3f663df1	0.89938265
59	0x3f6afce1	0.9179211
60	0xbee188c3	-0.44049653
61	0xbe9fdf8a	-0.31225234
62	0x3f037563	0.5135099
63	0xbed33b61	-0.4125624

body.block2.norm.running_var f4 [64]
0	0x3f1066ae	0.56406677
1	0x40dc4c73	6.884332
2	0x3f3a651d	0.72810537
3	0x3d6e4a36	0.05817624
4	0x3ed2b094	0.41150343
5	0x3e00ff59	0.12597407
6	0x4098823c	4.7658978
7	0x4034e468	2.8264408
8	0x40c4b241	6.1467595
9	0x3ff9840c	1.9493423
10	0x40a2f520	5.0924225
11	0x40f38d3e	7.6109915
12	0x40806cd4	4.0132847
13	0x4098f123	4.7794356
14	0x3e9a1556	0.30094403
15	0x3f7d766c	0.9900882
16	0x408c2398	4.379345
17	0x406a8b70	3.6647606
18	0x3f14cf61	0.58128935
19	0x3ea878a5	0.32904544
20	0x3f40937e	0.75225055
21	0x4087ef6c	4.2479763
22	0x3f0b2289	0.5434957
23	0x4073f3d8	3.811758
24	0x3e89a605	0.26884475
25	0x3e34be76	0.1765078
26	0x400a171d	2.1576607
27	0x3f6ad486	0.91730535
28	0x3fcd02ce	1.6016481
29	0x404017fe	3.0014644
30	0x4041df3d	3.0292504
31	0x40620b2e	3.5319324
32	0x41064532	8.391893
33	0x408ca0f2	4.3946466
34	0x40cc46ce	6.383643
35	0x3e9a53f0	0.30142164
36	0x40907e92	4.5154505
37	0x40d17dda	6.5466127
38	0x409cb419	4.8969846
39	0x408de8f1	4.434685
40	0x3f9bdebc	1.2177348
41	0x402ad520	2.669258
42	0x3f1c0291	0.60941416
43	0x3e8cfaf9	0.27535227
44	0x3efcace3	0.49350652
45	0x409c14ff	4.877563
46	0x3f828906	1.0198066
47	0x3f5ab5f4	0.8543389
48	0x3eba43ff	0.36380002
49	0x3ea9333f	0.3304691
50	0x3e9bafc8	0.30407548
51	0x40231f18	2.5487728
52	0x40b57f1f	5.6717677
53	0x3f189748	0.59605837
54	0x3f25d139	0.64772373
55	0x4087b247	4.2405124
56	0x40c07f77	6.0155597
57	0x40b09bb9	5.519009
58	0x4094e857	4.653362
59	0x3fd8606f	1.6904429
60	0x3e32bd20	0.17454958
61	0x3de47ad1	0.11156238
62	0x3ff21c8e	1.8914964
63	0x400225e6	2.0335631
