code/Output/lightning1/pdl_e8000_1px_lr0.0001a5.0_up-conv5_1_W[1.0, 0.5, 0.1, 0.075, 0.075]/0/netG.pth (torch, 130353 bytes, 26 tensors)

head.conv.weight f4 [32, 3, 3, 3]
00000000: a14c c03b 66cc 243d ae17 28bc ba48 7d3c
00000010: b88e cebc 7afe ce3b cfbf 74bc 5c1b 95bc
00000020: 0d42 f43c aeaa c0bc 346c 14bd db1a 53bc
00000030: b612 5dbb 1a61 8d3c 14cf eebc c031 103d
00000040: fe3a 84bc 763f 073d e2d6 923c 6cf6 6fbb
00000050: 538c bc3c 582f 42bc 0336 063c 245d ba3c
00000060: d3c6 0abc 4136 cdbc b1e7 873d 3f1b 15bc
00000070: b3fc b63b c0de e1bc 8f24 3bbd 34dd c0bc
00000080: f034 893c 14be 1b3d 4c47 083c 9183 9e3b
00000090: 0f7c ddbc da36 6b3c ade4 f43c 7bd3 bbbc
000000a0: a48d dc3c 721d ca3a 2aac 393c c5b6 f3bb
000000b0: 7e32 423b e466 e6bb c70a a0bc 06ad 02bb
000000c0: 6fbd 85bc fa26 20bb 94fd 8fbc f57d 8f3c
000000d0: 53de afba e3be f9bb 7ca8 5c3c db42 d3bc
000000e0: 03cc 8fbb d337 acbb 2d76 263c d63e 44bc
000000f0: 10f2 143d 8759 b2bc 0bb0 5cb9 3170 7abc
00000100: 3c93 be3c 2e53 9fbc de52 993c ba72 c8bc
00000110: c047 11bc ce8d b23c 1ec6 63bb 2dc3 2bb8
00000120: a34c 013a 867c 3f3d 6575 493b 2ce9 203d
00000130: dfe3 b3bc 3943 913c be56 1b3b 3e71 1f3c
00000140: 3185 89bc f3ff 76bc 0859 05bd 9dfc f5bb
00000150: 14ba 15bc fd31 5fbc 884f c33a 6116 263c
00000160: e6db 313c 22ab d7bc ed21 d2bb 8cbb 4dbc
00000170: a851 d6bc 2662 59bc 1c8c 76bb d80e f73a
00000180: c354 583c e3b1 af3b 0cb6 aa3c 485c 6fbc
00000190: 7b83 51bd 188d 343b 788b df3c ac0f a53c
000001a0: ac44 c8ba 4380 cabc 2b4f 6abc c3f0 b43b
000001b0: c978 c0bb ec97 bbb9 8545 59bc 0107 39bd
000001c0: b210 233c 461c 42bc 8039 e5b9 860e f43a
000001d0: 406d e8bc f07a b43b 570a 543c 2ed6 ec3b
000001e0: 687f a23c 7142 d1bb 14dc 44bc 2ffd c8bb
000001f0: aaee 8cbc 1549 3dbd 6d94 5139 1a2e 57bc
00000200: db87 cc3b 0520 c83c 786b 97bb cbfb c13c
00000210: 4793 d23c b6c1 dcbc 0162 11bd c774 c23c
00000220: 4595 653d b10c 92bc 1b6d a03c 6beb 7d3a
00000230: d2ef 073c f93f 7c3b dd5f 963c d827 51bd
00000240: 5fee bebc 35eb 483d 7f12 f0bb f5b5 93ba
00000250: 51a7 03bc 20d3 0bbd eb1d 5e3c ab4e 523c
00000260: 5b0e bdbc 5444 053d e5c7 f63c b278 64bc
00000270: 13ae 8aba b48b 9bbc 49d1 39bb c4a6 89bc
00000280: 1e60 9cbc c762 2bbc 3789 003a 5a81 7d3c
00000290: 1e11 363c 14f4 963c fe30 9fbc bab8 113d
000002a0: b39b b2bc 417e 4dbb f978 04bb 6d67 afbb
000002b0: 8814 643b 57a4 10bd 4f66 053c 9dc8 84bc
000002c0: 3b10 4abc 18d7 d2bc 4e29 0cbd 13e8 d8bc
000002d0: b241 0fbc a67f 803c af78 8dbc a8c6 023c
000002e0: b8b9 0bbd e0b4 533b c4d6 3c3c 47c4 0f3c
000002f0: a6ee 20bc 1e4e 273a 2406 4dbc 0578 00bd
00000300: 7fc8 c53b 4793 f03a fea7 343c 2d16 72bc
00000310: aacd 073c 52ed 9bbc 8907 353c c8ce 3f3d
00000320: e84c c53a 48ed 843c 438e b03c 1900 8e3c
00000330: 5908 07bb de22 253c 6abb a2bc 2d4d 3f3c
00000340: dcb4 973c e2f7 933b aaba 61bb 4c0c bb3c
00000350: 823f 12bc 97a6 693b c42f 423d 0f69 3bbc
00000360: 60e9 293c 4270 603c 4c56 0dbd fdf8 1b3a
00000370: 8b57 07bd e01d d0bb 669c c0bb dad3 303d
00000380: c606 3b3c d583 de3c a770 13bc c923 99bb
00000390: f280 6b3a 5537 2ebd 7ff5 093b 298a 92ba
000003a0: 1aff beba 189e cebc 315e 9f3b 9125 fa3c
000003b0: 5bef 0d3d 3715 073c 1be2 abbb 10d4 6cbc
000003c0: 6a27 1bbd 2646 28bc 9bb7 ad3c c94b 853b
000003d0: 3c41 edbb 55d3 a23a 78fd 1fbd 9403 8b39
000003e0: 645d 1fbb 9dc5 54bc b927 41bc 1f7d d9bb
000003f0: 9f71 23ba a0b5 6ebc c6f0 833c 4b5b 5bbd
0.00586851 0.040233992 -0.010259552 0.015459234 -0.025214538 0.006316957 -0.014938309 -0.018201523
0.029816652 -0.023518886 -0.036236003 -0.012884821 -0.0033733076 0.017258216 -0.029151477 0.035203695
-0.01614141 0.033019505 0.01792473 -0.0036615385 0.02301613 -0.011852108 0.008191588 0.022749491
-0.008470255 -0.025050284 0.066359885 -0.009100734 0.0055843233 -0.027572036 -0.045689162 -0.023542978
0.016748875 0.03802307 0.00831778 0.0048374613 -0.027036695 0.014356339 0.029894197 -0.02292799
0.026923008 0.0015420152 0.011332551 -0.0074375593 0.0029632146 -0.0070313085 -0.019536389 -0.0019939556
-0.01632568 -0.0024437294 -0.01757697 0.017516116 -0.0013417698 -0.0076216324 0.013467904 -0.025788715
-0.0043883338 -0.005255678 0.010160011 -0.011977872 0.03636366 -0.021771206 -0.00021046416 -0.015285538
0.023263566 -0.019448843 0.018716272 -0.024468768 -0.008867204 0.021796133 -0.0034755538 -4.095135e-05
0.0004932379 0.046749614 0.0030740139 0.03928487 -0.021959243 0.01773225 0.0023702825 0.009731589
-0.016787143 -0.0150756715 -0.03255561 -0.0075069205 -0.009138603 -0.013622758 0.0014901021 0.0101371715
0.0108556505 -0.02632672 -0.0064127357 -0.012556922 -0.026161984 -0.013268029 -0.0037620133 0.0018849028
0.0132038025 0.005361782 0.02083876 -0.014609404 -0.05115078 0.0027549919 0.027288184 0.020149074
-0.0015279255 -0.024719363 -0.014301102 0.005521865 -0.0058737737 -0.0003578061 -0.013261204 -0.045172695
0.009952711 -0.011847561 -0.00043721125 0.0018620051 -0.028372407 0.0055078194 0.012941918 0.0072276806
0.019836143 -0.0063860943 -0.012015361 -0.0061336975 -0.017203648 -0.046212275 0.00019987086 -0.01313355
0.006241781 0.02442933 -0.0046209656 0.023679635 0.025704993 -0.026947837 -0.035493854 0.023737324
0.056050558 -0.017828317 0.019583276 0.0009686264 0.008296924 0.003849028 0.018356258 -0.05106339
-0.023307024 0.049052436 -0.0073264237 -0.0011269437 -0.008035497 -0.03413689 0.013556938 0.012836139
-0.023078134 0.032535866 0.030124614 -0.013944792 -0.0010580443 -0.018987514 -0.0028353503 -0.016803153
-0.019088801 -0.010460562 0.0004903259 0.015472734 0.0111124795 0.018426932 -0.019432541 0.03557656
-0.021802759 -0.003135577 -0.0020213707 -0.0053529055 0.0034802277 -0.035312977 0.008142068 -0.016208941
-0.012332971 -0.02573733 -0.03421908 -0.02647785 -0.00874369 0.015685868 -0.01726946 0.007981934
-0.034112662 0.0032303855 0.0115258135 0.0087748235 -0.009822523 0.0006382185 -0.012513671 -0.03136446
0.006035864 0.0018354439 0.011026381 -0.014775795 0.00828878 -0.019034062 0.01104916 0.04682806
0.0015052827 0.016226426 0.02155221 0.017334031 -0.002060434 0.010079114 -0.019864757 0.011676115
0.018518858 0.004515634 -0.0034443536 0.022833012 -0.008926274 0.0035652274 0.047408834 -0.011438622
0.010370582 0.013698639 -0.034506127 0.0005949883 -0.03304247 -0.0063512176 -0.005878019 0.043170787
0.011415189 0.027162472 -0.008999026 -0.0046734554 0.0008983753 -0.042533237 0.0021050868 -0.0011180091
-0.0014571876 -0.02522187 0.0048635234 0.030535491 0.034652095 0.008244804 -0.0052454597 -0.0144548565
-0.037879385 -0.010270631 0.021205714 0.004067872 -0.0072404426 0.0012422601 -0.039060086 0.00026514812
-0.002431714 -0.012986568 -0.011789256 -0.00663723 -0.00062348874 -0.01456967 0.01610602 -0.05355386

head.conv.bias f4 [32]
00000000: db87 0e3e 25a1 ab3d 3611 323e 66e1 eabd
00000010: 7e7f 18bd 949c 1abe 4f2b 6f3c 404b af3d
00000020: 059e 70bd 2b4f 70bd 9160 3c3e 1c1f 9d3d
00000030: 0ad0 983d a68c 8f3d 17c0 243c 2b26 10be
00000040: 8054 af3d a05c 0ebd 6f62 d13d ea8e 9e3c
00000050: a0f3 4b3e 2bc1 b33d 732a 2d3d ab7b 303d
00000060: b097 1bbb 5868 b73d b554 8dbd 52c5 f7bc
00000070: 0f06 b5ba c972 393e 0558 923d abf3 a03c
0.13919012 0.08380345 0.17389378 -0.114687726 -0.03723096 -0.15098792 0.014597728 0.08559275
-0.05874445 -0.05866925 0.18396212 0.07671949 0.07461555 0.070092484 0.010055563 -0.1407706
0.08561039 -0.034756303 0.10223853 0.019355256 0.19917154 0.08777078 0.04227681 0.04308669
-0.0023741536 0.08955449 -0.06900922 -0.030245457 -0.001381101 0.18110193 0.07145695 0.01964744

head.norm.weight f4 [32]
00000000: 133f 853f 90b5 833f 839b 7e3f 0695 823f
00000010: c7df 833f 0640 783f 35d9 7d3f 066b 7f3f
00000020: efb8 7f3f bb62 7b3f c260 7f3f ad70 793f
00000030: 0580 7c3f 201e 773f 1042 7d3f 0e95 7e3f
00000040: 2ac4 793f b307 813f 945b 803f c615 833f
00000050: 5ec3 793f c000 803f 29a2 793f 198a 7c3f
00000060: 58a3 813f 7208 7c3f 40a0 763f 1f65 7a3f
00000070: a445 823f 863a 813f aa76 7a3f 25fc 783f
1.0409874 1.0289783 0.9945604 1.0201728 1.0302666 0.9697269 0.99159557 0.9977268
0.9989156 0.98197526 0.99757016 0.97437555 0.9863284 0.9653034 0.9892893 0.9944619
0.9756495 1.0080475 1.0027947 1.024102 0.9756373 1.0000229 0.9751306 0.9864822
1.0127974 0.98450387 0.9633827 0.9781055 1.0177503 1.0095985 0.97837317 0.9725974

head.norm.bias f4 [32]
00000000: 54e2 99bb e841 0f3c 8873 ebbc 2f4e 3bbc
00000010: a8dc 32bc 48b5 74bc 13d8 67bb 37ad d6bc
00000020: 9da6 68b9 33aa 74bc 784f d8bb b5b5 0cbd
00000030: 4baf 80bc 2d41 c7bc 685e 40bc fbd2 5ebb
00000040: 754e 72bc e7a8 b03a c94d 66bc 2d3c 0ebc
00000050: 4521 5db8 7423 013c 7960 5cbc adc9 1cbd
00000060: 199e 74bb 0163 48bc cc4f 98ba ea2a a2bb
00000070: e908 0fbc 41cb 9bbc d609 99bc 7458 a33a
-0.00469617 0.008743741 -0.028741613 -0.011432215 -0.010916866 -0.014935799 -0.0035376593 -0.026205642
-0.00022187312 -0.014933157 -0.0066012703 -0.034352977 -0.015708586 -0.02432307 -0.011741258 -0.0034000266
-0.014789213 0.0013478071 -0.014056631 -0.008681339 -5.272149e-05 0.007881988 -0.013450735 -0.03827827
-0.003732568 -0.012230636 -0.0011620461 -0.0049489634 -0.008730152 -0.019017817 -0.018681448 0.0012462274

head.norm.running_mean f4 [32]
00000000: 3be1 0f3e 69b1 a93d 961a 333e 43e4 efbd
00000010: 0065 21bd f049 1abe ada3 4c3c 55c7 b33d
00000020: 301f 72bd 9185 77bd 64a0 3d3e d5f3 953d
00000030: 4f8a 9a3d bd2a 903d 82db e83b e3e6 0cbe
00000040: 1bc7 b03d 9dce 0cbd 6fa3 cd3d d12f a83c
00000050: 5eb6 4c3e 5dba b43d f7a7 293d b042 3c3d
00000060: 13ba a4bb eced b63d f3b2 89bd 476c 01bd
00000070: e4dd 85ba 36fb 363e dab2 903d 5cd9 b83c
0.14050762 0.082857914 0.1749061 -0.11713459 -0.03940296 -0.15067267 0.012490195 0.08778254
-0.059111774 -0.060430113 0.18518215 0.07321898 0.075459115 0.07039402 0.0071062455 -0.13759951
0.08631726 -0.03437673 0.10040938 0.020530613 0.19991443 0.088246085 0.04141995 0.045962036
-0.0050270646 0.08932099 -0.06723585 -0.031597402 -0.0010213223 0.17869267 0.07065363 0.022564583

head.norm.running_var f4 [32]
00000000: c98c 3e3c a41b 003c e6e6 cb3b e6c4 dc3b
00000010: 4945 083c 89dc 8d3c f5c6 f93b 0a30 033c
00000020: 44f3 f73b 88e2 883c 132e 023c 9690 0e3c
00000030: 713b 183c de50 923b d718 013c 7be4 3a3c
00000040: d0e7 c13b 941f d93b 49fd 043c 4d13 653c
00000050: ecef 7b3c 2240 2a3c 9a02 a13b 6a1b 323c
00000060: e96a 203c 2d3c e63b 41fc b93b fb03 e53b
00000070: 9413 d03b b339 a23c 97bb f43b 0062 003c
0.0116302455 0.00781909 0.0062225936 0.0067373393 0.0083173 0.017317073 0.0076225945 0.008007059
0.0075668413 0.016709581 0.007945555 0.008701464 0.009291516 0.0044652065 0.007879457 0.011407013
0.005917527 0.006626079 0.0081170285 0.013981652 0.015377026 0.010391267 0.00491364 0.010870794
0.009791114 0.0070262165 0.005675823 0.006989 0.00634999 0.019802904 0.0074686515 0.007835865

body.block1.conv.weight f4 [32, 32, 3, 3]
00000000: 8c3c 5fbc 5495 b13c e365 af3c 6cb2 2bbc
00000010: 3672 2f3c 3e9b 003b aa48 8b3b 24e4 2cbc
00000020: ec84 bdbb 961b b3ba 47f4 ae3c 3c44 e03c
00000030: 8792 11ba c957 45bc b285 febb d0f7 673c
00000040: d1d5 07bd 1150 b6bc 9aa1 0c3b bdfb 70bb
00000050: 655f 0e3d f4bd 903c 9a1a 8bba 20a6 dcbc
00000060: fbe6 7a3c c257 1d3b 38fc 193d 4de7 a03b
00000070: 49ac 0c3c 0bdc cd3c adf5 1a3c 1811 f6ba
00000080: 83b7 e33c 4ba2 e63c e5a1 09bd 8c31 01bc
00000090: 036b c0bb 870e d9bb 79f8 973b 6216 433c
000000a0: c6a1 9bba 238a d53b 4079 8f3b afb4 9d3c
000000b0: e86c 7cbb bf99 86bc bb3c 2fbd b038 433b
000000c0: 87cd bf3b d49c 763a 1819 50bc ef65 013c
000000d0: cecb 193c 9eb1 05bd c4a9 d2bc dd8e 873a
000000e0: 89da 363d 86ba e8bc 0248 5c3c 5be9 35bc
000000f0: 74f1 1f38 5276 293c 0ab8 33bc 8144 e53a
00000100: 400c de3c 60ae ecbc 0c35 ab3c c408 273d
00000110: 8053 46ba c135 dfbb 3a6a aabc b795 bc3b
00000120: c339 e9bb f733 06bd ad0b 2e3b aba6 6aba
00000130: 3b79 e0bc 39ab 1fbd e680 6f3c 4ce2 0cbb
00000140: 6128 68ba ba3c d43b 9e7a fe3a 4d35 813b
00000150: 9a10 0c3d f5bd 213c c757 9abb 2333 f1bb
00000160: 0d11 5f3c 6aec 943b 7b44 6b3c 81a2 9b3c
00000170: be41 a63c 3576 e4bb b3a3 cb3c 955f 5d3c
00000180: 29ca 98ba 7f64 2abc b0bc 663c 083d 68bc
00000190: dafa 6a3c 4680 dcbc 4672 94bc d540 4a3b
000001a0: fd60 dbbb 7351 593c a054 983c bc03 72bb
000001b0: abe8 de3b f729 fdbb 2374 aa3c faee 423d
000001c0: 248c 6d3c a69a b23c 49fe 0e3d 0a8f 9ebb
000001d0: be29 c6bc eaae 263c d26e 5d3c 04f6 60bb
000001e0: 0d5e 1d3d 735a 8d3c 6552 ad3c 5945 233c
000001f0: 91f1 503a c58b f43b b78c 75bc c04d eabc
00000200: c6e9 3d3c b820 cb3b 2baf f3bc 523c 7eb8
00000210: 0a2a 8cbc c0c3 46bc e043 e8bb 9564 a5bb
00000220: 272f 1dbc f19e 18bb 1f9d b23c 66be a1ba
00000230: 46f1 b33c 8ab2 e43a 7ec1 77bc cdae ab3c
00000240: 41a2 12bc 01f1 cdbc f601 b63b 0dfc 53bb
00000250: 2fd0 243d 3392 ffbc 6824 69bc 9ddc 033d
00000260: 5b8d 383d 7d97 9c3b 9bee bc3c f998 6dba
00000270: eac3 353b f670 9cbb 4c8d 643b 6652 4f3d
00000280: e1e4 9dbc 7dca cc3a dc79 30bd aeb3 b33c
00000290: 645b a03a b5df cbbc 44b6 283d f5a1 09bd
000002a0: e2c8 683c a8de 0fbc ea0e 0bbc ba86 253c
000002b0: 33f5 07bc 44ab cabc ecd7 54bb c0fa 1fbc
000002c0: 0967 f43b 897c e83c a96a 163c e137 f63c
000002d0: 2729 0f3d 7651 1ebd 1772 a33c 19a1 583b
000002e0: 66c0 f93b 5dec 293c 347d aa3c 9c66 863b
000002f0: 4a74 0dbd 1313 bbbc b054 8f3c d319 d53a
00000300: fa07 93bc d836 f43b 1132 273c 84cd 0a3d
00000310: f533 46bd 9d20 973a f197 e33b 94b1 bfbc
00000320: 2339 04bc 5de9 0cbb 225d 043d cf17 f33c
00000330: 90d9 933c b701 ef3c de3c 01bb 237e 9c3c
00000340: b693 963b b1c7 aebc 51f5 8c3c c9df c53c
00000350: 8b38 4abd 5c81 a3bc f712 da3b 0e92 293c
00000360: 879b 353c 2eea db3c 817d 023d 8775 fb3c
00000370: 11ef 00bc 97fc 733c bbee c93c b3ce 06bd
00000380: f424 3239 2a06 babb d7d9 84bc bae3 a43b
00000390: cc0b 5bb8 365d 693b 6d3e 273c 7bff c83c
000003a0: dc4b 7dbb ae7b ffbc a93f fd3c 65a0 573c
000003b0: f1ed 943c f0cf d33c bc84 be3c 6f6c 7a3c
000003c0: d0b5 17bc 74ed e43b 4845 963c 35df 71bc
000003d0: 424e 0dbd e216 553c 1b82 e5bb 7d60 7f3c
000003e0: cd9b 1e3c 7cb9 563c 933d 933c e0d7 47bd
000003f0: 119d e8bc 2c75 dcbc c5ce d33a 74cb 85bb
-0.013625275 0.02167765 0.021410888 -0.010479551 0.010708382 0.0019623782 0.0042506056 -0.01055244
-0.005783668 -0.0013664837 0.021356715 0.027376287 -0.00055531453 -0.012044855 -0.0077674026 0.014158204
-0.033162896 -0.022254976 0.0021458627 -0.0036771141 0.034758944 0.017668702 -0.0010612786 -0.026934683
0.015313859 0.0024008607 0.03759405 0.0049103857 0.008585998 0.025129339 0.009457988 -0.0018773405
0.027797466 0.02815356 -0.03360166 -0.007885348 -0.005872132 -0.0066240462 0.0046377745 0.011907192
-0.0011873774 0.0065167113 0.004378468 0.019251196 -0.0038517062 -0.016430734 -0.042782526 0.0029788427
0.005853358 0.00094075245 -0.012701295 0.007897838 0.00938697 -0.032640092 -0.025715716 0.0010342259
0.044642005 -0.028409254 0.013444902 -0.011103 3.8133425e-05 0.010343151 -0.010969171 0.0017491729
0.02710545 -0.028891742 0.020899318 0.040779844 -0.0007565543 -0.006811828 -0.020802606 0.005755152
-0.0071174814 -0.0327644 0.0026557252 -0.0008951227 -0.027401557 -0.03898165 0.014618134 -0.0021497188
-0.00088561146 0.0064769657 0.0019415205 0.0039431215 0.03419552 0.009871949 -0.004710171 -0.0073608323
0.013614905 0.0045447843 0.014359589 0.018998386 0.02029502 -0.006972099 0.024858331 0.013511558
-0.0011656928 -0.010399937 0.014083073 -0.014174707 0.014342034 -0.026916634 -0.018120896 0.0030861397
-0.0066949115 0.013264048 0.01859504 -0.0036928495 0.0068026385 -0.00772595 0.020807331 0.047591187
0.014498744 0.021802258 0.034910474 -0.004838829 -0.024189826 0.010173539 0.013515191 -0.0034326324
0.038419772 0.017255044 0.021157453 0.009965264 0.00079705665 0.007462951 -0.014987162 -0.028601527
0.01159138 0.0061989687 -0.029746613 -6.0614497e-05 -0.01710989 -0.012131631 -0.0070881695 -0.0050473907
-0.0095937615 -0.0023288096 0.021803437 -0.0012340068 0.021965634 0.0017448228 -0.015121816 0.020957375
-0.008949817 -0.025139334 0.005554433 -0.003234628 0.0402376 -0.031197643 -0.014229871 0.032192815
0.045056682 0.004778801 0.023062995 -0.0009063627 0.0027735182 -0.004774208 0.0034874259 0.05061569
-0.019274177 0.0015624311 -0.043084964 0.021936264 0.0012234268 -0.024886945 0.041189447 -0.03360172
0.01420805 -0.008781113 -0.0084874425 0.010102922 -0.008298206 -0.024739869 -0.0032477332 -0.009764373
0.007458572 0.028379695 0.009180703 0.030055942 0.034951355 -0.038651906 0.019951863 0.0033055006
0.0076218126 0.010371295 0.020811655 0.0041015875 -0.03453473 -0.022836244 0.017496437 0.0016258307
-0.01794814 0.007452827 0.010204808 0.0338874 -0.048389394 0.0011530105 0.006945603 -0.023400106
-0.008070263 -0.00215014 0.03231538 0.029674439 0.018048078 0.029175622 -0.0019720118 0.019103115
0.0045952452 -0.021335455 0.01720682 0.02415456 -0.04937033 -0.019959144 0.006655093 0.010349764
0.011084444 0.026845064 0.03185797 0.03069569 -0.007869498 0.014891765 0.024649968 -0.032911967
0.00016989169 -0.0056770043 -0.016217155 0.00503203 -5.2224656e-05 0.0035608537 0.010207755 0.024535885
-0.0038649952 -0.031186905 0.030914145 0.0131608 0.018179866 0.025855988 0.023256652 0.015284642
-0.009259656 0.0069863144 0.018343583 -0.014762689 -0.03449846 0.013005944 -0.007004035 0.015586969
0.0096807005 0.013105746 0.017973697 -0.04878986 -0.028395208 -0.02691134 0.0016159645 -0.0040830914

body.block1.conv.bias f4 [32]
00000000: 89ff ff3c a617 373c 3e49 f13c da11 2dbd
00000010: e018 1dbd 9022 c33c e094 b03a ec1a a9bb
00000020: b078 d1bc 2525 373d a716 dd3c 3ace 42bd
00000030: 97dd 60bc d026 7cbc a3ff 0a3d f347 edbc
00000040: eded 483d 0137 4fbd fa53 a33c 5acb febc
00000050: 8090 223d 5cd5 64bd b7e2 a4bc 2560 05bd
00000060: 83e5 a03c 4880 83bc 7b2e 7b3c 25d8 cfbc
00000070: 5699 97ba 3100 0e3b dede f7bc f0c4 253a
0.031249778 0.011175072 0.02945387 -0.042253353 -0.0383538 0.023820192 0.0013472103 -0.00516068
-0.025570244 0.04471316 0.02698834 -0.047559954 -0.013724706 -0.015390113 0.0339352 -0.028964972
0.04905503 -0.050589565 0.019937504 -0.031102825 0.039688587 -0.055867538 -0.020127637 -0.032562394
0.01964069 -0.01605238 0.015330906 -0.02537162 -0.0011566083 0.0021667595 -0.030257639 0.00063235965

body.block1.norm.weight f4 [32]
00000000: 1e82 7d3f c60c 773f 25a7 7b3f 9db5 753f
00000010: d2e1 7d3f 82fa 823f a7c2 803f 735b 7d3f
00000020: d2a3 803f ae8d 853f 0733 7d3f 6410 783f
00000030: b90e 803f 3f25 803f 2772 833f c88a 803f
00000040: 7e3c 833f ed74 853f 15a9 813f eb91 7a3f
00000050: 490e 803f 2472 833f 526e 7f3f 5868 7b3f
00000060: 16e9 7e3f 37a6 823f f658 813f 62ae 7a3f
00000070: be3c 803f c74c 833f fbce 733f 5b30 833f
0.9902667 0.96503866 0.9830192 0.95980245 0.991727 1.0232699 1.0059403 0.98967665
1.0049994 1.0433862 0.98905987 0.9690001 1.0004493 1.0011367 1.0269212 1.0042353
1.0252836 1.0426308 1.0129725 0.97878903 1.000436 1.0269208 0.9977771 0.9820609
0.9957441 1.0206975 1.0105274 0.9792234 1.0018537 1.0257806 0.952377 1.0249132

body.block1.norm.bias f4 [32]
00000000: 3ef3 21bb 269c 903c 6ad8 a8bc cc95 cdbb
00000010: 9b86 8fbc 67d1 4dbb 59ec 49bc abd6 1cbd
00000020: 1884 3fbc bcaa a1bc 10d4 78bc 31eb b9bb
00000030: b31d 24bd aac3 e53b b0b7 bfbc 37a3 1cbc
00000040: 3250 183b 1d8d 9c3c 54aa 02bc 1100 a4bc
00000050: 6c36 20bc 8dbf abbb cd85 0cbd b635 94bb
00000060: 0b1b 0fbd 6d60 63bc d7cc d6bb ded7 2bbc
00000070: e59c 823b c5e2 85bc 4a49 ffba b871 8b3b
-0.0024711634 0.017652582 -0.020611007 -0.0062739607 -0.01752024 -0.003140533 -0.012324416 -0.03829066
-0.011689208 -0.019734733 -0.015187278 -0.005673789 -0.040067386 0.0070118504 -0.023403019 -0.009560398
0.002324116 0.019110257 -0.00797518 -0.020019563 -0.0097786 -0.0052413405 -0.03430729 -0.0045230044
-0.0349379 -0.01387797 -0.0065551805 -0.0104884785 0.0039859884 -0.016343484 -0.0019476798 0.0042554997

body.block1.norm.running_mean f4 [32]
00000000: 82a6 8e3e ba68 14be 2dab 74bc fe11 1ebe
00000010: 3209 2fbe ab3d 95be 8841 cfbb 2bd6 f3bd
00000020: 8741 383e 5e7a 083e 4fb7 b7bd d6dd e7bc
00000030: 866a 353e f56b 733e 3196 92bd 1b8d 7c3e
00000040: 8947 aabd c7de 98be 02ee a8bd d762 083d
00000050: 29f9 0ebd b9e1 c7bc 9160 a8bd 0f60 98be
00000060: 64fc afbc 7b75 043e c0bf 94be 4cd9 5fbd
00000070: 6daf adbc d6da ddbd 0ac8 d23c 7246 2abe
0.2786141 -0.14493075 -0.01493339 -0.15436551 -0.17093351 -0.2914861 -0.0063249506 -0.11906084
0.17993747 0.1332793 -0.0897051 -0.028304022 0.17716417 0.23771651 -0.07157553 0.24663202
-0.083144255 -0.29857466 -0.082485214 0.033297386 -0.034905586 -0.024399625 -0.082215436 -0.29760787
-0.021482654 0.1293544 -0.29052544 -0.05465059 -0.021201814 -0.10832755 0.025730152 -0.16628435

body.block1.norm.running_var f4 [32]
00000000: 04a0 633d ac0c 973d e9dd bb3d bf8f 873d
00000010: 374d 8f3d 5c1f bc3d dad5 a33d 5ad1 b73d
00000020: 02a9 af3d 9640 a13d 02f2 e53d 62a8 b23d
00000030: 0122 6b3d 7105 933d b601 843d 266f be3d
00000040: 26ab f63c af5c 283d 76fa 273d 7ff3 143d
00000050: 23ac 703d a128 4f3d 12c1 b33d e86b a03d
00000060: 75d9 a23d 6591 c43d b278 b03d c588 9a3d
00000070: 9bd2 a03d 3557 d23d 7de8 943d eb48 483d
0.055572525 0.07375464 0.091731854 0.06619214 0.069971494 0.09185669 0.07999773 0.089754775
0.085771576 0.07873647 0.112278 0.08723523 0.057405476 0.07178772 0.06445639 0.09298544
0.030110907 0.041104015 0.041010343 0.03636503 0.058757912 0.050575856 0.087770596 0.078330815
0.07951633 0.09598044 0.08616771 0.07545618 0.0785267 0.1027054 0.07270906 0.048897665

body.block2.conv.weight f4 [32, 32, 3, 3]
00000000: 08d1 eabc 883c c43b 01c5 16bc bc0c 8b3c
00000010: 6a57 5cbc 6598 5a3c 8a40 763c 060a cf3c
00000020: 37cd 88bc 70be d13c 5f63 92bc 6ca8 8f3a
00000030: a180 e0ba bdb5 dfbc bdc7 20bc ccd1 e0bb
00000040: b405 c53c ca9d d73c 1011 fdb8 b93c 5e3b
00000050: 14dd 45bc 8715 7cbc af7b 2fbc 46fd 17bd
00000060: 35b5 363c 4fc9 37bc 727b 1f3c 6420 5fbb
00000070: 871d 83bc 2e70 c33b bbb3 3e3a b63b b0bc
00000080: d517 b8bb 033e 163c 2db3 683c ef24 473d
00000090: e28a 37bd 659d 0e3c 903e cb3c 83c0 173c
000000a0: 1d4d c6bc cc8a 7abc 2e88 d83b a0c0 a53b
000000b0: 5e6a 193d 48df 1ebc 065e c73c 9be6 5bbc
000000c0: 3836 e1bb c0a9 ad3c 31d7 8d3a bfce a13c
000000d0: be6f fd3b 09ff 933c 47ee d73c 2c24 0fbc
000000e0: 424f 07bc 1c77 ed3c 09fe 8c3c 9b7f fbbc
000000f0: 7802 f9ba 63c6 bc3c eb74 08bd e8f8 583c
00000100: dacf 40bc afd5 4d3c 0d4a 223c e854 80bc
00000110: 9530 61bb 8fc3 da3a b8fc 75bb ee4b 893b
00000120: 5e1b 42bc c35d aebc 5d9d b23c e248 3bbc
00000130: 3f2d d73a cd25 213b 0b42 30bc 6e47 8b3c
00000140: 3eea 193c fc99 813c f5da c1bc c2a5 ef3c
00000150: 7198 80bc 991d 7e3b c208 d03b 9e66 86bc
00000160: a35b 543c f01d c53b 516e 3ebd 0b50 a4bc
00000170: 4a01 e33b b43a 55bc f85e 373d a44a 863d
00000180: 84fa 043d 51b4 553c a482 aebb 35a9 743c
00000190: 6635 d5ba 0302 95bc f631 b8bb 7315 37bc
000001a0: 3fae cebc 9391 50bc 8e47 88bc abdd f2bc
000001b0: c753 0abd 9b0e d8bb 57cd 03bd ad93 fdba
000001c0: 93f5 d839 f045 11bd a26d 65bc a72b 9a3c
000001d0: dee4 c0bc bd22 373b cad4 dc3c a84a 813c
000001e0: dbfb be3c 7646 3bbd fa01 b7bc caa1 243c
000001f0: f984 b7bc a1e6 3dbc d4bd 893c 8c6a dd3c
00000200: 9fd7 a6bb d99c 7ebb 3ab1 e23c 29f8 98bc
00000210: afb0 aeba 31f3 9fbb af50 c73c 466a 083d
00000220: 0aa7 28bc 3798 1f3d 824b ebbb 436c 6a3c
00000230: 18c2 dfbb 8e39 67bb 10c3 15bc 28b5 1cbd
00000240: b0bb 243b a1b8 bc3c 15b3 4e3d c0df 8dbb
00000250: faf8 2f3b abab a3bb 7747 223d dfc6 af3c
00000260: 7ed9 e93c 15e2 92bc 0719 9dbc 46d7 4dbd
00000270: 2218 2d3c e1f5 f7bc 64a5 c7bc 34cb 7d3b
00000280: 62d0 243c c38b ae3c 88e0 69bb e359 b1bb
00000290: 8141 be3c 3814 c7bc 79c4 cd3c dda3 8e3c
000002a0: 1d57 f93c 77e2 aa3c 8fc7 b63c f364 4b3c
000002b0: a79e 163d ed8d 8ebb adcf d63c 456d efbc
000002c0: 2c12 19bd c821 0ebd a66c 6c3c f8fd 173b
000002d0: 44be 69bd 252e 9bbc bbff 92bc d13c 23bd
000002e0: d03f 93bc 5409 09bd d219 b83b 1876 e53b
000002f0: a549 12ba 7ad7 dd3b 7cb4 a63b f4a9 6a3c
00000300: 23cf 16bd ea66 1938 fa34 6fbb d416 e839
00000310: 01d0 533c b7e2 cdbc c5cf e0bc 90d9 a83a
00000320: 1d9a 1a3c 15a8 f93a 0bde 18bc 784d 473c
00000330: 2b9a 89bc f191 fc3a 5554 5c3c d2ce 47bb
00000340: b67d 573c 5212 dfbc bbc1 023d f125 adbc
00000350: 00c7 ed3a 0b6c 0c3c adfe 903d 12e5 d6bc
00000360: 6f2a 19bc 5a94 f7bc a815 d43b 02a7 a9bc
00000370: 7028 4b3b bab9 f5bc 5cb9 813a f305 16bb
00000380: 5dc8 f8bc f87c f5bc 0205 b5bc b5e7 6fbc
00000390: c3bc 42bc ac4e b33c a612 6b3b 1ff1 c5bb
000003a0: dd99 35bb 475d 1cbc 06a9 d03c 7161 373c
000003b0: a5d1 53bc 8333 a73c 11cf 53bc 937f 9dbc
000003c0: e374 d53c 0722 be3c 2369 813d f997 a1bb
000003d0: 1e4e 5e3b e655 edbb 2252 cb3b 7dbc 5d3c
000003e0: 3dca 963c c460 a5bc 396f 1c3a 036c c6bb
000003f0: 3f81 823c ccd8 6abc e44c 29bb c62d a93b
-0.028664127 0.005988661 -0.009202243 0.016973846 -0.0134485755 0.013341998 0.015030036 0.025273334
-0.016699417 0.025603503 -0.01786965 0.0010960228 -0.0017128178 -0.02730834 -0.009813246 -0.0068609472
0.024050571 0.026320357 -0.00012067158 0.0033910705 -0.012076635 -0.015385992 -0.010710641 -0.037106775
0.011151602 -0.011217429 0.0097340215 -0.0034046406 -0.01600529 0.0059643006 0.0007274707 -0.021512847
-0.0056180754 0.009170058 0.014202875 0.048619207 -0.044810183 0.008704518 0.024810106 0.009262207
-0.024206692 -0.015291881 0.0066080308 0.005058363 0.037454955 -0.009696789 0.024336826 -0.01342168
-0.0068729185 0.021199107 0.0010821578 0.019751905 0.007734268 0.018065946 0.026358737 -0.008736651
-0.008258643 0.02898746 0.017210977 -0.030700495 -0.0018997928 0.023043817 -0.033314627 0.013242938
-0.011768306 0.012563153 0.00990535 -0.015665486 -0.0034361233 0.0016690361 -0.0037534665 0.0041899597
-0.011847345 -0.021284943 0.021803552 -0.011430951 0.0016416683 0.0024589181 -0.010757933 0.017001834
0.009394227 0.015820496 -0.023663977 0.029253844 -0.01569769 0.0038774966 0.0063487003 -0.016406354
0.012961301 0.0060155317 -0.046491925 -0.020057699 0.006927644 -0.013014484 0.044768304 0.06557205
0.032465473 0.013043479 -0.005325632 0.01493292 -0.0016266524 -0.018189436 -0.00562119 -0.0111745475
-0.025229571 -0.01273002 -0.016635682 -0.029646715 -0.033771303 -0.006593538 -0.03217825 -0.0019346379
0.00041381698 -0.03546709 -0.014003189 0.018819643 -0.023546632 0.002794429 0.026956934 0.01578267
0.023313453 -0.045721494 -0.02233981 0.010048339 -0.022402273 -0.011590631 0.01681415 0.027028345
-0.005091622 -0.0038850813 0.027672399 -0.01867302 -0.0013327802 -0.0048812856 0.024330465 0.033304475
-0.0102937315 0.038963523 -0.007180632 0.014308038 -0.0068285577 -0.0035282108 -0.009140745 -0.0382587
0.0025136285 0.023037257 0.050463755 -0.0043296516 0.0026851282 -0.0049948297 0.039618935 0.021457134
0.028546091 -0.01793007 -0.019176973 -0.05025413 0.010564836 -0.030268611 -0.024370857 0.0038725855
0.010059448 0.021306878 -0.003568681 -0.0054123267 0.023224594 -0.024301633 0.0251181 0.01741212
0.030437047 0.02085994 0.022311954 0.012414205 0.036772396 -0.004350415 0.026222074 -0.029226908
-0.037370846 -0.034700185 0.014430201 0.0023192149 -0.057066217 -0.018942902 -0.017944207 -0.03985292
-0.017974764 -0.03345616 0.0056183124 0.0070026033 -0.0005580432 0.0067700716 0.0050874334 0.014322747
-0.036818635 3.657389e-05 -0.0036500082 0.00044267497 0.01292801 -0.02513252 -0.027442822 0.0012882221
0.0094361575 0.0019047285 -0.009330283 0.012164466 -0.016797146 0.0019269568 0.013447841 -0.0030488265
0.01315253 -0.027230415 0.031923037 -0.021136256 0.0018140972 0.008570681 0.070798256 -0.026232276
-0.009348496 -0.030222107 0.006472308 -0.020709518 0.0030999444 -0.029995788 0.000989716 -0.002289173
-0.030368978 -0.029966816 -0.022097114 -0.014642646 -0.011885825 0.0218881 0.003586927 -0.0060407068
-0.0027710118 -0.009543723 0.025471222 0.011192665 -0.012928401 0.020410305 -0.012927786 -0.019225871
0.026056712 0.023209585 0.06318881 -0.0049314466 0.0033921073 -0.007242906 0.0062048594 0.013533709
0.018406982 -0.020187743 0.0005967501 -0.0060553565 0.01593077 -0.014333915 -0.0025833184 0.0051629273

body.block2.conv.bias f4 [32]
00000000: 48c2 073c 0d50 92bc 37be 803c 3afa ce3c
00000010: 8aaa 68bd 98f0 85bc f5dd debc 53e7 e9ba
00000020: 0aa9 0eba c031 b93c 1ccb 0d3c 8e49 513d
00000030: 172a 5abd 606d f83c 1046 44bd 97d2 e4bc
00000040: aed1 0e3d aef5 6e3d 2176 b83c 1bc6 18bd
00000050: 9840 5fbd a70a 3d3d 7787 313d f392 283d
00000060: ed56 f4bc ed62 8a3c 6746 343d 96c0 b4ba
00000070: 697e 3abd 7602 323c 43d0 633c 81d6 483d
0.008286066 -0.017860437 0.015715702 0.025265802 -0.056803264 -0.016350076 -0.027205447 -0.0017845429
-0.0005442059 0.02260673 0.008654382 0.051095538 -0.053262796 0.030325592 -0.04791838 -0.027932448
0.034867935 0.058339767 0.022517266 -0.037298303 -0.05450496 0.046152737 0.04334208 0.041155767
-0.029826606 0.016892875 0.044012453 -0.0013790305 -0.04553071 0.010864845 0.013904634 0.049032692

body.block2.norm.weight f4 [32]
00000000: 42c4 853f 0a49 773f 598b 813f 8488 833f
00000010: 9528 753f 29e1 7e3f c770 7a3f 6568 7b3f
00000020: 720b 7b3f 9943 7f3f ec04 813f c69d 843f
00000030: c7d4 7a3f e30c 7e3f 23e7 7b3f 16c5 813f
00000040: e6cc 823f 1f74 7b3f f362 7c3f 218b 783f
00000050: 16ca 783f 1d5f 823f c89f 803f 1efb 7f3f
00000060: 81ee 7a3f 280a 793f 4643 813f 66c1 813f
00000070: 7f7a 6e3f 09e1 803f ea26 843f 768c 843f
1.0450518 0.96595824 1.012065 1.0276036 0.9576505 0.9956232 0.97828335 0.9820617
0.9806434 0.9971252 1.0079627 1.0360649 0.9798092 0.99238414 0.9839956 1.0138271
1.021878 0.9822406 0.98588485 0.97087294 0.9718336 1.0185276 1.0048761 0.9999255
0.9802018 0.9728112 1.0098655 1.0137146 0.93155664 1.0068675 1.0324376 1.0355365

body.block2.norm.bias f4 [32]
00000000: 9702 94bc 639c 90bc ae72 debb 7444 9dbb
00000010: 181b 08bd dcd1 92bb 1775 99bc 0ecd 843b
00000020: c2e2 3ebd d74b c1bb 7562 a1bc 7693 9fbc
00000030: 8623 bc3b 94b5 04bd ae1f a5bc 41e4 8cbc
00000040: 3255 dfbc 585b e9bb a219 66bb 3775 b4bc
00000050: 89ac b4bc f5cb 18bd d8ca f8bc e50b aebb
00000060: a906 14bd 9da8 6cbc be04 babc 71bb b2bc
00000070: 3955 38bd bae9 aabc cc44 8fbc 3534 d7bc
-0.018067641 -0.017652696 -0.006788573 -0.00479942 -0.033228964 -0.0044805836 -0.01873259 0.0040527647
-0.04660297 -0.0058989334 -0.019700268 -0.019479495 0.0057415394 -0.03239973 -0.020156708 -0.017198684
-0.027262304 -0.0071214847 -0.0035110493 -0.022028549 -0.022054927 -0.037303884 -0.030370161 -0.0053114765
-0.036139164 -0.014444497 -0.02270734 -0.021817895 -0.04500315 -0.020863403 -0.01748886 -0.026270011

body.block2.norm.running_mean f4 [32]
00000000: 35bf 89bd 3308 36bd 6a4b e8bc c8cf 45be
00000010: 5a98 9c3e 05cb 64be bd2d a13d 0b9f 28be
00000020: 39a8 863e 5de7 32be 4161 f5bd b442 f3bd
00000030: 97b5 5bbd 8e55 673e 6b93 9abc eba9 c7be
00000040: d344 92bd 66ca 11be 6758 53bd a2c8 e9bd
00000050: 3041 ebbd 435e 733d 74c0 c23c 9f02 083e
00000060: 3f24 79be 0aca 55be 9767 16be c41e 833e
00000070: 2488 50bd 4ab5 143e e7c9 95be 8076 ab3d
-0.06725923 -0.044441413 -0.028356273 -0.19317544 0.30584985 -0.22343071 0.07870052 -0.1646692
0.2630022 -0.1747107 -0.1198144 -0.11877957 -0.053639974 0.2259123 -0.018869122 -0.38996825
-0.071420334 -0.14237365 -0.05159798 -0.11415221 -0.11487043 0.059416067 0.02377341 0.1328225
-0.24330233 -0.20877853 -0.14687954 0.2560941 -0.050911084 0.14522281 -0.29255602 0.083722115

body.block2.norm.running_var f4 [32]
00000000: 1459 de3d 2d5d aa3d dae8 b23d 7ac7 813d
00000010: d5df ce3d ca2e 393d 4c6a 463d ff2a 883d
00000020: 0d1a 903d 2783 9f3d 7b20 843d 0b0e 6e3d
00000030: 2eb5 aa3d 4c23 523d 2636 513d 2962 413d
00000040: ba2e 713d 88d5 ae3d 1ffd 913d 52d0 ae3d
00000050: fc11 d13d 45b8 9b3d 82f4 8b3d 52d5 963d
00000060: ea2d 833d aaac 843d d61c 5f3d 03f7 9b3d
00000070: fb19 483d 7d89 893d 0021 db3d b8f0 ba3d
0.10856834 0.08318553 0.08735819 0.06336875 0.10101286 0.045210637 0.048441216 0.06648826
0.07036219 0.07788687 0.06451508 0.05811886 0.083353385 0.051303193 0.05107703 0.047212753
0.058882453 0.085368216 0.07128357 0.08535828 0.10208508 0.07603506 0.068337455 0.07364906
0.06405242 0.064782456 0.05447086 0.07615473 0.048852902 0.06715677 0.106996536 0.09127945

body.block3.conv.weight f4 [32, 32, 3, 3]
00000000: f634 06bd 490f 73bc 9e74 b0bc 3ee4 5ebc
00000010: 9276 29bc f97a 01bc f3b2 c33c d635 163d
00000020: e5cc c33c ed96 5a3c bce9 36ba 7150 bcbb
00000030: f6ba c93b dcdd 283c b612 ac3a fe20 12bc
00000040: d871 2f3c 2522 3ebd 3b92 8c3c 03dd ef38
00000050: 6853 92bb 6440 e6bc 91e7 b9bc 1c46 fdbc
00000060: 5874 8bbc 5766 cdbc d969 4cbc cce8 b1bc
00000070: 8ae7 53bc efd2 1a3c b203 aa3c f1f8 32bb
00000080: 6441 2d3c 69bb 053d ae39 723b c0a3 83bc
00000090: 6c9c c73b 402c 593a f197 f53c ebc1 57bc
000000a0: 5588 e8bb 0e4a 64bb 2544 3f3c ec4a 1e3c
000000b0: 20fe 1c3c 1a60 a4bc f411 763c ca33 813c
000000c0: 1c7d 0bbc c7c2 96bc 0a14 133d 63ef 59bc
000000d0: 9715 4dba 8bea 24bc e3b6 eaba a206 1abc
000000e0: 925d b4bc 31f2 a33c b6bf c13c 2fd4 82bb
000000f0: e852 49bb ba71 ef3b ccd4 65bb 1567 37bd
00000100: 8963 7abc 7919 8bbc 03ed c43c 0eac 4fbb
00000110: ce5a cabc b124 32bd 2dd5 d33c 13b9 0fbc
00000120: d56e adbc 714f a1bc fcf6 0a3d 9fc0 84bc
00000130: b622 16bc d29b acbc 7298 4b3d 43dc d83c
00000140: 6120 8a3c 4357 063d 7163 1a3b c417 16bd
00000150: 8b0d a83c b023 31bc 232f a6bc d3a2 1b3d
00000160: e6bd edbc 5ad9 61bc e7ca 71ba b9ec 23bd
00000170: 8c51 59bc c7f1 413c 9ae7 cfbc 1206 30bd
00000180: 24df 883c c53f d63b d011 ecbc 20a2 e43c
00000190: 2d18 6b3b 2309 773c 2a5c ec3c 51c6 123c
000001a0: 9370 9f3b 055e 4bbc a6aa 3dbb bdb6 4dbb
000001b0: 021d 1ebd 1375 cdbc 323a a2bb 0792 173c
000001c0: fb4e d1bb f721 a3bc e4ec a0bc 20e9 2c3c
000001d0: dbba 923c 1ccb 2cbc 69e8 d73c 1e08 03bd
000001e0: dc9f a43c 8b58 17bc 62ae 51bc 2cc6 193c
000001f0: 92bc f43c 9fb0 b73b 589e 83bc 2f6c e4bc
00000200: ca9b 9dbb fa67 80bc bcb9 fe3b d48b 183d
00000210: fc79 173d d6d8 cd3b 402f 8fbc 9005 88bc
00000220: 1aca e13c c64e a93b e6e6 2dbd 3a44 49bc
00000230: 57cb 4fbd c60c 88bb 432c 5d3c 324d a93b
00000240: 4e03 123c 64db 983b a75a a13c cf20 e5bc
00000250: df12 1fbc 3fd7 c2bb fee6 e13a 0d27 d1bc
00000260: eb6c 313c f4e7 e239 2e39 76bc 1b32 1d3a
00000270: 8f58 073c a55a 15bd e5af 6fbc 4d34 813c
00000280: 0984 9dbc 9004 84bc c555 4f3c 11cf d43c
00000290: a4de 423c 3df1 dabc 6787 97bc 73a5 e4bc
000002a0: b421 acbc 993e 0f3c 7211 a8bc 2a26 1abc
000002b0: 3039 aebb 1603 52bc 27d7 503b db6b 8bbc
000002c0: 67c6 473c aeaf 79bc 153a e7bc 7e69 023c
000002d0: df18 64bc bfe8 9dbc 21a0 e3bc 1335 18bb
000002e0: 63b5 37bd b4aa 973c b4d5 1d3b b3a0 be3b
000002f0: e970 82bc 707e a1ba 246a 943c 7898 fd3b
00000300: 1979 da3b 61fc 6a3c 7d34 0e39 1ba8 37bc
00000310: 271d b53c 516e 2c3c 11ee 55bd 24ff 143d
00000320: ba95 26bd ed7a 1dbd 5f92 263c dbe1 a9bc
00000330: 4bc8 493d 422e 323d 3adf 0e3d a4a6 55bc
00000340: 0812 88bc 5d10 9ab8 469e 99bb 6693 6a3c
00000350: 3521 ddbb a7a8 c83c 2116 a7bb e231 72bb
00000360: d583 2e3d d663 243d 3547 c33c 6b82 2b3d
00000370: 05a3 823c 7fa7 19bd 0d59 893c 2d07 8a3c
00000380: 8675 b63b 3647 583c 7df6 383b 9c72 2ebc
00000390: 9dd0 ad3c 1ae9 a03c 634b da3c 1bde 0b3d
000003a0: 44ea b73c b044 aa3c 0f1b ff3a fa2c 6f3b
000003b0: 3078 823c c4ae 183c 0055 c7bc 4be3 723c
000003c0: e553 4c3d 2dc1 2fbc 2f3b 303c 3d0c 603c
000003d0: 5af1 153b d30e a1bc 8aa3 f53a 896e 10bd
000003e0: 522c 383c 700a 5dbc 6488 28bc f87c a8ba
000003f0: 3ca2 e5bb 13fc 733c a8b8 b73c d69c a8bc
-0.03276535 -0.014835187 -0.021539982 -0.013604222 -0.010343211 -0.007902854 0.02388904 0.036672436
0.023901412 0.013341648 -0.0006977578 -0.005746894 0.0061563207 0.010306802 0.0013128135 -0.008918999
0.010708295 -0.04641928 0.017159572 0.00011437575 -0.004465509 -0.028106876 -0.022693427 -0.03091722
-0.01702325 -0.025073214 -0.012476408 -0.021717452 -0.012933621 0.009449705 0.020753715 -0.0027309025
0.010574672 0.03264943 0.003696065 -0.016069293 0.006091645 0.0008284487 0.029979678 -0.013168792
-0.00709633 -0.003483418 0.011673962 0.009661417 0.0095820725 -0.020065356 0.015018929 0.015771765
-0.008513715 -0.018403424 0.035907783 -0.013301703 -0.00078233465 -0.010065685 -0.0017907288 -0.009400995
-0.022017274 0.020012947 0.023650985 -0.0039925794 -0.0030719582 0.0073072584 -0.0035069464 -0.04477604
-0.01528252 -0.01697992 0.024038797 -0.0031688246 -0.024701502 -0.043492023 0.025858486 -0.0087721525
-0.021171013 -0.0196912 0.03392695 -0.01620513 -0.009163549 -0.021070395 0.04970593 0.026472216
0.016861143 0.032798063 0.0023557807 -0.03664376 0.02051427 -0.010811731 -0.020286148 0.03799708
-0.029021215 -0.013784731 -0.0009223655 -0.04002068 -0.013264071 0.011837429 -0.02537899 -0.04297454
0.016707964 0.0065383636 -0.028817087 0.027909338 0.0035872564 0.015077862 0.028852541 0.008958415
0.004865715 -0.012412553 -0.0028940826 -0.0031389438 -0.038601883 -0.02508024 -0.004950785 0.009251124
-0.006387589 -0.019913657 -0.019644208 0.010553628 0.017911365 -0.010546472 0.026355939 -0.031990163
0.020095758 -0.009237419 -0.012797924 0.009385627 0.029875074 0.0056057717 -0.016066715 -0.027883617
-0.0048098313 -0.01567458 0.007773606 0.037242725 0.036981568 0.0062819524 -0.017478585 -0.016604215
0.02756219 0.005166861 -0.04245653 -0.012284333 -0.05073103 -0.0041519133 0.013499322 0.005166673
0.008911921 0.0046648253 0.019696547 -0.027969746 -0.009709089 -0.0059460695 0.0017234979 -0.025531316
0.010829191 0.00043278898 -0.015028281 0.0005996541 0.00826086 -0.0364634 -0.014629339 0.01577201
-0.019227998 -0.016115457 0.012654726 0.025977643 0.011893902 -0.02672636 -0.018497182 -0.027910924
-0.021012165 0.008742952 -0.020516131 -0.009408513 -0.005316876 -0.012818119 0.0031866522 -0.017019203
0.012193299 -0.015239639 -0.028225938 0.007959722 -0.013921945 -0.019276021 -0.027786316 -0.0023224994
-0.04485072 0.018514015 0.0024083676 0.0058174967 -0.01592298 -0.0012321007 0.018117018 0.007739123
0.006667268 0.014342398 0.00013561729 -0.011209513 0.022108627 0.010524348 -0.05222899 0.036376134
-0.040670134 -0.03844731 0.0101667335 -0.02073758 0.04926328 0.043501146 0.034880854 -0.0130402185
-0.01661016 -7.34634e-05 -0.004688057 0.014317369 -0.0067483434 0.024494482 -0.0050990735 -0.0036956002
0.042606194 0.040134273 0.023837665 0.041872423 0.015946874 -0.037513252 0.016766096 0.016849125
0.005568209 0.013200572 0.002822309 -0.010647442 0.021217639 0.019642401 0.026647275 0.034147363
0.022450574 0.020784706 0.001946302 0.0036495314 0.01592645 0.009319011 -0.024332523 0.014824699
0.049884696 -0.010727209 0.010756298 0.013674793 0.0022879452 -0.019660389 0.0018740755 -0.035261665
0.011241036 -0.013491258 -0.010286424 -0.0012854626 -0.0070078652 0.014891642 0.022426918 -0.020582598

body.block3.conv.bias f4 [32]
00000000: f981 4fbd 9991 8abb ba39 3bbc a7d1 623d
00000010: 9bdc dfbb 65a9 9cbc b68f e73c ceaa 653d
00000020: 3675 ba3b 829e 88bc 1aaa efbc 0ebf cf3c
00000030: 876b b63c 7e4c 2ebd d27d 923c b628 d03c
00000040: 1661 70bc 6e4b 81b7 aed7 4a3c e70f 1c3c
00000050: bb66 cd3c b9b6 e23c 03cd 44bb e784 eabc
00000060: 8841 77bc e95d d23c caea 9bbc 7541 f9bc
00000070: 2ca9 23bd 5fa0 453d 6f98 f33c 4619 53bc
-0.05066106 -0.0042287824 -0.011427337 0.05537572 -0.006831718 -0.019123742 0.028266769 0.056071095
0.005690242 -0.016677145 -0.029255915 0.025359657 0.02226807 -0.042553417 0.017882261 0.025410037
-0.014671585 -1.5413123e-05 0.012380524 0.009525276 0.0250734 0.02767502 -0.0030029423 -0.028627826
-0.015091307 0.025679545 -0.019032855 -0.03042672 -0.039956257 0.048248645 0.029735772 -0.012884444

body.block3.norm.weight f4 [32]
00000000: 156a 853f ba8b 883f 8ce2 7e3f 5e2c 773f
00000010: 9609 7e3f b8d3 843f 19f8 843f 2efd 7e3f
00000020: c46e 753f 4126 7a3f 9ef2 7e3f 5d3a 813f
00000030: 8539 843f dfe9 823f fb68 853f 4d2d 7f3f
00000040: d813 803f a037 843f bd9b 863f 4f66 7c3f
00000050: 00f8 803f 84c9 863f ddce 843f 95f4 793f
00000060: 9703 7d3f d5a3 7c3f b6e4 833f d35c 7f3f
00000070: 051f 7f3f b967 803f b196 7b3f d488 803f
1.0422999 1.0667641 0.99564433 0.96552074 0.99233377 1.0377111 1.0388213 0.9960507
0.9587214 0.9771462 0.99588954 1.0095936 1.0330054 1.0227622 1.0422662 0.996785
1.0006056 1.0329475 1.0516278 0.9859361 1.0075684 1.0530248 1.037563 0.9763883
0.988336 0.9868749 1.0304172 0.99751014 0.9965671 1.0031654 0.9827681 1.0041757

body.block3.norm.bias f4 [32]
00000000: ceff 9cbb e09f cdbb ba80 9b3b c72a 24bc
00000010: f3fd 39bc 8ebb f63b 0fae bfbb 563c 0bbc
00000020: 40ac 4ebc 6ce9 9ebb a486 5a3c 4d21 aebb
00000030: 508d a7bb ae73 93bc f92e 2cbc d02c 7cba
00000040: 013c bfbb 4e34 d6b9 fde5 a4bc 52c3 47bc
00000050: 1d7b 0d3c 2910 a63c 3394 b93b 1c5e 7d3c
00000060: ffc5 543c a7a9 60bc c35b 75bc 6e1b f63b
00000070: 69eb 6ebc f576 9abc 9d8f 433c b0f0 45bc
-0.0047912365 -0.006275162 0.00474557 -0.010019965 -0.01135205 0.0075296825 -0.005849607 -0.008498272
-0.01261431 -0.0048496034 0.013337765 -0.0053140284 -0.0051132813 -0.017999496 -0.010509246 -0.00096197147
-0.0058360104 -0.0004085623 -0.020129198 -0.012192564 0.0086353095 0.020271378 0.0056634187 0.015464332
0.012986659 -0.013712323 -0.014975491 0.007510594 -0.014582493 -0.018855551 0.011936096 -0.01208131

body.block3.norm.running_mean f4 [32]
00000000: a1ae 72bb d451 d13a f3a8 0dbd 727d 533e
00000010: 4f37 e6bd f84d 8dbe b503 c0bd acc6 993e
00000020: 49ce 353d 23ff e4bd 64b1 f0bd 7e9b 493e
00000030: e3c0 d43d 3178 0cbd 4e4c 49bd a96d 953e
00000040: 2142 3d3d 69a3 83bc 6107 fabb 9fd3 ce3d
00000050: 3e5e b43d e4a4 24be b29e 0f3c 8d6f e0bd
00000060: 1b31 bbbd dee1 e13c fc05 b53e b887 a33d
00000070: 5167 c33d 868a 42bd a139 87be e6a3 89bd
-0.0037030356 0.0015969821 -0.03458495 0.20653322 -0.11241018 -0.27598548 -0.09375707 0.30034387
0.044386182 -0.11181476 -0.117525846 0.19688222 0.10388353 -0.03429431 -0.049145035 0.29185227
0.046205644 -0.016069131 -0.007630274 0.10098957 0.08807038 -0.16078526 0.008765863 -0.109587766
-0.091402255 0.027573522 0.35356128 0.07984871 0.095411904 -0.047495387 -0.26411155 -0.06720714

body.block3.norm.running_var f4 [32]
00000000: 2835 b13d a0c6 1f3e 7f73 ba3d f6f0 933d
00000010: 54e0 7d3e bfd1 dd3d 645f 033e ca85 803d
00000020: 50c2 e43d b2f9 833d c137 963d 6952 913d
00000030: ee9a a63d 4c07 8d3d 7ef1 d13d fee6 193e
00000040: ff10 b63d bcfe fb3d 3c8a a63d 946f 993d
00000050: 0fee 913d 97c8 fc3d 1aff 763d 10e4 8e3d
00000060: e732 c63d 20e3 7c3d e3c0 bd3d a4f8 9f3d
00000070: 9079 843d a755 e93d 14ba ea3d dc91 c73d
0.08652717 0.15603113 0.091040604 0.07223694 0.24792606 0.108310215 0.12829357 0.06275518
0.11169875 0.0644411 0.07334853 0.070957966 0.08135019 0.068861574 0.10251139 0.15029523
0.088899605 0.12304446 0.08131835 0.07491985 0.07125484 0.12342947 0.060301878 0.06977093
0.096776776 0.06174004 0.09265306 0.07811096 0.06468499 0.1139329 0.11461273 0.09744617

tail.0.weight f4 [3, 32, 3, 3]
00000000: ce99 10bc ec3f a7bc ac83 453c e07b 10bc
00000010: a2dc 36bd fb0b 0a3c afcc 06bd ae04 af3c
00000020: ee10 5fbd 970b 303c 69fb 823d c5da cfbc
00000030: 6880 cf3b 0444 33bc a2a8 17bd 80b9 b83c
00000040: ff3a da3b 8ac5 f4bc 4a66 dabb 4d38 f4bc
00000050: fd51 b8ba cb3e 3bbb 7134 1dbc 5788 4ebc
00000060: 5b97 03bd d167 8ebb 40af 8d3c 1bd0 303d
00000070: 8089 ff3b a4b9 dcbb bb59 89bc 0e40 afbb
00000080: 5386 3bbc acb9 57bc be7b e43b 3b39 90ba
00000090: 91c7 f0bb 8ced 42bc 416e 1abd 3407 14bb
000000a0: dcf3 50ba ba34 26bb 720b 1a3c bdfb d73c
000000b0: eda7 08bc 7f84 2e3d 5968 98bb 9648 7dbc
000000c0: bacb 283c eae8 2f3c 1b0c 98bc 4ad1 113c
000000d0: fe1e 573d 3326 dcba 0b0a 1b3d b7bb 1a3d
000000e0: 3a80 19bd fdb7 32bb 53e4 50bc fb0a 4dbc
000000f0: 41a9 37bc 86e9 69bc f51e 8dbb 39f7 1ebd
00000100: 79de 81bb c61b d6bc 22a4 073b 2c48 5d3c
00000110: cbe7 69bb bb0c ca3c b35a 44bc bdef 913c
00000120: e52c a7bc 3891 6d3b 7486 b0bc 21a6 103b
00000130: 1fc2 e63b 8432 103c d1ce 1abc c2ee 193c
00000140: 4012 993b c872 93bc 8853 973a ec4a b0bc
00000150: 80bb a53b 1f5c 2c3c e5b5 003d a217 8ebc
00000160: 1469 77bc d51b 84bc aba6 023c 9e54 bcbc
00000170: c317 a1bc f14c 593c 0b08 e3bb fc0a 20bd
00000180: 7bb7 06bc 1131 8bbc 885a 5cbc 2d54 1d3c
00000190: 81c5 bebc f36e 00bb 3816 3b3a 695c c03c
000001a0: 0309 523c c71a 84bc 14ab 3e3d f4c2 7838
000001b0: 1b87 41bc 26ba a6bc 02a0 debc c223 11bc
000001c0: 533b 53bc 40bd 9abc eb9d 1dbb 6faf 78ba
000001d0: e622 a4bd 2783 ef39 8c7a c33c 3c32 553d
000001e0: 8053 043c 280b b93c b703 253c 51ad 873a
000001f0: 0660 783a c43b b3bc 0160 81bc 1cff 4fbc
00000200: 6ff5 29bc e1be 65bc 12f7 553c 763c c7bc
00000210: ee08 63bd 8455 13bd 2d43 febb 6c7a 4dbb
00000220: 9c8a 86bc cb19 1c3c 4143 bb3c b319 da3c
00000230: 364b 27bc 044c 0c3d 414c c0bc 51ed 303c
00000240: 2e3d aa3a 513c c13c 0078 09bd a2cb 393a
00000250: 7464 8aba 0a0d 3dbc 4ff1 47bd 9824 1cbd
00000260: e834 553c 4e88 ad3c cd24 cdbc a156 7ebd
00000270: 1b05 2bbc c039 ef3c cc73 32ba ce84 cfbb
00000280: a379 e83b 2d1d 10bd a175 163d ab84 183d
00000290: 810e 1b3c ea2f 7abc 96f5 9a3c de39 a23a
000002a0: d46f af3a bcef e2bc a829 0cbd a60d 11bc
000002b0: 1a77 d7bc 1e02 5f3c 0a55 60bc 9933 72bd
000002c0: fce0 a2bc 0b86 973c 9050 a1bb abca 8abc
000002d0: 0185 c23a d3a3 90bd 9a28 3bbb 08b6 02bd
000002e0: 0992 6bbc 1751 c5bc 43ab f63b 8af4 42bc
000002f0: 898d 03bd c75a 123c 5e6a a33b 406a debc
00000300: ca0c 66bc a007 ddbc 07d3 91bb 86e4 0d3d
00000310: 4469 f7bc 4b4d 6b3c efb7 0abd 2e0f 3bbd
00000320: 3657 bcbc 8c4d 9dbc 298c 20bd 8d90 c8bb
00000330: 0982 17bc 2967 c5bc e50c 1bbd 8996 d3bc
00000340: 5215 eebc 84e1 63bc fe82 d63b 94ff 8937
00000350: 5ceb 93bc 39a4 213b b3ec 11bd ed73 f6ba
00000360: 2bf7 5cbb 05a6 52bc 2e81 20bc 9c43 5cbc
00000370: b29f debc 39d6 8fbc 3f6c cfbc 6d7a 1d3c
00000380: fdef 483c f321 89bc 949d d53c 878b 133d
00000390: e488 603b fa6b 3d3d 499a 253c 9122 27bb
000003a0: 30e6 433c 7f46 e23c 8259 e1bc 9ee1 84bb
000003b0: fb4c 9bbc 8470 a7bc f528 08bd eae7 d9bc
000003c0: 048f a93b 2624 00bd f23f b13c 34cb 8dbd
000003d0: 64d2 ef3b 3897 5ebd a46b 36bd 4148 ebbc
000003e0: ef53 d73b feef bebc 7064 77bc ceb4 afbc
000003f0: 3c8c 063c 2e58 9a3a 62bf 20bd 8461 14bd
-0.008825732 -0.020416223 0.012055319 -0.008818597 -0.044644006 0.008425708 -0.032910045 0.021364536
-0.054459505 0.010744951 0.06395609 -0.025372872 0.006332446 -0.010941509 -0.037026055 0.02254939
0.006659865 -0.02987935 -0.006665026 -0.029812003 -0.001406252 -0.0028571363 -0.009595023 -0.012605748
-0.032126766 -0.004345872 0.01729548 0.043167215 0.0077983737 -0.0067359973 -0.01676642 -0.005348212
-0.0114456 -0.013166826 0.006972759 -0.0011003384 -0.007348009 -0.011897456 -0.037702803 -0.0022587301
-0.0007970908 -0.0025361017 0.009402143 0.026365155 -0.008340818 0.042606827 -0.004651111 -0.0154592
0.010302478 0.010736683 -0.01856046 0.008899996 0.05251979 -0.0016796052 0.037851375 0.037776675
-0.037475802 -0.002727031 -0.012749749 -0.012514825 -0.011209787 -0.014276868 -0.004306669 -0.03880999
-0.0039632884 -0.02613629 0.0020697196 0.013505977 -0.0035691138 0.024664273 -0.011984515 0.017814511
-0.02040715 0.0036249887 -0.021548487 0.0022071677 0.007042184 0.008801106 -0.009448723 0.009395303
0.004671365 -0.017999068 0.001154528 -0.0215201 0.005057752 0.01052001 0.03142347 -0.017345253
-0.015100736 -0.016126553 0.007974307 -0.022989567 -0.01966465 0.013262973 -0.006928449 -0.039072976
-0.008222456 -0.01699117 -0.013449319 0.009602589 -0.023287537 -0.001959738 0.0007136795 0.023481565
0.012819531 -0.01612605 0.04654987 5.9309372e-05 -0.011811997 -0.020352434 -0.027175907 -0.008858623
-0.012892562 -0.01888907 -0.0024050425 -0.0009486591 -0.08014469 0.00045683348 0.023862146 0.05204986
0.008076549 0.022588328 0.0100716865 0.0010351335 0.0009474758 -0.021879084 -0.015792849 -0.0126951
-0.010373457 -0.01402256 0.013059394 -0.024320822 -0.055428438 -0.035970226 -0.007759473 -0.0031353487
-0.016423516 0.009527634 0.022859218 0.026623582 -0.010210803 0.03425218 -0.02347386 0.010798768
0.0012988204 0.023588331 -0.033561707 0.00070875336 -0.0010558502 -0.011538753 -0.048814114 -0.038120836
0.013013102 0.02118316 -0.025041962 -0.062094335 -0.010438229 0.029202342 -0.0006807416 -0.00633297
0.0070945784 -0.035184074 0.036733273 0.037235897 0.009463907 -0.015270213 0.018915933 0.0012376865
0.0013384768 -0.027702205 -0.034219414 -0.008853352 -0.02630191 0.013611345 -0.01369215 -0.05913124
-0.019882672 0.018496534 -0.004922934 -0.016942343 0.0014840664 -0.07062497 -0.0028558136 -0.03191188
-0.014378079 -0.024086518 0.00752774 -0.011899123 -0.0321174 0.008932776 0.004987045 -0.027150273
-0.014041135 -0.026981175 -0.0044502052 0.034641765 -0.030201562 0.01436169 -0.03386682 -0.045668773
-0.022990804 -0.019202016 -0.039196167 -0.0061207474 -0.009247311 -0.024097042 -0.037854094 -0.025828617
-0.0290629 -0.013908748 0.006546377 1.6450686e-05 -0.018056564 0.0024664535 -0.035626125 -0.0018802859
-0.003371666 -0.012856965 -0.009796424 -0.013443854 -0.027175758 -0.017558204 -0.02532017 0.009611708
0.012264249 -0.016739821 0.026076116 0.036021736 0.003426128 0.046245553 0.010107585 -0.002550278
0.011956736 0.027621506 -0.027508501 -0.004055216 -0.018957606 -0.020439394 -0.033242185 -0.026599843
0.0051745195 -0.031284474 0.021636937 -0.069235235 0.0073187817 -0.054343432 -0.044536248 -0.028720977
0.006571285 -0.023307797 -0.01509963 -0.02144852 0.008212145 0.0011775547 -0.039245017 -0.03622581

tail.0.bias f4 [3]
00000000: 8f28 56bb 8b21 2d3c 03ef a1bc
-0.0032677983 0.010567079 -0.01976729
