code/Output/balloons/pdl_e8000_1px_lr0.001a10.0_up-conv5_1_W[1.0, 0.5, 0.1, 0.075, 0.075](3)/1/netG.pth (torch, 130373 bytes, 26 tensors)

head.conv.weight f4 [32, 3, 3, 3]
0	0xbdbb09c2	-0.091327205
1	0xbd03af58	-0.032149643
2	0xbccc5275	-0.024941662
3	0xbd668e1d	-0.056287874
4	0xbd8b7f72	-0.06811418
5	0xbbe907e5	-0.007111537
6	0xbd8c9518	-0.06864375
7	0xbd29fa99	-0.041498754
8	0xbd24dcd4	-0.04024966
9	0xbd5e002e	-0.05419939
10	0xbc9d8e36	-0.01923285
11	0x3d552e5b	0.05204616
12	0xbd1f5e15	-0.038908083
13	0x3d04d9c9	0.03243426
14	0x3d201dd4	0.039090946
15	0x3d9ade3d	0.0756192
16	0x3e17d7eb	0.1482846
17	0x3dc9af0b	0.0984784
18	0xbd323e2b	-0.04351632
19	0x3bd3bc75	0.006461675
20	0x3de02585	0.10944656
21	0x3c90a342	0.017655972
22	0x3c12e093	0.0089646755
23	0x3c26f4b8	0.010190181
24	0x3dabadea	0.08382781
25	0x3e2f6048	0.17126572
26	0x3d191415	0.037372667
27	0x3d92e829	0.07173187
28	0x3c9d0e47	0.019171847
29	0xbe034203	-0.1281815
30	0x3dab018d	0.08349905
31	0x3d5f46e2	0.05451096
32	0xbdce0ec5	-0.10061411
33	0xb9e2bba8	-0.00043245894
34	0xbdc171ee	-0.094455585
35	0xbe50c531	-0.20387723
36	0x3d42a9b9	0.04752514
37	0x3df82a37	0.12117427
38	0xbd578764	-0.052619353
39	0x3c4f2a8f	0.012644424
40	0x3dfce37b	0.12348076
41	0x3c0c34f2	0.008557545
42	0x3ccf82ed	0.025330985
43	0x3d0ecb19	0.034861658
44	0xbd878ae0	-0.06618285
45	0x3aaeee4e	0.0013346167
46	0x3d825cfd	0.06365392
47	0x3b9bf8e3	0.004759894
48	0x3c5d8aba	0.0135218445
49	0x3cde1954	0.027111687
50	0x3d0af0e4	0.033921137
51	0x3d0d8c8e	0.03455787
52	0x3db3de64	0.08782652
53	0x3d58e8a8	0.052956253
54	0x3d57cde3	0.052686583
55	0x3cb2cf26	0.021827292
56	0x3d2ebe46	0.042661928
57	0xbd55547a	-0.052082516
58	0xbc64fd8e	-0.013976468
59	0xbda225a6	-0.07917337
60	0xbd90daa6	-0.07072954
61	0xbd01f571	-0.03172821
62	0xbe30f1c1	-0.17279722
63	0x3c2154ac	0.0098468475
64	0xbd9f4ca1	-0.07778288
65	0xbd901fe4	-0.07037333
66	0xbc9cc959	-0.019138979
67	0x3dc01930	0.09379804
68	0xbd25ea0f	-0.04050642
69	0x3d0a8791	0.033820692
70	0x3ea31303	0.31850442
71	0x3d325099	0.043533895
72	0xbd01f5cc	-0.03172855
73	0xbd8cbed4	-0.06872335
74	0xbc66f2d0	-0.014095977
75	0x3b9491d6	0.0045339866
76	0x3d711e18	0.05886659
77	0xbcd204a0	-0.025636971
78	0x3bcdac68	0.006276656
79	0x3e3046d1	0.17214514
80	0x3d46aefa	0.048506714
81	0x3d5b13a2	0.05348552
82	0x3b36a1e0	0.002786748
83	0x39fc30df	0.00048101597
84	0x3daf5b4a	0.08562334
85	0x3dd48a68	0.103779614
86	0x3da7c4ab	0.08191808
87	0x3c3fbcee	0.011702759
88	0x3d820349	0.06348283
89	0x3d49ec49	0.049297605
90	0x3c9d3bbc	0.019193523
91	0xbdb71dd5	-0.08941237
92	0xba9cbff9	-0.0011959068
93	0xbdc1b1ba	-0.09457727
94	0xbca1e9f1	-0.019764872
95	0xbd31bf86	-0.04339554
96	0xbdd96258	-0.10614461
97	0x3c6a5bd4	0.01430412
98	0x3d7d6d58	0.061871856
99	0x3b8a22d9	0.00421558
100	0xbcef0a38	-0.029179677
101	0xbc965ca4	-0.018354721
102	0xbdc4107f	-0.09573459
103	0xbd04e492	-0.032444544
104	0x3b3ce692	0.0028823954
105	0xbdad9a14	-0.08476654
106	0x3d302c27	0.043010857
107	0x3dd008b7	0.10157912
108	0x3d833aa9	0.06407673
109	0x3e0e4b72	0.13895968
110	0x3e064a55	0.13114293
111	0x3c9b148e	0.0189307
112	0x3dabbbba	0.083854154
113	0x3ceb2cad	0.028707827
114	0x3c1bcafe	0.009508846
115	0xbd8480b8	-0.06469864
116	0xbdab36ce	-0.083600625
117	0x3d732513	0.05936153
118	0x3e06dc9c	0.13170093
119	0x3d32e78f	0.043677863
120	0x3d4cd3b2	0.050006576
121	0x3dc61080	0.09671116
122	0x3c1b536b	0.009480338
123	0x3d402550	0.046910584
124	0xbd80cd06	-0.06289105
125	0x3bef4f19	0.0073031303
126	0xbb853058	-0.004064601
127	0x3b6c7f37	0.0036086568
128	0xbd3b045f	-0.045658465
129	0x3db6abff	0.089195244
130	0x3d0732c3	0.033007395
131	0x3c9a252f	0.018816559
132	0x3d8a7add	0.067617156
133	0xbd03725c	-0.032091483
134	0xbc9226f5	-0.017840842
135	0x3cbb8bc4	0.022893794
136	0xbd04b8c6	-0.032402776
137	0x3d5ab720	0.053397298
138	0xbdb4a0f9	-0.088197656
139	0xbd9a7db9	-0.07543511
140	0x3d817c73	0.06322565
141	0x3cb194b1	0.021677347
142	0x3d481ec2	0.048857458
143	0x3d1e1e0a	0.038602866
144	0x3d1318d1	0.03591234
145	0x3c22012a	0.009887973
146	0x3d9c480a	0.07630928
147	0xbd86d6fd	-0.065839745
148	0xbd750e69	-0.059828196
149	0x3b264972	0.0025373367
150	0x3d8580d8	0.065187156
151	0x3d8f430b	0.06995209
152	0xbd01e73a	-0.031714655
153	0x3cc3a2c1	0.023881318
154	0xbd255ad8	-0.04036984
155	0xbc2a08c5	-0.010378067
156	0xbd96e6fd	-0.07368276
157	0xbdb6526b	-0.08902439
158	0xbdcf7d07	-0.10131269
159	0x3d9bd86f	0.07609641
160	0x3d31da0b	0.043420833
161	0x3c606834	0.013696719
162	0x3df9a935	0.12190477
163	0x3e51f566	0.20503768
164	0x3ddb5af9	0.10710711
165	0x3cf889fc	0.030339234
166	0xbd1e894d	-0.03870516
167	0xbd95091d	-0.07277129
168	0xbd1f9efb	-0.038969975
169	0xbd17b82a	-0.037040867
170	0xbcf8f53e	-0.030390378
171	0x3e5b1ca0	0.21397638
172	0x3e148073	0.14502124
173	0x3d8c1d84	0.06841567
174	0xbc97b7ab	-0.018520197
175	0xbd4417fb	-0.047874432
176	0xbd23c3db	-0.039981704
177	0x3c7a3426	0.015271222
178	0xba8bca1e	-0.0010665094
179	0x3cfe1d18	0.031019732
180	0x3cf05b47	0.0293404
181	0x3af2626c	0.0018492467
182	0xbcf2335e	-0.02956551
183	0x3d81a5d6	0.06330459
184	0xbd64fca6	-0.055905007
185	0xbcb76e11	-0.022391351
186	0x3c0539ca	0.008131454
187	0xbc99c627	-0.018771244
188	0x3cc52520	0.024065554
189	0x3d8ef107	0.06979566
190	0xbc2e11e1	-0.01062438
191	0xbd7f3f6e	-0.06231635
192	0x3e1a7679	0.15084256
193	0x3d83adbc	0.064296216
194	0x3ce08573	0.027407384
195	0x3c9ca332	0.019120786
196	0xbcf49b7d	-0.029859299
197	0xbcd08129	-0.025452213
198	0xbd3d3a42	-0.046198137
199	0xbdd8f0c9	-0.10592801
200	0xbe0badb2	-0.13640478
201	0xbd32cb72	-0.04365105
202	0xbccfd1b7	-0.025368555
203	0xbd794f2c	-0.06086652
204	0xbe105ae9	-0.1409718
205	0xbda3c224	-0.07996014
206	0xbd2dc09a	-0.042420007
207	0x3c8c61ff	0.017136572
208	0x3c8d36de	0.017238077
209	0xbccd3a0e	-0.025052097
210	0x3c987008	0.018608108
211	0x3ce2761f	0.027644215
212	0x3ce66a4e	0.028126862
213	0xbd0cb402	-0.034351356
214	0x3cdbda9a	0.026837636
215	0x3d8778a7	0.066148095
216	0x3e32cc49	0.17460741
217	0x3d0a9f1a	0.033843137
218	0xbd4074af	-0.04698628
219	0x3ca8c602	0.02060223
220	0x3d21442f	0.039371666
221	0x3d265d89	0.040616546
222	0xbdfca309	-0.12335784
223	0x3d60cfbf	0.054885622
224	0x3c0cdb3d	0.008597192
225	0x3d5cd707	0.053916004
226	0xbd3527ba	-0.04422734
227	0xbd71c43b	-0.05902503
228	0x3cc16482	0.023607496
229	0x3df1a7e8	0.11799604
230	0xbd7315b8	-0.059346884
231	0xbd96ee25	-0.07369641
232	0x3dbdb1d5	0.092624344
233	0xbd7d1729	-0.061789665
234	0xbd31570b	-0.0432959
235	0xbb628909	-0.0034566543
236	0xbd18e457	-0.037327137
237	0xbcbb35ba	-0.022852767
238	0x3d3bf55b	0.045888286
239	0xbd75ae04	-0.059980407
240	0xbe0e6bad	-0.13908263
241	0x3d422020	0.047393918
242	0xbc24432c	-0.010025781
243	0x3d8312da	0.0640008
244	0xbd487e81	-0.04894877
245	0xbd5bdc9d	-0.05367719
246	0x3c609201	0.013706685
247	0xbd8a96d2	-0.06767048
248	0x3cc1c146	0.02365173
249	0xbcfcb0a6	-0.030845951
250	0xbd55755a	-0.05211387
251	0x3cea762f	0.028620807
252	0x3e1d5980	0.15366173
253	0xbd2c28f2	-0.042031236
254	0xbdaa38ca	-0.08311613
255	0x3d846129	0.06463844

head.conv.bias f4 [32]
0	0x3db277a8	0.08714229
1	0x3e229900	0.15878677
2	0x3c81bb3c	0.01583635
3	0x3e037560	0.12837744
4	0xbd836c6b	-0.064171635
5	0x3e217279	0.15766324
6	0xbd9fb3d2	-0.0779797
7	0xbe10a305	-0.14124687
8	0xbe776671	-0.24160172
9	0xbde1241c	-0.109932154
10	0x3e0fee3d	0.14055724
11	0x3dff6ac5	0.124715365
12	0xbe2b1ade	-0.16709468
13	0xbdd83bfc	-0.10558316
14	0x3de74588	0.11292559
15	0xbdd467fb	-0.10371395
16	0xbe109272	-0.14118364
17	0xbbfb53aa	-0.0076698856
18	0xbd7c7bf6	-0.061641656
19	0x3d666bd4	0.056255177
20	0x3d748be7	0.059703734
21	0x3c5a5d76	0.013327947
22	0x3dc76008	0.097351134
23	0x3e3312cf	0.17487644
24	0x3e19b6fe	0.15011212
25	0x3e28e76b	0.16494529
26	0xbd9de3bf	-0.07709455
27	0x3d2d23f4	0.042270616
28	0x3da26645	0.079296626
29	0x3e17ecc3	0.14836411
30	0x3df0ebc5	0.117637195
31	0xbc7c43e2	-0.015397044

head.norm.weight f4 [32]
0	0x3f870167	1.0547303
1	0x3f873aae	1.0564783
2	0x3f861f75	1.047835
3	0x3f57b16c	0.842551
4	0x3f8aec9e	1.085346
5	0x3f709440	0.9397621
6	0x3f8b35db	1.087581
7	0x3f3fb949	0.748921
8	0x3f7574c6	0.9588131
9	0x3f844ef4	1.0336595
10	0x3f95c60a	1.1701062
11	0x3f8a89eb	1.0823339
12	0x3f7277cd	0.9471405
13	0x3f488e45	0.78342086
14	0x3f374c31	0.71600634
15	0x3f565240	0.83719254
16	0x3f7021f9	0.9380184
17	0x3f79fdb0	0.9765272
18	0x3f624ea6	0.8840126
19	0x3f902ea9	1.126424
20	0x3f617bf2	0.8807975
21	0x3f8a3dbc	1.080009
22	0x3f72e81d	0.94885427
23	0x3f86f44a	1.0543301
24	0x3f7b9952	0.98280823
25	0x3f798844	0.9747355
26	0x3f859c6c	1.0438361
27	0x3f82a841	1.0207597
28	0x3f581c95	0.8441861
29	0x3f771143	0.96510714
30	0x3f55caa7	0.8351235
31	0x3f78f071	0.97241884

head.norm.bias f4 [32]
0	0x3b12c22d	0.002239357
1	0x3ddf8f19	0.109159656
2	0xbdfdd959	-0.123949714
3	0xbed8e48f	-0.42361876
4	0x3e0d95f5	0.13826735
5	0xbef3d0a9	-0.47620133
6	0x3df14edd	0.1178262
7	0xbe868c51	-0.26278928
8	0xbed5b9c8	-0.41743302
9	0xbe3a1250	-0.18171048
10	0xbd65d40a	-0.05611042
11	0x3d4654a8	0.04842058
12	0xbe182ef1	-0.14861657
13	0xbe4887e1	-0.19583084
14	0xbe9793c9	-0.2960494
15	0xbe89ab62	-0.26888567
16	0xbeb5088a	-0.35358077
17	0xbcc54c9f	-0.024084387
18	0xbe00d7b2	-0.12582281
19	0x3e093a22	0.13401082
20	0xbeb35618	-0.35026622
21	0xbe83d2f5	-0.25746885
22	0xbeba717d	-0.3641471
23	0xbddcf733	-0.10789337
24	0xbe332d9c	-0.17497867
25	0x3c76b265	0.015057181
26	0xbec901b1	-0.39259103
27	0xbb3d0b21	-0.0028845745
28	0xbe6a6134	-0.22888643
29	0xbe746dae	-0.23869964
30	0xbebef08e	-0.37292904
31	0xbe97cf4c	-0.29650342

head.norm.running_mean f4 [32]
0	0x3e40d77b	0.188322
1	0x3e7104bd	0.23536964
2	0x3d9b8f27	0.075956635
3	0x3d83be7b	0.06432816
4	0xbd44bc90	-0.04803139
5	0x3e127539	0.1430253
6	0xbd8f5bdc	-0.06999943
7	0xbe40fdd7	-0.18846832
8	0xbe90b2fb	-0.2826155
9	0xbdd041cc	-0.101688
10	0x3e056756	0.13027701
11	0x3dfcd594	0.12345424
12	0xbe828208	-0.2548983
13	0xbe4690ba	-0.19391146
14	0x3d8f062f	0.06983601
15	0xbe31f842	-0.17379859
16	0xbe005408	-0.12532055
17	0xbd211fe2	-0.039337046
18	0xbda424b4	-0.08014813
19	0x3d8c0aed	0.068380214
20	0xbcd001b9	-0.025391446
21	0x3c8eb2b7	0.017419202
22	0x3df0a50e	0.11750232
23	0x3e4d1307	0.2002679
24	0x3e4cf74e	0.20016214
25	0x3e284f96	0.1643661
26	0xbdb3c520	-0.08777833
27	0x3e352743	0.17690758
28	0x3cfa01a4	0.03051836
29	0x3e07e81e	0.1327214
30	0x3d94e54e	0.07270299
31	0xbc5d4590	-0.0135053545

head.norm.running_var f4 [32]
0	0x3ce05f71	0.02738926
1	0x3c8a244b	0.016863009
2	0x3c458615	0.012055893
3	0x3bcda54f	0.00627581
4	0x3cd76ecf	0.026297955
5	0x3b10c552	0.0022090268
6	0x3c89aefc	0.016807072
7	0x3c03c92f	0.008043571
8	0x3b84dc37	0.004054572
9	0x3b60fcee	0.0034330445
10	0x3b387509	0.002814593
11	0x3b7c8f59	0.003853759
12	0x3c275b53	0.0102146445
13	0x3cdd6c06	0.027029049
14	0x3cb8d627	0.022563053
15	0x3c5dea12	0.013544576
16	0x3bf7821e	0.007553353
17	0x3bf46a0b	0.0074589304
18	0x3b854c07	0.004067901
19	0x3cb9ce0c	0.022681259
20	0x3c4b6e36	0.012416413
21	0x3bae11a1	0.00531216
22	0x3b2cc420	0.0026362017
23	0x3c5564fb	0.013024564
24	0x3c0ab277	0.008465401
25	0x3be6510e	0.0070287054
26	0x3ad5ba2e	0.0016306096
27	0x3d435e48	0.047697335
28	0x3c1511bc	0.0090984665
29	0x3cd899a3	0.026440447
30	0x3b5b9b3a	0.003350927
31	0x3ada8bcc	0.0016673743

body.block1.conv.weight f4 [32, 32, 3, 3]
0	0x3da90c85	0.08254341
1	0x3e206ebb	0.1566724
2	0x3de6b3ad	0.11264739
3	0x3dc35ba2	0.09538962
4	0x3d0c472d	0.034247566
5	0xb91df7da	-0.00015065019
6	0x3ceef4c5	0.02916945
7	0xbd3ff328	-0.04686275
8	0xbd95ae8e	-0.07308684
9	0xbbe61120	-0.0070210844
10	0xbcb0d1da	-0.02158444
11	0x3d8a08a0	0.06739926
12	0x3d1ec2f5	0.038760144
13	0x3d3d5c03	0.046230327
14	0x3d89a137	0.067202024
15	0x3cd41957	0.02589099
16	0x3d135bb4	0.035976127
17	0x3dde8dfc	0.10866925
18	0xbab665dc	-0.0013915855
19	0x3d4ce699	0.050024603
20	0x3e3de5c8	0.18544686
21	0xbd1e6f4a	-0.038680352
22	0xbdba5bc6	-0.09099536
23	0x3c435ddb	0.011924232
24	0xbcd48b59	-0.025945352
25	0xbdb671dd	-0.089084364
26	0xbd082ce8	-0.03324595
27	0xbc3e9931	-0.011633203
28	0x3cb2c1d6	0.021820944
29	0x3da57f58	0.080809295
30	0xbbc87caa	-0.0061183767
31	0xbd0f4d70	-0.03498596
32	0x3da01f0a	0.0781842
33	0x3d70a7b6	0.05875369
34	0x3c0a8518	0.008454584
35	0x3c5937a2	0.013257893
36	0x3d6e326a	0.058153547
37	0x3dadf8ef	0.08494746
38	0x3d9ee72b	0.077589355
39	0x3a0ac5e1	0.00052937685
40	0x3d9d9156	0.07693736
41	0x3d009df1	0.031400625
42	0x3d1950d6	0.037430607
43	0x3d10e749	0.03537682
44	0x3d72dc34	0.059292033
45	0x3d99bef9	0.07507128
46	0xbd68aafe	-0.056803696
47	0x3d1a3da9	0.03765646
48	0x3d74e431	0.059787933
49	0x3c168916	0.009187957
50	0xbd9c288d	-0.07624922
51	0x3d627eee	0.05529683
52	0x3dc88d4a	0.09792574
53	0x3d4a76a2	0.049429543
54	0x3db8b885	0.09019569
55	0x3d1575fd	0.036489476
56	0x3d3cd4c1	0.046101335
57	0xbc6e4c98	-0.014544629
58	0xbc15706f	-0.009121045
59	0xbced11ef	-0.028939215
60	0x3cb8aaaf	0.022542326
61	0x3dc71f35	0.09722749
62	0x3ddbf590	0.10740197
63	0xbc7aa4e4	-0.015298102
64	0x3d01710b	0.031601947
65	0x3c497793	0.012296575
66	0x3d7d491d	0.061837304
67	0x3d29629f	0.041353818
68	0x3dbc4e7b	0.091946565
69	0x3bd4ab48	0.006490145
70	0xbd68b812	-0.056816168
71	0xbdd2b7f7	-0.10288995
72	0x3d55550b	0.052083056
73	0xbd98f148	-0.07467896
74	0x3dedf36c	0.11618695
75	0x3d6012f6	0.054705583
76	0xbd8cdf75	-0.068785585
77	0x3cc70fe4	0.02429957
78	0xbd24cb13	-0.04023273
79	0xbd99e0fd	-0.07513616
80	0xbda9ebf6	-0.08296959
81	0xbc88266c	-0.016619883
82	0x3d8f0d11	0.06984914
83	0xbd15b74f	-0.03655177
84	0x3d6246ad	0.055243183
85	0x3df1733c	0.11789557
86	0x3b1f1576	0.0024274266
87	0x3d774c4b	0.060375493
88	0x3dc2689b	0.09492608
89	0xbd4db2ba	-0.050219275
90	0xbe23bbe4	-0.15989643
91	0xbd0c5c83	-0.034267914
92	0xbdeff689	-0.11716945
93	0xbde879bc	-0.11351344
94	0x3d813951	0.0630976
95	0xbba03e9a	-0.004890275
96	0xbe1dd9ad	-0.15415068
97	0xbd27f3a9	-0.041003857
98	0xbd31a682	-0.043371685
99	0xbca4d280	-0.020119905
100	0xbd02704a	-0.03184537
101	0xbd120682	-0.035650738
102	0x3e04c2a7	0.12964879
103	0x3d82b9e2	0.063831106
104	0x3dbaa867	0.091141514
105	0x3d761dfe	0.060087197
106	0x3d3c30ee	0.0459451
107	0xbde0ae63	-0.109707616
108	0xbdab69df	-0.08369803
109	0xbd66e01c	-0.05636607
110	0xbd413929	-0.047173653
111	0xbd7fada6	-0.062421463
112	0xbb8153b6	-0.0039467467
113	0x3c04ab81	0.00809753
114	0xbda97c86	-0.08275704
115	0xbdb73623	-0.08945873
116	0xbdefcf69	-0.11709482
117	0x3dace35f	0.08441805
118	0x3dc90e97	0.09817236
119	0xbd97d746	-0.07414107
120	0x3d5f9000	0.05458069
121	0x3d896a45	0.067097224
122	0xbb29802d	-0.0025863752
123	0xbb0277ee	-0.001990791
124	0x3c9a4237	0.018830402
125	0xbd35813b	-0.044312697
126	0xbb8bb79a	-0.0042638304
127	0x3bdbe207	0.006710294
128	0x3c96c77a	0.018405665
129	0xbb9e84ef	-0.0048376243
130	0xbb0e3744	-0.0021700421
131	0xbd871146	-0.065950915
132	0x3c9479d3	0.018124497
133	0xb876c2b6	-5.883231e-05
134	0xbd8ee212	-0.06976713
135	0xbd157f2e	-0.03649824
136	0x3d069328	0.032855183
137	0x3cc9d8f0	0.024639577
138	0x3c822f06	0.015891563
139	0xbdb3c5ff	-0.08777999
140	0x3d1bdaa9	0.038050327
141	0x3bc4e2af	0.006008468
142	0xbdaaa5a3	-0.08332374
143	0xbdf418e6	-0.119188115
144	0x3ba36f35	0.004987622
145	0x3d52c974	0.051461652
146	0xbd6a1a46	-0.057153963
147	0x3c3c0147	0.011474914
148	0xbb0ea4be	-0.0021765674
149	0xbd457f40	-0.04821706
150	0x3dce35cc	0.10068855
151	0xbbb7db23	-0.00561084
152	0x3d500bee	0.050792627
153	0x3d8c52e0	0.06851745
154	0x3d2a50a4	0.04158081
155	0xbbd8bfa1	-0.006614641
156	0xbd07d555	-0.033162434
157	0xbd956820	-0.07295251
158	0xbdcf4b93	-0.101218365
159	0x3c449e0e	0.012000574
160	0xbcc8f39e	-0.024530228
161	0xbd32a3a8	-0.043613106
162	0xbd1dafa5	-0.038497586
163	0x3bc47918	0.005995881
164	0x3c9b01c6	0.018921744
165	0xbdc133f7	-0.0943374
166	0x3c047448	0.008084364
167	0xbd0670ca	-0.032822408
168	0xbd9212c0	-0.071324825
169	0x3a3ac9be	0.0007125399
170	0xbcf435cb	-0.029810807
171	0x3b3dbea2	0.0028952737
172	0x3cd79e07	0.02632047
173	0x3e09255a	0.13393155
174	0x3cee9174	0.029122092
175	0x3d80add6	0.062831566
176	0x3d8e6e0b	0.06954583
177	0x3e0b11f6	0.1358107
178	0x3e38d2c1	0.18049146
179	0x3d9b651b	0.07587644
180	0x3daac316	0.08337991
181	0xbc2005f8	-0.009767048
182	0xbdb56d5c	-0.08858749
183	0x3d956a58	0.07295674
184	0x3d8508f8	0.06495851
185	0xbd80b8de	-0.062852606
186	0xba5c99fb	-0.0008415279
187	0xbc6de678	-0.01452028
188	0x3ba46fb5	0.0050181993
189	0x3dc0c4f0	0.09412563
190	0x3d85f31b	0.06540509
191	0x3cbe108e	0.023201253
192	0x3d27d1ec	0.04097168
193	0x3d28f97a	0.041253544
194	0x3d0b4025	0.03399672
195	0xbcbde331	-0.023179622
196	0x3cc7cefc	0.02439069
197	0x3bcb1d91	0.006198593
198	0x3d815b99	0.06316299
199	0x3c820080	0.015869379
200	0x3c2e9c04	0.010657314
201	0xbb8521a7	-0.0040628496
202	0x3dbb5bf3	0.09148397
203	0xbd8e6d03	-0.06954386
204	0xbe4f6457	-0.2025312
205	0xbd18879e	-0.03723871
206	0xbc8c0673	-0.017092919
207	0x3ccfc94b	0.025364539
208	0x3df59237	0.11990779
209	0x3e1168f9	0.142002
210	0x3d7955f5	0.06087299
211	0x3dd1f18f	0.10251152
212	0x3d4020af	0.04690617
213	0x3caede51	0.021346243
214	0x3d8a2216	0.067447826
215	0xbd06b22c	-0.03288476
216	0x3d2c38f9	0.04204652
217	0x3d0d6432	0.03451938
218	0xbdad112f	-0.08450543
219	0x3cfe3c71	0.03103468
220	0x3d4c7355	0.049914677
221	0x3b0ea710	0.0021767057
222	0x3d2e2f91	0.04252583
223	0xbcd89e61	-0.026442708
224	0xbdc23728	-0.094831765
225	0xbde96374	-0.11395922
226	0xbd237298	-0.039904207
227	0xbc84df46	-0.016219746
228	0xbc356e02	-0.011073591
229	0xbbf1a8d0	-0.0073748603
230	0xbd1012e0	-0.03517425
231	0xbd1029ab	-0.035195988
232	0xbd821e2a	-0.063534096
233	0x3d355ddb	0.04427896
234	0x3d1c468b	0.038153213
235	0xbb8963ab	-0.0041927896
236	0xbd0b32f7	-0.03398415
237	0x3b7cbfd7	0.0038566494
238	0xbdff7d6b	-0.124750935
239	0x3d649bcf	0.055812653
240	0x3de73fab	0.112914406
241	0x3d6bf716	0.057608686
242	0x3d84114e	0.06448613
243	0x3e20ca9c	0.1570229
244	0x3e542e1c	0.20720714
245	0x3d1d4c54	0.03840287
246	0x3d8d1590	0.06888878
247	0x3d3d750a	0.046254195
248	0xbd8413b5	-0.06449071
249	0xba006484	-0.00048977905
250	0xbd125e91	-0.035734717
251	0xbc9f6c25	-0.019460747
252	0x3c3ab090	0.011394635
253	0x3c99f336	0.01879273
254	0x3d804474	0.062630564
255	0x3d5557bb	0.05208562

body.block1.conv.bias f4 [32]
0	0xbd1b7531	-0.03795356
1	0xbcb5eea1	-0.022208514
2	0xbd499466	-0.04921379
3	0x3d23949b	0.039936643
4	0xbc4feba7	-0.012690461
5	0x3cb9b916	0.022671264
6	0x3c06c9c3	0.008226815
7	0xbadd09dd	-0.0016863901
8	0x3ca6a1e9	0.020340877
9	0xbcde7b8a	-0.027158517
10	0xbcbcfd7e	-0.023070093
11	0xbc67cf7c	-0.014148589
12	0xbc4a70b5	-0.012355973
13	0x3d1c2236	0.038118564
14	0xbd60dc63	-0.054897677
15	0x3d49400d	0.04913335
16	0xbd39f146	-0.045396112
17	0xbc3cf36c	-0.011532646
18	0x3d717955	0.058953602
19	0xba0618b0	-0.0005115373
20	0xbd657547	-0.056020048
21	0xbd4717eb	-0.048606794
22	0x3c86f807	0.01647569
23	0xbd29db63	-0.04146899
24	0x3d6162b7	0.055025782
25	0xbcfa2fa0	-0.030540287
26	0x3c88aaf1	0.016683074
27	0xbd594a35	-0.053049285
28	0x3ce5e3bd	0.028062696
29	0xbcbcbb38	-0.023038492
30	0xbc318619	-0.010835194
31	0xbc57650d	-0.013146651

body.block1.norm.weight f4 [32]
0	0x3f829290	1.0200977
1	0x3f74da9c	0.9564607
2	0x3f745b60	0.9545193
3	0x3f6e35b0	0.9305067
4	0x3f84f728	1.0387926
5	0x3f7ebbd2	0.9950534
6	0x3f8d7341	1.1050798
7	0x3f77f85b	0.96863335
8	0x3f746002	0.95458996
9	0x3f791174	0.97292256
10	0x3f642ed8	0.8913398
11	0x3f704153	0.93849677
12	0x3f6901bf	0.9101829
13	0x3f86015e	1.0469167
14	0x3f7ac510	0.97956944
15	0x3f602651	0.87558466
16	0x3f88c4cd	1.0685059
17	0x3f6ba0d2	0.9204227
18	0x3f76eb1f	0.96452516
19	0x3f7b6ca8	0.9821267
20	0x3f703cba	0.9384266
21	0x3f789d82	0.9711534
22	0x3f78b6af	0.97153753
23	0x3f822854	1.0168557
24	0x3f6d04f4	0.9258568
25	0x3f69cee9	0.91331345
26	0x3f7b2dcb	0.9811675
27	0x3f853309	1.04062
28	0x3f7c7ed1	0.98631006
29	0x3f635d34	0.8881409
30	0x3f7c1b95	0.98479587
31	0x3f6423d1	0.8911715

body.block1.norm.bias f4 [32]
0	0xbde0dff6	-0.10980217
1	0xbe83c727	-0.2573788
2	0x3db7e54c	0.08979282
3	0xbecc3c99	-0.39889982
4	0xbc8bd1b1	-0.017067762
5	0xbcfe6f6c	-0.03105899
6	0x3cb987c6	0.02264775
7	0xbef750cb	-0.48303828
8	0xbe415416	-0.18879732
9	0xbe473689	-0.19454397
10	0xba8f4aa3	-0.0010932278
11	0xbe5d49ba	-0.21610156
12	0xbecd606d	-0.4011263
13	0xbc1695c8	-0.009190984
14	0xbf11de1b	-0.5697953
15	0xbe870e0e	-0.2637791
16	0x3db5d86c	0.0887917
17	0xbe338815	-0.1753238
18	0xbe4db8e7	-0.20090066
19	0xbdc3c8c9	-0.09559781
20	0xbea4c8d7	-0.3218448
21	0xbeb0f773	-0.3456379
22	0xbdc936bd	-0.098248936
23	0xbe82bb14	-0.25533354
24	0xbed1e21b	-0.40992817
25	0xbe992192	-0.29908425
26	0xbf1e49d6	-0.61831415
27	0xbeb98625	-0.36235157
28	0xbee8aa7d	-0.45442572
29	0xbe81ea10	-0.25373888
30	0xbdf1c003	-0.118042015
31	0xbeab69bb	-0.33479103

body.block1.norm.running_mean f4 [32]
0	0x3f8538c2	1.0407946
1	0xbf3350fe	-0.7004546
2	0xbfb8fe7a	-1.445266
3	0xbe8e7dbf	-0.27830312
4	0xbe2d6e8d	-0.16936703
5	0xbf4bf270	-0.79666805
6	0xbf2c00c1	-0.6718865
7	0x3f807452	1.0035498
8	0xbf180f32	-0.59398186
9	0xbf1f56ee	-0.6224202
10	0x3f2a48f8	0.6651759
11	0xbf7ec8e7	-0.995253
12	0xbe083b32	-0.13303831
13	0xbe397a5c	-0.18113083
14	0xbea59196	-0.32337636
15	0xbe2c58e9	-0.16830792
16	0xbf8e2a2d	-1.1106621
17	0xbeb46c55	-0.352389
18	0x3f87e55c	1.061687
19	0x3f9f0e01	1.2426149
20	0x3dca2369	0.09870035
21	0xbeee162c	-0.4650129
22	0xbfaa2728	-1.32932
23	0xbf8b22fc	-1.0870051
24	0x3f5a74a6	0.8533424
25	0x3e77d682	0.24202922
26	0x3f569c3e	0.83832157
27	0xbe751dcf	-0.23937152
28	0xbed4ce81	-0.415638
29	0xbe00af2f	-0.12566827
30	0x3bf44a4e	0.007455147
31	0xbfb9089f	-1.4455756

body.block1.norm.running_var f4 [32]
0	0x400aed43	2.1707313
1	0x4037b01b	2.8701236
2	0x3fd6998e	1.6765611
3	0x3f5a8a4d	0.8536728
4	0x400032e7	2.0031068
5	0x4039b7a4	2.9018335
6	0x402b5d0d	2.6775544
7	0x3f64fb1d	0.8944567
8	0x3ffa38a4	1.9548535
9	0x3fee81f4	1.8633409
10	0x40205ed7	2.5057886
11	0x4057c979	3.371672
12	0x3f3d86b2	0.74033654
13	0x40aee409	5.4653363
14	0x3ea8388e	0.32855648
15	0x3f91a692	1.1378958
16	0x40890ac8	4.282566
17	0x3fbe243f	1.4854811
18	0x3ff0e747	1.882058
19	0x400289e0	2.0396652
20	0x3f3b8226	0.73245466
21	0x3f165b65	0.58733207
22	0x3fd0119c	1.6255374
23	0x3f2da78c	0.6783378
24	0x3fd28f91	1.6450063
25	0x3f09bb78	0.5380168
26	0x3f7b4fe3	0.9816877
27	0x3f847902	1.0349429
28	0x3ecb57e4	0.39715493
29	0x40338f53	2.8056228
30	0x402711ed	2.610469
31	0x4012c5d5	2.2933247

body.block2.conv.weight f4 [32, 32, 3, 3]
0	0xbb59427e	-0.0033151205
1	0xbdc549c2	-0.09633209
2	0xbd95094f	-0.07277166
3	0x3d9d28ab	0.076737724
4	0x3d8c853c	0.0686135
5	0xbc9143e4	-0.017732568
6	0xbd802dc3	-0.06258728
7	0xbca9bf52	-0.020721111
8	0x3b8100e1	0.0039368724
9	0xbd9b1afd	-0.07573507
10	0x3d6fcaa1	0.05854285
11	0x3c6e9353	0.014561492
12	0x3d7d13a8	0.061786324
13	0x3c3b30ce	0.01142521
14	0x3cf70601	0.03015423
15	0x3c2e1fac	0.010627668
16	0x3d4877c2	0.048942335
17	0xbc996433	-0.018724537
18	0xbc5e559d	-0.0135702165
19	0x3d41cafa	0.047312714
20	0xbd858e4f	-0.06521284
21	0xbe094424	-0.134049
22	0x3cdf87f8	0.027286515
23	0x3c9cf8fa	0.01916169
24	0xbd5053c7	-0.050861146
25	0xbd970bd3	-0.07375302
26	0x3e148281	0.14502908
27	0x3dada4d9	0.08478708
28	0x3bb63b11	0.0055612405
29	0xbc005d73	-0.00783478
30	0x3d785693	0.06062944
31	0x3cdc6bac	0.02690681
32	0x3cb33ce5	0.021879623
33	0xbd1a2e6c	-0.037641928
34	0xbd8cbc81	-0.06871892
35	0xbe18ac3e	-0.14909455
36	0xbd0adf09	-0.03390411
37	0xbdbd3baf	-0.09239899
38	0x3db4a0ae	0.0881971
39	0x3d5693ac	0.052386925
40	0xbce0e547	-0.027453078
41	0xbd99b635	-0.07505456
42	0x3bcb5d26	0.0062061725
43	0xbd168535	-0.03674813
44	0xbceab210	-0.02864936
45	0x3e0b2149	0.13586916
46	0x3da35de2	0.07976891
47	0xbdb7605f	-0.08953928
48	0xbe0b2290	-0.13587403
49	0xbdc2a051	-0.09503234
50	0xbcfd7f48	-0.030944481
51	0x3dcf573d	0.10124061
52	0xbdc69646	-0.09696631
53	0xbdd2e53a	-0.10297628
54	0x3c76b059	0.015056693
55	0x3c47ee8a	0.012202868
56	0xbd241784	-0.04006149
57	0xbd53a393	-0.05166967
58	0x3d3710f2	0.044693895
59	0x3d22b54b	0.039723676
60	0xbdb16ffb	-0.08663937
61	0xbe23878c	-0.15969676
62	0xbe1161e7	-0.14197503
63	0xbd524e0f	-0.051343974
64	0x3ce57f3b	0.02801477
65	0xbdd38c11	-0.1032945
66	0xbe07d8ea	-0.1326634
67	0xbd86ae94	-0.06576267
68	0xbd8d33d7	-0.06894653
69	0xbd8aa199	-0.067691036
70	0x3c84f206	0.016228687
71	0xbdb170cb	-0.08664092
72	0x3ca8660d	0.020556474
73	0x3b3848cd	0.0028119565
74	0x3ded2a2c	0.11580309
75	0x3c478811	0.012178437
76	0xbcddff9c	-0.027099423
77	0xbd1e0e95	-0.038588125
78	0x3d0e4bee	0.03474038
79	0xbd09d0fc	-0.03364657
80	0xbd2d3c36	-0.04229375
81	0xbcddf66b	-0.02709504
82	0xbbb2474d	-0.0054406286
83	0x3c45a6c1	0.012063683
84	0x3d28ea61	0.041239146
85	0x3dd70bbb	0.10500284
86	0x3db0c7e5	0.08631877
87	0x3d48ccbb	0.04902337
88	0x3e0111a8	0.12604392
89	0x3dcaf7eb	0.09910568
90	0x3d0be47b	0.034153443
91	0xbd4bcade	-0.049754016
92	0xbd2961aa	-0.041352905
93	0xbcfce49e	-0.030870732
94	0xbda7d806	-0.081955
95	0xbdd31254	-0.1030623
96	0x3d287baa	0.04113356
97	0xbc8eed92	-0.017447267
98	0xbdd5e37d	-0.104437806
99	0xbdd41af9	-0.10356707
100	0xbda94470	-0.082650065
101	0xbcbc4ad1	-0.022984894
102	0xbc988418	-0.018617675
103	0x3d99b788	0.07505709
104	0x3d8e6372	0.069525614
105	0xbdbd1415	-0.09232346
106	0xbcd29a2c	-0.02570828
107	0xbaa41787	-0.0012519219
108	0x3d69dd44	0.05709578
109	0x3d1dca2c	0.038522884
110	0x3d620777	0.0551829
111	0x3d051759	0.03249297
112	0xbc2a8719	-0.010408186
113	0x3c99dca1	0.018781962
114	0x3c95d1dc	0.018288545
115	0xbd9f635f	-0.077826254
116	0xbd6e934e	-0.05824595
117	0x3d3cdc63	0.046108615
118	0xbd40c3de	-0.047061794
119	0xbc2a1e33	-0.010383177
120	0x3d04d033	0.032425117
121	0xbda4dd5d	-0.08050034
122	0xbdddac76	-0.1082391
123	0x3ba042af	0.004890762
124	0xbd969dec	-0.0735434
125	0xbe1eee81	-0.1552067
126	0x3d2d6669	0.042333994
127	0x3bfef817	0.0077810395
128	0x3cfa642d	0.030565346
129	0x3cf23684	0.02956701
130	0xbdaea358	-0.08527249
131	0xbd8b29d2	-0.06795086
132	0xbd392417	-0.045200434
133	0x3d8c36a0	0.068463564
134	0xbb93712d	-0.0044995756
135	0xbdabf8e7	-0.08397084
136	0x3df8238f	0.12116157
137	0x3d349695	0.04408892
138	0xbc3ee519	-0.011651301
139	0x3d0b34b0	0.033985794
140	0xbd41a9ac	-0.047280952
141	0xbb6d6eed	-0.0036229447
142	0xbd3e10d0	-0.046402752
143	0xbd5d00a7	-0.0539557
144	0xbd152fa0	-0.036422372
145	0xbd9c902c	-0.07644686
146	0xbcbc1cff	-0.022963045
147	0x3ddafcb5	0.10692731
148	0x3cd2bd47	0.02572502
149	0x3a99aad4	0.0011723884
150	0xbc9e437c	-0.019319288
151	0xbd1f488e	-0.038887553
152	0x3cbbd7ad	0.02292999
153	0xbc5bbee8	-0.013412215
154	0x3bfadb63	0.0076555475
155	0x3bafc232	0.005363726
156	0xbca4f85e	-0.020137962
157	0xbd357fab	-0.044311207
158	0xbc1f3d20	-0.009719163
159	0x3cd69268	0.026192859
160	0x3cd64aeb	0.02615877
161	0xbc2fc194	-0.010727305
162	0x3c448599	0.011994743
163	0xbbc132f6	-0.0058959676
164	0x3d00ed7a	0.031476475
165	0x3df986b7	0.12183898
166	0x3d797897	0.06090602
167	0x3d7f9478	0.06239745
168	0x3ceba0d5	0.028763214
169	0x3b710847	0.0036778615
170	0xbc991745	-0.018687854
171	0x3c28b9e2	0.010298224
172	0x3d6fc501	0.058537487
173	0x3d5a4684	0.053289905
174	0xba8870da	-0.0010409609
175	0xbd045148	-0.03230408
176	0x3d7922e3	0.060824286
177	0xbdd2fe5d	-0.10302422
178	0xbd00e70b	-0.03147034
179	0x3c5b88ff	0.013399362
180	0xbdde1da9	-0.10845501
181	0xbdb92e8c	-0.09042081
182	0x3d9be497	0.076119594
183	0x3dd50bcd	0.104026414
184	0x3df89278	0.12137312
185	0x3d3be41a	0.04587183
186	0xbe00ecad	-0.12590285
187	0xbd7bcb94	-0.061473444
188	0xbce1b3d0	-0.027551562
189	0xbcff53be	-0.031167861
190	0xbd60f427	-0.05492034
191	0xbc3df93e	-0.0115950685
192	0xbd721701	-0.05910397
193	0xbd41df0c	-0.047331855
194	0x3d410ba2	0.047130235
195	0xbc0d5814	-0.0086269565
196	0x3c428ef6	0.011874905
197	0x3d3090da	0.04310689
198	0x3bb026a4	0.0053757
199	0x3de10b45	0.109884776
200	0x3c466e53	0.012111264
201	0x3d1311e7	0.035905745
202	0x3e6ec0a2	0.23315671
203	0x3cd6bc40	0.026212811
204	0xbda8389d	-0.08213923
205	0x3c82bb77	0.01595853
206	0x3cc78bfd	0.024358744
207	0xbdb246ec	-0.087049335
208	0x3cd6bb96	0.026212495
209	0xbc74357e	-0.014905332
210	0x3cfe19f3	0.031018233
211	0xbd090dc8	-0.03346041
212	0xbc9fb31f	-0.019494591
213	0x3d8df034	0.06930581
214	0x3cc71642	0.024302606
215	0x3d89f474	0.06736079
216	0x3c8cfbd3	0.017209923
217	0xbd17054a	-0.03687028
218	0xbdadb8d6	-0.0848252
219	0x3d2cec51	0.042217556
220	0xbbfe621a	-0.0077631595
221	0x3ce847bf	0.028354524
222	0xbd301739	-0.042990897
223	0xbd26fc62	-0.040768035
224	0xbd98617a	-0.07440467
225	0x3db7a4d8	0.08966988
226	0xb8847a99	-6.317086e-05
227	0xbd98dc04	-0.0746384
228	0xbda8e105	-0.08246044
229	0xbc55b2d3	-0.013043123
230	0xbb7669af	-0.0037599613
231	0xbdd1adef	-0.10238253
232	0xbb8c564c	-0.0042827483
233	0x3c7ac5e1	0.015305967
234	0x3be7a013	0.007068643
235	0xbcd9b0a1	-0.026573481
236	0x3c382635	0.011239578
237	0xbdbd2804	-0.09236148
238	0xbd999e53	-0.07500901
239	0xbd5dfa99	-0.054194067
240	0xbbe86d4b	-0.007093107
241	0xbceffd37	-0.029295547
242	0xbcc91700	-0.0245471
243	0xbcc0083e	-0.02344143
244	0xbd22c76d	-0.03974097
245	0xbe158093	-0.14599828
246	0x3d96f6be	0.07371281
247	0xbe0175fc	-0.12642664
248	0xbdb576db	-0.088605605
249	0x3bdd1cd6	0.0067478223
250	0xbdc8c4bc	-0.09803149
251	0xbc373ad0	-0.011183456
252	0xbba372af	-0.0049880366
253	0xbd159acf	-0.03652459
254	0xbbca4c1f	-0.006173625
255	0x3bdecf6a	0.006799628

body.block2.conv.bias f4 [32]
0	0xbd046fe5	-0.032333273
1	0x3c15c326	0.009140765
2	0x3c50bf71	0.012740956
3	0xbcf26b6a	-0.029592235
4	0x3c535ead	0.01290099
5	0xbca34558	-0.019930527
6	0xbced2e36	-0.0289527
7	0xbd84fc62	-0.06493451
8	0x3c81fb80	0.015866995
9	0xbd133021	-0.03593457
10	0x3d576a98	0.05259189
11	0xbd0bd5b8	-0.034139365
12	0xbcd99eb1	-0.026564928
13	0xbd643ed0	-0.055723965
14	0xbd00a08f	-0.03140312
15	0x3be0ffce	0.006866432
16	0x3d6be35c	0.057589874
17	0x3cd7bb69	0.026334481
18	0xbcb98f0f	-0.022651223
19	0xbd2005de	-0.039068095
20	0x392cb4b3	0.00016470514
21	0x3c5712f3	0.013127076
22	0xbbe74170	-0.0070573613
23	0xbcf3ab2d	-0.029744709
24	0x3ae5c5f4	0.0017530308
25	0xbc685acd	-0.014181805
26	0x3d15790e	0.0364924
27	0x3cf924a6	0.030412983
28	0x3cfe9c96	0.031080525
29	0x3d324069	0.043518458
30	0xbc5bca7d	-0.013414976
31	0x3d00ff6a	0.03149358

body.block2.norm.weight f4 [32]
0	0x3f88e61a	1.0695221
1	0x3f802b2e	1.0013177
2	0x3f7153b8	0.9426837
3	0x3f77d106	0.9680332
4	0x3f795385	0.97393066
5	0x3f73e7e7	0.9527573
6	0x3f7a8add	0.9786814
7	0x3f72c58d	0.9483269
8	0x3f7ddc89	0.99164635
9	0x3f772726	0.9654411
10	0x3f75bffa	0.9599606
11	0x3f852ee3	1.0404934
12	0x3f8dd6cf	1.1081179
13	0x3f7d90e2	0.990492
14	0x3f8d8839	1.1057197
15	0x3f7bc24c	0.9834335
16	0x3f7dcdff	0.9914245
17	0x3f885d34	1.0653443
18	0x3f7765d0	0.9663973
19	0x3f8e8125	1.1133162
20	0x3f80fa11	1.0076314
21	0x3f8c2552	1.0948889
22	0x3f838257	1.0274152
23	0x3f863b9f	1.0486945
24	0x3f76bea9	0.96384674
25	0x3f7f7d98	0.99801016
26	0x3f899ed1	1.0751592
27	0x3f79851e	0.97468746
28	0x3f778806	0.9669193
29	0x3f854af3	1.0413498
30	0x3f6a7d21	0.9159718
31	0x3f6314bb	0.8870351

body.block2.norm.bias f4 [32]
0	0xbdaa5ced	-0.083185054
1	0xbdc161d1	-0.09442485
2	0xbdb186b4	-0.08668271
3	0xbe34ce62	-0.17656854
4	0xbe9e69a7	-0.3093998
5	0x3d4139fb	0.047174435
6	0xbe308bdb	-0.1724085
7	0xbe43ff16	-0.19140276
8	0xbe5c911d	-0.21539731
9	0x3d1ec806	0.038764976
10	0xbdb765cc	-0.08954963
11	0xbdaec91d	-0.08534453
12	0xbe07d2a8	-0.13263953
13	0xbda09809	-0.078414984
14	0xbe826cda	-0.25473672
15	0xbee06a0e	-0.43830913
16	0xbde4ed52	-0.11178078
17	0xbe32525c	-0.1741423
18	0xbe33f7a5	-0.17574938
19	0xbeaa35ab	-0.3324407
20	0xbdc094f3	-0.0940341
21	0xbe9796be	-0.29607195
22	0xbe6df7f4	-0.23239118
23	0xbeb3146b	-0.34976515
24	0xbd358076	-0.044311963
25	0xbe512ada	-0.20426503
26	0xbdd75e76	-0.10516064
27	0xbdb3f040	-0.087860584
28	0xbde61dc9	-0.1123615
29	0xbd7e5ede	-0.06210219
30	0xbe2247b0	-0.15847659
31	0xbe9e8e58	-0.30967975

body.block2.norm.running_mean f4 [32]
0	0xbf18d9d7	-0.597074
1	0xbf8491d7	-1.0357007
2	0x3f7a52a6	0.9778236
3	0xbd58b81b	-0.05290995
4	0xbdf4ca0b	-0.11952599
5	0x3ebeb93b	0.37250695
6	0xbe9cb7ce	-0.30608982
7	0xbf2c4c9c	-0.67304397
8	0x3db20ad0	0.086934686
9	0xb51fa26e	-5.946848e-07
10	0x3f16e813	0.5894787
11	0xbf82bdbe	-1.0214155
12	0xbedd2df0	-0.4319911
13	0x3bfac28e	0.0076525873
14	0x3d6f14dd	0.058369506
15	0x3e1f786d	0.15573283
16	0xbed6933a	-0.419092
17	0x3dfd29e9	0.12361509
18	0x3f13e709	0.57774407
19	0x3e068109	0.1313516
20	0x3e31fd99	0.17381896
21	0xbf6cf48f	-0.92560667
22	0x3da94b78	0.08266348
23	0xbe18c17f	-0.14917563
24	0x3f53fe0f	0.8280954
25	0xbe62ad4f	-0.22136424
26	0xbe995c16	-0.29953068
27	0x3eb48e95	0.3526503
28	0xbf8c71c7	-1.0972222
29	0x3dbc3208	0.0918923
30	0x3e5dc8de	0.21658656
31	0x3f5a2478	0.85211897

body.block2.norm.running_var f4 [32]
0	0x3f7f9c40	0.99847794
1	0x3fb30628	1.3986254
2	0x3fad3a12	1.3533347
3	0x3e880d75	0.26572767
4	0x3fab7549	1.3395168
5	0x3f86adb1	1.0521756
6	0x3eecb893	0.4623457
7	0x3f45dace	0.77286994
8	0x3ea76ca8	0.32700086
9	0x3f1326d2	0.5748111
10	0x3f8dd334	1.1080079
11	0x3f8e675c	1.1125293
12	0x3faaa333	1.3331054
13	0x3fac49ed	1.346006
14	0x3f0fa64f	0.5611314
15	0x3ecc0f1a	0.39855272
16	0x3ff1c709	1.8888866
17	0x3f902512	1.1261313
18	0x3fb5eafd	1.4212338
19	0x3f527e75	0.8222421
20	0x3f6c954f	0.92415327
21	0x3f78d2d4	0.971967
22	0x3fe9f37e	1.8277433
23	0x3ef3b4e2	0.4759894
24	0x3fe2b271	1.7710706
25	0x3f05b9e7	0.5223679
26	0x3f4edcde	0.80805767
27	0x3fae878f	1.3635119
28	0x3f80d77d	1.0065762
29	0x3fba67ba	1.4562905
30	0x3f99b2a2	1.200764
31	0x3f7b8ab8	0.98258543

body.block3.conv.weight f4 [32, 32, 3, 3]
0	0x3d9fab26	0.07796316
1	0x3e08e271	0.1336763
2	0x3c8bf155	0.01708285
3	0x3ca03d10	0.019560367
4	0x3b4fd836	0.0031714565
5	0x3c4c54c3	0.012471381
6	0xbc632f20	-0.013866216
7	0xbd87f1a4	-0.06637886
8	0xbc73fb6f	-0.014891489
9	0x3dafd3f7	0.08585351
10	0x3d5ff5e7	0.05467787
11	0x3b2742ec	0.0025522066
12	0xbce84027	-0.028350903
13	0xbd4e8340	-0.05041814
14	0xbd6bf4d9	-0.05760655
15	0xbd72c0c0	-0.059265852
16	0xbc14355b	-0.009045924
17	0x3d334ccc	0.04377441
18	0xbd889242	-0.066685215
19	0x3cfd4965	0.030918786
20	0x3cb68e18	0.022284552
21	0xbe139683	-0.14412884
22	0xbc17414d	-0.0092318775
23	0xbcf7491e	-0.030186232
24	0xbd8ab16e	-0.06772123
25	0xbdc5a03f	-0.09649705
26	0xbd873c3b	-0.06603285
27	0xbd8ac168	-0.067751706
28	0xbd69a637	-0.05704328
29	0xbdaf6d2c	-0.08565745
30	0x3ddd3669	0.108013935
31	0xbdf0d0af	-0.11758553
32	0x3e06972a	0.13143602
33	0x3d4400fe	0.04785251
34	0xbcfaaca2	-0.030599896
35	0xbd0aa983	-0.033853065
36	0x3c601d77	0.0136789
37	0xbda95bde	-0.082694754
38	0x3d12c69b	0.035833936
39	0x3bc6ab32	0.0060628885
40	0xb96077e9	-0.00021406975
41	0x3cbdd7eb	0.023174247
42	0x3d6a525a	0.057207443
43	0xbd14130f	-0.03615099
44	0x3d7508a8	0.05982271
45	0x3c885e66	0.016646575
46	0x3bc8bd62	0.006126092
47	0x3c965996	0.018353265
48	0x3ceba42b	0.028764805
49	0xbbb4b2f1	-0.0055144955
50	0x3b8ebcdd	0.0043560104
51	0x3d54424a	0.05182103
52	0x3cfd0207	0.030884756
53	0x3e1476d5	0.14498456
54	0xbd59623c	-0.0530722
55	0x3e047c60	0.1293807
56	0xbc9b6671	-0.018969746
57	0xbdaa8fad	-0.08328185
58	0x3dc24e3d	0.09487579
59	0xbd0aac62	-0.033855803
60	0xbd16d7de	-0.03682696
61	0xbc15093d	-0.009096441
62	0x3d8461bd	0.064639546
63	0xbd54128d	-0.051775504
64	0xbdc4394f	-0.09581243
65	0xbd07bbfc	-0.03313826
66	0xbd0eb771	-0.034842912
67	0xbc4c4364	-0.012467239
68	0x3e1595aa	0.14607874
69	0x3be74804	0.0070581455
70	0x3d572726	0.05252757
71	0x3dc10945	0.09425596
72	0xbd8442f7	-0.06458085
73	0xbe135dc3	-0.14391236
74	0x3dcc44e0	0.09974074
75	0x3db1f90e	0.086900815
76	0xbde8c39a	-0.11365433
77	0xbd85b906	-0.06529431
78	0x3b7231ae	0.003695588
79	0x3dd09648	0.10184914
80	0x3d4f8058	0.050659508
81	0xbd19e159	-0.037568424
82	0x3d568db2	0.052381225
83	0x3b467405	0.0030281555
84	0xbd730fa6	-0.059341095
85	0xbe47da01	-0.19516756
86	0xbcf2b22e	-0.029625978
87	0xbbc2d222	-0.00594546
88	0x3b5447bd	0.0032391392
89	0x3defd83c	0.11711165
90	0x3b649841	0.003488079
91	0xbd7d9606	-0.06191065
92	0xbd8db029	-0.069183655
93	0x3cd47663	0.025935357
94	0xbd9499fd	-0.072559334
95	0x3cf9fe43	0.03051675
96	0x3db13615	0.086528935
97	0x3d2c8fe8	0.042129427
98	0xbd3bdfa3	-0.045867573
99	0x3dad75ed	0.08469758
100	0xbd0349d1	-0.03205282
101	0x3d9abb65	0.07555274
102	0x3d5941b7	0.053041186
103	0xbd89d1de	-0.06729482
104	0xbc404133	-0.011734295
105	0xbd213f7a	-0.039367177
106	0xbca400f5	-0.020019988
107	0xbb8c5ca3	-0.004283504
108	0xbccfc8db	-0.02536433
109	0xbdff47cd	-0.12464867
110	0xbe0526d3	-0.13003092
111	0x3c245f4a	0.010032484
112	0x3d0fc68a	0.03510145
113	0xbd8a95d4	-0.06766859
114	0x3d3ca7a4	0.046058312
115	0x3d5e7461	0.054310206
116	0xbcf12695	-0.029437343
117	0x3d924681	0.07142354
118	0x3cc414b9	0.023935663
119	0xbde78080	-0.11303806
120	0x3d9da4e0	0.07697463
121	0x3c33c47f	0.010972141
122	0x3d54367c	0.051809773
123	0x3c006883	0.007837418
124	0x3c554055	0.013015826
125	0xbdde5d60	-0.108576536
126	0x3ce51a34	0.027966596
127	0xbb4e1898	-0.0031447764
128	0xbc005a70	-0.007834062
129	0xbc64cf06	-0.013965374
130	0x3d2e2a8b	0.04252104
131	0xbd86449f	-0.06556057
132	0x3c2deba8	0.010615267
133	0x3d4ed57b	0.05049656
134	0x3c2d1bd4	0.010565717
135	0x3c0eada9	0.008708396
136	0x3d30402f	0.04302996
137	0x3c9eda8a	0.019391317
138	0x3d8193e2	0.063270345
139	0x3aa534ab	0.0012604197
140	0xbcc446eb	-0.023959598
141	0x3d45fb02	0.048335083
142	0xbc527e92	-0.0128475595
143	0x3c93db87	0.018049015
144	0xbd58a09d	-0.052887548
145	0xbd1245b7	-0.035711017
146	0xbce25e0d	-0.027632738
147	0xbcaf3d6b	-0.021391591
148	0xbaba7da5	-0.0014228119
149	0x3d1b57d5	0.03792556
150	0x3ced11c4	0.028939135
151	0x3d3bc76b	0.045844477
152	0x3d0ac941	0.033883337
153	0x3cfd57c5	0.03092564
154	0xbdcb18f9	-0.099168725
155	0xbdb23bfd	-0.08702848
156	0x3d8965c7	0.067088656
157	0xbd05701f	-0.03257763
158	0xbd83ec04	-0.06441501
159	0x3d01d6ae	0.031698875
160	0x3c93fcd0	0.018064886
161	0xbc0a07ea	-0.008424738
162	0xbda3f9ef	-0.080066554
163	0x3ccb28f6	0.024799805
164	0x3cc971ef	0.02459046
165	0xbd0c9afd	-0.034327496
166	0x39ea3cc8	0.00044677244
167	0xbd80413b	-0.06262442
168	0xbdb9f75c	-0.09080383
169	0xbd23205f	-0.039825793
170	0xbdd53164	-0.10409811
171	0xbbee805d	-0.0072784857
172	0xbcea1f8e	-0.0285795
173	0xbc7864f8	-0.015160792
174	0xbddd6e44	-0.10812047
175	0x3dd90fe4	0.10598734
176	0x3c20dbd9	0.009818041
177	0xbd6129a5	-0.054971356
178	0x3c802087	0.01564051
179	0x39c0da68	0.0003678382
180	0xbccf3e2f	-0.025298206
181	0xbd9792f3	-0.07401075
182	0xbd3d5101	-0.04621983
183	0xba03703d	-0.0005013978
184	0x3c979236	0.018502336
185	0xbd5fc57c	-0.054631695
186	0xbc879dc5	-0.016554723
187	0x3d8a482a	0.067520455
188	0xbc027209	-0.007961758
189	0x3d1f7841	0.038933042
190	0xbd4eb784	-0.050467983
191	0xbd90f654	-0.07078233
192	0x3cc53f76	0.024078112
193	0x3dab328d	0.08359251
194	0x3df0e5d6	0.11762588
195	0x3d39c3d0	0.045352757
196	0x3d9d794e	0.07689153
197	0x3d9ec511	0.07752431
198	0xbd8adcac	-0.06780371
199	0xbbbc6797	-0.0057496536
200	0xbd09f9ff	-0.03368568
201	0xbd20eb94	-0.039287165
202	0x3cdfc6af	0.02731642
203	0x3d95a982	0.07307722
204	0xbda86834	-0.08223
205	0xbd330864	-0.043709174
206	0x3bcc95cb	0.0062434427
207	0x3cd54962	0.026035968
208	0xbd370978	-0.044686764
209	0x3cad826e	0.021180358
210	0xbd3aad6c	-0.045575544
211	0x3cba3b75	0.02273343
212	0x3d48b4be	0.049000494
213	0x3c89532d	0.016763294
214	0xbe003c18	-0.12522924
215	0x3d092d6f	0.033490594
216	0x3ce5f12a	0.028069098
217	0x3d4fca51	0.050730053
218	0x3d9d8629	0.07691605
219	0x3d38c0a2	0.045105584
220	0xbc905ae4	-0.017621465
221	0x3d579ba1	0.052638654
222	0x3d6c3958	0.057671875
223	0xbc16d799	-0.009206676
224	0xbcaca2be	-0.021073695
225	0xbbf0d88f	-0.0073500345
226	0x3cae7a24	0.021298476
227	0xbd867cd4	-0.06566778
228	0x3c33a30c	0.010964166
229	0x3dbddbcd	0.09270439
230	0x3dc86cc9	0.09786374
231	0xbd0c5542	-0.034260996
232	0x3d0ed839	0.034874175
233	0xbd0ba1b9	-0.034089778
234	0xbd215ef6	-0.039397202
235	0xbe43f4a8	-0.19136298
236	0xbe2a91a0	-0.16657114
237	0x3d9a04d3	0.075204514
238	0x3d38adde	0.045087688
239	0x3db1a7f3	0.08674612
240	0x3c649943	0.013952556
241	0xbcabe815	-0.020984689
242	0x3e29c1a0	0.16577768
243	0xbdcbe133	-0.09955063
244	0x3d5d7a72	0.05407185
245	0x3aa79f99	0.0012788653
246	0x3c9a8652	0.018862877
247	0x3d3fcd97	0.046826925
248	0xbd03de5e	-0.032194488
249	0xbd3b13e6	-0.045673274
250	0xbd77d8ae	-0.060509376
251	0xbddb85bc	-0.10718867
252	0xbdc550c0	-0.096345425
253	0xbcd6c4d0	-0.026216894
254	0xbd50cd72	-0.050977178
255	0xbdf028e5	-0.1172655

body.block3.conv.bias f4 [32]
0	0xbcaba9ea	-0.020955045
1	0xbd7108aa	-0.058846153
2	0xbcdbe131	-0.026840778
3	0x3d307ba7	0.043086674
4	0x3c08b5d4	0.008344132
5	0xbd1e7b4c	-0.038691804
6	0xbd027189	-0.031846557
7	0x3cba4691	0.022738727
8	0x3d0c0910	0.03418833
9	0x3d01f6c6	0.031729482
10	0x3b8b51f2	0.004251712
11	0xbd345b9e	-0.044032685
12	0xbd762c0d	-0.060100604
13	0xbace5b36	-0.0015743736
14	0xbcfe6a4e	-0.03105655
15	0xbbf4251b	-0.0074507124
16	0x3b4d0242	0.0031281863
17	0xbd855794	-0.06510845
18	0xbcb226d3	-0.021747028
19	0xbb55066c	-0.0032505048
20	0x3c61039c	0.013733771
21	0xbcbb555b	-0.02286785
22	0xbd77e09c	-0.06051694
23	0x3d28bf3b	0.041197997
24	0x3c57e4f9	0.01317715
25	0x3c88d351	0.016702326
26	0xbcaf211f	-0.021378098
27	0xbda0170c	-0.07816896
28	0x3d6684be	0.056278937
29	0xbd27a1a6	-0.040925644
30	0x3d3377b3	0.043815326
31	0xbd493c6c	-0.04912989

body.block3.norm.weight f4 [32]
0	0x3f6342b3	0.8877365
1	0x3f36b338	0.71367216
2	0x3f2ed772	0.68297493
3	0x3f34b249	0.7058454
4	0x3f41a2f9	0.756393
5	0x3f3a5115	0.7277997
6	0x3f2ba973	0.67055434
7	0x3f296a98	0.66178274
8	0x3f4fbf56	0.8115133
9	0x3f42da31	0.76114184
10	0x3efaa023	0.489503
11	0x3f38986a	0.72107565
12	0x3f3732f0	0.715621
13	0x3efd9161	0.49524978
14	0x3f1d0963	0.6134245
15	0x3f380186	0.71877325
16	0x3f3d3a44	0.7391703
17	0x3f261b99	0.6488586
18	0x3f314695	0.69248325
19	0x3f3ab8da	0.7293831
20	0x3f26f771	0.65221316
21	0x3f214007	0.6298832
22	0x3f3c275a	0.73497546
23	0x3f15d626	0.5852989
24	0x3f075c8d	0.52875596
25	0x3f4bcc33	0.7960846
26	0x3f45a490	0.7720423
27	0x3f3cae3c	0.7370336
28	0x3f2474e7	0.6424088
29	0x3f4f5d0a	0.8100134
30	0x3f52ec7e	0.8239211
31	0x3f2b06b3	0.668071

body.block3.norm.bias f4 [32]
0	0xbeb1dfb3	-0.3474098
1	0xbd18f438	-0.03734228
2	0xbeb8a255	-0.3606135
3	0xbe9ba689	-0.30400494
4	0xbe737ca3	-0.23778014
5	0xbe55a055	-0.20861943
6	0xbe9f3fa4	-0.3110324
7	0xbe2d6587	-0.16933261
8	0xbe63bebe	-0.22240731
9	0xbf0023f6	-0.5005487
10	0xbe85ed31	-0.26157525
11	0xbe86a154	-0.2629496
12	0xbe8e8b3f	-0.2784061
13	0xbe5df57a	-0.21675673
14	0xbe324c19	-0.17411841
15	0xbe2fe877	-0.17178522
16	0xbec181fb	-0.3779448
17	0xbe8b2680	-0.2717781
18	0xbe8666fa	-0.2625044
19	0xbee5e4ad	-0.44901028
20	0xbe20ff17	-0.15722309
21	0xbe5d119e	-0.21588752
22	0xbecac6e9	-0.3960488
23	0xbe6733cb	-0.22578351
24	0xbe6559c1	-0.2239752
25	0xbf0d1ce8	-0.5512223
26	0xbea565b2	-0.3230415
27	0xbe4aa06d	-0.1978776
28	0xbe335c94	-0.17515785
29	0xbeb1f6f9	-0.34758738
30	0xbe7b297e	-0.24527547
31	0xbe47b508	-0.19502652

body.block3.norm.running_mean f4 [32]
0	0xbe32aac8	-0.1744796
1	0xbe31deed	-0.17370196
2	0x3d34e8be	0.044167273
3	0xbf043a7a	-0.5165173
4	0xbf178ca6	-0.5919899
5	0x3d9f2611	0.077709325
6	0xbf574196	-0.8408445
7	0xbf8770f9	-1.0581352
8	0xbf21e469	-0.6323915
9	0x3d2a5904	0.0415888
10	0xbe7302e5	-0.23731573
11	0xbf95f7bc	-1.1716228
12	0xbf36f0d7	-0.7146124
13	0xbdc497c7	-0.09599262
14	0xbe91c446	-0.28470057
15	0xbeb2a1db	-0.3488911
16	0xbeb668b5	-0.3562676
17	0xbf487cb0	-0.7831526
18	0xbf58d1f4	-0.84695363
19	0xbe3c6e84	-0.18401533
20	0xbe600a0b	-0.21878831
21	0xbe958fc4	-0.29211247
22	0xbec83c89	-0.39108685
23	0x3e32123a	0.17389765
24	0xbeb436a7	-0.35197946
25	0x3f0fa706	0.5611423
26	0xbe8518e1	-0.25995544
27	0xbfc34e4c	-1.5258269
28	0xbec9cf3b	-0.39415917
29	0xbec03faf	-0.37548587
30	0xbe97fe66	-0.29686278
31	0xbf6bf138	-0.92164946

body.block3.norm.running_var f4 [32]
0	0x3eecbc12	0.46237236
1	0x4058dd94	3.388524
2	0x40147b46	2.320024
3	0x3f91e969	1.1399356
4	0x404e4db6	3.223493
5	0x3f4293ff	0.76007074
6	0x401aa56d	2.4163468
7	0x4088cf98	4.275341
8	0x40374a8b	2.8639247
9	0x3f13e501	0.5777131
10	0x3f407d90	0.75191593
11	0x40aef542	5.4674387
12	0x4042611a	3.0371766
13	0x400d642d	2.2092392
14	0x3fd05bf2	1.627806
15	0x401096c9	2.2592032
16	0x4003b983	2.0581977
17	0x3fd16ada	1.6360734
18	0x401040ec	2.2539625
19	0x3efb2703	0.490532
20	0x3fca0999	1.5784179
21	0x3ff2baa9	1.8963214
22	0x40719b8e	3.7751193
23	0x3f095f49	0.5366102
24	0x3fd87f9f	1.6913947
25	0x3ff0fe0d	1.882753
26	0x3f8ff510	1.1246662
27	0x402e4c0b	2.7233913
28	0x4001b1ad	2.0264695
29	0x40a22a71	5.067681
30	0x409d8b37	4.923244
31	0x40518289	3.2735922
