code/Output/starry_night_full/pdl_e8000_3px_lr0.00013782073099010084a3143.0_up-conv4_1_W[1, 0.75, 0.2, 0.2, 0.2]/0/netG.pth (torch, 130363 bytes, 26 tensors)

head.conv.weight f4 [32, 3, 3, 3]
0.007891973 0.041670054 -0.0033328657 0.017231155 -0.03771242 0.017792081 -0.01374116 -0.019726926
0.0113070225 -0.021495359 -0.03479994 -0.00595815 -0.001601504 0.0047603576 -0.017676266 0.036400843
-0.017666794 0.014509835 0.019948253 -0.0022254018 0.02994271 -0.010080309 -0.0043062954 0.034224663
-0.0072731255 -0.026575685 0.04785029 -0.011178905 0.007890386 -0.024021182 -0.042398397 -0.026225027
0.015628107 0.03299976 0.008004741 0.013395772 -0.029114854 0.016662437 0.033445224 -0.019637037
0.024240965 0.00042122116 0.0063093193 -0.007750596 0.011521534 -0.009109487 -0.017230257 0.001556953
-0.013034824 -0.0051257857 -0.018697836 0.0124928355 -0.0016548018 0.0009366813 0.021068355 -0.033231232
-0.0073487144 -0.005703316 0.00256953 -0.008854245 0.030036928 -0.019641938 0.0027895283 -0.007685017
0.015820973 -0.02240916 0.018268488 -0.03205917 -0.0057435944 0.015469367 -0.0013462704 0.0029590428
0.008093773 0.039307058 0.00011363713 0.0388373 -0.029549671 0.020855824 -0.0039564664 0.01186088
-0.013787126 -0.01342876 -0.023793807 -0.0135912895 -0.00577677 -0.004844714 0.0061855856 0.0114584
0.007737897 -0.023068896 -0.004765873 -0.0037950766 -0.032246407 -0.009906189 0.005016073 0.0065803872
0.014525026 0.0022439654 0.024096584 -0.012962484 -0.042389072 -0.0033293294 0.030649994 0.02892718
0.0031675952 -0.023398135 -0.017418968 0.00877968 -0.012820041 0.0010881164 -0.016244305 -0.05244171
0.019809574 0.0038497734 -0.004423828 0.00676052 -0.006328779 -0.0014384834 0.014387889 0.004244498
0.012567377 0.0034707664 0.0036819698 -0.010120312 -0.012305066 -0.024168747 -0.00674644 -0.01168758
0.0032585931 0.017160444 0.005235886 0.03937713 0.02171848 -0.022049272 -0.01345011 0.03122924
0.056127638 -0.017505048 0.015043716 -0.0016129889 0.0043479223 0.016596584 0.018098393 -0.043527167
-0.015815152 0.049129516 -0.0070031323 -0.0056664925 -0.010617143 -0.038085785 0.026304452 0.012578254
-0.015541631 0.04002766 0.030201532 -0.01362148 -0.005597594 -0.021569036 -0.0067843497 -0.0040555946
-0.019346712 -0.002924111 -0.0072817365 0.018284112 0.014302638 0.014250901 -0.019621035 0.021906571
-0.018481757 0.0035205442 -0.0010607025 -0.01312498 0.0062916214 -0.0321228 0.003966045 -0.0163975
-0.02600295 -0.022416329 -0.027563056 -0.025517095 -0.01651574 0.018497255 -0.01407926 0.003805905
-0.034301206 -0.0104394965 0.014846797 0.015430975 -0.008861913 -0.0048431642 -0.0025451595 -0.02990226
0.0066089793 -0.0001734595 0.0089444695 -0.01979631 -0.0040552365 -0.021142187 0.005567784 0.056796536
0.0029675122 0.016799457 0.019543318 0.015252102 -0.00708097 -0.0022649001 -0.02197288 0.006194734
0.028487274 0.0059778793 -0.002871227 0.02082412 -0.011008186 -0.0014552946 0.03506471 -0.013546709
0.014944848 0.003678347 -0.04359237 0.004436468 -0.026530383 0.0013457552 -0.0007834588 0.0411705
0.02332406 0.03173667 -0.019019414 -0.013760163 0.0047398573 -0.0360211 0.009802083 0.003976556
-0.0034575104 -0.013313072 0.0094378395 0.020515123 0.025565518 0.012086247 0.0012666426 -0.006757834
-0.032784894 -0.0122709125 0.033114497 0.012299765 -0.008106795 0.001865459 -0.025160337 -0.008255866
-0.00555866 -0.010081346 -0.006124816 0.0022720923 0.0076083657 -0.015435925 0.016729193 -0.03965383
00000000: 554d 013c 38ae 2a3d 356c 5abb 5a28 8d3c
00000010: 5778 1abd b3c0 913c 9a22 61bc 5d9a a1bc
00000020: 1741 393c 0917 b0bc 628a 0ebd 963c c3bb
00000030: 8fe9 d1ba c6fc 9b3b d1cd 90bc 0d19 153d
00000040: f4b9 90bc a9ba 6d3c 856a a33c 0cd8 11bb
00000050: 6a4a f53c e127 25bc d31b 8dbb 292f 0c3d
00000060: 6653 eebb 40b5 d9bc aafe 433d ba27 37bc
00000070: ad46 013c 12c8 c4bc f1a9 2dbd ded5 d6bc
00000080: 8406 803c c22a 073d 5126 033c f179 5b3c
00000090: 4682 eebc aa7f 883c dcfd 083d dadd a0bc
000000a0: fd94 c63c 59d7 dc39 68be ce3b b6f8 fdbb
000000b0: d1c4 3c3c f53f 15bc 7826 8dbc ac12 cc3a
000000c0: 0490 55bc 35f6 a7bb 342c 99bc c0ae 4c3c
000000d0: efe5 d8ba 9e8b 753a 8b97 ac3c 791d 08bd
000000e0: 7ccd f0bb e2e2 babb 8f65 283b 6511 11bc
000000f0: 0110 f63c 21e8 a0bc 85d0 363b 98d2 fbbb
00000100: fc9a 813c 6a93 b7bc cca7 953c 7a50 03bd
00000110: c334 bcbb 3a73 7d3c 5775 b0ba 80ec 413b
00000120: bf9b 043c 7000 213d 7850 ee38 dc13 1f3d
00000130: 2712 f2bc d5d9 aa3c 3fa5 81bb 2354 423c
00000140: 66e3 61bc 4d04 5cbc 3beb c2bc 00ae 5ebc
00000150: 0f4b bdbb 68c0 9ebb 74b0 ca3b 03bc 3b3c
00000160: 2f8e fd3b fbfa bcbc 0a2b 9cbb d2b6 78bb
00000170: cf14 04bd 914d 22bc df5d a43b 4aa0 d73b
00000180: 60fa 6d3c 7e0f 133b 3366 c53c 9960 54bc
00000190: 2aa0 2dbd e130 5abb b215 fb3c b2f8 ec3c
000001a0: 6e97 4f3b 72ad bfbc 39b2 8ebc a6d8 0f3c
000001b0: 260b 52bc 219f 8e3a c712 85bc 1ecd 56bd
000001c0: b047 a23c 7b4c 7c3b c2f5 90bb 5a87 dd3b
000001d0: a561 cfbb 7e8b bcba 2ebb 6b3c 6e15 8b3b
000001e0: 66e7 4d3c cc75 633b 344d 713b aacf 25bc
000001f0: 309b 49bc 89fd c5bc 3e11 ddbb 437d 3fbc
00000200: 1f8e 553b 0f94 8c3c cc91 ab3b ea49 213d
00000210: f4ea b13c ada0 b4bc da5d 5cbc 77d4 ff3c
00000220: 18e6 653d bf66 8fbc eb79 763c ed6a d3ba
00000230: 0479 8e3b 8ff5 873c 1543 943c 8b49 32bd
00000240: c78e 81bc 083c 493d 887a e5bb fcad b9bb
00000250: 86f3 2dbc d7ff 1bbd 6f7c d73c 0515 4e3c
00000260: 53a2 7ebc 0bf4 233d 3469 f73c a12c 5fbc
00000270: 066c b7bb 8cb1 b0bc 404f debb cbe4 84bb
00000280: ff7c 9ebc 71a2 3fbb a29b eebb 90c8 953c
00000290: 9d55 6a3c 9c7c 693c 4bbc a0bc 6975 b33c
000002a0: 0e67 97bc eeb8 663b 4507 8bba 280a 57bc
000002b0: f229 ce3b 3293 03bd 99f5 813b 0d54 86bc
000002c0: 2304 d5bc 73a2 b7bc ebcb e1bc 3a09 d1bc
000002d0: 044c 87bc 8e87 973c b2ac 66bc 7e6c 793b
000002e0: 6c7f 0cbd 6c0a 2bbc fb3f 733c 33d2 7c3c
000002f0: 8f31 11bc 68b3 9ebb b1cc 26bb 96f5 f4bc
00000300: 2390 d83b aee2 35b9 d38b 123c df2b a2bc
00000310: cae1 84bb 6132 adbc f571 b63b 7ca3 683d
00000320: 987a 423b 049f 893c 4f19 a03c f4e3 793c
00000330: 7b07 e8bb b86e 14bb 7800 b4bc 32fd ca3b
00000340: 255e e93c 16e2 c33b 322b 3cbb 5897 aa3c
00000350: ae5b 34bc 95bf beba 03a0 0f3d 04f3 5dbc
00000360: 3cdb 743c 6c10 713b ea8d 32bd ca5f 913b
00000370: 3f56 d9bc 0d64 b03a 0861 4dba 66a2 283d
00000380: 1912 bf3c 4ffe 013d 9ace 9bbc 4f72 61bc
00000390: ce50 9b3b dc8a 13bd ea98 203c c54d 823b
000003a0: 6697 62bb 121f 5abc 2ba1 1a3c 550f a83c
000003b0: c76e d13c 6505 463c 7905 a63a d270 ddbb
000003c0: 7449 06bd f00b 49bc 11a3 073d f484 493c
000003d0: 5dd2 04bc 6b82 f43a 0d1d cebc 9d43 07bc
000003e0: 6b25 b6bb 3b2c 25bc aeb2 c8bb 62e7 143b
000003f0: 994f f93b f6e6 7cbc a90b 893c 0e6c 22bd

head.conv.bias f4 [32]
0.14701428 0.09040482 0.18160321 -0.09284846 -0.053196274 -0.13880453 0.030450303 0.097237736
-0.0452149 -0.056983605 0.17440975 0.07434951 0.0699095 0.07597031 0.015008546 -0.13925464
0.08331848 -0.043200634 0.092659496 0.0139247235 0.18673289 0.07907586 0.045631297 0.042375803
0.014091587 0.081614785 -0.053920824 -0.024085185 -0.0074117756 0.18339834 0.06967074 0.013509674
00000000: e98a 163e 2a26 b93d 31f6 393e 5527 bebd
00000010: 56e4 59bd c622 0ebe ea72 f93c 9424 c73d
00000020: 4233 39bd a467 69bd 7898 323e 8e44 983d
00000030: b62c 8f3d 5296 9b3d 68e6 753c c598 0ebe
00000040: e1a2 aa3d 26f3 30bd 43c4 bd3d 8624 643c
00000050: e836 3f3e 86f2 a13d e2e7 3a3d 4092 2d3d
00000060: 66e0 663c a725 a73d 15dc 5cbd 4b4e c5bc
00000070: 7bde f2bb c6cc 3b3e 88af 8e3d ae57 5d3c

head.norm.weight f4 [32]
1.0137793 1.0148662 0.99514943 1.0167241 1.0207068 0.9829698 0.99921376 0.9969341
1.0036234 0.985621 0.9900146 0.9827993 1.0009948 0.9610686 1.0004429 0.99226034
0.98167497 0.9927167 0.9915234 1.000646 0.9829894 1.0048293 0.99526983 0.98359686
1.0091742 1.0082431 0.97519714 0.9804795 1.0165759 1.0253086 0.9677773 0.97489554
00000000: 85c3 813f 23e7 813f 1dc2 7e3f 0424 823f
00000010: 85a6 823f e9a3 7b3f 79cc 7f3f 1337 7f3f
00000020: bb76 803f a851 7c3f 9971 7d3f bc98 7b3f
00000030: 9920 803f 9708 763f 830e 803f c604 7e3f
00000040: 0d4f 7b3f af22 7e3f 7ad4 7d3f 2b15 803f
00000050: 31a5 7b3f 3f9e 803f 01ca 7e3f 01cd 7b3f
00000060: 9f2c 813f 1c0e 813f 85a6 793f b400 7b3f
00000070: 291f 823f 503d 833f 41c0 773f c192 793f

head.norm.bias f4 [32]
0.016077427 -0.009008088 -0.009672747 -0.03300667 -0.0025442622 -0.010937496 0.0074780774 -0.023000598
-0.017373202 -0.008398356 -0.0073349676 -0.010143471 0.003245118 -0.020022828 -0.033668175 0.0018845004
-0.0057204054 -0.0042967587 -0.00823344 -0.030717628 -0.032473013 -0.013997159 -0.030424029 -0.006300078
-0.02177616 -0.012148539 1.3735498e-05 -0.011476735 0.0074031116 -0.004852947 0.0031333955 0.0075622355
00000000: cfb4 833c a996 13bc 717a 1ebc 0132 07bd
00000010: a3bd 26bb 2f33 33bc a90a f53b c06b bcbc
00000020: 3f52 8ebc 4299 09bc 2b5a f0bb cd30 26bc
00000030: 0cac 543b ea06 a4bc a4e7 09bd 5701 f73a
00000040: 3d72 bbbb d3cb 8cbb 8de5 06bc 89a3 fbbc
00000050: 6c02 05bd 5754 65bc d03b f9bc e270 cebb
00000060: eb63 b2bc aa0a 47bc 8471 6637 ea08 3cbc
00000070: cd95 f23b 7805 9fbb a759 4d3b a1cc f73b

head.norm.running_mean f4 [32]
0.14790161 0.089817934 0.18215513 -0.09413596 -0.05376263 -0.13773899 0.02804871 0.09854918
-0.044703376 -0.057395525 0.17580572 0.07148559 0.07012312 0.07788536 0.013207462 -0.1369841
0.08528742 -0.042505883 0.09068858 0.013945418 0.18825753 0.07930177 0.045610037 0.045738578
0.012590077 0.08214498 -0.053183354 -0.02469706 -0.006044636 0.18050045 0.06778938 0.015701575
00000000: 8573 173e 77f2 b73d e086 3a3e 5bca c0bd
00000010: 3436 5cbd 730b 0dbe 69c6 e53c 27d4 c93d
00000020: e31a 37bd 9217 6bbd 6a06 343e 0967 923d
00000030: b69c 8f3d 5c82 9f3d 1c64 583c 8f45 0cbe
00000040: 2cab ae3d a61a 2ebd efba b93d 537b 643c
00000050: 95c6 403e f768 a23d 97d1 3a3d 6058 3b3d
00000060: 9c46 4e3c a13b a83d cad6 59bd 7d51 cabc
00000070: 1512 c6bb 1cd5 383e 29d5 8a3d 97a0 803c

head.norm.running_var f4 [32]
0.007865394 0.0071664983 0.0060967 0.0060218167 0.0042247395 0.019356215 0.007183527 0.0088495435
0.0072884965 0.015298514 0.0074096713 0.008083887 0.009212716 0.004608144 0.007793166 0.009797453
0.006183309 0.007361005 0.008375286 0.011606954 0.01510187 0.00919537 0.003623594 0.01209221
0.008588992 0.006857779 0.0053671775 0.0070404494 0.0073889373 0.02081864 0.005824392 0.0075182947
00000000: dbdd 003c f2d4 ea3b d4c6 c73b a952 c53b
00000010: af6f 8a3b ed90 9e3c cb63 eb3b adfd 103c
00000020: 57d4 ee3b 9ea6 7a3c d4cc f23b 4872 043c
00000030: eef0 163c eaff 963b d15d ff3b 7f85 203c
00000040: 5b9d ca3b 9634 f13b 7f38 093c 182b 3e3c
00000050: d56d 773c 2da8 163c d279 6d3b 681e 463c
00000060: d8b8 0c3c 38b7 e03b 26df af3b 92b3 e63b
00000070: e61e f23b da8b aa3c 8bda be3b 075c f63b

body.block1.conv.weight f4 [32, 32, 3, 3]
-0.028552175 0.014575764 0.012851159 -0.024394426 0.013299451 -0.0074473713 0.0035005445 -0.008215948
-0.034765746 0.013724758 0.023668474 0.028464852 0.004525006 -0.01278743 -0.003803142 0.004110393
-0.043130714 -0.023130924 -0.0031296907 -0.004238491 0.029177763 0.0021200785 0.0013701005 -0.030771645
0.020628469 0.0053751897 0.033824004 0.0035489525 0.0007172408 0.0119661 0.011251325 -0.00155193
0.029119348 0.030231874 -0.02837445 -0.01696424 0.00041140898 -0.0057664337 -0.011067418 0.0065999026
-0.013245457 -0.012120922 0.010730916 0.02631505 -0.012090561 0.0014936161 -0.03249012 0.0037750732
-0.0031236121 -0.0013617735 -0.007342584 0.0080062635 0.01628434 -0.03706937 -0.017624006 -0.0037647693
0.039686933 -0.027198503 0.009782646 -0.008804522 0.0004198604 0.014148475 -0.004097434 0.0050218273
0.030548146 -0.030032353 0.023336085 0.037301622 0.001792679 -0.008017619 -0.016282475 0.0064198165
-0.005962618 -0.026541002 0.015565219 -0.0034639998 -0.020907568 -0.01983802 0.008847939 0.007467014
0.0022085097 -0.016514907 -0.0029095078 0.0071494947 0.034895703 0.008574761 -0.0043818504 -0.0136593385
0.010531502 0.0044761365 0.02457443 0.01833679 0.008485645 -0.0074296263 0.025673646 0.0011559988
0.0023964487 -0.010908549 -0.013424263 -0.010221468 0.013413953 -0.03141079 -0.018849283 0.004099299
-0.014369677 0.01577432 0.02571756 0.005092019 -0.01127087 -0.0033341048 0.019258842 0.049975436
0.008670473 0.008171587 0.021658348 -0.013233228 -0.0412343 0.022544041 0.027509697 -0.0011022992
0.0383035 0.012374705 0.023980854 0.015978156 -0.0050982884 0.0011850728 -0.008967726 -0.031724293
0.014362332 0.015476276 -0.029667461 -0.008253237 -0.015592743 -0.014501046 -0.0063650026 -0.007125351
0.0050653107 0.0016813508 0.016685845 -0.0021869892 0.024229817 -0.0018195015 -0.018075135 0.012210721
0.009570114 -0.024688426 -0.0022852223 0.006827127 0.039133217 -0.023068372 -0.013082939 0.03312849
0.048947975 -0.0031768244 0.01845663 -0.014288117 -0.009858714 0.0059039015 -0.0021490997 0.049466103
-0.0061118887 -0.025332939 -0.046632957 0.01894228 -0.008357842 -0.023687584 0.037460778 -0.032268077
0.0039055967 -0.0031079906 -0.017976632 -0.0047260947 -0.009623866 -0.02661828 -0.014426147 -0.012975713
-0.039378922 0.027348716 0.010348504 0.023262637 0.03685951 -0.035180017 0.022221675 0.0047963294
0.00790772 -0.003091351 0.037673548 0.010032358 -0.020570558 -0.011016634 0.023530599 0.0025706086
-0.019833094 0.0020848939 0.0055919895 0.034666646 -0.052497227 0.0033046796 0.013287658 -0.032526072
-0.031034188 0.006088331 0.029547276 0.012612942 0.017716805 0.030282607 -0.0044592805 0.025048433
0.014356017 -0.019262167 0.01635442 0.018239552 -0.047707338 -0.01746215 0.0075303647 0.0068961377
0.0069876 0.024216633 0.021716407 0.032142334 -0.01157023 0.0112696905 0.027225887 -0.040709723
0.0006740845 -0.010531169 -0.010735925 -0.011995629 -0.0015839209 -0.00024199586 0.002640001 0.018198026
-6.588134e-05 -0.03660186 0.029903503 0.015169948 0.0069829174 0.024920097 0.015333649 0.01911694
-0.0140716545 0.01787513 0.032621346 -0.021915294 -0.033447493 0.005697987 -0.009514512 0.015457525
-0.0011049979 0.0030509888 0.013737822 -0.04691258 -0.024993489 -0.015650587 -0.00542865 -0.005827367
00000000: 40e6 e9bc 2fcf 6e3c ab8d 523c d2d6 c7bc
00000010: f1e5 593c 1409 f4bb 6469 653b 2f9c 06bc
00000020: 8766 0ebd cfdd 603c 63e4 c13c 1f2f e93c
00000030: 8046 943b 5e82 51bc 233e 79bb 7ab0 863b
00000040: d5a9 30bd 107d bdbc 7f1b 4dbb 0ae3 8abb
00000050: 3406 ef3c 04f1 0a3b f294 b33a d114 fcbc
00000060: 09fd a83c 5c22 b03b 0a8b 0a3d 8b95 683b
00000070: 3705 3c3a 760d 443c 7a57 383c 216a cbba
00000080: b38b ee3c d6a8 f73c 8971 e8bc 97f8 8abc
00000090: 61b2 d739 5af4 bcbb 1e54 35bc ff43 d83b
000000a0: 7903 59bc d596 46bc b9d0 2f3c a992 d73c
000000b0: 7d17 46bc 71c5 c33a 5c14 05bd 3867 773b
000000c0: 84b5 4cbb 897d b2ba 0f9a f0bb b42c 033c
000000d0: bc66 853c 0dd6 17bd 3860 90bc 59ba 76bb
000000e0: c48e 223d 65cf debc 6447 203c d840 10bc
000000f0: b520 dc39 01cf 673c c543 86bb 248e a43b
00000100: 1b40 fa3c 6906 f6bc 512b bf3c 96c9 183d
00000110: 53f8 ea3a 555c 03bc d362 85bc 535d d23b
00000120: 1162 c3bb 846c d9bc 4305 7f3c 4604 63bb
00000130: 5946 abbc 5883 a2bc f2f6 103c daad f43b
00000140: a5bc 103b 454a 87bc 71ad 3ebb 4f46 ea3b
00000150: ccee 0e3d 287d 0c3c a095 8fbb 6bcb 5fbc
00000160: 528c 2c3c 8eac 923b 5150 c93c 0937 963c
00000170: 6007 0b3c 3974 f3bb 8a51 d23c e284 973a
00000180: bd0d 1d3b c5b9 32bc 71f1 5bbc f277 27bc
00000190: 32c6 5b3c 9aa8 00bd d069 9abc 6a53 863b
000001a0: cb6e 6bbc 2639 813c a2ad d23c f4da a63b
000001b0: 75a9 38bc ff80 5abb b8c4 9d3c 0bb3 4c3d
000001c0: 990e 0e3c 1fe2 053c d96c b13c 2ed0 58bc
000001d0: 4ce5 28bd 48ae b83c 045c e13c 067b 90ba
000001e0: 21e4 1c3d 46bf 4a3c 7f73 c43c 9fe4 823c
000001f0: 8b0f a7bb 7254 9b3a 5eed 12bc 55f1 01bd
00000200: fd4f 6b3c 3590 7d3c 2d09 f3bc 9638 07bc
00000210: b478 7fbc cc95 6dbc 8391 d0bb c77b e9bb
00000220: e8fa a53b c560 dc3a c1b0 883c 9753 0fbb
00000230: 9c7d c63c 577c eeba 4e12 94bc 7a0f 483c
00000240: f8cb 1c3c 623f cabc abc3 15bb 18b6 df3b
00000250: 274a 203d e2f9 bcbc d359 56bc bdb1 073d
00000260: ac7d 483d 4532 50bb 5c32 973c b518 6abc
00000270: 7286 21bc 8475 c13b e9d7 0cbb f89c 4a3d
00000280: 3d46 c8bb 0687 cfbc 3302 3fbd d72c 9b3c
00000290: 55ef 08bc 770c c2bc 7970 193d 882b 04bd
000002a0: 0af5 7f3b 6eaf 4bbb bb43 93bc 5bdd 9abb
000002b0: 6bad 1dbc 940e dabc a55b 6cbc 1698 54bc
000002c0: cb4b 21bd 6a0a e03c c68c 293c 4991 be3c
000002d0: fff9 163d ec18 10bd 3b0a b63c 872a 9d3b
000002e0: 628f 013c 4398 4abb 944f 1a3d c25e 243c
000002f0: 9683 a8bc 1d7f 34bc 3ec3 c03c a877 283b
00000300: 0379 a2bc b7a2 083b 023d b73b 9dfe 0d3d
00000310: 5507 57bd 5393 583b 7ab4 593c 0f3a 05bd
00000320: 693b febc 9f80 c73b 210d f23c 83a6 4e3c
00000330: d522 913c 3b13 f83c 281f 92bb 5f32 cd3c
00000340: 8035 6b3c b1cb 9dbc b4f9 853c 1d6b 953c
00000350: c568 43bd c80c 8fbc 47c1 f63b fff8 e13b
00000360: 3df8 e43b f661 c63c 9be6 b13c aea7 033d
00000370: 1091 3dbc 82a4 383c d308 df3c 3dbf 26bd
00000380: 0cb5 303a ed8a 2cbc bce5 2fbc 5189 44bc
00000390: 919b cfba 45c0 7db9 de03 2d3b 0714 953c
000003a0: c629 8ab8 d5eb 15bd 31f8 f43c 608b 783c
000003b0: f5d0 e43b 3b25 cc3c fc39 7b3c 219b 9c3c
000003c0: cc8c 66bc dd6e 923c f69d 053d b487 b3bc
000003d0: 3d00 09bd 2eb6 ba3b c1e2 1bbc 8f41 7d3c
000003e0: 94d5 90ba 19f3 473b 9a14 613c 6827 40bd
000003f0: 25bf ccbc a935 80bc d1e2 b1bb 7ff3 bebb

body.block1.conv.bias f4 [32]
0.040524796 0.0015864508 0.042674065 -0.028795907 -0.03054073 0.028863253 0.0031793544 -0.0018883367
-0.023003092 0.04442388 0.030413283 -0.0582687 -0.0149849 -0.0137749445 0.04005404 -0.026606895
0.047529753 -0.048604075 0.017145522 -0.029621363 0.04705789 -0.06434444 -0.028408868 -0.028254606
0.02200569 -0.019434378 0.011935925 -0.03672442 -0.01458347 0.012125892 -0.033004716 -0.002820428
00000000: 54fd 253d 75f0 cf3a 00cb 2e3d 65e5 ebbc
00000010: 8e30 fabc a172 ec3c b75c 503b 1182 f7ba
00000020: fb70 bcbc d0f5 353d 4725 f93c 29ab 6ebd
00000030: 3a83 75bc 4eb0 61bc b40f 243d b4f6 d9bc
00000040: 8fae 423d 1115 47bd c474 8c3c 80a8 f2bc
00000050: c6bf 403d 05c7 83bd b7b9 e8bc 3476 e7bc
00000060: 4745 b43c d834 9fbc e68e 433c 586c 16bd
00000070: 82ef 6ebc adab 463c f42f 07bd eed6 38bb

body.block1.norm.weight f4 [32]
0.9857787 0.9493478 0.9794309 0.9601202 0.9891792 0.99595475 1.0101542 0.9971767
1.0032238 1.0581424 0.99706954 0.97278756 1.0047534 0.9876774 1.0402695 1.0132353
0.9854577 1.0088831 0.9955882 0.99931103 1.0001123 1.024068 1.0138768 0.97901917
1.0216476 1.0242977 1.0248909 1.0014516 1.0191613 1.030289 0.95763767 1.029047
00000000: fe5b 7c3f 7508 733f fcbb 7a3f 70ca 753f
00000010: d93a 7d3f e4f6 7e3f bc4c 813f f946 7f3f
00000020: a369 803f 3671 873f f33f 7f3f 9b08 793f
00000030: c29b 803f 6dd8 7c3f 8d27 853f b2b1 813f
00000040: f546 7c3f 1523 813f dede 7e3f d9d2 7f3f
00000050: ae03 803f a914 833f b7c6 813f 00a1 7a3f
00000060: 59c5 823f 301c 833f a02f 833f 912f 803f
00000070: e173 823f 83e0 833f be27 753f d0b7 833f

body.block1.norm.bias f4 [32]
-0.0132020945 -0.02100181 -0.02692614 -0.012911158 -0.013085662 -0.02846748 0.0020939023 -0.015344807
-0.006138441 -0.0020106486 -0.022984734 -0.0035974178 -0.0002088402 -0.008743572 -0.00051497377 0.0038277907
-0.010171553 -0.011797048 0.006065306 -0.024854999 -0.025143065 -0.02220748 -0.01154364 -0.0021360966
0.014262474 0.0045098066 0.0014191984 0.018853258 -0.011813141 -0.009472214 -0.013613821 -0.00954395
00000000: 994d 58bc fd0b acbc 3594 dcbc 5289 53bc
00000010: 3f65 56bc a234 e9bc da39 093b c968 7bbc
00000020: fa24 c9bb 16c5 03bb 7b4a bcbc a8c2 6bbb
00000030: 1dfc 5ab9 3341 0fbc 4eff 06ba acdb 7a3b
00000040: 96a6 26bc 6848 41bc 79bf c63b b69c cbbc
00000050: d4f8 cdbc 76ec b5bc 8921 3dbc c1fd 0bbb
00000060: 27ad 693c 00c7 933b 6504 ba3a 2672 9a3c
00000070: e88b 41bc 5831 1bbc 810c 5fbc 3a5e 1cbc

body.block1.norm.running_mean f4 [32]
0.16910906 0.1288562 0.06379758 -0.07885086 -0.17803173 -0.11991812 0.043161664 0.008129542
0.062599346 0.056306705 0.03049274 -0.16408761 0.029974382 0.1273493 -0.06269819 0.12084066
-0.16556488 -0.34219345 -0.08509009 -0.07490948 -0.01574105 -0.11289051 -0.07596017 -0.02474701
-0.042343076 0.08065599 -0.079053834 -0.09698675 0.023501288 -0.046047006 -0.013759507 -0.07791878
00000000: ed2a 2d3e e1f2 033e 4ea8 823d 8f7c a1bd
00000010: f34d 36be a297 f5bd 49ca 303d c531 053c
00000020: 1634 803d dca1 663d e9cb f93c 9506 28be
00000030: d68c f53c db67 023e e967 80bd 4f7b f73d
00000040: d789 29be fb33 afbe b743 aebd 246a 99bd
00000050: 60f3 80bc 2433 e7bd 0191 9bbd 3eba cabc
00000060: ef6f 2dbd f82e a53d fae6 a1bd fda0 c6bd
00000070: c685 c03c c99b 3cbd 8e6f 61bc e293 9fbd

body.block1.norm.running_var f4 [32]
0.04109262 0.07409992 0.067879066 0.057661977 0.060129203 0.054233115 0.056038808 0.0460827
0.056297243 0.063218735 0.07013385 0.04704081 0.047607575 0.09505452 0.0992236 0.05210848
0.09115039 0.08029085 0.0507332 0.03171753 0.064801134 0.0499485 0.054589137 0.090721354
0.046654254 0.075158276 0.055146705 0.07081909 0.08100122 0.10266365 0.03555724 0.055353694
00000000: bc50 283d b3c1 973d 2e04 8b3d f72e 6c3d
00000010: 0a4a 763d 8b23 5e3d f388 653d 37c1 3c3d
00000020: f097 663d d378 813d 56a2 8f3d ddad 403d
00000030: 2900 433d f2ab c23d be35 cb3d b46f 553d
00000040: 0ead ba3d 876f a43d 9ecd 4f3d 3eea 013d
00000050: 75b6 843d cc96 4c3d dc98 5f3d 1ecc b93d
00000060: 8818 3f3d 95ec 993d 83e1 613d 9909 913d
00000070: f8e3 a53d 5241 d23d 78a4 113d 8eba 623d

body.block2.conv.weight f4 [32, 32, 3, 3]
-0.02634024 0.005047599 0.0014736577 0.028943542 -0.0080705015 0.01944692 0.0043562157 0.010613018
-0.01486144 0.0427534 -0.014622132 0.0056026587 0.0020532436 -0.014664989 -0.013048325 -0.02185862
0.016501954 -0.010886076 -0.0064574652 0.0049321204 -0.006463228 0.00649987 0.0014098843 -0.036150757
-0.014917682 -0.0053783404 0.00932817 -0.010398099 0.000121324774 0.019824142 0.005218687 -0.0044159284
0.006809247 0.0127656525 0.026598638 0.0340923 -0.041611496 0.032917302 0.0089257285 -0.0070913094
-0.029502975 -0.008397996 0.0129773645 -0.001070647 0.012856142 -0.014741734 0.048311356 0.00437648
-0.01989858 0.01231036 -0.0013052945 0.00057346566 0.00696341 0.015894515 0.012907848 -0.02315358
-0.0012237942 0.02314555 0.014984798 -0.020981576 0.0060885726 0.03346902 -0.020327434 0.0231613
-0.02148759 -0.0020875044 -0.0010417631 -0.039055385 -0.0207765 -0.008815516 -0.028454488 -0.009832395
0.00018267012 -0.0056430353 0.033054985 -0.013093805 0.0004528116 -0.0010147355 -0.008954637 0.029054843
0.015943091 0.0071573006 -0.025770187 0.028873608 -0.020885214 -0.0086637605 0.019070446 -0.016373748
0.013630456 0.029865768 -0.030421782 -0.024637476 0.0021062267 0.014974475 0.036485925 0.055274524
0.027294243 0.004150078 -0.002738616 -0.007429862 0.005504528 -0.026577607 0.0024608944 -0.035141427
-0.010517884 -0.009197371 -0.006991689 -0.008449744 -0.018681591 -0.004022934 -0.024843311 0.007494783
0.001894745 -0.031869553 0.0041102255 0.021176305 -0.029513648 0.0041270335 0.025072258 0.02083911
0.012957191 -0.043622307 -0.007041494 0.009145777 -0.0255704 -0.016515944 -0.0017091238 0.024637077
-0.010322489 0.0034818614 0.01209339 0.010360163 -0.014822006 -0.011148063 0.027015228 0.032742463
-0.043193314 0.055342518 0.011386402 0.012196619 -0.0013131505 -0.0045809164 0.00084298436 -0.02970977
-0.014668251 -0.005381067 0.037036724 0.022125166 0.014339207 0.009300405 0.0110672 0.0064611267
0.011263989 -0.013117069 -0.00874606 -0.028410917 0.0014527512 -0.027864754 -0.017912941 -0.004987825
-0.012868683 0.016172044 -0.013658554 -0.016708912 0.0369698 -0.031248705 0.018709438 0.022584733
0.011301388 0.007386168 0.026344666 0.0038098397 0.044800386 -0.012080743 0.0363345 -0.014463388
-0.029690905 -0.02552864 0.013589172 0.012772984 -0.06748267 -0.011840296 -0.04122564 -0.044079147
0.0066133398 -0.02059019 0.012114135 0.013464705 -0.006666951 -0.007007618 8.2463215e-05 0.009398773
-0.051262286 -0.004344613 -0.00026248765 -0.0057258136 0.017985873 -0.022208525 -0.02789301 -0.0047833193
-0.009523951 -0.01485689 -0.011439688 -0.0020127154 -0.029213136 -0.0006772891 0.01569201 -0.015373961
0.016604064 -0.026908217 0.03412461 -0.012371435 0.02290053 0.014056445 0.08501499 -0.021336682
-0.02167738 -0.040086035 0.0018493381 -0.015400462 0.013511199 -0.021668462 0.003356823 0.0025848278
-0.025252145 -0.030314079 -0.016354857 -0.0076688477 -0.011850424 0.018755656 -0.010775896 0.009231762
-0.005592301 -0.005806235 0.029867362 0.011707054 -0.014769418 0.03908917 -0.0078028585 -0.03502963
-0.019264318 0.011219761 0.013220149 0.013801638 -0.0006762961 0.00038468206 -0.0007418053 -0.0008587348
0.005132211 -0.025168354 0.00506459 -0.008279111 0.014092916 -0.016898127 -0.016099524 0.0023750472
00000000: 7dc7 d7bc 5466 a53b bf27 c13a 021b ed3c
00000010: 233a 04bc 264f 9f3c 96be 8e3b 39e2 2d3c
00000020: 667d 73bc 301e 2f3d ab91 6fbc 8296 b73b
00000030: b68f 063b 6c45 70bc a4c8 55bc d910 b3bc
00000040: 1b2f 873c 835b 32bc 2599 d3bb a09d a13b
00000050: 7cc9 d3bb ddfc d43b decb b83a d112 14bd
00000060: 4b69 74bc ca3c b0bb 2ed5 183c ca5c 2abc
00000070: be6f fe38 3d66 a23c 8501 ab3b 7eb3 90bb
00000080: 1b20 df3b 0727 513c 63e5 d93c 5ea4 0b3d
00000090: d170 2abd 4bd4 063d 383d 123c 375e e8bb
000000a0: 39b0 f1bc c097 09bc 039f 543c f454 8cba
000000b0: 91a2 523c 5087 71bc 21e2 453d 9368 8f3b
000000c0: 5902 a3bc 64b1 493c 6a16 abba a154 163a
000000d0: 512d e43b 3735 823c 707b 533c 94ac bdbc
000000e0: b867 a0ba bd9b bd3c cc82 753c 8ee1 abbc
000000f0: a682 c73b d016 093d b885 a6bc c4bc bd3c
00000100: be06 b0bc 83ce 08bb c58b 88ba 8af8 1fbd
00000110: 7b33 aabc f46e 10bc 6319 e9bc 0e18 21bc
00000120: 238b 3f39 36e9 b8bb aa64 073d 6687 56bc
00000130: 5867 ed39 e000 85ba 78b6 12bc 6c04 ee3c
00000140: 169b 823c ca87 ea3b 001c d3bc 5888 ec3c
00000150: 7817 abbc 72f2 0dbc a039 9c3c 3d22 86bc
00000160: 4752 5f3c 0ea9 f43c 1a37 f9bc 88d4 c9bc
00000170: 9f08 0a3b 8057 753c 4472 153d 8a67 623d
00000180: 2d98 df3c 61fd 873b 5a7a 33bb 3376 f3bb
00000190: 545f b43b 48b9 d9bc f546 213b 75f0 0fbd
000001a0: 3453 2cbc 92b0 16bc 8a1a e5bb cc70 0abc
000001b0: 230a 99bc d1d2 83bb 3384 cbbc cc96 f53b
000001c0: 1859 f83a a689 02bd 12af 863b ee79 ad3c
000001d0: 9bc6 f1bc 113c 873b 5664 cd3c c8b6 aa3c
000001e0: 664a 543c 4ead 32bd 55bc e6bb 2bd8 153c
000001f0: 0479 d1bc 724c 87bc ae04 e0ba b2d3 c93c
00000200: a81f 29bc f12f 643b 5b23 463c acbd 293c
00000210: 00d8 72bc 5da6 36bc 0a4f dd3c f61c 063d
00000220: 79eb 30bd d6ae 623d 088e 3a3c 54d4 473c
00000230: 051e acba 831b 96bb b9fb 5c3a e761 f3bc
00000240: 1b53 70bc a953 b0bb d2b3 173d d63f b53c
00000250: feee 6a3c ba60 183c 3453 353c dcb7 d33b
00000260: 988c 383c fae8 56bc a24b 0fbc 03be e8bc
00000270: 3e6a be3a a044 e4bc 29be 92bc e970 a3bb
00000280: 2bd7 52bc 3c7b 843c 21c8 5fbc 21e1 88bc
00000290: a56d 173d 49fd ffbc 8944 993c 9e03 b93c
000002a0: 7529 393c ab07 f23b c5d0 d73c 81ae 793b
000002b0: 9c80 373d 4fee 45bc 7cd3 143d d9f7 6cbc
000002c0: 573a f3bc 7021 d1bc 1ea5 5e3c c745 513c
000002d0: 5b34 8abd cdfd 41bc 37dc 28bd 568c 34bd
000002e0: b7b4 d83b c2ac a8bc 5d7a 463c 119b 5c3c
000002f0: 7076 dabb 29a0 e5bb 1af0 ac38 50fd 193c
00000300: 67f8 51bd 415d 8ebb 7f9e 89b9 9b9f bbbb
00000310: 1c57 933c a7ee b5bc e27f e4bc 64bd 9cbb
00000320: 590a 1cbc 506a 73bc 876d 3bbc c3e7 03bb
00000330: 6350 efbc 1a8c 31ba 888c 803c 11e3 7bbc
00000340: 3f05 883c 9f6e dcbc 3fc6 0b3d 8fb1 4abc
00000350: e499 bb3c 014d 663c 571c ae3d 44ca aebc
00000360: c394 b1bc 4131 24bd 7d65 f23a 3852 7cbc
00000370: 135e 5d3c 0f82 b1bc 25fe 5b3b 3766 293b
00000380: 96dd cebc 3b55 f8bc 9ffa 85bc f54a fbbb
00000390: 4828 42bc 76a5 993c 628d 30bc d140 173c
000003a0: 9f3f b7bb 3b42 bebb 66ac f43c f2ce 3f3c
000003b0: 6efb 71bc f71b 203d 1faf ffbb 3b7b 0fbd
000003c0: 34d0 9dbc 17d3 373c 5399 583c 4420 623c
000003d0: 7749 31ba 27af c939 b675 42ba b81c 61ba
000003e0: 1b2c a83b dd2d cebc dcf4 a53b 1ca5 07bc
000003f0: f9e5 663c f16d 8abc 26e3 83bc aea6 1b3b

body.block2.conv.bias f4 [32]
0.006078529 -0.020976955 0.020407682 0.02943029 -0.062403675 -0.015243996 -0.030389763 0.0033928195
0.002989096 0.013014075 0.007505501 0.05069941 -0.053930692 0.02841978 -0.052107926 -0.020846903
0.039582938 0.053030536 0.026524406 -0.045945037 -0.050951146 0.028100677 0.025418099 0.04312877
-0.026264358 0.017127242 0.049270995 0.0061043496 -0.050713226 0.010383326 0.007614403 0.05030113
00000000: 662e c73b ddd7 abbc 032e a73c cb17 f13c
00000010: ff9a 7fbd f4c1 79bc f4f3 f8bc 115a 5e3b
00000020: b6e4 433b fd38 553c b5f0 f53b 2faa 4f3d
00000030: 6ee6 5cbd 99d0 e83c 1f6f 55bd 20c7 aabc
00000040: b821 223d 8c36 593d b649 d93c dd30 3cbd
00000050: 26b2 50bd 6433 e63c 9e39 d03c cba7 303d
00000060: 5a28 d7bc 6e4e 8c3c 62d0 493d ff06 c83b
00000070: acb8 4fbd d31e 2a3c 3e82 f93b 8f08 4e3d

body.block2.norm.weight f4 [32]
1.027285 1.0112098 1.0059254 1.0263098 0.9610836 1.0019354 0.9800159 0.9896211
0.9616033 0.9841533 0.99350744 1.03737 0.98533845 1.0150926 1.0045007 1.0120981
1.0308021 0.98381394 0.9830575 0.98885685 0.9897425 1.0261961 0.97295606 0.99484885
0.9767651 0.96659756 1.0220942 1.0060589 0.9655014 1.0218925 1.0168557 1.0170491
00000000: 137e 833f 536f 813f 2ac2 803f 1f5e 833f
00000010: 9309 763f 6b3f 803f 52e2 7a3f cf57 7d3f
00000020: a22b 763f 78f1 7b3f 8156 7e3f 8ac8 843f
00000030: 243f 7c3f 8eee 813f 7b93 803f 6e8c 813f
00000040: 53f1 833f 3bdb 7b3f a8a9 7b3f b925 7d3f
00000050: c45f 7d3f 655a 833f a613 793f 6aae 7e3f
00000060: 470d 7a3f f072 773f fcd3 823f 8ac6 803f
00000070: 1a2b 773f 60cd 823f 5428 823f aa2e 823f

body.block2.norm.bias f4 [32]
-0.022739122 -0.030430963 -0.009990153 -0.0072081313 -0.0019309057 -0.008388579 -0.000531537 0.014925431
0.008769199 -0.0114465095 -0.0055026156 -0.004207841 -0.0005179916 -0.012871001 0.0011463349 -8.306564e-05
-0.019800693 -0.019221509 -0.022870816 -0.027294653 -0.0101218 -0.019770566 0.0036536201 -0.0038653456
-0.014065524 -0.021933898 -0.0035859258 -0.010692662 -0.043947235 -0.0057035703 -0.032496355 0.0024261652
00000000: 6547 babc 5b4a f9bc bdad 23bc 3032 ecbb
00000010: 7216 fdba 4070 09bc d856 0bba cc89 743c
00000020: b0ac 0f3c 248a 3bbc 494f b4bb eee1 89bb
00000030: d4c9 07ba e4e0 52bc 9e40 963a 8733 aeb8
00000040: 1035 a2bc 6d76 9dbc 945b bbbc 0999 dfbc
00000050: e8d5 25bc e2f5 a1bc 9371 6f3b bd51 7dbb
00000060: 1573 66bc b8ae b3bc da01 6bbb 4630 2fbc
00000070: 0402 34bd 04e5 babb e61a 05bd 4c00 1f3b

body.block2.norm.running_mean f4 [32]
-0.12451737 0.056111112 0.034665853 -0.15434064 0.17408893 -0.18820718 0.13921487 -0.006809962
0.11253985 -0.08798373 -0.23057033 -0.27697644 0.07915651 0.09381785 -0.02123482 -0.29594594
-0.039712004 -0.09126004 -0.12230497 -0.07022454 -0.03574843 -0.11775019 -0.10138239 0.04888262
-0.20778343 -0.17248914 -0.24439818 0.14066985 -0.032974016 0.14297457 -0.31599846 0.23942795
00000000: f602 ffbd c4d4 653d c8fd 0d3d 790b 1ebe
00000010: 5e44 323e 62b9 40be 588e 0e3e 1a26 dfbb
00000020: 4b7b e63d d030 b4bd a11a 6cbe dbcf 8dbe
00000030: cf1c a23d 9323 c03d a5f4 adbc 3a86 97be
00000040: 0ea9 22bd 8be6 babd 077b fabd e2d1 8fbd
00000050: f26c 12bd 0327 f1bd 92a1 cfbd 2439 483d
00000060: 2ec5 54be fea0 30be 8443 7abe c20b 103e
00000070: c30f 07bd ed67 123e 8dca a1be 9a2c 753e

body.block2.norm.running_var f4 [32]
0.06456093 0.07016896 0.07046735 0.072267756 0.062820524 0.03176762 0.043675657 0.04169587
0.051129986 0.07624898 0.06568124 0.05211994 0.08053195 0.040453255 0.048761327 0.07251561
0.06793783 0.11857564 0.059443865 0.04872995 0.058431074 0.050847694 0.054533415 0.06453157
0.05189203 0.05429845 0.06766559 0.06407876 0.050118078 0.07323317 0.09554506 0.058550216
00000000: 8538 843d beb4 8f3d 3051 903d 1e01 943d
00000010: 0ca8 803d c41e 023d 3fe5 323d 4ac9 2a3d
00000020: ad6d 513d 6d28 9c3d e383 863d b87b 553d
00000030: efed a43d 50b2 253d f5b9 473d 1083 943d
00000040: fd22 8b3d c9d7 f23d 697b 733d 0e99 473d
00000050: 6c55 6f3d ac45 503d 6e5e 5f3d 2129 843d
00000060: bd8c 543d 0d68 5e3d 4294 8a3d ba3b 833d
00000070: 9d48 4d3d 46fb 953d 21ad c33d 5ad2 6f3d

body.block3.conv.weight f4 [32, 32, 3, 3]
-0.012692697 -0.00019995843 -0.021487886 0.001407728 -0.01668603 -0.008954939 0.0007651394 0.012519839
0.006974765 0.0018214394 -0.010685564 -0.013977338 -0.0022261448 0.0062862597 -0.0025950256 -0.0063989935
0.024691666 -0.033241924 0.009278571 0.0008809267 -0.017294195 -0.025579277 -0.010484031 -0.046104573
0.00048216042 -0.024905704 -0.021778187 -0.02637891 -0.0032159362 0.014237191 0.019588474 -0.0017965143
0.0057748165 0.010246297 -0.0033776204 -0.02465664 0.0015524577 -0.0076169567 0.027570453 -0.010153582
-0.008155055 -0.013649436 -0.0063352776 0.0039210636 -0.014267689 -0.011040471 0.012395313 0.006719186
-0.019621588 -0.014739428 0.050371245 -0.022199476 -0.024848482 -0.0067892508 0.0010342643 -0.025238115
-0.029346107 0.004164831 0.017385298 -0.017181467 -0.0065787644 0.0030291642 -0.017014796 -0.058346987
-0.027988506 -0.03291741 0.033344503 -0.01466871 -0.04702202 -0.04699744 0.025640236 -0.027630132
-0.009558963 -0.021536808 0.01746418 -0.0132661695 -0.0009287788 -0.020580232 0.022251666 0.013531287
0.003676831 0.011053844 0.0038142628 -0.0317437 -0.007255014 -0.01623583 -0.02968348 0.011937674
-0.016299924 -0.006917515 -0.009310776 -0.02679819 0.007051307 -0.009691335 -0.03514846 -0.026212836
-0.0024599498 -0.01764874 -0.049897656 0.02433841 -0.00778934 0.0012630951 0.014382743 -0.004815699
0.00929155 -0.04692023 -0.013914144 -0.0032106326 -0.03777916 -0.024496859 -0.0142943105 -0.007595731
-0.004472963 -0.023616342 -0.032363776 0.011232866 0.008465968 0.0011104328 0.03917683 -0.010229668
0.019451248 -0.019883541 -0.011358681 -0.01767196 0.020349516 0.0068175113 -0.0123516945 -0.03403165
-0.02041114 -0.008644573 -0.007949177 0.032175884 0.025489463 -0.014111593 -0.022270136 -0.026756167
0.028624425 0.013434159 -0.052004788 -0.0142285675 -0.048753202 -0.017279673 0.01555137 0.01394451
0.017387344 -0.014761866 0.0040133377 -0.031470254 -0.014171578 -0.009280152 -0.015332751 0.00015343667
0.01917585 -0.0027925356 -0.012304933 -0.021717766 0.000242842 -0.033757944 -0.021451814 0.021501658
-0.016688654 -0.00900766 0.003954499 0.02461055 -0.004553595 -0.028681694 0.0013754304 -0.029733248
-0.025571166 0.019821359 -0.024315828 -0.009922882 0.0026095083 -0.0043751644 0.009106374 -0.025499059
0.029273812 -0.01692013 -0.0396746 0.014171957 -0.02415014 -0.014278751 -0.026265055 -0.008281514
-0.05210469 0.021944208 0.020845331 -0.004400705 -0.04260534 -0.0012372846 0.030137945 0.023727333
0.018307079 0.030956862 0.023220964 -0.013022296 0.017223587 0.01631587 -0.046052195 0.039790295
-0.05707805 -0.040399354 0.0083272485 -0.03228538 0.027249752 0.016485106 -0.0029175687 -0.013489585
-0.0210672 0.009762841 0.007890795 0.016204998 -0.0053322767 0.02818876 0.0088048875 0.008215612
0.013294835 0.023285434 0.0217624 0.02886995 -0.005401961 -0.053278603 -0.0029586726 0.013525983
0.0066162325 0.0008947521 -0.011257337 -0.0013429421 -0.000371537 0.019317897 0.013597822 0.012814798
0.002698766 0.023204645 -0.013245177 0.0061406107 0.027278263 0.013586829 -0.008317544 0.023219768
0.038844746 -0.018390665 0.033241913 0.032745115 0.0032593373 -0.000868218 0.0012453339 -0.022953805
0.022056533 -0.013057931 -0.00079382083 0.007187893 0.006513604 0.040099256 0.023254275 -0.016443893
00000000: 08f5 4fbc efab 51b9 5d07 b0bc 8383 b83a
00000010: 24b1 88bc bdb7 12bc a393 483a 0320 4d3c
00000020: 928c e43b 5dbd ee3a 8112 2fbc 3401 65bc
00000030: 83e4 11bb f8fc cd3b 4e11 2abb a6ae d1bb
00000040: 2d46 ca3c af28 08bd 2605 183c fded 663a
00000050: 8eac 8dbc a28b d1bc 37c5 2bbc 26d8 3cbd
00000060: 7aca fc39 0c07 ccbc 2b68 b2bc 9518 d8bc
00000070: 75c2 52bb 1b43 693c 0278 a03c 0479 ebba
00000080: ac3a bd3b 16e0 273c 115b 5dbb b9fc c9bc
00000090: d67b cb3a aa97 f9bb 6edb e13c 365b 26bc
000000a0: c89c 05bc e2a1 5fbc 2998 cfbb 447c 803b
000000b0: 06c3 69bc 17e3 34bc b615 4b3c 9e2c dc3b
000000c0: 74bd a0bc a47d 71bc 1452 4e3d addb b5bc
000000d0: 0b8f cbbc 5d78 debb 2790 873a 2ac0 cebc
000000e0: 3f67 f0bc 2279 883b 9d6b 8e3c 26c0 8cbc
000000f0: ad92 d7bb f184 463b 9d62 8bbc 40fd 6ebd
00000100: 2748 e5bc 68d4 06bd 3f94 083d 0755 70bc
00000110: 299a 40bd 6380 40bd 790b d23c 9658 e2bc
00000120: 329d 1cbc f66d b0bc 0a11 8f3c 595a 59bc
00000130: 4a79 73ba e097 a8bc 2049 b63c 55b2 5d3c
00000140: fdf6 703b 2f1b 353c b6f8 793b af05 02bd
00000150: 78bb edbb 0101 85bc c52a f3bc 3c96 433c
00000160: 6b87 85bc 52ac e2bb 3a8c 18bc e187 dbbc
00000170: a60e e73b 68c8 1ebc d5f7 0fbd 4dbc d6bc
00000180: 1c37 21bb 1794 90bc 7c61 4cbd 5861 c73c
00000190: b83d ffbb 708e a53a 99a5 6b3c 03cd 9dbb
000001a0: 963b 183c 6d2f 40bd 26f8 63bc 7a69 52bb
000001b0: 52be 1abd a3ad c8bc af32 6abc 9ce5 f8bb
000001c0: ef91 92bb 0f77 c1bc e18f 04bd 0e0a 383c
000001d0: d8b4 0a3c f18b 913a e277 203d 569a 27bc
000001e0: 3958 9f3c cfe2 a2bc c319 3abc c9c4 90bc
000001f0: 07b4 a63c 6e65 df3b c35e 4abc c564 0bbd
00000200: 4335 a7bc f8a1 0dbc 443d 02bc dcca 033d
00000210: 47cf d03c 5034 67bc dc6f b6bc c02f dbbc
00000220: c57d ea3c f21a 5c3c f902 55bd f01e 69bc
00000230: 70b1 47bd 1a8e 8dbc 2ccb 7e3c 8477 643c
00000240: e76f 8e3c c1db 71bc 5182 833b f4e6 00bd
00000250: e82f 68bc c70b 18bc 3836 7bbc d8e3 2039
00000260: ac16 9d3c f902 37bb a19a 49bc 75e9 b1bc
00000270: 67a3 7e39 c545 0abd b7bb afbc 3f24 b03c
00000280: a5b6 88bc dd94 13bc be94 813b 109c c93c
00000290: 5336 95bb dff5 eabc c947 b43a 2493 f3bc
000002a0: 9f7a d1bc 6760 a23c fd31 c7bc 9593 22bc
000002b0: 4904 2b3b 8a5d 8fbb e732 153c 67e3 d0bc
000002c0: a2cf ef3c 169c 8abc d581 22bd 7f31 683c
000002d0: 84d6 c5bc 6cf1 69bc d029 d7bc 30af 07bc
000002e0: ba6b 55bd 57c4 b33c d4c3 aa3c ca33 90bb
000002f0: f082 2ebd 622c a2ba dae3 f63c d35f c23c
00000300: baf8 953c 3f99 fd3c e439 be3c 785b 55bc
00000310: 7b18 8d3c dca8 853c 3aa1 3cbd 26fb 223d
00000320: acca 69bd cb79 25bd 036f 083c ad3d 04bd
00000330: df3a df3c c60b 873c ae34 3fbb 6c03 5dbc
00000340: 1f95 acbc 53f4 1f3c 6548 013c 58c0 843c
00000350: 61ba aebb 1dec e63c 6042 103c c69a 063c
00000360: 94d2 593c 18c1 be3c 1047 b23c ac80 ec3c
00000370: ef02 b1bb aa3a 5abd 4ae6 41bb 169c 5d3c
00000380: fbcc d83b cc8d 6a3a b270 38bc a905 b0ba
00000390: daca c2b9 9140 9e3c 66c9 5e3c 29f5 513c
000003a0: c8dd 303b ab17 be3c 4d02 59bc 2d37 c93b
000003b0: aa76 df3c 4b9b 5e3c 4f46 08bc 6237 be3c
000003c0: ab1b 1f3d 05a8 96bc ac28 083d be1f 063d
000003d0: 9b9a 553b 2099 63ba 793a a33a 9e09 bcbc
000003e0: e7af b43c eff0 55bc 6a18 50ba 6b88 eb3b
000003f0: 1270 d53b 1e3f 243d c07f be3c 58b5 86bc

body.block3.conv.bias f4 [32]
-0.05581677 0.01453801 -0.01609896 0.05229404 -0.004111886 -0.014172149 0.032117914 0.05796305
0.001489202 -0.022516947 -0.023884872 0.028783936 0.019839285 -0.039182898 0.011426466 0.032781318
-0.010165073 -0.0069776215 0.012696139 0.021769172 0.035596684 0.03532139 -0.0027099098 -0.027940692
-0.017681513 0.021869909 -0.01990448 -0.02838745 -0.053970035 0.053447206 0.022408292 -0.022936812
00000000: 20a0 64bd d530 6e3c f7e1 83bc 4632 563d
00000010: 00bd 86bb 4d32 68bc 138e 033d aa6a 6d3d
00000020: 5431 c33a 7675 b8bc 35aa c3bc 4acc eb3c
00000030: ff85 a23c 3f7e 20bd 1236 3b3c b445 063d
00000040: 688b 26bc 88a4 e4bb 7703 503c 4355 b23c
00000050: d4cd 113d 29ad 103d be98 31bb e1e3 e4bc
00000060: d2d8 90bc 8628 b33c b80e a3bc cc8c e8bc
00000070: af0f 5dbd 75eb 5a3d 9891 b73c fbe5 bbbc

body.block3.norm.weight f4 [32]
1.0238925 1.0191641 0.9999449 0.96782374 0.9992575 1.0172069 1.014591 0.9939356
0.96357894 0.997453 0.9772637 0.9931838 1.0013185 0.99485266 1.0118355 0.95413697
0.9758313 1.0107515 1.035684 0.9826968 0.9986837 1.0209631 1.015226 0.97013116
0.9865259 0.97103584 1.0185922 0.9670033 0.9780629 0.97627026 0.9712212 0.9921081
00000000: e90e 833f f873 823f 64fc 7f3f 4cc3 773f
00000010: 57cf 7f3f d633 823f 1ede 813f 9072 7e3f
00000020: 1cad 763f 1459 7f3f f42d 7a3f 4b41 7e3f
00000030: 342b 803f aaae 7e3f d383 813f 5242 743f
00000040: 14d0 793f 4e60 813f 4b91 843f 0492 7b3f
00000050: bca9 7f3f ebae 823f edf2 813f 845a 783f
00000060: f68c 7c3f ce95 783f 3b61 823f 878d 773f
00000070: 5562 7a3f d9ec 793f f4a1 783f ccfa 7d3f

body.block3.norm.bias f4 [32]
0.0071347672 -0.008013345 0.006110222 -0.0061560106 -0.0007498035 -0.0065473886 -0.010397052 -0.007895618
-0.0045671808 -0.007475267 -0.0113214785 -0.009692556 0.0035114312 -0.006246281 -0.00047486395 -0.0074533056
0.006647249 0.0051962426 -4.64127e-06 -0.0063111335 0.008283288 -0.004298774 0.006095292 0.0064602355
0.0076844483 -0.0037034594 -0.010842722 0.0061417525 -0.0003384017 -0.01255942 0.0065660817 0.008921105
00000000: c4ca e93b 684a 03bc 4238 c83b 5cb8 c9bb
00000010: 768e 44ba 7a8b d6bb 6658 2abc 9f5c 01bc
00000020: 4aa8 95bb 16f3 f4bb b97d 39bc 87cd 1ebc
00000030: 0a20 663b 9aad ccbb 29f7 f8b9 dc3a f4bb
00000040: 2bd1 d93b 3e45 aa3b 35bc 9bb6 a0cd cebb
00000050: a1b6 073c bbdc 8cbb 04bb c73b 62b0 d33b
00000060: d3cd fb3b bdb5 72bb aca5 31bc c140 c93b
00000070: 826b b1b9 07c6 4dbc 4928 d73b d429 123c

body.block3.norm.running_mean f4 [32]
-0.32164425 -0.121936314 0.030871602 0.29493746 -0.074983194 0.034546643 -0.0011337564 0.14572527
0.036262937 -0.29152286 -0.09841797 0.17963606 0.16950932 -0.09963342 -0.07661785 0.18300395
0.100831166 -0.21456394 -0.033139918 0.21436271 0.067075066 -0.012534925 -0.011726327 -0.14177932
0.008972852 -0.11814237 0.20786542 0.13062455 -0.017299615 -0.2687114 -0.08371104 -0.19298305
00000000: 8eae a4be bfb9 f9bd 71e6 fc3c 0b02 973e
00000010: ca90 99bd c880 0d3d 8d9a 94ba 0139 153e
00000020: 7288 143d 7c42 95be 5c8f c9bd 84f2 373e
00000030: da93 2d3e 9b0c ccbd d2e9 9cbd 6365 3b3e
00000040: 9280 ce3d a6b6 5bbe b9bd 07bd e681 5b3e
00000050: a75e 893d 495f 4dbc c81f 40bc 992e 11be
00000060: de02 133c a0f4 f1bd acda 543e 71c2 053e
00000070: ecb7 8dbc 8a94 89be b270 abbd 599d 45be

body.block3.norm.running_var f4 [32]
0.06607235 0.06805074 0.06375671 0.058875654 0.066178985 0.054936714 0.059120774 0.03583512
0.060539786 0.054594334 0.060238376 0.061592564 0.05744709 0.051439773 0.053817887 0.058488637
0.04905849 0.07133008 0.060213465 0.05473177 0.049381904 0.04833914 0.05727932 0.056333225
0.03752574 0.036308885 0.06231297 0.06020475 0.043209407 0.0614418 0.061874166 0.047896195
00000000: f150 873d 305e 8b3d e192 823d 9927 713d
00000010: d988 873d 5205 613d a028 723d d9c7 123d
00000020: 91f8 773d 4f9e 5f3d 84bc 763d 7c48 7c3d
00000030: a44d 6b3d 83b2 523d 2570 5c3d c891 6f3d
00000040: 8ef1 483d 8115 923d 65a2 763d 6c2e 603d
00000050: ae44 4a3d 43ff 453d b89d 6a3d abbd 663d
00000060: 97b4 193d a0b8 143d e33b 7f3d 4299 763d
00000070: 59fc 303d 66aa 7b3d c46f 7d3d cd2e 443d

tail.0.weight f4 [3, 32, 3, 3]
0.007993773 -0.01624347 0.008039503 -0.005041639 -0.051498707 0.010581169 -0.015282746 0.013759316
-0.029636586 0.014360355 0.062430963 -0.025842655 -0.0013185521 0.0062115774 -0.019381996 0.02848957
0.0131449895 0.0044644135 0.0006936937 -0.022204539 0.013516857 0.0030652087 -0.00911522 -0.011970433
-0.024525672 -0.009073825 0.022968533 0.04913625 0.025835682 -0.0041602766 -0.0023476402 -0.003501927
0.0007162507 -0.013704009 0.0037052708 0.00679889 0.0021582313 -0.02516082 -0.05241168 -0.0028403415
-0.01712035 -0.011643297 0.013193101 0.019000765 -0.007003984 0.046795093 0.0039456524 -0.0031562196
0.011377997 0.0017654294 -0.0149444835 -0.002396426 0.04422603 0.008826839 0.044803996 0.033576507
-0.037646882 0.006233352 -0.011705615 -0.02254973 0.000879206 -0.015295057 0.002431088 -0.037483998
0.006552244 -0.009804895 0.013459291 0.02231225 -0.008493999 0.012833152 -0.014208558 0.012535479
-0.031346854 0.0138310455 -0.018323712 -0.007129 0.004418339 -0.011727921 -0.010677618 0.015112671
-0.008506502 -0.023447286 0.0014599554 -0.0043637557 -0.011695337 0.007996562 0.03889054 -0.036008965
-0.019342892 -0.0247721 0.007880645 -0.0221022 -0.0067020864 0.042895637 -0.0055172495 -0.04057583
0.010561343 -0.0018035715 -0.0071022348 0.012597952 -0.0067330333 0.0063099363 0.017286278 0.018158862
0.0068285577 -0.0040779947 0.038119428 -0.0122652855 -0.0012513306 -0.010473711 -0.03717403 -0.003666096
-0.0058992417 -0.010319152 0.014155767 -0.0064430814 -0.056336794 0.00927871 -0.0029863948 0.024583042
-0.0071603036 0.01434154 0.0047963643 -0.014470982 -0.006512363 -0.023541264 -0.00030710312 -0.011457707
-0.011211455 -0.005305701 0.021130916 -0.007928115 -0.014587989 -0.019380854 0.012125882 0.0070181196
-0.010357119 0.0006045989 0.030457823 0.03906367 -0.0046049375 0.0149498135 0.0066750296 -0.011279013
0.0018795747 0.023379073 -0.022962963 -0.004073189 0.0049316646 -0.015368309 -0.028040305 -0.018564332
0.004249813 0.02074744 -0.024999442 -0.059517868 -0.018501878 0.03527859 0.010608658 -0.00093447603
-0.0020637277 -0.011934727 0.027148627 0.00269923 -0.010524161 -0.045065325 0.0004982982 0.011823677
-0.008353997 -0.025280066 -0.023469688 0.015185785 0.008080316 0.025049547 -0.01148147 -0.051159915
-0.018078992 0.016521899 0.00065733114 -0.027539086 0.009739651 -0.069212064 0.0037234686 -0.031453967
-0.016784092 -0.0178652 -0.0051023774 -0.025680834 -0.0281931 0.007031109 0.010418122 -0.014278877
-0.014890318 -0.029561209 -0.012392907 0.028077165 0.006159702 0.008761138 -0.008403905 -0.03666042
-0.008622726 -0.009082826 -0.0366605 0.011700618 -0.0022002477 -0.03048247 -0.042057782 -0.021741897
-0.022298476 -0.0042079748 0.012607944 3.4419118e-05 -0.00018493079 0.0010126061 -0.032415558 0.011238159
0.005673989 -0.012351877 -0.01132287 -0.010826835 -0.04240222 -0.005908978 -0.0064960034 0.026338603
0.009144481 -0.010118875 0.003605259 -0.00052835984 -0.0067792605 0.028694384 -0.0043023117 -0.025907433
-0.007829549 0.019866088 -0.019009182 0.017044816 -0.0063089756 -0.016463766 -0.023428885 -0.024799842
0.017328074 -0.01762649 0.015760444 -0.04408747 0.008640711 -0.053174518 -0.02914903 -0.022965679
0.006481454 -0.0051146974 -0.017638277 -0.019825418 0.008153207 0.020041069 -0.021797804 -0.033918343
00000000: 50f8 023c 0711 85bc 1fb8 033c 5534 a5bb
00000010: 4ff0 52bd a45c 2d3c 7c64 7abc c16e 613c
00000020: 6dc8 f2bc b247 6b3c 9cb7 7f3d fab3 d3bc
00000030: 44d3 acba 7d8a cb3b fec6 9ebc f562 e93c
00000040: 155e 573c 374a 923b ffd8 353a 4be6 b5bc
00000050: cf75 5d3c abe1 483b 0158 15bc a31f 44bc
00000060: 10ea c8bc 61aa 14bc 8128 bc3c 1843 493d
00000070: 5aa5 d33c ee52 88bb deda 19bb 9680 65bb
00000080: c5c2 3b3a c886 60bc 21d4 723b 39c9 de3b
00000090: 1d71 0d3b 101e cebc a1ad 56bd 0625 3abb
000000a0: fa3f 8cbc 87c3 3ebc e027 583c 7ea7 9b3c
000000b0: ad81 e5bb 36ac 3f3d 884a 813b 94d8 4ebb
000000c0: c76a 3a3c fb65 e73a b5d9 74bc 5b0d 1dbb
000000d0: 5b26 353d 729e 103c 6584 373d 8587 093d
000000e0: 9e33 1abd 2541 cc3b e8c8 3fbc 36ba b8bc
000000f0: 847a 663a 1e98 7abc e352 1f3b d288 19bd
00000100: 35b4 d63b b6a4 20bc 5c84 5c3c 2ec8 b63c
00000110: 6a2a 0bbc 2442 523c 03cb 68bc 9c61 4d3c
00000120: 8f65 00bd 9c9b 623c 9c1b 96bc 639a e9bb
00000130: b7c7 903b 7726 40bc 2df1 2ebc 239b 773c
00000140: db5e 0bbc 8614 c0bc f95b bf3a d6fd 8ebb
00000150: cc9d 3fbc 0304 033c b04b 1f3d 237e 13bd
00000160: fc74 9ebc dcee cabc d21d 013c ac0f b5bc
00000170: 2d9d dbbb 56b3 2f3d 0bca b4bb d732 26bd
00000180: 7c09 2d3c d165 ecba ddb9 e8bb a467 4e3c
00000190: c7a0 dcbb 95c3 ce3b f49b 8d3c e5c1 943c
000001a0: 18c2 df3b b3a0 85bb 1e23 1c3d 56f4 48bc
000001b0: b003 a4ba ee99 2bbc cc43 18bd e242 70bb
000001c0: 6d4e c1bb a911 29bc 97ed 673c 7c20 d3bb
000001d0: 69c1 66bd bb05 183c 64b7 43bb 6062 c93c
000001e0: fba0 eabb c7f8 6a3c d22a 9d3b b317 6dbc
000001f0: a965 d5bb 9cd9 c0bc af02 a1b9 1bb9 3bbc
00000200: 40b0 37bc 72db adbb be1a ad3c ede4 01bc
00000210: 7602 6fbc 99c4 9ebc a3ab 463c 41f8 e53b
00000220: e8b0 29bc f27d 1e3a af82 f93c 3a01 203d
00000230: 04e5 96bb 10f0 743c 35ba da3b 9ccb 38bc
00000240: 105c f63a 7885 bf3c d31c bcbc 6378 85bb
00000250: cd99 a13b 5ccb 7bbc c8b4 e5bc 3a14 98bc
00000260: 0442 8b3b 89f6 a93c a1cb ccbc 02c9 73bd
00000270: 4091 97bc 4880 103d f0cf 2d3c a0f7 74ba
00000280: 9b3f 07bb e089 43bc cc66 de3c 91e5 303b
00000290: 886d 2cbc 6b96 38bd 3aa0 023a 19b8 413c
000002a0: 34df 08bc 2418 cfbc 8143 c0bc cccd 783c
000002b0: 4d63 043c b534 cd3c c71c 3cbc 0f8d 51bd
000002c0: 651a 94bc ef58 873c bf50 2c3a a699 e1bc
000002d0: 0f93 1f3c 0ebf 8dbd 7005 743b e0d5 00bd
000002e0: cb7e 89bc 0a5a 92bc d831 a7bb 9d60 d2bc
000002f0: 37f5 e6bc 3865 e63b c5b0 2a3c f3f1 69bc
00000300: 85f6 73bc 592a f2bc 9f0b 4bbc 1502 e63c
00000310: 53d7 c93b e08a 0f3c 88b0 09bc 3d29 16bd
00000320: 5646 0dbc 22d0 14bc 5229 16bd f3b3 3f3c
00000330: 0832 10bb 5fb6 f9bc c844 2cbd 101c b2bc
00000340: 4bab b6bc 0de3 89bb 8d91 4e3c 3f5d 1038
00000350: fbe9 41b9 6cb9 843a 2dc6 04bd 4120 383c
00000360: dfec b93b 875f 4abc 8f83 39bc 0a63 31bc
00000370: f3ad 2dbd 1aa0 c1bb 6ddc d4bb 0ec4 d73c
00000380: bcd2 153c a3c9 25bc 3546 6c3b a181 0aba
00000390: 8f24 debb 7c10 eb3c 68fa 8cbb d33b d4bc
000003a0: 8247 00bc 35be a23c 25b9 9bbc 92a1 8b3c
000003b0: 86bb cebb 05df 86bc efed bfbc 0a29 cbbc
000003c0: 9bf3 8d3c 6e65 90bc 0c1c 813c 1095 34bd
000003d0: c591 0d3c 86cd 59bd f2c9 eebc 8522 bcbc
000003e0: 6062 d43b 3199 a7bb 267e 90bc ea68 a2bc
000003f0: 0795 053c 2b2d a43c 4f91 b2bc f6ed 0abd

tail.0.bias f4 [3]
0.0055324235 0.017878806 -0.021520784
00000000: 5549 b53b 9376 923c 5b4c b0bc
