code/Output/mountains/pdl_e8000_1px_lr0.0001a5.0_up-conv5_1_W[1.0, 0.5, 0.1, 0.075, 0.075](1)/7/netG.pth (torch, 471621 bytes, 26 tensors)

head.conv.weight f4 [64, 3, 3, 3]
0	0x3cfff1a0	0.031243145
1	0xbaf296e3	-0.0018508103
2	0xbc5b88e2	-0.013399335
3	0x3bd9e63c	0.0066497605
4	0x3cee6064	0.029098697
5	0x3c955c3c	0.018232457
6	0xbd24e342	-0.040255792
7	0xbbe21a20	-0.006900087
8	0xbcbdd9ae	-0.023175087
9	0x3c0f8bfe	0.008761404
10	0x3c8ad851	0.01694885
11	0xbc3f0a23	-0.011660132
12	0x3c8aae67	0.016928865
13	0xbd5eb6b9	-0.054373477
14	0xbd1556c3	-0.036459696
15	0xbd2802f4	-0.04101844
16	0x3d14887f	0.036262985
17	0x3cf3dec2	0.029769305
18	0x3c4966ed	0.012292606
19	0xba9681d8	-0.0011482788
20	0x3c7c9b8e	0.0154179465
21	0xbd20f30a	-0.03929428
22	0x3c0de2c7	0.008660025
23	0x39946863	0.00028306534
24	0xbc35e52d	-0.011102003
25	0x3cb03cdd	0.021513397
26	0xbbe89863	-0.007098244
27	0x3c15c04e	0.009140087
28	0x3ce49804	0.027904518
29	0x3c9643ad	0.018342817
30	0xbcbe160e	-0.023203876
31	0x3c97bf91	0.018523963
32	0xbc61a3e6	-0.013771987
33	0xbcbdbcbd	-0.023161286
34	0x3c6e2ab1	0.014536546
35	0x3b64261e	0.0034812759
36	0x3c11a809	0.00889016
37	0xbafa2030	-0.0019083079
38	0x3c10d81e	0.008840589
39	0xbcbcdb7a	-0.023053873
40	0xbb64dd68	-0.0034922007
41	0xbc9aab54	-0.018880524
42	0x3b87efb1	0.0041484465
43	0xbd019a38	-0.031641215
44	0xbd68ea19	-0.056863878
45	0xbd57b04c	-0.052658364
46	0xbc4d39af	-0.01252596
47	0xbb6f02de	-0.0036470215
48	0xbcc13c4f	-0.023588328
49	0x3c3c3a96	0.011488577
50	0xbc942780	-0.018085241
51	0x3ca58959	0.020207094
52	0x3b7ecb08	0.003887834
53	0x3c9d5cfb	0.019209376
54	0x3d1b0d06	0.037854217
55	0xbbaa59c9	-0.0051986915
56	0xbca62b30	-0.020284265
57	0x3cf522d2	0.02992383
58	0x3c557cf4	0.013030279
59	0x39b30b59	0.00034149995
60	0x3d6fad7e	0.058515064
61	0xbd14770e	-0.036246352
62	0x3c510282	0.012756946
63	0xbbe675a8	-0.0070330687
64	0x3cf18969	0.029484468
65	0xbd048c97	-0.03236064
66	0x3cacff66	0.021117877
67	0x3c35c2e1	0.011093826
68	0xbc853fbc	-0.016265742
69	0x3d666ce0	0.056256175
70	0x3bb1c67e	0.0054252734
71	0x3d58c701	0.05292416
72	0xbc103340	-0.008801281
73	0x3c612069	0.013740637
74	0xbc414df8	-0.011798374
75	0x3b92b119	0.004476678
76	0xbcbbc386	-0.022920381
77	0xbccd9f3d	-0.025100345
78	0x3ca93baf	0.020658342
79	0x39a85691	0.00032107954
80	0x3be7c0d8	0.0070725493
81	0xb9ea3382	-0.00044670334
82	0xbb67eb2c	-0.0035387976
83	0x3c1bb1ff	0.009502887
84	0x3b2c2ac1	0.00262706
85	0x3c8a20d5	0.016861359
86	0xbccc3d0f	-0.024931459
87	0xbd29e292	-0.04147584
88	0xbc9f83c8	-0.019472018
89	0x3bfcf063	0.007719086
90	0xbcbd3b23	-0.023099488
91	0x3b61fbdd	0.0034482398
92	0xba6f4ecc	-0.0009128868
93	0xbbc76a03	-0.0060856356
94	0x3c7222ee	0.014778836
95	0xbbff6353	-0.007793823
96	0x3d4b7323	0.04967035
97	0x3cfb0611	0.030642541
98	0x3d09f856	0.033684097
99	0x3c74a548	0.014931984
100	0xbc8f3837	-0.01748286
101	0x39e06c03	0.00042805084
102	0x3c68880b	0.014192591
103	0x3c612172	0.013740884
104	0xbc1e07bb	-0.009645398
105	0x3b38a015	0.0028171588
106	0xbcf2ba92	-0.02962998
107	0xbd7cebf3	-0.061748456
108	0xbc34b9d9	-0.011030638
109	0xbc904406	-0.017610561
110	0x3bea62df	0.0071528996
111	0xbb289916	-0.0025726012
112	0xbb8fb1ce	-0.0043852096
113	0xbc917425	-0.017755577
114	0xbcc62408	-0.024187103
115	0xbc91f5ba	-0.017817367
116	0x3d3c51cc	0.045976445
117	0x3c76a545	0.015054052
118	0x3c2f3a50	0.010695055
119	0xbb1e7b8d	-0.0024182529
120	0x3ca098e5	0.019604156
121	0x3b15f452	0.0022881222
122	0xbd7f64af	-0.06235188
123	0x3b5b73c4	0.003348575
124	0x3d3255a7	0.043538716
125	0x3b9ba198	0.004749488
126	0x3d566dcd	0.052350808
127	0xbc23fc18	-0.010008834
128	0xbce46d1f	-0.027884064
129	0x3c33310c	0.010936987
130	0x3a0b2a49	0.000530873
131	0xbc06c71a	-0.00822618
132	0xbc7b3a8a	-0.015333781
133	0x3cf6bf52	0.030120526
134	0xbcc8e80b	-0.02452471
135	0xbc94309a	-0.018089581
136	0xbc183847	-0.009290761
137	0x3cb18fdb	0.021675041
138	0x3a1656c4	0.0005734975
139	0xba097f73	-0.00052451267
140	0xbd0b906d	-0.034073282
141	0x3bbf919f	0.005846217
142	0x3d3d48dc	0.046212062
143	0x3ca83719	0.020534085
144	0xbabe2c22	-0.0014509002
145	0x3b17510a	0.0023089075
146	0xbc081638	-0.008306079
147	0xbce4f9af	-0.02795109
148	0xbd2c7dff	-0.042112347
149	0x3c3321df	0.0109333685
150	0xbcfa2082	-0.030533079
151	0xbd1468e8	-0.03623286
152	0xbcf41ebc	-0.029799812
153	0x3ccb6d8c	0.02483251
154	0x3b1e9013	0.0024194762
155	0x3badfd82	0.0053097615
156	0x3b500e8d	0.0031746954
157	0xbb8b5e9b	-0.004253221
158	0x3d38513e	0.044999354
159	0xbc93c1b8	-0.018036708
160	0x3c083dce	0.008315517
161	0x3bab22e3	0.0052226647
162	0xbd3d67f7	-0.046241727
163	0xbcf4faa8	-0.029904678
164	0xbcff3eb3	-0.031157827
165	0xbc84a7df	-0.016193328
166	0x3bd20136	0.0064088358
167	0xba08c318	-0.00052170595
168	0x3d19cbf7	0.03754803
169	0x3c9c6d99	0.019095229
170	0x3d12f026	0.035873555
171	0xbd3b323a	-0.045702197
172	0x3c28db78	0.010306232
173	0xbc8e95a4	-0.017405339
174	0x3cbd1c59	0.023084806
175	0xbc47f47b	-0.012204285
176	0xba9d1676	-0.0011984843
177	0x3d20f382	0.039294727
178	0xbbbbec94	-0.0057349894
179	0x3c0034d8	0.007825099
180	0x3c0abfbc	0.008468565
181	0x3cc290d8	0.023750708
182	0x3d19cc81	0.037548546
183	0x3c6f63f6	0.014611235
184	0x3c666b19	0.01406362
185	0xbcec1321	-0.028817715
186	0xbc36a598	-0.011147879
187	0xbca409d8	-0.020024225
188	0x3ad6e1cd	0.0016394198
189	0xbc1f0695	-0.009706159
190	0x3c57489a	0.013139868
191	0xbc3b25c3	-0.011422577
192	0xbd4c01b7	-0.049806323
193	0x3d11218d	0.035432387
194	0xba1cb85a	-0.0005978398
195	0x3cd15ec9	0.025557892
196	0x3c2a190a	0.010381946
197	0xbd5206d5	-0.051276047
198	0x3c2018a3	0.009771499
199	0xbd0a5c85	-0.03377964
200	0xbc3156cd	-0.010823918
201	0xbc01c0ad	-0.007919473
202	0x3d247e14	0.0401593
203	0xbc716bf1	-0.014735208
204	0xbc4bdaf6	-0.012442341
205	0x3aa916cf	0.0012900474
206	0xbc698cda	-0.014254773
207	0xbca6f0c4	-0.020378478
208	0xbc294728	-0.010331906
209	0x3cad00db	0.021118572
210	0x3d03e449	0.03220013
211	0x3cb43358	0.021997139
212	0xbb336d04	-0.002737821
213	0x3cf75df4	0.030196168
214	0x3c085a47	0.008322305
215	0x3d1047de	0.035224788
216	0x3c1e5de5	0.009665941
217	0xbb3bd47f	-0.0028660593
218	0xbd488266	-0.048952483
219	0xbc88e068	-0.016708568
220	0x3c29f607	0.010373599
221	0x3c4dd479	0.012562864
222	0x3bd4ffff	0.0065002437
223	0xbcba15ba	-0.022715438
224	0x3cb720fc	0.022354595
225	0x3d3b2ca5	0.045696873
226	0xbcb519dc	-0.022107057
227	0x3b86c62c	0.0041129794
228	0xbd8723bb	-0.06598612
229	0x3ca7e3aa	0.0204943
230	0x3d2df515	0.042470057
231	0xbc6e5f72	-0.014549123
232	0xbd0a4793	-0.033759665
233	0x3b0f4944	0.0021863738
234	0xbc8918fa	-0.016735543
235	0xbc969857	-0.018383188
236	0x3d24e110	0.0402537
237	0xbc9a13b3	-0.018808221
238	0x3c0fbfd0	0.008773759
239	0x3c853ffe	0.016265865
240	0xbd4ca6f9	-0.049963925
241	0xbca863ed	-0.02055546
242	0x3c00725e	0.007839767
243	0xbb7bd46f	-0.003842618
244	0x3cf1482a	0.029453356
245	0xbc377103	-0.011196378
246	0x3c341381	0.010990978
247	0xbc878be5	-0.0165462
248	0xbd037720	-0.03209603
249	0x3cc95599	0.024576949
250	0xbd190017	-0.0373536
251	0x3d0cd581	0.0343833
252	0xbcae4859	-0.021274732
253	0x3d0b1267	0.033953097
254	0xbc00cd92	-0.007861512
255	0x3c933e8f	0.017974166

head.conv.bias f4 [64]
0	0x3d421137	0.0473797
1	0xbe1316b2	-0.14364126
2	0xbcc7da4d	-0.024396086
3	0x3e2df51d	0.16988035
4	0x3dcd8a57	0.10036152
5	0x3e0e56a0	0.13900232
6	0xbdeb8349	-0.1149965
7	0xbe27f375	-0.16401465
8	0x3d8cdbdd	0.06877873
9	0xbe196204	-0.14978796
10	0xbd904a8e	-0.0704547
11	0xbdb62342	-0.08893444
12	0x3e168cf7	0.14702211
13	0xbd79d3c8	-0.060992986
14	0xbd01d7d2	-0.031699963
15	0xbe34992c	-0.17636555
16	0xbe2382b4	-0.15967828
17	0xbd97f0ac	-0.074189514
18	0x3cb307d4	0.021854319
19	0xbdb744f9	-0.08948702
20	0x3e38205f	0.17981099
21	0xbe398e04	-0.18120581
22	0x3d53f272	0.051744886
23	0xbe46c8ba	-0.19412509
24	0x3c115f6e	0.00887285
25	0x3e3df4b6	0.18550381
26	0x3ceeb69c	0.02913981
27	0x3dc402f6	0.09570877
28	0xbbb3664b	-0.0054748408
29	0x3e2c5357	0.16828667
30	0xbd941455	-0.072304405
31	0x3e0ffd29	0.14061417
32	0x3cbd85c3	0.023135072
33	0x3c58cd49	0.013232538
34	0xbe0ad314	-0.13557082
35	0xbe144cec	-0.14482468
36	0x3d77daee	0.060511522
37	0xbe0d6a77	-0.13810144
38	0x3da04899	0.07826347
39	0xbe10facd	-0.14158173
40	0xbd172d91	-0.03690869
41	0xbd2bcbab	-0.04194228
42	0x3e20097b	0.15628617
43	0xbd14e986	-0.036355518
44	0x3df421cb	0.11920508
45	0x3e2fc789	0.1716596
46	0x3db2f96d	0.087389804
47	0x3ddc6057	0.10760563
48	0x3c0f49ad	0.008745593
49	0x3de92022	0.11383082
50	0xbe179f64	-0.14806896
51	0x3de8f8fb	0.11375614
52	0xba3b0cbe	-0.00071353826
53	0xbd859843	-0.06523182
54	0x3d3a3c35	0.045467574
55	0x3cbff73d	0.023433322
56	0x3e41e356	0.18934378
57	0x3c7f303b	0.015575464
58	0xbce417e1	-0.027843418
59	0xba711c82	-0.00091976684
60	0x3cf4a5d6	0.029864233
61	0xbda25788	-0.079268515
62	0x3e00adbc	0.12566274
63	0x3df85d32	0.121271506

head.norm.weight f4 [64]
0	0x3f756b05	0.95866424
1	0x3f7e7573	0.99397963
2	0x3f810995	1.0081049
3	0x3f7902c6	0.97269857
4	0x3f86b2b3	1.0523285
5	0x3f81c525	1.0138289
6	0x3f8155cf	1.0104312
7	0x3f7c02a1	0.9844151
8	0x3f6d94b7	0.92805046
9	0x3f7d54f9	0.98957783
10	0x3f7fcd40	0.9992256
11	0x3f7f839b	0.9981019
12	0x3f856e63	1.0424312
13	0x3f84646e	1.0343149
14	0x3f7b2548	0.9810376
15	0x3f7d1395	0.98858005
16	0x3f81bc39	1.0135566
17	0x3f843612	1.0329001
18	0x3f824223	1.0176433
19	0x3f81b144	1.0132222
20	0x3f7b0290	0.98050785
21	0x3f78d1a2	0.97194874
22	0x3f860f2e	1.0473382
23	0x3f79b1ff	0.97537225
24	0x3f891142	1.0708392
25	0x3f81908f	1.0122241
26	0x3f8293c7	1.0201348
27	0x3f815ae8	1.0105867
28	0x3f7e2208	0.9927068
29	0x3f7d4aba	0.9894215
30	0x3f848ca4	1.035542
31	0x3f78f65c	0.97250915
32	0x3f7a3182	0.9773179
33	0x3f843d41	1.0331193
34	0x3f76f8ab	0.9647319
35	0x3f79226c	0.9731815
36	0x3f85115d	1.0395924
37	0x3f833cd8	1.0252943
38	0x3f81f4fa	1.0152886
39	0x3f7c751e	0.98616207
40	0x3f80c546	1.0060203
41	0x3f80c474	1.0059953
42	0x3f7926ec	0.97325015
43	0x3f811e8b	1.0087446
44	0x3f722069	0.94580704
45	0x3f789b8c	0.97112346
46	0x3f7aa470	0.9790716
47	0x3f6fc3fc	0.93658423
48	0x3f746528	0.9546685
49	0x3f7a4ecd	0.9777649
50	0x3f731b74	0.94963765
51	0x3f892399	1.0713989
52	0x3f7ddff3	0.99169844
53	0x3f788d67	0.9709076
54	0x3f82fb58	1.0232954
55	0x3f77de71	0.96823794
56	0x3f7e3501	0.9929963
57	0x3f77dc63	0.9682066
58	0x3f762766	0.9615387
59	0x3f77da00	0.96817017
60	0x3f80fa4f	1.0076388
61	0x3f788b8b	0.97087926
62	0x3f750e10	0.9572458
63	0x3f7b947f	0.9827346

head.norm.bias f4 [64]
0	0xbda571cd	-0.080783464
1	0xbc0ab96f	-0.008467062
2	0x3c0d660d	0.008630288
3	0xbdc7998a	-0.09746082
4	0xbd8e90a0	-0.06961179
5	0xbd819037	-0.06326335
6	0xbd4d8673	-0.05017705
7	0xbd6a6e75	-0.057234246
8	0xbd729729	-0.05922619
9	0xbd9e0323	-0.07715442
10	0xbd7df981	-0.062005524
11	0xbdbc10f0	-0.09182918
12	0xbdf2d211	-0.11856473
13	0xbd03c732	-0.03217239
14	0xbbc3a443	-0.0059705093
15	0xbdbbc650	-0.091686845
16	0xbd801e26	-0.0625575
17	0x3c61edd6	0.013789615
18	0xbd902a47	-0.07039314
19	0xbd273480	-0.040821552
20	0xbda12caa	-0.07869847
21	0xbd49a531	-0.049229804
22	0xbcf9f120	-0.030510485
23	0xbdc14511	-0.094370015
24	0xbcf7d005	-0.030250559
25	0xbd8e3d27	-0.06945258
26	0xbcead568	-0.028666213
27	0xbdacc0ae	-0.08435188
28	0xbd9170f7	-0.071016245
29	0xbc006571	-0.0078366855
30	0xbd7b65d5	-0.06137641
31	0xbd5f1fcd	-0.054473687
32	0xbd2e88ba	-0.04261086
33	0xbd2fa24f	-0.0428794
34	0xbd069389	-0.032855544
35	0xbd92f451	-0.07175506
36	0xbd52fb6b	-0.051509302
37	0x3ce2ab9d	0.027669722
38	0xbd25ff77	-0.040526833
39	0xbd060f15	-0.032729227
40	0xbd69fabe	-0.057123892
41	0xbde43c2e	-0.11144291
42	0xbd37d6f9	-0.04488275
43	0xbd6886b2	-0.05676908
44	0xbd313ea4	-0.04327263
45	0xbd83cb9e	-0.06435321
46	0xbdad5146	-0.08462767
47	0xbd50c008	-0.050964385
48	0xbdb4b76c	-0.088240474
49	0x3cc1b284	0.023644693
50	0xbd79cf67	-0.06098881
51	0xbc567022	-0.013088258
52	0xbd9d2e5d	-0.07674859
53	0xbd598d6c	-0.053113386
54	0xbd7901ec	-0.06079285
55	0xbd5452e3	-0.05183686
56	0xbd03446c	-0.032047674
57	0xbd7e9527	-0.06215396
58	0xbc776bdf	-0.015101402
59	0xbd56a493	-0.052403044
60	0xbd832ceb	-0.06405052
61	0xbdb86189	-0.09002978
62	0xbd4e9d5b	-0.050443035
63	0xbd33e6b3	-0.043921184

head.norm.running_mean f4 [64]
0	0x3d4e0656	0.05029901
1	0xbe05f764	-0.13082653
2	0xbd2f624f	-0.042818364
3	0x3e37c2e1	0.17945434
4	0x3dd0e5c2	0.10200073
5	0x3e0cfb8e	0.13767835
6	0xbdf00c07	-0.11721044
7	0xbe2ff239	-0.17182244
8	0x3da7264d	0.08161602
9	0xbe1664b9	-0.1468686
10	0xbd88ec14	-0.06685653
11	0xbdc2e6ab	-0.09516653
12	0x3e0b8430	0.13624644
13	0xbd26a9d8	-0.04068932
14	0xbd140a5f	-0.036142703
15	0xbe3e595e	-0.18588778
16	0xbe2b5fa4	-0.16735703
17	0xbd86e872	-0.06587304
18	0x3cbd1785	0.023082504
19	0xbd96d566	-0.07364921
20	0x3e2bfa0a	0.16794601
21	0xbe4a6ef0	-0.19768882
22	0x3d3ed59a	0.046590425
23	0xbe6081f6	-0.21924576
24	0xb91237ea	-0.00013944475
25	0x3e37cdf7	0.17949663
26	0x3d2c0d8a	0.0420051
27	0x3dbf0ef9	0.09329028
28	0x3ba2db6b	0.0049700043
29	0x3e14c3b3	0.14527778
30	0xbd95d3b9	-0.073157735
31	0x3e10205d	0.14074846
32	0x3c9c09ca	0.019047637
33	0x3ca41f02	0.020034317
34	0xbde5560b	-0.11198052
35	0xbe096ac9	-0.13419642
36	0x3d81b5cd	0.06333504
37	0xbe0f659f	-0.14003609
38	0x3d96ada9	0.07357342
39	0xbe14e6f6	-0.1454123
40	0xbd16ffbc	-0.03686498
41	0xbcd12e6c	-0.025534831
42	0x3e29a884	0.1656819
43	0xbcf5ee68	-0.030020908
44	0x3de99646	0.114056155
45	0x3e200684	0.15627486
46	0x3dd5aeea	0.10433753
47	0x3dc5f407	0.09665685
48	0xbbd362f4	-0.006451005
49	0x3dfed7c2	0.12443496
50	0xbe2209d2	-0.15824059
51	0x3dde5a91	0.10857118
52	0x3af4bd68	0.001867217
53	0xbd7f600d	-0.06234746
54	0x3d46e738	0.04856035
55	0x3d1b16cc	0.037863538
56	0x3e3477bd	0.17623802
57	0x3d2ae8aa	0.041725792
58	0xbd3efb45	-0.046626348
59	0xbc27fc23	-0.010252985
60	0x3d4ee024	0.050506726
61	0xbda0a257	-0.07843464
62	0x3e14943e	0.14509675
63	0x3e08df18	0.13366354

head.norm.running_var f4 [64]
0	0x39de594c	0.0004240967
1	0x3b8d2afe	0.0043081036
2	0x3b99c36a	0.0046924846
3	0x39ae6f95	0.00033271
4	0x39950d53	0.00028429422
5	0x3a081581	0.00051911926
6	0x3a87a3dc	0.0010348517
7	0x3ac7cc23	0.0015243333
8	0x3b1489be	0.0022665109
9	0x39aee78c	0.00033360382
10	0x3950f987	0.00019929382
11	0x3b2c1e16	0.002626305
12	0x3aa95023	0.0012917559
13	0x3b10b7a5	0.0022082117
14	0x3a0d68cc	0.0005394339
15	0x3aa58f9d	0.0012631301
16	0x3a0353c4	0.00050097355
17	0x3ab5a0df	0.0013857147
18	0x3a9eae03	0.0012106303
19	0x3af65be3	0.0018795695
20	0x3aa23ad7	0.0012377155
21	0x3b233924	0.0024905885
22	0x3a18e88a	0.0005832991
23	0x3be4aec9	0.006978844
24	0x399d0e63	0.00029956092
25	0x3a5ff7b3	0.0008543685
26	0x3a71c425	0.0009222648
27	0x3a3bd957	0.000716587
28	0x3a5d7a21	0.00084486796
29	0x3c0f3623	0.008740935
30	0x39a9ad9b	0.00032363538
31	0x38af1c4e	8.3499224e-05
32	0x39f27cdf	0.00046250873
33	0x3a906534	0.0011016489
34	0x3c11ae53	0.00889166
35	0x3b0ac930	0.0021177046
36	0x3a00cf85	0.00049137353
37	0x3a363a20	0.00069514103
38	0x39f3785d	0.0004643825
39	0x3a071d03	0.00051541644
40	0x39ed56a5	0.00045268718
41	0x3a95e77c	0.0011436786
42	0x3a966aee	0.0011475959
43	0x3991b954	0.00027794635
44	0x3b2c82d9	0.0026323108
45	0x3b8b119e	0.0042440435
46	0x3b775c56	0.0037744245
47	0x3b5b1fb3	0.0033435642
48	0x3abb470c	0.0014288141
49	0x3aa3a9db	0.0012486534
50	0x3a11f7ad	0.00055682176
51	0x39d08693	0.00039773117
52	0x3a31651a	0.00067670795
53	0x3ab6c891	0.0013945271
54	0x39b8c62f	0.00035242873
55	0x3adcea39	0.0016854472
56	0x3a6ba5d4	0.0008989249
57	0x3bef6a65	0.0073063844
58	0x3a6e6eb1	0.0009095474
59	0x3ac4cd9c	0.001501489
60	0x3b80783c	0.003920583
61	0x3a68bc90	0.00088781957
62	0x3ba8fcd9	0.005157095
63	0x3adbc139	0.0016765959

body.block1.conv.weight f4 [64, 64, 3, 3]
0	0xbd634f72	-0.055495687
1	0x3cc4ef64	0.024039932
2	0xbd5432f1	-0.051806394
3	0x3cd6e91f	0.026234208
4	0xbc6d7e37	-0.014495424
5	0x3bbbc296	0.0057299836
6	0x3cf6c10e	0.030121353
7	0x3a03b21c	0.0005023794
8	0xbd0a98bc	-0.033837065
9	0x3d0c93a3	0.034320485
10	0x3ce79789	0.0282705
11	0xbaac6628	-0.0013153004
12	0xbbafce35	-0.005365158
13	0xbc9074a4	-0.017633744
14	0xbca22fc1	-0.019798161
15	0xbd1931bb	-0.037400942
16	0x3c073e30	0.008254573
17	0x3c4fa74f	0.012674167
18	0xbbd257a8	-0.006419141
19	0xbbd7985a	-0.006579441
20	0xbcb3e941	-0.02196181
21	0xbbdadbfe	-0.006679057
22	0x3d09454c	0.033513352
23	0x3b8b709e	0.0042553684
24	0x3d0e373f	0.034720656
25	0x3d0f29fa	0.03495214
26	0x3c96b0b3	0.018394804
27	0x3c271624	0.01019815
28	0xbb173799	-0.002307391
29	0x3d122958	0.03568396
30	0xbca89974	-0.020580985
31	0xba50c5e9	-0.0007964061
32	0x3c1aafd0	0.009441331
33	0x3d0dd845	0.03463008
34	0xbb2fc7d4	-0.0026821988
35	0xbc9c6117	-0.019089265
36	0xbb0a349c	-0.0021088487
37	0x3c262e14	0.010142822
38	0x3d49d8e2	0.0492791
39	0x3b131607	0.002244355
40	0xba298bd8	-0.0006467677
41	0x3c75e5cc	0.015008401
42	0xbaebd9a4	-0.0017993939
43	0x3c389611	0.011266247
44	0xbd57bc3b	-0.052669745
45	0xbc83fe4f	-0.016112475
46	0x3ca29b65	0.019849489
47	0xbb6af61d	-0.0035852261
48	0xba5db02e	-0.0008456734
49	0xbc89c87f	-0.016819237
50	0xbcc503db	-0.02404969
51	0xbc7fb649	-0.015607425
52	0xbc5f5250	-0.013630465
53	0xbbb3b2ee	-0.0054839766
54	0x3d2fcb84	0.042918697
55	0x3d1dc0da	0.038513996
56	0x3be5243f	0.0069928463
57	0x3ca5cf9a	0.020240594
58	0xbb3df20a	-0.0028983378
59	0xbc2121c4	-0.0098347105
60	0xbd633a23	-0.055475365
61	0xbcf17d24	-0.029478617
62	0xbd6564a3	-0.056004178
63	0x3cf8bcc5	0.03036345
64	0xbcbd46b8	-0.02310501
65	0xbd3a64ca	-0.045506276
66	0xbbda4135	-0.0066606053
67	0x3bacf9a9	0.0052787852
68	0x3cb4baa2	0.02206165
69	0x3d25f6d2	0.04051859
70	0x3c2a84c2	0.0104076285
71	0x3d27beb1	0.040953342
72	0x3db95fc3	0.09051468
73	0x3d588bfd	0.05286788
74	0xbcb9c7c9	-0.022678273
75	0x3d252719	0.04032049
76	0x3be5a9f4	0.0070087854
77	0x3cd6fdad	0.026244009
78	0xbc310808	-0.010805137
79	0x3cdd28c3	0.026996976
80	0xb7a3cc3f	-1.9526224e-05
81	0x3d3634d3	0.04448397
82	0x3cc40a33	0.023930645
83	0x3ca41273	0.020028329
84	0xbc52168a	-0.012822757
85	0x3cd10a87	0.025517715
86	0x3c466ee2	0.012111397
87	0x3c888632	0.016665552
88	0x3c8eefef	0.017448394
89	0xbcc46807	-0.023975385
90	0x3cfeb846	0.031093728
91	0x3a813c58	0.0009859903
92	0x3d049fa6	0.032378815
93	0xba98fe7e	-0.0011672524
94	0xbc06bd7e	-0.008223889
95	0x3cd3c3b4	0.025850154
96	0x3c196ee4	0.009364817
97	0x3b9b460c	0.004738575
98	0x3c8742c5	0.01651133
99	0x3c9dc5fd	0.019259447
100	0x3c426592	0.011865037
101	0xb8dec11e	-0.00010621756
102	0x3c78225f	0.015144913
103	0xbca12553	-0.019671118
104	0x3c3f2467	0.011666394
105	0x3c9728ba	0.018452037
106	0xbc1c60bf	-0.00954455
107	0xbcfd7360	-0.030938804
108	0xbc312460	-0.010811895
109	0xbbf8e85c	-0.007596059
110	0x3c8bc2c3	0.017060643
111	0xbc5a8ce7	-0.013339258
112	0x3b8a133c	0.0042137187
113	0x3c52a947	0.012857742
114	0x3cb920c8	0.02259864
115	0xbc90f83d	-0.017696494
116	0xbd374000	-0.04473877
117	0xbcd21bad	-0.025647962
118	0xbd22dc02	-0.039760597
119	0xbd149952	-0.03627903
120	0xbcde08c1	-0.027103784
121	0xbc9eb321	-0.019372525
122	0xbb9f9e33	-0.0048711537
123	0xbd2f1e02	-0.042753227
124	0x3d798dc6	0.06092622
125	0xbc335440	-0.01094538
126	0xbce04b29	-0.02737959
127	0x3cbe7f6d	0.02325412
128	0xbd55f196	-0.052232347
129	0x3b195a97	0.0023399943
130	0xbb6af706	-0.0035852804
131	0xbc5ca551	-0.013467149
132	0x3b818981	0.0039531593
133	0xbbeead6a	-0.007283856
134	0xbcfb3e1d	-0.030669266
135	0xbbb0d29e	-0.0053962013
136	0xbc3ef4ba	-0.011655027
137	0xbc543a42	-0.012953343
138	0xbc543f66	-0.0129545685
139	0x3b54fb93	0.0032498583
140	0x3ca394e4	0.019968458
141	0xbc780ddf	-0.015140026
142	0xbce58f29	-0.028022366
143	0xbd2fde5e	-0.042936675
144	0x3c8b3ff2	0.016998265
145	0xbce617c1	-0.028087499
146	0xbd483336	-0.048876964
147	0xbc1ba230	-0.009499118
148	0xbd23166a	-0.039816298
149	0xbd591716	-0.053000532
150	0x3b2e9748	0.0026640464
151	0x3d2cfd7b	0.042233925
152	0x3cdc2d2b	0.026877007
153	0xbc15f3cc	-0.009152364
154	0x3c2efc2c	0.01068024
155	0xbcd6152e	-0.026133146
156	0x3cd72165	0.026261041
157	0x3cc575d8	0.024104044
158	0x3cd32632	0.025775049
159	0x3a0babbe	0.0005328021
160	0x3c8f53a2	0.017495934
161	0xbc91fe52	-0.017821465
162	0x3b5b2803	0.0033440597
163	0x3c84c660	0.016207874
164	0x3c74bced	0.014937622
165	0xbb960c23	-0.0045790835
166	0xbc971b54	-0.018445648
167	0xbd4776ec	-0.048697397
168	0x3c8c3215	0.017113725
169	0xbd1be3b4	-0.03805895
170	0x3c23f584	0.010007266
171	0xbcbef9d5	-0.023312489
172	0x3bcf381b	0.006323827
173	0xbc3b10c2	-0.01141757
174	0xbbd36170	-0.0064508244
175	0x3cdc112d	0.026863659
176	0xbcb8c6b8	-0.022555694
177	0x3b294247	0.0025826858
178	0xbb3c96bc	-0.0028776368
179	0x3c11a454	0.0088892765
180	0x3ce20870	0.027591914
181	0x3b861229	0.0040915203
182	0xbd29e661	-0.041479472
183	0xbd85954b	-0.06522616
184	0x3c258ef9	0.010104888
185	0xbba5eebe	-0.0050638607
186	0x3c95628d	0.01823547
187	0xbd2b7caf	-0.041866954
188	0xbc8fd66d	-0.0175583
189	0x3c8772c6	0.01653422
190	0x3d16107d	0.03663682
191	0xbcf1ea51	-0.029530676
192	0xbb633bf3	-0.0034673184
193	0x3cee3756	0.02907912
194	0xbc8fa049	-0.017532485
195	0x3cd93b96	0.02651767
196	0x3b496c6c	0.003073479
197	0x3b48f9bc	0.0030666431
198	0xbc9ac061	-0.018890562
199	0xbcc0c08b	-0.023529312
200	0xbc76a929	-0.015054979
201	0xbd8be3d6	-0.06830566
202	0xba593a03	-0.00082865375
203	0xbc507aff	-0.012724637
204	0x3cdef929	0.027218418
205	0xbcfdead7	-0.03099577
206	0xbd363343	-0.04448248
207	0xbc9f118d	-0.019417549
208	0xbca59bbf	-0.020215867
209	0xbc799fa6	-0.015235817
210	0x3cb95574	0.022623755
211	0xbd1e140c	-0.038593337
212	0xbd08ccfa	-0.033398606
213	0x3c81bb51	0.01583639
214	0xbc9d0129	-0.019165592
215	0xbbd40b82	-0.0064710984
216	0xbd991a88	-0.074757636
217	0xbc4874ea	-0.012234906
218	0x3cfc686b	0.03081151
219	0xbcec7d78	-0.028868422
220	0x3c3b9165	0.011448239
221	0x3a729958	0.00092544174
222	0xbd11ed36	-0.035626613
223	0xbd1b9f27	-0.037993576
224	0xbc93ef4a	-0.018058438
225	0x3cdb53c4	0.026773341
226	0xbc8a4723	-0.016879624
227	0xbcec0f07	-0.02881576
228	0xbb195031	-0.0023393745
229	0x3cb82f80	0.022483587
230	0xbcd99569	-0.026560502
231	0xbc7455b0	-0.014913008
232	0x3b4648ee	0.0030255872
233	0xbcb5128a	-0.022103567
234	0x3cbf9ae0	0.02338928
235	0x3ce877d6	0.028377455
236	0x3c6a3106	0.014293915
237	0xbb7ce8ed	-0.0038590983
238	0x3bc4da83	0.006007494
239	0x3cc75970	0.02433464
240	0x3cd784f7	0.02630852
241	0x3d24cda7	0.040235188
242	0x3d410eea	0.047133364
243	0xbb14ca7a	-0.0022703693
244	0x3c4a04c9	0.012330242
245	0xbba89a7d	-0.0051453696
246	0xbcd6084a	-0.026127
247	0x3d1bf99a	0.038079835
248	0x3d03b00b	0.03215031
249	0xbca9d25a	-0.020730186
250	0x3b35610a	0.0027676248
251	0xbbeab329	-0.007162471
252	0x3c963b7c	0.018338911
253	0x3aa06021	0.001223568
254	0xba75e667	-0.0009380341
255	0x3d0fb5ab	0.03508536

body.block1.conv.bias f4 [64]
0	0xbbcebdbf	-0.0063092406
1	0x3c86b304	0.016442783
2	0xbca65986	-0.02030636
3	0xbcfcca65	-0.030858228
4	0x3d06bcba	0.032894827
5	0xbc3c45db	-0.011491264
6	0xbd23b531	-0.03996772
7	0x3c0a5072	0.008442031
8	0xbc85f0d3	-0.016350185
9	0xb9daa863	-0.00041705658
10	0x3c4e407c	0.012588616
11	0x3c01c6b6	0.007920912
12	0x3d269a3a	0.040674426
13	0x3ce373ef	0.027765242
14	0x3d00f342	0.03148199
15	0x3c31c1a0	0.010849386
16	0xbcfbf68e	-0.030757215
17	0x3c9a2318	0.018815562
18	0x3cbbab02	0.022908691
19	0xbc8be171	-0.017075272
20	0xbb8f85cc	-0.0043799635
21	0x3d07d005	0.033157367
22	0x3cb9ed9f	0.022696314
23	0xbccf7f1a	-0.025329161
24	0xbc1ff6e8	-0.009763457
25	0xbc6f93e3	-0.014622661
26	0x3c980741	0.018558146
27	0xbd0cd6f5	-0.034384686
28	0xbd0dfb0b	-0.03466324
29	0xbce788ff	-0.028263567
30	0x3af7c947	0.001890459
31	0xbbe22de8	-0.006902445
32	0xbbb1f040	-0.0054302514
33	0x3cdf2366	0.027238559
34	0x3d2c4203	0.04205514
35	0x3bf57d96	0.0074917777
36	0x3cc92b56	0.024556797
37	0xbc9a37a7	-0.018825365
38	0xbc782b73	-0.015147078
39	0xbb8bcfd9	-0.0042667207
40	0x3c88cdfa	0.01669978
41	0xbc95202d	-0.01820382
42	0x3cb79e5c	0.022414379
43	0x3bd6e516	0.006558071
44	0x3bfb1fec	0.0076637175
45	0x3cf95230	0.030434698
46	0x3cdc4c06	0.02689172
47	0x3d234540	0.039860964
48	0xbbfcde30	-0.0077169165
49	0x3c738134	0.014862347
50	0x3c410714	0.011781473
51	0xbcdd10a6	-0.026985478
52	0xbaba321b	-0.0014205606
53	0x3c83c537	0.01608525
54	0xbc841ce3	-0.016127056
55	0xbd1e6805	-0.03867342
56	0xbcdc3b57	-0.026883764
57	0x3bd6c5f6	0.0065543605
58	0x3d14ddb6	0.036344253
59	0x3cf70d97	0.030157847
60	0x3c27862e	0.010224862
61	0xbcc1a91d	-0.02364021
62	0xbbcb627b	-0.006206808
63	0x3ca502b8	0.020142898

body.block1.norm.weight f4 [64]
0	0x3f8034bc	1.0016093
1	0x3f869281	1.051346
2	0x3f7e3daa	0.9931284
3	0x3f80ae7b	1.0053247
4	0x3f86f67a	1.0543969
5	0x3f79d45a	0.9758965
6	0x3f84cabc	1.037437
7	0x3f834702	1.0256045
8	0x3f7d60c9	0.9897581
9	0x3f823fa9	1.0175678
10	0x3f80938a	1.0045025
11	0x3f813227	1.009343
12	0x3f78a27e	0.97122943
13	0x3f82b47c	1.021133
14	0x3f80e92a	1.0071156
15	0x3f80ee4f	1.0072726
16	0x3f77db37	0.9681887
17	0x3f8328e7	1.0246857
18	0x3f7e9c52	0.99457276
19	0x3f7676ed	0.96275216
20	0x3f7ad1ce	0.97976387
21	0x3f805632	1.0026305
22	0x3f786c9c	0.97040725
23	0x3f81ca17	1.0139798
24	0x3f7be65c	0.98398376
25	0x3f7989a0	0.97475624
26	0x3f82dcfc	1.0223689
27	0x3f7cf01e	0.9880389
28	0x3f7f36d0	0.9969301
29	0x3f7fb355	0.99883014
30	0x3f8068e4	1.003201
31	0x3f7a36e1	0.9773999
32	0x3f776971	0.96645266
33	0x3f82f0dc	1.0229754
34	0x3f7e78de	0.9940318
35	0x3f7ec007	0.9951176
36	0x3f83e1e4	1.0303311
37	0x3f7dac08	0.99090624
38	0x3f7b5001	0.9816895
39	0x3f875944	1.0574117
40	0x3f78299c	0.9693849
41	0x3f81fc59	1.0155135
42	0x3f830e87	1.0238808
43	0x3f8610f4	1.0473924
44	0x3f80ebb5	1.0071932
45	0x3f7d3022	0.9890157
46	0x3f80f6ed	1.0075356
47	0x3f6f19fc	0.93399024
48	0x3f842e8b	1.0326704
49	0x3f83d37f	1.0298918
50	0x3f86c632	1.0529234
51	0x3f7da57d	0.9908064
52	0x3f773b10	0.965745
53	0x3f826f9c	1.019031
54	0x3f73027d	0.9492567
55	0x3f7ff227	0.9997887
56	0x3f80a5ec	1.0050635
57	0x3f84ef4b	1.0385526
58	0x3f7ae943	0.9801218
59	0x3f7f29d0	0.99673176
60	0x3f769836	0.96326005
61	0x3f809b4e	1.0047395
62	0x3f78a13a	0.9712101
63	0x3f771c8e	0.96527946

body.block1.norm.bias f4 [64]
0	0xbd8239ab	-0.063586555
1	0xbc37ef10	-0.011226431
2	0xbda051e6	-0.07828121
3	0xbd12d86c	-0.035850927
4	0xbd14d749	-0.036338124
5	0xbd0fee54	-0.035139397
6	0xbd75f347	-0.06004646
7	0xbd0adc3d	-0.03390144
8	0xbcd40659	-0.025881933
9	0xbd2628f8	-0.040566415
10	0xbdc65df7	-0.09685891
11	0xbd7aa9be	-0.061197035
12	0xbd4f442b	-0.05060212
13	0xbbe7068c	-0.007050341
14	0xbdaa21a1	-0.083071955
15	0xbd84ec1b	-0.06490346
16	0xbd55e9e9	-0.052225027
17	0xbd7642f2	-0.060122438
18	0xbd9d0397	-0.076667
19	0xbda17e73	-0.078854464
20	0xbd95f686	-0.07322411
21	0xbd8929f6	-0.066974565
22	0xbde2e381	-0.11078549
23	0xbdac0428	-0.0839923
24	0xbda99e99	-0.08282203
25	0xbd824612	-0.06361021
26	0xbd667b50	-0.056269944
27	0xbd6ae19d	-0.057344068
28	0xbd2a35c7	-0.041555192
29	0xbd9ebe2a	-0.07751115
30	0xbda2f42c	-0.07956728
31	0xbd94e0eb	-0.07269462
32	0xbd14d042	-0.036331423
33	0xbd13adac	-0.0360543
34	0xbd9a094f	-0.07521307
35	0xbd349e07	-0.04409602
36	0xbd29a328	-0.041415364
37	0xbcd56f6d	-0.026054109
38	0xbd3b9f91	-0.04580647
39	0xbd4b8c67	-0.049694445
40	0xbd06545d	-0.0327953
41	0xbd431277	-0.04762503
42	0xbda27d33	-0.07934036
43	0xbcf768c5	-0.030201325
44	0xbd854823	-0.065078996
45	0xbdc5ae8f	-0.09652435
46	0xbd8091c2	-0.06277801
47	0xbdbb6a40	-0.09151125
48	0xbd312a06	-0.043252967
49	0xbd895526	-0.06705694
50	0xbc44ffb5	-0.012023856
51	0xbc43cdac	-0.011950891
52	0xbd6b3f0a	-0.057433166
53	0xbd66dfba	-0.056365706
54	0xbd501d2a	-0.050809063
55	0xbd6a9af5	-0.057276685
56	0xbd830f04	-0.063993484
57	0xbd4c1f28	-0.0498344
58	0xbd579481	-0.05263186
59	0xbab7e40b	-0.0014029754
60	0xbdbc30f6	-0.09189026
61	0xbd763368	-0.06010762
62	0xbbb45376	-0.0055031134
63	0xbd52bd5e	-0.051450126

body.block1.norm.running_mean f4 [64]
0	0x3d9d781c	0.07688925
1	0xbf4d2063	-0.80127543
2	0x3e37a624	0.17934471
3	0xbe1a54b4	-0.15071374
4	0xbee89529	-0.454263
5	0xbe8c7e01	-0.27439883
6	0xbef01b18	-0.4689567
7	0x3d0b0cbc	0.03394769
8	0xbbba98fa	-0.0056945058
9	0xbf0c6c1a	-0.5485245
10	0x3e4eabcf	0.20182727
11	0xbe28e3dd	-0.16493173
12	0x3f1f258b	0.6216666
13	0xbf4851d9	-0.7824989
14	0xbee437a4	-0.445737
15	0xbc827ac2	-0.015927676
16	0x3e90167e	0.2814216
17	0x3c74e999	0.014948272
18	0x3f195926	0.59901655
19	0xbf0dd586	-0.55403936
20	0x3f2d33b3	0.6765701
21	0xbe95e71a	-0.2927788
22	0xbdfa47ce	-0.12220727
23	0x3f13cae8	0.57731485
24	0x3e89c1e0	0.26905727
25	0xbe9f1106	-0.31067675
26	0x3c97f773	0.01855061
27	0x3ce3153c	0.027720086
28	0x3e5b7d0c	0.2143442
29	0x3d96c370	0.073614955
30	0x3f0370da	0.5134407
31	0x3dfb11ac	0.1225923
32	0x3da48c9a	0.0803463
33	0xbede58ae	-0.43427032
34	0x3f7d7457	0.99005646
35	0xbebf7fe8	-0.37402272
36	0xbebc92f8	-0.36830878
37	0xbf3aa03f	-0.72900766
38	0xbe915779	-0.2838705
39	0xbf171024	-0.59009004
40	0x3f2c08d8	0.67200994
41	0xbe7d7feb	-0.24755828
42	0x3e79a6ba	0.24380007
43	0x3e09f72b	0.13473193
44	0x3edf9263	0.43666372
45	0x3ecf4618	0.40483165
46	0xbef80f7b	-0.4844931
47	0xbc5dbec1	-0.013534249
48	0xbcfa7c79	-0.030576931
49	0xbe6b6ccc	-0.22990721
50	0xbe0d6daa	-0.13811365
51	0xbec7e598	-0.39042354
52	0xbe72e452	-0.2371991
53	0xbd6de469	-0.058079157
54	0xbe98d5fa	-0.2985075
55	0x3da64afa	0.081197694
56	0xbd90c2e5	-0.07068423
57	0xba85b179	-0.0010199986
58	0xbc18fbde	-0.009337394
59	0xbe89ea94	-0.2693678
60	0x3e8df5d7	0.27726623
61	0xbd4e05c2	-0.05029846
62	0x3f1dac2b	0.6159083
63	0x3ec3c912	0.38239342

body.block1.norm.running_var f4 [64]
0	0x3e2af4b9	0.16694917
1	0x3e1fcb4a	0.15604892
2	0x3ea830e2	0.32849795
3	0x3e33e75d	0.17568727
4	0x3e593c40	0.2121439
5	0x3f2234db	0.633619
6	0x3e93048b	0.28714404
7	0x3e2ecd2b	0.17070453
8	0x3e929f22	0.28637034
9	0x3e310987	0.1728879
10	0x3de8432b	0.11340936
11	0x3dc99080	0.09842014
12	0x3ef4f050	0.47839594
13	0x3ed7093a	0.41999227
14	0x3e56ee6c	0.20989388
15	0x3f08e39c	0.53472304
16	0x3e7be2a8	0.24598181
17	0x3eb39e5b	0.35081753
18	0x3e5976e2	0.21236756
19	0x3f10b865	0.56531364
20	0x3eb43b02	0.3520127
21	0x3e455e84	0.19274336
22	0x3ee21a82	0.4416085
23	0x3e1f78fa	0.15573493
24	0x3e2f31fa	0.17108908
25	0x3e8add21	0.27121833
26	0x3e53eed2	0.20696571
27	0x3e288858	0.16458261
28	0x3eb95888	0.36200356
29	0x3e36696a	0.1781365
30	0x3ddea8b9	0.10872025
31	0x3de3714f	0.11105596
32	0x3f072234	0.52786565
33	0x3e804a84	0.2505685
34	0x3ed75bd5	0.4206225
35	0x3e3df66d	0.18551035
36	0x3e8587c6	0.2608015
37	0x3e32f504	0.17476279
38	0x3e0453c2	0.12922576
39	0x3e1e9a30	0.15488505
40	0x3eaf2f88	0.3421595
41	0x3e498a49	0.19681658
42	0x3e47f973	0.19528751
43	0x3d9a9412	0.075477734
44	0x3e5ffc1a	0.21873513
45	0x3e4835a9	0.1955172
46	0x3e047c98	0.12938154
47	0x3e8194f8	0.25308967
48	0x3e0979f5	0.13425429
49	0x3e311e5a	0.17296734
50	0x3dd59d2c	0.10430369
51	0x3e207d1a	0.15672722
52	0x3e180f7d	0.14849658
53	0x3e38366e	0.17989513
54	0x3e5d91c0	0.2163763
55	0x3e0dedd3	0.13860254
56	0x3e859e47	0.2609732
57	0x3e9dd84a	0.30829078
58	0x3eceef09	0.40416744
59	0x3e0d8010	0.13818383
60	0x3e317628	0.1733023
61	0x3e5c29b3	0.21500282
62	0x3e493002	0.1964722
63	0x3e3723ac	0.17884701

body.block2.conv.weight f4 [64, 64, 3, 3]
0	0x3c4361e4	0.011925194
1	0xbbea63e0	-0.0071530193
2	0xbc89f8be	-0.016842242
3	0xbc3ff4b7	-0.011716059
4	0x3c558f2e	0.013034625
5	0xbc04521a	-0.008076215
6	0xbcc6f43c	-0.024286382
7	0xbcf77d39	-0.030211078
8	0xbd2bf8b6	-0.041985236
9	0x3ca522b1	0.020158144
10	0x3b91b4b5	0.004446591
11	0xbcb1d7a8	-0.021709278
12	0x3bd9bf83	0.0066451444
13	0xba49625d	-0.0007682199
14	0x3d089841	0.033348326
15	0xbd0a26e8	-0.03372851
16	0xbd524d88	-0.05134347
17	0xbc669584	-0.014073733
18	0xba013728	-0.00049291784
19	0x3cce764c	0.025202893
20	0x3d00ebc9	0.031474862
21	0x39349e4d	0.0001722511
22	0x3c2b96be	0.010472951
23	0x3bb9df0e	0.005672342
24	0xbb7e9ef9	-0.003885208
25	0x3d132e43	0.03593279
26	0x3ca6ef2d	0.02037772
27	0xbc168e39	-0.009189182
28	0xbbd5bab6	-0.006522502
29	0x3c5859d2	0.013205009
30	0xbce723e8	-0.028215364
31	0x3b64542c	0.003484021
32	0xbc26418a	-0.010147462
33	0xbb85713e	-0.0040723374
34	0xbc4e49fd	-0.012590882
35	0xbce308fb	-0.027714243
36	0x3cb0ea19	0.021596001
37	0x3c821885	0.015880832
38	0x3d134b22	0.035960324
39	0x3c25ff7e	0.010131715
40	0x3b8a7ac3	0.00422606
41	0xbc9c6975	-0.019093255
42	0x3bbbf665	0.0057361596
43	0x3bc45a20	0.005992189
44	0x3c4e815e	0.012604086
45	0x3ca24a9b	0.019810965
46	0xbba228ed	-0.0049487264
47	0xbca37b24	-0.019956179
48	0x3d4052c9	0.04695395
49	0x3d3337d9	0.043754432
50	0xbc8ec746	-0.017429005
51	0x3c7061ba	0.014671737
52	0xbb39f51a	-0.0028374852
53	0xbc7c5832	-0.015401887
54	0xbc6d0ef8	-0.014468901
55	0x3ccf579a	0.025310326
56	0x3d0d6198	0.0345169
57	0x3ae21720	0.0017249323
58	0xbc33f63e	-0.010984002
59	0x3a045a5f	0.0005048867
60	0xbcf0de51	-0.029402884
61	0xb95eb231	-0.00021237951
62	0xbc787685	-0.015164976
63	0xbd7d44dd	-0.06183325
64	0xbcdecec9	-0.027198212
65	0xbcc6a3e2	-0.024248067
66	0xbc33c4d1	-0.010972218
67	0x3bde8eb7	0.0067919153
68	0x3aead670	0.001791669
69	0xbca0cda0	-0.0196293
70	0xbdbc1f22	-0.091856256
71	0xbd35bba4	-0.0443684
72	0xbbaab798	-0.0052098744
73	0xbd7eb27d	-0.06218194
74	0x3c0d9ec1	0.008643807
75	0xbcfeb095	-0.03109006
76	0x3c450de0	0.012027234
77	0x39ca5fdd	0.00038599866
78	0xbc0bb834	-0.008527804
79	0x3c59d686	0.013295775
80	0xbc27974b	-0.010228942
81	0x3d274b64	0.040843382
82	0x3c47b716	0.012189647
83	0x3c8ea8e0	0.01741451
84	0x3c5f8002	0.013641359
85	0x3c37af6f	0.01121126
86	0x3a7f3053	0.0009734679
87	0x3c2159c8	0.009848066
88	0xbd132117	-0.03592023
89	0xba83b024	-0.0010047001
90	0x3c055b9e	0.008139519
91	0x3d0b7512	0.034047194
92	0x3b9a1ecd	0.004703379
93	0xbb254599	-0.0025218485
94	0xbc8ab0d5	-0.016930023
95	0xbd807f4b	-0.06274279
96	0xbaf0b488	-0.0018364349
97	0x3c3cee75	0.011531462
98	0x3cc1e9eb	0.023671111
99	0xbbe4d9f4	-0.00698399
100	0xbcee1aa3	-0.029065436
101	0xbc3acdd6	-0.011401614
102	0x3c6a8410	0.014313713
103	0x3c24e630	0.010064647
104	0x3bc1bed1	0.0059126397
105	0xbd11869b	-0.03552876
106	0xbc4107a7	-0.01178161
107	0xbc8dca34	-0.017308332
108	0x3cb1f0fc	0.021721356
109	0xbc9cdbb3	-0.01914773
110	0xbc0975d4	-0.008389909
111	0xbb7678ea	-0.0037608691
112	0xbc5ee7b2	-0.013605045
113	0xbd0b5fa8	-0.03402677
114	0x3bbd18b4	0.005770767
115	0x3c0b33c6	0.0084962305
116	0x3caf0ad2	0.021367464
117	0xbb3d118d	-0.0028849572
118	0xbc814edf	-0.015784679
119	0xbccc3e6a	-0.024932105
120	0xbbcec7eb	-0.006310453
121	0xbc9fc950	-0.019505173
122	0xbcb2dec5	-0.02183474
123	0x3c8e4961	0.017368974
124	0x3c2925a5	0.010323917
125	0xbca9032b	-0.020631393
126	0x3c99365f	0.018702684
127	0xbbffdb02	-0.00780809
128	0xbc2f569f	-0.010701804
129	0xbc9b6742	-0.018970136
130	0xbd65cd29	-0.05610386
131	0x3b899f81	0.0041999226
132	0x3be657db	0.007029516
133	0xbd3e3b38	-0.046443194
134	0x3cbdca81	0.02316785
135	0x3cffc082	0.031219725
136	0xbc31dda7	-0.010856069
137	0xbaa2f775	-0.0012433367
138	0xbbeb1b7f	-0.0071749086
139	0xbcc958a4	-0.0245784
140	0xbbd62f30	-0.006536387
141	0x3c2a5860	0.010397047
142	0x3d2e3b84	0.042537227
143	0x3d39328d	0.045214225
144	0x3c9a8d93	0.018866336
145	0x3bbe5ef2	0.005809658
146	0x3c71cc42	0.0147581715
147	0x3d4f610d	0.050629664
148	0xbc0af881	-0.0084820995
149	0x3d081460	0.033222556
150	0x3cb8f755	0.022578875
151	0x3cde726e	0.027154174
152	0xbb209dc3	-0.0024508096
153	0xbc387a93	-0.011259693
154	0xbd497cfc	-0.04919146
155	0xba92a475	-0.0011187928
156	0x3c62f661	0.013852687
157	0xbcce3af3	-0.025174594
158	0xbba6fe8d	-0.005096263
159	0x3c064506	0.008195167
160	0xb87eae6f	-6.0720773e-05
161	0x3b684b63	0.0035445325
162	0xbc3affdc	-0.011413541
163	0xbd569701	-0.052390102
164	0xbd1e71a3	-0.03868259
165	0xbce1e51b	-0.027575066
166	0x3bd37905	0.0064536356
167	0x3ca9a6c8	0.02070941
168	0xbbe49cc5	-0.006976696
169	0xbd40a9c0	-0.047036886
170	0xbba7774a	-0.005110656
171	0x3b92ee62	0.004483984
172	0x3cabcd24	0.020971842
173	0x3cf9e576	0.030504923
174	0xbb835cd9	-0.004008871
175	0x3ca4776f	0.020076482
176	0x3ce30157	0.0277106
177	0xbc176b44	-0.009241883
178	0xbc2dc527	-0.010606087
179	0xbc17ffe7	-0.0092773205
180	0xbc1ceb15	-0.009577532
181	0xbcef4e36	-0.029212099
182	0xbd46d3db	-0.048541885
183	0xbc78c2c4	-0.0151831545
184	0xbc4c81c5	-0.012482111
185	0xbc8b7e12	-0.017027888
186	0x3c0613a8	0.008183397
187	0x3c75bf1c	0.014999177
188	0xbc8a8b1d	-0.016912038
189	0x3c85bec0	0.016326308
190	0xbba645f0	-0.005074255
191	0x3c98e786	0.018665086
192	0xbcd637ce	-0.026149657
193	0x3c8324fb	0.016008845
194	0x3c38d33a	0.011280829
195	0xbbe19ae0	-0.0068849176
196	0x3bfbd2e4	0.007685052
197	0x3ca21c73	0.019788956
198	0xbc6c4cd2	-0.014422612
199	0x3c2e9bea	0.01065729
200	0xba3e5e7f	-0.0007262006
201	0x3c11fedd	0.008910862
202	0xbd232e5c	-0.039839134
203	0x3a356f18	0.00069211563
204	0xbd62fb3f	-0.05541539
205	0x3cbdfae5	0.023190925
206	0x3b4a256d	0.0030845061
207	0xbb977f5b	-0.0046233363
208	0xbcdf6095	-0.027267734
209	0x3c1ff9bb	0.00976413
210	0xbb1420c8	-0.0022602547
211	0x3c633e44	0.013869826
212	0xbb981049	-0.004640613
213	0x3bc1eb4e	0.005917943
214	0xbd03d4ec	-0.03218548
215	0x3c8a1f17	0.016860528
216	0xbc1f91b1	-0.009739325
217	0xbb5e41e9	-0.0033913797
218	0x3c9e145f	0.019296823
219	0x3a0edbc2	0.00054496166
220	0x3c189aa1	0.00931421
221	0xbab4cb07	-0.0013793417
222	0x3b98c5ea	0.004662265
223	0xbb63267e	-0.0034660394
224	0xbced77fd	-0.028987879
225	0xbc85429e	-0.016267117
226	0xbd085e11	-0.033292834
227	0xbba16141	-0.0049249236
228	0xbc23b907	-0.009992844
229	0xbc8ac0b9	-0.0169376
230	0xbc0ebc87	-0.008711941
231	0x3d2b8d24	0.04188265
232	0xbc972d9f	-0.018454371
233	0x3bf691a4	0.007524686
234	0x3bc3e576	0.0059782816
235	0xbcb8d98b	-0.02256467
236	0x3cf8f187	0.030388607
237	0xbd1b7bc6	-0.037959836
238	0xbbbfefe3	-0.005857454
239	0xbc7e745e	-0.015530674
240	0xbda57b6a	-0.0808018
241	0x3b5d4b3a	0.0033766762
242	0xbccb8402	-0.02484322
243	0xbce852f3	-0.028359866
244	0xbb8eea08	-0.004361395
245	0xbbf030a2	-0.0073300162
246	0xbc89c771	-0.016818734
247	0x3ca3dbb0	0.020002216
248	0x3c879e55	0.01655499
249	0xbd07ab02	-0.03312207
250	0xbd13c3e7	-0.0360755
251	0xbd273202	-0.040819176
252	0x3c0e2e26	0.008677995
253	0x3c101060	0.008792967
254	0xbb11411a	-0.0022164048
255	0xbd39c2e4	-0.045351878

body.block2.conv.bias f4 [64]
0	0xbb9ee613	-0.0048492043
1	0xbc9617b2	-0.018321846
2	0x3cca6870	0.024708003
3	0x3c2102dc	0.009827342
4	0x3cc079e1	0.023495616
5	0xbd0cc50b	-0.034367602
6	0x3c8fbd0a	0.017546196
7	0xbd20212b	-0.03909413
8	0x3c85498a	0.016270418
9	0xbd1cff6c	-0.038329527
10	0x3d166d8f	0.036725577
11	0xbcca2ed8	-0.02468054
12	0x3a842ed9	0.0010084762
13	0x3c668ad6	0.014071187
14	0xbce6818f	-0.02813795
15	0xbcc2a2f1	-0.023759337
16	0xbb623834	-0.0034518363
17	0xbcd673f3	-0.026178336
18	0x3d27765a	0.040884353
19	0xbce7c3fe	-0.028291699
20	0x3b91f56c	0.0044543054
21	0x3d111594	0.03542097
22	0xbd175a06	-0.036951087
23	0x3c2b9aba	0.010473901
24	0x3cd0a918	0.025471255
25	0x3c76f1a6	0.015072262
26	0xbc6db999	-0.014509582
27	0x3c2abaae	0.0104204845
28	0x3d058179	0.032594178
29	0x3c029a0a	0.007971296
30	0x3c73588f	0.014852657
31	0xbc02a1fd	-0.007973191
32	0xbcafd4cd	-0.021463776
33	0xbbf0a6b5	-0.007344092
34	0xbc34a44b	-0.011025499
35	0x3cb82e88	0.022483125
36	0xbc9ced36	-0.01915608
37	0x3d0fbb4d	0.035090733
38	0x3c319552	0.010838823
39	0xbd0a7b47	-0.033808973
40	0x3d0f1706	0.034934066
41	0x3cd7bd7b	0.026335469
42	0x3cb83e76	0.022490721
43	0x3ce203c9	0.027589696
44	0x3bd5a9c8	0.0065204836
45	0x3cc6f84a	0.024288315
46	0x3c850d3d	0.016241664
47	0xbd11cd19	-0.035595987
48	0xbc056f26	-0.008144176
49	0x3c9aca11	0.01889518
50	0xbd1bad32	-0.03800697
51	0xbcbf94ef	-0.023386447
52	0xbc566587	-0.013085729
53	0xbae45e2a	-0.0017423083
54	0x3d17551a	0.036946394
55	0xbcb0bb42	-0.021573666
56	0x3c5031e1	0.012707205
57	0xbc02df13	-0.007987755
58	0xbc696b05	-0.014246707
59	0xbaec6430	-0.0018035229
60	0xbcea21b1	-0.028580518
61	0x3c627baf	0.013823434
62	0xbc8325d7	-0.016009254
63	0x3b3cf16d	0.0028830424

body.block2.norm.weight f4 [64]
0	0x3f81ad36	1.0130985
1	0x3f7bd4f4	0.98371816
2	0x3f79c492	0.9756557
3	0x3f859e1e	1.0438879
4	0x3f7d0f70	0.9885168
5	0x3f82d3b6	1.0220859
6	0x3f7a303d	0.97729856
7	0x3f84960c	1.0358291
8	0x3f7de351	0.9917498
9	0x3f7ad95d	0.9798792
10	0x3f840e14	1.0316796
11	0x3f80c228	1.0059252
12	0x3f7b855b	0.9825036
13	0x3f7fc053	0.9990284
14	0x3f81f9c4	1.0154347
15	0x3f7696d3	0.9632389
16	0x3f7d7d38	0.99019194
17	0x3f7e33a9	0.9929758
18	0x3f77e862	0.96838963
19	0x3f7ecd20	0.99531746
20	0x3f747e30	0.95505047
21	0x3f786d4c	0.97041774
22	0x3f78103e	0.96899784
23	0x3f7deeb5	0.99192363
24	0x3f846c01	1.034546
25	0x3f7df3c1	0.99200064
26	0x3f800b99	1.0003539
27	0x3f81d473	1.0142959
28	0x3f82f31b	1.023044
29	0x3f8126c6	1.0089958
30	0x3f70f28f	0.94120115
31	0x3f7ae59f	0.98006624
32	0x3f824ec7	1.0180291
33	0x3f77654d	0.9663895
34	0x3f7f3542	0.9969064
35	0x3f836c3d	1.0267407
36	0x3f81da83	1.014481
37	0x3f75b5da	0.9598061
38	0x3f7f04c3	0.9961664
39	0x3f70329b	0.9382722
40	0x3f84f94a	1.0388577
41	0x3f8299ec	1.0203223
42	0x3f8231e6	1.0171478
43	0x3f7e525f	0.9934444
44	0x3f8238a2	1.0173533
45	0x3f80eb8d	1.0071884
46	0x3f823b80	1.0174408
47	0x3f80f66f	1.0075206
48	0x3f7e36a7	0.9930214
49	0x3f82a197	1.0205563
50	0x3f8039e6	1.0017669
51	0x3f7eddc7	0.99557155
52	0x3f81a40e	1.012819
53	0x3f88d047	1.0688561
54	0x3f787045	0.9704631
55	0x3f7d9cdc	0.99067473
56	0x3f802b92	1.0013297
57	0x3f85e647	1.04609
58	0x3f80183d	1.0007397
59	0x3f8146b2	1.00997
60	0x3f85d6fc	1.0456233
61	0x3f797324	0.97441316
62	0x3f7af60b	0.9803168
63	0x3f6c644e	0.9234055

body.block2.norm.bias f4 [64]
0	0xbd383a42	-0.044977434
1	0xbcd1fef8	-0.025634274
2	0xbdbc63a3	-0.09198692
3	0xbd8441ba	-0.06457849
4	0xbd402fa1	-0.046920422
5	0xbdbae8f4	-0.091264635
6	0xbc9f9fc7	-0.019485367
7	0xbd910336	-0.070806906
8	0xbd6fda7b	-0.05855797
9	0xbd3d6493	-0.046238493
10	0x3c6e7b7c	0.014555808
11	0xbce53e99	-0.02798395
12	0xbd8be626	-0.06831007
13	0xbd8aae6d	-0.0677155
14	0xbd5fe274	-0.054659322
15	0xbd32b787	-0.043632057
16	0xbd9e2fff	-0.07723998
17	0xbd3fccf6	-0.046826325
18	0xbd64bfc1	-0.055846933
19	0xbd6a890e	-0.05725961
20	0xbcdab6e6	-0.02669854
21	0xbe0deac5	-0.13859089
22	0xbdfb533b	-0.12271734
23	0xbd5721a3	-0.052522313
24	0xbdfd448b	-0.12366589
25	0xbda6304c	-0.08114681
26	0xbd6ed023	-0.058303963
27	0xbd6afb97	-0.05736884
28	0xbda12835	-0.07868997
29	0xbcdfcdef	-0.027319876
30	0xbd9f8b1a	-0.077902034
31	0xbd634abf	-0.055491205
32	0xbd30b7db	-0.04314409
33	0xbd16f68b	-0.036856215
34	0xbd624cd6	-0.055249058
35	0xbc2d0560	-0.0105603635
36	0xbd8ccbb3	-0.0687479
37	0xbda3b9c2	-0.07994415
38	0xbd344b9c	-0.04401742
39	0xbd0e0853	-0.034675907
40	0xbd987977	-0.074450426
41	0xbcf9be68	-0.0304863
42	0xbd2bdcc4	-0.041958585
43	0xb9d4b729	-0.00040572256
44	0xbd9fd31e	-0.07803939
45	0xbd0740ac	-0.03302066
46	0xbd87d615	-0.0663263
47	0xbdfac82e	-0.122452125
48	0xbd8b4fb9	-0.06802315
49	0xbd9c0654	-0.076183945
50	0xbd201e73	-0.03909154
51	0xbde250ca	-0.110505655
52	0xbd81184a	-0.06303461
53	0xbd5dc687	-0.05414441
54	0xbd7cb3be	-0.061694853
55	0xbd722b89	-0.05912355
56	0xbd15a2d3	-0.036532234
57	0xbd2d679b	-0.042335134
58	0xbd9706ff	-0.07374381
59	0xbd618d2a	-0.055066265
60	0xbd1a3f75	-0.037658174
61	0xbdbcc0fd	-0.09216497
62	0xbda5c496	-0.080941364
63	0xbd93cef2	-0.07217206

body.block2.norm.running_mean f4 [64]
0	0x3d1fe93a	0.03904078
1	0x3b2b575f	0.0026144607
2	0x3f067831	0.5252715
3	0x3cd0e7b4	0.02550111
4	0x3ea9c3e8	0.33157277
5	0xbdd69c5e	-0.104790434
6	0x3be85f0e	0.0070914095
7	0x3e0356a2	0.12826017
8	0x3e3148e4	0.17312962
9	0x3e4e9517	0.20174061
10	0xbec51363	-0.38491353
11	0x3c12460f	0.008927836
12	0xbe45a909	-0.19302763
13	0xbecb9fb4	-0.3977028
14	0x3f009161	0.5022183
15	0xbbe890a8	-0.0070973225
16	0x3db74273	0.08948221
17	0x3db45d31	0.08806837
18	0x3daa69c1	0.08320952
19	0xbeabb564	-0.33536828
20	0xbe115428	-0.1419226
21	0x3e20af74	0.1569193
22	0xbe30109a	-0.17193833
23	0x3e6e331e	0.23261687
24	0x3e076f85	0.13226135
25	0xbe5cb6dc	-0.2155413
26	0xbe8ce02a	-0.27514774
27	0xbf1da2c8	-0.6157651
28	0x3de1cd19	0.110254474
29	0x3ee209bc	0.44148052
30	0x3ec14af7	0.37752506
31	0xbe076bbc	-0.13224691
32	0x3df641df	0.12024283
33	0x3d557b0f	0.05211931
34	0x3bbe568d	0.0058086575
35	0xbe870c82	-0.2637673
36	0x3d01c14a	0.031678475
37	0xbe2a294f	-0.1661732
38	0x3f015183	0.50515
39	0xbf0a4705	-0.5401462
40	0xbe5475dc	-0.20748085
41	0xbd52209e	-0.051300637
42	0xbd3b2f75	-0.045699555
43	0xbe90c56f	-0.2827563
44	0x3e845d0b	0.25852236
45	0x3eb273e7	0.3485405
46	0x3e9f389b	0.31097874
47	0xbdb5ee24	-0.08883312
48	0x3ee1e38e	0.44118923
49	0x3d9c88f6	0.07643311
50	0x3d23c1e8	0.039979845
51	0xbc9bff63	-0.019042676
52	0x3b6f648f	0.0036528443
53	0xbe6e5e1f	-0.23278092
54	0x3d98cbf0	0.07460773
55	0xbe4b22e2	-0.19837525
56	0x3e8232b0	0.25429296
57	0xbda5799e	-0.08079837
58	0x3f0eb458	0.5574393
59	0xbe6994e4	-0.22810704
60	0xbe911d4d	-0.28342667
61	0xbefdd366	-0.49575347
62	0x3ed17d2d	0.40915814
63	0x3b8f2a1f	0.004369035

body.block2.norm.running_var f4 [64]
0	0x3eda053d	0.42582121
1	0x3e26323b	0.16230099
2	0x3ed42fc2	0.41442686
3	0x3df945e4	0.12171534
4	0x3ee67b9f	0.4501619
5	0x3db09f5e	0.08624147
6	0x3e892be3	0.26791295
7	0x3e973496	0.29532307
8	0x3ea34d50	0.31894922
9	0x3e687c64	0.22703701
10	0x3e3de75c	0.18545288
11	0x3ec0de96	0.3766982
12	0x3e077b19	0.13230552
13	0x3e815721	0.25261787
14	0x3e846940	0.2586155
15	0x3e40190f	0.18759559
16	0x3e47f0da	0.19525471
17	0x3ee35bda	0.44406015
18	0x3e9c8a5d	0.30574313
19	0x3e5ee54b	0.21767156
20	0x3e0163a0	0.1263566
21	0x3e192254	0.14954501
22	0x3e2705df	0.16310833
23	0x3ec06ab3	0.37581405
24	0x3e22bd3e	0.15892503
25	0x3eb9cb5e	0.3628797
26	0x3ea1acc1	0.31577113
27	0x3e8a7f51	0.2705026
28	0x3e257123	0.1615644
29	0x3f0e1012	0.5549327
30	0x3e804a2e	0.25056595
31	0x3db0cae1	0.08632446
32	0x3ed0515b	0.4068707
33	0x3f36a6e3	0.713484
34	0x3dee1ca5	0.11626557
35	0x3e7cb748	0.24679291
36	0x3f1d6f6e	0.61498153
37	0x3e26c8b4	0.162875
38	0x3e4df3e5	0.2011257
39	0x3e613ac0	0.21995068
40	0x3e745bb7	0.23863111
41	0x3de73df7	0.11291116
42	0x3ebad189	0.36487988
43	0x3eb681af	0.35645816
44	0x3d8a9847	0.06767326
45	0x3dfe7753	0.12425103
46	0x3e573a40	0.21018314
47	0x3e289ffb	0.16467278
48	0x3e824b0a	0.25447875
49	0x3e35806e	0.17724773
50	0x3e1a749b	0.15083544
51	0x3e661d10	0.22472024
52	0x3e7c5e81	0.24645425
53	0x3e382b5c	0.1798529
54	0x3eaf1f69	0.34203652
55	0x3e8d6d2b	0.2762235
56	0x3e7956c7	0.24349509
57	0x3e2a4430	0.16627574
58	0x3e99c603	0.30033883
59	0x3e489c8a	0.19590965
60	0x3e14ca5d	0.1453032
61	0x3e0939fb	0.13401024
62	0x3e5f070a	0.21780029
63	0x3e6cca71	0.231241
