code/Output/birds/pdl_e8000_1px_lr0.0007a10.0_up-conv5_1_W[1.0, 0.5, 0.1, 0.075, 0.075]/3/netG.pth (torch, 130373 bytes, 26 tensors)

head.conv.weight f4 [32, 3, 3, 3]
0.024333414 -0.14823496 -0.06510576 0.26870874 0.028534207 0.009214216 0.080656335 -0.138813
0.04455386 0.17115784 -0.023763202 -0.011254302 0.23663664 6.718293e-05 -0.06417297 -0.00058432843
-0.17048773 -0.03631447 0.19796397 0.11081254 0.11262991 0.14624947 0.023266742 -0.01850647
0.020695113 -0.111229 -0.030532144 0.10574102 0.08130508 -0.096171916 -0.003023253 0.03604409
-0.046404924 -0.029569622 0.11949577 0.18966511 -0.038561802 -0.021446876 -0.19796757 -0.11517931
-0.058707446 -0.058245912 -0.21673852 -0.08205066 0.087794 -0.09209245 -0.0817185 -0.15391803
0.19991577 0.19277595 0.19350672 0.010928253 0.0228179 0.034932237 0.06302076 -0.096408375
-0.043706775 0.054126497 -0.11517668 -0.08477947 0.043524038 -0.021385161 -0.05132098 0.22922744
0.036548007 0.08751064 0.18305251 0.008590491 -0.033881433 0.18386039 0.055957325 -0.012468634
-0.04480057 -0.02353361 0.06086492 0.06658462 -0.002001332 -0.008953598 0.2465596 0.10755628
0.15492615 0.0469726 0.006564564 0.2262 -0.11124724 -0.042261083 -0.029044222 -0.26905894
-0.012225423 0.020189798 0.09328297 0.018520808 0.16696233 -0.078172944 -0.05812794 -0.022398954
-0.17224869 0.1523059 0.06106247 -0.0039283303 -0.03491812 -0.03723257 -0.08833776 0.003539927
-0.07364858 -0.025153914 0.16633794 0.0040682144 0.012917273 -0.08385255 0.088998236 0.03884063
-0.224613 -0.03134558 0.036033805 -0.03912142 -0.07000445 0.09280946 -0.0422562 0.15269017
0.052778684 -0.14801013 -0.026780384 0.09785318 -0.025175866 -0.021768756 0.08248625 0.034935992
0.17235783 0.06756184 -0.069779776 -0.013091809 0.114122726 0.054766443 0.02387136 0.05286278
0.006664693 -0.0746524 0.084894516 -0.10556325 -0.1120147 -0.009616661 -0.13731843 -0.08867009
0.15785821 0.09435027 -0.015058736 0.15084259 0.028541092 -0.06526179 0.012492344 -0.058551818
-0.032637723 0.0907184 0.10732956 0.05042947 0.13959552 0.054099455 -0.009481513 0.11361553
0.08717375 0.049003784 0.1602872 -0.033640906 0.0245199 0.17882523 -0.019337727 -0.16823435
-0.0067922412 -0.043869406 -0.08436256 0.15245843 -0.051624313 0.06255778 0.23257111 -0.057502422
-0.17288324 0.041288693 -0.04607946 -0.13807553 0.076164775 -0.024904408 -0.0145402225 0.18109158
-0.030235123 -0.1467702 0.088784374 0.03027778 -0.1673262 -0.19767843 -0.01879762 0.10367251
0.03708736 0.08773172 0.07955904 0.11194887 -0.14609979 -0.080777995 -0.20719983 -0.030404516
0.10737634 0.0021236273 0.08050792 0.061828155 0.15509316 -0.110312454 -0.08920417 -0.03616224
0.07162456 0.16527392 -0.030022897 -0.008194769 -0.015007206 0.045056395 -0.08040051 -0.15545097
0.062240843 0.04332898 0.06830275 0.03757223 0.14086282 0.070386514 0.06447138 0.002230229
-0.015715932 0.032628957 -0.021255482 -0.08311305 0.08937654 0.22685552 0.04814351 0.08010897
0.0763559 -0.040711056 -0.1723288 -0.14501916 -0.16826707 -0.05945646 0.031118313 -0.07660081
0.023322765 0.047910806 -0.016783874 0.07344263 0.111790724 0.16290776 0.041425396 0.045587864
-0.052300073 -0.008959176 -0.023745254 -0.05933595 -0.059135694 0.14791699 0.21656838 -0.08743118
00000000: de56 c73c e8ca 17be 2b56 85bd 3194 893e
00000010: 92c0 e93c 39f7 163c 262f a53d ff24 0ebe
00000020: 1c7e 363d 0044 2f3e 0cab c2bc f763 38bc
00000030: e050 723e 90e4 8c38 1e6d 83bd 9e2d 19ba
00000040: 5694 2ebe 7bbe 14bd 11b7 4a3e aff1 e23d
00000050: 83aa e63d 6cc2 153e e599 be3c e19a 97bc
00000060: cc88 a93c 08cc e3bd 8c1e fabc bf8e d83d
00000070: 4783 a63d c8f5 c4bd c521 46bb f8a2 133d
00000080: 1713 3ebd fe3b f2bc 33ba f43d 9237 423e
00000090: fbf2 1dbd 5cb1 afbc 03b8 4abe 21e3 ebbd
000000a0: 3877 70bd 4493 6ebd b4f0 5dbe 2d0a a8bd
000000b0: 57cd b33d f79a bcbd 075c a7bd b09c 1dbe
000000c0: b8b6 4c3e 0f67 453e a026 463e 6a0c 333c
000000d0: 9bec ba3c 1b15 0f3d 0711 813d c171 c5bd
000000e0: e005 33bd bfb3 5d3d c0e1 ebbd dca0 adbd
000000f0: 4346 323d ef2f afbc f335 52bd 99ba 6a3e
00000100: 5db3 153d c738 b33d 1e72 3b3e 21bf 0c3c
00000110: 42c7 0abd e645 3c3e 8233 653d 3e49 4cbc
00000120: cd80 37bd 8fc9 c0bc 7f4d 793d 845d 883d
00000130: c728 03bb 1db2 12bc 1f7a 7c3e 7846 dc3d
00000140: f6a4 1e3e 5766 403d 8e1b d73b f9a0 673e
00000150: 98d5 e3bd f519 2dbd 26ee edbc 18c2 89be
00000160: 244d 48bc 1365 a53c 240b bf3d f3b8 973c
00000170: 2cf8 2a3e 2319 a0bd 9017 6ebd 037e b7bc
00000180: f661 30be 14f6 1b3e a41c 7a3d 39b9 80bb
00000190: 4d06 0fbd 2e81 18bd 6dea b4bd 1ffe 673b
000001a0: 11d5 96bd 950f cebc 7e54 2a3e a84e 853b
000001b0: f8a2 533c e3ba abbd b544 b63d 5a17 1f3d
000001c0: f300 66be 3964 00bd 2f98 133d c83d 20bd
000001d0: 7e5e 8fbd e312 be3d d614 2dbd d05a 1c3e
000001e0: 762e 583d f88f 17be 8962 dbbc 3f67 c83d
000001f0: 9e3d cebc 6454 b2bc 8dee a83d 0b19 0f3d
00000200: 927e 303e dd5d 8a3d b3e8 8ebd 077f 56bc
00000210: 2db9 e93d c752 603d df8d c33c a486 583d
00000220: 7f63 da3b 5ce3 98bd 2ddd ad3d 8c31 d8bd
00000230: f767 e5bd 338f 1dbc 349d 0cbe aa98 b5bd
00000240: 95a5 213e b73a c13d ebb8 76bc 7b76 1a3e
00000250: 02cf e93c f9a7 85bd b0ac 4c3c 08d4 6fbd
00000260: 22af 05bd 92ca b93d 9acf db3d 228f 4e3d
00000270: 21f2 0e3e 6497 5d3d 5958 1bbc 42af e83d
00000280: 2788 b23d 31b8 483d 5422 243e 0ccb 09bd
00000290: f5dd c83c f61d 373e 276a 9ebc a045 2cbe
000002a0: 7391 debb 68b0 33bd 47c6 acbd 101e 1c3e
000002b0: 0474 53bd 4b1e 803d 1f27 6e3e a987 6bbd
000002c0: 4e08 31be 551e 293d d1bd 3cbd ac63 0dbe
000002d0: 47fc 9b3d 5404 ccbc 1d3a 6ebc 1270 393e
000002e0: a6af f7bc ed4a 16be 95d4 b53d 1b09 f83c
000002f0: 8f57 2bbe 376c 4abe 77fd 99bc 4152 d43d
00000300: eae8 173d b0ac b33d daef a23d 7345 e53d
00000310: 2f9b 15be ef6e a5bd 312c 54be e412 f9bc
00000320: 20e8 db3d 8e2c 0b3b 56e1 a43d 853f 7d3d
00000330: bed0 1e3e 7feb e1bd adb0 b6bd db1e 14bd
00000340: e6af 923d 913d 293e 94f2 f5bc 5a43 06bc
00000350: c9e0 75bc 0e8d 383d 06a9 a4bd 8a2e 1fbe
00000360: 41f0 7e3d bb79 313d 50e2 8b3d 57e5 193d
00000370: 583e 103e ce26 903d 9209 843d 0929 123b
00000380: b3be 80bc f1a5 053d fa1f aebc 2d37 aabd
00000390: 0c0b b73d d04c 683e 2132 453d 2c10 a43d
000003a0: 7b60 9c3d a3c0 26bd f676 30be e77f 14be
000003b0: 344e 2cbe 9e88 73bd d5eb fe3c e3e0 9cbd
000003c0: 620f bf3c 1f3e 443d 567e 89bc 1769 963d
000003d0: 89f2 e43d 4bd1 263e adad 293d 57ba 3a3d
000003e0: 9a38 56bd 82c9 12bc 6885 c2bc 410a 73bd
000003f0: 4538 72bd 8d77 173e 1ac4 5d3e 1e0f b3bd

head.conv.bias f4 [32]
0.052110434 -0.0092618195 -0.21417618 -0.17637867 -0.1644074 0.041853532 0.051921442 0.014076148
-0.15253901 -0.24729627 0.0042286143 -0.056013968 -0.0200574 0.042856615 -0.14678031 -0.041840542
0.042943012 0.08836307 -0.031026037 -0.04204814 -0.040244184 -0.000692901 0.17338003 0.10425333
0.1372088 -0.06074061 -0.17283309 -0.14009243 0.11151716 0.18425989 0.004135098 -0.06313771
00000000: c071 553d e3be 17bc 0051 5bbe 9c9c 34be
00000010: 6a5a 28be 9c6e 2b3d 94ab 543d a59f 663c
00000020: 3033 1cbe 3c3b 7dbe 3090 8a3b e76e 65bd
00000030: 6b4f a4bc 6b8a 2f3d 944d 16be fd60 2bbd
00000040: 03e5 2f3d b2f7 b43d 512a febc ac3a 2cbd
00000050: 16d7 24bd cda3 35ba 898a 313e c582 d53d
00000060: 7780 0c3e 25cb 78bd 28fb 30be 6474 0fbe
00000070: 1c63 e43d a0ae 3c3e b77f 873b 584e 81bd

head.norm.weight f4 [32]
1.0283357 0.84115225 0.85568154 0.823327 0.8229206 0.7877338 0.9537703 0.9448498
1.0000132 1.0696127 0.9890566 1.2340554 0.8421133 1.3177968 1.0608457 0.9604422
1.0459037 1.082696 0.7237252 1.0972829 1.0983284 1.0262364 0.95378435 0.88581175
1.0279965 0.80281234 0.7840469 0.9080404 1.027861 0.95407826 1.0333267 1.1908036
00000000: 81a0 833f c155 573f f20d 5b3f 8fc5 523f
00000010: edaa 523f eca8 493f 4a2a 743f ade1 713f
00000020: 6f00 803f 12e9 883f d032 7d3f 87f5 9d3f
00000030: bd94 573f 91ad a83f cbc9 873f 8adf 753f
00000040: 2ce0 853f c895 8a3f 0e46 393f c473 8c3f
00000050: 0696 8c3f b75b 833f 362b 743f 8fc4 623f
00000060: 6495 833f 1c85 4d3f 4cb7 483f 5675 683f
00000070: f390 833f 793e 743f 0d44 843f 416c 983f

head.norm.bias f4 [32]
-0.26236886 -0.6002231 -0.45742518 -0.3602161 -0.11252984 -0.2379059 -0.39018098 -0.3950341
-0.20710026 -0.3589639 -0.27830565 -0.42414287 -0.17475915 -0.24548449 -0.4054388 -0.20974071
-0.417808 -0.43183124 -0.38037091 -0.19884282 -0.30222005 -0.12908769 -0.5505264 -0.25744313
-0.18230718 -0.23875989 -0.3510617 -0.21156226 -0.104833536 -0.25550827 -0.31996262 -0.44986394
00000000: 3655 86be 39a8 19bf a233 eabe 3f6e b8be
00000010: 0b76 e6bd 9b9d 73be cdc5 c7be e941 cabe
00000020: 1712 54be 1eca b7be 147e 8ebe 4129 d9be
00000030: 10f4 32be 4960 7bbe ad95 cfbe 45c6 56be
00000040: eeea d5be fc18 ddbe fabf c2be 749d 4bbe
00000050: 96bc 9abe 902f 04be 4cef 0cbf 96cf 83be
00000060: bcae 3abe 797d 74be 5cbe b3be c7a3 58be
00000070: f7b2 d6bd fbd1 82be 24d2 a3be 9154 e6be

head.norm.running_mean f4 [32]
-0.013273538 -0.02782954 -0.40279827 -0.21225229 -0.43220308 -0.3292035 0.06148394 0.009741084
0.33070594 -0.1595741 0.54807144 -0.122466825 0.1602124 0.22070572 -0.91726094 -0.54576105
0.46383163 0.68699723 -0.30883834 0.05050867 0.14506699 -0.025795134 0.040111262 0.87372535
0.078220434 -0.2304217 -0.660649 -0.502378 0.1620744 0.61478627 -0.623011 0.29358134
00000000: 4179 59bc c7fa e3bc 933b cebe aa58 59be
00000010: b949 ddbe 5c8d a8be 95d6 7b3d 1199 1f3c
00000020: 4a52 a93e 6567 23be 694e 0c3f e3cf fabd
00000030: b80e 243e ae00 623e 9dd1 6abf ffb6 0bbf
00000040: 577b ed3e 0ddf 2f3f 0f20 9ebe 2ee2 4e3d
00000050: 718c 143e 5150 d3bc b54b 243d 77ac 5f3f
00000060: 0932 a03d abf3 6bbe 4b20 29bf d89b 00bf
00000070: d5f6 253e a262 1d3f a67d 1fbf 4b50 963e

head.norm.running_var f4 [32]
0.039428025 0.007158917 0.07067242 0.018268788 0.021418214 0.043376897 0.019539254 0.006246646
0.11239503 0.039022896 0.10437931 0.15674648 0.021104792 0.020053115 0.18158628 0.07757687
0.07059716 0.10975143 0.052109398 0.0384718 0.1555884 0.006804686 0.017956931 0.4002233
0.093239784 0.15916312 0.14478557 0.085468456 0.016980328 0.062193893 0.1394436 0.07582021
00000000: 487f 213d 5995 ea3b b4bc 903d 6da8 953c
00000010: 4075 af3c f9ab 313d c910 a03c aab0 cc3b
00000020: 5e2f e63d 79d6 1f3d d2c4 d53d 2682 203e
00000030: f5e3 ac3c 6e46 a43c c1f1 393e 9fe0 9e3d
00000040: 3e95 903d 5cc5 e03d aa70 553d 9b94 1d3d
00000050: 9152 1f3e d8f9 de3b 6a1a 933c 12ea cc3e
00000060: 80f4 be3d a8fb 223e ab42 143e 160a af3d
00000070: 541a 8b3c 06bf 7e3d 4eca 0e3e a047 9b3d

body.block1.conv.weight f4 [32, 32, 3, 3]
-0.005678882 0.03300618 -0.13277233 0.02562943 0.074277304 -0.043933764 -0.008583326 -0.12446834
-0.08852723 -0.019680059 -0.09729655 -0.105751306 0.01125146 -0.015112158 -0.037889287 0.020702185
-0.06709654 -0.006297403 0.034357943 -0.006295429 -0.09367123 -0.013157662 -0.01776173 -0.13288455
0.06596228 0.01372864 -0.13388161 -0.06285803 -0.09767447 0.07884641 -0.05501997 -0.014302716
0.13883975 -0.015237894 0.05757357 -0.04457488 -0.004532992 0.08405539 -0.016080406 -0.026679805
0.19199479 -0.058610667 0.07887236 0.1802631 -0.06719647 -0.010754765 -0.039959613 -0.02999819
-0.018080289 0.058221344 -0.08164008 0.049210567 -0.053772714 -0.17232688 0.069071226 -0.2534072
-0.14492577 -0.06629421 -0.29113817 -0.09809721 -0.041420504 -0.122191906 -0.2211113 -0.16571188
0.031713247 -0.03913018 -0.16345869 0.044712175 -0.048537288 -0.12833814 -0.15888038 0.11344696
0.051829774 -0.05626223 -0.04493852 0.10261359 0.1349572 0.08547687 -0.14262803 -0.10599602
-0.07859808 0.016130988 -0.023123365 0.077031754 -0.1252091 -0.03364702 0.114640996 -0.09980455
-0.16047986 0.058299292 0.009175618 0.1125236 -0.04751151 -0.13041425 0.07842953 -0.049551975
0.15351795 0.029512336 -0.0135871135 0.13459808 0.11240541 0.17564628 -0.065481044 -0.07569823
0.050889093 0.050142057 -0.0021202872 0.260637 -0.06270209 -0.06088126 0.04349155 -0.003646701
0.002149724 0.09068773 -0.075396396 0.0030143748 -0.043006893 0.047421783 -0.21290085 0.11201919
0.2152538 -0.0046253903 0.17143092 -0.08258676 -0.100396655 -0.124475904 0.076010816 0.072175115
-0.05265429 0.08199261 0.05695503 -0.079521134 0.078421846 0.05378583 -0.058849473 0.019751064
0.08057263 0.03788371 -0.0053708507 0.02068968 -0.012824344 -0.059661783 -0.025897877 -0.1028826
0.011227214 0.119123936 0.02764188 -0.06825925 -0.022887114 -0.014380276 0.18486694 -0.08258879
0.20586932 -0.13113825 -0.20258023 0.13297158 -0.11173066 -0.048627414 0.11338491 -0.17898129
-0.04856159 -0.061052077 -0.017285783 0.022616604 -0.042880386 0.08633831 0.07854037 -0.046282623
-0.019395279 0.017193787 -0.04715122 -0.0064145494 -0.00029003603 0.031527836 -0.04292826 -0.056689374
0.031972535 0.08047031 -0.11119028 -0.026693514 0.023135422 0.13787512 -0.08488558 -0.118802465
0.07557439 -0.09346738 0.06851266 0.022991097 -0.11610636 -0.12783135 -0.07744504 -0.09481165
-0.020454805 -0.107667565 -0.10884509 -0.06755697 0.021484075 -0.10928646 -0.01990779 -0.18319364
-0.0048008887 0.12776895 -0.0028067487 -0.19250363 -0.057624 -0.03717923 -0.08385851 0.07022497
0.044875167 0.091188736 0.019128427 -0.09528422 0.076718 0.044823788 0.07047354 0.11392701
-0.02252757 -0.0461381 -0.15203293 -0.019298868 0.012210163 0.016831223 0.04895597 -0.07810102
-0.11679218 -0.028936543 -0.05385155 -0.0028913082 0.059323996 -0.02024463 0.035916395 0.07159069
0.0481265 0.06399289 0.01317358 0.035913642 0.007861291 0.013484084 0.06034502 0.0049351803
0.061568275 0.118163735 0.036346555 -0.00048760825 -0.050467733 -0.06710118 0.20986395 0.045982573
-0.03808961 0.10595578 -0.040297534 -0.13883278 -0.12538561 0.048267175 -0.0477349 -0.12532176
00000000: ea15 babb 7d31 073d 78f5 07be cff4 d13c
00000010: b31e 983d e4f3 33bd 14a1 0cbc 42e9 febd
00000020: c44d b5bd 1338 a1bc 6a43 c7bd 2494 d8bd
00000030: 0b58 383c fc98 77bc cc31 1bbd a197 a93c
00000040: e969 89bd 725a cebb eaba 0c3d e349 cebb
00000050: b4d6 bfbd 3c93 57bc 0c81 91bc e312 08be
00000060: 3b17 873d 17ee 603c 4318 09be b6bb 80bd
00000070: 8d09 c8bd 3a7a a13d 9f5c 61bd f055 6abc
00000080: 022c 0e3e 5ca8 79bc 44d2 6b3d 2694 36bd
00000090: 7e89 94bb 3b25 ac3d 0ebb 83bc 9b8f dabc
000000a0: 489a 443e bd11 70bd d587 a13d e496 383e
000000b0: 4e9e 89bd c134 30bc b1ac 23bd c4be f5bc
000000c0: 1d1d 94bc 8179 6e3d ea32 a7bd 0591 493d
000000d0: c740 5cbd 7576 30be 3775 8d3d 97be 81be
000000e0: 6c67 14be 42c5 87bd 1010 95be 31e7 c8bd
000000f0: 8ca8 29bd c03f fabd 006b 62be 60b0 29be
00000100: c0e5 013d f846 20bd b761 27be 1d24 373d
00000110: 09cf 46bd 136b 03be 8ab1 22be e156 e83d
00000120: 754b 543d 3973 66bd 7411 38bd 1327 d23d
00000130: 3832 0a3e 7f0e af3d 150d 12be 7114 d9bd
00000140: 08f8 a0bd 2225 843c 366d bdbc d3c2 9d3d
00000150: d036 00be 75d1 09bd e6c8 ea3d 5466 ccbd
00000160: d554 24be 3dcb 6e3d 5555 163c c672 e63d
00000170: 6e9b 42bd 508b 05be a99f a03d 03f7 4abd
00000180: cf33 1d3e dbc3 f13c 7c9c 5ebc 14d4 093e
00000190: cf34 e63d 9edc 333e ed1a 86bd ac07 9bbd
000001a0: 1571 503d c261 4d3d 84f4 0abb 3672 853e
000001b0: f469 80bd a15e 79bd 3224 323d 7efd 6ebb
000001c0: 62e2 0c3b 7dba b93d 6d69 9abd d18c 453b
000001d0: ff27 30bd 583d 423d ae02 5abe 516a e53d
000001e0: 7e6b 5c3e 9690 97bb 968b 2f3e 3f23 a9bd
000001f0: c39c cdbd 39ed febd 8fab 9b3d 8cd0 933d
00000200: 06ac 57bd beeb a73d ad49 693d fadb a2bd
00000210: a29b a03d 884e 5c3d 250c 71bd fccc a13c
00000220: 4303 a53d f32b 1b3d f6fd afbb 677d a93c
00000230: 331d 52bc ea5f 74bd c927 d4bc 1db4 d2bd
00000240: 59f2 373c 40f7 f33d 3971 e23c 81cb 8bbd
00000250: c27d bbbc 409b 6bbc c24d 3d3e 5024 a9bd
00000260: 68cf 523e 1b49 06be 3171 4fbe b429 083e
00000270: 0bd3 e4bd 8a2d 47bd 5936 e83d df46 37be
00000280: 85e8 46bd be11 7abd ea9a 8dbc 7546 b93c
00000290: 58a3 2fbd 24d2 b03d c6d9 a03d d992 3dbd
000002a0: d9e2 9ebc fcd9 8c3c a321 41bd 2431 d2bb
000002b0: fa0f 98b9 5523 013d 8bd5 2fbd 1e33 68bd
000002c0: a2f5 023d 9ecd a43d bbb7 e3bd 5bac dabc
000002d0: 7f86 bd3c 232f 0d3e 7ed8 adbd b54e f3bd
000002e0: bfc6 9a3d d36b bfbd 5e50 8c3d d357 bc3c
000002f0: 2cc9 edbd 39e6 02be 819b 9ebd 9c2c c2bd
00000300: d690 a7bc d080 dcbd 2dea debd 4f5b 8abd
00000310: 5fff af3c 94d1 dfbd a915 a3bc 1d97 3bbe
00000320: c650 9dbb ddd5 023e 6ef1 37bb ac1f 45be
00000330: 2507 6cbd 4049 18bd 03be abbd 1cd2 8f3d
00000340: 06cf 373d 29c1 ba3d 38b3 9c3c 6024 c3bd
00000350: 541e 9d3d 2699 373d 6e54 903d 9052 e93d
00000360: bd8b b8bc 4efb 3cbd 85ae 1bbe a918 9ebc
00000370: 230d 483c a2e1 893c 0e86 483d 6df3 9fbd
00000380: bd30 efbd 540c edbc 7193 5cbd 1a7c 3dbb
00000390: b8fd 723d 11d8 a5bc 121d 133d 249e 923d
000003a0: 4b20 453d b40e 833d 00d6 573c 2f1a 133d
000003b0: a5cc 003c 59ec 5c3c 572c 773d 4bb7 a13b
000003c0: 042f 7c3d d4ff f13d 20e0 143d aca5 ffb9
000003d0: 41b7 4ebd 586c 89bd 93e6 563e 3958 3c3d
000003e0: da03 1cbd 58ff d83d 070f 25bd 2e2a 0ebe
000003f0: 1665 00be cdb3 453d ac85 43bd 5954 00be

body.block1.conv.bias f4 [32]
-0.043879446 -0.009122741 -0.016812397 0.052794002 -0.014371247 -0.024296148 0.021935128 0.040668536
-0.033685178 0.045536097 0.06656463 0.038215168 -0.007141723 -0.045947455 0.004062792 0.05115747
-0.06697726 -0.018611696 -0.007231856 -0.03165749 -0.013045036 -0.052444052 0.024971556 -0.028458951
-0.04272694 -0.020590182 -0.018603735 0.06380642 -0.012387645 0.048243128 0.039606124 -0.043747153
00000000: efba 33bd 8d77 15bc 27ba 89bc 863e 583d
00000010: 6175 6bbc b708 c7bc 4cb1 b33c 0d94 263d
00000020: 78f9 09bd 0f84 3a3d 0953 883d 8287 1c3d
00000030: 1d05 eabb 6633 3cbd 2b21 853b 7f8a 513d
00000040: 602b 89bd 8e77 98bc 35f9 ecbb 49ab 01bd
00000050: d9ba 55bc 93cf 56bd 2691 cc3c bf22 e9bc
00000060: 7202 2fbd beac a8bc dc66 98bc f1ac 823d
00000070: 8df5 4abc 969a 453d 083a 223d 3730 33bd

body.block1.norm.weight f4 [32]
1.0024333 1.088888 0.98520947 0.9249994 0.8282292 0.9656647 1.1117046 0.97562945
0.8610259 0.85362476 0.9475454 1.0098156 1.013151 1.0649551 1.0419018 0.8636459
0.97993594 0.8994374 0.89344776 1.1892515 1.073057 0.8919161 0.96275604 0.96565586
1.1572329 1.0130575 1.0707102 1.1236372 0.9770653 0.88528025 0.992641 1.0652403
00000000: bc4f 803f af60 8b3f b036 7c3f c3cc 6c3f
00000010: d406 543f cd35 773f 564c 8e3f dac2 793f
00000020: 326c 5c3f 2787 5a3f 5692 723f a341 813f
00000030: efae 813f 7350 883f 0a5d 853f e617 5d3f
00000040: 15dd 7a3f 8841 663f feb8 643f 6539 983f
00000050: ef59 893f 9d54 643f 2e77 763f 3935 773f
00000060: 3520 943f deab 813f 080d 893f 58d3 8f3f
00000070: f420 7a3f baa1 623f b81d 7e3f cb59 883f

body.block1.norm.bias f4 [32]
-0.3250576 -0.012897315 -0.0613128 -0.39700842 -0.34928003 -0.3292507 -0.082798764 -0.22825663
-0.41623956 -0.3492936 -0.1687285 -0.21319681 -0.2381772 -0.0632917 -0.30809152 -0.20359908
-0.21002908 -0.2185867 -0.16156237 -0.0983781 -0.08669672 -0.3903635 -0.815263 -0.19403693
-0.30077922 -0.17622113 -0.18236312 0.023624228 -0.5233709 -0.452907 -0.2978866 -0.3624423
00000000: f36d a6be 434f 53bc 2123 7bbd b044 cbbe
00000010: d5d4 b2be 8c93 a8be 6692 a9bd 1bbc 69be
00000020: 5a1d d5be 9cd6 b2be 2ac7 2cbe 4450 5abe
00000030: b9e4 73be 149f 81bd 2cbe 9dbe 477c 50be
00000040: dd11 57be 31d5 5fbe 9b70 25be 757a c9bd
00000050: 0d8e b1bd badd c7be 13b5 50bf 9eb1 46be
00000060: bcff 99be 5073 34be 66bd 3abe 9987 c13c
00000070: a3fb 05bf 6de3 e7be 9884 98be 0a92 b9be

body.block1.norm.running_mean f4 [32]
-0.23464264 -0.2305362 0.22582401 -0.3888167 -0.18301344 -0.53794396 1.0153902 -0.48985258
0.24251379 0.20627147 -0.37989816 0.07761999 -0.46826336 0.55309784 0.4086349 -0.6299763
-1.0284688 -2.4500523 -0.2352028 0.2868763 0.16754633 0.21887268 -0.83962476 -0.42594936
-0.71183735 0.4404191 0.6723046 0.038878042 -0.5468465 -0.66211605 -0.3806804 0.14596777
00000000: 2946 70be ae11 6cbe 693e 673e fc12 c7be
00000010: e067 3bbe b2b6 09bf 4ef8 813f f5cd fabe
00000020: 8955 783e d438 533e 0382 c2be 3bf7 9e3d
00000030: 37c0 efbe d297 0d3f 9838 d13e 2046 21bf
00000040: dea4 83bf a8cd 1cc0 01d9 70be 73e1 923e
00000050: 4491 2b3e 2920 603e a6f1 56bf 0916 dabe
00000060: f93a 36bf 9d7e e13e 271c 2c3f 953e 1f3d
00000070: 22fe 0bbf 7080 29bf 8be8 c2be 9378 153e

body.block1.norm.running_var f4 [32]
1.96777 2.820461 2.1576467 2.227577 4.624676 1.1148455 3.0909941 3.1551466
2.4323442 1.331397 1.2967569 5.6251693 1.7077491 4.8148437 1.374371 3.8726795
1.3242147 1.3488097 3.8947437 4.491602 6.530493 1.5500147 1.7855119 4.0737143
1.3643891 7.6172495 2.535448 15.245024 2.1862183 2.553449 4.2839484 6.3634105
00000000: e3df fb3f 6f82 3440 e216 0a40 9f90 0e40
00000010: 59fd 9340 42b3 8e3f d9d2 4540 eced 4940
00000020: 87ab 1b40 386b aa3f 21fc a53f 6301 b440
00000030: 8697 da3f 3313 9a40 64eb af3f fbd9 7740
00000040: de7f a93f cca5 ac3f 7b43 7940 34bb 8f40
00000050: ccf9 d040 e266 c63f a78b e43f de5b 8240
00000060: 4da4 ae3f 82c0 f340 c844 2240 9eeb 7341
00000070: 00eb 0b40 b56b 2340 1b16 8940 0fa1 cb40

body.block2.conv.weight f4 [32, 32, 3, 3]
-0.05178905 0.07879994 0.077389084 -0.05946311 -0.0011807765 0.03796345 0.007034935 0.010367461
-0.06028441 -0.05948671 -0.024499424 0.109890565 0.078533694 0.085176505 0.13238117 0.08047954
0.14327444 0.13766143 -0.11388973 0.034597017 -0.011580842 -0.105536066 -0.022718271 0.06199422
0.07912293 0.045147486 0.14897993 0.013507163 -0.08252228 -0.0056927437 -0.010954135 0.02643831
0.011190269 -0.049850494 0.019158514 -0.010341362 0.115019836 0.11067407 0.01950316 0.017772896
-0.059173837 0.014404343 -0.1318404 -0.07935894 -0.08315224 -0.029300647 -0.08928492 -0.062123057
-0.028666353 -0.16727643 -0.14388299 -0.11471537 -0.14646576 -0.012639394 -0.0028446522 0.013712194
-0.040910076 -0.15991373 -0.09269073 -0.0057680802 -0.16088335 -0.08454628 -0.02511987 -0.006909069
-0.00069392956 0.042511936 -0.08403477 0.041238397 -0.000495621 -0.053516418 -0.044702347 -0.02106366
0.0167319 0.10545932 0.071903065 0.09935371 -0.068648405 -0.078961976 -0.0887926 0.0058012474
-0.043155596 -0.009446909 0.051402815 0.07314328 -0.056262553 -0.047007214 0.019487688 -0.08138361
-0.10754998 -0.052225444 0.034652986 -0.04236503 -0.043650266 0.13246001 -0.063975126 -0.14391741
0.018457014 -0.049465925 -0.08574621 0.066276014 0.042475756 0.030301677 0.06673449 0.038557895
0.024038479 -0.007454597 -0.034217108 -0.046112467 0.031720962 0.00034463947 0.011838225 0.025366716
0.005149457 0.014030437 -0.038559888 -0.023758074 -0.0021109749 -0.076399945 -0.068137474 0.014825494
-0.05456525 0.03313353 0.015615083 -0.101159915 -0.03195333 -0.046270672 -0.027130924 -0.015671168
-0.17566141 -0.08493475 -0.06642268 0.051246505 0.048586357 0.09745398 0.07707449 -0.014955645
-0.09100963 -0.12097698 -0.027897893 -0.04823786 -0.019734552 -0.03617843 -0.019373814 -0.04276233
-0.11815562 -0.025830876 -0.09562653 -0.08388844 -0.053993966 -0.061484944 0.016928805 -0.1276745
-0.033790898 -0.0038396087 -0.013098912 -0.07246141 -0.07464837 -0.04935392 -0.090005964 -0.124177076
-0.08197401 -0.10551476 -0.0044957497 -0.023347627 -0.13035844 -0.085027754 0.059432123 -0.10507759
-0.058919117 -0.06796016 -0.07396836 -0.2452063 -0.077910446 -0.1446651 -0.18517889 -0.06117426
-0.02182919 0.047664035 0.03741021 0.0704614 -0.10040255 -0.09386431 -0.0717343 -0.13925467
-0.02565695 -0.008938727 -0.099748336 -0.083456576 -0.0045010354 0.059058886 -0.046205424 -0.14816836
-0.03831583 -0.05321052 -0.040611815 -0.0529523 -0.090765946 -0.05709484 -0.116249904 -0.087185286
-0.09460531 -0.069636285 -0.038677536 -0.09936094 -0.2198646 -0.14121227 -0.072853416 0.13778803
0.07939786 -0.009417949 0.043753676 0.0299874 0.027436743 -0.01761702 -0.007800037 -0.001413403
0.01867302 -0.03106055 -0.2043484 0.0017796252 -0.12013136 -0.077681705 -0.122139014 -0.08866284
-0.04246418 0.0389777 -0.019471383 -0.108686216 0.015946249 -0.049739726 -0.0207198 0.042334124
0.004899528 0.064555734 0.09199865 0.047499493 0.2041108 0.01219617 -0.00988833 0.14091854
0.0031043396 0.030238876 0.054192554 -0.24121542 -0.20918624 -0.15701182 -0.07770317 -0.13561969
-0.09665012 -0.0742682 -0.08484371 -0.028170513 0.04210692 -0.046660177 0.00902106 -0.21511893
00000000: c120 54bd dd61 a13d 2b7e 9e3d 978f 73bd
00000010: 49c4 9aba 907f 1b3d 5085 e63b 48dc 293c
00000020: c9ec 76bd 56a8 73bd 04b3 c8bc 4e0e e13d
00000030: 46d6 a03d 0571 ae3d ee8e 073e 75d2 a43d
00000040: 89b6 123e 1ef7 0c3e 053f e9bd 9ab5 0d3d
00000050: 92bd 3dbc 4b23 d8bd ab1b babc a7ed 7d3d
00000060: 340b a23d 92ec 383d 328e 183e 264d 5d3c
00000070: 7101 a9bd 328a babb f978 33bc 2895 d83c
00000080: 6457 373c 0830 4cbd 51f2 9c3c d16e 29bc
00000090: 858f eb3d 16a9 e23d 17c5 9f3c 7798 913c
000000a0: 4460 72bd 3200 6c3c 2b01 07be f186 a2bd
000000b0: b94b aabd e907 f0bc 03db b6bd bf74 7ebd
000000c0: b3d5 eabc 834a 2bbe 1056 13be e4ef eabd
000000d0: 1ffb 15be 7615 4fbc 586d 3abb 1ca9 603c
000000e0: 5391 27bd 6dc0 23be a3d4 bdbd 2a02 bdbb
000000f0: 9bbe 24be 9a26 adbd 30c8 cdbc 7965 e2bb
00000100: d3e8 35ba ff20 2e3d 6c1a acbd 98e9 283d
00000110: 90ec 01ba 0834 5bbd cf19 37bd b28d acbc
00000120: 5611 893c 0efb d73d ea41 933d f579 cb3d
00000130: 8997 8cbd d1b6 a1bd e5d8 b5bd 6418 be3b
00000140: ecc3 30bd 35c7 1abc c28b 523d 25cc 953d
00000150: 9073 66bd a38a 40bd a5a4 9f3c 73ac a6bd
00000160: 2a43 dcbd 59ea 55bd 4af0 0d3d f486 2dbd
00000170: 9fca 32bd 99a3 073e 6405 83bd 165f 13be
00000180: 2a33 973c c89c 4abd b59b afbd b8bb 873d
00000190: 0ffb 2d3d 393b f83c 18ac 883d e2ee 1d3d
000001a0: 58ec c43c b145 f4bb 3d27 0cbd 6de0 3cbd
000001b0: d7ed 013d bab0 b439 1df5 413c dccd cf3c
000001c0: c7bc a83b ebdf 653c f9f0 1dbd 4ba0 c2bc
000001d0: 4858 0abb 9377 9cbd a98b 8bbd a1e6 723c
000001e0: d07f 5fbd 06b7 073d 68d6 7f3c ee2c cfbd
000001f0: 7fe1 02bd 5186 3dbd ac41 debc d260 80bc
00000200: 96e0 33be 45f2 adbd 9d08 88bd dbe7 513d
00000210: 7d02 473d f495 c73d 3bd9 9d3d 8608 75bc
00000220: 4263 babd c7c2 f7bd 1f8a e4bc 1095 45bd
00000230: 5baa a1bc d52f 14bd d5b5 9ebc 8e27 2fbd
00000240: 93fb f1bd 469b d3bc d8d7 c3bd b4cd abbd
00000250: c728 5dbd a3d7 7bbd 47ae 8a3c 1bbd 02be
00000260: 5368 0abd f2a1 7bbb d29c 56bc a666 94bd
00000270: 3fe1 98bd 5627 4abd 0c55 b8bd 8d50 febd
00000280: fde1 a7bd 1f18 d8bd 1551 93bb 8643 bfbc
00000290: af7c 05be 0823 aebd 196f 733d eb32 d7bd
000002a0: 2c55 71bd b22e 8bbd b97c 97bd 5c17 7bbe
000002b0: 838f 9fbd 1723 14be 899f 3dbe dc91 7abd
000002c0: 21d3 b2bc 5d3b 433d 733b 193d 114e 903d
000002d0: da9f cdbd ee3b c0bd 6fe9 92bd c798 0ebe
000002e0: 862e d2bc bd73 12bc db48 ccbd 48eb aabd
000002f0: 6c7d 93bb bbe7 713d e641 3dbd 72b9 17be
00000300: 0ff1 1cbd 46f3 59bd 9358 26bd 83e4 58bd
00000310: 7fe3 b9bd 47dc 69bd 6e14 eebd 338e b2bd
00000320: 6ec0 c1bd 789d 8ebd 566c 1ebd c07d cbbd
00000330: 3024 61be f399 10be 2c34 95bd 4e18 0d3e
00000340: 589b a23d be4d 1abc 0e37 333d 23a8 f53c
00000350: 05c3 e03c 9251 90bc 7497 ffbb ef41 b9ba
00000360: 29f8 983c b272 febc b540 51be 5042 e93a
00000370: 6e07 f6bd 9617 9fbd 0524 fabd dd94 b5bd
00000380: ecee 2dbd 15a7 1f3d 7382 9fbc e196 debd
00000390: b5a1 823c e2bb 4bbd 92bc a9bc 8c66 2d3d
000003a0: 388c a03b cc35 843d ca69 bc3d d48e 423d
000003b0: 6c02 513e 72d2 473c a902 22bc f34c 103e
000003c0: 2d72 4b3b 85b7 f73c 03f9 5d3d 2d01 77be
000003d0: eb34 56be b5c7 20be d722 9fbd e3df 0abe
000003e0: 80f0 c5bd ed19 98bd 8ac2 adbd d9c5 e6bc
000003f0: 4e78 2c3d be1e 3fbd 11cd 133c 2348 5cbe

body.block2.conv.bias f4 [32]
-0.054051653 0.0015571988 0.04570993 -0.05658515 -0.017712574 -0.05432973 0.024132643 0.049067613
0.044163607 0.024560774 0.053259723 -0.055372458 -0.03013844 -0.023114154 0.04673145 0.059492238
0.021549454 0.021691378 0.01427358 -0.0041035507 -0.008840962 0.053013045 -0.04108297 0.0013172285
-0.011079181 0.014062673 -0.027752014 0.055956177 -0.046808895 0.005028713 0.047771547 0.04225483
00000000: 4465 5dbd ec1a cc3a 563a 3b3d d5c5 67bd
00000010: f619 91bc da88 5ebd d2b1 c53c 1ffb 483d
00000020: e6e4 343d ad33 c93c de26 5a3d 3bce 62bd
00000030: e4e4 f6bc e559 bdbc 7a69 3f3d 22ae 733d
00000040: 7b88 b03c 1eb2 b13c bcdb 693c 1477 86bb
00000050: afd9 10bc 3524 593d 9e46 28bd dba6 ac3a
00000060: 7485 35bc 2067 663c 3158 e3bc 4e32 653d
00000070: afba 3fbd e7c7 a43b 19ac 433d 6713 2d3d

body.block2.norm.weight f4 [32]
0.9918411 0.94705194 1.0707394 1.0436795 0.9373802 0.92666066 0.8556151 0.9583257
0.8537816 0.95757246 0.9045553 0.9222334 1.0763443 1.0735761 1.0304251 0.9704292
0.8950724 0.8691474 0.90484005 0.9357449 1.0808557 1.1208439 0.97157884 1.0688833
0.8816471 1.0747427 0.9202996 1.0827152 0.84544414 1.0193872 1.0222411 0.9413353
00000000: 4ce9 7d3f ff71 723f fd0d 893f 4a97 853f
00000010: 26f8 6f3f a239 6d3f 9709 5b3f d554 753f
00000020: 6e91 5a3f 7823 753f f090 673f 7d17 6c3f
00000030: a6c5 893f f16a 893f f8e4 833f 0c6e 783f
00000040: 7723 653f 7280 5e3f 99a3 673f fa8c 6f3f
00000050: 7b59 8a3f d077 8f3f 64b9 783f 2bd1 883f
00000060: a0b3 613f 2b91 893f c198 6b3f 6996 8a3f
00000070: 076f 583f 487b 823f ccd8 823f 5afb 703f

body.block2.norm.bias f4 [32]
-0.09751623 -0.19951212 -0.13299179 -0.33979517 -0.11543939 -0.30889165 -0.279078 -0.25421685
-0.1523156 -0.027815139 -0.24027802 -0.27595562 -0.32940748 -0.2115303 -0.34944242 0.020017734
-0.30285436 -0.2748711 -0.20787512 0.19818024 -0.29297426 -0.1962936 -0.6056333 -0.23889816
-0.16247582 -0.18663552 -0.093090646 -0.1580958 -0.21313258 -0.21544883 -0.1452594 -0.39641732
00000000: 97b6 c7bd e84c 4cbe 002f 08be a2f9 adbe
00000010: 7d6b ecbd 0c27 9ebe 50e3 8ebe b628 82be
00000020: 9ff8 1bbe 93dc e3bc 710b 76be 0e4a 8dbe
00000030: 19a8 a8be 669b 58be 1eea b2be 3bfc a33c
00000040: ba0f 9bbe e8bb 8cbe 37dd 54be c3ef 4a3e
00000050: b900 96be 3101 49be c90a 1bbf b8a1 74be
00000060: 1060 26be 621d 3fbe 4fa6 bebd dee3 21be
00000070: 6d3f 5abe 9e9e 5cbe e1be 14be 36f7 cabe

body.block2.norm.running_mean f4 [32]
-1.3189491 -1.5297225 0.4061401 -0.32342565 1.1997968 -0.46100402 0.515043 -1.0328221
-0.08255778 0.54480034 1.5664679 0.80192614 -0.19134746 -0.26710692 -0.35538578 -0.8947075
-0.36921123 0.9270752 -0.99702835 0.5750193 -0.06524088 -0.34445027 -1.0635555 -2.2535896
-0.5448929 -1.3663822 -0.52798355 -0.48257646 0.57467735 1.0720329 -0.5459937 0.05058064
00000000: 53d3 a8bf f2cd c3bf 98f1 cf3e 0c98 a5be
00000010: f192 993f b808 ecbe dcd9 033f 8433 84bf
00000020: 0e14 a9bd 0978 0b3f 0582 c83f 084b 4d3f
00000030: 97f0 43be 3dc2 88be 20f5 b5be 8d0b 65bf
00000040: 4109 bdbe cd54 6d3f 403d 7fbf 7734 133f
00000050: 039d 85bd c95b b0be 9622 88bf d03a 10c0
00000060: 1a7e 0bbf 9de5 aebf ee29 07bf 4314 f7be
00000070: 0e1e 133f 6038 893f 3ec6 0bbf a52d 4f3d

body.block2.norm.running_var f4 [32]
2.0964096 1.8258027 6.0702524 2.5773137 2.247389 2.373503 1.916906 2.1845937
1.256663 5.8430715 2.9365132 1.6573229 5.6130533 3.2405722 3.3887 3.3240213
1.0146974 3.3281574 3.310876 8.961232 4.129318 2.405724 1.3700293 3.83297
1.6964118 3.4456027 1.6708549 3.0422935 1.0380417 4.4421005 4.091386 2.5182106
00000000: 932b 0640 e7b3 e93f 823f c240 b5f2 2440
00000010: 39d5 0f40 79e7 1740 2d5d f53f 62d0 0b40
00000020: 55da a03f 71fa ba40 d5ef 3b40 2823 d43f
00000030: 229e b340 8965 4f40 76e0 5840 c4bc 5440
00000040: 9be1 813f 8800 5540 64e5 5340 3561 0f41
00000050: 6023 8440 62f7 1940 1f5d af3f 614f 7540
00000060: 0624 d93f c184 5c40 93de d53f f0b4 4240
00000070: 8dde 843f b025 8e40 a2ec 8240 5d2a 2140

body.block3.conv.weight f4 [32, 32, 3, 3]
0.036890388 -0.012162121 0.014663286 -0.011139742 -0.013907847 -0.062562674 -0.07866869 -0.10135346
-0.15785167 -0.010850679 -0.034842968 0.033424925 0.025219565 -0.020791192 -0.05915366 -0.06707552
-0.033167478 -0.072771125 -0.018799834 -0.033679757 -0.035775796 -0.061228137 -0.04268494 -0.056653682
-0.08406356 -0.041803613 -0.116462424 0.023846805 -0.08205936 -0.05217716 -0.017759841 -0.063248746
0.08502494 -0.04120726 -0.0862427 0.030126264 -0.024970733 -0.0363364 -0.12557317 -0.004670301
-0.010041547 -0.060271233 -0.035385754 0.0061242883 -0.053521186 -0.010196093 0.061037853 0.20457725
0.051738445 0.04573704 0.06599908 0.022925017 -0.0044839536 -0.09987653 0.0022018645 0.0012922161
0.042796567 -0.0015552961 -0.013871416 0.023511663 -0.029511292 0.05889944 0.0113969995 0.064123675
0.024634887 -0.050939165 -0.058169737 0.016795596 0.022540143 -0.019511564 0.06509113 -0.020210057
-0.04007719 -0.0033218875 0.049510412 -0.04054792 0.052716635 -0.040039368 -0.038144585 -0.121254
-0.013170643 0.04321934 0.03539144 0.0042118514 -0.025176754 0.035278544 0.023519473 -0.04519973
0.003156641 0.0015204758 0.0453485 -0.03398915 0.047293253 -0.020153098 -0.05363205 -0.06782537
-0.054518756 -0.1077819 -0.073280126 0.004321552 0.048795976 0.06690111 -0.06616032 -0.034969214
-0.023297153 -0.08502421 -0.053198736 0.04775003 -0.1357031 -0.060569618 0.0174566 -0.094302796
0.06438563 0.046446245 -0.089983694 -0.01433295 0.018311229 -0.030142706 -0.015853958 -0.06627897
-0.08633179 -0.021914365 -0.0354814 -0.016949672 -0.084700614 -0.087992825 -0.049687833 0.06104797
0.02444426 -0.0011880415 -0.013548277 -0.054148976 -0.047814433 -0.008948053 0.01346262 -0.0036660775
-0.024843186 -0.0434273 -0.05333967 -0.04432694 -0.025073847 -0.05282647 -0.06260151 0.01618625
-0.022638291 0.023014154 -0.014684436 0.016237665 -0.06620717 -0.052679874 -0.036061175 -0.02413183
-0.008613031 0.0672539 -0.023047036 0.018725595 0.057887524 0.030174067 -0.040698085 -0.0015347592
-0.009748168 0.031684548 0.06324638 0.0051736054 -0.10156915 0.030221097 -0.053737573 -0.1875344
-0.052250754 -0.11744128 -0.01245977 0.120193735 0.03303812 0.07499951 0.041671325 -0.065594
-0.058362793 -0.10601365 -0.123760335 -0.09512391 -0.0060413713 -0.01961855 -0.049072027 -0.05359476
-0.021538578 -0.059674714 -0.080450915 -0.09387097 -0.11570706 -0.07835266 -0.044938095 -0.02954739
-0.13171013 -0.17750558 -0.10589234 -0.060650367 -0.08989757 -0.019068267 0.19081478 0.15871738
0.1337557 0.17400797 -0.03408929 -0.06413417 0.039659966 -0.04829466 -0.04450549 0.020566363
-0.025421564 0.01392422 -0.11742163 -0.04608511 -0.16369814 -0.05618567 -0.051359396 -0.061198067
-0.025380777 -0.019879265 -0.030424245 -0.10986923 -0.08959412 -0.097787395 -0.038645256 -0.014729542
0.00084537524 -0.024702078 -0.03144781 -0.013709703 -0.048401 -0.11104857 -0.09851888 -0.085995
-0.12518765 -0.08943215 0.056909434 0.034848474 -0.002081681 -0.05757804 -0.004124121 -0.020533193
-0.115034126 -0.080602966 -0.10399133 -0.041138563 -0.0008546799 -0.03260155 -0.06975659 -0.056225624
-0.074536026 -0.08104597 -0.04681379 -0.12959702 0.02403419 0.12062207 0.022544738 -0.037591062
00000000: 601a 173d a243 47bc 473e 703c 7783 36bc
00000010: bddd 63bc dc20 80bd 0d1d a1bd 6792 cfbd
00000020: dea3 21be 0cc7 31bc 80b7 0ebd 93e8 083d
00000030: 4399 ce3c 4a52 aabc 1c4b 72bd e45e 89bd
00000040: 9fda 07bd 0709 95bd 1c02 9abc c9f3 09bd
00000050: a489 12bd 5bca 7abd 67d6 2ebd b10d 68bd
00000060: 8429 acbd 443a 2bbd da83 eebd 605a c33c
00000070: bd0e a8bd b8b7 55bd 167d 91bc 8f88 81bd
00000080: 8e21 ae3d f2c8 28bd 03a0 b0bd 5bcb f63c
00000090: 6c8f ccbc 7ad5 14bd 4196 00be 5309 99bb
000000a0: 4d85 24bc f8de 76bd a7f0 10bd 41ae c83b
000000b0: 0839 5bbd 830d 27bc d402 7a3d b37c 513e
000000c0: b1eb 533d c356 3b3d 872a 873d 3fcd bb3c
000000d0: 21ee 92bb 118c ccbd 284d 103b 945f a93a
000000e0: 744b 2f3d 14db cbba f044 63bc 889b c03c
000000f0: aac1 f1bc 8a40 713d 7bba 3a3c 4653 833d
00000100: 1acf c93c 96a5 50bd 6443 6ebd eb96 893c
00000110: 1ba6 b83c b7d6 9fbc 804e 853d 908f a5bc
00000120: fb27 24bd 06b4 59bb 6ecb 4a3d 9315 26bd
00000130: 66ed 573d 5200 24bd 7f3d 1cbd 0454 f8bd
00000140: aec9 57bc c306 313d 9df6 103d 9203 8a3b
00000150: 7b3f cebc 3c80 103d e9ab c03c 5a23 39bd
00000160: a6df 4e3b b44a c73a 59bf 393d 3538 0bbd
00000170: 92b6 413d 1c18 a5bc 48ad 5bbd 07e8 8abd
00000180: 0f4f 5fbd c2bc dcbd e413 96bd ce9b 8d3b
00000190: 4ade 473d 7303 893d 107f 87bd e13b 0fbd
000001a0: acd9 bebc 2c21 aebd ebe6 59bd 8995 433d
000001b0: c1f5 0abe d917 78bd 2501 8f3c d321 c1bd
000001c0: 9ddc 833d 6b3e 3e3d 5f49 b8bd c0d4 6abc
000001d0: 6e01 963c d6ed f6bc 29e0 81bc 45bd 87bd
000001e0: b9ce b0bd c185 b3bc f254 11bd 0ada 8abc
000001f0: 8477 adbd 9535 b4bd 7885 4bbd 700d 7a3d
00000200: 543f c83c 0fb8 9bba 98f9 5dbc 51cb 5dbd
00000210: 11d9 43bd db9a 12bc 5292 5c3c 9342 70bb
00000220: f083 cbbc d3e0 31bd b37a 5abd 2a90 35bd
00000230: ab67 cdbc 9260 58bd 3835 80bd 0799 843c
00000240: f073 b9bc 2e88 bc3c fd96 70bc da04 853c
00000250: a097 87bd dac6 57bd e2b4 13bd 1eb0 c5bc
00000260: ac1d 0dbc 6abc 893d 23cd bcbc 6b66 993c
00000270: 781b 6d3d 9b2f f73c 09b3 26bd f929 c9ba
00000280: c8b6 1fbc a8c7 013d 5187 813d 5987 a93b
00000290: 7d03 d0bd 3c92 f73c ee1b 5cbd 0509 40be
000002a0: e304 56bd 0e85 f0bd 1024 4cbc 2228 f63d
000002b0: fb52 073d 5899 993d 8daf 2a3d 2656 86bd
000002c0: d30d 6fbd af1d d9bd 0f76 fdbd 53d0 c2bd
000002d0: b2f6 c5bb 15b7 a0bc c0ff 48bd 2e86 5bbd
000002e0: ac71 b0bc 796d 74bd 73c3 a4bd 6c3f c0bd
000002f0: d3f7 ecbd 5c77 a0bd 0211 38bd 5e0d f2bc
00000300: 05df 06be 06c4 35be 15de d8bd 856c 78bd
00000310: 381c b8bd 0e35 9cbc f364 433e cf86 223e
00000320: 41f7 083e 252f 323e 36a1 0bbd c758 83bd
00000330: 7d72 223d 9fd0 45bd 644b 36bd ca7a a83c
00000340: e240 d0bc 6922 643c c07a f0bd bec3 3cbd
00000350: 7ca0 27be f222 66bd 3b5e 52bd d3aa 7abd
00000360: 59eb cfbc d7d9 a2bc 443c f9bc 1e03 e1bd
00000370: 1f7d b7bd c244 c8bd 7d4a 1ebd 2d54 71bc
00000380: 2c9c 5d3a 035c cabc 6bcf 00bd aa9e 60bc
00000390: 2140 46bd 6f6d e3bd 44c4 c9bd 261e b0bd
000003a0: 3131 00be 3428 b7bd de19 693d 46bd 0e3d
000003b0: d06c 08bb f3d6 6bbd a223 87bb 3a35 a8bc
000003c0: 0397 ebbd 2b13 a5bd 68f9 d4bd e980 28bd
000003d0: 990c 60ba 3489 05bd 8bdc 8ebd d74c 66bd
000003e0: 58a6 98bd 6efb a5bd d1bf 3fbd 15b5 04be
000003f0: 5ae3 c43c b408 f73d beaf b83c 16f9 19bd

body.block3.conv.bias f4 [32]
-0.0053383633 0.030593503 -0.021888224 0.028146425 0.03694664 -0.027278608 0.024116796 0.011981025
-0.05725585 -0.055255964 -0.020872157 0.030798433 -0.01469344 -0.04017292 -0.04459912 0.012831523
-0.047309242 -0.043545965 -0.070248306 0.005046743 -0.053532433 -0.045902077 -0.055180628 0.05040718
0.057617977 -0.017176595 0.010830116 -0.012361897 -0.01743001 0.00096344226 -0.06112726 -0.002924381
00000000: 70ed aebb 3a9f fa3c ef4e b3bc 5593 e63c
00000010: 5c55 173d 6377 dfbc 9690 c53c 104c 443c
00000020: 1c85 6abd 1454 62bd 16fc aabc ff4c fc3c
00000030: c1bc 70bc 5c8c 24bd 91ad 36bd 4f3b 523c
00000040: 56c7 41bd 415d 32bd 58de 8fbd 265f a53b
00000050: d344 5bbd d103 3cbd 1505 62bd c277 4e3d
00000060: d400 6c3d eeb5 8cbc cd70 313c 8e89 4abc
00000070: 61c9 8ebc 848f 7c3a 9460 7abd f9a6 3fbb

body.block3.norm.weight f4 [32]
0.6847681 0.7696486 0.8476074 0.5831498 0.713981 0.5691438 0.6546037 0.60429966
0.4675075 0.78363085 0.6448781 0.49324375 0.72325337 0.72612906 0.35552475 0.66264564
0.6695977 0.60897297 0.69231176 0.767062 0.69029224 0.5826238 0.67479616 0.52970517
0.64086694 0.5783875 0.69535804 0.6386139 0.68784606 0.6766264 0.7670173 0.6882064
00000000: f64c 2f3f b107 453f ccfc 583f 4e49 153f
00000010: 75c7 363f 68b3 113f 1c94 273f 62b3 1a3f
00000020: 255d ef3e 089c 483f bb16 253f 728a fc3e
00000030: 2227 393f 98e3 393f 5707 b63e 25a3 293f
00000040: c16a 2b3f a7e5 1b3f 583b 313f 2d5e 443f
00000050: feb6 303f d526 153f 71bf 2c3f c29a 073f
00000060: db0f 243f 3411 143f fc02 323f 337c 233f
00000070: ae16 303f 6337 2d3f 3f5b 443f 4b2e 303f

body.block3.norm.bias f4 [32]
-0.26406735 -0.21509714 -0.22066349 -0.23225787 -0.22058481 -0.20303962 -0.1650125 -0.18896747
-0.17778549 -0.20939134 -0.2008591 -0.1359128 -0.19150668 -0.2196587 -0.21066882 -0.2860948
-0.1861361 -0.2037884 -0.20312531 -0.21244974 -0.21260765 -0.24152762 -0.2753067 -0.1836324
-0.21922746 -0.24374953 -0.3617768 -0.25035572 -0.2398805 -0.1344243 -0.24704996 -0.1998693
00000000: d633 87be 6d42 5cbe 9cf5 61be 02d5 6dbe
00000010: fce0 61be 9ee9 4fbe 09f9 28be b080 41be
00000020: 660d 36be af6a 56be 02ae 4dbe ba2c 0bbe
00000030: 541a 44be 36ee 60be 91b9 57be 057b 92be
00000040: 769a 3ebe e8ad 50be 1500 50be 6d8c 59be
00000050: d2b5 59be 0453 77be 00f5 8cbe 220a 3cbe
00000060: 2a7d 60be 7a99 79be cf3a b9be a02e 80be
00000070: 3ca3 75be 86a6 09be aafa 7cbe 8aaa 4cbe

body.block3.norm.running_mean f4 [32]
-0.5789306 -0.12620173 -0.21483903 0.077804044 -0.5394954 0.19707495 -0.6649328 -0.26785475
-0.042954594 -0.42218104 0.14275782 0.13844667 -0.0001420313 -0.2591745 -0.75415826 -0.10899089
0.91949296 -0.2579821 -0.022026965 -0.5686429 -0.4837484 -0.18906914 -0.10146451 -0.9287326
-0.32113895 -1.0383159 0.27572653 -0.39108515 -0.48043805 0.21447189 -0.7615225 -0.011326839
00000000: cc34 14bf 073b 01be c3fe 5bbe ba57 9f3d
00000010: 5f1c 0abf 04ce 493e 0939 2abf 4224 89be
00000020: 28f1 2fbd 1d28 d8be 1b2f 123e f7c4 0d3e
00000030: 3dee 14b9 85b2 84be 8410 41bf 9e36 dfbd
00000040: e463 6b3f 3b16 84be e571 b4bc 9592 11bf
00000050: dfad f7be 579b 41be a0cc cfbd 6bc1 6dbf
00000060: 536c a4be 89e7 84bf 072c 8d3e 503c c8be
00000070: fafb f5be 859e 5b3e 23f3 42bf 3594 39bc

body.block3.norm.running_var f4 [32]
4.4333057 5.966895 3.4460046 2.5167322 8.379025 1.1593004 3.5854297 3.8317277
2.6606731 2.1005208 4.972567 5.070127 4.4440036 3.8926632 0.64834505 6.4356265
5.110434 4.4617515 8.56881 5.1662116 7.838229 1.9111071 8.345405 2.7389872
6.6653714 1.9174472 9.724992 6.2563605 7.16089 6.108161 7.020777 2.467042
00000000: a4dd 8d40 cef0 be40 578b 5c40 2412 2140
00000010: 7d10 0641 f563 943f ae77 6540 073b 7540
00000020: 7848 2a40 ef6e 0640 451f 9f40 7b3e a240
00000030: 4735 8e40 6521 7940 f1f9 253f a7f0 cd40
00000040: ad88 a340 abc6 8e40 d919 0941 9b51 a540
00000050: c6d2 fa40 289f f43f c786 0541 914b 2f40
00000060: b94a d540 e96e f53f 9199 1b41 1b34 c840
00000070: 0326 e540 0e76 c340 35aa e040 04e4 1d40

tail.0.weight f4 [3, 32, 3, 3]
0.027509084 0.016313544 0.016290167 0.0076131863 0.037088037 -0.07733071 -0.006725771 -0.015300124
-0.047765214 -0.021127185 -0.112168245 -0.035858765 -0.02813641 0.059903886 -0.07367486 -0.022340259
0.07268735 -0.024118358 -0.016141681 -0.004164222 0.017598461 0.21732138 -0.09410353 0.031310942
-0.09923251 0.024119725 0.019024463 0.015196686 -0.0019238213 0.0062653064 -0.0057365517 -0.01616334
-0.0041328818 -0.057221245 0.027091792 0.0018968834 0.00967626 0.050496604 -0.023803245 0.026940066
0.037999194 0.03397875 -0.009701952 0.06556535 0.051253162 0.074451715 0.011209313 0.028315794
-0.05739879 0.029316094 -0.009167832 0.024788486 -0.061801672 -0.014053213 0.01044901 -0.044322304
-0.017060606 0.016447714 -0.017509276 -0.006910971 0.0010998981 0.024954546 -0.031848013 -0.011506897
0.051758766 -0.0067998036 0.041717023 0.00966255 -0.084903926 -0.00988078 0.039164264 0.1259761
0.045719426 -0.03177141 -0.032301486 0.041495215 -0.017720481 0.012285902 0.012916797 0.07100921
-0.056832723 -0.023808941 -0.007281682 -0.037201386 0.026250161 -0.09109854 0.015262404 -0.017117335
-0.034797344 0.033694535 0.057716936 0.004109078 -0.022840712 0.0020647636 -0.030608194 -0.015556027
-0.03771975 0.08226427 -0.071831636 0.02007125 0.005272148 0.045710623 0.011413039 -0.028591389
0.07274105 -0.007880262 -0.037583467 -0.02906546 -0.076580584 -0.017014528 0.08970238 0.038780868
0.019587241 0.009402897 0.040676247 -0.023341307 -0.021617044 0.023025557 -0.013006066 0.045943733
0.025999209 -0.13467212 0.056102213 0.0235892 0.017129594 0.03135251 0.008462887 -0.0219609
-0.027012924 0.0015164361 -0.0296632 -0.001050001 -0.00878358 -0.03120867 0.018209973 -0.07377868
-0.058201358 0.034702037 0.015153122 -0.008897995 -0.017850665 -0.07131701 -0.086150676 -0.017351586
-0.018598428 -0.015719686 0.087349385 -0.03512527 0.044217292 -0.021015571 -0.03816885 0.034695566
-0.09515103 -0.014066554 0.052014414 -0.0026722138 -0.042510465 0.0020869838 0.011536752 0.0055447943
0.026256178 -0.009647881 0.0090756165 -0.015737407 0.0008703904 0.004957464 0.021347117 0.074179985
0.0108345235 -0.014203789 -0.013926003 -0.04865357 0.03178014 -0.012868006 -0.041905377 -0.0038931938
0.0018157454 0.061908536 0.008101939 0.02820026 -0.023150342 -0.036317594 -0.030587183 0.065363534
0.016695471 0.012294387 0.015132342 -0.0078056934 -0.02175685 -0.0065607526 -0.0015459397 0.04511686
-0.009132591 -0.008524226 0.040962055 0.06590459 0.018177036 -0.07770601 -0.03318936 0.01810403
0.053918086 0.031455066 -0.04098232 -0.03388737 -0.011252362 0.015786111 -0.012262871 -0.008454135
5.963505e-05 0.0024902609 -0.036058027 0.025580369 0.045242924 -0.019352918 0.049698003 -0.01200665
-0.011540877 -0.03589002 0.018040491 -0.019603288 -0.045432948 0.011538295 0.020607928 0.017127333
-0.02989645 -0.008685226 0.022432402 -0.019364892 0.012560874 -0.02293622 0.049154665 0.017757695
0.004644773 0.017915566 0.031187557 0.01460938 -0.05176331 -0.057926852 -0.028879968 -0.048810992
-0.09581351 -0.061219774 -0.0765321 0.015072874 -0.041638434 0.0057332353 0.010272549 0.0018401243
-0.039846018 0.0546254 -0.011355154 0.01629228 0.058719914 0.05138805 0.13391404 -0.011806056
00000000: bb5a e13c fba3 853c f572 853c 0978 f93b
00000010: a0e9 173d 905f 9ebd db63 dcbb 5fad 7abc
00000020: 75a5 43bd eb12 adbc 77b8 e5bd a4e0 12bd
00000030: 547e e6bc c75d 753d d8e2 96bd eb02 b7bc
00000040: 1bdd 943d dd93 c5bc 8f3b 84bc 0774 88bb
00000050: a62a 903c 7f89 5e3e 5ab9 c0bd e73f 003d
00000060: 6a3a cbbd bb96 c53c 31d9 9b3c 85fb 783c
00000070: bb28 fcba 334d cd3b aff9 bbbb fb68 84bc
00000080: 206d 87bb d360 6abd 9bef dd3c d8a0 f83a
00000090: 2d89 1e3c 87d5 4e3d 06ff c2bc 6ab1 dc3c
000000a0: 0ba5 1b3d 4d2d 0b3d f0f4 1ebc 2047 863d
000000b0: d6ee 513d 247a 983d 44a7 373c 86f6 e73c
000000c0: fe1a 6bbd 4e28 f03c ad34 16bc 3911 cb3c
000000d0: c023 7dbd 733f 66bc 5332 2b3c 4e8b 35bd
000000e0: afc2 8bbc 5bbd 863c 9d6f 8fbc 6d75 e2bb
000000f0: 752a 903a 7a6d cc3c 1073 02bd 6d87 3cbc
00000100: 0001 543d e3d0 debb 78df 2a3d ac4f 1e3c
00000110: 1ce2 adbd ffe2 21bc b56a 203d e1ff 003e
00000120: 4b44 3b3d bd22 02bd 904e 04bd e3f6 293d
00000130: 8b2a 91bc cf4a 493c f9a0 533c 476d 913d
00000140: 6ec9 68bd f80a c3bc 2d9b eebb 7b60 18bd
00000150: 940a d73c df91 babd 2a0f 7a3c a739 8cbc
00000160: a987 0ebd 4803 0a3d 9868 6c3d 72a5 863b
00000170: 721c bbbc fc50 073b 09be fabc b5de 7ebc
00000180: 0680 1abd 2b7a a83d 771c 93bd 766c a43c
00000190: fcc1 ac3b 103b 3b3d c1fd 3a3c 7d38 eabc
000001a0: 42f9 943d 371c 01bc 1ff1 19bd b01a eebc
000001b0: 48d6 9cbd 0d62 8bbc e2b5 b73d b0d8 1e3d
000001c0: 6c75 a03c 9c0e 1a3c 239c 263d 4536 bfbc
000001d0: 3a16 b1bc 18a0 bc3c 6517 55bc 7f2f 3c3d
000001e0: 4bfc d43c 7de7 09be 6fcb 653d 233e c13c
000001f0: 5d53 8c3c 7d6b 003d eca7 0a3c 58e7 b3bc
00000200: 354a ddbc 27c3 c63a 3d00 f3bc 30a0 89ba
00000210: 01e9 0fbc 53a9 ffbc 152d 953c 4719 97bd
00000220: 8c64 6ebd b923 0e3d cd44 783c e5c8 11bc
00000230: 8f3b 92bc a70e 92bd c46f b0bd ea24 8ebc
00000240: bb5b 98bc 92c6 80bc 3ce4 b23d 84df 0fbd
00000250: 311d 353d d928 acbc f156 1cbd f01c 0e3d
00000260: 8bde c2bd 6777 66bc 110d 553d 4f20 2fbb
00000270: 741f 2ebd c7c5 083b a504 3d3c 1bb1 b53b
00000280: 3217 d73c 2512 1ebc e5b1 143c bceb 80bc
00000290: e92a 643a 3972 a23b 26e0 ae3c adeb 973d
000002a0: 4983 313c 02b7 68bc e429 64bc f748 47bd
000002b0: e42b 023d 54d4 52bc f9a4 2bbd f424 7fbb
000002c0: 4efe ed3a ce93 7d3d ffbd 043c 3b04 e73c
000002d0: c9a5 bdbc c2c1 14bd f991 fabc 51dd 853d
000002e0: f1c4 883c 666e 493c a5ed 773c e7c6 ffbb
000002f0: 6c3b b2bc 95fb d6bb 21a1 caba 75cc 383d
00000300: dda0 15bc 32a9 0bbc d4c7 273d fcf8 863d
00000310: 02e8 943c 5424 9fbd 91f1 07bd e74e 943c
00000320: 36d9 5c3d 07d7 003d 14dd 27bd 7ccd 0abd
00000330: d45b 38bc e051 813c 35ea 48bc 3683 0abc
00000340: a620 7a38 a533 233b 95b1 13bd ec8d d13c
00000350: a550 393d 038a 9ebc 2290 4b3d 8ab7 44bc
00000360: f215 3dbc 6a01 13bd a7c9 933c 1397 a0bc
00000370: e617 3abd 1e0b 3d3c f5d1 a83c 9f4e 8c3c
00000380: 66e9 f4bc 7a4c 0ebc 28c4 b73c 1fa3 9ebc
00000390: 20cc 4d3c bde4 bbbc 6756 493d 9678 913c
000003a0: 2e33 983b aac3 923c 0c7d ff3c 2e5c 6f3c
000003b0: c405 54bd b544 6dbd af95 ecbc 09ee 47bd
000003c0: e039 c4bd 96c1 7abd ddbc 9cbd 37f4 763c
000003d0: 108d 2abd dddd bb3b 324e 283c 5330 f13a
000003e0: 9435 23bd e2be 5f3d f80a 3abc 6377 853c
000003f0: 4b84 703d 477c 523d c320 093e 306e 41bc

tail.0.bias f4 [3]
-0.0036510807 -0.00073256256 0.0008002904
00000000: f846 6fbb 7109 40ba 94ca 513a
