code/Output/starry_night_full/pdl_e8000_1px_lr0.0007a20.0_up-conv5_1_W[1.0, 0.75, 0.5, 0.2, 0.2]/0/netG.pth (torch, 130351 bytes, 26 tensors)

head.conv.weight f4 [32, 3, 3, 3]
000000 29 77 c2 3b f6 48 1c 3d 56 2c 1e bc 81 29 81 3c
       0.005934615 0.03815552 -0.009654125 0.01576686
000010 85 a4 d3 bc 51 09 e0 3b 06 45 a2 bb 9e 21 a6 bd
       -0.025835285 0.006837048 -0.004952076 -0.08111881
000020 52 14 d3 3d fa 1f c0 bc aa ef 1c bd 83 2f 49 bc
       0.1030661 -0.023452748 -0.0383145 -0.012279394
000030 72 ea 48 bb 46 4b 88 3c 25 8c ea bc 05 19 39 3d
       -0.0030657318 0.016637456 -0.02863128 0.045189876
000040 83 e9 a1 bd 80 a3 d9 3d 94 61 93 3c f7 16 bc bb
       -0.07905867 0.10626888 0.017990865 -0.0057400423
000050 1f 82 c1 3c 3f 25 3d bc 60 14 f8 3b 06 a0 be 3c
       0.023621617 -0.011544525 0.0075707883 0.023269664
000060 a6 b4 c6 3a 61 28 b4 bd b6 f5 0e 3e a6 84 22 bd
       0.0015160039 -0.08796764 0.13960919 -0.039677285
000070 6b 44 05 3d de 72 d2 bb c0 fe aa bd 21 b3 0d bd
       0.03253595 -0.0064223846 -0.08349371 -0.03459466
000080 e4 b4 90 3c be d0 ce 3d 9b 04 87 bb f6 24 c4 3c
       0.01766438 0.10098408 -0.004120422 0.023943406
000090 be fb 6b bd 8f 32 29 3d 63 13 51 3d a1 c2 78 bd
       -0.057613127 0.041307982 0.05104388 -0.060732488
0000a0 9d 04 82 3c f4 0d 21 3b 4b 27 98 3d 75 d2 a2 bc
       0.01587134 0.0024574967 0.074293695 -0.019875744
0000b0 6f ca b4 3c b0 0a 1a bd ac fb f2 3b 8c ec 9c 3c
       0.022069184 -0.03760785 0.0074152555 0.019155763
0000c0 b3 b7 5d bd f5 1b 5d bc d3 7d 88 bc 34 d1 a4 3d
       -0.054130267 -0.013495435 -0.01666156 0.08047715
0000d0 70 c5 61 bc ec 28 3c 3c b1 3f 74 3c f9 cf cf 3c
       -0.013779983 0.011484366 0.014907763 0.025367724
0000e0 65 6d 1c bd c7 98 ce bb a7 63 10 bd dd 0e 12 3c
       -0.038190264 -0.0063048336 -0.035251286 0.0089146765
0000f0 72 08 6a 3d e7 62 15 bd 9b b9 08 3c c5 d8 62 bc
       0.05713696 -0.036471274 0.008345033 -0.013845627
000100 7d 69 98 3d 7f 1d 5a bd 8e ba 90 3c 5c 1d 8f bd
       0.07441995 -0.053250786 0.017667081 -0.06988022
000110 be 05 45 3c 68 5d 2e 3d bc e4 94 bc 99 80 0b 3c
       0.012025295 0.042569548 -0.018175475 0.008514547
000120 44 61 fd 3a d7 82 c8 3d f6 b8 fb bc f7 9c 1c 3d
       0.0019331356 0.09790581 -0.030727845 0.03823563
000130 b5 f9 89 bd 0b 35 1e 3d 91 97 bd 3c a3 cd a2 bb
       -0.06737081 0.038624804 0.023143562 -0.0049683615
000140 f8 dd 06 bc 09 1f e7 bc fc ff 3b bd c7 34 d7 bd
       -0.008231632 -0.02821304 -0.045898423 -0.10508113
000150 8e cd 60 bc 1c 47 6d bb 66 17 f4 3c 5f cf 7d 3c
       -0.013720883 -0.0036205715 0.029796313 0.015491336
000160 d3 09 a6 3c b0 e1 c7 b8 67 27 a0 bc 98 2b d4 bc
       0.020268356 -9.531097e-05 -0.019550039 -0.025899693
000170 83 69 fd bd b8 3a 92 bc 0a 7b cc 3b 51 53 f7 3c
       -0.123736404 -0.017850265 0.0062402533 0.030191096
000180 e7 06 98 3c 61 10 72 3c a3 cc 40 3d 3b 4d e3 bc
       0.018557979 0.014774413 0.047070157 -0.027746787
000190 4f 15 84 bd 91 30 c2 bd 44 01 ba 3c 17 00 f7 3c
       -0.06449377 -0.094819196 0.022705682 0.03015141
0001a0 1d 5e db 3c b8 a3 9e bc 62 2f a0 bb dc 0f 02 3d
       0.026778275 -0.019365177 -0.004888461 0.031753406
0001b0 a2 50 16 bc 93 78 77 bb b0 ed 10 bd 63 71 3e bd
       -0.009174498 -0.0037761077 -0.035382926 -0.046494853
0001c0 ac ac 52 3c c3 eb 82 3d 44 94 09 bc e5 3c 46 3c
       0.012858551 0.06392624 -0.008397166 0.012099479
0001d0 12 ee b2 bd 6b a5 10 3b 03 09 1c 3c c1 06 74 bc
       -0.087368146 0.0022071253 0.009523633 -0.014894188
0001e0 69 aa 97 3c 88 15 64 bb cb 93 82 3d 16 e9 66 bc
       0.018513875 -0.0034802873 0.063758455 -0.014093658
0001f0 f3 43 e4 bb 48 77 d7 bd ef 36 4b bb b2 97 87 bc
       -0.006966108 -0.10520798 -0.0031008085 -0.016551826
000200 f2 16 82 bc de 4a bd 3c 13 cf e0 ba 4a ae cb 3d
       -0.015880082 0.023106989 -0.0017151557 0.099453524
000210 31 5e 91 3c 01 e4 88 bc af 83 c1 bd de 4b f3 3c
       0.01774511 -0.016710283 -0.09448945 0.029699262
000220 e2 03 bc 3d c9 97 a6 bd 34 cb 9f 3c 68 6f b5 3c
       0.09180428 -0.081344195 0.019506074 0.02214785
000230 89 c8 92 3c 66 95 3c 3d 38 fd fc 3c 2b bc 84 bd
       0.017917888 0.046040915 0.030882463 -0.06481203
000240 40 17 8e bc d1 ae ad 3d c5 15 91 bd 30 d4 9d ba
       -0.01734507 0.08480609 -0.0708423 -0.0012041386
000250 8d 58 57 3c 89 d5 c8 bc eb 58 64 3d 90 c4 cf 3c
       0.013143671 -0.024515884 0.05574886 0.025362283
000260 c5 d7 16 bd c2 af 1d 3d 25 eb 86 3d ae a3 9e bd
       -0.036826868 0.038497694 0.06587819 -0.07746063
000270 3a cc 94 ba 47 a3 0f 3b 07 5a de 3b 12 fc cf 3c
       -0.0011352368 0.002191739 0.0067856344 0.025388751
000280 13 0b d7 bb 85 52 c6 bc 9d 87 0d bd 15 81 68 3d
       -0.0065625994 -0.02420927 -0.03455316 0.056763727
000290 02 b4 23 bc 77 ef 00 3d 13 24 9c bd b7 a7 91 3a
       -0.009991648 0.03147837 -0.07624068 0.0011112605
0002a0 60 d2 93 bc d2 0d 06 3c 6d f9 7a 3c ba 76 25 bd
       -0.01804465 0.008182006 0.015318257 -0.04039643
0002b0 02 62 37 3d 6b 15 67 bd e9 9d ad 3c 01 8a 95 bd
       0.044771202 -0.05641691 0.021193461 -0.07301713
0002c0 8d af 3f bd db 0d b4 bc 0e 9c bb bc 4a b8 15 bc
       -0.046798278 -0.021979263 -0.022901561 -0.009138176
0002d0 32 5a 33 bd 94 60 69 3d 6f 2d 1d bd 1b 4e ac 3c
       -0.04378719 0.05697687 -0.038373407 0.021033337
0002e0 af 34 ba bd 3a e0 ff bc 70 69 7a 3c c3 98 a4 3c
       -0.0909208 -0.03123485 0.015283927 0.020092374
0002f0 d6 51 f6 3b 30 0a da bc 34 b1 b2 3d a2 6c 67 bd
       0.00751708 -0.026616186 0.08725205 -0.056500085
000300 16 f0 08 3b 98 90 ec 3c f9 c0 eb 3a c1 22 ec bb
       0.0020895055 0.028877541 0.0017986587 -0.0072062914
000310 84 72 a5 bc 9f c5 2e bd f7 c0 84 bc b6 1c 16 3e
       -0.020196207 -0.042668935 -0.016205294 0.1465939
000320 ab 94 c1 bc 2d 32 49 3c f6 0a 47 3d 1d d0 04 3c
       -0.02363046 0.012280029 0.048594438 0.008106259
000330 67 85 b4 3b ee c7 96 bc a9 2c 32 bd 44 3c 7f bc
       0.005509067 -0.01840588 -0.043499622 -0.015578333
000340 21 3f f2 3d 62 eb a8 bc a1 2d f2 bb 00 4a 4c 3d
       0.11828447 -0.020620052 -0.0073906933 0.04987526
000350 da b7 94 bc 85 6e 36 3c 09 06 9b 3c 4c a9 0f bd
       -0.018154074 0.011134748 0.018923776 -0.035073563
000360 81 68 d6 3d 7b e5 aa bc 9a 00 72 bd 39 a5 8c 3c
       0.10469151 -0.020861378 -0.059082605 0.017168628
000370 72 3b 2a bd 88 f1 5f bc 38 86 de 3c 84 3c 38 3d
       -0.041560598 -0.013668425 0.02716361 0.044979587
000380 54 03 51 3d 47 cc f8 3d 0c 6b 32 bd 2a 9e ef bc
       0.051028565 0.12148338 -0.04355912 -0.029250223
000390 7b 21 8f 3c 28 1b 51 bd 13 ca aa bb 4b c2 02 3d
       0.01747202 -0.05105129 -0.0052120774 0.031923573
0003a0 93 52 b8 39 ea c9 6b 3c 44 21 cb 3d 10 e0 83 bb
       0.00035156737 0.014391402 0.09918454 -0.004024513
0003b0 e5 13 25 3c f6 4f cb 3c 6f 80 61 bc 42 5b b2 bc
       0.010075544 0.024818402 -0.013763531 -0.02177203
0003c0 7b 86 9e bb af a3 0a bc 51 1d 79 3d dd 48 26 3d
       -0.0048378087 -0.008461877 0.060818974 0.04059683
0003d0 92 a9 39 bd 61 c2 85 3d d3 eb 39 bd c8 9c ca 3c
       -0.04532773 0.065312155 -0.045390915 0.024732962
0003e0 15 2f f6 bb 1d 44 b8 39 f8 d3 62 3c 84 24 aa bb
       -0.007512937 0.00035145963 0.013844483 -0.0051923413
0003f0 9e 11 13 3d b5 ae 57 bd 1c 33 a4 3d ad 49 75 bd
       0.035905473 -0.052656848 0.08017561 -0.059884716

head.conv.bias f4 [32]
000000 1f 71 63 3e 11 45 99 3d 40 2f 34 3e 8d 77 e0 bd
       0.22211121 0.074838765 0.1759615 -0.109603025
000010 cc 33 5e bd ba 21 01 be d4 fc 38 3d ee b8 17 3e
       -0.054248616 -0.12610522 0.04516299 0.14816639
000020 4c a6 d2 bd b6 8f de bc be 16 19 3e 96 00 bb 3d
       -0.10285625 -0.027168136 0.14950082 0.09130971
000030 b3 ec cf 3d c8 52 b7 3d 05 01 71 bb be 40 1b be
       0.10152569 0.08951336 -0.003677429 -0.15161416
000040 7a 48 09 3e 8c 7a 05 bd d4 0c df 3d e7 0e 8c bc
       0.13406554 -0.032587573 0.10891119 -0.01709695
000050 32 c2 24 3e 7b 8e 70 3d 2c c5 a0 3c d9 45 92 3d
       0.16089705 0.05872963 0.019625269 0.07142229
000060 18 13 08 bd 0c 50 8c 3d c4 0e b9 bd 52 7b be bc
       -0.033221334 0.06851205 -0.090360194 -0.023252163
000070 c4 b1 e5 3c 46 43 29 3e e2 49 b2 3d e1 34 cf 3a
       0.028038867 0.16529569 0.08705498 0.0015808606

head.norm.weight f4 [32]
000000 48 60 93 3f b2 4a 80 3f 86 79 71 3f be 31 84 3f
       1.1513758 1.0022795 0.94326055 1.032768
000010 b4 be 87 3f 22 af 77 3f b8 bc 6f 3f 35 b9 74 3f
       1.0605073 0.96751606 0.93647337 0.95595104
000020 d9 f9 82 3f 3c 43 80 3f 2a e6 75 3f 3b d3 7c 3f
       1.0232497 1.0020518 0.9605433 0.9875981
000030 c9 4a 6c 3f f4 10 64 3f 21 61 87 3f c8 d3 6a 3f
       0.92301613 0.8908837 1.0576516 0.917294
000040 1f a3 77 3f 3c 5d 8e 3f c2 44 6d 3f 13 0f 90 3f
       0.9673328 1.1122203 0.9268304 1.12546
000050 29 0e 7b 3f 26 a7 6e 3f af b2 65 3f 7f db 74 3f
       0.9806848 0.932238 0.89725775 0.95647424
000060 67 b4 85 3f 10 94 6c 3f 07 10 61 3f db 03 75 3f
       1.044568 0.92413425 0.8791508 0.9570901
000070 a5 b6 71 3f 0a 8d 82 3f 8e 2b 70 3f d6 a2 62 3f
       0.9441932 1.0199292 0.9381646 0.8852972

head.norm.bias f4 [32]
000000 10 5d e4 bc 95 23 53 bd 1e f9 bd bd 2e c7 2e be
       -0.027876407 -0.051547606 -0.09276031 -0.17068169
000010 ac f5 7a bd aa 1c f2 bd 88 bf 18 be 00 5b 52 be
       -0.061269447 -0.118218735 -0.14916813 -0.20542526
000020 16 76 33 be e2 e8 e7 bd e4 56 5d be a5 27 bf bd
       -0.17525515 -0.11323716 -0.21615177 -0.093337335
000030 6a 8f 87 bd de 4c 5c bd 60 b0 57 be da 51 18 be
       -0.06619151 -0.053784244 -0.21063375 -0.14874974
000040 c3 c5 82 be 45 9f 89 bc 5a 80 40 be 92 db ed bc
       -0.25541505 -0.016799578 -0.18798962 -0.029035363
000050 9b 8a c9 bd f5 57 f2 bd ef 83 38 be 7b 01 08 be
       -0.0984089 -0.11833183 -0.18019079 -0.13281815
000060 fe 40 03 bd 80 c5 56 be 1a c1 e0 bd b0 dc 66 bd
       -0.032044403 -0.20973778 -0.10974331 -0.056362808
000070 90 ac 3f be 97 96 a6 3c 97 6f 26 be e2 5d 8b be
       -0.18718171 0.020335479 -0.16253506 -0.27220064

head.norm.running_mean f4 [32]
000000 b8 99 65 3e e6 15 9b 3d 2d 8b 35 3e e1 d4 e9 bd
       0.2242192 0.07572536 0.17728873 -0.114175566
000010 11 32 68 bd ad 00 fd bd 81 73 25 3d 1d a5 1a 3e
       -0.056688372 -0.123536445 0.040393356 0.15102048
000020 0e 19 c9 bd ce 09 c1 bc 03 ba 1b 3e 22 b6 a6 3d
       -0.09819232 -0.023564246 0.15207677 0.08140208
000030 d6 d8 ce 3d eb d1 b9 3d 7f 35 07 bc 7f 98 17 be
       0.10099952 0.09073242 -0.008252501 -0.14804266
000040 ee be 10 3e 8a 30 b1 bc 7b 00 d7 3d 75 30 9c bc
       0.14135334 -0.02162959 0.104981385 -0.019066075
000050 d4 c6 2e 3e f1 f9 74 3d 17 9f 96 3c 44 eb a4 3d
       0.17068034 0.059808675 0.018386407 0.08052686
000060 15 fb 13 bd b4 05 8f 3d 30 7f bb bd 14 40 ba bc
       -0.036128122 0.0698351 -0.091551185 -0.022735633
000070 c9 13 f8 3c 72 33 25 3e 39 52 a7 3d d9 70 02 3c
       0.030282872 0.16132906 0.081699796 0.007961475

head.norm.running_var f4 [32]
000000 fe 03 e4 3d aa 62 ae 3d c9 40 85 3d cd 33 b4 3d
       0.11133574 0.085149124 0.065064974 0.08798943
000010 6f 74 ab 3d 4b 34 b9 3d bb 7c 92 3d b6 56 d1 3d
       0.08371817 0.09043177 0.07152697 0.10221617
000020 f3 35 c1 3d d3 22 b0 3d f5 2e ae 3d bf bd f4 3d
       0.09434118 0.08600392 0.0850505 0.11950254
000030 f5 01 ab 3d 97 e8 4b 3d 8a 1c bf 3d 0a 1e 8c 3d
       0.08349983 0.04978236 0.09331615 0.06841667
000040 d6 36 bb 3d cb 86 99 3e c1 e7 90 3d 1c ff d5 3d
       0.091413185 0.2998565 0.070754535 0.10449049
000050 f2 a0 27 3e a4 64 c1 3d 86 8b 77 3d db 32 d5 3d
       0.1636999 0.09443024 0.060435794 0.104100905
000060 d0 89 c8 3d a3 28 88 3d 71 bb 8e 3d 96 c1 6e 3d
       0.09791911 0.06648376 0.06969345 0.058290087
000070 b5 25 6b 3d 92 ec d8 3d 7e 9b 8c 3d 6a 79 a7 3d
       0.057409007 0.10591997 0.06865595 0.08177455

body.block1.conv.weight f4 [32, 32, 3, 3]
000000 ea c0 24 bc ec 17 58 3c cf 4b d9 bc 78 7f 16 3c
       -0.01005576 0.013189297 -0.026525406 0.009185664
000010 bc b4 8c 3d c7 bf ac bc ee 21 a6 3d 29 97 9b 3c
       0.0687041 -0.02108754 0.0811194 0.018992977
000020 4a 42 06 be f2 e7 4e 3d 2a cd c9 bc b0 ef d2 3c
       -0.13111225 0.05051417 -0.024633963 0.025749058
000030 df 6c 89 3d e7 e6 48 bd bd af a7 3c 4e 1a df 3c
       0.06710219 -0.04904833 0.02046954 0.027234223
000040 d9 71 36 bd 86 6d 6c bd 13 05 78 bd 75 6a 95 3c
       -0.044542167 -0.057721637 -0.060551714 0.01823924
000050 9b 45 72 3d 96 d1 bf 3c c0 c3 62 3b 51 42 89 bd
       0.059148412 0.023415368 0.003460154 -0.06702102
000060 06 85 f5 3c a0 ad 21 bb e8 c7 09 bc 2a 59 88 3d
       0.029970657 -0.002467014 -0.008409478 0.06657632
000070 7b f1 40 3d 5b ac 53 3d 5f cb e2 3c ac 50 8c 3c
       0.047105294 0.051678043 0.027684866 0.017128311
000080 28 10 12 3d 94 5d 87 3d 1d e3 1c bd 8d ba 2d 3c
       0.03565994 0.066096455 -0.03830253 0.010603559
000090 e0 ae 3d 3d 06 5c 3f bc 29 2f f1 bc 91 47 2f 3d
       0.046309352 -0.011679655 -0.029441433 0.04279286
0000a0 4d c6 87 3b 75 cc 3d 3d 67 d5 ac 3c c7 e6 77 3d
       0.0041435123 0.046337564 0.021097852 0.06052282
0000b0 08 4c 54 3d 41 bf 53 3d 70 44 9f bc 06 6c cc 3c
       0.05183032 0.051696066 -0.019441813 0.024953853
0000c0 70 b3 37 3d 37 24 e1 3c 2b a7 53 bc 5b d3 99 3c
       0.04484886 0.027483089 -0.012918274 0.01877754
0000d0 62 ca 87 3c 35 24 a7 bc 01 1d 87 bb 2f ec 88 3b
       0.016575996 -0.020403007 -0.0041233306 0.004178546
0000e0 4e ad 67 3d fe eb 0e bd de 3f 1d 3d c0 4b 86 bc
       0.05656176 -0.03489303 0.038390987 -0.016393542
0000f0 66 94 a5 3c 34 89 8f 3c e3 80 ec 3c f9 f8 a1 3d
       0.020212363 0.017521478 0.028870052 0.07908816
000100 c0 05 d1 3c bd 5e ad bd b4 24 d5 3c a6 c9 ab 3d
       0.025515437 -0.084653355 0.026018478 0.08388071
000110 f2 d1 80 3c c9 d1 1f 3c 6c 98 71 bb 23 e1 d8 3c
       0.01572511 0.0097546065 -0.0036864532 0.026474541
000120 01 c4 ea bc 63 d5 ed 3c 10 f2 64 ba 36 d6 42 3c
       -0.028657915 0.029032415 -0.000873358 0.011891892
000130 9e 0d 84 bd b3 40 e0 bc a9 9f c2 bc 3e 0c 33 3b
       -0.0644791 -0.027374601 -0.023757773 0.002732053
000140 5c 80 9a 3b 7d f1 1f bc 80 89 0d bd 3d 3f dd 3c
       0.0047150087 -0.009762165 -0.03455496 0.027007693
000150 2c 53 5a 3d 35 27 d8 3c 44 ae a3 bc 80 62 82 3b
       0.053301975 0.026385883 -0.019980557 0.0039790273
000160 fa 56 3f 3c d6 38 d1 bb d0 e6 0c 3d 6e 29 03 bd
       0.011678452 -0.006384949 0.034399807 -0.032021932
000170 c9 95 c8 bc 8f 6b 5f bb 4a c6 82 3c 59 74 f3 3b
       -0.024485486 -0.003409121 0.015963692 0.007429641
000180 b4 31 48 bc 72 84 22 bd f5 1e ab bb 34 5b 38 3c
       -0.012218881 -0.03967709 -0.005222196 0.011252213
000190 8e 1c 9e 3c 17 61 bf bc 78 e1 81 bc 3f 3b 08 bc
       0.019300725 -0.023361726 -0.015854582 -0.008314907
0001a0 b8 61 ec bc 8f 1e 32 3d 02 46 92 3d 5f 11 0e 3d
       -0.02885519 0.043486174 0.07142259 0.034684535
0001b0 a0 1b 29 bd ec 06 ea bb 31 dd a9 3d c6 be ea 3c
       -0.04128611 -0.0071419384 0.08294142 0.028655421
0001c0 07 73 5d 3d 83 a4 96 3c 2f 24 78 3d 80 05 87 bb
       0.054064777 0.018388992 0.060581382 -0.0041205287
0001d0 17 28 53 bd 7a 91 3a 3d 44 16 1e 3d df dc 84 bc
       -0.051551905 0.045548894 0.038595453 -0.0162186
0001e0 41 48 25 3d b9 ab 00 3d 6d d0 0d 3d a3 84 92 ba
       0.04035211 0.031413767 0.0346226 -0.0011178445
0001f0 92 41 21 3d 06 b1 52 3d 13 7b f8 bb 26 1f 40 bd
       0.039369173 0.051438354 -0.007583031 -0.046904705
000200 63 ed ba 3c ff 57 89 3c fd 05 80 3a 9a 00 17 bc
       0.022818273 0.016765593 0.000976741 -0.009216452
000210 45 ba 34 bd 3b b9 97 bc 1b 63 01 3c 8f 06 ca bc
       -0.044122953 -0.018520942 0.007897164 -0.02466133
000220 5c 98 ee 3c 63 a4 aa 3b 7d e2 5d 3d c1 5d 19 3d
       0.029125385 0.0052075847 0.054171074 0.037442926
000230 f8 ee de bc e5 dd 06 3d 1c 33 22 bc d8 fa 31 3d
       -0.027213559 0.03292646 -0.009899881 0.043452114
000240 53 af e5 3c 5b 61 1e bd 50 51 7e 3c 34 7d 84 3c
       0.028037703 -0.038667064 0.015522316 0.016172983
000250 a3 c9 c7 3c 10 87 c6 bc 91 8f 09 bd 66 89 01 3d
       0.02438814 -0.024234325 -0.03358418 0.031625174
000260 8b e2 86 3d 43 10 49 3d 98 0f 03 3d 5f e1 10 3c
       0.065861784 0.049087774 0.031997293 0.008842795
000270 8d 14 82 bd 7f 9a 71 bc c4 67 f2 b8 10 52 47 3d
       -0.06351576 -0.014746307 -0.00011558787 0.048662245
000280 8c 1c 6a 3d ab cf a3 3b 9d 37 18 bd 10 b3 e4 3c
       0.05715613 0.004999121 -0.037162412 0.027917415
000290 3a 6e 5d 3d f4 58 f6 bc 1b 66 89 3d 9a f7 da bc
       0.0540602 -0.030071713 0.06708928 -0.026729394
0002a0 33 6b 84 bd 97 f1 00 3d b1 80 1c bd aa 30 6a bc
       -0.06465759 0.031480398 -0.038208667 -0.014293829
0002b0 d5 8c 9d bc ff ae 70 bc dc bc 82 bb 22 4b b0 bc
       -0.019232193 -0.01469016 -0.003989799 -0.021520201
0002c0 37 01 61 bd 3a f9 06 3e 20 ab 81 3d b8 e1 8e 3d
       -0.0549328 0.1318101 0.06331468 0.06976646
0002d0 a6 25 c9 3d fb a6 39 bd 26 e2 73 3d 99 81 8c 3d
       0.09821634 -0.04532526 0.059541844 0.06860656
0002e0 c9 db 1b 3d 15 cf 17 3b 6b 91 a4 3d 7e cd 1f 3c
       0.0380514 0.0023164202 0.08035549 0.009753583
0002f0 92 95 82 bd c6 a4 c0 3c ba 22 af bc e8 85 5c bc
       -0.063761845 0.02351607 -0.021378864 -0.01345966
000300 b3 83 f7 bb 7d d1 6a bb 71 70 03 3d 8d e8 54 3d
       -0.0075535416 -0.003583043 0.032089654 0.05197959
000310 48 46 1b bd df 33 50 3d f6 b8 6d 3d 23 59 03 ba
       -0.037908822 0.050830718 0.05803772 -0.0005010536
000320 8e 17 f3 bc a3 e9 09 bc 3d 37 46 3d 1d 1d be 3c
       -0.029674318 -0.00841752 0.048392523 0.023207242
000330 e3 3b b2 3d 0b 96 42 3d 3d 42 f1 bc 02 d3 a8 3d
       0.08702829 0.047506373 -0.02945053 0.082433715
000340 06 7f 3e 3c 8c ca 0f bd 9e f0 78 3d e6 37 61 3b
       0.011626964 -0.035105273 0.060776345 0.0034365593
000350 ce 40 99 bd 2a 6f 17 bd a5 91 8d 3c 80 5f a6 3c
       -0.07483064 -0.03697125 0.017281363 0.02030921
000360 27 02 9f 3c d1 58 be 3c 3e 58 19 3d 9d c1 88 3d
       0.019410206 0.02323571 0.03743767 0.06677554
000370 7a c2 09 bc ce 5e b9 3a 71 e7 13 3d 8b d9 d4 bd
       -0.008408183 0.0014142634 0.03610939 -0.103930555
000380 51 66 4c 3d b6 c2 8d 3c 5d ec 03 bc 90 aa 37 bd
       0.049902264 0.01730476 -0.008051959 -0.044840395
000390 10 e1 02 3c a3 3a 8b 3c 38 6c 19 bb c6 85 19 3d
       0.007988229 0.016995734 -0.002341045 0.037481092
0003a0 0f 0c 80 3b 86 8b 34 bd 3d 68 83 3d 82 7e b5 bc
       0.0039076875 -0.044078372 0.06416366 -0.02215505
0003b0 22 29 4f bb 9b a4 68 3d 9e fe 9d 3c 9c 13 eb 3c
       -0.003161021 0.056797605 0.01928645 0.028695874
0003c0 89 c2 28 bd ee d9 a6 3d ee 46 a9 3c 0d 66 a9 bc
       -0.04120115 0.081470355 0.020663705 -0.020678544
0003d0 f1 3f 8e bd b6 ea ef bc 3c f9 e3 3c cd f4 00 3d
       -0.069457896 -0.029286724 0.027828805 0.03148346
0003e0 ef da e3 bc 95 fe 67 3d 75 4e d2 3c c9 ef 12 be
       -0.027814357 0.056639273 0.025672177 -0.14349283
0003f0 94 8d 4f 3c c3 5d 8f bb 3f af a3 bc a6 5b 4f 3c
       0.012668032 -0.004375191 -0.019981025 0.012656128

body.block1.conv.bias f4 [32]
000000 d8 ee 86 3c f7 3e 04 3d 64 54 8f 3d e9 bc ac bc
       0.016471311 0.03228661 0.06998518 -0.021086173
000010 8b a1 5e bd 44 12 32 3d b9 70 de 3b 1d 3b 94 bb
       -0.054353278 0.04347445 0.00678834 -0.0045236484
000020 20 ef 3b bd 65 c0 70 3d c7 b9 27 3d 10 14 38 bd
       -0.045882344 0.05877723 0.040948655 -0.044941008
000030 4b 79 c7 bc 20 90 79 bc ef 5f 0f 3d 5f 10 97 bc
       -0.02434983 -0.015232116 0.0350036 -0.018440424
000040 0b f9 4d 3d 2c 00 4f bd 25 3d 50 3c e0 0e 5c bd
       0.050286334 -0.050537273 0.0127098905 -0.053725123
000050 59 22 64 3d 79 a2 80 bd 0e 7b 44 bd 01 21 cc bc
       0.05569682 -0.06280989 -0.047968917 -0.024918081
000060 50 e1 ff 3c 02 85 2a ba 26 b2 2f bc 41 0a be bc
       0.031235367 -0.0006504805 -0.010723626 -0.023198249
000070 e8 85 0a bc 73 a9 81 3c 12 f8 93 bc b5 8a 4f 3c
       -0.008454777 0.01582787 -0.018062625 0.012667348

body.block1.norm.weight f4 [32]
000000 12 66 7a 3f e8 f6 65 3f 1f f4 7b 3f 2a d5 6e 3f
       0.97811997 0.89829874 0.98419374 0.9329401
000010 58 5b 76 3f 87 a8 77 3f 33 6b 71 3f 7c 4e 70 3f
       0.9623313 0.9674153 0.943042 0.9386976
000020 56 fd 75 3f ce 60 7e 3f 34 d6 70 3f 25 53 6c 3f
       0.96089685 0.9936646 0.9407685 0.9231437
000030 9d e9 73 3f 7d de 77 3f fa 25 87 3f e2 e0 6d 3f
       0.9527834 0.96823865 1.0558465 0.9292127
000040 16 c7 77 3f be 35 8a 3f 9c 84 96 3f f9 27 7d 3f
       0.96788156 1.0797651 1.1759219 0.9888912
000050 de 28 82 3f 8a 4b 6f 3f 48 5c 81 3f ec f8 73 3f
       1.0168722 0.9347464 1.0106287 0.953017
000060 9d dc 8a 3f 0a 71 7d 3f 42 12 87 3f 9b 00 79 3f
       1.0848576 0.9900061 1.0552447 0.9726655
000070 0e bf 69 3f d6 4c 81 3f 3a db 71 3f de 20 85 3f
       0.9130715 1.0101573 0.9447514 1.0400655

body.block1.norm.bias f4 [32]
000000 d8 53 88 bd a3 4b 48 be c2 24 03 be 65 1a 6f be
       -0.06656617 -0.19560103 -0.1280699 -0.23349912
000010 c4 a4 d2 bd ad 2f 27 be 59 48 37 be ba 12 5b be
       -0.10285333 -0.1632678 -0.17898692 -0.21393862
000020 86 5d 9d be 3e 74 53 be 14 46 40 be 64 84 f9 bd
       -0.30735415 -0.20649812 -0.18776733 -0.12183455
000030 98 09 87 be d9 73 8d be b4 52 ca bb 39 d4 43 be
       -0.26374507 -0.27627447 -0.0061744098 -0.19123925
000040 3c d1 b4 bd a5 f3 37 bd a6 64 34 be f8 9d 9d be
       -0.08828971 -0.044910092 -0.1761652 -0.30784583
000050 c8 54 93 be 6a 7a 4e be 7c fd a4 be 0d 2a 84 be
       -0.2877562 -0.20163885 -0.32224643 -0.25813332
000060 89 47 a5 bd 79 b3 22 be 48 a8 eb bd 92 a7 02 be
       -0.08070285 -0.15888776 -0.115067065 -0.12759236
000070 49 49 12 be d5 9f 4b be aa f4 54 be 51 39 2c be
       -0.14285769 -0.1988519 -0.20796457 -0.1681874

body.block1.norm.running_mean f4 [32]
000000 61 38 31 3f 61 10 eb bd 4b e2 15 bb 04 3e d6 be
       0.6922665 -0.114777334 -0.0022870477 -0.4184419
000010 07 28 04 bf ce f7 d8 be 4a 4b f3 bd 21 c3 ad be
       -0.51623577 -0.4237656 -0.118795946 -0.33937934
000020 f6 6b 59 bd 2c 78 3a 3d dc b8 d5 be c5 a9 5f bf
       -0.053081475 0.04552476 -0.417426 -0.8736842
000030 30 26 8d be 58 5b 0b 3f 1f c3 37 bf b8 76 3e 3f
       -0.27568197 0.54436255 -0.71782106 0.743999
000040 88 13 2a bf 73 ef 5a bf 6b b2 5c bf 91 40 16 be
       -0.6643605 -0.8552162 -0.86209744 -0.14673068
000050 e1 4a b6 bd 1c 92 49 be 88 55 1a bf 37 8c ba be
       -0.08901001 -0.19684643 -0.6028676 -0.364351
000060 0f 26 14 bf f1 5d 69 3e aa 7f e3 be 02 ff f4 3d
       -0.5787057 0.22789742 -0.44433337 0.119627014
000070 89 64 8d bd 3b f1 9b be 56 b3 62 be 86 3f 14 bf
       -0.06903941 -0.30457482 -0.22138724 -0.5790943

body.block1.norm.running_var f4 [32]
000000 11 b0 17 3f 6e d4 2d 3f 98 9a 78 3f 1b 6c 2b 3f
       0.5925303 0.67902267 0.9711089 0.6696183
000010 e7 a8 32 3f 99 f4 08 3f a3 33 12 3f d9 90 12 3f
       0.69788975 0.53498226 0.5711004 0.5725227
000020 59 e3 f1 3e e2 b3 50 3f f8 11 03 3f 55 1a 72 3f
       0.47243765 0.8152448 0.51199293 0.9457143
000030 6e 6d 82 3f dd 09 36 3f ca 80 49 3f 6a 8f 2f 3f
       1.0189645 0.711088 0.7871214 0.6857821
000040 8e 96 43 3f a1 55 33 3f 2a e3 29 3f 01 c6 10 3f
       0.76401603 0.70052534 0.6636225 0.5655213
000050 03 e2 e9 3e 99 51 05 3f 83 9d 4b 3f 30 43 3e 3f
       0.45680246 0.52077633 0.7953722 0.7432127
000060 5a de 1a 3f b5 1c 3b 3f 12 29 6c 3f 80 85 46 3f
       0.6049553 0.7309068 0.9225017 0.77547455
000070 ee c4 1b 3f 7e 9b 20 3f 02 fe 10 3f c9 06 02 3f
       0.60847366 0.6273726 0.56637585 0.50791603

body.block2.conv.weight f4 [32, 32, 3, 3]
000000 96 20 86 bd 8c 34 96 3a 73 1c 7a 3c 02 65 b2 3d
       -0.06549184 0.0011459752 0.015265572 0.08710672
000010 04 7c 83 bc 71 ac 23 3d 7b 8f 0c bb a0 a3 41 bc
       -0.016050346 0.039959375 -0.0021447826 -0.011818796
000020 ee 08 25 bd 6c 8f e9 3c cd 59 81 3c ca fb 62 bc
       -0.04029172 0.028510772 0.01578989 -0.0138539765
000030 31 22 fc bc 13 17 37 bd f3 7f 90 ba 08 9d bc 3c
       -0.030778022 -0.04469974 -0.001102446 0.023024097
000040 bc a2 5c 3d cf 30 68 3c 9f 67 3b 3d 43 18 0e 3d
       0.053866133 0.014171793 0.045753118 0.034691107
000050 b5 e7 1c bd 12 61 0c 3d fe 4e d3 3c eb d6 50 bd
       -0.03830691 0.03427226 0.025794502 -0.05098621
000060 19 27 f2 bd 29 24 f1 3c fa b9 6a bc e2 1a 00 bd
       -0.118238635 0.029436188 -0.014326567 -0.031275637
000070 62 c1 46 bc 6d e8 16 3c b6 6e aa bc dc 01 6f bd
       -0.012131067 0.009210688 -0.020804744 -0.058351383
000080 8b 63 81 bc 7c d4 a8 bc ed 18 e7 3b c3 bd f3 3b
       -0.015794536 -0.020609133 0.007052532 0.007438393
000090 f9 3c 2a bd 73 47 bd 3c 46 ea 3a 3c 60 80 52 3d
       -0.041562054 0.023105359 0.011408394 0.05139196
0000a0 5e 13 c5 3a e0 aa 83 bb 31 21 a7 3d c3 cc d1 3c
       0.0015035679 -0.0040181726 0.08160628 0.025610333
0000b0 39 4e f0 3c 4d 4d 5d 3d c3 df a1 3d 9a d4 37 bc
       0.029334174 0.054028798 0.07904007 -0.011220122
0000c0 da f0 c2 bc 49 7c 38 3d fc 31 d8 bc 8b bc 7e 3b
       -0.023796488 0.045040403 -0.026391022 0.0038869705
0000d0 51 2a 9a bc 64 4e 4e 3d 8c 7e 9c 3c ff d4 7b bd
       -0.018819006 0.050367728 0.019103311 -0.061482426
0000e0 95 af 55 bd 72 18 a3 3d 61 93 a4 3d e1 d0 4b bd
       -0.0521694 0.07963647 0.08035923 -0.04975975
0000f0 bf c9 a4 bc 14 14 8c 3c 8c 31 a0 bd a2 05 71 bc
       -0.020115731 0.017099418 -0.0782195 -0.014710816
000100 73 ca c0 bc 6c 62 af bd a4 1b ae bc 54 a6 33 bb
       -0.023534035 -0.08563694 -0.021253414 -0.0027412372
000110 16 2f d0 bc fe 27 b8 bc 34 05 00 bb b6 4b 0b bd
       -0.025413077 -0.022480007 -0.0019534351 -0.03400775
000120 3d e4 4d bc 98 80 fe 3c 1a 92 b7 3c ff b1 a7 bc
       -0.012566623 0.031067178 0.022408534 -0.020470617
000130 39 8b 9b bd 6b 3d 76 bc 4d f5 23 bb bc 4b f7 3b
       -0.07594914 -0.015029292 -0.0025018037 0.00754687
000140 17 3f d8 3a a6 2b fc 3c 2a e9 06 bd 27 e0 eb bc
       0.0016498294 0.030782532 -0.032937206 -0.028793408
000150 80 02 b7 bc fb 5a a1 bd aa e3 16 bd 3d 93 a9 bd
       -0.02234006 -0.07878681 -0.03683821 -0.082800366
000160 59 ef 96 3b 91 0b 1b 3d ef 5d 0d bd fb d1 87 3b
       0.004606169 0.037852827 -0.03451341 0.0041449047
000170 06 f2 4e b9 a8 8b 10 3c 20 66 69 3d 57 d2 bb 3d
       -0.00019735852 0.008822359 0.05698216 0.091709785
000180 e3 de 4d 3d b2 c5 63 bd cb 85 0f 3c f6 42 1c 3d
       0.05026139 -0.05560846 0.008759926 0.038149796
000190 d1 d4 67 3c a8 0b 9f bd 98 1b 0c 3c 8b 91 a1 bc
       0.0141498605 -0.07765895 0.008551501 -0.01972272
0001a0 86 86 fa bc 30 6c 4f bc 75 a8 d7 3c d0 e5 d2 bb
       -0.030581724 -0.012660071 0.026325444 -0.006436087
0001b0 c9 f9 06 3c d6 5e 02 bd 3f 32 d9 bc f8 76 93 bc
       0.008238264 -0.031828724 -0.026513217 -0.018001065
0001c0 4d 48 74 bc ff fc e1 bc 5c a6 ed bc ee 9f 15 bd
       -0.014909816 -0.027586458 -0.02900999 -0.036529474
0001d0 a4 cd 93 bd 56 95 48 3b e3 25 5f 3d 2a b4 37 3d
       -0.07216957 0.003060659 0.05447949 0.044849552
0001e0 e8 45 a0 3d ba fc 50 bd 7b 4e d6 bc 5d 34 20 38
       0.078258336 -0.05102227 -0.02616047 3.819574e-05
0001f0 9b ab 41 bd 48 0e a1 bd 4d 7f 52 bc d3 9d 3a bb
       -0.047282796 -0.07864052 -0.012847734 -0.0028475418
000200 b7 6d 17 bd f0 b2 31 3b 2c dc e8 3c 2f 9b 05 bb
       -0.036969867 0.0027114712 0.028425299 -0.0020386686
000210 c6 60 3c 3d ab a8 18 bd dc a5 1a 3d 95 45 c3 b9
       0.045990728 -0.03727023 0.037755832 -0.0003724514
000220 b5 dd c8 bd 85 94 b4 3c 8e f4 0e 39 24 d9 9d 3c
       -0.09807912 0.022043476 0.00013633279 0.01926858
000230 6d 01 53 3c f2 54 85 bc 49 cf 33 bc c2 f6 9e bd
       0.012878758 -0.016275857 -0.010974714 -0.07761909
000240 2a 3e c9 bc 53 2a 97 3c 6e d6 97 3d 2e 5e 7d 3d
       -0.024565775 0.018452799 0.07413946 0.061857395
000250 9b ad 05 3d c3 33 6f 3d a7 3d 9a bb 11 c5 40 3c
       0.032636266 0.058398973 -0.0047070566 0.011765734
000260 ab 77 cd 3c fd cf 10 bc fc 90 a5 bc 89 af 7d bd
       0.025081476 -0.008838651 -0.020210735 -0.06193498
000270 3e da 1c 3a 77 e8 a9 bb b0 b4 07 bd 63 15 8b bc
       0.00059834484 -0.0051851827 -0.0331313 -0.016977971
000280 92 c2 15 bd 7e 08 d8 3c 9b ef 97 bd 3d 4f 20 bd
       -0.03656251 0.026371237 -0.07418748 -0.039138068
000290 4b 39 14 3d 5b 77 a6 bb 80 2d 2d 3d c2 8d 38 3d
       0.03618745 -0.0050801462 0.04227972 0.045057066
0002a0 01 6a ba 3d 23 6c 88 3d d7 da 50 3d fe ce 2b 3d
       0.0910225 0.066612504 0.050989952 0.04194545
0002b0 30 42 76 3d 96 69 83 bd 56 98 1d 3c 15 75 1d bd
       0.060121715 -0.06416623 0.009618839 -0.038441736
0002c0 b0 e9 cf bb ad a3 9e bd 81 1b 92 3d 06 b3 80 bc
       -0.0063449964 -0.077460624 0.07134152 -0.015710365
0002d0 23 91 00 be fa 14 e3 bb 8c ad 8c bd 2a e9 1e be
       -0.12555365 -0.006929991 -0.06869039 -0.15518633
0002e0 a3 25 d3 bd 12 09 ed bc e6 9d ce 3c eb a0 57 3d
       -0.10309913 -0.02893499 0.025221776 0.052643698
0002f0 b8 83 27 3b 25 96 c9 3d de 8f 60 3b dd ac ba bc
       0.0025560688 0.09843091 0.003426544 -0.022787506
000300 48 58 93 bd 9b 3d 67 bd 2b f4 c3 bc 90 2c 05 bd
       -0.07194573 -0.056455236 -0.02392014 -0.0325132
000310 e2 18 0d 3d 42 88 0a bd c3 af 3f bd cc 1a 41 bd
       0.03444756 -0.03382135 -0.04679848 -0.047144696
000320 20 e3 b1 bc 48 57 13 3d 2f d1 4a 3d 26 66 6e bc
       -0.021714747 0.03597191 0.0495159 -0.014550721
000330 aa 61 8a bc a4 a5 95 bc 01 0a 0f 3d 0c 0c 66 bd
       -0.016892273 -0.01826746 0.03492165 -0.056163833
000340 73 df fc 3a 6f f5 96 bd c5 11 b5 bc d8 e5 bc 3c
       0.0019292667 -0.073710315 -0.0221032 0.023058817
000350 e0 3c 9c 3c 3e 2b 99 3d 04 53 06 3e 01 6f ab bd
       0.019071996 0.07478951 0.13117605 -0.08370782
000360 6e e7 03 bc e8 a0 87 bd 68 4c a2 3d a3 69 56 3d
       -0.008050783 -0.06622487 0.079247296 0.052346837
000370 ce e8 10 3d 9b 3e 5e 3d 1c 7d 9f 3d 59 b6 0b bc
       0.03537827 0.054258924 0.077875346 -0.008527362
000380 49 dc d6 bc 9d 38 17 3c 18 5e c1 bc 8f 75 85 bc
       -0.026228087 0.009229806 -0.023604438 -0.016291408
000390 d6 4a ad bb 28 8a 0f 3d 6c 12 df bc 49 c5 8e 3c
       -0.005288462 0.035043865 -0.027230464 0.017428057
0003a0 ee 4f 1f bd d5 cf ae bd 4f 42 10 3d 4c 69 1b 3d
       -0.038894586 -0.085357346 0.035219487 0.037942216
0003b0 5a 38 da bc 69 2f 19 3d 65 bf 14 3d e9 7c c1 bc
       -0.026638199 0.03739873 0.03631534 -0.023619132
0003c0 cb 28 4e bd 5d 1c 62 3d 78 21 81 3d df cc d6 bb
       -0.050331872 0.05520283 0.06305212 -0.0065551843
0003d0 87 91 91 b9 ea 81 37 bc 66 39 85 bd 52 8d 0f 3d
       -0.00027764981 -0.0112004075 -0.065050885 0.035046883
0003e0 7c df bd bc 89 2c b0 bd 45 9e 13 3c fc e5 1f 3b
       -0.023177855 -0.086022444 0.009009902 0.0024398556
0003f0 64 91 e3 bb 1b a5 9f bc 7d ce 44 bb 73 4c 26 bd
       -0.006944822 -0.019487908 -0.0030030303 -0.04060025

body.block2.conv.bias f4 [32]
000000 7a 00 95 3c 92 9f d3 3a 1e 6c 06 3c e5 81 fb 3c
       0.018188704 0.0016145578 0.008204488 0.030701587
000010 79 79 8e bd ad 70 1e bb f6 d5 8e bc f5 4e 17 bc
       -0.06956763 -0.0024176047 -0.017436009 -0.009235133
000020 84 28 04 3c 03 ab d5 3c 21 80 c2 bc c7 8d 58 3d
       0.0080663 0.026082521 -0.023742737 0.052869584
000030 79 c7 75 bd d8 e5 47 3d 8b cf 61 bd a9 0b 11 bd
       -0.060004685 0.04880318 -0.05512957 -0.03541151
000040 67 2b 4a 3d 87 04 40 3d 1a ab a1 3c 66 ed 68 bd
       0.049357798 0.046879318 0.019734908 -0.056867026
000050 d9 a9 39 bd 48 1b ba 3c d2 41 24 3d d5 4a 81 3d
       -0.045327995 0.022718087 0.040101834 0.06313101
000060 71 c2 a9 bc aa 8b 85 bc 5f de 0b 3d 7b 37 d8 bb
       -0.0207226 -0.016301949 0.034147616 -0.0065984107
000070 bc 86 35 bd 5c 98 97 bb 23 b4 e1 3c ce d4 60 3d
       -0.044317946 -0.004626317 0.027551716 0.054890446

body.block2.norm.weight f4 [32]
000000 5f e0 7b 3f 00 dd 6e 3f 96 b5 78 3f d5 d7 82 3f
       0.9838924 0.9330597 0.9715208 1.0222117
000010 f9 83 5f 3f ce 6a 83 3f 18 f8 7c 3f fa ae 85 3f
       0.8731075 1.0266969 0.9881606 1.0444024
000020 da bc 86 3f f1 1f 7e 3f 61 a4 68 3f 85 1b 8a 3f
       1.0526383 0.9926749 0.9087582 1.0789648
000030 90 37 6b 3f 88 53 7e 3f 23 de 75 3f 53 a0 84 3f
       0.91881657 0.9934621 0.9604208 1.0361427
000040 b6 71 74 3f ca 83 83 3f 9c 85 85 3f fe 3f 6f 3f
       0.9548601 1.0274594 1.0431399 0.9345702
000050 3d 50 77 3f 46 3a 82 3f b0 e9 6d 3f 28 da 7f 3f
       0.9660681 1.0174034 0.92934704 0.99942255
000060 e7 12 70 3f 0d ae 7e 3f 8e f2 81 3f 4c 29 64 3f
       0.9377884 0.9948433 1.0152147 0.89125514
000070 36 3d 6b 3f 11 27 72 3f ae 67 86 3f e7 b3 7f 3f
       0.91890275 0.9459086 1.050039 0.99883884

body.block2.norm.bias f4 [32]
000000 dc b0 e0 bd 32 85 88 be f3 4f 4e be 0c 49 16 be
       -0.10971233 -0.2666412 -0.20147686 -0.14676303
000010 c6 49 70 be 7c c0 6a be 81 4d 3e be 40 54 e6 bd
       -0.23465642 -0.2292499 -0.18584253 -0.11246538
000020 6c 1f 0d be a8 e9 40 be 78 d1 57 be 28 e8 07 be
       -0.13781518 -0.18839133 -0.21076 -0.13272154
000030 a3 81 18 be 51 bb dd bd 98 d1 59 be eb 54 cc bd
       -0.14893202 -0.108267434 -0.2127136 -0.09977134
000040 46 82 b5 be 2d 06 1f be 55 73 b5 bd d6 a5 34 be
       -0.35450953 -0.155297 -0.088598885 -0.17641386
000050 36 36 c3 bd 3c 86 f1 be 26 7e 5c bd 71 76 85 be
       -0.09531824 -0.47172725 -0.053831242 -0.26066926
000060 1e ba 6a be cf de 36 be 5e 34 2f be 9c 17 a2 be
       -0.2292256 -0.17858432 -0.1710982 -0.31658638
000070 3f b6 85 be 2d ad 1b be de b4 10 be b4 8b 31 be
       -0.26115605 -0.1520278 -0.14131495 -0.17338449

body.block2.norm.running_mean f4 [32]
000000 7e 81 18 be ba fc a4 3d 89 d3 33 be 21 96 b4 3d
       -0.14893147 0.08056016 -0.17561163 0.08817697
000010 5e e4 59 be 7f 8a 13 bf 3e d9 d6 3d 78 5c 4f 3d
       -0.21278521 -0.57633203 0.104906544 0.050625294
000020 94 bd a8 bd e6 56 c6 3d d1 15 98 3d 87 cd db be
       -0.08239284 0.09684543 0.07426036 -0.42930242
000030 8c fe ae bd 36 4c 4e 3f a8 63 ea bc fe 3d a6 be
       -0.08544645 0.8058504 -0.028611973 -0.3246917
000040 c9 21 33 be c9 6d 97 bd 08 e3 ce 3e dc 02 9b 3d
       -0.17493357 -0.07393987 0.40407586 0.07568905
000050 fa d0 92 be 61 b2 54 bd 1e 6c ec bc 8d 45 a6 be
       -0.2867506 -0.051927928 -0.028860148 -0.32474938
000060 b3 af 09 bf d5 1e 07 bf 84 44 4d be 82 05 dc bd
       -0.5378372 -0.5278142 -0.20045668 -0.10743238
000070 69 fd f6 bd b7 e0 0d 3e 94 bf 9b be 0d b2 88 3e
       -0.12060053 0.13855253 -0.304196 0.26698342

body.block2.norm.running_var f4 [32]
000000 db 59 ec 3e 54 c6 a3 3e a5 07 96 3e 95 cb fb 3e
       0.46162304 0.3198725 0.29302707 0.49178758
000010 b9 3c 77 3e a2 73 10 3f f7 fa 04 3f 16 26 c2 3e
       0.24144258 0.5642644 0.5194544 0.37919682
000020 c3 86 fd 3e 6f 1d b4 3e 85 7d 9f 3e 10 15 9e 3e
       0.49516878 0.35178706 0.3115045 0.30875444
000030 fa 06 c3 3e c7 d1 94 3e df fc d7 3e d9 35 86 3e
       0.3809126 0.29066297 0.42185113 0.26212958
000040 c4 88 84 3e a7 92 2d 3f a5 44 fd 3e 27 84 c9 3e
       0.25885594 0.678019 0.49466434 0.39358637
000050 c9 0e 1e 3f b9 65 b4 3e 52 07 bf 3e 36 2c c5 3e
       0.6174131 0.35233858 0.37310272 0.38510293
000060 67 31 9c 3e 8b 5a 8c 3e 91 30 5b 3e fe 3f d1 3e
       0.3050644 0.2741283 0.21405245 0.40869135
000070 4f e0 ab 3e 95 c8 b1 3e 8f 01 c9 3e a2 56 79 3e
       0.3356957 0.34723344 0.39259002 0.24349454

body.block3.conv.weight f4 [32, 32, 3, 3]
000000 10 9f 0c bd 25 b5 5f 3d 12 ac b6 3c dc 30 c4 3c
       -0.03433138 0.054616112 0.022298846 0.02394908
000010 46 a6 1d bc 50 99 82 3b 7a 83 15 3d ee bd 96 3c
       -0.009622162 0.0039855614 0.03650234 0.018401112
000020 38 ee fb 3b 2a fd 33 bd 28 ec 4e bd c2 73 88 bb
       0.00768831 -0.043942608 -0.050518185 -0.00416419
000030 0b 30 d7 3c da a8 52 3c 8e 1d b1 bc 60 3c 08 3b
       0.026268026 0.01285764 -0.021620538 0.002078794
000040 15 3c d9 3c 18 3e e5 bc 6b 2f 8f 3d 22 3c 43 3d
       0.026517907 -0.02798371 0.06991466 0.04766477
000050 40 70 67 bd b2 a0 e7 bc 55 5e 81 bb 75 71 8e bd
       -0.056503534 -0.028274868 -0.003948013 -0.06955234
000060 e2 39 90 3c 24 06 77 bc 48 80 46 bd 32 3d 3d bd
       0.017605726 -0.015077148 -0.048462182 -0.04620094
000070 10 ba 79 bc 6c 74 23 3c 7a bc ff 3c d5 07 18 3a
       -0.015242115 0.009976488 0.031217802 0.0005799507
000080 e9 ff af bc e3 ea 2e bc be cc 6f bd ad ef 8b bd
       -0.021484332 -0.010676119 -0.058544867 -0.06832824
000090 0f 42 78 bc ac b3 a1 bb 6f 40 41 3d 9b 2c ef 3c
       -0.015152468 -0.0049347486 0.04718059 0.029196074
0000a0 f4 e9 07 bc 0d 4b 5b bc c3 ba e4 bb 49 42 34 3d
       -0.008295525 -0.013384593 -0.0069802715 0.044008527
0000b0 85 3f 9c 3d 95 f5 a5 bb 59 af 36 bd 9f 1d 48 bc
       0.07629303 -0.005064676 -0.04460082 -0.0122140935
0000c0 81 09 73 bd f7 7b 15 bd 5e 78 b5 3d 63 c3 36 bd
       -0.059335236 -0.036495175 0.08860849 -0.04461993
0000d0 1a e9 8a bd 04 e1 0d bc 73 36 9d bc 42 07 86 bd
       -0.06782742 -0.008659605 -0.019191002 -0.06544353
0000e0 8b 9c dc 39 52 b1 18 bd 39 8a e9 3c 64 1c 73 bd
       0.00042078304 -0.03727848 0.028508293 -0.059353247
0000f0 d7 09 9c bd 90 74 7a bd fe b1 ab bd 1b d7 20 bd
       -0.07619064 -0.06114632 -0.08383559 -0.03926764
000100 ee 46 5c 3c fa a5 03 bc 1e f6 d7 3c 77 cf 3f bd
       0.013444645 -0.008035177 0.026362475 -0.046828713
000110 78 e1 99 bd eb 4a f0 bd 94 af cf bc 0f fa 18 bd
       -0.07513708 -0.117330395 -0.025352277 -0.03734785
000120 6f fe e5 3c f7 02 bd 3c 23 e3 70 3c 45 71 13 3d
       0.028075425 0.023072703 0.014702591 0.035996694
000130 b5 f0 78 3c c0 42 aa bc 7c c0 2a 3e 5f 94 1f 3e
       0.015194108 -0.020783782 0.1667499 0.15583943
000140 91 db 30 3e b5 85 0e 3c b7 4e 80 bb 16 74 0b bd
       0.17271258 0.00869887 -0.0039156335 -0.034046255
000150 13 1d 37 bb 42 e5 c2 3c 6b a1 ed bc b6 36 8e 3c
       -0.0027940914 0.02379096 -0.029007634 0.017360073
000160 87 e4 2c 3a 57 ad 25 ba a9 65 82 bc b2 c8 66 bd
       0.00065953325 -0.000632008 -0.015917616 -0.05634374
000170 28 92 2a bd 49 b7 3c bd 51 70 41 bd fc 06 c6 bc
       -0.04164329 -0.04607323 -0.047226254 -0.024173252
000180 ca f7 85 3d 3e dc fd 3c 3a f2 6c bd f1 86 03 3d
       0.06541403 0.030988809 -0.057848193 0.032111112
000190 05 ab 55 bb 3e a0 ca 3a a2 f3 e3 bc 2b 7b 87 bc
       -0.0032603156 0.0015459133 -0.027826134 -0.016538223
0001a0 d2 7b 26 3c cd 22 28 bd 3a f6 77 3b 6e 37 18 bc
       0.010161357 -0.041048814 0.0037835971 -0.009290559
0001b0 1b c8 43 bc f2 58 0f 3c 2d 9a ab 3c fc 8a b7 3c
       -0.011949564 0.008749234 0.02094754 0.02240514
0001c0 7c f3 13 3d bb 87 17 3b fd 92 18 bd d7 d9 dc bc
       0.036120877 0.0023121673 -0.037249554 -0.026959343
0001d0 90 e3 43 bd 25 1e 0b bd 88 a2 28 3d e1 23 e1 bc
       -0.047824442 -0.033964295 0.041170627 -0.027482929
0001e0 a3 d8 d5 3c 6f 9e 68 bd 56 fd 99 bc b1 29 47 bc
       0.026104277 -0.05679172 -0.018797558 -0.012155936
0001f0 5b 48 ef 3c 56 8f 6b 3d d2 8f 3f 3c e4 0f 54 3c
       0.029209306 0.057509743 0.011692004 0.012943242
000200 2c 89 ae bc 04 cf 1c bc c2 33 7f bc 72 2a aa 3c
       -0.021305643 -0.009570841 -0.015576305 0.020772193
000210 ab 3d ca 3b bc fa 62 bd 5a df a1 bd 86 27 65 bd
       0.006171902 -0.0554149 -0.07903929 -0.055945896
000220 46 e1 4a 3d 28 7d a2 3d ea 8b 24 bd 22 60 92 bd
       0.049531244 0.07934028 -0.040172495 -0.07147242
000230 37 c7 0e bd d1 c1 a2 bc fc 03 27 bb 93 26 30 bc
       -0.034857955 -0.01986781 -0.0025484553 -0.010751384
000240 d1 91 1e 3d 09 16 ea 3c aa 7e e1 39 8b d6 1f bd
       0.03871328 0.02857496 0.00043009716 -0.039022963
000250 b4 c0 e6 bc 49 3c e0 3b f1 36 e2 bd 67 b8 a0 bd
       -0.02816806 0.006843124 -0.110456355 -0.07847672
000260 04 6e af bc 11 71 82 3c 54 88 61 3c 8d 57 d8 bc
       -0.021414764 0.015923055 0.013765413 -0.026408935
000270 c7 93 98 bc f7 85 24 bd 76 fa 4e bc 17 8a 10 3d
       -0.018625153 -0.04016682 -0.012632957 0.035287943
000280 df 2f 1f 3d 7d 43 6c 3c de 0d cb 3c 57 47 00 3d
       0.038864013 0.014420387 0.024786886 0.031318035
000290 ef 47 a1 bb 40 00 d7 bc 8c 7e b4 3c ef c5 05 bd
       -0.004921905 -0.026245236 0.022032999 -0.032659467
0002a0 10 21 30 3c 84 8e 34 3d 0c 5a 19 3c a5 9b 57 bb
       0.01075007 0.044081226 0.009359848 -0.0032899168
0002b0 70 1a e3 3c d3 9e ba 3b 6e d9 09 bd f5 53 57 bd
       0.027722567 0.005695203 -0.033654623 -0.052570302
0002c0 eb 07 c7 bb b0 f9 29 bd eb ea bb bd 64 23 5e bd
       -0.006073942 -0.041497886 -0.091756664 -0.05423297
0002d0 1b 10 cf bc 67 f0 66 3c 01 04 24 3d de 65 92 bc
       -0.025276234 0.014095402 0.04004288 -0.01787084
0002e0 a5 ae 67 bd 3e a3 ad 3c 8e c9 3c 3c d9 6c 03 bd
       -0.05656304 0.021196004 0.011522664 -0.032086227
0002f0 ad ca 49 bd 4e ee 9d bd e8 4b 8d bc 9e ce 2e bc
       -0.049265552 -0.07711469 -0.017248109 -0.010669379
000300 c0 e6 0a 3b 96 d8 aa 3c b7 ed b9 3c f0 e4 3e 3d
       0.0021194667 0.02085523 0.02269636 0.04660505
000310 2b 92 87 3d d1 eb 46 3d 81 e4 0d 3a 6a 7d 8c 3c
       0.06619676 0.048564736 0.0005412773 0.017149646
000320 af 05 e1 bd 41 ec e8 3b 78 b3 22 bc a1 02 b9 bc
       -0.10987412 0.007108242 -0.009930484 -0.022584261
000330 d4 c7 4e 3d 03 ef c8 3c 54 d0 d4 bb 90 04 ea 3c
       0.05048354 0.024528032 -0.006494561 0.028566629
000340 da 6e 83 bc 70 f7 ae 3b 78 21 64 3d 52 f1 7c 3c
       -0.01604407 0.0053395554 0.05569598 0.015438395
000350 3b ce 4b bd 25 7f c4 3d 0c fc 36 3d 75 ed 9c 3d
       -0.049757224 0.095945634 0.044673964 0.07662479
000360 2e 6b 21 3d 7c 0e 04 3d 69 f0 ec 3c 84 26 0d 3d
       0.039408855 0.032240376 0.02892323 0.03446056
000370 0a 8c 7c 3d c3 dd 6f bc 7c 58 87 bd 46 9e 0f 3d
       0.06165699 -0.014640274 -0.06608674 0.03506305
000380 fc dd d2 3c c1 4c c1 3c 87 5d 96 3a 41 66 35 bc
       0.025740616 0.02359617 0.0011471965 -0.0110717425
000390 11 c7 91 3d e4 db 0a 3d c0 c4 33 bb d5 63 2c ba
       0.07118047 0.03390111 -0.0027430505 -0.00065761554
0003a0 58 08 8a bb 3e 3d 2f 3d 7a 3c 8b 3c a2 41 eb bc
       -0.0042124204 0.042783014 0.01699661 -0.02871782
0003b0 e2 ac eb bc c4 a4 06 3d 9f 1d d3 b9 d5 a5 16 3d
       -0.02876896 0.032871976 -0.00040267126 0.036779243
0003c0 e7 52 17 3e 46 bb 3d 3c 5d 4d bd 3d 64 9d 8a 3c
       0.14777718 0.011580294 0.092432715 0.016920753
0003d0 c4 5d a7 bc 8a f0 70 bd 07 2a c3 3c a1 f2 2d bd
       -0.020430453 -0.058823146 0.023823751 -0.042467717
0003e0 56 41 12 3d 5d a3 ad bc 53 fa 9a bb 86 c0 d7 3c
       0.03570684 -0.021196062 -0.004729548 0.02633692
0003f0 5c be e7 3c f4 8c 21 3d 57 b6 07 3d 76 7d bf bc
       0.028289013 0.039441064 0.033132877 -0.023375254

body.block3.conv.bias f4 [32]
000000 50 17 1c bd dc 38 60 3c 11 ef 6e bc 00 e1 90 3d
       -0.03810817 0.013685431 -0.014583365 0.07074165
000010 7b f3 20 3c 28 b7 30 3c 37 8d 26 3d 93 d9 bd 3d
       0.009823675 0.010785855 0.040662017 0.092700146
000020 ac 46 41 3c 86 bf dd 3a c5 51 0e bc 74 5e 51 3d
       0.011796635 0.001691804 -0.008686488 0.05111547
000030 bc 93 c3 3c a6 68 8b bc b9 46 f4 3c 24 3a 59 3d
       0.023874156 -0.017017674 0.02981888 0.053033963
000040 76 c9 4a 3b 5b 57 d8 3c 04 8a 1c 3d 6f 3e 20 3d
       0.0030942834 0.026408842 0.03821756 0.03912204
000050 43 4e 91 3d 1e d6 48 3d 3f 6b ef 3c d5 f0 4a bc
       0.07095005 0.049032323 0.029225944 -0.01238652
000060 f0 39 8b 3c 9d a8 59 3d 22 40 9c bc fa 8a 6a bc
       0.0169954 0.053139318 -0.01907355 -0.014315361
000070 81 47 c5 bc 25 72 90 3d 12 e4 04 3d cf 65 f7 3a
       -0.024081947 0.07053021 0.032444067 0.0018874946

body.block3.norm.weight f4 [32]
000000 6f 72 67 3f 2e d1 51 3f d9 4a 65 3f 2f d5 53 3f
       0.90408987 0.8195981 0.89567333 0.8274717
000010 11 7f 67 3f a1 fc 55 3f 08 47 4f 3f d6 c5 71 3f
       0.9042826 0.83588606 0.8096776 0.944425
000020 a4 6e 48 3f 50 d9 40 3f 23 aa 3f 3f b0 1a 6a 3f
       0.78293824 0.7533159 0.74868983 0.9144697
000030 a0 39 54 3f f2 32 46 3f 25 ed 6c 3f 52 0b 5e 3f
       0.8290043 0.77421486 0.92549354 0.86736023
000040 bf b9 46 3f e6 9d 6a 3f 80 d5 53 3f 29 bf 53 3f
       0.77627176 0.91647184 0.8274765 0.8271356
000050 20 33 73 3f 4a d2 75 3f 48 67 62 3f 12 82 58 3f
       0.94999886 0.96024 0.88438845 0.8457347
000060 14 14 73 3f 6e 02 4e 3f dc e2 56 3f 01 55 55 3f
       0.9495251 0.8047246 0.8393991 0.8333283
000070 14 04 41 3f 12 72 48 3f 43 61 6a 3f 7a 8a 66 3f
       0.7539685 0.7829906 0.9155466 0.9005505

body.block3.norm.bias f4 [32]
000000 45 d8 3c be 68 c3 0e be 20 f1 9d bd ce a9 3f be
       -0.18441875 -0.13941729 -0.077120066 -0.18717119
000010 cc 85 52 be 83 8f 24 be 24 d3 63 be 00 6a 5f be
       -0.20558852 -0.1607037 -0.22248513 -0.2181778
000020 64 3d 6f be 88 a6 39 be 96 02 59 be d5 14 65 be
       -0.23363262 -0.18129933 -0.21192393 -0.22371228
000030 14 44 f8 bd 91 96 21 be 7f f0 3f be 4e 50 7a be
       -0.1212236 -0.15780093 -0.18744086 -0.24444696
000040 d5 61 85 be d4 27 4b be 6b 39 1d be 3c 71 43 be
       -0.26051202 -0.19839412 -0.15353934 -0.19086164
000050 47 2f 73 be c6 9a 84 be 92 2c 4e be a7 1a 4c bd
       -0.23748504 -0.25899333 -0.2013419 -0.049830105
000060 dd 80 67 be 5d b9 34 be 11 54 53 be 89 70 80 bd
       -0.22607751 -0.17648835 -0.20637538 -0.062714644
000070 e0 d6 75 be 55 32 52 be b0 3c 5e bd 58 38 c5 bd
       -0.2400775 -0.20527013 -0.054257095 -0.09629887

body.block3.norm.running_mean f4 [32]
000000 d1 4c 82 b9 2d 61 1f 3d af a2 8b bc d1 fb 24 3e
       -0.00024852765 0.038911033 -0.017045347 0.16111685
000010 53 a4 b6 be aa dd 91 3e 65 45 a2 3c 6f 7b 9a be
       -0.35672244 0.2848943 0.01980848 -0.30172297
000020 44 9f f2 3e f7 b2 db 3d b8 fb a3 be d1 f7 96 3b
       0.47387135 0.10727494 -0.32027984 0.0046071787
000030 46 6d cb 3e f5 d1 0d be 29 05 8d 3e e9 5a 8a 3d
       0.39731807 -0.13849624 0.27543 0.06755621
000040 ac a8 fa bd 64 8b c3 3d cd c6 9a be 82 35 db be
       -0.12239203 0.09548071 -0.30229798 -0.4281426
000050 e2 74 f8 3d 2a 63 ba bd aa e5 3e be 01 ce 25 bf
       0.121316686 -0.09100945 -0.18642297 -0.6476746
000060 3c 81 53 be 23 ee a8 be ef 51 8d 3e c7 a4 89 be
       -0.20654768 -0.32994184 0.27601573 -0.26883528
000070 75 a1 b8 be 9a 29 db bd af 99 1b bf 31 26 c9 be
       -0.36060682 -0.10701294 -0.6078138 -0.3928695

body.block3.norm.running_var f4 [32]
000000 6b 60 24 3f f1 f4 09 3f 94 dc 99 3f 7c 6d d0 3e
       0.6420962 0.53889376 1.202044 0.4070853
000010 43 52 42 3f 38 2a f4 3e 2f 0e de 3e 1f bb 14 3f
       0.7590677 0.4768846 0.43370196 0.58098024
000020 64 70 29 3f 5c 29 ae 3e c6 00 c7 3e c5 69 7e 3f
       0.6618712 0.3401593 0.38867778 0.9938014
000030 72 a5 02 3f f2 82 e4 3e 44 a4 56 3f 4a 87 08 3f
       0.510337 0.44631153 0.838444 0.53331435
000040 52 fb c3 3e 2e 23 0a 3f 99 9a 0e 3f 9a 60 34 3f
       0.3827768 0.5395993 0.5570465 0.704599
000050 19 d3 ff 3e f2 7c 60 3f a1 92 b6 3e 4a f3 46 3f
       0.49965742 0.8769065 0.35658744 0.7771498
000060 80 2b fc 3e a4 fc e1 3e 15 6c 00 3f 15 90 36 3f
       0.49251938 0.44138062 0.5016492 0.713136
000070 e2 84 29 3f b4 cf c6 3e 01 22 c1 3f 0a 97 15 3f
       0.6621839 0.3883034 1.5088502 0.5843359
