code/Output/birds/pdl_e8000_1px_lr0.001a3.0_up-conv5_1_W[1.0, 0.5, 0.1, 0.075, 0.075](6)/0/netG.pth (torch, 130353 bytes, 26 tensors)

head.conv.weight f4 [32, 3, 3, 3]
0.0057078646 0.040438496 -0.01224989 0.013875838 -0.023454597 0.0072038975 -0.017433891 -0.11764532
0.15945324 -0.02367949 -0.036031444 -0.014875175 -0.004956792 0.019018149 -0.028264435 0.032708075
-0.11558516 0.16265613 0.017764132 -0.0034570652 0.021025758 -0.013435582 0.00995156 0.02363644
-0.010965813 -0.12449402 0.19599639 -0.13635828 -0.007549811 0.015875345 -0.043416496 -0.05837176
0.03118146 0.09421093 -0.02402734 0.05679872 -0.15429384 0.0012222319 0.07334177 -0.02065518
-0.007905707 0.015974557 0.06752054 -0.039782632 0.05492449 -0.134289 -0.032670423 0.041453443
-0.014052976 -0.037272505 -0.00314449 0.07370406 -0.033686843 0.04433963 0.013087582 -0.040812574
0.002812333 -0.024157412 0.023419438 -0.009194264 0.31530082 -0.033192553 0.04524892 -0.015665917
0.008239627 -0.012248221 -0.00018549582 -0.011209315 -0.006083609 0.3007338 -0.014896876 0.04541844
0.000112881964 0.031725727 0.010274676 0.0203831 -0.008699758 0.02051586 0.28130785 -0.0016897512
0.028672222 -0.065853596 -0.12156237 -0.056995727 -0.03935918 -0.0012841384 0.024928538 0.08941759
0.04151335 -0.0322014 -0.057190284 -0.10156363 -0.07565094 -0.04348861 0.008576665 0.025323348
0.09248419 0.036019504 0.014964002 -0.06538731 -0.14015798 -0.046733793 -0.0029325138 0.03248785
0.021910531 0.05456112 0.01635655 -0.00035279372 -0.00625878 0.001855412 -0.014362066 -0.043915022
0.010818321 -0.014328975 -0.07001731 0.063930094 -0.24326894 0.0051228204 0.015155177 0.0061268904
0.02109389 -0.005520501 -0.014496774 -0.075713836 0.044864666 -0.2611093 -0.00018508895 -0.010920288
0.0051410017 0.025687102 -0.003755365 0.02119838 -0.04387505 0.035120513 -0.25039014 0.07071696
0.199393 0.03494885 0.051643606 -0.026001297 0.006981209 0.07052938 0.00987657 -0.0763482
0.023672514 0.19239502 0.045450736 0.030933406 -0.03500541 -0.035452478 0.08023723 0.0043563596
-0.048362963 0.079515345 0.17346708 0.038832393 0.031002311 -0.045957357 -0.0041510956 0.049877357
-0.027568597 -0.035745278 0.002428932 0.010164668 0.024055786 0.004611565 0.0035734854 0.026383448
-0.022683498 -0.022498377 -0.27098298 -0.0034143259 -0.0018278391 -0.022369655 -0.005673319 0.0067970827
-0.021526078 -0.026618108 -0.05358158 -0.2954392 -0.0068050525 0.010377814 -0.0043261247 -0.0058334554
-0.01110664 -0.0059627607 0.01064491 -0.010587946 -0.278784 0.09209342 0.012813092 -0.09534862
0.049923457 0.0032995953 0.030167637 -0.080791086 0.04192256 -0.04444229 0.102504395 0.07215476
-0.062479056 0.060114045 0.023016486 0.03647527 -0.06807566 0.043712888 -0.045272965 0.103131354
0.04384553 -0.059468526 0.040443208 0.024297277 0.010215049 -0.062450066 0.08104269 -0.036847
0.08221676 -0.015603947 -0.22883877 -0.002718637 -0.0040239017 -0.0002133644 0.008309094 0.031085892
0.0072546015 0.09900879 -0.038301572 -0.19900678 -0.0024152442 -0.013514649 0.00824292 0.013069076
-0.013541957 -0.029382594 0.07670972 0.0012328906 -0.15968044 0.004931178 0.023772996 -0.008316934
-0.023692312 -0.02235541 0.017045012 0.013434377 -0.1274077 0.16284287 0.008451191 0.011330886
-0.006470895 -0.011771908 -0.013741648 -0.013331128 0.008743006 -0.13473667 0.17770645 -0.0060425387
00000000: 0a09 bb3b d6a2 253d c3b3 48bc 7c57 633c
00000010: db23 c0bc ac0e ec3b 85d1 8ebc 08f0 f0bd
00000020: b647 233e 7dfb c1bc b595 13bd 02b7 73bc
00000030: 966c a2bb f3cb 9b3c d18a e7bc e7f8 053d
00000040: eab7 ecbd 548f 263e 1686 913c ee8f 62bb
00000050: 363e ac3c ea20 5cbc de0b 233c 35a1 c13c
00000060: f4a9 33bc b9f6 febd 47b3 483e 81a1 0bbe
00000070: 6864 f7bb 030d 823c 7fd5 31bd 3a17 6fbd
00000080: 4370 ff3c a9f1 c03d fcd4 c4bc c6a5 683d
00000090: 34ff 1dbe 4c33 a03a 3634 963d 0d35 a9bc
000000a0: f086 01bc 13dd 823c 3548 8a3d 1df3 22bd
000000b0: 81f8 603d 0e83 09be 6cd1 05bd 16cb 293d
000000c0: 743e 66bc 0eab 18bd ca13 4ebb 27f2 963d
000000d0: 37fb 09bd 799d 353d 4c6d 563c 162b 27bd
000000e0: 1e4f 383b c4e5 c5bc 1fda bf3c 8aa3 16bc
000000f0: 1c6f a13e eaf4 07bd ee56 393d cf55 80bc
00000100: 80ff 063c c3ac 48bc a881 42b9 46a7 37bc
00000110: 0359 c7bb c8f9 993e 0712 74bc b008 3a3d
00000120: 0bbb ec38 d6f2 013d 1d57 283c 75fa a63c
00000130: 6e89 0ebc e010 a83c 9507 903e a47a ddba
00000140: 02e2 ea3c 40de 86bd b1f5 f8bd 5a74 69bd
00000150: 1737 21bd 8950 a8ba ef36 cc3c 9220 b73d
00000160: e709 2a3d 9de5 03bd 5c40 6abd 9800 d0bd
00000170: e1ee 9abd 1d21 32bd 2485 0c3c e972 cf3c
00000180: 5a68 bd3d 3089 133d 932b 753c c8e9 85bd
00000190: 9385 0fbe ef6b 3fbd 6b2f 40bb fb11 053d
000001a0: b77d b33c 7b7b 5f3d 2cfe 853c 2cf7 b8b9
000001b0: 7416 cdbb 4c31 f33a df4e 6bbc 3de0 33bd
000001c0: 543f 313c 14c4 6abc 3c65 8fbd c8ed 823d
000001d0: 7e1b 79be 55dd a73b 6b4d 783c 15c4 c83b
000001e0: 18cd ac3c 52e5 b4bb e183 6dbc db0f 9bbd
000001f0: 03c4 373d 1eb0 85be 7014 42b9 02eb 32bc
00000200: d975 a83b c26d d23c 921c 76bb 3aa8 ad3c
00000210: 53b6 33bd 87da 0f3d 2333 80be 0ed4 903d
00000220: ae2d 4c3e 8626 0f3d 3f88 533d ac00 d5bc
00000230: a0c2 e43b b571 903d 56d1 213c 725c 9cbd
00000240: dcec c13c 3303 453e 8d2a 3a3d 0e68 fd3c
00000250: d561 0fbd 9e36 11bd 6b53 a43d cbbf 8e3b
00000260: 3e18 46bd f1d8 a23d 5ba1 313e b70e 1f3d
00000270: 8ff8 fd3c c83d 3cbd ea05 88bb 334c 4c3d
00000280: 8ad7 e1bc a469 12bd b82e 1f3b b589 263c
00000290: a410 c53c 9c1c 973b 2331 6a3b 1a22 d83c
000002a0: bed2 b9bc 844e b8bc 48be 8abe e2c2 5fbb
000002b0: 1a94 efba 9140 b7bc 40e7 b9bb 10ba de3b
000002c0: 7557 b0bc 380e dabc 5c78 5bbd cf43 97be
000002d0: ebfc debb b507 2a3c 2ac2 8dbb 9226 bfbb
000002e0: a0f8 35bc 4363 c3bb fd67 2e3c 1079 2dbc
000002f0: c7bc 8ebe 7a9b bc3d 01ee 513c 2346 c3bd
00000300: 8a7c 4c3d 063e 583b 1f22 f73c cc75 a5bd
00000310: feb6 2b3d 1e09 36bd d3ed d13d e0c5 933d
00000320: 0aea 7fbd 253a 763d 128d bc3c 1867 153d
00000330: 406b 8bbd 490c 333d 2570 39bd 8836 d33d
00000340: 5f97 333d 4595 73bd c7a7 253d 150b c73c
00000350: 055d 273c a4cb 7fbd b6f9 a53d e1ec 16bd
00000360: 4361 a83d b3a7 7fbc b654 6abe 292b 32bb
00000370: efda 83bb 92ba 5fb9 de22 083c d7a7 fe3c
00000380: 02b8 ed3b 1fc5 ca3d 1ce2 1cbd 6fc8 4bbe
00000390: 1349 1ebb 8c6c 5dbc 500d 073c ae1f 563c
000003a0: 16df 5dbc c4b3 f0bc fc19 9d3d f298 a13a
000003b0: 4583 23be b895 a13b 96bf c23c c043 08bc
000003c0: 6116 c2bc b122 b7bc fba1 8b3c dc1b 5c3c
000003d0: 2a77 02be 48c0 263e dd76 0a3c 2ea5 393c
000003e0: cd09 d4bb f6de 40bc a624 61bc ce6a 5abc
000003f0: d33e 0f3c 69f8 09be aef8 353e 7d00 c6bb

head.conv.bias f4 [32]
0.14982884 0.059063327 0.17079738 -0.09287536 -0.051376816 -0.1644704 0.022127852 0.10996847
-0.07161008 -0.059667915 0.13566674 0.054780688 0.07786994 0.061452985 0.011708047 -0.15396401
0.101045884 -0.052442744 0.10267271 0.032887153 0.187899 0.09661327 0.025787044 0.024323117
0.052778974 0.08425034 -0.094389394 0.007469474 -0.01614524 0.18611687 0.0816629 0.052217465
00000000: bb6c 193e 63ec 713d 82e5 2e3e 7035 bebd
00000010: 7f70 52bd ee6a 28be 7845 b53c 2637 e13d
00000020: 4ea8 92bd 5866 74bd 39ec 0a3e b761 603d
00000030: 467a 9f3d 20b6 7b3d 1cd3 3f3c bea8 1dbe
00000040: 25f1 ce3d 34ce 56bd 1246 d23d aeb4 063d
00000050: 9868 403e 2edd c53d 5a3f d33c 4641 c73c
00000060: c42e 583d 718b ac3d 3a4f c1bd 7dc2 f43b
00000070: 0643 84bc 6c95 3e3e e13e a73d fbe1 553d

head.norm.weight f4 [32]
0.973754 0.95937604 1.0743794 0.97062296 1.0951451 0.79889435 0.87145835 0.89740837
1.1552529 1.3301502 0.90565974 0.91532993 0.7740521 0.79238224 0.8553977 0.8984188
0.89849555 1.1891282 0.85924923 1.1594326 0.85903966 1.0282605 1.0146841 0.96104145
0.9384166 0.8518812 1.1662152 0.93352336 0.84008294 1.0552638 0.9273248 0.87973636
00000000: f147 793f ab99 753f 4485 893f bf7a 783f
00000010: b72d 8c3f 5784 4c3f e517 5f3f 8ebc 653f
00000020: 54df 933f 5d42 aa3f 51d9 673f 1053 6a3f
00000030: 4728 463f 90d9 4a3f 58fb 5a3f c6fe 653f
00000040: ce03 663f 5a35 983f c2f7 5b3f 4a68 943f
00000050: 06ea 5b3f 0a9e 833f 2be1 813f d006 763f
00000060: 123c 703f e314 5a3f 8a46 953f 63fb 6e3f
00000070: ad0f 573f e212 873f 2865 6d3f 6736 613f

head.norm.bias f4 [32]
-0.008157566 -0.21521942 -0.030347234 -0.42993852 -0.029271046 -0.17346601 -0.023665765 -0.30547607
-0.012485512 -0.014778956 -0.13302185 -0.46647218 -0.110065706 -0.19858627 -0.15771782 -0.16740638
-0.17532964 -0.016097838 -0.252243 -0.0089046005 -0.3607111 -0.18693613 -0.37989506 -0.059792407
-0.42051688 -0.32555056 0.0113675995 -0.44444922 -0.23193906 -0.52028525 -0.21650861 -0.09604249
00000000: 50a7 05bc 7b62 5cbe c39a f8bc e720 dcbe
00000010: d5c9 efbc 13a1 31be b5de c1bc 5c67 9cbe
00000020: 0890 4cbc 6f23 72bc e136 08be 71d5 eebe
00000030: 216a e1bd 335a 4bbe c880 21be 946c 2bbe
00000040: 9d89 33be 9ddf 83bc ff25 81be 9ae4 11bc
00000050: 20af b8be 2f6c 3fbe 9b81 c2be e2e8 74bd
00000060: fd4d d7be 90ae a6be 2b3f 3a3c d98e e3be
00000070: 6f81 6dbe 6a31 05bf 6fb4 5dbe edb1 c4bd

head.norm.running_mean f4 [32]
0.15134963 0.057413492 0.17984031 -0.09653267 -0.05885531 -0.15646572 0.01308346 0.11292346
-0.075248554 -0.057968978 0.14338787 0.04553736 0.08064451 0.06806949 0.006547101 -0.15216367
0.10139144 -0.049163386 0.098150566 0.04031882 0.1835106 0.10292408 0.023035653 0.034563012
0.051172633 0.0838436 -0.106330484 0.004745371 -0.01290151 0.17752802 0.080537796 0.05486551
00000000: 66fb 1a3e 692a 6b3d 0f28 383e ecb2 c5bd
00000010: 4412 71bd 8d38 20be 025c 563c 6a44 e73d
00000020: ea1b 9abd e170 6dbd 45d4 123e 6285 3a3d
00000030: f328 a53d 0468 8b3d 1089 d63b cbd0 1bbe
00000040: 51a6 cf3d 8c5f 49bd 2a03 c93d 5925 253d
00000050: 34ea 3b3e dcc9 d23d 44b5 bc3c f291 0d3d
00000060: 659a 513d 31b6 ab3d ccc3 d9bd 0f7f 9b3b
00000070: db60 53bc e8c9 353e 00f1 a43d a8ba 603d

head.norm.running_var f4 [32]
0.24678893 0.18885392 0.50900865 0.17209183 0.3887143 0.28371 0.44772044 0.16566227
0.2569599 0.292644 0.17572182 0.16524604 0.16836347 0.15580766 0.18057945 0.16731586
0.16197222 0.41883078 0.17284544 0.6433076 0.18153608 0.31016332 0.17731763 0.21976483
0.1804607 0.15837476 0.92833376 0.1886928 0.15569256 0.2588127 0.1647381 0.14513852
00000000: 3db6 7c3e ec62 413e 644e 023f d738 303e
00000010: 9005 c73e 7042 913e 9d3b e53e 5fa3 293e
00000020: 3f90 833e 6fd5 953e 6cf0 333e 4236 293e
00000030: 7967 2c3e 0b8c 1f3e d2e9 383e d954 2b3e
00000040: 0cdc 253e fd70 d63e 65fe 303e cfaf 243f
00000050: 98e4 393e bacd 9e3e c192 353e 080a 613e
00000060: b1ca 383e fe2c 223e 48a7 6d3f af38 413e
00000070: df6d 1f3e 1983 843e 1bb1 283e 319f 143e

body.block1.conv.weight f4 [32, 32, 3, 3]
0.040944345 0.04649695 -0.15560529 -0.022849783 0.034662887 -0.1296661 0.035507385 0.051800564
-0.2426131 -0.01334346 0.12195103 0.022914775 -0.074357994 0.06662155 -0.09031662 -0.025399676
-0.05709045 -0.030500272 -0.01790471 0.03970203 0.04432045 0.08183326 -0.039042305 -0.055053566
0.11780892 0.018897414 0.006320572 0.030332262 0.0018944106 0.0021539908 0.0043622754 -0.047272637
-0.05037093 0.035686698 -0.05886406 -0.09981118 -0.006638097 0.015214195 -0.1569863 -0.011741422
-0.02645389 -0.2070649 -0.08019834 -0.04786805 -0.15708195 0.053092018 -0.054169692 -0.033808243
0.03569995 -0.0261732 -0.029731113 0.059899617 0.0022206595 -0.07943306 0.0051836385 -0.05891641
-0.08101955 -0.02583361 -0.008957827 -0.20353682 0.028437277 -0.08355586 -0.13167147 0.07558807
0.057962358 -0.08336746 0.050593726 0.04451591 -0.07688688 -0.07498744 -0.05136353 -0.04874231
0.041621357 -0.089934774 -0.090653904 0.018511593 -0.0016021195 -0.1008459 -0.012019744 -0.026226455
-0.05197149 0.030410185 -0.018471463 -0.17867364 0.050002582 0.017582675 -0.049167834 0.016035656
0.027998604 -0.16126588 0.020675797 0.003454709 -0.026865765 -0.04368089 0.10166574 0.0020142745
0.070434995 -0.052469295 0.047000006 0.018190034 -0.024268981 -0.06586771 -0.02895453 0.011890954
-0.053669423 0.07361624 -0.016992554 -0.011022941 0.019338433 0.038044322 0.026975345 -0.0065067285
0.029435158 -0.0482699 0.015030309 0.02312567 -0.019215278 0.01512715 0.00052396616 -0.13729845
0.037857857 0.005810672 -0.06280862 0.052105732 -0.0714255 -0.09864491 0.011224262 -0.032740846
-0.0064275647 0.09306355 0.014309829 0.016636353 0.005986442 0.018636934 -0.0033525568 0.039230213
-0.006858248 0.011246377 0.039945092 0.058129918 0.053529225 0.14494461 -0.012358796 0.0036551543
-0.038061693 -0.03341679 -0.00325958 0.04177525 0.041962028 -0.009148014 -0.010317215 0.0806966
0.067762055 0.020800535 -0.04904407 -0.10864717 -0.0055386545 0.009450069 -0.06749823 0.11753948
0.0041386983 -0.07207535 -0.049949076 -0.03985553 -0.09366503 -0.008981146 0.008400716 -0.032034747
0.03628755 0.05490098 -0.06551967 -0.02434565 0.032311827 0.033477236 0.040589005 0.0034620406
-0.007438104 0.13069129 0.0046688407 0.05647535 -0.00038843494 -0.058893368 0.012589347 -0.06066385
-0.018942486 -0.06614268 0.016580641 -0.05147214 -0.1194764 0.0020511367 -0.013431711 -0.09729349
-0.047187623 -0.022717673 -0.059144206 0.0330195 -0.12604514 -0.024967715 0.033723533 -0.10635304
-0.09137609 -0.024011223 0.045462236 -0.0607839 -0.035464577 0.052061602 -0.04150061 0.047097117
0.05470943 -0.03581053 0.096320495 0.026133867 -0.03862726 0.00038777586 -0.024709225 -0.008456851
0.01978973 0.07573359 -0.051406838 0.087776914 -0.10374998 -0.018311463 0.02165713 -0.06136903
-0.03624448 0.059805773 0.029231375 -0.058388542 -0.037524406 -0.036529914 -0.054541208 -0.025507722
0.025293691 -0.19601142 0.0053556054 0.09264541 0.037869237 0.09180839 -0.013100262 0.00643171
-0.021090318 0.085036755 0.0010964731 0.026042383 0.04291894 -0.073622674 -0.04007273 0.043142807
-0.026074389 0.059116635 -0.0061390954 -0.091072984 0.033164084 -0.045802493 -0.028677847 0.031779718
00000000: 42b5 273d 9673 3e3d fe56 1fbe 782f bbbc
00000010: acfa 0d3d 31c7 04be 3170 113d d42c 543d
00000020: 926f 78be 879e 5abc 76c1 f93d c4b7 bb3c
00000030: 0149 98bd e170 883d ecf7 b8bd fb12 d0bc
00000040: add7 69bd b5db f9bc e6ac 92bc 999e 223d
00000050: 5c89 353d 3298 a73d d3ea 1fbd d97f 61bd
00000060: ce45 f13d c0ce 9a3c cd1c cf3b 5d7b f83c
00000070: df4d f83a f829 0d3b 6bf1 8e3b f4a0 41bd
00000080: c051 4ebd 372c 123d 711b 71bd ce69 ccbd
00000090: 6584 d9bb f544 793c 04c1 20be 185f 40bc
000000a0: d4b5 d8bc d208 54be 073f a4bd 4a11 44bd
000000b0: 17da 20be 0477 593d 0ae1 5dbd 837a 0abd
000000c0: 1c3a 123d 2e69 d6bc aa8e f3bc 4d59 753d
000000d0: 7c88 113b cdad a2bd 83db a93b 5552 71bd
000000e0: 94ed a5bd 02a1 d3bc dac3 12bc f56b 50be
000000f0: 4bf5 e83c 561f abbd e3d4 06be ebcd 9a3d
00000100: f069 6d3d 8fbc aabd 5e3b 4f3d 5156 363d
00000110: de76 9dbd 0493 99bd 9162 52bd 04a6 47bd
00000120: 287b 2a3d b92f b8bd c1a8 b9bd a0a5 973c
00000130: 36fe d1ba 4c88 cebd 76ee 44bc ddd8 d6bc
00000140: 0fe0 54bd c81e f93c 7751 97bc 39f6 36be
00000150: 82cf 4c3d 8b09 903c 3664 49bd 355d 833c
00000160: 545d e53c e222 25be 4a60 a93c 6668 623b
00000170: 9815 dcbc bcea 32bd 2136 d03d eb01 043b
00000180: 3940 903d 0bea 56bd 1483 403d 4403 953c
00000190: becf c6bc a6e5 86bd 0d32 edbc 47d2 423c
000001a0: 78d4 5bbd 1cc4 963d f833 8bbc 9199 34bc
000001b0: a26b 9e3c 5dd4 1b3d 66fb dc3c 6536 d5bb
000001c0: 0022 f13c a9b6 45bd af41 763c 0c72 bd3c
000001d0: 5c69 9dbc ded7 773c c65a 093a f797 0cbe
000001e0: d710 1b3d 7367 be3b cea1 80bd d26c 553d
000001f0: 8847 92bd 5806 cabd f8e5 373c 441b 06bd
00000200: 529e d2bb 1a98 be3d c673 6a3c f648 883c
00000210: ea29 c43b 7cac 983c 92b6 5bbb dcaf 203d
00000220: 27bb e0bb b942 383c 779d 233d a319 6e3d
00000230: 7641 5b3d 5c6c 143e 8c7c 4abc 508b 6f3b
00000240: 94e6 1bbd 0be0 08bd ad9e 55bb 861c 2b3d
00000250: 60e0 2b3d 8de1 15bc 8909 29bc 4244 a53d
00000260: d5c6 8a3d e265 aa3c 6fe2 48bd 6882 debd
00000270: 9a7d b5bb 76d4 1a3c 833c 8abd 8ab8 f03d
00000280: eb9d 873b 3e9c 93bd 6797 4cbd 8d3f 23bd
00000290: 74d3 bfbd a825 13bc 28a3 093c de36 03bd
000002a0: 41a2 143d dadf 603d 2d2f 86bd 8770 c7bc
000002b0: 6859 043d 6d1f 093d a840 263d 67e3 623b
000002c0: 57bb f3bb f0d3 053e 13fd 983b b252 673d
000002d0: dba6 cbb9 2c3a 71bd 8c43 4e3c a87a 78bd
000002e0: 462d 9bbc d075 87bd 20d4 873c 73d4 52bd
000002f0: 0bb0 f4bd 5d6c 063b ae10 5cbc cf41 c7bd
00000300: cf47 41bd 6a1a babc 3241 72bd 753f 073d
00000310: fa11 01be 1889 ccbc b021 0a3d 9fcf d9bd
00000320: 6323 bbbd 2fb3 c4bc 9c36 3a3d 8af8 78bd
00000330: 4e43 11bd 8c3e 553d 8bfc 29bd e8e8 403d
00000340: ff16 603d 10ae 12bd ae43 c53d b116 d63c
00000350: 9e37 1ebd 654e cb39 006b cabc 9b8e 0abc
00000360: 121e a23c 361a 9b3d fa8f 52bd 62c4 b33d
00000370: df7a d4bd ec01 96bc 4b6a b13c 185e 7bbd
00000380: 1875 14bd e6f6 743d a376 ef3c d328 6fbd
00000390: 31b3 19bd 64a0 15bd 9a66 5fbd 92f5 d0bc
000003a0: b734 cf3c 38b7 48be 137e af3b e0bc bd3d
000003b0: c61c 1b3d 0a06 bc3d 7ba2 56bc 18c1 d23b
000003c0: 9ac5 acbc c027 ae3d 88b7 8f3a d656 d53c
000003d0: c5cb 2f3d 7cc7 96bd 4e23 24bd 83b6 303d
000003e0: f599 d5bc 4924 723d 772a c9bb 7984 babd
000003f0: 10d7 073d 659b 3bbd ceed eabc 732b 023d

body.block1.conv.bias f4 [32]
0.05207917 0.015351065 0.021000933 -0.036571052 -0.03729643 0.021565273 -0.009770539 -0.0060421606
-0.03221404 0.04218376 0.034557503 -0.056329116 -0.0042750826 -0.010301713 0.039214294 -0.03537509
0.04520958 -0.047504343 0.012440838 -0.03266957 0.043198764 -0.060656544 -0.0153351445 -0.025381852
0.021673836 -0.011314949 0.025254404 -0.025933767 -0.011838432 0.00046553704 -0.037630998 0.0104014035
00000000: f850 553d 0983 7b3c 260a ac3c 87cb 15bd
00000010: 24c4 18bd a8a9 b03c 9c14 20bc 51fd c5bb
00000020: dff2 03bd e1c8 2c3d 2b8c 0d3d 5cb9 66bd
00000030: fe15 8cbb 84c8 28bc 2b9f 203d 78e5 10bd
00000040: ae2d 393d ea93 42bd a8d4 4b3c 87d0 05bd
00000050: 30f1 303d ff72 78bd 4240 7bbc 9aed cfbc
00000060: 548d b13c 5662 39bc 53e2 ce3c 0d73 d4bc
00000070: fcf5 41bc 5313 f439 f622 1abd a66a 2a3c

body.block1.norm.weight f4 [32]
1.0020056 0.85221255 0.8661771 0.87574923 0.9364551 0.93346554 0.8833354 0.8245904
0.8554964 0.82324165 0.8139297 1.1084136 0.9578302 0.88230145 1.0704668 0.8873555
0.8298261 1.222614 0.8731796 0.8103622 0.8268595 0.9402447 0.9345157 0.8898733
1.0187167 0.9854312 1.3132173 0.8963707 0.842575 0.93189794 0.8678997 0.94294816
00000000: b841 803f 9a2a 5a3f c8bd 5d3f 1a31 603f
00000010: 85bb 6f3f 99f7 6e3f 4522 623f 5b18 533f
00000020: d001 5b3f f7bf 523f b25d 503f 7fe0 8d3f
00000030: 5c34 753f 82de 613f 0e05 893f bb29 633f
00000040: 7c6f 543f 9e7e 9c3f b388 5f3f e673 4f3f
00000050: 10ad 533f e0b3 703f 6c3c 6f3f bdce 633f
00000060: 4f65 823f 3845 7c3f 8117 a83f 8d78 653f
00000070: ffb2 573f dd90 6e3f ad2e 5e3f 0d65 713f

body.block1.norm.bias f4 [32]
-0.16356339 -0.3865558 -0.39616376 -0.40239847 -0.19851238 -0.17618999 -0.29657248 -0.31373557
-0.411121 -0.41253048 -0.38516748 -0.3922805 -0.12237438 -0.25549075 -0.33792824 -0.49432877
-0.48545256 -0.29109 -0.5387565 -0.42500496 -0.43385297 -0.4343253 -0.2174732 -0.6614336
-0.13386741 -0.6109746 -0.44375435 -0.20389354 -0.18090463 -0.6609956 -0.3019584 -0.15913641
00000000: 297d 27be a4ea c5be fad5 cabe 2c07 cebe
00000010: d446 4bbe 266b 34be 59d8 97be f3a1 a0be
00000020: 747e d2be 3237 d3be ac34 c5be fdd8 c8be
00000030: 6b9f fabd afcf 82be ee04 adbe a918 fdbe
00000040: 3d8d f8be c009 95be f2eb 09bf 409a d9be
00000050: fa21 debe e35f debe 4bb1 5ebe b653 29bf
00000060: 8a14 09be d568 1cbf c533 e3be 78c9 50be
00000070: 103f 39be 0237 29bf 4b9a 9abe a8f4 22be

body.block1.norm.running_mean f4 [32]
-0.47228178 -0.35806102 -0.5165413 -0.46717897 0.12956618 -1.2491864 -0.436479 -0.6533454
0.75255036 -0.26827064 0.3112255 -0.76447624 -0.55719554 -0.038912207 -0.9196584 0.08997099
-0.65348005 -1.7660576 -0.5303625 -0.24469036 0.23276472 -0.52412474 -0.5328293 0.09324757
-0.87629354 -0.68700373 -1.9230436 -0.15375084 -0.10785219 1.0335228 -0.6863794 -0.6765366
00000000: ebce f1be c653 b7be 0d3c 04bf 1532 efbe
00000010: ffac 043e 57e5 9fbf 2d7a dfbe a541 27bf
00000020: 24a7 403f c55a 89be f358 9f3e b7b4 43bf
00000030: 5ea4 0ebf 6862 1fbd bc6e 6bbf b642 b83d
00000040: 784a 27bf 2d0e e2bf d6c5 07bf 1c90 7abe
00000050: e059 6e3e 0a2d 06bf 8067 08bf 95f8 be3d
00000060: c654 60bf 7adf 2fbf 4b26 f6bf dc70 1dbe
00000070: 9ce1 dcbd 7a4a 843f 8fb6 2fbf 8131 2dbf

body.block1.norm.running_var f4 [32]
0.8370118 1.4445598 0.97191226 0.8666965 1.1011622 1.7234914 1.2765818 2.0463438
1.2237607 1.1217308 0.59383714 0.73282576 1.3163576 1.1666576 0.85444546 1.1311784
1.6769941 1.6619889 1.206784 0.84742296 1.3887901 1.6361989 1.2060823 1.2689803
1.6241864 2.0521173 2.0364423 0.8903872 1.2510461 1.498371 1.2574402 1.076313
00000000: 6846 563f 56e7 b83f 3ecf 783f d2df 5d3f
00000010: e2f2 8c3f 5e9b dc3f 0867 a33f 4cf7 0240
00000020: 31a4 9c3f e094 8f3f b605 183f 789a 3b3f
00000030: 687e a83f 0955 953f f0bc 5a3f 74ca 903f
00000040: bea7 d63f 0dbc d43f e677 9a3f b6f0 583f
00000050: e0c3 b13f f76e d13f e860 9a3f f26d a23f
00000060: 57e5 cf3f e455 0340 1255 0240 6af0 633f
00000070: 4722 a03f 9fca bf3f cdf3 a03f a0c4 893f

body.block2.conv.weight f4 [32, 32, 3, 3]
-0.13022245 0.03175728 0.08082975 0.022135051 -0.058941513 0.033880223 -0.08431155 0.09973462
-0.0038920788 -0.051908687 -0.045132462 -0.06324967 -0.11819462 -0.12634812 -0.058600914 -0.0756169
0.0181198 0.016357567 -0.12800708 -0.018974494 -0.03679853 -0.037149116 -0.009881875 -0.014689723
-0.02769065 0.025180962 0.03000593 0.03187372 0.023516368 -0.066451274 -0.08257987 -0.021058833
0.022335026 0.00429865 0.010311182 0.11157908 0.06311918 0.012659088 0.08696631 0.03310381
-0.061206724 0.0792039 0.06975278 -0.05308125 -0.02212581 -0.015629144 0.040895622 0.0502394
0.0075249216 0.025859058 0.0012229914 0.05502957 -0.023226831 0.030721366 -0.09593219 -0.08922482
-0.0131086 0.021721529 0.08611969 -0.05218265 0.049888555 0.022516945 0.08355185 0.059511684
0.016741812 -0.032542143 -0.0022815194 -0.02930513 -0.07164551 0.039323382 -0.053468727 0.011231315
0.006704048 0.01686608 0.018062888 -0.017898303 0.011572628 0.057587985 -0.08504698 -0.027319174
0.06963563 0.004724042 -0.06090922 0.06567218 0.028875384 0.020966187 0.011377706 0.09264973
0.061148513 0.034154043 0.09831296 -0.009926704 0.031556513 -0.010505996 -0.012454381 -0.0075109215
0.0360901 0.026253775 0.013197451 -0.037345897 0.046307396 0.066955104 0.005648435 -0.0011277386
-0.034070324 -0.0077261617 0.03459049 -0.04352015 -0.10870265 -0.042704247 0.0059388606 -0.026312493
0.042202577 -0.006859973 0.03162039 0.005246298 -0.026851129 0.00684288 0.053626306 0.059683353
0.066454165 -0.091612995 0.014761171 -0.051314708 -0.042622745 -0.052138258 -0.0144619355 -0.06660844
-0.032212734 0.067334615 0.037854414 0.06910055 -0.060928468 -0.0036446622 0.04828158 0.043146063
-0.045008563 0.045740522 0.032168515 0.039584644 -0.031499196 -0.006840711 -0.037888147 -0.017621923
-0.045099568 0.025883187 -0.027714418 0.051336046 -0.05164257 -0.052222185 0.078867 -0.009376976
0.055065617 -0.054150403 -0.07535613 -0.034469113 -0.0033704378 -0.05666854 -0.02541868 -0.22633357
-0.19552328 -0.05483372 -0.16668162 0.0080181435 0.009239432 -0.061935943 0.05577837 0.038414672
0.010011722 -0.02765724 0.008282035 -0.06739893 -0.053141415 -0.0076474864 0.0042061163 -0.11481198
-0.0607971 0.00727364 0.021549078 0.014483748 -0.04324065 -0.036528815 -0.00060812704 -0.014730761
0.028320802 0.024946405 0.04315449 0.02708463 0.007244458 -0.033343542 -0.03654232 -0.023503665
0.031904746 0.08312303 0.005442179 0.12107104 0.10329581 -0.023684075 0.018970285 0.06527352
-0.0117451865 0.08569235 0.022968274 -0.11805156 0.09794713 0.04861224 0.010539132 -0.086986534
0.05045695 -0.1574612 -0.0053780093 0.008245915 0.048118945 0.025828049 0.07750439 0.015110094
0.025668053 -0.08681428 -0.0724356 0.09898703 0.11753297 -0.0313073 0.13280174 0.07463276
0.09962772 -0.072570056 -0.10706078 -0.05599306 -0.00020924573 -0.013341039 0.013478482 0.0050177905
0.018895196 0.09283719 -0.0010884186 -0.07317339 -0.060350765 -0.020278882 -0.053447325 -0.115959644
-0.18333152 -0.045783922 -0.04356469 0.0687564 0.041958366 -0.013957328 -0.0020872827 0.084052145
0.006900376 -0.07220837 -0.018310187 0.071232356 0.09479171 -0.046813514 -0.07992733 0.06546132
00000000: 0959 05be ec13 023d 118a a53d 9154 b53c
00000010: a86c 71bd fdc5 0a3d 89ab acbd aa41 cc3d
00000020: 3f12 7fbb 349e 54bd d1dc 38bd 0b89 81bd
00000030: 0510 f2bd 6761 01be 8307 70bd 09dd 9abd
00000040: fa6f 943c 4e00 863c 4a14 03be 6670 9bbc
00000050: 0eba 16bd ac29 18bd 96e7 21bc 2aad 70bc
00000060: 81d7 e2bc 4e48 ce3c ffce f53c 058e 023d
00000070: 66a5 c03c 9b17 88bd a31f a9bd 9383 acbc
00000080: f2f7 b63c b1db 8c3b 3bf0 283c 9383 e43d
00000090: a144 813d 1068 4f3c 651b b23d dc97 073d
000000a0: e7b3 7abd a835 a23d 8cda 8e3d ba6b 59bd
000000b0: 3041 b5bc b108 80bc 2b82 273d d4c7 4d3d
000000c0: 9e93 f63b 60d6 d33c c84c a03a b066 613d
000000d0: 3246 bebc 60ab fb3c 1978 c4bd 81bb b6bd
000000e0: 74c5 56bc 59f1 b13c 855f b03d 79bd 55bd
000000f0: f157 4c3d 7575 b83c 3b1d ab3d 86c2 733d
00000100: 2026 893c e94a 05bd 8b85 15bb 5011 f0bc
00000110: e2ba 92bd 8e11 213d 0602 5bbd 8d03 383c
00000120: a1ad db3b bc2a 8a3c 9ff8 933c 769f 92bc
00000130: 1f9b 3d3c 61e1 6b3d 1c2d aebd 76cc dfbc
00000140: 209d 8e3d 23cc 9a3b f27b 79bd 237f 863d
00000150: 128c ec3c 48c1 ab3c 8f69 3a3c 24bf bd3d
00000160: dd76 7a3d 1ce5 0b3d 4e58 c93d 9da3 22bc
00000170: 6741 013d 5721 2cbc 760d 4cbc 2d1e f6bb
00000180: 36d3 133d 2812 d73c 1f3a 583c 03f8 18bd
00000190: d3ac 3d3d c21f 893d 8216 b93b a1d0 93ba
000001a0: 538d 0bbd be2b fdbb c2ae 0d3d 2f42 32bd
000001b0: 7f9f debd a6ea 2ebd c69a c23b 4c8d d7bc
000001c0: 9cdc 2c3d a0c9 e0bb 6284 013d 23e9 ab3b
000001d0: e6f6 dbbc 3d3a e03b 42a7 5b3d 8876 743d
000001e0: 1f19 883d 989f bbbd d7d8 713c 5f2f 52bd
000001f0: 3095 2ebd ed8e 55bd c1f1 6cbc 016a 88bd
00000200: 80f1 03bd bbe6 893d 3b0d 1b3d 9784 8d3d
00000210: 2190 79bd 49db 6ebb e8c2 453d edb9 303d
00000220: e65a 38bd 6a5a 3b3d 22c3 033d 8223 223d
00000230: 4d05 01bd 0b28 e0bb 9a30 1bbd da5b 90bc
00000240: 53ba 38bd fa08 d43c 5909 e3bc bf45 523d
00000250: 2987 53bd eee6 55bd 0685 a13d e3a1 19bc
00000260: 7c8c 613d d0cc 5dbd 5154 9abd 7c2f 0dbd
00000270: 90e2 5cbb 451d 68bd d63a d0bc fdc3 67be
00000280: 4137 48be 5399 60bd 96ae 2abe 885e 033c
00000290: fd60 173c 8bb0 7dbd dc77 643d b458 1d3d
000002a0: 3508 243c 7091 e2bc 5fb1 073c 7308 8abd
000002b0: d0aa 59bd c497 fabb 76d3 893b 8b22 ebbd
000002c0: 6106 79bd b757 ee3b b187 b03c 3e4d 6d3c
000002d0: 1c1d 31bd 3d9f 15bd b76a 1fba 4a59 71bc
000002e0: 0701 e83c 675c cc3c c3c2 303d 96e0 dd3c
000002f0: eb62 ed3b 3d93 08bd 66ad 15bd c28a c0bc
00000300: 8dae 023d 683c aa3d 4e54 b23b 18f4 f73d
00000310: c18c d33d 1b05 c2bc 9267 9b3c 20ae 853d
00000320: e26e 40bc 797f af3d f627 bc3c 04c5 f1bd
00000330: 8198 c83d a11d 473d 53ac 2c3c ff25 b2bd
00000340: f2ab 4e3d 823d 21be 033a b0bb e019 073c
00000350: 5f18 453d 5895 d33c 9fba 9e3d 5490 773c
00000360: cf45 d23c afcb b1bd 1e59 94bd b6b9 ca3d
00000370: 20b5 f03d 153c 00bd 2efd 073e 0fd9 983d
00000380: 9e09 cc3d 9c9f 94bd af42 dbbd fb58 65bd
00000390: f968 5bb9 6094 5abc dad4 5c3c 476c a43b
000003a0: 19ca 9a3c 6d21 be3d 45a9 8eba eedb 95bd
000003b0: 5d32 77bd e61f a6bc 95eb 5abd 407c edbd
000003c0: 42bb 3bbe ec87 3bbd e370 32bd 28d0 8c3d
000003d0: 89dc 2b3d 47ad 64bc cbca 08bb 8823 ac3d
000003e0: 8d1c e23b fbe1 93bd 3fff 95bc 45e2 913d
000003f0: 2822 c23d 87bf 3fbd f1b0 a3bd 9610 863d

body.block2.conv.bias f4 [32]
0.010393212 -0.018554876 0.011385387 0.012791655 -0.061231334 -0.018180652 -0.031147035 -0.007389808
0.012041007 0.031019187 0.010154954 0.063174136 -0.043983523 0.026780099 -0.048714574 -0.025330834
0.043119326 0.0563921 0.030728022 -0.042217158 -0.04971022 0.04735943 0.03466546 0.034484368
-0.03628833 0.021990618 0.045455802 0.009209582 -0.043274228 0.021131603 -0.0072886106 0.047271926
00000000: 4a48 2a3c 6500 98bc c689 3a3c 1794 513c
00000010: b5cd 7abd 97ef 94bc 1128 ffbc 3426 f2bb
00000020: a547 453c f31b fe3c f760 263c 7161 813d
00000030: 1128 34bd f061 db3c ef88 47bd 9c82 cfbc
00000040: e49d 303d 67fb 663d 55b9 fb3c e6eb 2cbd
00000050: f29c 4bbd f6fb 413d 5ffd 0d3d 7b3f 0d3d
00000060: 12a3 14bd ab25 b43c dd2f 3a3d c9e3 163c
00000070: 5140 31bd 2f1c ad3c 4cd5 eebb 35a0 413d

body.block2.norm.weight f4 [32]
0.8786105 0.85382974 0.82267207 1.04104 0.8721399 0.971098 0.9634982 0.9880958
0.8695004 1.0846392 1.1066245 1.0430098 1.0225508 0.93894726 0.8625865 0.9973715
0.9920434 0.8017261 0.84157413 0.8833468 1.0076448 0.85920453 1.0988334 0.9696991
0.97443193 0.94812185 0.96386325 0.97983813 0.9683323 0.95931125 1.1063542 0.94547653
00000000: 9eec 603f 9694 5a3f a39a 523f cc40 853f
00000010: 8f44 5f3f e199 783f d1a7 763f d9f3 7c3f
00000020: 9497 5e3f 75d5 8a3f dfa5 8d3f 5881 853f
00000030: f2e2 823f d95e 703f 78d2 5c3f bd53 7f3f
00000040: 8ef6 7d3f ec3d 4d3f 6771 573f 0423 623f
00000050: 81fa 803f d4f4 5b3f 93a6 8c3f 333e 783f
00000060: 5f74 793f 1db8 723f bebf 763f acd6 7a3f
00000070: a0e4 773f 6c95 753f 049d 8d3f c00a 723f

body.block2.norm.bias f4 [32]
-0.16993123 -0.38528997 -0.2921415 -0.25561884 -0.28339058 -0.24205537 -0.28588796 -0.21386428
-0.40498245 -0.07048105 -0.2584393 -0.2032084 -0.20969388 -0.18100192 -0.36000818 -0.04468576
-0.2556813 -0.20996809 -0.4194732 -0.3844265 -0.10294454 -0.29515722 -0.29549178 -0.2672757
-0.20717198 -0.31648484 -0.28987962 -0.66148764 -0.2366797 -0.72537065 -0.2898552 -0.61607385
00000000: 7402 2ebe ba44 c5be 9293 95be 79e0 82be
00000010: 9218 91be 5ddd 77be e85f 92be 3dff 5abe
00000020: dc59 cfbe 5e58 90bd 2852 84be dd15 50be
00000030: feb9 56be 9158 39be fe52 b8be 6a08 37bd
00000040: a9e8 82be e001 57be 31c5 d6be 8dd3 c4be
00000050: 96d4 d2bd d91e 97be b34a 97be 5cd8 88be
00000060: e424 54be 4d0a a2be 1a6b 94be 4157 29bf
00000070: 2a5c 72be e4b1 39bf e767 94be 04b7 1dbf

body.block2.norm.running_mean f4 [32]
-0.0782578 -0.19936815 -0.19132921 0.21968776 0.30781132 -0.20478222 -0.0019889341 -0.123566605
0.1677992 0.1197055 0.41189313 -0.08404548 0.18231224 -0.33257344 0.015943231 -0.50070167
0.32166013 -0.13096768 -0.09971597 -0.3226875 0.0901866 -0.032015845 0.38219976 -0.35260278
-0.6267046 -0.4728703 0.2654756 -0.053501584 0.35264266 -0.27026713 0.11264233 -0.20117824
00000000: a045 a0bd 2a27 4cbe ceeb 43be d4f5 603e
00000010: 7299 9d3e 6eb2 51be c758 02bb 7d10 fdbd
00000020: 8ed3 2b3e 2828 f53d a8e3 d23e 0920 acbd
00000030: 0fb0 3a3e 1147 aabe 619b 823c fc2d 00bf
00000040: a3b0 a43e 641c 06be e337 ccbd 4c37 a5be
00000050: c1b3 b83d 0c23 03bd b0af c33e 5a88 b4be
00000060: b66f 20bf 0e1c f2be 6bec 873e 7a24 5bbd
00000070: 948d b43e 7460 8abe 06b1 e63d ab01 4ebe

body.block2.norm.running_var f4 [32]
0.73185843 0.3125203 0.5723908 0.82210755 0.48941475 0.6250603 0.5894002 0.33690602
0.5467989 1.316056 1.0160484 0.48324051 0.5362671 1.5501713 0.63315725 0.7873002
0.66972244 0.7012555 0.38650194 0.5791171 1.0654243 0.2950281 0.7489526 1.4766183
0.8946322 0.80952245 0.5850308 0.370498 1.1206743 0.49197975 1.3037295 0.61530477
00000000: 135b 3b3f a902 a03e 3488 123f a475 523f
00000010: 9294 fa3e f403 203f eee2 163f f27e ac3e
00000020: 03fb 0b3f 8674 a83f e00d 823f 4d6b f73e
00000030: cd48 093f 036c c63f 9816 223f 828c 493f
00000040: ee72 2b3f 7b85 333f 95e3 c53e 0541 143f
00000050: d35f 883f ec0d 973e 5cbb 3f3f d401 bd3f
00000060: 9e06 653f dd3c 4f3f 94c4 153f eab1 bd3e
00000070: 4172 8f3f c5e4 fb3e 9ce0 a63f 9d84 1d3f

body.block3.conv.weight f4 [32, 32, 3, 3]
-0.058531836 -0.053213768 -0.011844062 -0.102839984 -0.088023804 -0.040793024 -0.11920894 0.052568298
-0.014813013 0.08928268 0.078792974 -0.034745038 -0.00020874226 0.16938864 0.1104449 0.08599536
0.051287316 -0.12270893 0.028468492 0.05843828 -0.0078084352 -0.046482053 -0.03861549 -0.051753484
-0.08002777 -0.06943073 -0.056883078 -0.06729406 -0.049443755 -0.024016986 -0.042247362 0.02454449
0.08091401 0.053561505 0.08418199 0.14791155 -0.08315598 -0.026837455 -0.016514877 -0.06760939
-0.052483667 -0.035119984 -0.12602247 -0.059610996 -0.10666537 -0.07160082 -0.06157161 -0.05064909
-0.05240905 -0.07011163 0.004786695 -0.0522107 -0.06442227 -0.047673136 -0.13267374 -0.076685585
-0.059226587 -0.068384975 -0.049779866 -0.057650022 -0.018868405 -0.009999138 0.067715354 -0.0033796367
0.009743755 0.0052125077 -0.05889934 -0.04788129 -0.08782609 -0.16949403 -0.0393779 -0.021085924
-0.005373852 -0.066807844 -0.012368401 -0.060541086 -0.04741523 -0.061256416 -0.033629272 -0.027353313
-0.00075862865 0.037358336 5.7419224e-05 -0.019300085 -0.0068893796 -0.043884557 -0.013642531 0.13047336
0.0584068 0.08755621 0.028466843 0.03735175 0.04390714 -0.027766773 0.010225924 0.0030309935
0.0143366 0.011509045 0.03684854 0.12818077 0.12778613 -0.009956657 0.08130954 0.014331618
-0.016616536 -0.014898162 -0.0005586289 -0.02462833 -0.124499366 -0.037284784 0.019432284 -0.072802156
0.00031625092 -0.015003926 -0.09141857 -0.064398915 -0.07441757 0.093707174 0.075589925 0.040299322
0.08754999 0.061833445 0.025638722 0.07218166 0.017083641 -0.020600352 -0.09113446 -0.055450235
-0.019934326 -0.035875075 -0.01781412 -0.022851354 0.06783954 -0.0138268685 -0.17588064 -0.021734126
-0.006254194 -0.030583957 -0.05462708 -0.010049063 -0.076903015 -0.12023339 0.014927191 -0.03913449
-0.002993493 -0.055809803 -0.09520266 0.030868832 0.04945938 -0.005489123 0.011063724 0.015389387
-0.03563201 0.07430368 0.021886453 0.02691084 0.06533009 -0.018706767 -0.039868023 0.009016274
-0.059781037 -0.040296942 0.06619902 0.088498905 0.14636771 -0.09062641 0.05723579 -0.02872529
-0.029819572 0.096227385 -0.0577566 -0.004759962 -0.027903134 0.075068265 0.0008967392 -0.11286663
0.044474885 0.018038051 -0.06112673 -0.02683658 -0.0031604015 -0.006633712 -0.025246067 -0.0031389087
-0.060063615 0.00045086077 -0.071539156 -0.1087579 -0.07122168 0.003233326 -0.0007003022 -0.0070707533
-0.00028077062 -0.01960237 -0.036404047 -0.033590056 -0.048935838 -0.04741319 0.00492502 0.06369845
-0.06544814 -0.0063748993 0.06424666 0.012972623 0.13813044 0.07299096 0.10043842 -0.04710082
-0.09931987 -0.07295583 -0.04255421 -0.0007616218 -0.04840579 -0.020772172 0.007597271 -0.0047746636
0.028580878 0.001457725 -0.011291042 0.029244078 -0.02685192 -0.07096047 0.008494317 0.01349484
-0.012297716 0.021956097 -0.08046672 -0.073290154 0.023508849 -0.042392243 -0.022183154 0.02352038
-0.0010096214 0.03733766 0.028354367 0.095331356 0.048412953 -0.015881041 -0.023055365 0.032449536
0.08284183 -0.036190946 -0.0119703775 0.053716496 -0.10638589 -0.055681277 -0.026978824 -0.050321355
0.020736031 -0.0056492533 0.0073733376 -0.04385217 -0.04438094 -0.007524425 0.047617424 -0.014137715
00000000: 14bf 6fbd aef6 59bd 990d 42bc c59d d2bd
00000010: d345 b4bd 9616 27bd d123 f4bd db51 573d
00000020: 48b2 72bc d6d9 b63d 365e a13d d050 0ebd
00000030: d3e1 5ab9 3774 2d3e f030 e23d 561e b03d
00000040: a612 523d d24e fbbd c136 e93c fa5c 6f3d
00000050: e7dd ffbb f763 3ebd 472b 1ebd 76fb 53bd
00000060: 99e5 a3bd b331 8ebd 3bfe 68bd 78d1 89bd
00000070: 8985 4abd 45bf c4bc 920b 2dbd 8711 c93c
00000080: 3fb6 a53d 4f63 5b3d 9b67 ac3d 2076 173e
00000090: af4d aabd 39da dbbc 354a 87bc cb76 8abd
000000a0: 1df9 56bd f9d9 0fbd 090c 01be a92a 74bd
000000b0: 6073 dabd 73a3 92bd 8332 7cbd 6c75 4fbd
000000c0: dfaa 56bd b096 8fbd b5d9 9c3b e3da 55bd
000000d0: d3ef 83bd e844 43bd a0db 07be 550d 9dbd
000000e0: 9497 72bd 6c0d 8cbd f9e5 4bbd 6e22 6cbd
000000f0: ea91 9abc 6dd3 23bc 59ae 8a3d e57c 5dbb
00000100: 45a4 1f3c afcd aa3b 6f40 71bd 2c1f 44bd
00000110: 2ade b3bd d88f 2dbe b94a 21bd 63bc acbc
00000120: 2317 b0bb 8dd2 88bd d5a4 4abc eef9 77bd
00000130: 7936 42bd 02e8 7abd d9be 09bd 0e14 e0bc
00000140: b5de 46ba 0e05 193d 6cd5 7038 361b 9ebc
00000150: 4ec0 e1bb 4bc0 33bd ec84 5fbc cf9a 053e
00000160: f83b 6f3d ac50 b33d 4c33 e93c 26fe 183d
00000170: f9d7 333d 2577 e3bc a28a 273c a2a3 463b
00000180: 0fe4 6a3c 6f90 3c3c 7fee 163d d241 033e
00000190: 5eda 023e 3f21 23bc 9e85 a63d 2acf 6a3c
000001a0: 671f 88bc 6c17 74bc f370 12ba 5ac1 c9bc
000001b0: 86f9 febd eeb7 18bd 7430 9f3c 4c19 95bd
000001c0: 7bce a539 07d3 75bc a939 bbbd 94e3 83bd
000001d0: 3d68 98bd 8ce9 bf3d e4ce 9a3d e710 253d
000001e0: 694d b33d 1145 7d3d 4c08 d23c fad3 933d
000001f0: fef2 8b3c 12c2 a8bc b4a4 babd c91f 63bd
00000200: 504d a3bc bef1 12bd ebee 91bc c332 bbbc
00000210: 75ef 8a3d 178a 62bc 0e1a 34be c40b b2bc
00000220: fbef ccbb 358b fabc a5c0 5fbd d3a4 24bc
00000230: 547f 9dbd ec3c f6bd 2d91 743c 7d4b 20bd
00000240: 7b2e 44bb d298 64bd 9df9 c2bd a2e0 fc3c
00000250: eb95 4a3d 1ade b3bb 9f44 353c c423 7c3c
00000260: dff2 11bd 872c 983d 384b b33c 1f74 dc3c
00000270: c8cb 853d ef3e 99bc a74c 23bd feb8 133c
00000280: f6dc 74bd 680e 25bd 5a93 873d ea3e b53d
00000290: 6be1 153e 579a b9bd 1370 6a3d 4d51 ebbc
000002a0: 2d48 f4bc dd12 c53d 2f92 6cbd 75f9 9bbb
000002b0: 1d95 e4bc 64bd 993d 2613 6b3a 9f26 e7bd
000002c0: 4c2b 363d 89c4 933c 0660 7abd 63d8 dbbc
000002d0: bd1e 4fbb 9c5f d9bb d7d0 cebc 26b6 4dbb
000002e0: 4405 76bd 8261 ec39 1f83 92bd 76bc debd
000002f0: acdc 91bd 35e6 533b 7c94 37ba c7b1 e7bb
00000300: 6534 93b9 2695 a0bc 691c 15bd ba95 09bd
00000310: f270 48bd 5534 42bd 1062 a13b 5574 823d
00000320: ad09 86bd 88e4 d0bb c193 833d 208b 543c
00000330: 1172 0d3e 497c 953d a9b2 cd3d caec 40bd
00000340: 3768 cbbd de69 95bd 534d 2ebd 93a7 47ba
00000350: 2645 46bd 672a aabc 87f2 f83b c874 9cbb
00000360: 7222 ea3c 2211 bf3a 10fe 38bc 4791 ef3c
00000370: 8ff8 dbbc b953 91bd bf2b 0b3c 7619 5d3c
00000380: 5c7c 49bc 46dd b33c bccb a4bd 2619 96bd
00000390: a195 c03c 7da3 2dbd 72b9 b5bc d0ad c03c
000003a0: 4655 84ba 60ef 183d 6b47 e83c 163d c33d
000003b0: a94c 463d f518 82bc 9bde bcbc cee9 043d
000003c0: faa8 a93d f53c 14bd 671f 44bc d405 5c3d
000003d0: d8e0 d9bd 0d12 64bd b202 ddbc c41d 4ebd
000003e0: 9cde a93c 5f1d b9bb 0a9c f13b 559e 33bd
000003f0: cac8 35bd 748f f6bb 7d0a 433d e0a1 67bc

body.block3.conv.bias f4 [32]
-0.03664064 -0.007552558 -0.026369685 0.04957004 -0.0091858385 -0.0062825135 0.02348208 0.05348534
0.004889831 -0.0014223155 -0.025925238 0.021222798 0.0140860155 -0.041488536 0.016932376 0.024146827
-0.013161127 0.0035899933 0.0138290655 0.018319631 0.03270367 0.03337076 -0.017340994 -0.0330102
-0.020832995 0.032836795 -0.026473477 -0.027374966 -0.04346047 0.0656761 0.021206211 -0.011748597
00000000: 7f14 16bd 737b f7bb 3d05 d8bc f409 4b3d
00000010: 3380 16bc 8bdd cdbb 7e5d c03c 7213 5b3d
00000020: e03a a03b fd6c baba 2a61 d4bc 6fdb ad3c
00000030: 08c9 663c e2ef 29bd c4b5 8a3c 91cf c53c
00000040: c5a1 57bc 1846 6b3b 4e93 623c 0d13 963c
00000050: 49f4 053d c7af 083d b30e 8ebc b435 07bd
00000060: f5a9 aabc e07f 063d e8de d8bc 7741 e0bc
00000070: 9b03 32bd 3181 863d a6b8 ad3c 307d 40bc

body.block3.norm.weight f4 [32]
1.0085098 0.8878353 0.68222034 0.86874187 0.80857855 0.90498525 0.8440961 0.8512048
0.7977374 0.87525225 0.79211116 0.8381372 0.7595394 0.6699213 0.811904 0.7584755
0.72439426 0.8717998 0.75776464 0.7203631 0.8651161 0.76367795 0.93790305 0.8195124
0.73657876 0.82360476 0.89807516 0.7904142 0.5652397 0.87759054 0.8891524 0.806803
00000000: d916 813f 2d49 633f fea5 2e3f de65 5e3f
00000010: 01ff 4e3f 1dad 673f af16 583f 8fe8 593f
00000020: 8538 4c3f 8810 603f ccc7 4a3f 2990 563f
00000030: 2d71 423f f67f 2b3f f1d8 4f3f 732b 423f
00000040: e771 393f 462e 5f3f ddfc 413f b769 383f
00000050: 4078 5d3f 6680 433f 6a1a 703f 91cb 513f
00000060: 6d90 3c3f c3d7 523f 41e8 653f 9658 4a3f
00000070: 8db3 103f c6a9 603f 7e9f 633f a48a 4e3f

body.block3.norm.bias f4 [32]
-0.10485337 -0.10248344 -0.44167104 0.022629889 -0.040724754 -0.14602233 -0.040473763 0.007165173
-0.08126804 0.035919253 -0.0223357 -0.03474713 -0.21802977 -0.04170294 -0.06747981 -0.11004626
-0.1977355 0.0020240606 -0.0127583705 -0.12210082 -0.47320852 -0.071946636 -0.37509805 -0.10393466
-0.086475015 -0.0038208757 -0.03426295 -0.18660764 -0.08216594 0.0026697335 -0.45706433 -0.085076265
00000000: 5dbd d6bd d6e2 d1bd b522 e2be 5162 b93c
00000010: 00cf 26bd e186 15be d1c7 25bd d4c9 ea3b
00000020: dc6f a6bd 1120 133d 5cf9 b6bc 0253 0ebd
00000030: 3243 5fbe b4d0 2abd db32 8abd ef5f e1bd
00000040: 2d7b 4abe 1aa6 043b 7c08 51bc ff0f fabd
00000050: 6348 f2be c258 93bd da0c c0be b2db d4bd
00000060: d019 b1bd a867 7abb 4f57 0cbd 1316 3fbe
00000070: 9e46 a8bd b2f6 2e3b 5604 eabe 773c aebd

body.block3.norm.running_mean f4 [32]
-0.23651245 -0.3618594 -0.40850866 -0.91523117 0.35235363 -0.19339314 -0.10241155 -0.71212494
0.2527111 -1.1770308 -0.7728709 -0.80367357 -0.66988045 -0.6556614 -0.60812217 -0.06736634
0.46004823 0.09897779 -0.7720327 -0.7395061 -0.36927995 -0.58880997 -0.3601291 -0.52570105
-0.78126436 -0.9135045 0.6126003 0.40178776 0.1390349 -0.78250706 -0.41430628 -0.20937166
00000000: 5230 72be a345 b9be 0c28 d1be 974c 6abf
00000010: b267 b43e da08 46be 26bd d1bd d24d 36bf
00000020: 5963 813e f2a8 96bf deda 45bf 8dbd 4dbf
00000030: 497d 2bbf 6dd9 27bf e5ad 1bbf 5df7 89bd
00000040: 718b eb3e deb4 ca3d efa3 45bf 4650 3dbf
00000050: 4312 bdbe 40bc 16bf d762 b8be 5894 06bf
00000060: f100 48bf 6edb 69bf 60d3 1c3f 20b7 cd3e
00000070: 2a5f 0e3e 6252 48bf f41f d4be 8665 56be

body.block3.norm.running_var f4 [32]
3.1705716 3.9764347 0.4487725 6.1317744 1.8916804 2.045044 2.6221325 4.2509823
1.7082603 5.03089 1.7231396 3.332067 2.9975405 0.83891815 1.8898538 2.368426
2.30387 4.1726875 1.2447833 1.8968484 0.37988895 1.3453541 0.530042 4.75921
2.2145226 3.464725 2.5638268 1.9243963 0.51547134 3.4353392 0.5245981 1.4728321
00000000: a5ea 4a40 e87d 7e40 82c5 e53e 7f37 c440
00000010: 9522 f23f 00e2 0240 05d1 2740 0c08 8840
00000020: 46a8 da3f 0dfd a040 d78f dc3f 9640 5540
00000030: b4d7 3f40 57c3 563f bbe6 f13f 4b94 1740
00000040: 9b72 1340 a886 8540 0f55 9f3f eecb f23f
00000050: ce80 c23e 9034 ac3f d5b0 073f 734b 9840
00000060: bdba 0d40 0ebe 5d40 bd15 2440 9e52 f63f
00000070: eef5 033f 99dc 5b40 104c 063f c385 bc3f

tail.0.weight f4 [3, 32, 3, 3]
0.0268175 0.0020039852 0.022877283 0.028239937 -0.065474495 0.03162319 -0.0091062235 -0.021246018
-0.045062624 0.06255734 0.1053208 0.00060773926 -0.042827357 0.01740361 0.0049570533 0.029810641
0.034675594 0.028703773 -0.09363396 0.05075571 0.00083534035 0.01801785 -0.07461773 0.01926198
-0.011135183 0.013083715 0.10092885 0.08407317 0.06354472 0.0090695955 -0.016929053 0.022760767
0.04794133 0.02425862 0.051953103 0.10781557 0.0048333453 -0.029626904 -0.056568533 0.014721279
-0.033221405 0.0015155204 0.044373844 0.039815515 0.036263123 0.056035645 0.01680859 -0.07204488
0.017786859 0.018797662 -0.0431639 0.0064018825 0.07677524 0.040174857 0.09829212 0.10149798
0.03836886 0.0056887614 -0.009669419 -0.03088907 0.05225645 0.0644488 0.04596968 0.0011138832
0.05566748 0.0063559012 0.065682426 0.050555408 0.07111814 0.108481824 0.058004808 0.1447891
-0.021268105 0.036772393 0.04673 -0.03202466 0.03621645 0.037662104 0.0002717401 0.05151603
0.0567927 -0.011056489 -0.026809284 0.0049250307 0.023054086 0.017898237 0.104584716 0.0014817955
0.0036636947 0.0066849613 0.008508663 -0.038305175 0.045438476 0.11979222 -0.025129585 -0.08268539
0.11911194 0.07976215 0.062886685 -0.0053582946 -0.13767402 0.0745386 0.01635469 0.0018836779
0.027504362 0.03654158 0.072057 0.040801242 0.04900061 0.0018784063 -0.036436427 0.085814856
0.008865933 0.020148145 0.108298235 0.025210032 -0.064417616 0.045035925 -0.019055212 0.0989465
-0.014994459 0.024595866 0.07200688 0.055402655 0.028722223 -0.061591882 0.042546146 -0.0051786634
0.014502683 0.08355284 0.09688879 -0.011625211 -0.026967647 0.08780929 0.10484867 -0.017033013
-0.038762365 0.0054730307 0.028079068 0.067930646 0.03213107 0.046862096 0.04300127 0.062144816
-0.022661557 0.074152574 0.0094433185 0.003396587 0.03821249 0.007744564 -0.0017185389 -0.014050758
0.0033948217 0.026964119 0.010379932 -0.03401203 0.0071155606 0.07976071 0.043439176 0.012156835
-0.00028570366 -0.018782627 0.054813754 0.05329277 0.064435974 -0.029409878 0.035019048 0.06252176
0.025783336 -0.022945687 -0.0318466 0.099701606 0.09497943 0.16805753 0.023737404 -0.06176826
-0.017486932 0.0829891 0.033950035 -0.016027818 0.02568351 -0.09861271 0.049205706 -0.021650633
-0.008095249 0.00095564494 -0.020138377 -0.05144127 0.0060408744 0.023678115 0.013287595 -0.06955994
-0.014491562 -0.060238905 -0.028198844 0.110818446 0.049231082 0.08338716 -0.033090517 0.0063413675
0.07890893 -0.05222085 -0.08290794 0.016215434 0.09567806 -0.03651373 -0.062775254 0.016791085
-0.0005156687 0.049848564 0.035728406 0.012212921 0.064389445 0.061190486 0.012650901 0.092395045
0.03761897 -0.0027404756 -0.122577675 0.019935664 -0.03661824 -0.0717505 0.059722804 0.10831612
0.06786212 -0.011950847 0.04426263 0.08848397 0.030330101 0.07361993 0.03360869 0.05884221
0.1314556 0.13723853 0.0035251651 0.02767943 -0.040937938 0.0058857943 0.0050732163 -0.033831503
0.061426986 0.037162296 0.071389236 -0.08436829 0.036636595 -0.051150408 -0.013883211 0.009368255
0.05492851 0.026407434 -0.03324138 -0.07722636 0.008351917 0.02719196 0.015364595 -0.08101467
00000000: 60b0 db3c 4b55 033b 2469 bb3c 7157 e73c
00000010: 7e17 86bd 5187 013d 4532 15bc 210c aebc
00000020: 9693 38bd 101e 803d 6eb2 d73d b150 1f3a
00000030: bd6b 2fbd 0492 8e3c c76e a23b 7235 f43c
00000040: ff07 0e3d 2d24 eb3c 29c3 bfbd 38e5 4f3d
00000050: befa 5a3a 2c9a 933c 2ed1 98bd 4dcb 9d3c
00000060: 5870 36bc 145d 563c c9b3 ce3d 8e2e ac3d
00000070: bc23 823d a498 143c ccae 8abc ca74 ba3c
00000080: 215e 443d 03ba c63c c7cc 543d 69ce dc3d
00000090: 0a61 9e3b 1fb4 f2bc 68b4 67bd 8531 713c
000000a0: 2b13 08bd 6da4 c63a 59c1 353d 9815 233d
000000b0: a488 143d a285 653d 2bb2 893c 448c 93bd
000000c0: bfb5 913c 8efd 993c a1cc 30bd e2c6 d13b
000000d0: 563c 9d3d 648e 243d 614d c93d 2cde cf3d
000000e0: aa28 1d3d ca68 ba3b 7c6c 1ebc 130b fdbc
000000f0: dc0a 563d bcfd 833d b44a 3c3d b8ff 913a
00000100: 9503 643d 2a45 d03b 8284 863d 3013 4f3d
00000110: 63a6 913d b82b de3d 7396 6d3d 9843 143e
00000120: 733a aebc a69e 163d f567 3f3d 4a2c 03bd
00000130: b357 143d 9443 1a3d 5778 8e39 7902 533d
00000140: 769f 683d 4726 35bc 259f dbbc 2762 a13b
00000150: ecdb bc3c 539f 923c 8330 d63d ce38 c23a
00000160: 991a 703b 850d db3b eb67 0b3c e3e5 1cbd
00000170: b21d 3a3d a055 f53d 8fdc cdbc f556 a9bd
00000180: f6f0 f33d 575a a33d bcca 803d a294 afbb
00000190: 6bfa 0cbe b2a7 983d 45fa 853c bee5 f63a
000001a0: d450 e13c a0ac 153d 9f92 933d 341f 273d
000001b0: ddb4 483d db34 f63a 5d3e 15bd b3bf af3d
000001c0: 6b42 113c b90d a53c 77cb dd3d 4585 ce3c
000001d0: 62ed 83bd 9777 383d ad19 9cbc 76a4 ca3d
000001e0: 52ab 75bc 457d c93c 5878 933d e5ed 623d
000001f0: de4a eb3c c547 7cbd de44 2e3d c7b1 a9bb
00000200: a99c 6d3c c01d ab3d a16d c63d ab77 3ebc
00000210: 41eb dcbc 5bd5 b33d e6ba d63d d188 8bbc
00000220: 49c5 1ebd 1c57 b33b 1306 e63c 391f 8b3d
00000230: de9b 033d 78f2 3f3d 1a22 303d 908b 7e3d
00000240: bba4 b9bc 4edd 973d 26b8 1a3c 4699 5e3b
00000250: b384 1c3d 1dc6 fd3b 9940 e1ba 2735 66bc
00000260: a87b 5e3b dbe3 dc3c 9710 2a3c 3350 0bbd
00000270: a629 e93b 9559 a33d 47ed 313d 762d 473c
00000280: 7fca 95b9 06de 99bc 6384 603d 8549 5a3d
00000290: 02f7 833d fcec f0bc 2270 0f3d 690b 803d
000002a0: 9337 d33c 98f8 bbbc 9571 02bd 5b30 cc3d
000002b0: 9384 c23d 4617 2c3e f274 c23c b700 7dbd
000002c0: c140 8fbc 30f6 a93d 310f 0b3d c54c 83bc
000002d0: 3966 d23c 76f5 c9bd ec8b 493d ab5c b1bc
000002e0: efa1 04bc 3f84 7a3a 3df9 a4bc 15b4 52bd
000002f0: 87f2 c53b 9bf8 c13c 36b4 593c 7175 8ebd
00000300: 046e 6dbc 12bd 76bd 4301 e7bc c8f4 e23d
00000310: 88a6 493d e3c6 aa3d ec89 07bd 3fcb cf3b
00000320: 019b a13d 88e5 55bd a3cb a9bd 3bd6 843c
00000330: dcf2 c33d 6c8f 15bd 5090 80bd 758d 893c
00000340: f12d 07ba 022e 4c3d f357 123d b418 483c
00000350: 9dde 833d e0a2 7a3d ba45 4f3c 9d39 bd3d
00000360: 5916 1a3d 8d99 33bb 010a fbbd 1e50 a33c
00000370: 02fd 15bd edf1 92bd e69f 743d d8d4 dd3d
00000380: 4cfb 8a3d 7ccd 43bc bb4c 353d 1537 b53d
00000390: d576 f83c 0cc6 963d 44a9 093d 8704 713d
000003a0: 4c9c 063e 4288 0c3e 7506 673b f9bf e23c
000003b0: 8aae 27bd 9fdd c03b 393d a63b e792 0abd
000003c0: dd9a 7b3d 7e37 183d 8534 923d 48c9 acbd
000003d0: 4110 163d 1783 51bd 6876 63bc 4f7d 193c
000003e0: b8fc 603d 6754 d83c 1d28 08bd db28 9ebd
000003f0: 7bd6 083c acc1 de3c c8bb 7b3c 05eb a5bd

tail.0.bias f4 [3]
0.08937313 0.14977214 -0.11252033
00000000: 4209 b73d de5d 193e 0f71 e6bd
