Examples/seascape/pdl_e8000_1px_lr0.0001a35.0_up-conv5_1_W[1.0, 0.5, 0.1, 0.075, 0.075]/3/netG.pth (torch, 130373 bytes, 26 tensors)

head.conv.weight f4 [32, 3, 3, 3]
0	0x3c2a4126	0.010391509
1	0x3d295a7e	0.041346066
2	0x37734bbe	1.4501564e-05
3	0x3ca430c4	0.020042785
4	0xbcda596e	-0.026653972
5	0x3c8e2fe7	0.017356826
6	0xbbe2d78b	-0.0069226674
7	0xbcabdad8	-0.020978376
8	0x3d6977be	0.05699896
9	0xbb0f4e56	-0.002186676
10	0xbd38b600	-0.045095444
11	0xbcb14109	-0.021637456
12	0x3c22bb05	0.009932284
13	0xb986b03f	-0.00025689785
14	0xbce04685	-0.027377376
15	0x3d199cf4	0.037503198
16	0xbcd4c3fe	-0.025972363
17	0x3d085908	0.03328803
18	0x3d729481	0.059223656
19	0x3bb480f2	0.0055085355
20	0x3c5eb75b	0.01359352
21	0xbba2bc73	-0.0049663126
22	0xbb85349e	-0.0040651103
23	0xbbbf5d76	-0.005839999
24	0xbc01d3b6	-0.007924011
25	0xbd0f1455	-0.0349315
26	0x3d0fdb2a	0.03512112
27	0xbc6e0375	-0.014527191
28	0x3b717640	0.0036844164
29	0xbd0111ff	-0.031511303
30	0xbd0d028c	-0.034426257
31	0xbcd434c3	-0.025904065
32	0x3cdc29aa	0.026875336
33	0x3ceb31ec	0.028710328
34	0xba0e37c7	-0.00054251816
35	0x3cc1a7a6	0.023639511
36	0xbd42e245	-0.04757907
37	0x3ca9c598	0.020724103
38	0x3d11968e	0.03554397
39	0xbca8f735	-0.02062569
40	0x3c844e39	0.01615058
41	0x3b2c5c89	0.0026300272
42	0x3b8e366a	0.0043399828
43	0xbc75a99a	-0.014994049
44	0x3c3e9f3b	0.011634643
45	0xbd012e4a	-0.031538285
46	0xbcc9cd84	-0.02463413
47	0x3b647a5d	0.0034862973
48	0x38088a9c	3.2554017e-05
49	0xbbdf2722	-0.006810085
50	0xbcec0e03	-0.028815275
51	0x3d121e1b	0.035673242
52	0x3b4bcc8d	0.0031097264
53	0xbc398869	-0.011324027
54	0x3c5f9e10	0.013648525
55	0xbd28aa63	-0.04117812
56	0xbc78ea93	-0.015192646
57	0x3b1a23e6	0.0023519932
58	0xbc062a8c	-0.008188855
59	0xbc8925f1	-0.016741725
60	0x3c576fe5	0.013149236
61	0xbc88a08d	-0.01667812
62	0xb69546e9	-4.448801e-06
63	0xbc5f21ca	-0.013618896
64	0x3c2312a0	0.009953171
65	0xbce99b33	-0.028516388
66	0x3cb2bf21	0.021819653
67	0xbd1e861e	-0.038702123
68	0xbc11dd08	-0.008902796
69	0x398836c7	0.00025980754
70	0x3c5501e6	0.013000941
71	0x3c23f538	0.010007195
72	0xbb43c24d	-0.002987045
73	0x3d2ca22e	0.042146854
74	0x3c610eba	0.013736421
75	0x3d231aa8	0.039820343
76	0xbd16f9c8	-0.036859304
77	0x3ca97e4f	0.020690111
78	0xbcc0984d	-0.023510123
79	0x3cc9a415	0.024614373
80	0xbbc278a1	-0.0059347902
81	0xbd296b38	-0.041362017
82	0xbcb5fda7	-0.022215677
83	0xbc853bf7	-0.016263945
84	0xbcd890b5	-0.02643619
85	0xbc7c5be3	-0.015402767
86	0x3c33a14d	0.01096375
87	0xbba52291	-0.005039521
88	0x3a8dc044	0.0010814746
89	0xbd0ac8a7	-0.033882763
90	0xbbf2cc71	-0.007409625
91	0x3cc9ca37	0.024632556
92	0xbbaf9afa	-0.005359051
93	0xbca64571	-0.020296784
94	0x3c8bcad1	0.017064484
95	0x3d134fa8	0.035964638
96	0x3b702522	0.0036643227
97	0x3c2c28be	0.010507761
98	0x3cfa8798	0.030582234
99	0xbc1d7c68	-0.00961218
100	0xbd05d0cd	-0.03266983
101	0xbb5296fc	-0.003213345
102	0x3c96578f	0.018352298
103	0x3cecaf9d	0.028892333
104	0xbb5d33f9	-0.0033752902
105	0xbd1b99de	-0.037988536
106	0xbc3435f4	-0.010999192
107	0x3b972aae	0.004613242
108	0xbc854ccf	-0.016271977
109	0x3aafcbf0	0.0013412219
110	0xbc817322	-0.01580197
111	0xbd48d655	-0.049032528
112	0x3ca35075	0.019935826
113	0xbc6c8b0a	-0.014437446
114	0xbc477294	-0.012173314
115	0xbc0dda6f	-0.008658036
116	0xbd397326	-0.04527583
117	0xbc06af23	-0.008220467
118	0x3c33bb21	0.010969908
119	0x3ba5c31c	0.0050586592
120	0x3c1c476c	0.009538513
121	0x3bc76479	0.0060849753
122	0xbc1e7f1f	-0.009673863
123	0x3aa2904a	0.0012402621
124	0x3c985042	0.018592957
125	0xbd1822ef	-0.03714269
126	0x3bcb7ed4	0.0062101875
127	0xbbcdf04a	-0.006284748
128	0x3c853321	0.016259732
129	0x3c89d959	0.016827272
130	0xbbf52b5f	-0.007481977
131	0x3d14da42	0.03634096
132	0x3c1f8735	0.009736826
133	0xbd1bb342	-0.03801275
134	0xbd3814fb	-0.044941884
135	0x3ce05f38	0.027389154
136	0x3d7f2f33	0.062300872
137	0xbc445d4a	-0.0119851325
138	0x3ccf0a3b	0.025273433
139	0xbc5054b8	-0.012715511
140	0x3c9e3d6c	0.019316398
141	0x3c3c8560	0.011506408
142	0x3c29454e	0.010331465
143	0xbd3e06a6	-0.04639306
144	0xbccfd971	-0.025372239
145	0x3d65f1a5	0.056138653
146	0xbc08201e	-0.008308439
147	0xbc4d5bf8	-0.012534134
148	0xbcf98c4d	-0.030462408
149	0xbd061e15	-0.032743532
150	0x3c049c90	0.008093968
151	0xbc3d177b	-0.011541243
152	0xbd080b1a	-0.033213712
153	0x3d5690c0	0.052384138
154	0x3d2262af	0.039644893
155	0xba927bb5	-0.0011175784
156	0xbb5cd795	-0.0033697833
157	0xbcd63ba1	-0.02615148
158	0x3c3d515b	0.011555041
159	0x3b91da9e	0.00445111
160	0xbc3b6460	-0.0114375055
161	0x3aff1423	0.0019460957
162	0x3bdba583	0.00670308
163	0x3d1f5e88	0.03890851
164	0x3d0a6651	0.033788983
165	0x3b96c909	0.004601602
166	0xbbcae0f7	-0.0061913687
167	0x3d1af69f	0.037832852
168	0xbc5f6526	-0.0136349555
169	0xba706bd1	-0.00091713393
170	0xbc8d7331	-0.017266842
171	0xbbc25e78	-0.0059316717
172	0x3c9056cd	0.017619515
173	0xbcc01dcd	-0.02345171
174	0xb9de2e6f	-0.00042377735
175	0xbacd0990	-0.0015643109
176	0xbc8a4d15	-0.016882459
177	0xbbc0bbc9	-0.0058817607
178	0xbc8f8c84	-0.017523058
179	0xbd204b81	-0.039134506
180	0xbc6e001c	-0.014526393
181	0x3cd5ee93	0.026114738
182	0xbc2f8f96	-0.010715386
183	0xbc41e865	-0.011835192
184	0xbcb384fd	-0.021914
185	0xbc1bde79	-0.009513491
186	0x3c1f2836	0.009714177
187	0x3c17b2f5	0.009258975
188	0xbcc14f82	-0.023597483
189	0x3c859d07	0.016310228
190	0xbc4756d5	-0.012166698
191	0xbd43a85e	-0.04776799
192	0x3bdf1fa9	0.006809194
193	0xbc160ca5	-0.009158288
194	0x3c37f1f6	0.011227122
195	0xbc6377f5	-0.01388358
196	0xbc2f50ee	-0.0107004475
197	0xbd0b7a4a	-0.03405217
198	0x3cae91e7	0.021309806
199	0x3d5fbc37	0.054622855
200	0x3b9d494d	0.004799998
201	0x3c844c44	0.016149648
202	0x3c7d2b04	0.01545215
203	0x3c8d9a87	0.017285598
204	0x3baf1a23	0.005343692
205	0x3b82babe	0.0039895466
206	0xbcd39649	-0.025828497
207	0x3bcc2408	0.006229881
208	0x3d348b79	0.044078324
209	0x3c241f1b	0.010017182
210	0xbb50ac59	-0.0031841008
211	0x3c4a6fb5	0.012355735
212	0xbb944392	-0.0045246566
213	0xbc31795e	-0.010832159
214	0x3d25ca12	0.040475912
215	0xba2b730d	-0.0006540276
216	0x3c3d3a36	0.011549523
217	0x3c3016b4	0.0107476
218	0xbd01d8ba	-0.031700827
219	0xba936bc9	-0.0011247332
220	0xbcc45151	-0.023964556
221	0x3b5ff1f2	0.003417131
222	0xbc93c292	-0.018037114
223	0x3d6b6691	0.05747086
224	0x3cd46561	0.025927247
225	0x3cc8478c	0.024448179
226	0xbcaa03a8	-0.020753697
227	0xbc9502b6	-0.01818977
228	0x3b05c7e4	0.0020413334
229	0xbd0eda1c	-0.034875974
230	0x3bae4f27	0.0053194943
231	0xbc8c86fc	-0.01715421
232	0x3c5e09fe	0.013552187
233	0xbbc7686f	-0.0060854475
234	0xbcccb425	-0.024988243
235	0x3c4afc41	0.012389244
236	0x3d0ad03d	0.033889998
237	0x3c2f952f	0.0107167205
238	0x3bf65605	0.0075175785
239	0xbbe0bcd1	-0.006858446
240	0xbd56247a	-0.05228088
241	0xbc08e9bd	-0.008356509
242	0x3cfcc947	0.030857695
243	0x3c88bead	0.016692484
244	0xbcac704a	-0.021049637
245	0x3afd0cd2	0.0019306189
246	0xbc873c88	-0.016508356
247	0xbc081522	-0.00830582
248	0xbb287d78	-0.002570955
249	0xbcc09fc9	-0.023513691
250	0xbc90ebae	-0.017690506
251	0x3adf7c4d	0.0017050594
252	0x3ba4afb6	0.005025829
253	0xbcb868e6	-0.022510957
254	0x3c5ab241	0.013348163
255	0xbd04b9d6	-0.03240379

head.conv.bias f4 [32]
0	0x3e21a608	0.15785992
1	0x3dc3ad9e	0.09554599
2	0x3e45746b	0.19282691
3	0xbdf76757	-0.120802574
4	0xbd11872c	-0.0355293
5	0xbe1217e9	-0.14266934
6	0x3cb64677	0.022250397
7	0x3da709a0	0.08156133
8	0xbd2a8c49	-0.041637693
9	0xbd18b478	-0.037281483
10	0x3e3d1876	0.18466362
11	0x3d99e93f	0.07515191
12	0x3da35a7e	0.079762444
13	0x3d8efa6f	0.0698136
14	0x3c38bc38	0.011275344
15	0xbe1807a7	-0.14846669
16	0x3dc41893	0.09575
17	0xbd31f4f8	-0.04344651
18	0x3dd1a35b	0.10236236
19	0x3c30d976	0.010794034
20	0x3e4e50d0	0.20148015
21	0x3dbe17e1	0.09281898
22	0x3d611219	0.0549489
23	0x3d68574b	0.056723874
24	0x3c8f5c32	0.017500017
25	0x3d9c9399	0.076453395
26	0xbd8e1637	-0.06937831
27	0xbcb65d1a	-0.022261191
28	0x3b1645f9	0.002292989
29	0x3e36f856	0.1786817
30	0x3d881ce6	0.06646137
31	0x3cdc2ca6	0.026876759

head.norm.weight f4 [32]
0	0x3f886357	1.0655316
1	0x3f82cf3c	1.0219493
2	0x3f802ebe	1.0014265
3	0x3f815da5	1.0106703
4	0x3f85c737	1.045142
5	0x3f7b2f50	0.9811907
6	0x3f800625	1.0001875
7	0x3f77ff49	0.9687391
8	0x3f8037b1	1.0016996
9	0x3f7fe027	0.99951404
10	0x3f773d97	0.96578354
11	0x3f76b00d	0.9636238
12	0x3f77e4ef	0.968337
13	0x3f77d814	0.96814084
14	0x3f7ad5d2	0.97982514
15	0x3f7bd28f	0.9836816
16	0x3f774887	0.9659504
17	0x3f80a1c2	1.0049365
18	0x3f7c7827	0.9862084
19	0x3f804852	1.002207
20	0x3f7db59b	0.9910523
21	0x3f7ceb75	0.9879678
22	0x3f7c3651	0.9852038
23	0x3f7cad40	0.9870186
24	0x3f80f703	1.0075382
25	0x3f81cf95	1.0141474
26	0x3f7575a2	0.9588262
27	0x3f7c27bb	0.98498124
28	0x3f7fde3d	0.99948484
29	0x3f7dabc6	0.9909023
30	0x3f7b829d	0.98246175
31	0x3f790204	0.972687

head.norm.bias f4 [32]
0	0xbd2695ee	-0.040670328
1	0xbc9c8d83	-0.019110447
2	0xbc24cb2e	-0.010058207
3	0xbcdc7016	-0.026908915
4	0xbcdb0d18	-0.026739642
5	0xbd8762a2	-0.066106096
6	0xbd02045a	-0.03174243
7	0x3bd40105	0.006469848
8	0xbca3e3b8	-0.020006046
9	0xbcb79aa1	-0.0224126
10	0x3b81a1d1	0.0039560576
11	0xbca9b898	-0.020717904
12	0xbd2b18d3	-0.04177172
13	0xbc3a3a2b	-0.011366407
14	0xbd694142	-0.056947
15	0xbd123f68	-0.035705
16	0xbcdf0c85	-0.02722765
17	0x3c66f477	0.014096371
18	0xbd13b2d6	-0.036059223
19	0x3c38092b	0.011232655
20	0x3cf378cb	0.029720685
21	0xbc75f84c	-0.015012812
22	0xbd07d8c3	-0.033165704
23	0xbd8dde24	-0.069271356
24	0xbb220fee	-0.0024728733
25	0xbcfa4e27	-0.030554844
26	0xbdc4fab6	-0.09618132
27	0xbd0816c5	-0.03322484
28	0xbaca6181	-0.0015440435
29	0xbcbecf2b	-0.023292145
30	0x3cc58951	0.02411333
31	0xbd97c1ef	-0.07410037

head.norm.running_mean f4 [32]
0	0x3e261e0b	0.16222398
1	0x3dc473d5	0.09592406
2	0x3e31843d	0.17335601
3	0xbe013c88	-0.12620747
4	0xbd692434	-0.05691929
5	0xbe178144	-0.14795405
6	0x3caeaf7d	0.021323914
7	0x3da89c6b	0.08232959
8	0xbd39890f	-0.045296725
9	0xbd59d1ed	-0.053178716
10	0x3e4c1531	0.19929959
11	0x3d4b7dae	0.049680404
12	0x3d74e31a	0.059786893
13	0x3d8ffd84	0.07030776
14	0x3c9c226f	0.019059388
15	0xbdfbef61	-0.12301517
16	0x3e0ef6a2	0.1396127
17	0xbd5384fa	-0.05164049
18	0x3dc16d6e	0.094447
19	0xb973c435	-0.00023247379
20	0x3e5638f0	0.20920157
21	0x3df5417e	0.11975382
22	0x3d902645	0.07038549
23	0x3d97e31d	0.07416365
24	0x3bfa0d41	0.0076309745
25	0x3d992b77	0.074789934
26	0xbd8f5021	-0.06997705
27	0xbc8566b7	-0.01628433
28	0x3bcbe342	0.0062221596
29	0x3e4b521d	0.19855542
30	0x3d723e41	0.0591414
31	0x3ccb7780	0.024837255

head.norm.running_var f4 [32]
0	0x3a8dc070	0.0010814797
1	0x3a2ce970	0.0006596064
2	0x39efee49	0.0004576317
3	0x3aa11866	0.0012290596
4	0x3b0f0fe5	0.0021829542
5	0x3a5e1369	0.000847152
6	0x39e79504	0.0004417078
7	0x3a46f147	0.0007589054
8	0x38f74a88	0.0001179176
9	0x3a278174	0.00063898345
10	0x3a910fe0	0.0011067353
11	0x3b0f6ae8	0.002188379
12	0x3ab3ddb4	0.0013722689
13	0x3a59e76e	0.0008312379
14	0x3acaa24b	0.0015459744
15	0x3b2170c4	0.0024633864
16	0x3be19dec	0.006885281
17	0x39ec2d01	0.00045046958
18	0x3b35021c	0.0027619665
19	0x3a9706db	0.0011522429
20	0x3b83b9c8	0.0040199496
21	0x3ad02ff3	0.0015883431
22	0x3a0a1cf7	0.00052685983
23	0x3a6841ae	0.00088598847
24	0x3a4634d1	0.0007560971
25	0x3996e486	0.00028780493
26	0x39d80a3f	0.00041206364
27	0x3aa86428	0.0012847232
28	0x3a569576	0.00081857236
29	0x3b2e6230	0.0026608817
30	0x3948ec3e	0.00019161493
31	0x3a9f8fca	0.001217359

body.block1.conv.weight f4 [32, 32, 3, 3]
0	0xbb92dbb3	-0.0044817566
1	0x3d4cdcf6	0.050015412
2	0x3d4c2719	0.049841974
3	0xbc786890	-0.015161648
4	0x3cb4378a	0.02199914
5	0x3cf5ba65	0.029996106
6	0x3ce4bed6	0.027923029
7	0xbb9ce0b5	-0.0047875294
8	0x3cdac2c8	0.026704207
9	0xbd0c4743	-0.034247648
10	0x3c6396ad	0.013890904
11	0x3d0558c5	0.03255536
12	0xbbdc27bd	-0.0067186044
13	0xbcbf6a99	-0.02336626
14	0x3c02118b	0.007938753
15	0x3ab33017	0.0013670948
16	0xbd12f8f8	-0.035881966
17	0xbc8793cd	-0.01654997
18	0x3ba57f43	0.005050571
19	0xbc8ddc9d	-0.01731711
20	0xbb825e1c	-0.003978504
21	0x3c8a6d24	0.016897745
22	0xbb2c9c71	-0.0026338364
23	0xbd155ba7	-0.03646436
24	0x3cbcd46f	0.023050515
25	0xbc4ebe33	-0.012618589
26	0x3d3ae197	0.045625295
27	0xbcd5118c	-0.026009344
28	0xbc58044e	-0.01318462
29	0x3b9839d2	0.0046455646
30	0x3b86291a	0.004094255
31	0xbcc211b0	-0.023690075
32	0x3cd63c82	0.0261519
33	0x3bb5cb38	0.005547907
34	0xbd1c7f17	-0.03820714
35	0xbc54b624	-0.012982879
36	0x3b946129	0.004528184
37	0x3c89583d	0.016765708
38	0x3b2e902a	0.0026636221
39	0x3bb363c4	0.0054745395
40	0xbc87cd4d	-0.016577387
41	0xbb6da92a	-0.003626416
42	0xbc58017b	-0.013183947
43	0x3bff4246	0.007789883
44	0xbc2c2c28	-0.010508575
45	0x3ca4e52e	0.020128813
46	0xbc21168b	-0.009832035
47	0x3c984b8c	0.018590711
48	0xbcb4be6d	-0.022063458
49	0xbcdf5596	-0.02726249
50	0xbb902b6a	-0.0043997066
51	0x3c72c32d	0.014817041
52	0x3b9b829a	0.0047457935
53	0xbd1d4e07	-0.03840449
54	0xbcbb7f99	-0.022887992
55	0x3b82ec0d	0.0039954246
56	0x3d2749f6	0.04084202
57	0xbcd2e18f	-0.02574232
58	0x3b8f7aa1	0.004378632
59	0xbc811add	-0.01575988
60	0xbc111c7a	-0.008856887
61	0x3ce3b7eb	0.02779766
62	0xbc424505	-0.011857276
63	0x3b690d93	0.003556107
64	0x3cceadc0	0.025229335
65	0xbcb7aad5	-0.022420326
66	0x3c12a871	0.008951292
67	0x3bc9a4e5	0.00615369
68	0xbcb52c1c	-0.02211576
69	0xbc5ab96e	-0.013349874
70	0xbce7810e	-0.02825978
71	0xbbdda609	-0.0067641777
72	0xbd11ae77	-0.035566773
73	0xbc2bade4	-0.0104784705
74	0x3d41caf1	0.04731268
75	0xbb8c5e14	-0.004283676
76	0xbd0739a7	-0.033013966
77	0x3c342140	0.010994256
78	0x3c94e2a8	0.018174484
79	0x3cb1ba80	0.021695375
80	0x3c14bbfe	0.009078024
81	0x3bb59715	0.005541692
82	0x3ce8e2e8	0.02842851
83	0x3cb4191b	0.021984627
84	0x3ca726f3	0.020404315
85	0x3c1dc4a2	0.0096294
86	0x3b376bd7	0.0027987862
87	0xbd5373d4	-0.051624134
88	0xbc4a31b4	-0.012340952
89	0x3c5d51b7	0.013508252
90	0x3c992da7	0.018698527
91	0x3c95da7b	0.018292656
92	0x3cb0ff2f	0.021606056
93	0xbca1281e	-0.01967245
94	0x3c81714f	0.0158011
95	0xbbba98c2	-0.0056944797
96	0xbc25d15d	-0.010120717
97	0xbbbb908a	-0.0057240175
98	0x39be4955	0.0003629426
99	0xbba71868	-0.005099345
100	0x3cba4637	0.02273856
101	0xbcefe049	-0.029281752
102	0xbc9c8cc2	-0.019110087
103	0xbba3feda	-0.005004746
104	0xbd138414	-0.03601463
105	0x3c9ade26	0.018904757
106	0x3cd4c965	0.025974939
107	0x3ad25b0a	0.001604886
108	0x3cc20b9b	0.023687175
109	0xbb099b69	-0.0020997173
110	0x3d07ab59	0.033122394
111	0x3d301b01	0.042994503
112	0x3b780fb3	0.0037851154
113	0x3c9a609a	0.018844891
114	0x3c6db3b0	0.014508173
115	0xbc98d606	-0.018656742
116	0xbb0c1197	-0.002137279
117	0x3d5d8e2e	0.05409067
118	0x3cfe7b05	0.03106452
119	0x3ba4f34b	0.0050338856
120	0x3cdca1d6	0.026932638
121	0x3b64b475	0.00348976
122	0x3caec4c5	0.021334061
123	0x3c84229e	0.016129788
124	0x3c97551c	0.0184732
125	0x3c6806e9	0.014161804
126	0xbd3d8aed	-0.046275068
127	0xbd52ec52	-0.051494904
128	0x3b48bf05	0.0030631435
129	0xbc895075	-0.016761998
130	0xbd214335	-0.039370734
131	0xbcb151a8	-0.021645382
132	0xbcc9f775	-0.02465413
133	0xbcfa3ae1	-0.030545654
134	0xbce37bbd	-0.027768964
135	0x3b7a75ad	0.0038217113
136	0xbb9007ae	-0.0043954467
137	0xbb82b877	-0.003989275
138	0x3c94cd58	0.018164322
139	0xbc75ce2a	-0.015002767
140	0x3c119d2c	0.00888757
141	0x3c012b45	0.007883851
142	0xbc1f766c	-0.009732824
143	0x3bd39c97	0.006457876
144	0x3c813eb2	0.015776966
145	0xbca3bcfd	-0.019987578
146	0xbba345c1	-0.0049826805
147	0x3bd38860	0.006455466
148	0x3d22bf64	0.039733306
149	0xbcfcd1d6	-0.030861776
150	0xbbe56985	-0.0070011043
151	0x3cf4d749	0.029887812
152	0x3d64cc45	0.05585887
153	0xbb1ef31b	-0.002425379
154	0x3caad665	0.020854184
155	0x3c94588f	0.018108634
156	0x3c228e66	0.009921646
157	0xbb3aeea6	-0.0028523593
158	0xbb3cdc71	-0.0028817917
159	0x3d3f54ae	0.046711616
160	0xbc2e43bf	-0.010636269
161	0x3c3b5f03	0.011436227
162	0xbd6c4e9c	-0.057692155
163	0x3b9e2c71	0.004827075
164	0xbcc0c009	-0.02352907
165	0xbd5b54d4	-0.053547695
166	0x3d06a975	0.03287645
167	0xbd079e46	-0.033109926
168	0x3b87fbf6	0.004149909
169	0xbb1f0c26	-0.0024268716
170	0xbcc68f70	-0.024238318
171	0x3d15bb39	0.036555503
172	0x3c2323c6	0.0099572595
173	0xbcf8237b	-0.030290356
174	0xbc35fd6c	-0.011107784
175	0xbc08adf3	-0.008342254
176	0xbbdacd6d	-0.0066773207
177	0x3d3e82e0	0.04651153
178	0x3ba8a3e1	0.005146489
179	0x3cf388df	0.029728351
180	0x3d6c0dd3	0.05763037
181	0xbd053d42	-0.032529123
182	0x3c9fd5e0	0.019511163
183	0x3b970aeb	0.004609456
184	0x3c134039	0.00898748
185	0x3c4fa286	0.012673026
186	0x3d14e777	0.036353555
187	0xbb257408	-0.0025246162
188	0xbc398fc9	-0.011325785
189	0xbc2b6ec1	-0.0104634175
190	0x3cd0d8e4	0.025494047
191	0x3a515967	0.0007986039
192	0xbc8c7500	-0.017145634
193	0xbb1b3081	-0.0023680034
194	0xbbb440c0	-0.005500883
195	0x3d020c1b	0.031749826
196	0xbd32cb01	-0.04365063
197	0xbbb255af	-0.005442343
198	0x3c388631	0.0112624625
199	0xbc8f14c0	-0.017465949
200	0xbc3ab3ed	-0.011395437
201	0x3c5d57dd	0.013509718
202	0x3d09c229	0.03363243
203	0x3cf709cd	0.03015604
204	0x3b770b73	0.0037696033
205	0x3c9a5032	0.018837068
206	0x3c6eabc9	0.014567324
207	0x3ce9d11c	0.028542094
208	0x3c35d3fe	0.011097906
209	0xbc5c6067	-0.0134507185
210	0x3bed6b76	0.0072454764
211	0x3bf1b4dc	0.0073762964
212	0xbd4537e4	-0.048149005
213	0xbc4b7d32	-0.012419986
214	0x3bae3492	0.0053163255
215	0x3bf683c2	0.007523031
216	0x3cd7d039	0.026344405
217	0x3ceec6d6	0.029147547
218	0x3d108ec2	0.035292394
219	0x3d1f6176	0.038911305
220	0xbbf19197	-0.007372092
221	0x3c817eae	0.015807476
222	0x3ca441aa	0.020050842
223	0xbd0dbcbd	-0.034603823
224	0xbc245c3d	-0.010031757
225	0x3c371e0e	0.011176599
226	0xbd0942de	-0.033511035
227	0xb9e10396	-0.00042918016
228	0xbcddf07a	-0.027092207
229	0xbd3ce93e	-0.046120875
230	0xbc647a01	-0.013945104
231	0x3be432f1	0.0069640805
232	0xbcda7bed	-0.02667042
233	0xbd174baf	-0.036937412
234	0x3cbbc54b	0.022921225
235	0x3c29de23	0.010367903
236	0x3c2b5596	0.010457417
237	0x3b85ec24	0.004086988
238	0x3c88f6a5	0.016719172
239	0x3c374191	0.011185066
240	0xbb65bf4e	-0.0035056653
241	0x3cac6e45	0.021048674
242	0x3d4eb358	0.050464004
243	0xbd47402d	-0.048645187
244	0xbd52e43c	-0.051487193
245	0xbcdd7f35	-0.027038196
246	0xbd40f49f	-0.04710829
247	0xbbcc1f16	-0.0062292917
248	0xbcf04f62	-0.029334728
249	0xbce47fd1	-0.027892979
250	0xbcbbb1b7	-0.02291189
251	0xbd617d75	-0.055051286
252	0x3a3759d9	0.00069942843
253	0x3ac71da5	0.001519133
254	0x3b04ced1	0.0020264874
255	0x3bf563e2	0.0074887136

body.block1.conv.bias f4 [32]
0	0x3caaf27e	0.020867582
1	0x3bbff5a1	0.0058581387
2	0x3d061b4b	0.032740872
3	0xbd0ca78b	-0.03433947
4	0xbd1837e5	-0.03716268
5	0x3ccc7751	0.024959238
6	0xbbb62586	-0.0055586724
7	0x3a1ce121	0.00059844746
8	0xbd067314	-0.03282459
9	0x3d1f0e0b	0.03883175
10	0x3d07434e	0.03302317
11	0xbd518613	-0.051153254
12	0xbca5dd31	-0.020247074
13	0xbc58fa3e	-0.013243256
14	0x3d1bd2e3	0.038042914
15	0xbd08ccdc	-0.033398494
16	0x3d2379c0	0.03991103
17	0xbd40c09b	-0.047058683
18	0x3c91adc9	0.017783063
19	0xbd28c697	-0.041205015
20	0x3d1b5d39	0.0379307
21	0xbd6159c0	-0.055017233
22	0xbca5916f	-0.02021095
23	0xbd080bb8	-0.0332143
24	0x3cef1fea	0.029190022
25	0xbc99ebce	-0.018789198
26	0x3c078307	0.008270985
27	0xbcd61906	-0.026134979
28	0xbbdc30fe	-0.0067197075
29	0x3c1a0a68	0.009401895
30	0xbd0076fb	-0.03136347
31	0xbc0fdea5	-0.00878111

body.block1.norm.weight f4 [32]
0	0x3f7ded96	0.9919065
1	0x3f7cfe2b	0.9882533
2	0x3f7622a0	0.96146584
3	0x3f6e2572	0.93025887
4	0x3f7ad7b5	0.9798539
5	0x3f83c7cc	1.0295348
6	0x3f82c626	1.021672
7	0x3f7c20d8	0.98487616
8	0x3f813ad8	1.0096083
9	0x3f882c44	1.0638509
10	0x3f7ae1a1	0.9800053
11	0x3f7ab692	0.9793483
12	0x3f7ae2e9	0.9800249
13	0x3f789b20	0.971117
14	0x3f846e1e	1.0346105
15	0x3f802580	1.0011444
16	0x3f7ba9eb	0.9830615
17	0x3f7f6f16	0.9977888
18	0x3f7a8527	0.97859424
19	0x3f7fafa4	0.9987738
20	0x3f7a8719	0.9786239
21	0x3f7ef7f6	0.9959711
22	0x3f791a7a	0.97306025
23	0x3f7aacd8	0.9791999
24	0x3f800c2d	1.0003716
25	0x3f82fcc6	1.023339
26	0x3f8f5e55	1.1200663
27	0x3f7ac293	0.97953147
28	0x3f810109	1.0078441
29	0x3f845c12	1.0340598
30	0x3f6f628d	0.9350975
31	0x3f832db1	1.0248319

body.block1.norm.bias f4 [32]
0	0xbdef195e	-0.1167476
1	0x3b69b208	0.0035659093
2	0xbd13b4f6	-0.03606125
3	0xbd96cb0b	-0.07362946
4	0xbce57800	-0.028011322
5	0xbbe01574	-0.006838495
6	0xbc897cf2	-0.016783211
7	0xbc612134	-0.013740826
8	0xbc4876ef	-0.012235387
9	0xbbeb2b63	-0.007176803
10	0xbd6b631c	-0.057467565
11	0xbd85055c	-0.06495163
12	0xbcf8b19c	-0.030358128
13	0xbd598837	-0.05310842
14	0x3cb18cda	0.021673609
15	0xbc12de0b	-0.008964072
16	0xbd7cd90a	-0.061730422
17	0xbd0767fa	-0.033058144
18	0xbd76927a	-0.060198285
19	0xbd9e41cd	-0.07727394
20	0xbd9218f2	-0.07133664
21	0xbd70cc36	-0.0587885
22	0xbd8ec553	-0.0697123
23	0xbc4a082c	-0.01233105
24	0xbd1b88f1	-0.037972394
25	0xbd299603	-0.041402828
26	0x3c85a585	0.016314277
27	0xbc778764	-0.015107963
28	0xbcbb00f8	-0.02282761
29	0xbc24550f	-0.010030045
30	0xbca6b43c	-0.020349614
31	0xbd0c55c0	-0.034261465

body.block1.norm.running_mean f4 [32]
0	0x3d8d6f73	0.06906023
1	0xbe6bd9b3	-0.23032264
2	0x3ebe7214	0.3719641
3	0x3bca1bb9	0.0061678556
4	0x3e3e16b9	0.18563356
5	0xbeded43b	-0.43521294
6	0xbe07c1fe	-0.13257596
7	0xbd077d8c	-0.033078715
8	0x3e8e7d76	0.27830094
9	0xbe31c4c6	-0.1736022
10	0xbe8ea793	-0.27862224
11	0xbb59298a	-0.0033136331
12	0x3f173e5e	0.5907954
13	0x3e7a920b	0.24469773
14	0xbf185128	-0.59498835
15	0x3e709b34	0.23496705
16	0xbead401c	-0.33837974
17	0xbf08c2f5	-0.5342248
18	0xbe09190e	-0.13388464
19	0xbece2d0c	-0.40268743
20	0x3defd6d1	0.11710895
21	0x3e2c8a30	0.1684959
22	0xbded6f74	-0.115935236
23	0xbf1696bd	-0.5882376
24	0x3e9e60a5	0.3093311
25	0x3dcf8f29	0.101347275
26	0xbef00b03	-0.468834
27	0xbe12543e	-0.14289948
28	0x3d99871f	0.074964754
29	0xbee11403	-0.4396058
30	0xbe141c75	-0.1446398
31	0xbe886071	-0.2663608

body.block1.norm.running_var f4 [32]
0	0x3f8faec5	1.122521
1	0x3da94a9b	0.08266183
2	0x3cf87a24	0.030331679
3	0x3e029f46	0.1275607
4	0x3e1f58d2	0.15561226
5	0x3e36d53b	0.17854778
6	0x3d7a99c4	0.0611818
7	0x3db221cc	0.086978525
8	0x3d3e42ea	0.046450533
9	0x3db9b90e	0.090684995
10	0x3dba64d5	0.091012634
11	0x3d071bff	0.032985684
12	0x3daadb88	0.083426535
13	0x3e014fe9	0.1262814
14	0x3dd77733	0.10520782
15	0x3d80e067	0.06292801
16	0x3d854591	0.06507409
17	0x3e29a919	0.16568412
18	0x3d243cf0	0.040097177
19	0x3d9f1e3b	0.07769438
20	0x3d5ec0f0	0.05438322
21	0x3e5e7e89	0.21727957
22	0x3d9e038b	0.077155195
23	0x3d59c4e0	0.05316627
24	0x3e737277	0.23774134
25	0x3dbdf4e7	0.09275227
26	0x3f474057	0.7783255
27	0x3e47d6ac	0.19515485
28	0x3ddccd58	0.10781354
29	0x3e131e5d	0.14367051
30	0x3e62d064	0.22149807
31	0x3df89b92	0.12139048

body.block2.conv.weight f4 [32, 32, 3, 3]
0	0xbc93ce7a	-0.018042792
1	0xba8adbb8	-0.0010594046
2	0x3bd7becd	0.0065840245
3	0x3ceaa267	0.028641893
4	0xbcbdb93b	-0.023159614
5	0x3d0684b5	0.032841403
6	0xba5b17a9	-0.00083577126
7	0xbb8f3319	-0.004370105
8	0xbc2bd771	-0.010488377
9	0x3d11c1e5	0.035585303
10	0xbcd4ea06	-0.025990497
11	0xbd03a28f	-0.03213745
12	0x3bd29ea0	0.006427601
13	0xbbd8a698	-0.0066116564
14	0xbcb1eea6	-0.021720242
15	0xbb76bf8d	-0.0037650794
16	0xbbd1d674	-0.0064037386
17	0xbbd25d95	-0.0064198473
18	0xbcb3b80c	-0.021938346
19	0x3c277a2c	0.010221999
20	0x3a101508	0.0005496298
21	0x394410b7	0.00018698243
22	0xbc9335ff	-0.017970083
23	0xbd10d055	-0.03535493
24	0xba24dcf4	-0.0006289028
25	0xbc8cfa7b	-0.017209282
26	0x3c86993d	0.016430492
27	0xbc2512cc	-0.010075282
28	0xbb81ab6b	-0.003957202
29	0x3cac3a80	0.021023989
30	0x3aca47b7	0.001543275
31	0x3c051f6c	0.008125167
32	0x3c7c0c03	0.015383723
33	0x3d1d29fe	0.038370125
34	0x3d1407c3	0.036140215
35	0x3cc891eb	0.024483642
36	0xbd16709c	-0.036728486
37	0x3d0ac6bc	0.033880934
38	0x3a258692	0.0006314303
39	0xbd0d50b4	-0.034500793
40	0xbd2fa79c	-0.042884454
41	0xbca3b1b0	-0.019982189
42	0xbb624916	-0.0034528426
43	0x3babe931	0.0052463044
44	0x3ce1801b	0.027526906
45	0xb8a26aad	-7.744632e-05
46	0x3d78194b	0.060570996
47	0x3cda5041	0.026649596
48	0xbd07456c	-0.03302519
49	0x3cf96691	0.030444415
50	0x3cb629ed	0.022236789
51	0x3c80eea8	0.0157388
52	0x3ce53e85	0.027983913
53	0x3a195738	0.00058494834
54	0xbc3c0c79	-0.011477583
55	0xbd41fa63	-0.047357928
56	0x3c08bd8d	0.008345974
57	0xbb373193	-0.0027953133
58	0xbc25e075	-0.0101243155
59	0xbcbc6bcc	-0.02300062
60	0xbbe6bf21	-0.0070418273
61	0x3c854116	0.016266387
62	0xbc932d35	-0.017965892
63	0x3c268b88	0.010165103
64	0xbb59be00	-0.003322482
65	0x3c81ca0b	0.015843412
66	0x3b32c956	0.002728065
67	0xbc583af0	-0.013197646
68	0xbc8b7c5b	-0.01702707
69	0x3b6b0f37	0.0035867223
70	0xbc606d68	-0.0136979595
71	0xbbb96faa	-0.0056590633
72	0x3b125ab6	0.00223319
73	0xbc9c249d	-0.019060427
74	0x3c7b309d	0.0153314145
75	0xbcc50a74	-0.024052836
76	0xbc9ff1f7	-0.019524558
77	0xbcb07726	-0.02154119
78	0xbbc5430b	-0.006019955
79	0x3ced1694	0.02894143
80	0xbb476cd5	-0.003042986
81	0xbc0d1fe4	-0.00861356
82	0xbd32e720	-0.04367745
83	0x3c0ef836	0.00872617
84	0xbb7b2d73	-0.003832665
85	0xbcad7822	-0.021175448
86	0x3ba64151	0.0050737043
87	0xbcb8412c	-0.022492014
88	0x3aa2c3c6	0.0012417964
89	0x3b8dd2ce	0.0043281084
90	0xbd4a32ec	-0.04936497
91	0xbd23d38d	-0.039996672
92	0x3b370d8f	0.0027931666
93	0xbcce07f6	-0.02515028
94	0x3b79c8e2	0.003811412
95	0x3d20fac2	0.03930164
96	0x3cd561bf	0.026047586
97	0x3c9205b5	0.017824987
98	0xbc9bdc4c	-0.019025944
99	0xbaf68dc1	-0.0018810557
100	0x3c38db0c	0.011282694
101	0xbc680b40	-0.014162838
102	0xbc0aef7d	-0.00847995
103	0xbc963885	-0.018337497
104	0x3a996f25	0.0011706097
105	0xbc6fcfed	-0.014636976
106	0xbb96b4ff	-0.004599213
107	0xbcc22589	-0.023699539
108	0xbd468ed9	-0.048476074
109	0xbc3709f3	-0.011171806
110	0xbc9451a2	-0.018105332
111	0x3cb01eda	0.021499086
112	0x3c9c63c1	0.019090535
113	0xbc765d82	-0.015036942
114	0x3c000006	0.007812506
115	0x3cf5f00b	0.030021688
116	0xbc45f2be	-0.0120818
117	0xbbf7abac	-0.0075583067
118	0x3cb72462	0.022356216
119	0x3b5b11fd	0.003342747
120	0x3bb2866e	0.005448154
121	0xbd3f8d4b	-0.046765607
122	0xbc3d6b68	-0.011561252
123	0xbb843bc5	-0.0040354454
124	0xbce250ff	-0.027626513
125	0xbbf6f554	-0.0075365696
126	0x3ad19967	0.0015991152
127	0x3d4d288b	0.050087493
128	0x3c303c1f	0.0107565215
129	0x3c987074	0.01860831
130	0x3d226932	0.039651103
131	0x3d0943f4	0.03351207
132	0xbcbfc710	-0.02341035
133	0xbc0ad667	-0.008473969
134	0x3b9cf859	0.0047903475
135	0x3d073d5d	0.033017505
136	0xbd649025	-0.05580153
137	0x3d5abbff	0.053401943
138	0xbc575518	-0.0131428465
139	0x3c55e77d	0.013055679
140	0xbc17e791	-0.009271518
141	0xbc91c3dc	-0.017793588
142	0xbc681d22	-0.014167102
143	0xbd0bb081	-0.034103874
144	0xbcda078b	-0.026614925
145	0xbc872e17	-0.01650147
146	0x3bfb36b0	0.0076664314
147	0x3c285751	0.010274724
148	0x3c740ddf	0.014895885
149	0xbc872cdc	-0.016500883
150	0xbc927192	-0.01787642
151	0xbaab6ae5	-0.0013078122
152	0xbae3b7bc	-0.0017373483
153	0xbc9d2be7	-0.019185973
154	0xb9394f1b	-0.00017672444
155	0xbc9e8f83	-0.019355541
156	0x3c112468	0.008858778
157	0xbcadbf70	-0.021209449
158	0xbc6a0c13	-0.014285105
159	0xbadc7836	-0.0016820494
160	0xbadf1f3e	-0.0017022861
161	0xbbd2b9dd	-0.006430848
162	0x3cb69ed7	0.022292538
163	0xbba7ca8e	-0.005120582
164	0x3bd2959f	0.0064265276
165	0xbd19d9f4	-0.037561372
166	0x3d28bfda	0.04119859
167	0x3d357673	0.044302415
168	0x3be56f52	0.007001796
169	0x3c3befbe	0.011470733
170	0xbc5def49	-0.01354582
171	0xbd1ab514	-0.037770346
172	0x3ce15ac0	0.027509093
173	0x3b7ac252	0.0038262797
174	0x3cf2b143	0.02962554
175	0x3cb7632c	0.022386156
176	0xbcc658bb	-0.024212232
177	0xbd9d814c	-0.07690677
178	0x3c81b044	0.01583112
179	0x3c32f951	0.0109236995
180	0xbd819fb0	-0.06329286
181	0xbc152676	-0.009103408
182	0xbaff0d7f	-0.0019458978
183	0xbcf13aa1	-0.029446902
184	0xbcc5a275	-0.024125317
185	0xbd0a6cf3	-0.03379531
186	0x3cad9ec8	0.021193877
187	0xbc108727	-0.008821285
188	0xbce3fe67	-0.02783127
189	0xbc680dcd	-0.014163447
190	0xbbc1e100	-0.0059167147
191	0x3ba3fb0b	0.005004292
192	0xbd76610c	-0.060151145
193	0xbc413076	-0.011791339
194	0xbba72a5d	-0.0051014856
195	0xbcc93942	-0.024563435
196	0x3bf2d363	0.007410453
197	0xbc65dfd9	-0.01403042
198	0xbd073cce	-0.033016972
199	0xbaa0d971	-0.0012271834
200	0xbb47f9ad	-0.0030513809
201	0xbcb69ce7	-0.022291614
202	0xbaf53e90	-0.0018710662
203	0x3bba93d9	0.0056938943
204	0x3b594e67	0.0033158304
205	0xbc28990a	-0.010290394
206	0x3cc7223f	0.024308322
207	0xbd2c83a6	-0.042117737
208	0x3c3e4a15	0.011614342
209	0xbd17b8f2	-0.037041612
210	0x3cab220c	0.020890258
211	0xbca896b3	-0.020579671
212	0x3c07fe89	0.008300432
213	0x3b8ad367	0.004236627
214	0x3d510437	0.05102941
215	0xbbfbdf65	-0.007686543
216	0xbb6488cf	-0.0034871583
217	0xbd7e1893	-0.062035155
218	0xb95e636b	-0.00021208606
219	0x3ae87351	0.0017734562
220	0x3c7ed3a0	0.015553385
221	0xbce672f9	-0.028130995
222	0xbca133f7	-0.0196781
223	0x3bffa620	0.007801786
224	0xbc6f66da	-0.014611924
225	0xbd5df32b	-0.05418698
226	0x3a9738d6	0.0011537324
227	0xbd00a6a0	-0.031408906
228	0xbc293f56	-0.010330042
229	0x3cde6db5	0.027151922
230	0xbc5e7ef9	-0.013580077
231	0xba26e5f6	-0.00063666643
232	0x3bbab51a	0.0056978585
233	0xbb84ba50	-0.0040505305
234	0x3ce951c9	0.028481381
235	0x3c1f49e7	0.00972221
236	0xbc41f1fc	-0.011837479
237	0x3bef0fbf	0.0072955783
238	0xbc92b051	-0.01790634
239	0xbd16b5bf	-0.03679442
240	0xbd18a643	-0.037267935
241	0xbc662d9a	-0.014048958
242	0xbc07e399	-0.00829401
243	0xbc594d31	-0.013263033
244	0xbc9790c1	-0.018501641
245	0xbd0dbb73	-0.034602594
246	0xbc6e6b8c	-0.014552008
247	0x3c137c2f	0.009001776
248	0x3b5394cf	0.0032284742
249	0xbd365480	-0.04451418
250	0x3ce32f03	0.027732378
251	0xbcb472c4	-0.02202738
252	0x3d144f61	0.036208514
253	0xbd33eaa8	-0.043924958
254	0xbcd22514	-0.025652446
255	0x3c28ea8a	0.010309825

body.block2.conv.bias f4 [32]
0	0x3c9484c4	0.018129714
1	0xbca8636a	-0.020555217
2	0x3cb79842	0.02241147
3	0x3ccb3b36	0.024808507
4	0xbd4aec6d	-0.04954188
5	0xbc8488df	-0.016178546
6	0xbcdc3716	-0.026881736
7	0x3a58586b	0.00082529214
8	0x3b1152c2	0.0022174572
9	0x3c89854d	0.016787196
10	0x3c847f42	0.016173963
11	0x3d5122ce	0.051058583
12	0xbd7c8133	-0.06164665
13	0x3d1f65cc	0.03891544
14	0xbd59d4a6	-0.053181313
15	0xbcbd0490	-0.023073465
16	0x3d3201fc	0.043458924
17	0x3d734590	0.05939251
18	0x3c958366	0.018251132
19	0xbd248304	-0.04016401
20	0xbd545ee2	-0.0518483
21	0x3d2a4bee	0.04157632
22	0x3d112573	0.035436105
23	0x3d437b5d	0.04772507
24	0xbc997b28	-0.018735483
25	0x3c541082	0.012943389
26	0x3cfdad3d	0.030966396
27	0xbb33842f	-0.002739202
28	0xbd37bbf4	-0.04485698
29	0x3c61c373	0.013779509
30	0x3c1c3352	0.00953372
31	0x3d3fd6d4	0.046835735

body.block2.norm.weight f4 [32]
0	0x3f847d42	1.0350726
1	0x3f80e6a8	1.0070391
2	0x3f82b22f	1.0210627
3	0x3f81f51e	1.0152929
4	0x3f727819	0.94714504
5	0x3f7ea6c0	0.9947319
6	0x3f7b28be	0.9810904
7	0x3f7cb5a7	0.9871468
8	0x3f792812	0.9732677
9	0x3f802d1a	1.0013764
10	0x3f8126ea	1.0090001
11	0x3f89f0ea	1.0776646
12	0x3f78fde6	0.9726242
13	0x3f801d31	1.0008909
14	0x3f7b18e2	0.98084843
15	0x3f7e5a10	0.99356174
16	0x3f82540e	1.0181901
17	0x3f795b9b	0.97405404
18	0x3f7a0645	0.97665817
19	0x3f78a7c3	0.97130984
20	0x3f819e9a	1.0126526
21	0x3f82543d	1.0181957
22	0x3f7e8a57	0.9942984
23	0x3f79a75c	0.97520995
24	0x3f739cb7	0.95161
25	0x3f7b3f50	0.9814348
26	0x3f805c0b	1.0028089
27	0x3f826237	1.0186223
28	0x3f6d8995	0.9278806
29	0x3f864bf6	1.0491931
30	0x3f83dfe1	1.0302697
31	0x3f807595	1.0035883

body.block2.norm.bias f4 [32]
0	0xbd1defd5	-0.0385588
1	0xbdb123d0	-0.08649409
2	0xbd13dcc2	-0.036099203
3	0xbd75570a	-0.05989746
4	0x3c99ef60	0.0187909
5	0xbd5140d6	-0.051087223
6	0xbb0e02fc	-0.002166926
7	0xbdc89c6d	-0.09795461
8	0xbdc5a902	-0.09651376
9	0xbb898462	-0.0041966895
10	0xbbae7efb	-0.005325196
11	0xbd74702a	-0.05967728
12	0xbd57d405	-0.052692432
13	0xbc27732e	-0.010220332
14	0xbcb18935	-0.02167187
15	0xbd5f673c	-0.05454181
16	0x3c8254e6	0.015909623
17	0xbd9f6b73	-0.07784166
18	0xbd4e3518	-0.050343603
19	0xbda02f93	-0.07821574
20	0xbda08875	-0.07838527
21	0xbd4391ee	-0.04774659
22	0x3a49035b	0.00076680415
23	0xbd326a60	-0.04355848
24	0xbd89fce0	-0.06737685
25	0x39ab08e6	0.00032622291
26	0xbc89e508	-0.016832843
27	0xbd0366ae	-0.032080345
28	0xbd3abccd	-0.04559021
29	0xbd9ea4d9	-0.07746286
30	0xbd4b5cf9	-0.049649213
31	0xbceffff7	-0.029296858

body.block2.norm.running_mean f4 [32]
0	0xbef59fdf	-0.47973534
1	0xbe66ac4e	-0.22526667
2	0xbe2143ce	-0.15748522
3	0xbe54c0a5	-0.20776613
4	0x3e9ff2d5	0.31239954
5	0xbe6243c3	-0.22096162
6	0xbe8720e3	-0.26392278
7	0x3d5cbf38	0.053893298
8	0xbd1ff754	-0.03905423
9	0xbc39f5f3	-0.011350143
10	0xbcac535c	-0.021035843
11	0xbe16a323	-0.14710669
12	0xbde6703d	-0.112518765
13	0x3ebd0229	0.3691571
14	0xbe1dcc87	-0.15410052
15	0xbf0b9126	-0.54518354
16	0xbddcd0cf	-0.107820146
17	0xbe875149	-0.26429203
18	0xbe7c2e3e	-0.24627015
19	0x3ea3250d	0.31864205
20	0xbed74ef5	-0.42052427
21	0x3e405735	0.18783267
22	0xbc28fa45	-0.010313575
23	0x3d9dbfb7	0.07702582
24	0xbe381ed4	-0.1798051
25	0xbd41a2f5	-0.04727455
26	0xbe880b61	-0.2657118
27	0x3e45c8a4	0.1931482
28	0x3e21bfbb	0.15795796
29	0x3e36e183	0.17859463
30	0xbe49bdab	-0.19701259
31	0x3dad55ee	0.084636554

body.block2.norm.running_var f4 [32]
0	0x3da99a85	0.082814254
1	0x3d6f89a4	0.058480874
2	0x3d468a38	0.04847166
3	0x3debad5c	0.11507675
4	0x3d63e282	0.055635937
5	0x3d8ce700	0.06879997
6	0x3e802e83	0.25035486
7	0x3e2705e4	0.16310841
8	0x3d832801	0.064041145
9	0x3e58ba1c	0.21164745
10	0x3d6ecdda	0.058301784
11	0x3dbf521a	0.093418315
12	0x3d96f15d	0.07370255
13	0x3e355363	0.17707591
14	0x3db23e25	0.087032594
15	0x3d6efb5a	0.058345176
16	0x3de8664d	0.11347637
17	0x3d399b4a	0.04531411
18	0x3e3e3d2c	0.18578023
19	0x3e0f283c	0.13980192
20	0x3da24970	0.07924163
21	0x3d6766ef	0.05649465
22	0x3e6c5518	0.23079336
23	0x3d6a6b08	0.05723098
24	0x3d22cdbf	0.039746996
25	0x3dd91484	0.10599616
26	0x3d599e31	0.05312938
27	0x3da681a0	0.08130193
28	0x3deacaf5	0.11464492
29	0x3dccf504	0.100076705
30	0x3d1dc852	0.03852112
31	0x3d434d28	0.047681004

body.block3.conv.weight f4 [32, 32, 3, 3]
0	0xbd52f59c	-0.051503763
1	0xbcd25458	-0.025674984
2	0xbcabfb1f	-0.020993767
3	0xb8278f5b	-3.9949413e-05
4	0xbb756e06	-0.0037449612
5	0xbc2eee01	-0.010676862
6	0x3c1b7db2	0.009490417
7	0x3c0244db	0.007950987
8	0xbb21fc29	-0.002471695
9	0xb9abc960	-0.00032765698
10	0x3c233f28	0.009963788
11	0x3c1bbd4d	0.009505582
12	0x3c3f4338	0.011673741
13	0x3c3059f3	0.010763633
14	0x3cf78956	0.030216854
15	0x3c9ba813	0.019001042
16	0x3caff403	0.021478659
17	0xbcb0e786	-0.021594774
18	0x3d6178ac	0.055046722
19	0x3c67e824	0.014154468
20	0x3c83ea5a	0.016102958
21	0xbcc75cf7	-0.024336321
22	0xba36ab02	-0.0006968231
23	0xbb1adf5e	-0.0023631672
24	0xbd74348a	-0.059620418
25	0xbd534e2f	-0.051588234
26	0xbcf6e867	-0.030140115
27	0xbc7caad8	-0.015421592
28	0xbd004c46	-0.03132274
29	0xbd0331d2	-0.032029934
30	0xbc62ade6	-0.013835406
31	0xbc8819b6	-0.016613822
32	0xbcbabe68	-0.02279587
33	0xbc1e3b42	-0.009657683
34	0xbb8b3e3e	-0.004249363
35	0xbcbd84f3	-0.023134684
36	0xbc9009a5	-0.017582724
37	0xbcd3e48e	-0.02586582
38	0x3c7e8a3e	0.015535889
39	0xbd33661e	-0.04379856
40	0x3c28fb95	0.010313888
41	0xbc1f3757	-0.009717784
42	0xbc82cb48	-0.015966073
43	0x3cda0043	0.026611453
44	0x3c3345ae	0.010941906
45	0xbc6586a0	-0.014009148
46	0xbb8a8e94	-0.0042284224
47	0x3ba53bf7	0.0050425488
48	0xbcf9c7b8	-0.030490741
49	0xbcb88cc7	-0.022528065
50	0x3d0bf969	0.034173403
51	0xbc8cdba3	-0.017194575
52	0xbc7b37fe	-0.015333174
53	0xbc987dde	-0.018614706
54	0xbcd46606	-0.025927555
55	0xbd13f3e8	-0.03612128
56	0xbcb1e58b	-0.0217159
57	0xbaabfb3f	-0.0013121142
58	0xbbed6028	-0.0072441287
59	0xbc8a8e41	-0.016913535
60	0xbd3e183f	-0.04640984
61	0xbce984d7	-0.028505726
62	0xbb32f9c5	-0.0027309519
63	0xbd1e22c3	-0.03860737
64	0xbce81039	-0.028328048
65	0xbd1d7951	-0.038445774
66	0x3d1b6f60	0.037948012
67	0xbc2b8b11	-0.010470168
68	0xbcfabacb	-0.030606648
69	0xbd226189	-0.039643798
70	0x3d4b75d7	0.049672928
71	0xbac5fb78	-0.0015104851
72	0x3c063699	0.008191728
73	0xbcb49d87	-0.022047771
74	0x3c802887	0.015644325
75	0x3c161de2	0.009162398
76	0x3ca9cfe2	0.020729009
77	0xbc223f61	-0.009902806
78	0xbbb840ea	-0.0056229727
79	0xbc1d9d98	-0.009620093
80	0xbc38737f	-0.011258005
81	0xbc4aaa55	-0.012369712
82	0xbc6129f1	-0.01374291
83	0xbcbd1667	-0.023081971
84	0xbb9ea3e5	-0.004841315
85	0xbcd4ec2d	-0.025991524
86	0xbc35cdda	-0.011096442
87	0xba96a77d	-0.0011494007
88	0xbc240b94	-0.010012526
89	0x3ca0acbe	0.01961362
90	0xbbec902c	-0.007219335
91	0xbca091cb	-0.01960077
92	0xbb83d193	-0.004022786
93	0xbcb9d242	-0.022683267
94	0xbd48dac8	-0.04903677
95	0xbce76a98	-0.02824907
96	0x3c3b1320	0.011418134
97	0xbc155f52	-0.009116964
98	0xbccdfdaf	-0.02514538
99	0x3a592c3c	0.00082844845
100	0xbd131be1	-0.03591526
101	0xbcba3707	-0.022731317
102	0x3ccc2d5b	0.02492397
103	0x3c1fff28	0.009765424
104	0x3cac62dd	0.021043235
105	0x3cca2dfd	0.024680132
106	0x3ce62509	0.028093832
107	0x3d25077f	0.040290352
108	0xbc2332de	-0.009960858
109	0xbbf524fa	-0.0074812146
110	0x3cddafc8	0.027061358
111	0xbca540db	-0.020172527
112	0x3b3f27d4	0.0029168027
113	0xbc998cdc	-0.018743925
114	0xbd8d1cf3	-0.06890287
115	0xbcd6a47c	-0.02620148
116	0xbbabf133	-0.005247259
117	0x3c0865e8	0.008325078
118	0xba8f3aa5	-0.0010927512
119	0xbc8cff59	-0.017211603
120	0x3ca38915	0.019962827
121	0xbc2ce5b7	-0.010552815
122	0xbcc12c55	-0.02358071
123	0xbc2c86fd	-0.010530231
124	0x3cf42b79	0.029805886
125	0x3cc99ff6	0.024612408
126	0xbbad89eb	-0.005295982
127	0xbcefa7e9	-0.02925487
128	0xbcf2a727	-0.02962072
129	0xba92c986	-0.0011198975
130	0x3bf452c7	0.007456157
131	0x3ca8051b	0.020510247
132	0x3d42c247	0.04754856
133	0xba9a96ef	-0.0011794249
134	0xbc9eb8e3	-0.01937527
135	0x3c8f1004	0.017463692
136	0x3d6f5127	0.058427002
137	0x3cf3764f	0.0297195
138	0xbd6753fc	-0.056476578
139	0x3c467020	0.012111694
140	0xbc8d30b5	-0.01723514
141	0xbcf58beb	-0.029973945
142	0x397ac66a	0.00023915773
143	0x3cea5ec4	0.02860964
144	0x3b3bebce	0.0028674486
145	0xbc75b0b2	-0.014995741
146	0x3afbe036	0.00192166
147	0xbd26e830	-0.040748775
148	0xbca013bb	-0.019540658
149	0xbb41bb92	-0.0029561264
150	0xbda3e5bd	-0.080028035
151	0xbd1b23cc	-0.037875935
152	0x3c3affda	0.011413539
153	0xbcde257c	-0.027117483
154	0xbd27aeda	-0.040938236
155	0xbd31266a	-0.043249525
156	0xbcaf9a06	-0.021435749
157	0xbd400783	-0.046882164
158	0xbc4127db	-0.011789287
159	0xbd36c7bf	-0.044624086
160	0xbd981d1c	-0.07427427
161	0x3bf9dd8c	0.0076252874
162	0x3b8a207e	0.004215299
163	0x3cbc62a5	0.022996256
164	0x3b676883	0.0035310097
165	0xbc9d6167	-0.019211484
166	0xbc53050b	-0.01287962
167	0xbd3762b9	-0.044771884
168	0xbd156fc2	-0.036483534
169	0x3c5b809f	0.013397365
170	0xbd15d1e8	-0.036577135
171	0xbca9b77a	-0.020717371
172	0xbc58712b	-0.013210575
173	0x3841d4aa	4.6212845e-05
174	0x3cceecc9	0.025259392
175	0xbb16d44c	-0.0023014722
176	0x3c1a46a6	0.009416258
177	0xbc994f21	-0.01871449
178	0xbd02ac40	-0.03190255
179	0xbcc165ad	-0.023608053
180	0xbc63dff3	-0.013908374
181	0xbbc13aac	-0.005896887
182	0xbcb9e789	-0.022693412
183	0xbd000096	-0.03125056
184	0xbd5a8963	-0.05335368
185	0x3ce82872	0.028339598
186	0x3cb7a18e	0.022415902
187	0xbc32de5d	-0.010917273
188	0xbd48cac8	-0.049021512
189	0xbc86fad2	-0.016477022
190	0x3c3089f1	0.010775075
191	0x3aa0663d	0.0012237501
192	0x3c9c3c7a	0.019071806
193	0x3ca73c5e	0.020414528
194	0xba9416b5	-0.0011298271
195	0x3c3e0fb2	0.011600422
196	0x3cf4b324	0.029870577
197	0x3ab4b1ee	0.0013785937
198	0xbcd548d8	-0.026035711
199	0x3d627cc9	0.055294786
200	0xbd3771ed	-0.044786382
201	0xbd3afa05	-0.045648593
202	0x3c1d5c4e	0.009604527
203	0xbc6ca945	-0.014444654
204	0x3d47ce6c	0.048780844
205	0x3c89b0a1	0.016807856
206	0x3be7f8b2	0.0070792073
207	0xbceb5f1f	-0.02873188
208	0xbcf7ecb4	-0.030264236
209	0xbb37d735	-0.0028051857
210	0x3c2345ec	0.009965401
211	0xbb7a53ef	-0.0038197
212	0xbbedb568	-0.0072542913
213	0x3c846305	0.016160497
214	0xbb775f8d	-0.0037746162
215	0xbc8fd096	-0.017555516
216	0x3bdcd9d9	0.0067398367
217	0x3c575055	0.013141711
218	0x3c744742	0.014909567
219	0x3b91f3df	0.0044541205
220	0xbc552673	-0.013009655
221	0xbd808ea5	-0.06277207
222	0xba62a6e8	-0.0008646087
223	0x3c23c096	0.0099946465
224	0xbb5212e5	-0.003205472
225	0xbcf16640	-0.029467702
226	0xbccda9d7	-0.0251054
227	0xbd518a88	-0.051157504
228	0xbc81e9bc	-0.015858524
229	0x3b6b8696	0.0035938374
230	0xbc343893	-0.0109998165
231	0x3aa929e3	0.001290616
232	0xbca386b4	-0.019961692
233	0x3bc1eab0	0.0059178695
234	0x3adc2671	0.0016796124
235	0x3c31b07a	0.010845298
236	0x3c6f362b	0.014600317
237	0xbb7cf428	-0.0038597677
238	0xbc548dcf	-0.012973263
239	0x3ce22a14	0.027607955
240	0x3ca6e41d	0.020372445
241	0xbd0a8c15	-0.033825
242	0x3cf3d4bb	0.029764524
243	0xbc30a08c	-0.010780465
244	0x3c6dfcde	0.01452562
245	0xbbcf8906	-0.006333473
246	0x3c916849	0.017749922
247	0xbce6b4a3	-0.028162306
248	0x3c32d08f	0.010913982
249	0xbc0c3c4f	-0.008559301
250	0x3c77dee3	0.015128824
251	0x3cceb8b5	0.02523456
252	0x3b91b93b	0.00444713
253	0x3c12e494	0.00896563
254	0x3cb77776	0.02239583
255	0x3b3a5377	0.0028431097

body.block3.conv.bias f4 [32]
0	0xbd1c673c	-0.03818439
1	0x3c3d6801	0.011560441
2	0xbb974502	-0.0046163807
3	0x3d63810e	0.055542998
4	0xbb80c2cc	-0.0039294716
5	0xbc77550d	-0.015095961
6	0x3cb8ec77	0.022573693
7	0x3d754043	0.059875738
8	0x3bb674b9	0.0055681136
9	0xbc9c1ceb	-0.019056758
10	0xbce22d24	-0.027609415
11	0x3cda0a11	0.026616128
12	0x3ca2fc7a	0.01989578
13	0xbd46a78f	-0.04849964
14	0x3c962e61	0.018332662
15	0x3c982b5e	0.018575367
16	0xbc1854cf	-0.009297564
17	0x3b864789	0.004097883
18	0x3bce197f	0.0062896605
19	0x3bb53bb8	0.0055308007
20	0x3d14c07c	0.03631638
21	0x3d17ef91	0.037093703
22	0x3b2ed433	0.0026676774
23	0xbce2c016	-0.027679484
24	0xbc76c66c	-0.015061956
25	0x3cbb0109	0.022827642
26	0xbccfdf9e	-0.025375184
27	0xbc9a562b	-0.018839916
28	0xbd34702d	-0.04405229
29	0x3d235154	0.039872482
30	0x3d1c5930	0.038170993
31	0x3b3b8e9e	0.0028618942

body.block3.norm.weight f4 [32]
0	0x3f823a25	1.0173994
1	0x3f8107fc	1.0080562
2	0x3f7d3029	0.9890161
3	0x3f721538	0.9456363
4	0x3f725b8e	0.9467095
5	0x3f82350b	1.0172437
6	0x3f7facf4	0.9987328
7	0x3f7d849e	0.9903048
8	0x3f6dbf54	0.9287007
9	0x3f783d6f	0.9696874
10	0x3f76e2a3	0.9643957
11	0x3f78eec5	0.97239333
12	0x3f714655	0.94247943
13	0x3f7e1321	0.9924794
14	0x3f7c70a9	0.98609406
15	0x3f6fbf48	0.9365125
16	0x3f731e3b	0.94968003
17	0x3f7b2a25	0.9811118
18	0x3f81d4f8	1.0143118
19	0x3f75503f	0.9582557
20	0x3f7a9a72	0.97891915
21	0x3f81e751	1.0148717
22	0x3f805d1b	1.0028414
23	0x3f6f371a	0.93443453
24	0x3f723092	0.9460536
25	0x3f781943	0.96913546
26	0x3f8143db	1.0098833
27	0x3f74391e	0.95399654
28	0x3f7230e3	0.94605845
29	0x3f66837b	0.90044373
30	0x3f70662e	0.93905914
31	0x3f78f19e	0.9724368

body.block3.norm.bias f4 [32]
0	0x3bd1ff1a	0.0064085843
1	0xbd277de1	-0.04089153
2	0xbd4b80f9	-0.049683545
3	0x3a8aa7e1	0.0010578596
4	0xbc9eb07d	-0.019371266
5	0x3b8ec8df	0.004357442
6	0xbd56240a	-0.052280463
7	0xbd025a0b	-0.031824153
8	0xbd060625	-0.032720704
9	0xbcb47a97	-0.022031112
10	0xbcd5591f	-0.026043473
11	0xbd20505e	-0.039139144
12	0xbc5f143f	-0.013615667
13	0xbcf158d9	-0.029461311
14	0xbc0afb0b	-0.008482705
15	0xb68ad498	-4.1374697e-06
16	0xbd8e115c	-0.06936905
17	0xbcf8eef2	-0.030387376
18	0xbd16eee4	-0.036848918
19	0xbc8dbbce	-0.017301466
20	0xbc78b154	-0.015178997
21	0x3afbf358	0.0019222302
22	0xbcc27b62	-0.023740474
23	0xbcf187a5	-0.029483626
24	0xbd1dd2df	-0.03853118
25	0xbcc72526	-0.024309706
26	0xbd1461a8	-0.036225945
27	0xbcd01137	-0.025398834
28	0xbbf9acee	-0.007619492
29	0xbd1057ca	-0.035239972
30	0xbcbdfc88	-0.023191705
31	0xbc70a15e	-0.01468691

body.block3.norm.running_mean f4 [32]
0	0xbef499e9	-0.47773674
1	0x3cc51999	0.024060057
2	0xbda9558a	-0.082682684
3	0x3d906e8d	0.07052336
4	0xbeac3149	-0.33631352
5	0xbe6aa640	-0.22914982
6	0xbdd9dbd4	-0.10637632
7	0x3de5d498	0.1122219
8	0x3c2e350b	0.010632764
9	0xbee58230	-0.44825888
10	0xbe48358f	-0.19551681
11	0xbd2d0e51	-0.04224998
12	0xbdbb7ce4	-0.0915468
13	0x3cbdf8b7	0.023189886
14	0xbd22c5bb	-0.03973935
15	0xbe129d63	-0.14317851
16	0x3e40e51a	0.18837395
17	0xbd6d76b3	-0.05797453
18	0x3ba2aa57	0.0049641537
19	0xbdf70e4f	-0.12063276
20	0x3e202d74	0.15642339
21	0xbe95b1f3	-0.29237327
22	0x3d3956c5	0.045248765
23	0xbe1c18de	-0.15243861
24	0x3cf4b658	0.029872105
25	0xbdaddb56	-0.08489101
26	0xbe345c51	-0.17613341
27	0xbe026e4f	-0.12737392
28	0xbe7fb80d	-0.24972554
29	0xbd337bd0	-0.04381925
30	0x3d819a48	0.06328255
31	0xbedadba1	-0.4274569

body.block3.norm.running_var f4 [32]
0	0x3ee632e2	0.44960696
1	0x3de06d59	0.109583564
2	0x3e66026d	0.22461863
3	0x3e63e85c	0.22256607
4	0x3dd22d7f	0.10262584
5	0x3eb1436f	0.3462176
6	0x3d4ddcd3	0.050259423
7	0x3e84bd92	0.2592588
8	0x3dea083f	0.11427354
9	0x3e557755	0.20846303
10	0x3d7eb468	0.062183768
11	0x3d993157	0.07480114
12	0x3e64b928	0.22336257
13	0x3e1ada82	0.15122417
14	0x3df030c1	0.11728049
15	0x3e4377e2	0.190887
16	0x3dfb46c9	0.122693606
17	0x3dea49f2	0.11439885
18	0x3e83dbff	0.2575378
19	0x3d9602ee	0.073247775
20	0x3eb36332	0.35036618
21	0x3d4df48e	0.050282054
22	0x3da5592e	0.0807365
23	0x3e1b22b0	0.15149951
24	0x3d7eae7c	0.06217812
25	0x3d4ba312	0.049716063
26	0x3e461a29	0.19345917
27	0x3e15b1aa	0.14618555
28	0x3e976dfd	0.29576102
29	0x3e5706f1	0.20998742
30	0x3d7d86e0	0.061896205
31	0x3f4a62e5	0.7905715
