code/Output/balloons/pdl_e8000_1px_lr0.001a5.0_up-conv5_1_W[1.0, 0.5, 0.1, 0.075, 0.075](4)/1/netG.pth (torch, 130371 bytes, 26 tensors)

head.conv.weight f4 [32, 3, 3, 3]
00000000: fb41 a93b 76a6 2abc 42e8 6fbd 0ab1 8b3d
00000010: 00a2 1dbe 6907 dabd dbce 523d ca1f 27be
00000020: 01f9 1abe d189 50bd 7bad a73c 7bf1 613c
00000030: 3041 4f3d 518a 85bc 4c46 e43b d721 d33d
00000040: 6966 64bc 9875 3a3d 2a48 07bd cbec 9d3d
00000050: b594 9c3d 5a82 c93d 801b e8bb bd70 173b
00000060: 0c71 dd3d 4770 0d3d d633 303d ba0f e83b
00000070: 3a9a 9f3c 15ee b2bd b5e9 7d3d f691 ce3b
00000080: 3714 29be 135e a73c dbe6 acbd e4a5 72be
00000090: b1b7 b4bc 9cce 973d 7827 a7bd 354d 5d3d
000000a0: e1a2 c63d 8fef 8bbc 328f 683d effe 2f3d
000000b0: 4f45 23bd 5a08 2ebb 00ec 8a3d 6459 f53a
000000c0: 578a 043d 0674 333d b785 0e3d b4d3 193c
000000d0: ae75 cb3d eff9 dd3d 3146 273d 01e8 30bc
000000e0: 982f 2e3d a27e d1bc 94db 1a3c 48af 27bd
000000f0: 1279 bdbd c049 86bd 6fad 0fbe 3999 da3c
00000100: 41b1 06bd 1816 413c 7df2 603d d72a 833e
00000110: df36 2e3d d710 5d3d 0393 8b3e 28f5 443a
00000120: 7ecf 8fbd e064 88bd a686 f5bc d77b 08bb
00000130: af09 033e 0bc3 04bd 8284 183d ce1e 563e
00000140: 0c12 9d3b 9c68 c73c 881b b23d f626 153d
00000150: 46e5 0c3d 1b75 d13d 2b44 dc3d 6c0a 5a3c
00000160: 5d2f 9b3d 7f14 fb3d fa03 6fbd ac9e 67bd
00000170: 58b6 9b3c 6151 12be dc85 f2bc d04a 8cbc
00000180: 3644 0abe 9384 47bd bc6a 9b3d 86e4 2bbd
00000190: cf86 47bd cd71 5b3c cb07 cfbd 15a7 48bd
000001a0: 53b0 ef3c d159 aabd 56e8 dabc 24d3 923d
000001b0: becc dc3d 5a1c ec3d f58c ba3d 978b 593d
000001c0: 5c8c cc3d 5808 aa3d d7a8 1aba ec6e 163c
000001d0: 9e8d 4ebd 7941 523e 5906 243e cfbd 553d
000001e0: 5adf aa3d 7cfb 973d 3f2b be3b 2e68 2a3d
000001f0: 7f7f 20bc c7be 8dbc f3ec cc3d fa7e be3c
00000200: eedb 82bd 6e24 b73d 4dae 49bc 1eac f1bb
00000210: 7f95 4a3d 2dec cf3a 8350 ccbc f151 05bd
00000220: a8c7 54bd 80a4 fa3d 11c1 4dbc 0933 8dbd
00000230: 6890 453d 17d8 3fbd 1d10 9a3d a2a7 533d
00000240: 5661 9a3c 71ed 35bc 51fe 963d b006 67bd
00000250: 25d5 d4bd 1ec4 92bd 3215 8a3d 0168 863d
00000260: f166 aabd d448 0b3d 32ab 86bc eb85 013c
00000270: 374e 18bd 7b77 74bd 75fd 01be 8800 c83d
00000280: b89f 993d 0ea0 29ba c09d d53d a3e1 853e
00000290: 3c2e 0f3e c3f7 903d d119 8e3d d6da 2a3b
000002a0: 5720 8dbd 678a 0cbd 40b0 25bd b243 053d
000002b0: c275 9fbb dc5f ab3c bd0b 023d 5a67 58bc
000002c0: d91f 1cbd 1837 fc3c 5ca5 263c cb85 b13c
000002d0: 4a51 d43b 6d01 52bd 9461 edbb 4ab8 833b
000002e0: eb0f 02be db01 2ebd a867 49bc 172a 49bd
000002f0: de1d 9c3c c182 be3c 179d 0abd fe10 c3bc
00000300: 33a8 903d fb5c d639 798f 023d 2414 553c
00000310: a287 1bbd 9b5c bdbb b8d4 24bd c7f1 08be
00000320: 25be b0bd 814f 4ebd 497f eebd 571a dabd
00000330: c9b1 11be 8a6e 10be 448f c4bd 3699 c13b
00000340: eec8 82bb 5054 01bc de81 7bbb 8019 82bd
00000350: 15cd df3c 7aa7 30bd 1ae5 b2bc c273 a43c
00000360: f708 433e b52d 2bbd 85f7 52bc c37b f93c
00000370: 3d84 30bc 6988 6f3d 3324 21be f712 4f3d
00000380: d02b cc3d 965c 1a3d f595 9bbd e209 86bd
00000390: f5e8 2b3d 7dab a73d 93ea 3fbd fed1 02be
000003a0: 9c65 743d 999f 9abc 4f9b 89bd 9175 3dbd
000003b0: d551 50bd e11c 703c 6324 093d 1ce8 37bd
000003c0: d0c3 cebd 42c6 3d3d a911 fc3c 001c 8cbd
000003d0: e075 cebd f803 a03d b623 5bbd df4b aabd
000003e0: 4014 ff3d b9e6 edbd ec27 91bd c6c9 9bbc
000003f0: c78a 7c3d 5845 17bd 6dfe 083d 574e 9c3c
0.005165336 -0.010415664 -0.058571108 0.06820877 -0.1539383 -0.106459446 0.051466804 -0.1632072
-0.1513405 -0.050912682 0.020468464 0.013790484 0.050599277 -0.016301306 0.006966388 0.10309189
-0.013940432 0.045522302 -0.033027805 0.0771118 0.07645551 0.09839316 -0.0070833564 0.0023107969
0.108125776 0.034530904 0.043018185 0.007081953 0.01948272 -0.08736817 0.06199046 0.006304021
-0.16511618 0.0204306 -0.0844247 -0.23696095 -0.022060247 0.074124545 -0.08161825 0.05402871
0.096990354 -0.017082004 0.056777187 0.042967733 -0.03986102 -0.002655527 0.06783295 0.0018718657
0.032358494 0.04381182 0.03479549 0.009388853 0.09934555 0.10838687 0.040838424 -0.010797502
0.042525858 -0.025573079 0.009451766 -0.040938646 -0.09251608 -0.065570354 -0.14031003 0.02668439
-0.032883886 0.011785053 0.054918755 0.25618622 0.042532798 0.053971138 0.272606 0.0007513338
-0.07021998 -0.066598654 -0.029971432 -0.0020825767 0.12796663 -0.03241257 0.037235744 0.20910189
0.004793411 0.024341874 0.086966574 0.03641411 0.03439834 0.10227414 0.107551895 0.013308149
0.07577393 0.12259769 -0.0583534 -0.056547806 0.019007847 -0.14288856 -0.029604845 -0.017125517
-0.13502583 -0.048710417 0.07588717 -0.041965984 -0.048712548 0.013393831 -0.10108908 -0.048987467
0.029258883 -0.08317912 -0.026722115 0.07169178 0.10781239 0.11528845 0.09108917 0.05311164
0.09987709 0.08302373 -0.0005899793 0.009181719 -0.050428025 0.20532788 0.16018046 0.05218297
0.08343382 0.07421014 0.005803495 0.04160326 -0.009796022 -0.017302884 0.10006132 0.023253907
-0.063896045 0.08942495 -0.012309623 -0.0073752543 0.049458977 0.0015863233 -0.024940735 -0.03254885
-0.05194822 0.12238407 -0.012558238 -0.068945 0.04823342 -0.04683694 0.075226046 0.05167354
0.018845242 -0.011103974 0.07372726 -0.056402862 -0.103922166 -0.07166313 0.06742324 0.06562806
-0.08320416 0.034005 -0.016439054 0.007905464 -0.037183966 -0.059684258 -0.12694342 0.09765726
0.07501167 -0.00064706884 0.10430479 0.2614871 0.13982481 0.07078507 0.06938518 0.0026070378
-0.06890934 -0.03431168 -0.04045129 0.032535262 -0.0048663327 0.020919733 0.031749476 -0.013208235
-0.03811631 0.03078799 0.010171261 0.021670243 0.006479417 -0.05127089 -0.0072442982 0.0040197717
-0.12701385 -0.04248224 -0.01229278 -0.049112406 0.01905721 0.023255708 -0.03384122 -0.023811813
0.070633315 0.00040886537 0.031875107 0.01300529 -0.037971146 -0.0057788617 -0.040241927 -0.1337348
-0.08630017 -0.05036879 -0.116453715 -0.10649555 -0.14227976 -0.14104667 -0.09597638 0.0059081567
-0.003991238 -0.007893637 -0.0038376967 -0.0635252 0.02731947 -0.043128468 -0.02183776 0.020074729
0.19046389 -0.041791636 -0.012876396 0.030454522 -0.010773716 0.0584797 -0.15736465 0.050555196
0.09969294 0.037685953 -0.075969614 -0.06544854 0.041970212 0.08187006 -0.046854567 -0.12775418
0.059667215 -0.01887493 -0.06719076 -0.0462547 -0.05085929 0.014655323 0.033481967 -0.04489909
-0.10095942 0.04633165 0.03077014 -0.06841278 -0.100810766 0.07813257 -0.053500853 -0.083152525
0.12455034 -0.116162725 -0.070876926 -0.019017112 0.061655786 -0.036931366 0.033445764 0.019080324

head.conv.bias f4 [32]
00000000: 1fcd 433e d8cc 853d 1f9c 40bc 3866 1d3e
00000010: 9ca5 37bc 1ebf 2d3d 01a7 9f3a dcb5 48be
00000020: 0104 0bbe dd1a 90bd 8ce1 373e 397b 6f3e
00000030: 2a00 1bbe b0ba 0dbe 67e4 b03d 8a93 9bbd
00000040: fe9b 0ebe 1b4d 3bbb 0d60 32bd 56b3 eb3d
00000050: d92b 903d 97c0 f03d b71e 303d 1f55 083e
00000060: 088f 3a3e 78ec 883d bfab 03be 0e16 183c
00000070: d2a2 b53d 229a 4a3e 08bf f53d 7724 10be
0.19121216 0.065332115 -0.011755972 0.15371025 -0.011208918 0.04241859 0.0012180508 -0.19600624
-0.13575746 -0.07036374 0.17957133 0.2338685 -0.15136781 -0.13840747 0.08637314 -0.075965
-0.13926694 -0.0028579894 -0.043548632 0.11508815 0.07039613 0.117554836 0.042998042 0.13313721
0.18218625 0.06685728 -0.12858485 0.009282602 0.08868946 0.1978536 0.11999327 -0.1407641

head.norm.weight f4 [32]
00000000: 9b75 8b3f 301d 883f 542b 7f3f de9c 653f
00000010: ffb3 a13f bc51 863f b410 6a3f 6604 563f
00000020: 096b 463f 49a2 613f a35e 803f 93ca 7f3f
00000030: 1bfa 793f f952 643f e44e 4a3f d81d 623f
00000040: 615b 8a3f 0ebb 533f 042f 573f be5f 873f
00000050: 7226 693f f63a 843f abf3 813f d57e 893f
00000060: d152 793f f265 893f bb25 7b3f 4c8a 763f
00000070: 46c7 543f 98cd 683f 46ea 573f 6db8 873f
1.0895265 1.0633907 0.9967549 0.89692485 1.2633055 1.0493693 0.91431737 0.8360046
0.7750707 0.8813825 1.0028881 0.9991848 0.97647256 0.89189106 0.7902663 0.8832679
1.0809137 0.827073 0.84056115 1.0576093 0.9107429 1.0330493 1.0152487 1.0741831
0.9739199 1.0734236 0.9810445 0.96304774 0.8311657 0.9093871 0.8434185 1.0603157

head.norm.bias f4 [32]
00000000: 401a aabc e977 1b3d 8f4a ea3d a5d9 dfbe
00000010: 371e 5e3e 150c 5fbe 9e7e b4be a0d4 f6bd
00000020: 469d 90be 2384 9ebe a050 acbe adb7 48bd
00000030: c201 a2be 1ce5 bbbe 67f0 3dbe 6d50 93be
00000040: 982e c3bd 86b8 6bbe 7d83 99be 4b83 e4bd
00000050: f53e 9dbe f871 07be 1291 cfbd 07e3 fcbc
00000060: a6f0 c0be 37c5 8abb ba58 1cbe 2c82 0cbd
00000070: 3ee6 2cbe c129 67be de2d d6be 67b4 8bbe
-0.02076447 0.037956152 0.11440002 -0.43720737 0.21691214 -0.21781953 -0.3525285 -0.12052274
-0.2824499 -0.30960187 -0.33655262 -0.049003292 -0.31641966 -0.36698234 -0.18548737 -0.28772298
-0.095303714 -0.23019609 -0.2998313 -0.11157855 -0.30712095 -0.1322707 -0.10135092 -0.030869974
-0.376836 -0.0042349356 -0.15268221 -0.03430383 -0.16884705 -0.22574522 -0.4183187 -0.27286074

head.norm.running_mean f4 [32]
00000000: 9d03 943e a44e 223e 7904 a73d 87ba 533d
00000010: 9715 6c3c e002 d13c d3fc 75bd 633f 8ebe
00000020: dbee 39be f6ee 76bd 612c 1d3e 8e9b 7a3e
00000030: 2389 85be 0720 0dbe d0f3 033d f82a 0ebe
00000040: 4fd5 8fbc a072 3dbd 7fb0 b1bd c5c7 1d3e
00000050: 87e0 97bd 908b 033e 19b0 5a3d aee2 8b3e
00000060: 5559 3d3e 69a9 643d 0112 f4bd fa7e 2d3d
00000070: a1e1 f63c eabf 553e c0fb 813d 6b0e 05be
0.28909007 0.15850312 0.0815515 0.05169156 0.014409444 0.025514066 -0.060055565 -0.27782735
-0.18157522 -0.060286485 0.1534896 0.24473402 -0.2608119 -0.13781749 0.03221494 -0.13883579
-0.017557768 -0.046251893 -0.08676242 0.15408237 -0.07415872 0.12846208 0.053390596 0.2732138
0.18491109 0.055825625 -0.119174965 0.042357422 0.030136885 0.2087399 0.063468456 -0.12993781

head.norm.running_var f4 [32]
00000000: ec76 6e3c c422 803c d762 0c3d 4f47 883c
00000010: bfbc 633d b287 293b efc1 023c 7f05 3b3d
00000020: cf50 9f3b 9192 443b 2440 dd3a e5c3 5c3b
00000030: 1d07 693c 4d93 c43b f9c0 493c 11b8 393c
00000040: e9ea c23c 2606 d83b b40a 773b fabd 523c
00000050: b80d 663d 5373 893b 3712 083b b3ce a73d
00000060: c810 093c 7cb0 533c 0837 c83a b49a 1f3c
00000070: 2d2b 103d 91d0 b43b 72b4 d53b ed1d 833b
0.01455472 0.015641578 0.03427395 0.016635565 0.055599924 0.0025868234 0.007980808 0.04565954
0.004861928 0.0029994587 0.0016880077 0.0033686098 0.014222887 0.005999005 0.012314075 0.011335389
0.023793655 0.00659253 0.0037695589 0.012862677 0.056165427 0.004194656 0.002076281 0.081937216
0.008365817 0.012920495 0.001527519 0.009741474 0.035197426 0.005518027 0.006521755 0.00400137

body.block1.conv.weight f4 [32, 32, 3, 3]
00000000: 7dd7 69bd e19b b8bd 6d53 d23d e633 b23d
00000010: 1a65 15bd ad02 9d3c 953f ba3d 0bf2 0d3e
00000020: fb5c 4bbd aa8e 2cbe 6b7e 45bd f3e2 9e3d
00000030: 6018 a2bd 6d2a 813d 62e3 743d 2791 673c
00000040: d823 753d 96cb 2e3d 70c4 9ebd ea7f 8e3d
00000050: f073 403d 602f 1bbc c763 a83d a792 9bba
00000060: 5613 3b3c b949 c8bd 7471 49bd ae75 85bd
00000070: 2822 14bd 9d53 35bc b124 78bd df7b f7bd
00000080: 779a 773c f141 b6bc 92ae 37bc 8359 62bc
00000090: 4675 23bd 594c debd 704f d4bd 2fcc cabd
000000a0: cc69 edbd 1d0e 75bd 872d d3bd 94d9 9bbd
000000b0: f88b a9bc cbdd b23d 3063 113e 6416 b53d
000000c0: fb48 a2bc fd92 a5bd efa4 cebd ff88 b63d
000000d0: d3fc cb3d c12b ac3d 1bf4 993d d22c afbb
000000e0: 4fa4 5dba 7c88 2bbd 7a29 edbc fc29 f13c
000000f0: 62a4 28bc 1623 d43d b763 ee3d 21ca ccbd
00000100: 4ebd 2cbe 2711 8abd aedc 2fbd 58e8 aebd
00000110: 7fac 2b3b db3b 9fbd c147 a0bd b5e0 07bd
00000120: 804c 98bd 3bcf 4b3d 2e17 b7bc 770f 5dbd
00000130: bdc3 fbbc 87c8 df3c 3151 a23c ed93 90bc
00000140: e5bc 3d3d cdbf d1bd 75eb e1bc f479 a4bd
00000150: 3150 df3c 29c6 7a3d a861 633c 498f 613d
00000160: a252 57bd 4fa2 23bd ffba 9839 ddf6 20be
00000170: 0943 99bd 2b61 473d e563 c63d 60c8 eb3d
00000180: 0c57 4cbd 9fdb 5d3c cf83 3ebd 3551 e5bd
00000190: 86b4 26be 4902 6a3d f921 fabc eeee 913a
000001a0: 7aea d93d 6699 c8bb 14ce 7abc 33bb 11be
000001b0: 9f5f 1abe 9687 52bd bf41 7ebb 01b0 84bc
000001c0: db47 373d fbad 573d d5fc b33d 2fc2 a23c
000001d0: 79da abbc cf7d c73d f8da 33bd 2aa7 a3bd
000001e0: 4448 09bc acd4 e6bc a4b3 563c df28 10bd
000001f0: 687a 813d ebf3 89bc d588 82bd 6649 48bd
00000200: 6b8e 14bd 9ef2 51bd 85e1 20be 4946 75bd
00000210: 56ff 72bd da94 bfbd d52a dabd e212 7a3c
00000220: d4d2 e639 9b45 9bbd 85c2 653d a7c2 49bd
00000230: 3d0b db3c 6065 97bd 556d 27be 83ef e1bd
00000240: d8ca b73d e332 bc3d 3574 52bd ec4f 093e
00000250: aac6 403d 41b7 b5bc 994d ea3d 9c96 bc3d
00000260: 695b 433e 1c36 d03c 1107 103d 6070 17bd
00000270: 8570 2a3d 2eba 88bd 38e1 90bd 59df cb3c
00000280: 8b24 e7bc a6ef 443d 7b77 febc 2f92 e33c
00000290: 283e 7bbd 6069 8cbd 3f00 4f3c eaa5 adbd
000002a0: b63f 95bd e372 093d 8510 8fbc dcde dabd
000002b0: b2b6 7abd 23cd 40bd 2988 8abd b3ee 333d
000002c0: 4933 a1bd eb94 003e ef22 0e3e c799 fbbc
000002d0: 9ca9 4dbd 6b9b aebd 4525 48bd f995 b5bc
000002e0: d834 59bd 794c b1bc f029 22bd d9a7 38bd
000002f0: 342e 69bc 8216 a73c 26ed 88bd 394a 093d
00000300: 314e 19bd 772f d53c 7a72 e43c de47 0d3d
00000310: 4be5 8b3d b006 2ebc e08f b93b e064 9dbd
00000320: c062 0a3e e3de c43d d9dc ac3a 86ac f0bc
00000330: 1d82 6abb 7f43 7b3d 0ae2 733d 32fc f5bc
00000340: f5f9 b83c 9815 93bd 02e7 493e ad8f 833d
00000350: f93d 63bd d525 dd3d d75e 093d de40 a9b7
00000360: 9bf0 9e3c 39b3 aebd 8eaa fbbd 4199 0dbd
00000370: f3a1 d2bd 2562 20bd aa73 cbbc b1fd 2e3d
00000380: 2ee5 663c fc14 17bd 14f1 c5bd 61a8 a03d
00000390: 1e0d b9bd c8b5 6dbc 0cdb febc c885 41be
000003a0: 6ec4 ddbd 590d a1bd 8dbe 02bc 31d3 c93c
000003b0: cb77 1e3d 804f e3bd d0c9 c63c 9f58 893d
000003c0: 7333 13bd 5db1 993d 6a4e b0bd d1f7 5dbd
000003d0: d9b8 613c a8ff 5ebc 67f3 91bc 0bf7 623d
000003e0: 0fe1 91bd 88a6 3abe 2968 f4bd 0861 2c3d
000003f0: 611f ccbd 0ebc 6dbd 4214 9bbc 85e8 93bd
-0.05709027 -0.090141065 0.102698185 0.08701305 -0.03647337 0.019166315 0.090941586 0.13861863
-0.04964922 -0.16851297 -0.048216265 0.07758131 -0.079148054 0.0630692 0.05978716 0.014133728
0.059848636 0.042674623 -0.07752311 0.069579914 0.046985567 -0.009471744 0.08222156 -0.0011869267
0.011418184 -0.097796865 -0.049180463 -0.06516586 -0.036165386 -0.011067298 -0.060581867 -0.120841734
0.015112511 -0.02224824 -0.011211054 -0.013815287 -0.039906763 -0.10854406 -0.10366714 -0.09902226
-0.11592445 -0.059827913 -0.10311418 -0.07609859 -0.020696625 0.0873371 0.14197993 0.08842161
-0.01981019 -0.080846764 -0.10090052 0.08912849 0.09960332 0.08406783 0.075172625 -0.005345919
-0.0008454965 -0.04187821 -0.028950442 0.029438965 -0.010293098 0.103582546 0.11640113 -0.099994905
-0.16869089 -0.06741553 -0.042935066 -0.0854041 0.0026195345 -0.077750884 -0.07826186 -0.03317328
-0.07436466 0.049758177 -0.02234992 -0.053969827 -0.030732984 0.027317299 0.019814106 -0.017648662
0.046322722 -0.10241661 -0.027578095 -0.08031073 0.027259918 0.061224137 0.0138782635 0.055068288
-0.05256904 -0.03994971 0.00029131022 -0.15719171 -0.07483489 0.04867665 0.09687022 0.11512828
-0.049887702 0.013541131 -0.04651242 -0.1119713 -0.16279802 0.057131086 -0.030533778 0.0011133829
0.10640426 -0.006121802 -0.015307922 -0.14231567 -0.15075539 -0.051398836 -0.0038796512 -0.016197206
0.04474626 0.052656155 0.08788458 0.019867985 -0.0209782 0.09740793 -0.043909997 -0.079908684
-0.008379046 -0.028177582 0.013104353 -0.035195228 0.06322175 -0.016839942 -0.06373755 -0.048898123
-0.036268633 -0.05125677 -0.15711029 -0.059881482 -0.05932554 -0.09354563 -0.10652701 0.015263291
0.00044026098 -0.075816356 0.05609371 -0.0492579 0.026738757 -0.073923826 -0.163503 -0.11032011
0.08974236 0.09189393 -0.051380355 0.13409394 0.04706446 -0.022182109 0.11440582 0.09208414
0.19077839 0.025416426 0.03516299 -0.036972404 0.041611213 -0.06676136 -0.07074207 0.024886774
-0.028215667 0.04808011 -0.031062832 0.027779667 -0.061338574 -0.06856036 0.012634336 -0.08478911
-0.072875425 0.03355683 -0.017463932 -0.10687038 -0.061209388 -0.047070634 -0.06764252 0.043928813
-0.0787111 0.12556808 0.13880514 -0.030712975 -0.05021058 -0.085257374 -0.048863668 -0.02216624
-0.05302891 -0.02164291 -0.039590776 -0.045081947 -0.014232207 0.020396475 -0.066858575 0.03351805
-0.037428085 0.02602361 0.027886618 0.034492366 0.068308435 -0.010621712 0.005662903 -0.07685256
0.13514233 0.09612825 0.0013188376 -0.02937914 -0.003578312 0.061343666 0.05954174 -0.030027483
0.022580126 -0.07181853 0.19717029 0.06423888 -0.055479024 0.107982315 0.033537712 -2.0176576e-05
0.019401839 -0.08530278 -0.1228839 -0.034569982 -0.102847956 -0.039156098 -0.024835426 0.042722408
0.014092727 -0.036885247 -0.09665123 0.07844616 -0.09035705 -0.014508672 -0.031110309 -0.1889869
-0.108284816 -0.07863874 -0.007980001 0.024636837 0.038688462 -0.11099148 0.024266154 0.06706356
-0.035937738 0.075045325 -0.08608706 -0.054191414 0.013776981 -0.013610758 -0.017816259 0.05541138
-0.07123005 -0.18227589 -0.119339295 0.042084724 -0.099669226 -0.05804067 -0.018930558 -0.07222084

body.block1.conv.bias f4 [32]
00000000: 37af 31bd ce91 a8bc 3570 4dbd a070 313d
00000010: f3a5 a7bb 00a4 f33c 4c2a 683c 6cd8 7b3c
00000020: cade f23c 6620 b1bc da25 7fbc 6f4d 9fbc
00000030: 0148 65bc f484 4c3d 75e8 0ebd 611b 393d
00000040: 5ae9 30bd c595 7bbc 5a6c 583d 795b 08bc
00000050: da20 3fbd d7c9 19bd b2f5 b03c a7cd 50bd
00000060: 18e0 533d cce9 e2bc c92f a13c 964c 6fbd
00000070: 1ec9 523c e732 a8bc 19ba a4ba 8b35 27bc
-0.04337999 -0.020577338 -0.050155837 0.0433203 -0.0051162182 0.029741287 0.014170241 0.015371423
0.02964725 -0.021621894 -0.015572989 -0.019446103 -0.013994218 0.04993148 -0.034889657 0.045192126
-0.04319129 -0.015355532 0.052837707 -0.00832259 -0.04666219 -0.037546005 0.021601532 -0.050977375
0.051727384 -0.027699374 0.019676106 -0.058422647 0.012865333 -0.020532085 -0.0012567668 -0.010205637

body.block1.norm.weight f4 [32]
00000000: f232 863f 2ad0 6e3f 6948 853f 0c98 5d3f
00000010: 987f 933f 2f21 823f 5096 893f 62f1 7b3f
00000020: 23fa 663f 32ad 793f 0d1b 793f 4f54 6f3f
00000030: c51a 6a3f 6f37 873f 7012 803f 109b 5e3f
00000040: ab44 803f 1919 5d3f ef8d 813f d11d 5c3f
00000050: ed19 653f d883 743f 0e49 833f 7025 823f
00000060: 057e 683f df4c 6f3f 2c22 713f 9665 853f
00000070: 6be4 803f fbc5 6f3f 5d03 7a3f 6389 643f
1.0484297 0.93286383 1.0412723 0.8656013 1.1523314 1.0166377 1.0748997 0.98415196
0.9022543 0.975299 0.973069 0.9348802 0.914471 1.0563792 1.0005627 0.86955357
1.0020956 0.8636642 1.012144 0.85982996 0.89492685 0.9551368 1.025667 1.0167675
0.9081729 0.9347667 0.9419277 1.0421627 1.0069708 0.9366147 0.9766138 0.89272135

body.block1.norm.bias f4 [32]
00000000: f3ce e23d 0a78 56be e3dc 42be f590 99be
00000010: 4d24 c9bd 51b3 423d 4872 ae3b 3b0c 17bd
00000020: 7815 62be e992 59be 948f 893d e95c 9ebe
00000030: a34a b8be abfa 033e 6724 20be 5791 d0be
00000040: c7f6 d4bd 72bf 70be 22fb f0bd 5c35 0dbe
00000050: 5554 acbe 925c 09be ebd3 113c e60f 61be
00000060: 5d61 f4be 288e 9cbe 6cda cdbe a1f0 babe
00000070: d73e 89bd 0d01 c6be 727a b8bd cd5d 00be
0.11074629 -0.20944229 -0.19029574 -0.29993406 -0.09821377 0.04753429 0.005323682 -0.0368769
-0.22078502 -0.21247448 0.067168385 -0.3093026 -0.35994443 0.12888591 -0.15638886 -0.40735886
-0.103986315 -0.2351053 -0.1176665 -0.13789886 -0.3365809 -0.13414219 0.008900623 -0.21978721
-0.47730532 -0.30577207 -0.40205705 -0.3651171 -0.06701439 -0.38672677 -0.090077296 -0.12535782

body.block1.norm.running_mean f4 [32]
00000000: c583 4abf 6911 03c0 ce64 b4bf 8757 a83f
00000010: a193 b6bf 2d72 cabe ec9e aabf 35c3 553e
00000020: 73a1 be3e 6a4a 87bf a23b 983d 42b9 99bf
00000030: f843 973d 98aa 513e 42b7 093e 0eb0 a53f
00000040: f7bf d4bf 4454 75be 5271 483f 6ca4 ccbe
00000050: 29ce d4bd e0a7 e2bd 1ef1 f93c 6ca0 0abf
00000060: 5692 d43e 3ea3 053d 03a5 883f bc68 3dbe
00000070: 9866 fcbf 8011 52be 389d bf3e 0517 77be
-0.79107314 -2.0479376 -1.4093263 1.3151711 -1.4263803 -0.39540234 -1.3329749 0.20875247
0.3723255 -1.0569584 0.07433249 -1.2009661 0.07386011 0.20475233 0.13448814 1.2944353
-1.6621083 -0.23957926 0.78297913 -0.39969194 -0.103908844 -0.11067176 0.030510481 -0.54151034
0.41517895 0.032626383 1.0675358 -0.18496984 -1.9718809 -0.20514488 0.37424636 -0.24129875

body.block1.norm.running_var f4 [32]
00000000: 7821 5e40 9fec 7f40 e25d be3f 3702 ae3f
00000010: ccca 2e40 ae1a a540 86cf 3840 e05c 4d40
00000020: e025 bd3f 8462 8b40 e607 8c40 3fa0 803f
00000030: 7315 f73e ab22 d640 9e28 0240 30a6 0f3f
00000040: 06d9 f73f bf98 aa3f a506 9440 14c6 db3f
00000050: 644f 3f40 f04a c83f 638f 9b3f 66f0 c03e
00000060: f5fe 593f 5e8a ce3f 2abf 1140 c4bb a33f
00000070: 7692 7940 4065 e73f aa5e a640 aa17 2140
3.4707928 3.9988172 1.4872401 1.3594426 2.7311277 5.159507 2.8876662 3.2087936
1.4777184 4.355776 4.375964 1.0048903 0.48258552 6.691732 2.033729 0.56112957
1.9363105 1.3327864 4.625811 1.7169824 2.9892206 1.5647869 1.2153133 0.3768341
0.8515466 1.6135976 2.2772927 1.2791677 3.8995643 1.8077774 5.1990557 2.5170693

body.block2.conv.weight f4 [32, 32, 3, 3]
00000000: ab28 1e3d 4fa1 6f3d c6b8 053d 1124 9bbd
00000010: 6d91 61bd 7f15 35bc 1d2f 01be 4ea7 02be
00000020: fe4e 81bd 740f 563d 76ec e03d ccb4 ed3d
00000030: 4ed6 943d acc1 993d 980a a83d 2877 9a3c
00000040: 3227 9e3d b4f1 913d 63c9 993c 1e08 713c
00000050: 1a1a f2bc 80ec 4c3d 148a 943d ae0a 0f3e
00000060: 1f47 3d3e e3c9 d33d 8a8b 173e a70b 8dbc
00000070: 7c41 a7bc 8694 c7bc 09e0 94bc f3c0 a93b
00000080: e51f 023c 2643 98bd 6e70 1cbd a2f4 51bd
00000090: 84b9 c9bb 1ee0 a43d 8f2e c73d 2159 9e3c
000000a0: a3a6 073d a1cd 77bd 2f29 4a3c d4a8 89bd
000000b0: 76a2 99bd 79e4 443d e216 96bc 7b5a 5ebd
000000c0: 180f 03bd e933 87bd 5e03 0bbd c3ac f53b
000000d0: 1610 c4bd 99ac f4bc 4c14 e4bc 35fb 883c
000000e0: f03f 87bb 83e6 8c3b de7f 3a3c 0a0c 8cbc
000000f0: 52c9 aabc a96c 4bbd 8ffe 06be 2cef af3d
00000100: a48f 0c3e 34e0 4fbc 8c3f cd3b 4516 7f3d
00000110: 6ad9 afbc 5e55 91bd 06a9 57bd 0e91 aebd
00000120: aa19 a3bd dcc3 c4bd 43f6 b53b 47bd a9bd
00000130: 78f1 e7bd 0aa4 14bd 6476 2bbd 0c44 86bd
00000140: acbe ffbc 05e4 ccbd fadd d3bd ca1f 3bbd
00000150: f665 783c 31ad 883d 978e 003d afbb d8bb
00000160: bdc1 713d 14ec 653c eda4 17bd 031c d1bd
00000170: 14a4 e5ba 007d f8bc 1304 c4bd fed3 85bd
00000180: 2882 943d 24ee 873b e335 233c b4f2 5139
00000190: 6d21 c93c 9589 333d 5322 173d a495 7b3d
000001a0: f1c1 613c 42f2 07bd b794 123d e18b 0abd
000001b0: 2861 33bc aa6c 893d a7b1 a83b a6a8 40bd
000001c0: d62a 483b 728b afbd 6f09 0e3d 4ed6 2fbc
000001d0: 1971 98bd 0022 ab3c d0b4 16bd c438 07be
000001e0: 5405 203c 12fa 6cbd 9669 b1bd 2946 c2bd
000001f0: 638e ffbd 8da5 a6bd a489 113c 42ec abbd
00000200: b398 ebbd bb15 8e3c 4740 4abd 6760 40bd
00000210: aa44 f6bd c479 bbbc b927 b3bd e44b c3bd
00000220: 2de0 fdbc 241f aebd d041 b03d 8b84 1c3e
00000230: 2549 033e 55b5 ddbd 3bd3 77bd 97dc fcbd
00000240: 6cd4 453d 606f ac3c f5dc 463d b837 b03d
00000250: e9e8 4fbd 3250 ec3d 807c bb3d eba6 a83c
00000260: e68f 5d3d dfdc 8dbd 8f71 b9bd 0b95 99bd
00000270: da82 e1bd 5ccb d2bd 7202 06bd 5787 6e3d
00000280: bd2f ad3d 831d 093d be04 303d 1412 74bb
00000290: deaa 04bd 15f7 d53d 7330 b23c fde7 2fbb
000002a0: 78e7 3b3d d5a9 983c 5319 a63c 8de7 f0bd
000002b0: e820 c3bd 670e 76bc fd09 9dbd a42f 5dbd
000002c0: 0668 a13d eb72 7d3b 55ba 933d 3cdd 733d
000002d0: 099f 053d 4fb9 593d 324f 2d3d 70ae 8d3d
000002e0: fa0d 9e3d 3ddb aebc 921f 79bd 6764 c1bb
000002f0: 2e75 76bd defa 0dbe 4981 dfbd 0b9f b7bd
00000300: 1863 b33a 090d 43bd 7b46 77bd fdfe 803d
00000310: ed77 533d cdf5 c43d 3010 003d faa0 2c3d
00000320: 4655 51bc 5671 ccbb fe94 9f3d 9158 85bc
00000330: 8775 fabc db76 7f3d 341f 053d c17b 96bb
00000340: c93c 8dbc 7225 ddbb 6017 893c 493c 96bd
00000350: 1d2c 863c 5505 713c 0c27 d1bd 7379 a9bd
00000360: 6bfe 44bd a2e0 e2bb df7a 5bbb cb85 e33c
00000370: fc99 ce3b d4a3 42bc 5656 1bbe 4685 9bbd
00000380: 37e5 89bd 8a40 303d 0653 1bbd 5165 28bd
00000390: d330 0ebd 6f86 42bd bf36 5ebc 924c 1abe
000003a0: bcad 39bd 4d6a fa3b ef09 543c 0c81 0a3d
000003b0: 9206 483d 9c3d b1bd 5ae1 7ebd f65e 80bd
000003c0: 5635 303d 644b 2ebc 5bd1 ef3c 7c62 de3a
000003d0: 065b ee3c cba2 d1bd 6c3a bbbb eef8 92bd
000003e0: 17a3 a9bd 210a 6ebd 8466 bebd 68ef 1dbe
000003f0: 9ba7 8c3d 20ff 613d 22f8 9e3d b754 7b3d
0.038613003 0.058503445 0.032646917 -0.075752385 -0.05507033 -0.011052488 -0.12615629 -0.12759134
-0.06313895 0.05226083 0.10982601 0.1160675 0.07267438 0.07507643 0.082051456 0.018855646
0.0772232 0.07126179 0.018772786 0.014711408 -0.029553462 0.05003023 0.07252899 0.13968918
0.18484162 0.10341241 0.14799324 -0.01721747 -0.020416968 -0.024362814 -0.018173235 0.005180472
0.007942175 -0.074346825 -0.03819316 -0.05125869 -0.0061561484 0.080505595 0.09725677 0.01932961
0.0331179 -0.060498837 0.0123389205 -0.067216545 -0.0750169 0.04806945 -0.018321458 -0.054285508
-0.031996816 -0.06601698 -0.033938758 0.0074974014 -0.09573381 -0.029867457 -0.02784171 0.016721347
-0.004127495 0.00429994 0.011383025 -0.017095584 -0.02084795 -0.049664173 -0.13183044 0.0859054
0.1372667 -0.0126877315 0.006263679 0.062277097 -0.021465976 -0.070963606 -0.052651428 -0.08523761
-0.079638794 -0.0960767 0.0055530383 -0.08288055 -0.113253534 -0.036289252 -0.041860953 -0.06555948
-0.03121885 -0.10004429 -0.10345073 -0.045684613 0.015161028 0.06673659 0.031385984 -0.0066141705
0.059022654 0.014033336 -0.03702252 -0.10210421 -0.0017520213 -0.030333042 -0.095710896 -0.06534575
0.07251388 0.0041482616 0.009961578 0.00020022207 0.024552071 0.04383238 0.03689797 0.061422005
0.013779149 -0.03319002 0.035786357 -0.033824805 -0.010948457 0.06710179 0.005148131 -0.047035836
0.003054311 -0.08571519 0.034676965 -0.010732247 -0.07443447 0.020890236 -0.03679353 -0.13205248
0.009766895 -0.057855673 -0.08662717 -0.09486038 -0.1247833 -0.08137045 0.008882914 -0.08394672
-0.115037344 0.017344346 -0.049377706 -0.046966936 -0.120248154 -0.02288521 -0.08747811 -0.09535959
-0.030990684 -0.08502033 0.08606303 0.15284936 0.12820871 -0.10825602 -0.06050418 -0.12346762
0.048298284 0.021049201 0.048550565 0.086043775 -0.05075923 0.115387335 0.09154606 0.020587405
0.05409231 -0.069268934 -0.09054863 -0.07499131 -0.11011286 -0.10292694 -0.032717176 0.05823454
0.08456371 0.03347541 0.042973273 -0.003724222 -0.032389514 0.10447518 0.021751618 -0.0026841157
0.045875043 0.01863567 0.020275747 -0.11762915 -0.09527761 -0.015018082 -0.07667921 -0.05400051
0.07881169 0.0038673233 0.072132744 0.059537157 0.03262237 0.05315524 0.042311855 0.06918037
0.077175096 -0.021344775 -0.060821123 -0.0059018615 -0.060170345 -0.1386523 -0.10913331 -0.08965882
0.0013686148 -0.047619853 -0.06036995 0.06298635 0.051628042 0.09617195 0.031265438 0.042145707
-0.012776678 -0.0062390966 0.0779209 -0.016277583 -0.03057362 0.06236921 0.03250046 -0.0045923893
-0.017240899 -0.0067488486 0.016734779 -0.07335717 0.016378457 0.014710744 -0.10212526 -0.08275118
-0.048094194 -0.006923751 -0.0033489985 0.027773758 0.0063049775 -0.01187988 -0.15169653 -0.07593779
-0.067331724 0.0430303 -0.037920974 -0.041112248 -0.03471453 -0.047491487 -0.013562857 -0.15068272
-0.0453317 0.0076420666 0.0129418215 0.033814475 0.04883439 -0.08654329 -0.06222663 -0.06268112
0.043019615 -0.010638092 0.029274633 0.0016966606 0.029096138 -0.102361284 -0.0057137515 -0.07176386
-0.0828306 -0.05811513 -0.09296897 -0.15423357 0.06867906 0.055174947 0.07762171 0.061360087

body.block2.conv.bias f4 [32]
00000000: 47ab eabc 8464 863c 4fd5 b73c e1be 0bbd
00000010: 5aa8 c1bc 9d0e 2cbc fa29 fcbc 73d5 4ebd
00000020: 846e 12bc a0fe b4bc 18be 3d3d 158c 0ebd
00000030: 42d2 efbc 313a 3dbd 3827 1ebd 0aca e9bb
00000040: 767a 923d cf5f ae3c f760 a9bc 1f35 11bd
00000050: 6fc8 2e3c 1443 bdba 57f5 39bb d2bf f7bc
00000060: fb57 17bc f446 a6bc e8cd 203d 5dfd f13c
00000070: 3cb4 ff3c b7bc 623d ca2e 05bc 17db 043d
-0.028646125 0.016405351 0.02244058 -0.034117583 -0.023639847 -0.010501531 -0.030781735 -0.05049653
-0.008937482 -0.02209407 0.046323866 -0.03480156 -0.029275063 -0.046198074 -0.03861162 -0.0071346806
0.07152264 0.02128592 -0.02067612 -0.03545105 0.010667904 -0.0014439547 -0.0028374994 -0.030242834
-0.009237285 -0.020297505 0.039258868 0.029539758 0.031213872 0.055355754 -0.008128831 0.032435503

body.block2.norm.weight f4 [32]
00000000: b19e 8c3f 4895 703f 370e 663f 1e29 723f
00000010: ddf5 7c3f 4761 793f 63ad 713f 4281 893f
00000020: 1690 853f 64db 633f 0536 753f d800 733f
00000030: 5512 833f d34c 743f a52e 823f 9751 803f
00000040: 0a94 813f c18d 823f 163e 803f c773 853f
00000050: b100 743f 0cd5 853f 8333 6f3f c4e7 7f3f
00000060: ee7b 673f 3467 833f 6d83 863f 3539 783f
00000070: e205 853f 9ba3 723f f3fd 7c3f 0c9f 803f
1.0985929 0.93977785 0.8986544 0.9459399 0.9881266 0.9741406 0.9440519 1.0742571
1.0434597 0.8900664 0.9578555 0.9492316 1.023997 0.95429724 1.0170485 1.0024899
1.0123303 1.019951 1.0018947 1.0425957 0.95313555 1.0455642 0.93437976 0.9996302
0.90423477 1.026587 1.0508858 0.9696229 1.039242 0.9478089 0.98824996 1.0048537

body.block2.norm.bias f4 [32]
00000000: 11fe dfbd b5fc 91be d6c2 f9be d739 77be
00000010: f5b1 acbe fd4e 28be eb18 f7bd 20b6 4bbe
00000020: f6db c53d 8b82 71be 3770 69bd 887c ecbe
00000030: 54c5 e8bd d9c3 603d e2e1 d5be 52f4 43be
00000040: 7fb0 a1bd c769 14be 55f7 b93c eb06 4ebe
00000050: 7724 e3bd 3e6c 54be 6637 49be b127 c5bd
00000060: 1448 a9bb 7590 55be eabd 24be ed7e 10be
00000070: cc2d 57be 71de 0cbe 92bd 8abe f4f7 c9bd
-0.10937131 -0.28513113 -0.4878146 -0.24143158 -0.3372952 -0.16436382 -0.120652996 -0.19893694
0.09661095 -0.23584954 -0.056991782 -0.4618876 -0.11365762 0.054874275 -0.41773897 -0.1913617
-0.07894992 -0.14493476 0.022700945 -0.20119826 -0.110909395 -0.20744416 -0.19650039 -0.09626711
-0.005166063 -0.20855887 -0.16088071 -0.14110918 -0.21013564 -0.1375673 -0.27097756 -0.098617464

body.block2.norm.running_mean f4 [32]
00000000: 6c78 4abf cf3e 33be ded8 443f 77e0 a7be
00000010: d894 54bf c534 fe3e 5a61 183e 1491 933e
00000020: b65f 3ebf 750f 073f bb3f 4e3f 5afe 413e
00000030: a7bb 55be 1dcc fe3d 4cd0 8c3c e1bf 2fbf
00000040: 2037 2f3f a169 22bf e545 423f b7d6 1f3f
00000050: 3a02 473f 7cfa dfbf bc94 ddbe 6057 28bf
00000060: 055b c9be 80fd 01bf 1158 27bf d787 02bf
00000070: 8165 50bf 255d 1d3f db82 39be c1a4 a73f
-0.7909 -0.17504428 0.76893413 -0.3278844 -0.8303962 0.49649635 0.14880887 0.28821623
-0.74364793 0.5275796 0.80565995 0.18944684 -0.20872365 0.12441275 0.017189167 -0.6865216
0.6844349 -0.63442427 0.758879 0.62437004 0.7773777 -1.7498317 -0.43277538 -0.65758324
-0.39327255 -0.50777435 -0.65368754 -0.50988525 -0.8140488 0.6147025 -0.18116324 1.3097154

body.block2.norm.running_var f4 [32]
00000000: 9299 fb3f f6e4 aa3f 0efb 263f 10d0 253f
00000010: ae3e 3f3f 64b6 c93f 0dd7 193f 6ff2 1a3f
00000020: 2800 443f 10f2 3c3f c49d 9e3f 6280 123f
00000030: 7421 0d40 7185 5040 bb14 fc3e 4a82 a93e
00000040: b692 d93f 6c79 c63f 364c 1a40 b122 8d3f
00000050: 8c82 d43f 733c 8c3f 07e5 543f afd6 d13f
00000060: 317d 1840 288f ad3f ce4a a03f 776b dd3f
00000070: 8310 e53f c2fd 253f 6b83 913f 97f0 8540
1.9656241 1.3351123 0.6522683 0.64770603 0.74705017 1.5758786 0.60093766 0.60526174
0.7656274 0.7380686 1.2391896 0.57227147 2.2051668 3.2581446 0.49234566 0.33107215
1.6997898 1.5505805 2.4109015 1.1026212 1.660234 1.0955948 0.8316197 1.6393641
2.382641 1.3559313 1.2522829 1.7298421 1.7895664 0.6484033 1.136823 4.185619

body.block3.conv.weight f4 [32, 32, 3, 3]
00000000: 5747 2a3d 0f68 ba3d 4860 733d 38ff 173d
00000010: c3fa e33c 8ae2 513d a16b 75bc 1a9d 4fbd
00000020: 016c c8bc f2ea 7a3d 6ee1 c5bc 11fb 0f3d
00000030: ed57 3a3d f557 3cbd efbe 963d b8b1 7fbd
00000040: 53ce 1abd 22b2 9ebd 43d3 7cbd b1da 7abc
00000050: e841 a03d f080 9fbd 363d 29bd 4b5d 0cbd
00000060: c395 6c3d fbb4 28bd 613d c3bc 54ce 823b
00000070: 0519 0bbe e98c 4cbc a223 c03d f4a2 2abd
00000080: a869 fa3d 42df 21bd 12a4 6a3d 8cde e4bd
00000090: e7de 9ebd 9930 26bd 6c13 2c3d 74cd 36bc
000000a0: fe12 41bb 6041 193e d999 d03c 4fe5 19be
000000b0: b24a cb3d f4aa 5fbc 80b5 7cbd 447f 8fbd
000000c0: bd08 fb3c b13e 3c3d 6e4b 9ebd f631 8c3b
000000d0: 788b 103c 97f9 233e 3a9e 383d c018 8c3d
000000e0: 1d91 163e 53a1 1e3c 43fa b73d 58a9 31be
000000f0: 6579 5e3c 66e6 bdbd c97c 60bd a9f2 60bd
00000100: 2b69 e5bd 8f56 c5bd 3b20 5e3c bd1a 41bc
00000110: c1af d03b ae22 e33b 14f9 a9bb 8300 ae3b
00000120: dfdc 44bd c7d0 2bbd 316c 3a3e 7b84 f93d
00000130: ee2c 9abd d2f7 d4bd d138 12bd f1f0 eb3d
00000140: f647 8abd 3371 4dbd bee4 3b3d a63c 993d
00000150: 86bc 693d f250 863c 79e1 a73d b3f6 d53c
00000160: 25f6 163d 4cf0 ce3c 03c4 05bb db6e e13c
00000170: f619 51bd ac78 0cbd 1bb7 d1bb af7e f6bc
00000180: db9d 483d f324 a63d ac3e a23c 6a14 a03c
00000190: ead5 aabd d8fb 213d cc4a 973d 7731 1ebe
000001a0: a378 263d 5b85 683d 86c5 bebd 201b 0a3d
000001b0: fe67 48bc aed6 8dbd 2902 70bd e793 aabc
000001c0: b0d7 1b3d 2010 d13b 24bc 0c3d 67fe ef3c
000001d0: 2bcc 00bd 590e 7f3d 65f9 e2bc 40d1 dcbd
000001e0: ee65 203d 197e 31bd bcd6 2d3d 19fa 47bd
000001f0: 5fe1 05bd 45f8 17bd a10c 97bd 82d5 e9bc
00000200: 6249 59bd 7386 de3c 6b79 05bd 552e 75bc
00000210: 8664 9dbc 0e24 4c3d fd64 c8bc 32db 3cbe
00000220: 2dd2 183e f912 47bc 3b27 f73c c832 473d
00000230: c74c 14bd 440f 153d 4803 47bd c684 453d
00000240: b70d 32bd 6f13 60bd 3a85 17be 8569 f5bb
00000250: 0ba0 63bd c47b 94bd d59e d13d b7a7 893d
00000260: 930c 57bd e115 ebbd 85d2 17be b898 37be
00000270: b456 473c 8ae7 b5bd 8c6b c7bd bf51 673d
00000280: ffe2 f03d fa8a 143d 44ee 523d 41f1 d73d
00000290: bb39 113e e700 cbbc a04b 5cbd 949c 0abe
000002a0: 4850 ffbd 7f69 86bd 2251 38be 08fc 073c
000002b0: 3f5e 63bd a1ae 50bd b353 aebd a3b9 903d
000002c0: 97f5 43bd 291b 8fbc fc85 6e3a a86b ca3c
000002d0: 54ee 70bd 3174 ecbc 7175 1ebc f86c 80bd
000002e0: 4f9c 10bc c284 b8bc aed9 1c3c cd01 f03c
000002f0: d832 18bd ad72 c8bd ee1a f3bd 101d 55be
00000300: 3d77 21bd be77 0f3d 68bb 373c 9aab 1c3b
00000310: bbda c63d c9c0 e23d fedc 76bd 6cad 153d
00000320: 516a 8e3d 9ba0 25bd 136b 0c3e 89ad 543d
00000330: eae2 36bd 7d56 063d 4b16 c0bc 4fcc a5bd
00000340: 1dee 85bd c0df 5c3c 420e 803b 7a07 aa3d
00000350: cc72 543d ef29 413d 6970 01bd 8933 ac3d
00000360: f002 d93d 1c15 bc3c 14f9 38bd beba 6e3d
00000370: 1f22 4a3d 4d21 dd3c 4c9b 2a3d 6036 3dbd
00000380: 31c0 19bd 6b57 493c d4ab 333d 911a 23bd
00000390: 64b6 fb3c 3c39 793d 314e bb3d 9488 2bbc
000003a0: c0d3 073b 63a1 39bd fb1b 7a3d 313c 2abe
000003b0: 6586 8bbd e72d 843d 05ef a73d 4cf5 73bc
000003c0: 8905 98bc 85b1 5d3b cfbb b63d 28be dfbc
000003d0: b4bb 7c3d f932 7dba 42ce 6c3d 03e3 173e
000003e0: 3fb1 4b3d a2fc c4bd 92a4 b4bd 5b30 e4bd
000003f0: 4a61 11bd 55a2 70bd 196e 5dbd 7b81 81bd
0.04157194 0.09101879 0.059417993 0.03710863 0.027829533 0.051241435 -0.014979274 -0.050686933
-0.024465563 0.061259218 -0.024155345 0.035151545 0.04549401 -0.04598232 0.073606364 -0.062425345
-0.037794422 -0.0774882 -0.061724912 -0.015310929 0.078250706 -0.07788265 -0.04131814 -0.03426866
0.05776001 -0.04118822 -0.023832979 0.0039918814 -0.13583763 -0.0124847675 0.093817964 -0.04165931
0.122271836 -0.039519556 0.057285376 -0.1117526 -0.07757359 -0.04057369 0.04201071 -0.011157382
-0.0029460783 0.14966345 0.025463985 -0.1502888 0.099263564 -0.013651598 -0.06169653 -0.07006696
0.030643815 0.045958225 -0.07729231 0.0042784167 0.008822314 0.1601318 0.04507277 0.06840658
0.14703794 0.009682017 0.089832805 -0.17349756 0.013578747 -0.09272461 -0.054806504 -0.05491892
-0.112017 -0.0963565 0.013557489 -0.01178616 0.0063686077 0.0069316244 -0.005187163 0.0053101196
-0.0480622 -0.041947152 0.18205334 0.12183472 -0.07528101 -0.103988305 -0.035698716 0.11520565
-0.06752007 -0.050156783 0.045872442 0.07482271 0.057064556 0.01639602 0.08197302 0.026118612
0.036855835 0.025261067 -0.0020411022 0.02751868 -0.05105015 -0.03429477 -0.0064000017 -0.030089704
0.048978668 0.08112516 0.019805275 0.019540984 -0.08341582 0.039546818 0.07387313 -0.15448557
0.040642392 0.056767803 -0.09315018 0.033717275 -0.012231825 -0.069257125 -0.05859581 -0.020822478
0.038047493 0.006380096 0.034359112 0.029296113 -0.03144471 0.062269542 -0.027706811 -0.10782099
0.039159708 -0.043333147 0.042441115 -0.048822496 -0.032685634 -0.037102003 -0.07375456 -0.028544191
-0.0530485 0.02716372 -0.032586496 -0.01496466 -0.019212972 0.049839072 -0.024462217 -0.18442991
0.14923926 -0.0121505195 0.030170074 0.048632413 -0.036206033 0.03639151 -0.048587114 0.048222326
-0.04347011 -0.054706033 -0.14796916 -0.0074893855 -0.05557255 -0.07250169 0.10235373 0.06721442
-0.052502226 -0.114787824 -0.148264 -0.17929351 0.012166668 -0.08882053 -0.0973731 0.056474444
0.11762046 0.03626535 0.05149676 0.105440624 0.14182179 -0.024780704 -0.05378306 -0.13536292
-0.12466484 -0.065630905 -0.179997 0.008299835 -0.055509802 -0.05094779 -0.08512058 0.070666574
-0.047841635 -0.017469006 0.0009098945 0.024709538 -0.058821037 -0.028863998 -0.009671555 -0.06270784
-0.008826329 -0.022524241 0.009573383 0.029297734 -0.037157863 -0.09787498 -0.11870371 -0.20811868
-0.039420355 0.035026304 0.011214115 0.0023905993 0.09709688 0.11071927 -0.06026935 0.03654234
0.06953872 -0.04043637 0.1371272 0.05192331 -0.044649996 0.032797325 -0.02344813 -0.080956094
-0.06539557 0.0134810805 0.0039079497 0.08302207 0.05186729 0.04715913 -0.031601343 0.08408267
0.105962634 0.022959284 -0.045159414 0.05828356 0.049348947 0.026993418 0.04165201 -0.046194434
-0.037536804 0.0122889085 0.04386504 -0.039820258 0.030726619 0.0608456 0.09145773 -0.0104695745
0.0020725578 -0.045319926 0.06106184 -0.16624524 -0.06812743 0.06454068 0.08199886 -0.014890026
-0.018557327 0.0033827734 0.089225404 -0.027312353 0.061702445 -0.00096587796 0.05781389 0.14832692
0.049729582 -0.096184984 -0.08820452 -0.111420356 -0.035493173 -0.058748562 -0.054060075 -0.063235246

body.block3.conv.bias f4 [32]
00000000: 87a0 ffbc 4e95 5fbd 1b0a 00bd 2694 313d
00000010: a653 253c eed4 e4bc bfc0 eebc d065 ed3c
00000020: 138d 0a3d 5809 223d 2a44 fc38 7be6 36bd
00000030: 37e0 6ebd eebe e1b9 bbc9 0fbd 81a5 81bb
00000040: 4fe8 833c d79c 66bd 0771 91bc d3d3 b23b
00000050: 3439 4f3c b9b7 74bc 87fd 7ebd 5e7f 2d3d
00000060: f696 053c 5896 f63c d4be 8cbc 4731 94bd
00000070: 6e39 573d e4a7 6dbd 0355 3b3d 4556 15bd
-0.031204475 -0.054585747 -0.031259637 0.043354176 0.010090744 -0.027933564 -0.029144643 0.028979212
0.033825945 0.039559692 0.00012028993 -0.044653397 -0.058319297 -0.00043057598 -0.035104495 -0.003956497
0.016101984 -0.056301918 -0.017754091 0.0054573803 0.012647916 -0.014936381 -0.0622535 0.042357795
0.008153668 0.030100986 -0.017180838 -0.072359614 0.052545004 -0.05802144 0.04573537 -0.036459226

body.block3.norm.weight f4 [32]
00000000: 26e6 573f f345 473f 7a0a 3c3f 01ba 393f
00000010: f347 473f f76b 213f c556 453f 1cce 1c3f
00000020: 47aa 403f 1286 3e3f 09f9 123f c8e4 3f3f
00000030: 8f9f 563f 0be1 163f 0498 293f 4f85 483f
00000040: 7c76 393f 29c6 133f 16c5 183f a21b 453f
00000050: 05f9 263f 83ee 223f f301 273f f78b 0d3f
00000060: a37e bc3e 3ee4 393f 91ba 3e3f 60c5 1c3f
00000070: cc0c 113f 0787 283f 2efd 323f 5dfd 3b3f
0.84335554 0.7784111 0.73453486 0.72549444 0.7784416 0.63055366 0.77085525 0.61252
0.7525982 0.74423325 0.5741125 0.7495847 0.8383722 0.5893714 0.6624758 0.7832841
0.7244642 0.57724243 0.5967573 0.7699529 0.65223724 0.6364519 0.6523735 0.55291694
0.36815366 0.72613895 0.7450343 0.6123867 0.5666015 0.65831035 0.6991757 0.73433477

body.block3.norm.bias f4 [32]
00000000: 8917 eabe dc99 99bd 69b9 e2be 6e2d 6abe
00000010: 4df1 5cbe a966 c6bd 81d1 97be 533d 4cbe
00000020: 3f9d 95be 203a 65be ccaa 8abe 34b2 a1be
00000030: f810 91be 12ef 1dbe 34a9 81be 779f f5bd
00000040: c200 ffbe 1186 32be 2877 9abe f40d abbe
00000050: edbb 35be fa99 78be 3efd 87be f12d 9ebd
00000060: c967 52be 5c46 efbe f602 6ebe d1de 6bbe
00000070: 9e22 3abe 5a62 5cbe 1bc1 81be 9938 4cbe
-0.4572108 -0.075000495 -0.44282082 -0.22868893 -0.21576424 -0.096875496 -0.29652026 -0.19945268
-0.29221532 -0.22385454 -0.27083433 -0.3158127 -0.2833326 -0.1542323 -0.25324404 -0.11993306
-0.49805266 -0.17433955 -0.30169034 -0.33409083 -0.17747469 -0.24277487 -0.26560396 -0.077236064
-0.20547403 -0.46733367 -0.23243317 -0.23034216 -0.18177268 -0.21521893 -0.2534264 -0.19943465

body.block3.norm.running_mean f4 [32]
00000000: 71eb 83be 2db9 38bf bd6f f83e 33b4 bd3e
00000010: a7f8 6dbf b82a 893e ab9b 72bf f1ec 04bf
00000020: 735e eebe 05ab b6be f4a9 43bf 3097 4ebf
00000030: d725 3fbf 949d 8dbe 0633 a6be f799 50bf
00000040: 2096 dbbd 10dc e7be 88cd 4ebe 9069 e1be
00000050: 58ca 323f b51c cebd de82 e7bd 7f18 3d3f
00000060: 4911 20bf 5ee0 263e ccbf 13bf 15b1 40bf
00000070: 4f2c 2bbd e088 88bf a8d8 43bf 98ab 64bf
-0.25765565 -0.72157556 0.4852275 0.37051544 -0.9295754 0.26790404 -0.9476878 -0.51924044
-0.46556434 -0.35677353 -0.764312 -0.80699444 -0.74667114 -0.27659285 -0.32460803 -0.8148493
-0.107219934 -0.45285082 -0.20195591 -0.4402585 0.6984 -0.10064069 -0.11304258 0.73865503
-0.62526375 0.16296527 -0.57714534 -0.75270206 -0.041790303 -1.0666771 -0.76502466 -0.8932433

body.block3.norm.running_var f4 [32]
00000000: d9e2 e13e c75d 8b40 ae1e 023f 4838 1940
00000010: 2982 f440 c795 c740 ffd4 3641 49bd 4c3f
00000020: dbec 5740 7ead df3f dae1 c13f 9b0b 8740
00000030: e3be 9740 b43b b73f 64fb c33f 1747 b240
00000040: 2f84 9c3f 08be 2c40 85cd bf3f c738 d63f
00000050: 13b8 b340 c6f8 f33f 8857 2e40 2f85 a53f
00000060: c30c 293f d8ed 743f 3db0 b240 bcd4 0440
00000070: c4ff e03f 8626 5240 29a2 1e40 c876 9940
0.44118384 4.3551974 0.50828063 2.3940601 7.6408887 6.2370334 11.427001 0.79976326
3.3738315 1.7474821 1.514705 4.2201667 4.7420516 1.4315095 1.5311093 5.571178
1.2227839 2.6990986 1.4984595 1.6736077 5.61622 1.9060295 2.7240925 1.293127
0.660351 0.9567542 5.5840135 2.0754843 1.7578053 3.2836013 2.4786475 4.7957497

tail.0.weight f4 [3, 32, 3, 3]
00000000: 507b 413d 77f7 003d 0dcc adb9 7738 a7bd
00000010: edc2 e03c 953b aebc 47f4 713c e450 deba
00000020: a68f 3ebc fcaa ee3b 7e14 3bbb 0761 86bc
00000030: 042a 8abc d00d 82bb 515d de3c 3ffb 483d
00000040: 1e1e cb3c b120 75bc 1d13 b93b 3530 20bd
00000050: 4ebd 223d cba8 9fbc 7aaa 543d be39 773c
00000060: 895b bcba 6abd 863c 6ddf 2dbd 39a2 f3bc
00000070: 87c3 00bd 2dfb c23c 63b5 283b 43b7 6ebd
00000080: 9575 bbba 9ae1 6cbc 9612 c9ba e2d5 6ebc
00000090: c4e3 29bd 2faf 3d3d 65b2 b93c 19c8 c0bb
000000a0: 4d4b 263d 7262 aebc d7f8 bebd b589 55bc
000000b0: 25ed 9abc 362a 703c 936e f1bc 80cb b53b
000000c0: 2a45 c9bc dc91 2c3c a8ae 163c 3da4 dd3b
000000d0: 0eb3 a7bc 66c2 adbb 9aa3 803c 965c 4bbd
000000e0: dd4c 53bc 0052 d73d 3291 293c 7ab5 c2bb
000000f0: be60 d6bc 020e 34bd d650 03bc 860b 48bc
00000100: 2054 0cbd 41d0 d53c 1f29 0f3b c7d6 263d
00000110: 9f24 afbc f27e 56bc 554e 3a3d 9337 593c
00000120: b0d4 d5b9 8bad 4dbc 85cc c5bc d107 c4bc
00000130: 8108 71bc 154a a1bc 36ca 303d 5503 073d
00000140: 235c 0b3d 2a52 6fbd abf5 eb3a 4c60 723d
00000150: 2dc4 123d 8190 21bd c405 01bc 7b9d 6a3b
00000160: 8bc6 8fba d4ac 0dbc a2e4 3939 7071 3d3d
00000170: 7729 53bb b9cb 42bc 033b 55bd 3e31 073a
00000180: d1f7 5d3c 6b2f ca3b e427 a4bb 967b 31bc
00000190: e5da 68bd 7e6a ba3d 7ffd 87bd 8e05 993c
000001a0: da26 473d 5b02 893c 0560 7abb 9c4e 8c3c
000001b0: f93a 52ba 8e3e 7fba 34ec a93c 05ad 393b
000001c0: 361d ebbc 42df 59bd 3b50 93bb 05e4 423d
000001d0: ef2a a63b 6364 913b 397f 383c e3f3 823d
000001e0: 1454 43bd 9a2b beba 7a4c 113d a476 b83c
000001f0: d512 c63c c157 063d 6b43 20bd befd 073d
00000200: 9e99 1e3d 4a62 e7bc 8359 4d3d a679 81bd
00000210: b5b3 d8bb 60ae b03c 1548 803c d9fb 683c
00000220: bce6 5abc 04ea 033d c96a 1dbd dc0e 313d
00000230: 0819 3f3d 51cb 5cbc 8130 79bc 52e0 2a39
00000240: d94d 4d3c a5c1 1abc 0bef e7bd 5119 8abc
00000250: 456e a83c fbeb 233c 555f e43a 0a74 263c
00000260: c800 1cbb b790 983d 0492 09b9 d33f debc
00000270: ef1a 5c3d 74e8 f93c 4013 1fbd eaa5 0dbc
00000280: 4b5c a33c d9c5 62bc 1084 55b9 ffb6 f13c
00000290: e6a6 d73d 2ab0 8abb e705 f63b 1d33 cd3c
000002a0: d038 b13c f3e5 ae3b 7338 63bc 35d5 083d
000002b0: 1c1e d83b 689f 8bba 3d4c cabc e332 d8bd
000002c0: 95c3 a73d 77d8 473c 53c1 a13b c1d0 06ba
000002d0: bacd 1cbd f099 59bd b7dc 22bd 2072 c3bc
000002e0: 62b7 bbba e251 48bd 7dec 823b 9a6b e23b
000002f0: bde8 17bd e0cf f03b 4303 003d 92ab fb3c
00000300: e263 013c 9f19 10bc ef14 c6bc 1eb0 3abd
00000310: 3070 95bc 152a d33c 1220 17bd 6016 bb3d
00000320: fee2 113c a4f1 a63b 3a26 1abd 0aa5 99bc
00000330: dae7 243b 6503 22bd 4d61 e23c a413 193d
00000340: 2f63 2a3b 1377 7a3c 0479 5e3c 712d a6bd
00000350: 23c6 e33c 1140 8f3c fc07 76bd 93ac ab3c
00000360: 7689 84bd 2caf b3bc 8eb2 193d 9a29 1a3d
00000370: cba2 d2bc e29e e63c f9dd 823d af42 12bd
00000380: 4de0 89bc 6359 4c3c 5f97 2bbd 9505 75bc
00000390: 280f 5cbd 6229 633d e788 3f3c e986 babb
000003a0: 8544 9f3d 6f03 38bd 6aa6 883c 84e9 743c
000003b0: 6d60 39bc 9817 babc da9c e2bb 6de0 0c3d
000003c0: 570b b4bc 273f 73bc 3987 f8bc 9e38 d7bd
000003d0: 8336 03bd b59a 2cbd fa84 04bc cc37 383c
000003e0: 9eb9 25bc 04ec b93a e833 94bc 2c64 cbbc
000003f0: d57a 343c 7af5 15bc 0f79 48bd 76bf 183d
0.04723674 0.031486 -0.0003314916 -0.08165067 0.027436698 -0.021268645 0.014767713 -0.0016961363
-0.011630928 0.0072835665 -0.002854615 -0.016403688 -0.016865738 -0.0039689317 0.027144106 0.049067732
0.024794634 -0.0149614075 0.0056480304 -0.039108474 0.039731316 -0.019489666 0.05192039 0.01508945
-0.0014370541 0.016447742 -0.042449404 -0.02974044 -0.03143647 0.02380141 0.002574288 -0.05828024
-0.001430201 -0.0144580845 -0.0015340622 -0.014577361 -0.04147698 0.046309646 0.022668073 -0.0058832285
0.040599156 -0.021287177 -0.09324806 -0.01303332 -0.018911907 0.014658501 -0.029471671 0.0055479407
-0.024569113 0.010532822 0.009196915 0.0067639635 -0.020471122 -0.005302715 0.015703011 -0.049648844
-0.012896744 0.10513687 0.010349559 -0.005942044 -0.026169177 -0.04395867 -0.008014878 -0.012209779
-0.034259915 0.02610028 0.0021844578 0.04073217 -0.021379767 -0.01309179 0.04548486 0.013257879
-0.0004078499 -0.012553583 -0.024145374 -0.023929508 -0.0147115 -0.019688645 0.043161593 0.032962162
0.034023415 -0.058427967 0.0018002292 0.059173867 0.03583162 -0.03944445 -0.00787491 0.0035799432
-0.0010969205 -0.0086471625 0.00017728147 0.04625076 -0.003222076 -0.011889392 -0.05205823 0.0005157179
0.013547854 0.0061702034 -0.005009638 -0.010832688 -0.05684938 0.09102343 -0.066401474 0.018679406
0.048621036 0.016724756 -0.0038204205 0.017127328 -0.0008019652 -0.00097367994 0.020742513 0.0028331887
-0.028700452 -0.05319143 -0.004495648 0.047580738 0.005071036 0.004437016 0.011260801 0.06394174
-0.047687605 -0.0014508844 0.035473324 0.02251751 0.024178902 0.032798532 -0.039126795 0.03320097
0.03872072 -0.02824511 0.050134193 -0.06322031 -0.0066132196 0.021567523 0.015659371 0.014220201
-0.013360675 0.032205597 -0.038431916 0.04322706 0.04665473 -0.013476209 -0.015209318 0.00016296029
0.012530767 -0.0094455825 -0.11324891 -0.016857775 0.020560393 0.010004993 0.0017423431 0.010159502
-0.0023804177 0.07449477 -0.00013119733 -0.027130043 0.053736623 0.03050635 -0.038836718 -0.008645514
0.01994147 -0.013841116 -0.0002036246 0.029506205 0.1052988 -0.004232426 0.007508028 0.025048787
0.021633536 0.0053374707 -0.013868439 0.033406455 0.006595386 -0.0010652365 -0.024694556 -0.10556581
0.08191601 0.012197605 0.004936376 -0.0005142801 -0.038282134 -0.053125322 -0.03976127 -0.02385813
-0.001432162 -0.048906215 0.0039954768 0.0069097998 -0.03708719 0.0073489994 0.03125311 0.03072146
0.007897349 -0.008795171 -0.024179904 -0.045578115 -0.018241972 0.025776902 -0.03689582 0.09135127
0.008904217 0.005094724 -0.037634112 -0.018755455 0.0025162608 -0.03955402 0.027634287 0.037372246
0.002599906 0.015287179 0.013578657 -0.08114136 0.02780444 0.017486604 -0.06006621 0.020956313
-0.06471531 -0.021934114 0.0375238 0.03763733 -0.025712391 0.028151933 0.06389994 -0.035708126
-0.016830588 0.012472483 -0.041892406 -0.014954944 -0.05372539 0.055459388 0.011690355 -0.005692352
0.07776741 -0.04492515 0.016680915 0.014948253 -0.011314494 -0.022716329 -0.006915671 0.034393717
-0.021978064 -0.0148466 -0.030337917 -0.10508846 -0.03203441 -0.042139728 -0.008088345 0.011243772
-0.010115055 0.0014184718 -0.018091157 -0.02482804 0.011015614 -0.009152764 -0.048943575 0.037291966

tail.0.bias f4 [3]
00000000: 13cc 6a3c 82bc a43c 93d1 ab3c
0.014330882 0.020109419 0.020973956
