code/Output/wild_bush/pdl_e8000_1px_lr0.001a10.0_up-conv5_1_W[1.0, 0.5, 0.1, 0.075, 0.075](6)/2/netG.pth (torch, 130373 bytes, 26 tensors)

head.conv.weight f4 [32, 3, 3, 3]
000000 44 56 fd 3c 1c c3 52 3d 2b f0 9e bc f2 a7 e4 3b
       0.030924924 0.051455602 -0.01940163 0.0069780285
000010 f7 04 6a be 34 52 2b bd 6f 87 f1 3b 08 37 ae bd
       -0.22853456 -0.041826442 0.0073708813 -0.0850659
000020 3a 71 c7 3d 66 68 69 bd 0d b5 d9 bd 5a d8 af bd
       0.09738393 -0.056984328 -0.10630236 -0.08586188
000030 d4 7f 91 bc 1a b6 39 be 85 a2 aa 3c 5f b6 cc 3d
       -0.017761149 -0.18135872 0.020829448 0.09995722
000040 85 c0 c0 3c 49 5d 9c 3e a6 8c c2 3d 84 01 c9 3d
       0.0235293 0.3053992 0.09499483 0.09814742
000050 7f 61 06 3e 96 c9 90 bc 48 ba d8 bd 8c 1a 37 bd
       0.1312313 -0.017674249 -0.10582405 -0.04470305
000060 20 c2 de 3b 10 b3 fc bd a0 5f b3 3d ce 79 d3 be
       0.006798044 -0.12338841 0.087584734 -0.41303867
000070 0e 4c df 3d d6 70 b5 3b db 35 09 3d af 1d 16 bc
       0.10903178 0.0055371327 0.033498626 -0.009162351
000080 8c 2c eb bc 6d 81 bb 3b 33 69 3b bd 85 64 fd 3b
       -0.028707765 0.005722216 -0.045754623 0.00773293
000090 ce 89 72 be 21 f8 5e 3e dd 04 2e 3e 11 47 ff 3c
       -0.23685381 0.21774341 0.16994043 0.031161817
0000a0 1f 97 a1 3d bf 9c ef bb 52 2d 71 bd 19 d6 8d bd
       0.07890152 -0.0073123868 -0.05888111 -0.069256015
0000b0 99 97 db bb 78 46 ef be a7 ec 2e bd c6 ad 54 bd
       -0.0067014215 -0.4673345 -0.042706158 -0.051923536
0000c0 cd fe 85 3d 6c fb 23 3d 93 cc 0a bc 84 17 39 3d
       0.0654274 0.040034696 -0.008471626 0.045188442
0000d0 fd 98 0e 3d 5b 1a 63 3d ce d1 e0 3d ff 4a 33 3d
       0.03481387 0.055445056 0.10977517 0.043772694
0000e0 82 7f b7 bd a3 7b 1c 3e 8b 79 e1 3d db ab 9e ba
       -0.08959867 0.15281539 0.110095106 -0.001210566
0000f0 c2 11 81 3e 66 cc e7 3d cd 85 81 3d d8 ec e2 3d
       0.2520886 0.11318283 0.063243486 0.110803306
000100 24 9f c6 3d bb 28 4a be e9 51 98 3d 5e b5 57 bd
       0.096983224 -0.197421 0.07437498 -0.0526632
000110 9e 0b 48 be fd 17 41 3d 58 a1 60 bd a2 8b 3d be
       -0.19535682 0.047142018 -0.05484137 -0.18510297
000120 15 b9 b7 3c 54 9d 80 3d 48 fe 19 be 14 77 0c bd
       0.022427121 0.06280008 -0.15038407 -0.03429325
000130 c4 60 9e bd 8a 00 9d bd d8 91 1f 3d 6d 2b d5 3c
       -0.077333 -0.076661184 0.038957447 0.026021684
000140 43 e3 5a bc a8 2b 98 bd fe 9e f6 be 5d 11 6e be
       -0.0133598475 -0.07430202 -0.48168176 -0.23248811
000150 b4 e9 fb 3c 55 56 ca 3c 49 87 6f 3c 75 13 bb 3b
       0.030751087 0.02469937 0.014619657 0.0057091066
000160 86 4b dc bc a8 9f 77 bd dd a6 6d 3d 49 5c e8 bd
       -0.026891481 -0.060454994 0.05802046 -0.11345727
000170 a8 54 93 bd b8 8c 64 ba 87 d9 d8 3c 20 94 90 3c
       -0.07193881 -0.00087184785 0.026470913 0.017648757
000180 43 8b 80 bd 44 ab 7b bd 57 55 11 bd db d7 15 be
       -0.06276562 -0.06144263 -0.035481777 -0.14633124
000190 dd 0d ba be e4 d4 98 be 1b 91 d1 3d b6 a0 8b 3d
       -0.36338702 -0.29849923 0.10232755 0.068177626
0001a0 fd a9 11 3d c2 43 e9 3c 91 95 59 3c a4 73 54 3d
       0.035562504 0.028474692 0.013280288 0.051868096
0001b0 1b 8d d5 3c 46 c8 1d 3d 96 f5 31 bc a1 1a 14 bd
       0.02606826 0.038521074 -0.010861775 -0.036158208
0001c0 ae 83 9b 3c fd 0a 02 3d 98 06 1f 3c 06 ab 81 bc
       0.018983688 0.03174876 0.009706162 -0.01582862
0001d0 28 ee c4 be 66 be a1 bc 0e 8d 8c 3d 54 d7 4c 3d
       -0.3846295 -0.01974411 0.068628415 0.05001004
0001e0 0d bf 4f bd c8 a3 7f 3b 91 f8 8e 3d 81 a4 ea bd
       -0.05071931 0.0039007533 0.06981004 -0.11457158
0001f0 b5 8b 09 be d3 9f ec be 1f 41 66 3d 16 27 57 3d
       -0.134322 -0.46215686 0.056214448 0.05252751
000200 7a b4 aa 3d 3b 82 0a 3d 04 0f 23 3c 27 99 e0 3d
       0.083352044 0.033815604 0.0099523105 0.109667115
000210 4a 05 aa b9 80 20 28 bd 01 36 44 be 8b 48 1a 3f
       -0.00032428867 -0.04104662 -0.19161226 0.6026694
000220 ce bb a7 bd b2 07 6b be 9f e3 88 bd 86 8e db bc
       -0.08190118 -0.22952154 -0.0668404 -0.026801359
000230 86 64 aa ba 90 be 05 3d 11 2f 2c 3d 6a 5c b1 3c
       -0.0012999929 0.032652438 0.042037074 0.021650512
000240 4c 96 95 3e 6c 62 e6 3d 18 87 1e bd 53 7d 01 be
       0.2921623 0.11249241 -0.038703054 -0.12645464
000250 aa 87 24 bd 4c f5 81 bd b4 a7 85 bd 14 02 ae bc
       -0.04016844 -0.06345615 -0.065261275 -0.021241225
000260 40 18 b3 bc 1d d3 cb 3e 1f 4c c9 bc 0c 1c 47 be
       -0.02186215 0.39809504 -0.02457243 -0.19444293
000270 39 ab 3a bd 20 2d 57 bb 76 70 8e 3d 05 ff 5c 3c
       -0.045573447 -0.0032833293 0.06955044 0.013488536
000280 7e 39 12 bc ff a5 4b 3d 13 af e4 3c 6f 30 a6 3d
       -0.00892484 0.049718853 0.027915513 0.08114707
000290 07 33 ae 3c 08 6d bf bd 85 34 a3 bd ba cb 2b 3c
       0.021264566 -0.09346968 -0.07969002 0.010485584
0002a0 65 1f 84 be a0 77 7d bd e9 b0 19 be 4d a8 af bd
       -0.25805202 -0.06188166 -0.15008892 -0.08577023
0002b0 5e 52 27 3a f7 3c 65 bd 35 b9 ff bd 27 e1 ed bd
       0.0006382818 -0.055966344 -0.12486497 -0.1161521
0002c0 4f a9 26 bd 6e 5e 0c be 68 6f b1 bd a1 10 23 be
       -0.04068881 -0.13707897 -0.08663827 -0.15924312
0002d0 fd a3 17 3e ce d3 3d 3e 39 e2 9b 3d 7c 25 9f 3c
       0.1480865 0.18537828 0.07611508 0.019427054
0002e0 6c af 19 bd 6d 00 ad 3c 16 83 24 be a4 49 a0 bd
       -0.03752081 0.021118367 -0.1606563 -0.07826546
0002f0 c3 b5 1d be 08 f5 0d be 94 c2 cb 3c 07 58 1f be
       -0.15401368 -0.13863003 0.024873056 -0.15560924
000300 53 d0 1e 3d 3a 9b 72 bd a8 9f 9c 3c 35 87 39 be
       0.038772892 -0.059230067 0.019119099 -0.18117984
000310 0b 0a b4 3d df 82 10 be e8 0b af bd 23 d9 08 3e
       0.08790978 -0.14112423 -0.08547193 0.13364081
000320 a8 a8 16 be f4 0c cb 3d ad 82 80 3d 88 02 0d 3e
       -0.14712775 0.0991458 0.062749244 0.13770497
000330 30 33 17 be cd 1d 1b 3e a2 82 53 bd bd f7 43 bd
       -0.1476562 0.15148087 -0.051638253 -0.047843684
000340 54 ec 05 3e 20 be 8f 3c 24 ba 23 3d 38 ec 87 3c
       0.13078433 0.017546713 0.03997244 0.01659213
000350 43 66 d9 3c d6 40 4d be 4e cd d4 3d f1 81 89 bd
       0.02653802 -0.20044264 0.10390721 -0.067142375
000360 4c 6d 05 3e 3d bb 61 bd 7a d8 86 bd fa b5 95 3c
       0.13029975 -0.055110205 -0.065842584 0.01827525
000370 20 3e 07 be 89 3f 87 bd c6 69 b9 bd d2 4e a4 3d
       -0.13207293 -0.06603915 -0.09053378 0.08022846
000380 8f 7b fc 3d a2 d2 14 3e 04 b8 ca bd 5a 50 02 be
       0.123282544 0.14533475 -0.098983794 -0.12725964
000390 93 d9 8a 3d 95 4d 49 be 52 90 da bd dc 24 1c bd
       0.0677978 -0.19658501 -0.10672058 -0.03812109
0003a0 1e 94 71 3c 0e 23 ea 3d e2 ca c3 3d 4a d0 8a 3d
       0.014744787 0.114324674 0.09560181 0.06778009
0003b0 62 db 15 3e d6 d6 41 bd 9f e8 77 bd 0d 3c 85 3c
       0.14634469 -0.047324024 -0.06052458 0.016263986
0003c0 11 c5 3c be 23 6c 22 bd 14 75 c3 3d 6c a8 83 bc
       -0.1843455 -0.03965391 0.09543815 -0.01607152
0003d0 b7 5d 60 bd 51 a9 a2 3d 0a 0c 93 bd f7 cc a2 bc
       -0.054776873 0.07942451 -0.07180031 -0.019873125
0003e0 9a e8 bd 3d bb c2 9c bd 02 b8 9e 3d 56 b0 8e 3e
       0.09272881 -0.076543294 0.077499405 0.2786891
0003f0 f1 c2 5b bd bd 5d a6 bd 29 29 0b 3e 60 a4 23 be
       -0.053652707 -0.08123348 0.1358992 -0.15980673

head.conv.bias f4 [32]
000000 ec e7 2e 3e 32 37 92 3d f9 e9 4f 3e 2d 40 ce bd
       0.17080659 0.07139434 0.20304097 -0.10070834
000010 ec 74 d5 bd 73 56 44 be 6d cf 96 ba ea 46 dc 3d
       -0.10422692 -0.19173603 -0.001150591 0.10755713
000020 c6 ea d1 bd df ff 40 bc 4b 24 78 3e 55 cc 56 3d
       -0.102498576 -0.011779754 0.24232595 0.05244096
000030 88 4f b1 3d ef 8f ab 3d 09 b6 7a 3d 82 24 23 be
       0.086577475 0.083770625 0.06120876 -0.15931895
000040 70 85 85 3d 1d a5 58 bc 02 4b a4 3d ca 17 b4 3c
       0.06519592 -0.01322296 0.08022119 0.021984
000050 7a 0d 4c 3e fc 3b 84 3d 61 da 6d 3b 69 41 24 3d
       0.19927016 0.064567536 0.0036293494 0.040101442
000060 11 17 ab bb 24 01 68 3d fb 96 97 bd 64 38 ce 3d
       -0.0052212556 0.056641713 -0.07401844 0.100693494
000070 03 75 2e bd 18 6d 44 3e e2 73 ca 3c 6b 5a 0c bd
       -0.04259206 0.19182241 0.02471346 -0.034265917

head.norm.weight f4 [32]
000000 25 0a 7f 3f 4c 85 8b 3f a1 65 4a 3f 6e c4 76 3f
       0.99624854 1.0900054 0.79061323 0.9639348
000010 53 8d 99 3f 2e d8 77 3f ae c8 81 3f 40 29 7c 3f
       1.1996254 0.9681424 1.0139368 0.9850044
000020 ad e6 89 3f ef 2f 60 3f 28 26 68 3f 39 2b 71 3f
       1.0773522 0.8757314 0.9068322 0.9420658
000030 f8 8c 5f 3f 7c a4 5c 3f bb 84 8d 3f c3 4f 23 3f
       0.87324476 0.86188483 1.1056131 0.6379358
000040 67 32 30 3f 78 49 7a 3f c3 a7 2d 3f 54 94 81 3f
       0.6882691 0.97768354 0.6783411 1.0123391
000050 d2 26 8b 3f 31 c4 7b 3f a0 5f 83 3f 5d 36 71 3f
       1.0871222 0.9834624 1.0263557 0.94223577
000060 d1 f8 81 3f 23 b0 92 3f 45 29 5e 3f bb bf 9f 3f
       1.0154058 1.1460003 0.8678172 1.2480386
000070 d8 32 89 3f 00 9e 4a 3f 8b 0b 90 3f a7 a4 46 3f
       1.0718641 0.7914734 1.1253523 0.7759499

head.norm.bias f4 [32]
000000 8f 71 5e be 0f 43 d0 bd 59 26 24 be b2 48 e0 bd
       -0.21723007 -0.101690404 -0.16030253 -0.109513655
000010 52 6c a4 bd fc 81 81 bc 0e 01 47 be c1 74 3c 3d
       -0.08028473 -0.015809052 -0.19433996 0.046009783
000020 ee 3e 17 be 47 fd 7d be 97 fb eb bd 54 a0 6e bd
       -0.147701 -0.24803649 -0.11522596 -0.05825837
000030 c9 a5 df bd 69 fe ea be 0c b3 75 3d 64 15 df be
       -0.10920293 -0.45897225 0.059985206 -0.43571007
000040 e4 14 b2 be 98 d0 3f be 12 67 69 be 6a 8c 91 be
       -0.34781563 -0.18731916 -0.22793224 -0.2842744
000050 16 1d 0d bd 94 88 57 bd eb 6c 74 be 86 c5 93 be
       -0.034451567 -0.052620485 -0.23869674 -0.28861636
000060 ae 17 a3 be 26 97 4f be 77 f5 46 bc cb 0a a5 be
       -0.31854004 -0.20272502 -0.012143484 -0.32234797
000070 25 f1 ed be 50 61 0a bf 96 c4 61 bd 18 cb 1a 3d
       -0.4647304 -0.5405474 -0.05511912 0.03779134

head.norm.running_mean f4 [32]
000000 b8 4c 20 3e a8 14 05 3e 16 61 22 3e 10 80 bf bd
       0.15654266 0.12996161 0.15857348 -0.09350598
000010 11 c5 6c be ed fa 5a be 7b e5 23 be 3d bb 08 3e
       -0.2312205 -0.21384783 -0.16005509 0.13352676
000020 c3 b0 1f be 5d 6c a2 bd 7b fd 59 3e 9e 61 84 3d
       -0.15594773 -0.07930825 0.21288101 0.064639315
000030 71 73 80 3d 61 2b f5 3c bf 5b 73 3d 57 c7 88 be
       0.06272019 0.029927911 0.059413668 -0.26714584
000040 b5 60 df bd 17 c6 76 bd 62 1d a0 bd 6e ef e1 bd
       -0.10907117 -0.060247507 -0.07818104 -0.11031996
000050 02 64 37 3e 18 9f a5 3d be bf 4d 3d 56 e9 88 3e
       0.17909244 0.08086985 0.050231688 0.2674052
000060 6a 73 e8 bd 21 be 38 3d a8 45 dd bc dd e8 e3 3d
       -0.113501385 0.045103196 -0.027010754 0.111283995
000070 bc 91 4d 3e 3d 8f fc 3d 9d b7 81 3d 59 ef 45 bd
       0.20075125 0.12332008 0.063338496 -0.048323963

head.norm.running_var f4 [32]
000000 4a 19 27 3c ad 63 ae 3d f6 04 d8 3c ba 75 ee 3e
       0.0101989005 0.085151054 0.026369553 0.46574193
000010 d3 0d 00 3e 62 c9 b9 3d 00 4d 84 3e 8c 64 ca 3c
       0.12505274 0.09071614 0.25839996 0.024706148
000020 c0 d8 3e 3c c2 57 16 3d 56 41 cf 3c ed b7 48 3e
       0.011648357 0.036704786 0.02529971 0.19601412
000030 f2 52 aa 3c 2b 55 ea 3e a9 d2 0c 3d 28 ef 0b 3d
       0.020791505 0.45768103 0.03438059 0.034163624
000040 80 de 31 3e f0 e3 1c 3c 7c 5f f3 3d 69 b4 8e 3c
       0.17370033 0.009575829 0.118834466 0.01742001
000050 3e 94 89 3d 73 67 80 3d 6c fe 1c 3c f0 ca 2f 3d
       0.06717728 0.062697314 0.009582143 0.042918146
000060 47 53 12 3d 71 98 3b 3d b3 8f 5a 3d 45 2c e6 3b
       0.03572395 0.045799676 0.0533597 0.0070243203
000070 7e 27 5b 3d 09 fe 0a 3d 0d 2c ae 3c 92 31 18 3f
       0.05350446 0.033933673 0.02126124 0.5945064

body.block1.conv.weight f4 [32, 32, 3, 3]
000000 bb cf 15 3e 9c fb 07 3e eb 8e 8c 3d c0 3a cd bd
       0.14630024 0.13279575 0.06863197 -0.10020971
000010 94 1a 80 be dc d7 ca bd 14 af 1f bc 47 b0 10 bc
       -0.25020278 -0.09904453 -0.009746332 -0.00883109
000020 93 a9 27 be 53 b1 4b 3d c9 bb 79 bd de 2a 88 3c
       -0.16373281 0.049729656 -0.0609701 0.016622003
000030 6a 17 5d bb 27 c1 14 bc bc 0b 1c bd 80 77 53 be
       -0.003373588 -0.009079254 -0.03809713 -0.20651054
000040 1a 55 09 be c6 99 10 be 1c 4c d1 bd 04 00 33 be
       -0.1341137 -0.1412116 -0.10219595 -0.17480475
000050 56 09 b9 bd 76 3a 02 be 0a 31 c9 3c 7e 09 e2 bd
       -0.09034984 -0.12717614 0.024559516 -0.11036967
000060 80 a1 6a bd 57 14 08 be 0e fb 03 be 13 87 0c bd
       -0.057282925 -0.13289009 -0.12888739 -0.034308504
000070 2a 8d 91 3c a5 5f bb 3d b5 1d 31 3c a2 ef 85 3b
       0.017767508 0.09149102 0.010810305 0.0040874043
000080 9b e7 b8 3d 31 20 e8 bd 91 ba 19 be 54 78 af bd
       0.0902855 -0.11334265 -0.15012576 -0.08567873
000090 29 47 22 3d 07 ae 1e 3d ad b3 11 bd da 48 6f 3c
       0.039618645 0.038740184 -0.035571743 0.0146047715
0000a0 18 af b3 bd 5a 7a 91 bd 42 7a da 3d 06 23 02 3e
       -0.08773631 -0.07103415 0.1066785 0.12708673
0000b0 35 53 26 3e 0c f3 5e 3e e3 11 b4 bd 0e a8 d1 bd
       0.16242678 0.21772403 -0.08792474 -0.10237132
0000c0 7d 80 65 3d 7f 9f 73 3d 45 6e 35 bd 2d 71 bb bd
       0.05603074 0.05947828 -0.044294614 -0.09152446
0000d0 0a 94 83 bd 1d 60 e8 bd 11 0b b0 3c 32 c3 20 3c
       -0.064247206 -0.11346457 0.021489652 0.009812163
0000e0 d8 5d 2d 3c 02 92 54 3d 15 54 84 3c 9b 9f 86 bd
       0.010581456 0.051897056 0.016153375 -0.06573411
0000f0 75 ca 1e 3e c4 02 18 3e c7 fc cd 3c d8 b7 06 be
       0.15506919 0.14844805 0.025144948 -0.13156068
000100 87 21 c5 3d 56 37 00 3d f4 27 5a 3d 4c 72 c0 bd
       0.096255355 0.031302772 0.05326076 -0.093968004
000110 e6 28 95 bd e2 19 1b be e3 df fb 3d d7 95 28 bb
       -0.072831914 -0.15146592 0.122985624 -0.0025724077
000120 f3 35 a1 bd 08 25 f7 bc a0 d5 e4 ba ce 8a 54 bd
       -0.07871618 -0.030169025 -0.0017458685 -0.051890187
000130 b7 4c ea bd 70 54 70 3c a6 a8 0a be d4 91 b2 bd
       -0.114404134 0.014668569 -0.13540897 -0.08719221
000140 9c 6f bb be 66 50 35 be 79 23 e8 b8 1b c2 c5 3d
       -0.3660859 -0.17706451 -0.000110692294 0.09656163
000150 e4 ca e4 bd d0 61 04 3d db 0e 72 bc c9 1e 8c be
       -0.11171511 0.032319844 -0.01477405 -0.27367237
000160 85 80 3d bd fd da cc bd 06 3b f0 bc a5 66 c7 3d
       -0.046265144 -0.10002706 -0.02932502 0.09736375
000170 b2 1c 2a 3e 08 54 20 3a 08 23 1a bd d3 63 4d bc
       0.16612509 0.0006116037 -0.037631065 -0.012536007
000180 f7 ae f7 bd 27 e9 03 be 34 60 df bd e5 ed b2 bd
       -0.12093919 -0.1288191 -0.10907021 -0.08736781
000190 5b 3c 24 3c aa d1 c8 bc 4f 48 bb bd 25 56 60 bd
       0.0100241555 -0.024514038 -0.09144651 -0.054769654
0001a0 b2 62 8a bd 97 30 cc 3d bd ff 48 3d 4a ae 64 3d
       -0.06757106 0.09970205 0.049072016 0.055830278
0001b0 4b 0d c1 3d 34 92 ae 3b ff 25 07 be ff b6 bb bc
       0.094263636 0.0053274874 -0.13198088 -0.022914408
0001c0 5b f6 cc bb 3a b8 0d be 9d 37 8c bd 7e 91 12 be
       -0.006254954 -0.13839808 -0.06846545 -0.14313313
0001d0 42 a2 5a be 69 01 85 3d 6f 86 69 3d 6e c0 06 3e
       -0.21350959 0.064944096 0.05701297 0.13159344
0001e0 7d b5 04 3e 68 37 c8 3c c2 60 87 3d be 41 a2 bd
       0.12959857 0.024440482 0.06610252 -0.079226956
0001f0 6a ef f1 3c 28 e6 45 3d 7d 48 36 bd 8e c4 47 3d
       0.029533107 0.048315197 -0.044502724 0.048771434
000200 d6 a7 a7 3d 79 f9 a3 bd 09 43 05 be 63 aa 94 3d
       0.08186309 -0.080065675 -0.13013853 0.07259061
000210 75 b7 9a bd 94 5e 54 bd 68 6a 39 be 9b 59 2e 3d
       -0.07554523 -0.05184801 -0.18106997 0.042565923
000220 e1 f1 21 bd 26 05 2a 3e 68 29 f9 3d 8d fe 2d 3d
       -0.039537314 0.16603526 0.12166101 0.042479087
000230 14 15 20 3d 08 40 e4 bc b5 e4 ff bd d8 60 d5 3d
       0.0390826 -0.027862564 -0.12494794 0.10418862
000240 1f f9 f1 bb 49 7b 23 bc c1 31 0c 3e 02 70 c4 3d
       -0.007384434 -0.009978124 0.13690855 0.09591676
000250 90 8f 86 3d f6 09 a4 3c 97 3d b4 bd 55 b4 96 3d
       0.06570351 0.020024281 -0.0880081 0.07358614
000260 4c 20 bb 3d a6 ed 08 3d 96 72 aa 3d cc 4a 38 be
       0.091370195 0.033429764 0.08322637 -0.17997283
000270 c7 89 d7 3d 59 92 d3 bd 93 a5 8a bd 0b 4a ee bd
       0.10524326 -0.10330648 -0.06769862 -0.11635216
000280 94 99 87 3b a3 33 39 be db 43 d6 3c b8 b3 34 3e
       0.004138181 -0.18086104 0.026155403 0.17646682
000290 6e 40 f9 3c 0e 04 cd bd 37 d4 87 3c 04 2e 7f bd
       0.03042623 -0.10010539 0.016580684 -0.062299743
0002a0 c0 34 03 bc ad 00 2a 3d 77 43 4f bd df ab d8 3b
       -0.008008182 0.04150455 -0.05060145 0.0066122855
0002b0 8f cb a1 bd b3 87 c2 bc d5 f0 47 bd a6 07 b8 bd
       -0.07900154 -0.023746347 -0.04881366 -0.08985834
0002c0 cb dc 03 be 0e da 46 3e 14 96 b4 bd 7e 7c 77 3d
       -0.12877195 0.19419119 -0.08817688 0.06042146
0002d0 5b ad 38 3d cf 1b 22 bd 53 19 ec bc d5 6a a7 bd
       0.0450872 -0.0395773 -0.02882067 -0.081746735
0002e0 eb 16 fc bc 82 a0 95 bc 75 08 40 3e ef 54 82 bb
       -0.030772647 -0.018265013 0.18753226 -0.00397741
0002f0 68 4f 03 be 6d cc 9e bc ae 27 0f 3d 67 76 90 3d
       -0.1282326 -0.019384587 0.03494995 0.070538335
000300 49 68 c9 bd ba dc 03 be 93 5a 09 bd fa d9 ac 3d
       -0.09834344 -0.12877169 -0.033533644 0.08440013
000310 3e 24 40 3c c0 b8 93 bd 1e f1 57 3d 18 49 f7 3d
       0.011727391 -0.07212973 0.05272018 0.120744884
000320 8b 5c f9 3d e4 de 20 3e ca e5 4f 3d 58 14 87 3e
       0.12175854 0.15710026 0.050756253 0.2638271
000330 9f de 5b bd 97 ff f9 3d 4a ab 97 bd 42 cd af bd
       -0.053679105 0.12206953 -0.07405718 -0.08584072
000340 86 6c af bd 84 fc a4 bd 6e 08 41 be 9c 52 3f 3d
       -0.08565621 -0.08055976 -0.18850872 0.04670964
000350 08 49 7e bd 8f 0d 36 be bf 10 3c bd de 2f 40 3e
       -0.062081367 -0.1777861 -0.045914408 0.1876826
000360 a4 69 3f 3e 5f 2a f7 3d f4 d7 e7 3d 15 19 0c 3e
       0.18692642 0.120686285 0.11320487 0.13681443
000370 af b4 27 3d 72 b5 08 3d df 52 a1 bd 6b fc 17 be
       0.040943798 0.033376165 -0.078771345 -0.14842384
000380 e5 72 da bd 1e de aa bb 02 f0 e0 ba 58 57 a1 bd
       -0.10666446 -0.0052144667 -0.0017161372 -0.078779876
000390 ae 1b 5a be 20 fe 4c 3d ed e8 0c bc 64 09 ed bd
       -0.21299621 0.05004704 -0.008600456 -0.11574057
0003a0 9a 6c a5 bd 04 6e 71 bd 31 93 36 be 89 64 2f 3d
       -0.08077355 -0.05894281 -0.17829587 0.042820487
0003b0 3b 31 2e 3d 58 5f 2a be 62 1e 8c bd 7d ec 3b bd
       0.04252742 -0.16637933 -0.068417326 -0.04587983
0003c0 a8 bd d6 bd e2 ac c1 bd d1 11 46 3d ed c5 e8 3d
       -0.10485393 -0.09456803 0.048356835 0.11365876
0003d0 69 42 7a 3d b2 9b 89 bd 98 f4 d9 3d 84 2f 1e 3e
       0.06109849 -0.0671915 0.10642356 0.15447813
0003e0 14 9f 94 3d 04 3e 93 be 71 2c be bd d1 e8 56 be
       0.07256904 -0.28758252 -0.0928582 -0.2098725
0003f0 0c de 1d be df 25 f2 bd 4c f3 13 be a7 0e 9c bd
       -0.15416735 -0.118236296 -0.14448279 -0.07619982

body.block1.conv.bias f4 [32]
000000 f4 f3 28 3d 6e 4c 64 3c a5 3c 9e 3c 95 c1 1f bd
       0.041248277 0.013934238 0.019316027 -0.039002974
000010 39 a1 84 bd 62 ee 34 3d da 2d 14 bc e7 ab 6c 3b
       -0.06476063 0.044172652 -0.009044135 0.0036113204
000020 cd 14 13 bd cc 96 82 3d 54 79 df 3c e0 70 76 bd
       -0.03590851 0.063764185 0.027279533 -0.06016624
000030 6f 7a 67 bc bc 52 1a bc 37 b3 5a 3d 3b 61 18 bd
       -0.014128312 -0.0094191395 0.05339357 -0.0372021
000040 a8 99 69 3d 64 3a 35 bd f0 a6 a1 3c fa 99 ef bc
       0.057031304 -0.04424514 0.019732922 -0.029248226
000050 7e 49 13 3b 46 de 5a bd 44 fb b6 bc e2 26 16 bd
       0.0022474225 -0.053434633 -0.02233661 -0.036658175
000060 66 95 3f 3c ac 33 9b bc 68 a0 70 bb 12 22 d0 bc
       0.011693334 -0.018945538 -0.0036716703 -0.025406871
000070 22 12 93 3a 0d f3 61 37 61 0e 22 bd 41 4d 24 3b
       0.0011220614 1.3467635e-05 -0.039564494 0.002507046

body.block1.norm.weight f4 [32]
000000 af a6 88 3f 1a ca 81 3f 31 e3 65 3f 8d 1a 72 3f
       1.0675868 1.0139802 0.8979979 0.94571763
000010 96 20 88 3f ed 37 97 3f c0 92 77 3f 10 2b 57 3f
       1.0634944 1.1813942 0.967083 0.84050083
000020 b0 a8 71 3f 39 c6 5d 3f ed 5b 88 3f d4 a0 77 3f
       0.9439802 0.8663059 1.0653054 0.9672978
000030 61 29 83 3f f8 41 55 3f 40 cc 64 3f d0 c7 4e 3f
       1.0247003 0.83303785 0.8937416 0.8077364
000040 76 62 74 3f 75 26 8a 3f bc 9d 5a 3f 1f fe 73 3f
       0.9546274 1.0792986 0.85396934 0.95309633
000050 c2 a1 7d 3f 0b 04 6f 3f 18 1f 77 3f 00 fe 5e 3f
       0.9907495 0.93365544 0.9653182 0.87106323
000060 5e 8d 61 3f d0 77 7f 3f 30 a0 74 3f ee 69 79 3f
       0.88106334 0.99792194 0.95556927 0.9742726
000070 cf c2 67 3f aa 7e 75 3f db 1c 58 3f 3c dc 53 3f
       0.9053163 0.958964 0.8441903 0.82757926

body.block1.norm.bias f4 [32]
000000 87 82 80 be 68 0c 99 be 0b 24 bd be ae 4b 8b be
       -0.25099584 -0.29892278 -0.3694156 -0.27206177
000010 38 21 06 be 69 7e ac be c3 51 01 bf 02 f8 bc be
       -0.1309861 -0.33690193 -0.50515383 -0.36907965
000020 39 d1 af be 55 9f a6 be e5 ca fc bd 81 ac 31 be
       -0.34339312 -0.32543436 -0.123433866 -0.17350961
000030 e5 54 c4 be e7 85 d7 be d3 24 d3 be ce 82 e9 be
       -0.3834602 -0.42094347 -0.41239032 -0.4560761
000040 84 31 11 bf e5 8d db be ff 20 17 bf 09 e0 78 be
       -0.5671618 -0.42881694 -0.59034723 -0.24304213
000050 3d 05 29 be e7 d2 9f be 07 42 c0 be 8d a0 88 be
       -0.16505904 -0.31215593 -0.37550375 -0.2668499
000060 ec db d7 be db e2 a9 be 6f 18 35 be 3b 7d 03 be
       -0.42159975 -0.3318089 -0.17685102 -0.1284074
000070 9e 71 cc be 11 6c 9b be e6 6e b6 be 33 fb ef be
       -0.39930433 -0.30355886 -0.35631484 -0.46871337

body.block1.norm.running_mean f4 [32]
000000 49 11 b7 bf 05 53 cf bf 16 35 07 3e 4f 63 96 bf
       -1.430215 -1.619721 0.13203844 -1.1749057
000010 af 5a 2b bf 89 03 e7 bf ac e1 72 bf b8 3e d3 bf
       -0.6693525 -1.8047954 -0.948756 -1.6503515
000020 05 40 32 be 6f a3 05 3f de 51 07 c0 af fd bc bf
       -0.17407234 0.52202505 -2.1143718 -1.4764918
000030 1f 44 01 be 39 b4 d4 3f a0 a6 33 c0 a6 9a 64 3f
       -0.12623642 1.66175 -2.807045 0.89298475
000040 96 d6 67 bf 3a 5f 76 bf 91 d8 55 be 88 40 d4 bf
       -0.9056181 -0.96239054 -0.20883395 -1.6582193
000050 6f 65 8f bf d3 00 46 bf 1b 8a f0 3f 0a a7 5b bf
       -1.120283 -0.7734501 1.8792146 -0.85801756
000060 05 42 e6 bf 60 04 08 bf 2a 3a 94 bf 78 59 11 c0
       -1.7988898 -0.53131676 -1.158025 -2.2710857
000070 50 cc 07 be 23 a9 91 bf d1 84 eb bd 62 c7 a3 3d
       -0.13261533 -1.1379741 -0.11499942 0.07997014

body.block1.norm.running_var f4 [32]
000000 fb fe c0 3f 46 c7 78 40 5e e7 a3 3f 89 6d da 3f
       1.5077814 3.8871627 1.2804983 1.7064677
000010 7e 00 1f 40 fe ed 24 40 99 fa a0 3f 29 fa 82 40
       2.484405 2.577026 1.2576476 4.093037
000020 eb 39 d4 3f 77 70 83 40 5f 53 9b 40 9b 48 78 40
       1.6580175 4.1074786 4.853927 3.8794315
000030 48 27 63 40 5e 17 9d 40 8a 95 da 40 49 4f 66 40
       3.5492725 4.9091024 6.8307543 3.5985892
000040 0a 41 3c 3f 79 48 1a 40 89 94 31 40 1a 6c 01 40
       0.7353674 2.4106734 2.7746909 2.022223
000050 3e 6e 92 40 8e b4 d9 3f 14 d1 87 40 c0 2f f0 3f
       4.5759573 1.7008226 4.244272 1.8764572
000060 a5 36 5f 40 8c cc 7a 3f 62 93 26 40 90 00 c4 40
       3.4877102 0.97968364 2.6027455 6.1250687
000070 8f ac a5 3f 72 f4 bd 40 0d 86 4d 40 1a 68 e6 3f
       1.2943286 5.9360895 3.2113068 1.8000519

body.block2.conv.weight f4 [32, 32, 3, 3]
000000 28 4b 84 bb 81 b1 0e 3e 92 0c 02 3e af c4 b0 3c
       -0.0040372796 0.139349 0.12700108 0.021578161
000010 cc 37 e9 bd 0f 79 fd bd 14 a0 cf bd 57 d9 f9 3d
       -0.113875955 -0.12376606 -0.10137954 0.121996574
000020 b9 3b a1 3d c8 f1 ca 3d 60 64 3e 3d 19 55 01 3d
       0.07872719 0.09909397 0.046482444 0.031575296
000030 1f d5 56 bd b5 f0 5a bd b2 4f e8 bd 67 5d 2d 3e
       -0.052449342 -0.053452212 -0.11343326 0.16930161
000040 ef 07 7b 3e db 19 c9 3d a1 a8 91 bd 65 29 91 bd
       0.24514745 0.09819385 -0.071122415 -0.070879735
000050 6b 7a 4f 3d 2b 6e cb 3c c5 1e 83 3d 54 6f c6 bc
       0.050653856 0.024832806 0.06402353 -0.024223007
000060 b9 62 09 be d0 50 e5 bc 9c 7a 38 3e b1 13 2b be
       -0.13416566 -0.027992636 0.18015522 -0.1670673
000070 01 2c d2 bb 36 d4 37 3d a8 33 2c 3e c1 9d 2e 3d
       -0.006413937 0.044880114 0.1681658 0.042630915
000080 8d 48 03 3d 66 db 4f 3d 7b fb f0 3d ab db 8b 3d
       0.03205161 0.050746344 0.11766716 0.06829008
000090 60 6e c4 3a 83 1b 0d be 51 80 4f bc 02 fb 50 3d
       0.0014986508 -0.13780026 -0.01266487 0.05102063
0000a0 04 4d 15 be 2b 33 17 bd 0d b1 74 3d bd 13 1a bd
       -0.1458016 -0.036914032 0.05973916 -0.03761648
0000b0 f7 0c 34 3d 3b 7d 09 3e 5a be 69 3e ba 33 4e 3e
       0.043957677 0.13426678 0.2282652 0.2013692
0000c0 08 e8 37 be 34 7d 8e be 89 54 f5 bd 9a 3f 70 3d
       -0.17959607 -0.27829897 -0.119790144 0.058654405
0000d0 29 48 fc bd e1 37 ce bb c8 d7 20 3e 37 71 1a bd
       -0.12318451 -0.0062932824 0.15707314 -0.037705626
0000e0 ea 81 d9 3d a0 13 60 be 37 55 eb 3c b2 19 ea 3a
       0.10620482 -0.21882486 0.028727157 0.0017860441
0000f0 18 35 71 3e f5 78 ee bc 24 1a cb bd 98 50 3d 3d
       0.2355541 -0.029110411 -0.09917095 0.04621944
000100 c3 68 e8 3c c0 b6 01 be fb c9 1e be d0 86 a5 bd
       0.028370267 -0.1266737 -0.15506737 -0.08082354
000110 10 66 b7 bc 8e 91 0f 3d 69 54 06 be dc bd 81 3a
       -0.022387534 0.03505092 -0.13118137 0.0009898501
000120 68 57 80 bd a1 62 9f 3d 62 d4 13 3e dd 32 0e 3d
       -0.062666714 0.07782484 0.14436486 0.034716476
000130 b0 34 a8 bd 36 7a 20 3d 23 a7 57 bc 3e 65 63 3d
       -0.08213174 0.03917905 -0.013162407 0.055516474
000140 22 0c 30 be 85 0f c1 3d cf da d3 bd 12 64 ae 3d
       -0.17192128 0.09426788 -0.10344469 0.08515181
000150 8f 3b 20 be 84 17 a7 bd 54 32 d7 3d 3f e1 db bc
       -0.1564772 -0.08158782 0.10507646 -0.026840804
000160 fa 88 45 bb bd 17 27 be 9c 83 4a bd 37 91 a3 3d
       -0.003014146 -0.16317649 -0.04944192 0.07986682
000170 b1 e9 98 3d ad ef a8 bd d2 33 86 3b 02 89 7a 3e
       0.07466448 -0.082488395 0.004095533 0.24466327
000180 3b 84 77 3e 64 d2 94 3c b4 eb 24 3e bb 5c 7f 3d
       0.24171536 0.018166728 0.16105539 0.062344294
000190 22 29 0e be e2 ae 51 be d8 a3 b0 3d 78 1c 02 bd
       -0.13882878 -0.20476869 0.08625001 -0.03176543
0001a0 06 7d 10 bd 03 b4 02 3e 78 c2 1b 3e 24 ff 2e be
       -0.03527548 0.12763982 0.15210903 -0.17089516
0001b0 29 0f 81 be 10 09 0a be 01 c0 82 3c b0 7a fb 3d
       -0.2520688 -0.1348002 0.015960695 0.1227926
0001c0 7e 30 cb 3d a8 72 b5 3d fb 04 85 be e9 ad b1 bd
       0.099213585 0.088597596 -0.25980362 -0.08675749
0001d0 53 2d 88 ba 76 ad 03 be 9b 20 76 3d b7 9a 79 3d
       -0.0010389484 -0.12859139 0.06008969 0.060938563
0001e0 b4 18 2d 3c 1d 2c f8 bd 8a d2 00 bd c1 df 0e bc
       0.010564972 -0.12117789 -0.031450786 -0.008720339
0001f0 b1 eb 14 bb 0b d2 db 3c 6e 67 32 3e e1 c6 58 3d
       -0.002272349 0.026833555 0.17422268 0.05292404
000200 e3 ca 02 be 07 e5 0e be f3 19 99 3d 91 68 bc 3d
       -0.12772708 -0.13954554 0.074756525 0.09199632
000210 40 17 d1 ba 7f 8b 8d 3c 47 6f 4e 3d 08 76 cc 3d
       -0.0015952364 0.017278431 0.05039909 0.0998345
000220 b8 0e 40 bd 42 d3 19 3d 60 f4 e2 bc 98 00 7b 3d
       -0.046889037 0.037554987 -0.027704418 0.061279863
000230 19 11 1f 3d 56 80 40 3e b3 30 ac 3c dc e7 cc 3d
       0.038834665 0.18798956 0.021019315 0.10005161
000240 8b cb 94 bd 79 75 fe bd dc d9 8e 3d d1 94 ee 3b
       -0.07265385 -0.1242475 0.06975147 0.007280924
000250 26 6e 1d be 0f f1 dc 3c 81 fb ae 3e e2 c0 3f be
       -0.1537405 0.026970414 0.34176257 -0.18725923
000260 95 99 21 be 19 da 96 3d 6b 4c 8c 3d 48 11 80 3d
       -0.15781243 0.073658176 0.06850513 0.06253296
000270 11 c9 f6 bd 08 04 6a be c7 e3 9d be 20 3f 93 bd
       -0.12050069 -0.228531 -0.30837843 -0.071897745
000280 0a a2 0a bd 56 99 4d bc 21 8d 5c bb 1a 30 ee 3d
       -0.03384594 -0.012548765 -0.0033653455 0.116302684
000290 b3 5c bc bd 85 47 cd bd 2d d5 9c bc 5c 66 b1 3d
       -0.091973685 -0.10023407 -0.019144619 0.086621016
0002a0 37 25 c0 3c 86 aa 87 bd f1 85 2e bd cb 19 0d 3e
       0.023455245 -0.06624322 -0.042608205 0.1377937
0002b0 1f 12 3b 3d a2 69 e0 3d e8 d4 a6 bc fa 48 20 3d
       0.04567158 0.10957648 -0.020365193 0.039132096
0002c0 d1 52 e8 bd 85 5d e9 3d d1 0d 3a be ff 23 e8 bd
       -0.11343921 0.113947906 -0.18169333 -0.11334991
0002d0 c7 fc 25 bd 66 ea 4e bd 2b 7b a5 bd 39 00 cc 3d
       -0.04052427 -0.05051651 -0.08080133 0.0996098
0002e0 60 5b 10 3e 59 b6 32 3e 6a f0 ee bd 49 d1 07 3e
       0.14097357 0.17452373 -0.11666949 0.1326343
0002f0 75 af f5 3d bf e9 74 3b 3a 43 5c 3d ea d2 a0 ba
       0.119963564 0.003737077 0.05377505 -0.0012269889
000300 9e 59 eb bd 99 51 d7 3c 20 f5 3b 3b c9 71 90 be
       -0.114917025 0.026284026 0.0028680041 -0.2821181
000310 e8 2a b4 bd ad f1 80 bd a0 80 34 3e 9c 59 84 3d
       -0.08797246 -0.06296096 0.17627192 0.06462404
000320 4f 3a 77 3e 36 0c b0 bc 32 d4 02 3c f5 e9 26 3d
       0.24143337 -0.021490198 0.007985162 0.040750463
000330 7e 98 f6 bc c5 99 88 bd 83 ff 17 3d 0c 9a 58 bd
       -0.03010201 -0.06669954 0.03710891 -0.052881286
000340 7b 20 ed 3d 44 5d 50 be af 2d a1 3c 8f e7 9f bc
       0.11578461 -0.20348078 0.019675104 -0.019519595
000350 7b 8a 0f 3d be 14 d8 3b 66 1a dc 3d f8 a2 11 bd
       0.035044175 0.0065942695 0.107472226 -0.03555581
000360 c7 87 fb bc f6 d8 fb bd 77 59 b4 bd 9b 62 22 bd
       -0.030704392 -0.122972414 -0.088061266 -0.03964482
000370 82 30 0e 3d 94 43 45 3b 54 4e 6d 3d 9a c9 9e 3c
       0.03471423 0.0030100094 0.057936028 0.01938324
000380 0b 64 07 3d b3 4c 10 be 8b e8 08 be fd fe a5 bd
       0.033054393 -0.14091758 -0.13369958 -0.08105276
000390 1c cd 9d 3d 3b f9 89 3d 84 16 15 bd 67 96 33 3e
       0.07705137 0.0673699 -0.036398426 0.17537843
0003a0 2c 0c 45 bd 75 df 40 3d 45 49 f5 bd 40 a7 39 bd
       -0.04810731 0.047088105 -0.11976866 -0.045325518
0003b0 f1 9d f4 bd 13 0d 1a 3d 5e 9c 73 3d fd fa 18 3d
       -0.119441874 0.037610125 0.059475295 0.037348736
0003c0 7a ae 4e bd 77 08 bb 3d 52 2e 01 3e 22 6e 05 3e
       -0.050459363 0.09132474 0.12615326 0.13030294
0003d0 8d 73 4f 3e dc 3b c3 3d 4d 51 17 bd 98 e0 d6 3d
       0.20258923 0.09532902 -0.03694277 0.104920566
0003e0 3c ae cc 3c a7 e7 3c 3b dd 8a 05 3e af aa e0 3d
       0.024985425 0.00288246 0.13041253 0.10970055
0003f0 ba 78 2a be 89 4e f7 3d c7 bf 02 3d 9a b3 f7 3d
       -0.16647616 0.12075526 0.031921174 0.12094803

body.block2.conv.bias f4 [32]
000000 2b 99 02 bd c2 ed af bc 20 ff 01 3d d1 cc 07 3d
       -0.031884354 -0.021475676 0.031737447 0.033154313
000010 b8 31 4b bd 5c 8f c3 bc ed ab 11 bd 00 99 ef bb
       -0.049607962 -0.02387207 -0.03556435 -0.00731194
000020 08 f8 e5 bc 0a 22 03 3b cc 43 86 3c a1 65 74 3d
       -0.028072372 0.0020009303 0.01638975 0.059667233
000030 f7 e3 2e bd 30 ee 21 3d f0 e4 83 bd 20 a4 4b bd
       -0.042697873 0.039533794 -0.06440151 -0.04971707
000040 2f 2d 2c 3d 0a 5f 47 3d 7c 43 cf 3c 29 70 82 bd
       0.042035278 0.04867462 0.025300734 -0.06369049
000050 ad 19 46 bd d1 b7 29 3d 3b bf 08 3d 56 a5 31 3d
       -0.04836433 0.041435067 0.033385497 0.043370567
000060 72 37 94 bc e8 33 f4 3c 36 9e 3d 3d 2f 8d 31 3b
       -0.018092845 0.029809907 0.04629346 0.0027092209
000070 3e 21 82 bd 3d ce a8 3c 1c 84 bf 3c 08 e9 6e 3d
       -0.06353997 0.020606155 0.023378424 0.058327705

body.block2.norm.weight f4 [32]
000000 0a 9c 80 3f dc 03 73 3f 4a 2c 7c 3f 32 6f 80 3f
       1.0047619 0.94927764 0.9850508 1.0033934
000010 7a 9a 7c 3f 34 49 7c 3f 0c 45 6f 3f c3 b2 4e 3f
       0.9867321 0.985492 0.9346473 0.8074152
000020 16 bf 58 3f b0 de 89 3f 22 47 5e 3f 90 30 7a 3f
       0.84666574 1.0771084 0.8682729 0.9773035
000030 38 0e 64 3f 3a a0 6e 3f 44 3e 73 3f 56 d8 6d 3f
       0.89084196 0.93213236 0.95016885 0.9290823
000040 21 9d 87 3f 92 03 6e 3f 72 51 80 3f ee ad 58 3f
       1.0594827 0.929742 1.0024855 0.84640396
000050 a0 9e 62 3f a1 29 6d 3f 52 79 81 3f 69 07 6e 3f
       0.8852329 0.92641646 1.0115149 0.92980057
000060 90 c7 5c 3f a4 28 64 3f 0d af 6c 3f 7f 93 58 3f
       0.8624201 0.8912451 0.92454606 0.8460006
000070 27 1d 5c 3f 76 cf 67 3f 0d e1 9a 3f aa 23 82 3f
       0.8598198 0.90550935 1.209993 1.0167134

body.block2.norm.bias f4 [32]
000000 76 09 46 be 9e ee c2 be 3c 1c 92 be 83 bd c5 be
       -0.19339547 -0.38072675 -0.28537166 -0.38621148
000010 94 6a f8 bd 1c 8a a3 be 69 77 0e bf 67 4c f6 be
       -0.12129703 -0.31941307 -0.55650955 -0.48105165
000020 d8 a5 ba be ec ca ef be 70 47 4c be 9f dc fd be
       -0.36454654 -0.46834505 -0.19949126 -0.49582383
000030 d0 36 da be 5b af f6 be da ff a1 be 29 e5 d8 be
       -0.42619944 -0.4818066 -0.31640512 -0.42362335
000040 72 8f 02 bf 34 55 c8 be 9b 14 2e bf d9 f7 a0 be
       -0.5100013 -0.39127505 -0.6800019 -0.31439093
000050 bc a6 88 be 9f e5 fa be 39 f1 dc be 39 fa f9 be
       -0.26689708 -0.49003312 -0.43152788 -0.48823717
000060 c6 e4 96 be 13 19 ab be b8 ec 9a be a7 81 d9 be
       -0.29471415 -0.33417568 -0.30258727 -0.4248173
000070 eb bb a0 be ee 41 b9 be d8 cc 1a bf 10 87 44 be
       -0.3139337 -0.36183113 -0.60468817 -0.19192147

body.block2.norm.running_mean f4 [32]
000000 e0 24 9f 3e 09 dc 10 3e e7 66 2b 3e 92 52 d9 be
       0.3108282 0.14146437 0.16738473 -0.4244581
000010 92 3d d1 3e 51 01 0f bd c3 8a 1b 3f 43 65 14 bf
       0.40867287 -0.034913365 0.6075861 -0.57967013
000020 b6 fa 84 bd dc 7b b2 3e e4 0f fa be 3d a6 20 bf
       -0.06493132 0.34860122 -0.4884025 -0.6275366
000030 df 30 ef be 18 2b e9 3d c9 f4 a2 3b d1 de 87 bf
       -0.46716973 0.113851726 0.0049730283 -1.0614873
000040 e1 ee f6 3e 58 cd f9 be dc e2 dc 3d 27 8e 54 3e
       0.48229125 -0.48789477 0.107854575 0.20757352
000050 ba a9 b0 bd eb 07 85 be 02 ec 4b bf e5 77 21 bf
       -0.08626123 -0.25982603 -0.79656994 -0.6307357
000060 b4 06 81 bf 89 8a f4 3e 6b b2 62 bf 95 a8 81 3e
       -1.0080171 0.47761944 -0.88553494 0.2532393
000070 50 f3 d9 3e ba 51 28 be 49 24 e4 3e 24 92 36 3e
       0.42568445 -0.16437426 0.44558933 0.17829186

body.block2.norm.running_var f4 [32]
000000 08 27 82 3f 58 7b fa 3e c1 b1 29 40 2e d6 8a 3f
       1.0168161 0.4892223 2.6514742 1.0846612
000010 db 59 56 40 90 e2 c8 3f 0f 34 16 40 2e 7f 06 40
       3.3492343 1.5694141 2.3469274 2.1015124
000020 a8 45 0f 3f af 3d 0e 40 2e 0d 41 40 19 9a 45 40
       0.5596566 2.2225149 3.0164294 3.0875304
000030 d4 7e 3c 40 d3 1f 19 3f f5 27 04 40 d5 6d 78 40
       2.945241 0.59814185 2.0649388 3.8817036
000040 9a e3 02 40 d3 d8 30 3f e3 b6 c6 3f 57 36 c8 3f
       2.0451417 0.6908085 1.5524563 1.5641583
000050 db 74 b5 3f a1 66 eb 3f bd 60 66 40 80 84 b7 3f
       1.4176286 1.8390695 3.5996544 1.4337311
000060 12 4e d6 3f bd 3f 07 40 2b 8f 1d 40 e6 ff 2f 3f
       1.6742575 2.1132653 2.4618633 0.68749845
000070 ab 36 89 3f ce 6e d9 3f 95 df 21 40 ca 19 d2 3f
       1.0719808 1.698694 2.5292714 1.641412

body.block3.conv.weight f4 [32, 32, 3, 3]
000000 18 04 0b be d5 c6 fa bc aa dd 39 3c 47 aa db bd
       -0.1357578 -0.030612389 0.011344353 -0.10725837
000010 22 c3 0a 3e cb 2a ee b9 49 73 fe bc d5 3c 06 3d
       0.13551 -0.0004542678 -0.031060832 0.032772858
000020 bf 5b 09 3e cb fc d3 bc a6 ed 3e be 89 ad 53 bd
       0.13413905 -0.025877377 -0.18645343 -0.051679168
000030 12 60 23 ba 80 1c 4a be 40 79 11 3e 95 52 f9 bd
       -0.0006232272 -0.19737434 0.1420641 -0.121739544
000040 04 68 4e bd fe a3 20 bd 92 84 1c 3e 06 55 81 3d
       -0.050392166 -0.039218895 0.15284947 0.06315045
000050 7b a6 8e bd 89 7b b4 3c e9 41 ca ba 1d 4c 0e be
       -0.069653474 0.022031562 -0.001543102 -0.13896222
000060 10 a3 69 3d 87 14 d8 3d d6 4b 9c bd eb 62 8e 3d
       0.057040274 0.1055079 -0.07631652 0.06952461
000070 5c 16 31 3c c0 0d be bc 5b b6 db bd 40 76 45 3d
       0.010808554 -0.023199916 -0.10728141 0.048208475
000080 54 ad 54 be dc 6d eb 3d c0 7d c2 3d 46 cb 53 3d
       -0.20769244 0.114955634 0.09496641 0.05170753
000090 6a 7e e0 bc 3a 2b fb bc 05 ba 69 3d 88 c2 92 bd
       -0.027404029 -0.03066026 0.057062168 -0.0716601
0000a0 2c 38 3f bd f9 ad f5 bc 9f be 7d be 62 53 b2 bd
       -0.04668443 -0.029990183 -0.24779747 -0.0870731
0000b0 6e f8 30 be 9f 6f 74 3d 85 96 45 be 36 78 0e bd
       -0.17282268 0.059676763 -0.192957 -0.03478261
0000c0 29 bf 40 3e b5 ea ae bb 40 7d 7b 3e 7f 35 17 3d
       0.18822922 -0.005338038 0.24559498 0.036916252
0000d0 d1 ff b7 3d 17 e5 53 3e 13 48 82 ba b2 7b 3e bd
       0.0898434 0.2069286 -0.0009939693 -0.046504684
0000e0 7e dc 6c bc eb f1 5b be 42 80 99 bd 08 c6 65 bd
       -0.014456866 -0.21479003 -0.07495166 -0.05609706
0000f0 c5 d9 6d be 54 37 18 be 9f e9 13 be 7a 49 8f 3d
       -0.23227604 -0.14864856 -0.14444588 0.069964364
000100 5b ab b0 3c 19 5e a5 3b 93 e4 e9 3c f3 57 a6 3d
       0.021566084 0.0050466177 0.028551375 0.08122244
000110 0a 9f ee bd 6f 78 b2 bd d5 6b 49 bd 29 56 e3 bd
       -0.11651428 -0.08714377 -0.049175102 -0.11100418
000120 b7 9e 68 bd 55 b7 c8 bc 01 21 a7 3d a8 2b 56 bd
       -0.056791987 -0.024501482 0.08160592 -0.052287728
000130 24 0f cf 3c ba d4 d3 3d a5 ab 12 3e eb 10 f9 3d
       0.025275774 0.10343309 0.1432329 0.1216143
000140 6a 0b 07 be e7 43 91 3d 86 36 d0 bc 20 67 1e bd
       -0.13187948 0.070930295 -0.025416624 -0.038672566
000150 ce 1e 8e bc b9 28 08 bd 39 ca 42 3d 3e a2 46 3e
       -0.017348673 -0.03324196 0.047556136 0.19397828
000160 73 f5 08 3e 61 5e a9 3d 2e 01 58 3e 55 3b 58 3d
       0.13374881 0.082699545 0.210942 0.05279096
000170 29 1b 72 3c 1b 6e 3d 3c 97 ae ea bd 0b ae 0b 3d
       0.014776983 0.011561896 -0.114590816 0.034101527
000180 e7 fd 4a bd fa be 9d 3c b8 13 6d 3d db 45 af 3b
       -0.049558546 0.019256104 0.057880133 0.0053489036
000190 0a 80 da 3d 9f 1e c0 bc 83 7a e1 3c 40 fb ab 3d
       0.10668953 -0.023452101 0.027524238 0.083975315
0001a0 02 01 b9 3d 23 d5 d7 bd 79 40 ce 3c 76 7b 8e bc
       0.09033395 -0.105386995 0.025177227 -0.017392855
0001b0 8b d4 09 bc 19 43 07 bc 37 59 72 3c cd 8b 65 3d
       -0.008412491 -0.008255743 0.014791778 0.056041528
0001c0 7a 7b c9 bc 05 e1 ba bd 38 9c d9 bd 61 a3 27 be
       -0.024595011 -0.0912495 -0.106254995 -0.16370918
0001d0 fe 3f 94 3d c6 e0 37 3b 46 57 49 3e 9d e6 65 bb
       0.07238768 0.002805756 0.19662198 -0.0035080083
0001e0 e6 6f 93 3c e6 24 6f be f6 51 70 bd cd d7 96 bc
       0.017997693 -0.2335392 -0.058671914 -0.018413449
0001f0 29 4b 55 bd b4 11 01 3d 33 6d 1c be 4f 04 52 bd
       -0.05207363 0.031511024 -0.15276031 -0.05127364
000200 90 97 cb bd 53 44 a6 3c 83 28 78 3d 34 25 b7 3d
       -0.09941018 0.020296251 0.06058551 0.08942643
000210 15 6c d0 3c 95 26 20 be 37 2e 66 3d 90 20 34 bc
       0.025442163 -0.15639718 0.056196418 -0.010994092
000220 14 06 56 3d fd cd a0 3d 33 14 5d 3d 0f e4 81 bb
       0.05225189 0.07851789 0.05397434 -0.0039639543
000230 5d 39 65 3c d0 39 e3 bb 4c a0 26 3d 1f bd 23 be
       0.013990727 -0.006934382 0.040680215 -0.15990113
000240 00 38 a6 3d 3a 98 95 bd 6c 00 fd 3d f2 cb 88 3d
       0.0811615 -0.073044255 0.12353596 0.066795245
000250 8d 54 09 b9 5d 2b 8a 3b ba ae f6 3d 05 e5 51 3d
       -0.00013096836 0.004216595 0.12045045 0.0512438
000260 4e 99 24 3e 76 ee 54 3e a0 53 46 3d 8c af fb 3b
       0.16074106 0.2079409 0.048419595 0.007680839
000270 16 1f cc bc fb 60 72 bd 2c 64 49 bd d9 0d ea 3d
       -0.024917167 -0.05917452 -0.049167797 0.114284225
000280 01 e3 7e 3e 74 a4 d0 3d d9 f2 fe 3b dd d0 29 3d
       0.24891283 0.10187617 0.0077804145 0.041458953
000290 bd 8c 2c be 30 4d bb 3b 42 4f 9e 3d 5f 91 5a bd
       -0.16850562 0.0057159886 0.07729961 -0.053361293
0002a0 2d 2b c4 3d ca ed 25 3d b4 07 29 bd 0f e9 af bd
       0.095785476 0.040509976 -0.041267112 -0.08589374
0002b0 5b 7a 4e be 69 1e 49 bd e3 6b 9a bd ba 87 a1 bd
       -0.20163862 -0.049101267 -0.07540109 -0.07887216
0002c0 91 72 9e bd 2f 20 06 be 6e 73 ce bd 9a f5 9a bd
       -0.077366956 -0.13098215 -0.1008061 -0.07566376
0002d0 a0 31 18 3d be 42 a8 3d d7 0d 96 bc 6c 2e ba bd
       0.0371567 0.08215855 -0.018317146 -0.090908855
0002e0 f2 f5 c5 bd 4d 41 c0 bd 73 f5 a5 3c 2c a7 63 be
       -0.09666051 -0.09387455 0.02025864 -0.2223174
0002f0 8b 39 94 bd 13 1c 6d bc 53 a5 d1 3c f6 25 04 3d
       -0.07237538 -0.014472025 0.025591528 0.032262765
000300 c9 a6 ff 3d 2d d4 12 bd d4 aa 46 3e 3f 9d 77 3c
       0.124829836 -0.035846878 0.19401103 0.015113174
000310 c2 b4 ca 3d 32 38 5a 3e 72 cb ff 3b b3 28 78 3d
       0.09897758 0.213105 0.007806235 0.06058569
000320 36 27 86 38 7e 67 ae bd c6 8b a3 3c 8b 0c 8f bd
       6.3969215e-05 -0.08515833 0.01996411 -0.06984814
000330 98 f9 52 bd 59 54 18 be 37 d3 97 bd 47 3d 3b bd
       -0.051507562 -0.14875926 -0.07413333 -0.045712736
000340 eb 8b 16 bd 84 c0 f8 3b 7c b5 7e bd b5 ac 61 bd
       -0.03675453 0.007591309 -0.062184796 -0.055096347
000350 97 7a b4 3c 69 dd 08 bc 2d 4e 0a bd 3c d3 9c 3d
       0.022031112 -0.00835357 -0.03376596 0.07657477
000360 c2 1b 78 bd 1b 65 b5 bc bd ca c7 bc c0 a2 73 bc
       -0.060573347 -0.022142937 -0.024388665 -0.014870346
000370 d7 74 c7 3b e6 56 d0 bd 4a f5 90 bc 6c 3d 27 bc
       0.0060869264 -0.101728246 -0.017695088 -0.010207515
000380 ea 52 31 3d 8f d0 a5 bc d4 a6 9a bd bc 5c e1 bd
       0.043291964 -0.02024105 -0.07551351 -0.11004016
000390 8e f9 32 bd 47 91 da bc 7c 6a 3a bd bd f6 da 3b
       -0.043695025 -0.026680602 -0.045511708 0.0066822455
0003a0 90 45 2e bd b3 cc 4e bd 34 5f 11 be f6 ea 0c 3d
       -0.04254681 -0.050488185 -0.14196473 0.034403764
0003b0 3a 16 09 be a5 44 2c 3d e2 70 d4 bc 55 15 4d bd
       -0.13387385 0.042057652 -0.025932733 -0.050069172
0003c0 fc eb 51 3d 4f bc 98 bd 9b f4 b2 3d ac 29 3c bd
       0.051250443 -0.07457792 0.08738061 -0.04593818
0003d0 79 c5 3c be a2 46 49 be 52 d3 d9 bd ac 91 5a be
       -0.18434705 -0.1965585 -0.10636009 -0.21344632
0003e0 07 13 e0 bd 98 b7 4c bd ed 1e d5 bd 0e 3d 38 be
       -0.10941129 -0.049979776 -0.10406289 -0.1799204
0003f0 89 6b b9 bd 4e 03 1e 3d d8 0b 33 3e 44 4e f9 bd
       -0.09053714 0.03857737 0.17484987 -0.12173131

body.block3.conv.bias f4 [32]
000000 f8 a8 7d bd 8a 76 b9 bc 14 63 02 bd 4c 39 63 3d
       -0.06192872 -0.022639532 -0.03183277 0.055474564
000010 8e da 4b bc 37 45 18 bd 1d 2e cd 3c 04 5a eb 3c
       -0.012442244 -0.037175383 0.025046403 0.028729446
000020 8e 8f d7 bb c4 45 bd bc 8d 3f 04 bd 10 84 58 3a
       -0.0065783923 -0.023104556 -0.03228717 0.0008259425
000030 cd 5f 01 3c 9b 21 38 bd b1 3c ba 3b e4 29 f9 3c
       0.007896376 -0.044953924 0.0056835045 0.030415483
000040 f1 68 9b bc be a9 d8 bc e2 22 d2 b8 88 01 aa bc
       -0.018970938 -0.026448127 -0.00010020078 -0.020752683
000050 2d 0e 29 3d 64 a1 1c 3d e2 cb d5 bb 90 70 e2 bc
       0.041273285 0.03823985 -0.006524549 -0.027641565
000060 e6 95 a3 bb 2f 5b 6e bb 21 9c 00 bd 60 af 47 bd
       -0.0049922345 -0.0036370268 -0.031398896 -0.048751235
000070 85 b7 39 bd fa 02 05 ba 77 05 2b 3c 51 16 af bc
       -0.045341033 -0.0005073991 0.010438315 -0.021372946

body.block3.norm.weight f4 [32]
000000 d3 9f dd 3e 96 c1 40 3f c0 c3 39 3f 07 31 a3 3e
       0.43286 0.7529539 0.72564316 0.31873342
000010 f0 d3 29 3f 28 6d 1f 3f 12 28 f6 3e 7f 0e 1f 3f
       0.66339016 0.62275934 0.48077446 0.62131494
000020 78 ed e5 3e 62 ca 22 3f a3 05 06 3f 0b 55 04 3f
       0.44907737 0.6359006 0.5235235 0.51692265
000030 b1 0e d7 3e 7e 0c 06 3f 7c 3a 39 3f 6d f9 0d 3f
       0.42003396 0.5236281 0.72354865 0.5545872
000040 f2 10 1d 3f a1 84 30 3f b3 e2 f7 3e bd dd 1c 3f
       0.6135398 0.68952376 0.48415145 0.61275846
000050 b3 14 17 3f 20 96 3e 3f 0d d4 df 3e 10 0c 22 3f
       0.5901596 0.7444782 0.4371647 0.63299656
000060 f6 38 4c 3f d6 cc 35 3f 73 9c 0e 3f 56 80 2b 3f
       0.79774415 0.7101568 0.5570747 0.669927
000070 4a 48 d3 3e ab 93 1a 3f bc 29 1b 3f 6c 4c 04 3f
       0.4126609 0.60381573 0.60610557 0.5167911

body.block3.norm.bias f4 [32]
000000 05 98 86 be 5b d7 8d be 3b 37 ae be 44 8e 39 be
       -0.26287857 -0.27703366 -0.34026513 -0.18120676
000010 dc 45 c8 be 2d a9 55 be b5 b8 8a be d9 a4 85 be
       -0.39115798 -0.20865317 -0.27094045 -0.2610233
000020 a2 c4 97 be 2f 78 a8 be d3 3a 96 be 7e 55 94 be
       -0.29642206 -0.32904193 -0.29341754 -0.28971475
000030 f5 38 8b be 62 f9 51 be 55 d4 8f be db 06 66 be
       -0.27191892 -0.20505288 -0.28091684 -0.22463553
000040 ba 6a c6 be c3 91 d1 be fc c8 70 be ad 59 a9 be
       -0.387533 -0.4093152 -0.2351417 -0.3307623
000050 4a 84 ba be 79 14 8b be 12 59 6d be 36 dd 70 be
       -0.36429054 -0.27164057 -0.23178509 -0.23521885
000060 f0 94 60 be 80 db eb be cc 4c 97 be 2a f6 81 be
       -0.21931815 -0.46065903 -0.2955078 -0.2538312
000070 8d 70 94 be 81 57 90 be 0a 9c db be 69 18 99 be
       -0.2899212 -0.2819176 -0.42892486 -0.29901436

body.block3.norm.running_mean f4 [32]
000000 e6 50 b4 be 7d 91 10 bf a5 79 56 bf 3a 2e 9c 3e
       -0.3521797 -0.56472 -0.83779365 0.30504018
000010 ef a0 c1 bd 88 36 a1 be 81 bf 27 be 7d a2 86 be
       -0.09454524 -0.31486917 -0.16381647 -0.26295844
000020 42 b1 b7 bd 33 7e f1 be 47 c0 ca be 5e 5d 54 bf
       -0.08969356 -0.47166595 -0.3959982 -0.8295497
000030 14 1b 00 bf 1b 2b f7 3d 0b 19 48 bf c9 4d 8d 3e
       -0.5004132 0.120687686 -0.7816321 0.27598408
000040 54 68 ec be fb 76 5a bf a9 5f 90 be 84 c1 c7 be
       -0.46173346 -0.853378 -0.28197983 -0.39014828
000050 79 ee 48 bf 91 73 8c 3e be 42 c1 be d3 75 b2 be
       -0.7848888 0.2743192 -0.37746233 -0.34855518
000060 1e 4a c8 bc d7 fa 25 bf 51 25 5e 3f 9a 85 9e be
       -0.024449404 -0.64835876 0.8677569 -0.30961305
000070 96 df d1 bd 4c 54 12 be 18 88 80 bf f0 6e 20 bf
       -0.10247724 -0.14289969 -1.0041533 -0.6266928

body.block3.norm.running_var f4 [32]
000000 c1 64 77 3f 3b 48 c7 3f ca c8 df 40 e5 ac 33 40
       0.96638113 1.5568918 6.9932604 2.8074276
000010 52 e7 af 40 93 04 76 40 ef 8e 9f 3f 48 26 94 40
       5.4969873 3.8440292 1.2465495 4.629673
000020 95 9d 3a 40 cc 5d 8e 40 d0 5c 4b 40 8f 76 c7 40
       2.915868 4.44895 3.1775398 6.2332225
000030 39 56 d0 3f d7 bd 14 40 40 71 80 40 70 47 6f 40
       1.6276313 2.324087 4.0138245 3.7387352
000040 8a ce 7b 3f 28 1c 47 40 56 3c a5 40 7b 32 19 3f
       0.9836203 3.1110935 5.163615 0.5984265
000050 a7 0a 83 40 0b d9 96 40 fd a1 c0 3f 6b 04 2b 40
       4.0950503 4.7139945 1.5049435 2.6721447
000060 fa 14 e8 40 23 68 a9 40 d8 8a ce 40 1d 2b 92 40
       7.2525606 5.293962 6.4544487 4.567763
000070 bd d0 20 40 d6 b6 97 40 e0 03 8f 3f 7f b3 ed 3f
       2.5127404 4.741069 1.1173058 1.8570403
