code/Output/starry_night_full/pdl_e8000_1px_lr0.0005a10.0_up-conv5_1_W[1, 0.75, 0.2, 0.2, 0.2](4)/2/netG.pth (torch, 130373 bytes, 26 tensors)

head.conv.weight f4 [32, 3, 3, 3]
0	0xbd0c960a	-0.034322776
1	0x3d0df122	0.03465379
2	0x3c6c5eaf	0.014426871
3	0xbdb830f9	-0.08993716
4	0x3bc17a18	0.0059044473
5	0x3cdcb2fe	0.026940819
6	0xbd437315	-0.047717173
7	0x3d056804	0.0325699
8	0x3d0714ba	0.03297875
9	0x3d1f3363	0.038867366
10	0x3cccacca	0.024984736
11	0xbb6b1929	-0.003587315
12	0x3cf0cb0e	0.029393699
13	0x3c702444	0.014657084
14	0x3cc97a59	0.024594473
15	0xbd4aa7b9	-0.04947636
16	0xbc6d76ea	-0.014493683
17	0xbc57fc0f	-0.013182654
18	0x3c2f704f	0.010707929
19	0x3b01630b	0.0019742872
20	0x3be779fa	0.0070641013
21	0x3d5cfd8c	0.05395274
22	0x3d3a225b	0.04544292
23	0x3d93865f	0.072033636
24	0xbd2ceae0	-0.04221618
25	0xbcde0108	-0.027100101
26	0xbe1e26f1	-0.15444542
27	0x3dffd94d	0.12492619
28	0xbd27262e	-0.040807895
29	0xbce28194	-0.027649678
30	0x3d82c514	0.06385246
31	0xbd191c8d	-0.037380744
32	0xbd97c8bf	-0.07411336
33	0xbceb5bd9	-0.02873032
34	0xbd1d50b5	-0.038407046
35	0xbd936611	-0.07197202
36	0xbc69b58a	-0.014264474
37	0xbdcd3bb5	-0.10021154
38	0xbca31548	-0.019907609
39	0xbcfb9ae0	-0.030713499
40	0xbc681548	-0.01416523
41	0x3cb95f81	0.022628548
42	0xbc73928c	-0.0148664825
43	0x3d1698b7	0.036766734
44	0x3d217297	0.039415922
45	0xbc20b48f	-0.0098086735
46	0xbbdd1ed2	-0.006748059
47	0x3d62dce0	0.055386424
48	0xbd696783	-0.056983482
49	0x3c0428c9	0.008066365
50	0x3d22a3d9	0.03970704
51	0xbc51008e	-0.01275648
52	0x3bdc532a	0.006723781
53	0xbcf7f630	-0.030268759
54	0x3d0c9d07	0.03432944
55	0x3defa122	0.117006555
56	0x3d8e14a1	0.069375284
57	0x3dc2cd14	0.09511772
58	0xbcd4af18	-0.025962397
59	0xbbb298e8	-0.0054503568
60	0xbbaedade	-0.0053361496
61	0xbce71f5c	-0.028213196
62	0x3cb09b01	0.021558287
63	0xbdca75aa	-0.09885724
64	0x3c2fb3ab	0.0107239885
65	0x3d8f95ba	0.0701098
66	0x3d2f900d	0.042861987
67	0x3ca50e39	0.020148383
68	0x3d919651	0.07108749
69	0xbbb67dfd	-0.005569218
70	0x3bfaf912	0.007659086
71	0x3de4da94	0.11174503
72	0xbd2577fc	-0.04039763
73	0xbcbf6c67	-0.02336712
74	0xbc0bb7c2	-0.008527698
75	0xbd0a53b4	-0.03377123
76	0xbc2f87f6	-0.010713568
77	0xbc4f9934	-0.012670804
78	0x3ca8aeeb	0.02059122
79	0xbd824f06	-0.06362729
80	0xbd062516	-0.03275021
81	0xbcffd255	-0.031228224
82	0xbd21d994	-0.03951414
83	0x3c5b755c	0.01339468
84	0x3c49a996	0.012308499
85	0xbd5b5143	-0.053544294
86	0x3cffb942	0.031216267
87	0xbd301775	-0.04299112
88	0x3ce8c069	0.02841206
89	0x3e508473	0.20363025
90	0x3c01f799	0.007932567
91	0xbd40c49e	-0.04706251
92	0xbbc373ee	-0.0059647476
93	0x3cdb40be	0.02676427
94	0x3b8d1be7	0.0043063047
95	0xbc952974	-0.018208243
96	0xba5e021b	-0.00084689417
97	0x3bc6bd91	0.0060650785
98	0x3e4f7d59	0.2026266
99	0xbca364d7	-0.019945545
100	0xbc8d7e86	-0.017272245
101	0x3b90a7ba	0.004414526
102	0x3a8ac2f6	0.0010586667
103	0xbc33060b	-0.010926734
104	0xbcd52da0	-0.026022732
105	0x3d5e48d2	0.054268666
106	0xbcea98c1	-0.028637292
107	0xbd0b4cd1	-0.034008805
108	0x3a187dc3	0.000581708
109	0x3d77d423	0.060505044
110	0x3d929519	0.07157344
111	0xbd6cb89d	-0.05779325
112	0xbd273bc8	-0.040828496
113	0xbce63c93	-0.028105056
114	0x3b123473	0.0022309094
115	0xbc3d9a42	-0.011572422
116	0xbd860d9c	-0.065455645
117	0x3db03112	0.086031094
118	0x3daefdf6	0.08544533
119	0x3d9aeff7	0.07565301
120	0x3bb254c2	0.005442233
121	0xbc0050ea	-0.007831791
122	0x3d1c6a0a	0.038187064
123	0x3da194e1	0.078897245
124	0xbc1ebd79	-0.0096887285
125	0x3c6b6a4d	0.014368606
126	0x3cac8b18	0.021062419
127	0xbc75bfd3	-0.014999348
128	0xbd49c62b	-0.049261253
129	0xbd2dfc40	-0.042476892
130	0xbcd13290	-0.025536805
131	0x3c54a65d	0.012979117
132	0xbd746b93	-0.059672903
133	0xbd9472ac	-0.072484344
134	0xbdc43b2c	-0.09581599
135	0xbcd8dfc3	-0.026473885
136	0xbc132b46	-0.008982485
137	0x3c5f1e80	0.013618112
138	0x3b4ac9b1	0.0030942971
139	0x3b9ea5b6	0.0048415316
140	0x3cf4726c	0.029839717
141	0x3d614c90	0.055004656
142	0x3d6a2f08	0.05717376
143	0xbd962435	-0.07331125
144	0xbdd5a55b	-0.1043193
145	0xbc85ec14	-0.016347922
146	0xbd1bcea5	-0.03803887
147	0xbd2a3ab5	-0.041559894
148	0x3ab89e37	0.0014085238
149	0x3cc24570	0.023714751
150	0x3cb3532f	0.021890251
151	0x3c8fd848	0.017559186
152	0xbe4516d3	-0.19246988
153	0x3d0a45da	0.033758022
154	0xbcb1ad0e	-0.021688964
155	0x3d2d1ef6	0.042265855
156	0x3d20a4a3	0.03921951
157	0x3d8214dc	0.06351635
158	0xbbb95237	-0.0056555527
159	0xbc76be0c	-0.015059959
160	0x3b886d2c	0.004163405
161	0xbd902f26	-0.07040243
162	0xbcc23980	-0.023709059
163	0xbd97eeb0	-0.07418573
164	0xbd829c5b	-0.06377479
165	0x3d73ba02	0.059503563
166	0xbc331375	-0.010929932
167	0x3bf5cb60	0.007501051
168	0xbd7c9d6e	-0.061673574
169	0x3ca9937e	0.020700213
170	0x3d6a51f8	0.057207078
171	0x3cad9530	0.021189302
172	0xbcd6abad	-0.026204908
173	0xbcda2396	-0.026628297
174	0x3e101829	0.14071716
175	0x3c73ef3b	0.01488858
176	0xbd5f5204	-0.054521576
177	0xbcf5061b	-0.029910138
178	0xbd399fbb	-0.045318346
179	0x3c5da12d	0.013527197
180	0x3d029e76	0.0318894
181	0xbbc92a2c	-0.0061390605
182	0x3c87d2df	0.016580043
183	0x3daf91e8	0.08572751
184	0x3c0d1697	0.008611343
185	0x3cce2893	0.025165832
186	0xbcabe92e	-0.020985212
187	0xbd2f13b4	-0.0427434
188	0xbd469820	-0.04848492
189	0x3cfd038a	0.030885477
190	0x3cf2eac6	0.029652964
191	0x3c6d1c75	0.014472117
192	0x3cd75796	0.026286881
193	0xbd84d838	-0.06486553
194	0x3bbb9f09	0.0057257456
195	0xbce88ed6	-0.028388422
196	0xbd80ac78	-0.06282896
197	0xbd7993ad	-0.06093185
198	0x3cb00c19	0.021490144
199	0x3da5491d	0.08070586
200	0x3d6c125e	0.057634704
201	0xbd0fa3b5	-0.035068233
202	0xbcbb6923	-0.022877282
203	0x3d714191	0.05890042
204	0x3ce27f68	0.027648643
205	0xbd448df8	-0.047986954
206	0xbd0a5617	-0.033773508
207	0xbd8cc9fe	-0.068744645
208	0x3d214a92	0.039377756
209	0x3b258613	0.0025256916
210	0xbd41564a	-0.047201432
211	0x3b44982a	0.0029997923
212	0x3d8251a6	0.063632295
213	0x3d818819	0.06324787
214	0xbd1ac7c9	-0.037788186
215	0x3d8a73e5	0.067603864
216	0xbdc089b6	-0.09401266
217	0xbc117bae	-0.008879585
218	0x3c0c82c5	0.0085761
219	0x3c926a19	0.017872857
220	0xbd95c80b	-0.07313546
221	0x3d55ef52	0.052230187
222	0x3cb8abf2	0.022542927
223	0x3cba9c6b	0.022779664
224	0x3d55b718	0.052176565
225	0xbe301d76	-0.17198738
226	0xba033b61	-0.00050061016
227	0xbac2ec54	-0.0014871457
228	0xbdb0554f	-0.08610021
229	0xbd8ead15	-0.069666065
230	0x3cd5df62	0.026107494
231	0x3cb8fc76	0.02258132
232	0x3c2ebf89	0.010665783
233	0x3dba5406	0.090980574
234	0xbdaffed0	-0.085935235
235	0xbca1c0c6	-0.019745242
236	0xbd0d205b	-0.034454685
237	0x3bc2b1b6	0.005941595
238	0x3caee617	0.02134995
239	0x3cbff146	0.023430478
240	0xbce8451c	-0.028353266
241	0xbc9799ab	-0.018505892
242	0x3d28b1a4	0.041185036
243	0x3ccdd983	0.025128132
244	0xbcd6bf49	-0.026214259
245	0xbca38cf5	-0.019964674
246	0xbc84c1f9	-0.016205775
247	0xbd8717be	-0.06596325
248	0xbbd2d82f	-0.0064344625
249	0x3b0d0c2e	0.0021522152
250	0xbda99c81	-0.08281804
251	0xbcee6ddd	-0.029105121
252	0x3d267466	0.04063835
253	0x3d305fdc	0.04306017
254	0x3d8e79a4	0.06956795
255	0x3d200128	0.039063603

head.conv.bias f4 [32]
0	0xbe163c2a	-0.14671388
1	0x3dbf5caa	0.09343846
2	0x3e0c75ca	0.13716808
3	0xbc05d6a6	-0.008168852
4	0xbde86255	-0.1134688
5	0x3e86e3f3	0.26345786
6	0xbd4ed406	-0.05049517
7	0xbe163df6	-0.14672074
8	0x3dd215ee	0.10258089
9	0xbe1c2026	-0.15246639
10	0xbdc4f1cb	-0.09616431
11	0xbdfa5844	-0.122238666
12	0xbc8f6aff	-0.017507074
13	0xbd9325f4	-0.07184973
14	0x3d31ca5e	0.043405883
15	0x3cf74649	0.030184882
16	0x3e04543b	0.12922756
17	0xbe23acb0	-0.15983844
18	0x3dca2933	0.098711394
19	0x3e352170	0.17688537
20	0xbe0baad5	-0.13639386
21	0xbcd1e470	-0.025621623
22	0x3c71d395	0.014759918
23	0xbdbe4d6b	-0.0929211
24	0x3d45cabd	0.04828905
25	0xbb1681c2	-0.0022965525
26	0xbe06a282	-0.1314793
27	0x3e0eb9ca	0.1393806
28	0xbda7ede8	-0.08199674
29	0x3d692bff	0.056926724
30	0xbe5625b1	-0.20912816
31	0xbe0bb4b8	-0.13643157

head.norm.weight f4 [32]
0	0x3f828d9d	1.0199467
1	0x3f79f99e	0.9764651
2	0x3f7ce45e	0.9878596
3	0x3f809e48	1.0048304
4	0x3f8cabbe	1.0989912
5	0x3f809f23	1.0048565
6	0x3f80b921	1.0056497
7	0x3f7fb0ff	0.9987945
8	0x3f845ccc	1.0340819
9	0x3f74712e	0.954852
10	0x3f81a44d	1.0128266
11	0x3f8e6a2e	1.1126153
12	0x3f708ce8	0.93965006
13	0x3f824803	1.0178226
14	0x3f6a21e3	0.9145796
15	0x3f744c86	0.95429265
16	0x3f69ca09	0.91323906
17	0x3f71f065	0.9450744
18	0x3f82a295	1.0205866
19	0x3f870446	1.0548179
20	0x3f7d8116	0.99025095
21	0x3f863342	1.0484393
22	0x3f838069	1.0273563
23	0x3f851f78	1.0400229
24	0x3f69f75d	0.9139307
25	0x3f82b43a	1.0211251
26	0x3f730498	0.94928885
27	0x3f71526a	0.9426638
28	0x3f80ab16	1.0052211
29	0x3f847a90	1.0349903
30	0x3f63965b	0.889013
31	0x3f7d018b	0.9883048

head.norm.bias f4 [32]
0	0xbdb0998f	-0.08623039
1	0xbd0e3a48	-0.03472355
2	0xbe1ab67a	-0.15108672
3	0xbdcf28ff	-0.10115241
4	0xbe00984a	-0.12558094
5	0xbddf7f6e	-0.10912977
6	0xbe348737	-0.17629705
7	0xbe4ddaf9	-0.20103063
8	0xbdc7417c	-0.09729287
9	0xbc7615c5	-0.015019839
10	0xbd0c507f	-0.034256455
11	0xbdd7e4ce	-0.10541688
12	0xbe825cfc	-0.25461566
13	0xbdb3846a	-0.0876549
14	0xbe2f239b	-0.17103426
15	0xbe4df877	-0.20114313
16	0xbdd0be16	-0.10192506
17	0xbd99e502	-0.07514383
18	0xbdbbf4bd	-0.091775395
19	0xbdc4eee7	-0.096158795
20	0xbe484212	-0.19556454
21	0xbdc0b010	-0.09408581
22	0xbe0fc2ef	-0.14039205
23	0xbdc17784	-0.09446624
24	0xbe34f27b	-0.17670624
25	0xbde7fc4f	-0.11327421
26	0xbe4eb18c	-0.20184916
27	0xbe14b5e4	-0.14522511
28	0xbdf919d6	-0.12163131
29	0xbe39b19e	-0.18134162
30	0xbe266c4b	-0.16252248
31	0xbd85f6f2	-0.06541242

head.norm.running_mean f4 [32]
0	0xbe14433b	-0.14478771
1	0x3e21027b	0.15723602
2	0x3cd2fd1e	0.025755461
3	0xbd995559	-0.07486982
4	0xbe094946	-0.13406858
5	0x3e9ecf23	0.31017408
6	0xbcf3acc3	-0.029745465
7	0xbe15658e	-0.14589521
8	0x3e1c4825	0.15261896
9	0xbe42293c	-0.18961042
10	0xbdc3ebed	-0.09566484
11	0xbd8da406	-0.069160506
12	0x3ce9060b	0.028445264
13	0x3d9a8f81	0.075469024
14	0x3e1376b0	0.14400744
15	0x3d96752c	0.073465675
16	0x3d45b16e	0.048264913
17	0xbe806fce	-0.250853
18	0x3c03408e	0.0080109965
19	0x3e0ee774	0.1395548
20	0xbdb9770a	-0.09055908
21	0xbca6b591	-0.02035025
22	0x3d0f81d3	0.03503592
23	0xbdf93f8d	-0.121703245
24	0xbcee44a9	-0.029085474
25	0xbab847cd	-0.0014059484
26	0xbe11fa32	-0.14255598
27	0x3ddf4bda	0.109031394
28	0xbd16f16e	-0.03685134
29	0x3d4c240d	0.04983907
30	0xbe42354f	-0.18965648
31	0xbde10104	-0.10986522

head.norm.running_var f4 [32]
0	0x3ad028de	0.001588132
1	0x3b9c6e5c	0.004773898
2	0x3c36147d	0.011113283
3	0x3c092867	0.008371449
4	0x3b9f70a8	0.0048657246
5	0x3b818d17	0.003953587
6	0x3ac936ed	0.0015351452
7	0x3b49b807	0.0030779855
8	0x3c32d9b3	0.010916161
9	0x3ca9f8ff	0.020748613
10	0x3c204ca9	0.009783902
11	0x3afc1a51	0.0019233917
12	0x3ca4a968	0.02010031
13	0x3cd58ab7	0.026067121
14	0x3c1762e1	0.009239883
15	0x3afcd479	0.0019289396
16	0x3c8d2da5	0.01723368
17	0x3cb7a33c	0.022416703
18	0x3c649377	0.013951174
19	0x3b0cf74d	0.0021509707
20	0x3b8e533d	0.004343419
21	0x3b585e31	0.0033015127
22	0x3b588877	0.0033040324
23	0x3b39a33e	0.002832606
24	0x3c16bc92	0.009200232
25	0x3a50f72e	0.0007971403
26	0x3b85c506	0.004082325
27	0x3b2d2f69	0.0026425964
28	0x3bcc9583	0.006243409
29	0x3ba85284	0.0051367898
30	0x3ab68be5	0.001392719
31	0x3c7e5488	0.0155230835

body.block1.conv.weight f4 [32, 32, 3, 3]
0	0x3d139a50	0.036035836
1	0xbc8fbdf9	-0.01754664
2	0xbdf367da	-0.118850425
3	0xbbf0a89d	-0.007344319
4	0xbc3f6087	-0.011680729
5	0xbcd5e432	-0.026109789
6	0x3ded3587	0.11582475
7	0x3cb7a68b	0.022418281
8	0xbd186648	-0.037206918
9	0xbd27b3f6	-0.04094311
10	0xbbac4ebd	-0.00525841
11	0x3df7fbf1	0.12108601
12	0x3ae3168d	0.0017325446
13	0x3d02af9f	0.031905767
14	0x3df914fa	0.12162204
15	0xbca9ec6e	-0.020742621
16	0x3da443bf	0.08020734
17	0x3d2b4c27	0.04182067
18	0x3cb056e0	0.0215258
19	0x3cf13be3	0.029447502
20	0x3ce42aec	0.027852498
21	0xbba7c65a	-0.005120081
22	0x3d281381	0.041034225
23	0x3dd82c3e	0.105553135
24	0xbb0e785e	-0.0021739225
25	0x3d981313	0.07425513
26	0x3d6e9ad2	0.058253117
27	0x3c6f1caf	0.014594241
28	0xbb3e311a	-0.0029020966
29	0xbd4999f2	-0.04921908
30	0x3d713142	0.058884867
31	0x3d0e50a3	0.03474487
32	0x3cdf59d4	0.027264513
33	0xbc41ffa6	-0.0118407365
34	0xbbd0cfb9	-0.0063724187
35	0xbd065199	-0.03279266
36	0x3bb4f791	0.0055226763
37	0x3c72b455	0.014813502
38	0x3d5bbdd7	0.053647842
39	0xbcc3a323	-0.0238815
40	0x3c91c142	0.017792348
41	0x3cdffd07	0.027342333
42	0x3c9b6fb5	0.018974165
43	0x3d9d3518	0.076761425
44	0x3dbb4d2e	0.0914558
45	0x3ca68e10	0.020331413
46	0x3c46bdff	0.01213026
47	0x3d2d48e1	0.04230583
48	0x3d64cb0d	0.055857707
49	0x3cbfd656	0.023417633
50	0xb96e3c68	-0.00022719952
51	0x3cf266f9	0.029590117
52	0x3d229c71	0.039699975
53	0x3c33305f	0.010936826
54	0x3dbe4aed	0.09291635
55	0x3c21a3b8	0.009865694
56	0xbdb6247d	-0.08893678
57	0x3c3461bd	0.011009631
58	0xbbe8c65e	-0.0071037253
59	0xbd0a6ca5	-0.033795018
60	0xbd1916da	-0.03737531
61	0xbd2752ea	-0.040850557
62	0xbd4fb994	-0.05071409
63	0x3d1c62bc	0.038180098
64	0x3d1fbf89	0.03900102
65	0x3c83df00	0.016097546
66	0x3dad7e8a	0.08471401
67	0x3ac417c5	0.0014960697
68	0xbd418a59	-0.04725108
69	0x3de8f3cf	0.11374628
70	0x3d243115	0.04008587
71	0xbd1b555a	-0.037923194
72	0xbc5640f5	-0.01307701
73	0x3cdc3955	0.026882807
74	0x3d21074d	0.039313603
75	0x3d8543d1	0.065070756
76	0x3d121f32	0.03567428
77	0x3ddb70f4	0.107149035
78	0xbc8060aa	-0.015671093
79	0xbbb6f666	-0.005583572
80	0x3d0c3242	0.034227617
81	0x3d99aa9c	0.07503244
82	0xbc41efa9	-0.011836925
83	0x3c06aab5	0.008219411
84	0x3caef511	0.021357091
85	0x3a0ba815	0.00053274754
86	0xbc9ceae1	-0.019154968
87	0x3caee49e	0.021349248
88	0x3cd35cee	0.025801148
89	0x3d039edc	0.032133922
90	0x3d559561	0.052144412
91	0x3daf6245	0.08563665
92	0x3d8d10d0	0.06887972
93	0x3d8cde76	0.068783686
94	0x3dec13cc	0.115272135
95	0x3d508646	0.050909303
96	0x3ccd5076	0.02506278
97	0x3cd3de85	0.025862942
98	0xbd586ca9	-0.052838
99	0xbce7d979	-0.028301941
100	0xbd3f46e6	-0.046698473
101	0xbd7f36c4	-0.062308088
102	0x3d98075f	0.07423281
103	0xbc580718	-0.013185285
104	0x3cabda74	0.02097819
105	0x3d8f3369	0.069922276
106	0xbadab72e	-0.0016686672
107	0x3e0a28fa	0.13492194
108	0x3d1d9958	0.038476318
109	0x3d420c60	0.047375083
110	0x3d7ad679	0.061239693
111	0x3a43da38	0.0007471177
112	0x3d6ade69	0.057341013
113	0x3dc8bcb2	0.09801616
114	0x3d21d535	0.03950997
115	0x3d0e64a8	0.034763962
116	0x3d5f48d9	0.054512832
117	0xbcfa4c6c	-0.030554019
118	0x3ce10360	0.02746743
119	0x3c47389a	0.012159491
120	0x3d059f19	0.03262243
121	0x3ba6b499	0.005087447
122	0xbc7e37f3	-0.015516269
123	0x3c5185d2	0.012788253
124	0x3ceef77f	0.02917075
125	0xbc292875	-0.010324587
126	0x3ad8b28e	0.0016532706
127	0x3b669351	0.0035183022
128	0x3cb73bee	0.022367444
129	0x3bb64d84	0.00556344
130	0xbd90c74a	-0.07069261
131	0xbd34828c	-0.04406981
132	0x3d2a0e79	0.04151771
133	0x3d07d7ee	0.03316491
134	0xbcd93574	-0.026514746
135	0xbc5e91ad	-0.0135845365
136	0x3d58db6c	0.052943632
137	0x3cdc0c54	0.026861347
138	0xbced4473	-0.028963303
139	0xbbdfb2b4	-0.006826723
140	0xbd31c8b5	-0.0434043
141	0xbd3e7b32	-0.046504207
142	0x3d0c799e	0.03429567
143	0x3c6da006	0.014503485
144	0x3c707c61	0.014678092
145	0xbcc8dfbe	-0.024520751
146	0xbc411298	-0.011784218
147	0xbc87138a	-0.01648881
148	0x3ceb4abd	0.028722161
149	0x3ca543d8	0.020173952
150	0x3d986579	0.074412294
151	0x3d1b99ec	0.03798859
152	0x3d01615d	0.031586993
153	0x3cdcba28	0.026944235
154	0x3d242968	0.04007855
155	0xba71f341	-0.0009229668
156	0x3d943197	0.07236021
157	0x3d350fb8	0.044204444
158	0x3da0c867	0.07850724
159	0x3d294b1c	0.041331396
160	0x3de1ccb4	0.11025372
161	0x3dd7b937	0.10533374
162	0x3d8b4916	0.068010494
163	0x3d9921fe	0.074771866
164	0x3d2a0aab	0.04151408
165	0x3bfdd658	0.007746499
166	0x3c72bca1	0.01481548
167	0x3d820f64	0.06350592
168	0xbde06b29	-0.10957939
169	0x3ca185b2	0.019717071
170	0x3d4c6bc8	0.049907476
171	0x3da64c37	0.081200056
172	0x3ddf89a5	0.109149255
173	0x3d0c56a1	0.034262303
174	0x3d8e9c03	0.069633506
175	0x3d2d28f3	0.04227538
176	0xbcc29c56	-0.023756187
177	0x3c195dcd	0.009360743
178	0x3d3b0ca1	0.04566634
179	0x3c41bb7a	0.011824483
180	0x3e1e5c14	0.15464813
181	0x3d9f967a	0.07792373
182	0x3a41211f	0.0007367301
183	0x3dc5958e	0.09647666
184	0xbcb06c2c	-0.021535955
185	0xbaf4c518	-0.0018674461
186	0x3cfb9b15	0.030713597
187	0xbc9f737e	-0.01946425
188	0x3be72a97	0.0070546377
189	0x3d170d91	0.036878172
190	0x3d45a3ee	0.04825204
191	0x3d9c1575	0.0762128
192	0x3cc80e44	0.024420865
193	0x3c4b3ab4	0.012404133
194	0x3d514566	0.051091574
195	0x3df396c4	0.11893991
196	0x3cc102d4	0.023560919
197	0x3b086cc8	0.0020816792
198	0xbd812115	-0.06305138
199	0xbaf8b2ef	-0.0018974225
200	0xbd73ae58	-0.05949244
201	0xbd40b6fe	-0.047049515
202	0x3a3854e2	0.00070316915
203	0xbd881377	-0.066443376
204	0xba8c1489	-0.0010687272
205	0x39e0447b	0.0004277563
206	0xbc68fde1	-0.014220686
207	0xbb921a8d	-0.0044587315
208	0x3c5e8360	0.013581127
209	0x3d4b05e7	0.049566176
210	0x3d5414c9	0.051777635
211	0x3cc95e41	0.024581077
212	0x3cb98b65	0.022649476
213	0x3db9b44f	0.09067594
214	0x3cb1c961	0.02170247
215	0xbc257871	-0.010099516
216	0xbd07059f	-0.032964345
217	0xbcaddc33	-0.021223163
218	0x3c650d73	0.013980257
219	0xbc193306	-0.009350544
220	0xbc68e7c2	-0.014215412
221	0x3cfd19d5	0.030896107
222	0x3cf11ccb	0.029432675
223	0x3cf198c4	0.02949179
224	0x3d9cb66f	0.07651984
225	0x3d113282	0.03544856
226	0x3c56aa8e	0.013102187
227	0x3dc04096	0.09387319
228	0x3d2e323d	0.04252838
229	0x3d342ecc	0.04398994
230	0xbb131734	-0.002244425
231	0xbd4ccfe8	-0.050002962
232	0x3d783622	0.0605985
233	0xbd8e9628	-0.06962234
234	0xbd64c114	-0.055848196
235	0xbd7bce34	-0.061475947
236	0xbda96c07	-0.08272558
237	0xbdaa5215	-0.08316437
238	0xbd170927	-0.036873963
239	0x3c1e4b6d	0.009661538
240	0x3c9beb39	0.019033061
241	0x3a4359de	0.0007452051
242	0x3da7badf	0.0818994
243	0x3defba89	0.11705501
244	0x3d365624	0.044515744
245	0xbd1f33f9	-0.038867924
246	0xba603d8e	-0.0008554094
247	0xbce1fbaa	-0.027585823
248	0x3cc16053	0.023605501
249	0x3b868879	0.0041056243
250	0x3c0a891d	0.008455542
251	0x3d42b359	0.04753432
252	0xbbd16f5f	-0.0063914503
253	0x3dac12de	0.08402036
254	0x3e285297	0.16437756
255	0xbd163008	-0.0366669

body.block1.conv.bias f4 [32]
0	0x39c502c9	0.00037576843
1	0x3cda3c7b	0.026640167
2	0xbd535779	-0.051597092
3	0x3c70b933	0.014692592
4	0x3b8e0ecc	0.00433526
5	0xbd58414d	-0.05279665
6	0xbcbfea7e	-0.023427244
7	0x3cb2993b	0.021801582
8	0xbbfb096c	-0.0076610353
9	0xbd0ea7b9	-0.03482792
10	0x3cb2406d	0.021759236
11	0x3bf28303	0.0074008717
12	0x3c50f5ad	0.012753886
13	0xbca30e1e	-0.019904193
14	0x3d54ac38	0.051922053
15	0x3d2ed2db	0.042681556
16	0xbc83c817	-0.016086621
17	0xbcb96251	-0.022629889
18	0x3d232db3	0.039838504
19	0xbd3d6d08	-0.04624656
20	0xbd24a65a	-0.040197708
21	0x3d4d82c3	0.050173532
22	0x3b20d5c4	0.0024541477
23	0x3d3d03d5	0.046146233
24	0xbd820d9d	-0.06350253
25	0x3cea2553	0.02858225
26	0xbc068656	-0.008210739
27	0xbb95dfa0	-0.0045737773
28	0x3bba9930	0.005694531
29	0x3d51425f	0.051088687
30	0xbd37f92b	-0.04491536
31	0xbb4ae412	-0.0030958694

body.block1.norm.weight f4 [32]
0	0x3f85892a	1.0432484
1	0x3f82051f	1.0157813
2	0x3f73047e	0.9492873
3	0x3f70420c	0.9385078
4	0x3f7e4678	0.99326277
5	0x3f7c1a4c	0.98477626
6	0x3f7a3b9b	0.977472
7	0x3f710f48	0.9416394
8	0x3f6acfbe	0.9172324
9	0x3f828ee3	1.0199856
10	0x3f7b96d5	0.98277026
11	0x3f8168f5	1.0110155
12	0x3f860058	1.0468855
13	0x3f7c023b	0.98440903
14	0x3f83a91b	1.0285982
15	0x3f83d751	1.0300084
16	0x3f7ac6b5	0.9795945
17	0x3f6fb1fa	0.93630946
18	0x3f8222e8	1.0166903
19	0x3f7b6507	0.9820103
20	0x3f74f8c0	0.9569206
21	0x3f74da91	0.95646006
22	0x3f79dafb	0.9759976
23	0x3f7cc340	0.9873543
24	0x3f65a447	0.8970379
25	0x3f7669d7	0.9625525
26	0x3f7d9cb5	0.9906724
27	0x3f8142ad	1.0098473
28	0x3f8061ee	1.0029886
29	0x3f814e53	1.0102028
30	0x3f80e059	1.0068465
31	0x3f7d3d2a	0.98921454

body.block1.norm.bias f4 [32]
0	0xbe865b83	-0.26241693
1	0x3c5ab00b	0.013347636
2	0xbdd37540	-0.10325098
3	0xbe135738	-0.1438874
4	0xbdecb602	-0.11558153
5	0xbe24c84a	-0.16092029
6	0xbe2ea268	-0.1705414
7	0xbe59abba	-0.21256915
8	0xbe522192	-0.20520619
9	0xbd40b027	-0.047042992
10	0xbe0d3a26	-0.13791713
11	0xbddaa00d	-0.106750585
12	0xbdc6ea02	-0.09712602
13	0xbe84e1e0	-0.2595358
14	0xbe33a2d7	-0.17542587
15	0xbde2490d	-0.110490896
16	0xbe36cb2b	-0.1785094
17	0xbe4489d9	-0.1919321
18	0xbde397db	-0.111129485
19	0xbddda6b3	-0.10822811
20	0xbdf6f44c	-0.12058315
21	0xbdefd6f1	-0.11710919
22	0xbe50000f	-0.20312522
23	0xbc8eaa75	-0.017415265
24	0xbeb49dbb	-0.3527659
25	0xbe33b8b2	-0.17550924
26	0xbe145a23	-0.1448751
27	0xbe546f42	-0.20745566
28	0xbe3d3ecf	-0.18480991
29	0xbdd97ace	-0.10619126
30	0xbe63b99c	-0.22238773
31	0xbe62a782	-0.22134212

body.block1.norm.running_mean f4 [32]
0	0x3fd374f7	1.652007
1	0xbf856a68	-1.0423098
2	0x3fa0926c	1.2544684
3	0xbf93ecd8	-1.1556654
4	0x3f1a5a77	0.6029429
5	0xbca5cc07	-0.02023889
6	0xbf2718c4	-0.65272164
7	0xbea579f0	-0.32319593
8	0xbd9eb34b	-0.07749041
9	0x3efed18d	0.4976925
10	0xbd632e9b	-0.05546437
11	0x3f80d7ae	1.006582
12	0xbf764e71	-0.9621344
13	0x3d322231	0.04348964
14	0xbeb4919e	-0.35267347
15	0xbf0c096b	-0.5470187
16	0x3f46f0fa	0.7771145
17	0xbf6834ad	-0.90705377
18	0xbf80e793	-1.0070671
19	0xbeba8098	-0.36426234
20	0xbd17b485	-0.03703739
21	0xbf5dc5e6	-0.86630094
22	0xbf01f77a	-0.50768244
23	0xbe4018fb	-0.1875953
24	0x3f21a802	0.63146985
25	0xbdaac183	-0.08337691
26	0xbfba3dd7	-1.4550122
27	0x3f2884c5	0.6582759
28	0xbd4f049c	-0.050541505
29	0x3ede8455	0.43460336
30	0x3eafa779	0.3430746
31	0xbfa01eb0	-1.2509365

body.block1.norm.running_var f4 [32]
0	0x3f72ffc9	0.9492155
1	0x3f68a3e9	0.9087511
2	0x3fc072f3	1.503508
3	0x3f331a37	0.69961876
4	0x3f8e00de	1.1094015
5	0x3fc75cd7	1.5575207
6	0x3ebca1c0	0.36842155
7	0x3f70e1a8	0.94094324
8	0x3f26913e	0.6506537
9	0x3f5a8483	0.85358447
10	0x3f4193b0	0.7561598
11	0x3f35594e	0.70839393
12	0x3f23e963	0.64027995
13	0x3ed27c67	0.41110536
14	0x3f36bee3	0.7138502
15	0x3f52804c	0.82227015
16	0x3f14c8ca	0.5811888
17	0x3f4875d8	0.78304815
18	0x3f0bf9b5	0.546779
19	0x3ecf19c1	0.40449336
20	0x3f240e73	0.6408455
21	0x3f499672	0.78745186
22	0x3f0cc5e1	0.5498944
23	0x3f888508	1.0665598
24	0x3ef14164	0.47120202
25	0x3f1d3b0c	0.61418223
26	0x3f0069b3	0.50161284
27	0x3f3006a6	0.68760145
28	0x3f8140c8	1.0097895
29	0x3ea51d6d	0.32249013
30	0x3f5afebd	0.8554495
31	0x3f0ccbc3	0.54998416

body.block2.conv.weight f4 [32, 32, 3, 3]
0	0xba080377	-0.00051885046
1	0xbd6566db	-0.056006294
2	0xbc844343	-0.016145354
3	0xbd86426a	-0.06555636
4	0xbd66a8b0	-0.056313217
5	0xbd0285c0	-0.031865835
6	0x3d212db1	0.039350215
7	0x3d4aee04	0.049543396
8	0x3cfef294	0.03112153
9	0x3b214260	0.0024606213
10	0x3b5b9b89	0.0033509454
11	0x3d4597d3	0.048240494
12	0x3d2b65f7	0.041845288
13	0xbd42f206	-0.047594093
14	0xbc782e6b	-0.015147786
15	0xbc98e9c3	-0.018666154
16	0xbd5a3cf2	-0.05328078
17	0xbcb1036b	-0.021608075
18	0xbd38087d	-0.04492997
19	0xbbb16b31	-0.0054143895
20	0x3cac91c9	0.02106561
21	0x3d55579e	0.05208551
22	0xbca4b7d9	-0.020107197
23	0xbb9cb575	-0.0047823736
24	0xbcb073c7	-0.021539582
25	0xbd327a4c	-0.043573663
26	0xbc342ec7	-0.010997481
27	0x3ba6c217	0.0050890553
28	0xbb651895	-0.003495728
29	0xbd5d4835	-0.05402394
30	0x3c27b885	0.010236864
31	0xbce94819	-0.028476762
32	0x3c6d7cea	0.014495114
33	0xbdb93024	-0.09042385
34	0xbb63d3e0	-0.0034763739
35	0xbd81a202	-0.06329729
36	0xbb9ce057	-0.0047874856
37	0x3cb84567	0.022494031
38	0xbc3be108	-0.011467226
39	0xbdb215a5	-0.086955346
40	0xbd4438c4	-0.0479057
41	0xbbad688c	-0.005292004
42	0xbc42e119	-0.011894488
43	0x3bfb96e3	0.007677899
44	0xbd8eeb8d	-0.069785215
45	0xbd3d306e	-0.046188764
46	0xbcf29612	-0.029612575
47	0xbd2633b5	-0.040576655
48	0x3ca71a3a	0.020398248
49	0x3cfee3d4	0.031114496
50	0xbb8c5bb0	-0.004283391
51	0x3d3e5904	0.04647161
52	0x3bfc1d3f	0.007693916
53	0x3d76cc4f	0.060253438
54	0x3d14cd80	0.036328793
55	0xbcd18d3c	-0.025580041
56	0x3d97e498	0.07416648
57	0x3cf9ca86	0.030492079
58	0xbd2d3d79	-0.042294953
59	0x3cb5b8b7	0.022182805
60	0x3d3e3547	0.046437528
61	0x3c32fc60	0.010924429
62	0x3de70288	0.1127978
63	0x3ddb519a	0.10708924
64	0x3db84d30	0.08999097
65	0xbcc955fd	-0.024577135
66	0x3cd8c67f	0.026461838
67	0x3d4dd14e	0.050248437
68	0xbbfd1eda	-0.007724625
69	0x3d3e9635	0.046529967
70	0xbb043e22	-0.0020178636
71	0xbdae6fca	-0.08517416
72	0xbbe461bf	-0.00696966
73	0xbb9a8a9f	-0.004716232
74	0xbb2b26ca	-0.002611565
75	0x3bb3e7b2	0.0054902667
76	0xbcebd019	-0.028785752
77	0xbb05b804	-0.0020403871
78	0x3d801a96	0.06255071
79	0xbc95cfb2	-0.018287513
80	0x3ddf4060	0.109009504
81	0x3ce2e278	0.02769588
82	0xbce54e91	-0.027991565
83	0xbc9a2cb5	-0.018820146
84	0x3c6b3b3c	0.014357384
85	0xbd0d9880	-0.034569263
86	0xbc4485f5	-0.0119948285
87	0xbc5df790	-0.013547793
88	0x3c085e61	0.008323283
89	0xbbaf73f6	-0.0053544
90	0x3d1607f8	0.036628693
91	0xbcfacd4b	-0.03061547
92	0x3c811369	0.015756326
93	0x3d58540d	0.052814532
94	0xbd29976b	-0.04140417
95	0x3d44959f	0.047994252
96	0x3df06938	0.11738819
97	0x3d8fe640	0.070263386
98	0x3d400ddc	0.046888217
99	0xbc21513a	-0.009846026
100	0x3b827038	0.0039806627
101	0xbca4584c	-0.020061634
102	0xbc05695c	-0.008142795
103	0xbd242cc5	-0.040081758
104	0x3cdadd63	0.026716894
105	0x3dacdd2f	0.08440625
106	0x3dcd200e	0.100158796
107	0x3e0a5017	0.13507114
108	0x39b70fa7	0.00034916142
109	0x3d015b29	0.031581078
110	0xbd4e4a75	-0.050363977
111	0x3d168489	0.03674749
112	0x3da2bb03	0.07945826
113	0xbd59be55	-0.05316003
114	0x3ce41fa8	0.027847126
115	0x3d11305d	0.035446513
116	0xbc08d4f5	-0.008351554
117	0x3d2f0dd4	0.042737797
118	0xbbaf9f76	-0.0053595854
119	0xbc771b69	-0.015082219
120	0xbc530649	-0.0128799165
121	0xbd95e6d2	-0.07319416
122	0xbdc7f886	-0.09764199
123	0x3d425166	0.04744091
124	0xbcca76ae	-0.024714794
125	0xbc925bb2	-0.01786599
126	0x3dda4109	0.10656936
127	0xbb396447	-0.002828853
128	0x3d09a546	0.033604883
129	0x3cfb08fb	0.03064393
130	0x3b3befd2	0.002867688
131	0x3d17415e	0.036927573
132	0x3d5e9837	0.054344382
133	0xbd6e6d34	-0.058209613
134	0x3c32290d	0.010874045
135	0xbd806aa1	-0.06270338
136	0xbd78189b	-0.06057034
137	0xbdc95b4d	-0.09831867
138	0x3c8d4c7b	0.017248383
139	0x3d2b9096	0.041885935
140	0x3bcf9cc1	0.006335825
141	0xbd3e2c33	-0.04642887
142	0xbd6c0928	-0.05762592
143	0xbd89d9b0	-0.06730974
144	0xbd539035	-0.0516512
145	0xbd865f4e	-0.06561147
146	0xbd658021	-0.056030396
147	0x3d519ba3	0.051173817
148	0x3cf9891d	0.030460889
149	0x3cbf86ce	0.02337971
150	0x3cb3ae56	0.021933716
151	0x3ccd717a	0.025078524
152	0x3d335e05	0.043790836
153	0x3cb16f71	0.021659585
154	0x3d513a6f	0.051081117
155	0x3cc64779	0.024204003
156	0x3d2bf0c0	0.041977644
157	0xbd132dff	-0.035932537
158	0x3d42c234	0.047548488
159	0x3d2dedff	0.0424633
160	0xbd65a4aa	-0.05606524
161	0x3c830126	0.015991759
162	0xbd5a037a	-0.05322597
163	0xbd006ff7	-0.031356778
164	0xbd9d6d8f	-0.07686912
165	0xbcfd2193	-0.030899798
166	0x3c9d8ca4	0.019232102
167	0xbcdf189b	-0.027233412
168	0x3c8eb6f7	0.017421229
169	0x3ce12236	0.027482133
170	0x3d5b4cf6	0.053540193
171	0xbbde3360	-0.0067810267
172	0xbc1b3c6a	-0.009474853
173	0xbd05ffdc	-0.03271471
174	0xbd2341ca	-0.039857663
175	0x3c752f08	0.014964826
176	0xbd22b4aa	-0.039723076
177	0xbd38c754	-0.04511197
178	0xbda906b9	-0.08253235
179	0xbc0eeb2c	-0.0087230615
180	0x3d81925f	0.06326746
181	0x3a27bb0b	0.0006398416
182	0x3d1f7689	0.038931403
183	0xbca8c613	-0.020602262
184	0x3c44f225	0.012020622
185	0x3d4d1f19	0.050078485
186	0xbda11b4a	-0.07866533
187	0xbd36cdd3	-0.044629883
188	0x3d7143dd	0.05890261
189	0xbd068014	-0.03283699
190	0xbd07e0ab	-0.033173244
191	0x3c9dbada	0.019254137
192	0x3d6d5072	0.057938047
193	0x390ce0ad	0.00013435139
194	0x3cf4aca2	0.029867474
195	0x3da7dc4f	0.081963174
196	0x3d4cd77d	0.050010193
197	0x3d7c793e	0.061639063
198	0x3d80353c	0.06260154
199	0x3d045391	0.032306258
200	0x3d55f77f	0.052237984
201	0x3deefd37	0.11669391
202	0x3cffef60	0.031242073
203	0x3cb2bb81	0.021817924
204	0x3d62cbfe	0.055370323
205	0x3d255add	0.040369857
206	0xbd042608	-0.032262832
207	0x3bbe41cf	0.005806185
208	0xbcd424c4	-0.025896437
209	0x3b848102	0.0040436992
210	0x3c36d6b0	0.011159584
211	0xbd99b32c	-0.075048774
212	0xbc1aec6e	-0.009455783
213	0x3d98f7fc	0.07469174
214	0x3cde01fa	0.027100552
215	0x3c84a6b1	0.016192766
216	0x3cdcd27d	0.026955837
217	0xbc67a43c	-0.014138278
218	0xbd8ec567	-0.06971245
219	0x3c29bf22	0.010360511
220	0xbd392677	-0.0452027
221	0xbdc7b42e	-0.097511634
222	0xbd9f4849	-0.07777459
223	0x3cd393c4	0.025827296
224	0xbd816ca7	-0.06319552
225	0x3cddae6b	0.027060708
226	0xbc3b062e	-0.011415048
227	0x3c18918b	0.009312044
228	0xbcc20861	-0.023685636
229	0x3d158355	0.0365022
230	0x3c567fe2	0.013092013
231	0x3da102b0	0.07861841
232	0x3da7da22	0.081959024
233	0xbd1beb15	-0.03806599
234	0x3cd609ab	0.026127657
235	0xbc94f4e5	-0.018183181
236	0xbcca2c8f	-0.02467945
237	0x3cee5157	0.02909152
238	0xbb71cbf8	-0.0036895256
239	0xbbbcd546	-0.005762729
240	0xbd068c26	-0.0328485
241	0xbd15c34d	-0.036563206
242	0xbc7f8ed7	-0.0155980205
243	0x3dc74de4	0.09731653
244	0xbcc599e7	-0.024121238
245	0xbde743d5	-0.11292235
246	0x3d0bb1f8	0.03410527
247	0xbd3c7a80	-0.046015263
248	0xbcf55407	-0.029947294
249	0x3df35005	0.11880497
250	0xbd3650f3	-0.044510793
251	0xbd51c99c	-0.05121766
252	0xbcaaa120	-0.020828784
253	0x3c3f6a19	0.0116830105
254	0xbd06540d	-0.032795
255	0xbd7d58a7	-0.061852124

body.block2.conv.bias f4 [32]
0	0xbcce87c1	-0.025211217
1	0xbd568cba	-0.0523803
2	0xbd39f57a	-0.04540012
3	0xbd7230a5	-0.059128422
4	0x393056de	0.00016817029
5	0x3d095f7a	0.03353832
6	0x3c9c1aa6	0.019055676
7	0xbc7ff000	-0.015621185
8	0xbd4fa5ac	-0.050695106
9	0xbc8b8b2d	-0.017034138
10	0xbc97f102	-0.018547539
11	0xbd1e0dc7	-0.038587358
12	0xbca591a4	-0.020211048
13	0x3cfac50c	0.030611537
14	0xbd3a30ee	-0.04545682
15	0x3d2d663a	0.04233382
16	0x3d6810cb	0.05665664
17	0xbc7b6968	-0.015344955
18	0xbbe850b7	-0.0070897
19	0xbd834a4b	-0.06410655
20	0x3d594750	0.053046525
21	0x3ceda76b	0.029010495
22	0xbd2ac7d6	-0.041694485
23	0xbd080d97	-0.033216085
24	0x3c85516f	0.016274182
25	0xbd3ad6a7	-0.045614865
26	0x3c3db3b8	0.011578493
27	0xbd4ec72a	-0.050482906
28	0xba14dbcd	-0.0005678505
29	0x3c5310fd	0.012882468
30	0xbd59df94	-0.053191736
31	0x3d36aa84	0.04459621

body.block2.norm.weight f4 [32]
0	0x3f7c004d	0.9843796
1	0x3f7ef6ef	0.9959554
2	0x3f5a0f2a	0.8517939
3	0x3f85d4a8	1.0455523
4	0x3f674edf	0.9035472
5	0x3f838b0e	1.0276811
6	0x3f795249	0.9739118
7	0x3f80968f	1.0045947
8	0x3f804992	1.0022452
9	0x3f7fff49	0.9999891
10	0x3f6a5d96	0.9154905
11	0x3f829e0c	1.0204482
12	0x3f68d46c	0.9094913
13	0x3f87ce0a	1.0609753
14	0x3f82e72c	1.0226798
15	0x3f80ed10	1.0072346
16	0x3f72acab	0.9479472
17	0x3f810709	1.0080272
18	0x3f7d8473	0.99030226
19	0x3f86d8a9	1.053487
20	0x3f71c116	0.9443525
21	0x3f7fda0c	0.9994209
22	0x3f82c435	1.0216128
23	0x3f738f78	0.9514079
24	0x3f6a257a	0.91463435
25	0x3f781f33	0.96922606
26	0x3f758730	0.95909405
27	0x3f7d7886	0.9901203
28	0x3f80fc3a	1.0076973
29	0x3f887d01	1.0663148
30	0x3f86680f	1.0500506
31	0x3f84b3b0	1.0367336

body.block2.norm.bias f4 [32]
0	0xbe0f21cc	-0.13977736
1	0xbe35533f	-0.17707537
2	0xbe7be275	-0.24598105
3	0x3ce62ed3	0.0280985
4	0xbe963f34	-0.29345095
5	0xbd8fa1fd	-0.07013319
6	0xbe49c4b3	-0.19703941
7	0xbe30df26	-0.17272624
8	0xbe826951	-0.25470975
9	0xbe64e0f3	-0.22351436
10	0xbe61f146	-0.22064695
11	0xbdde2288	-0.1084643
12	0xbe0474ab	-0.1293513
13	0xbda46643	-0.080273174
14	0xbd955cbe	-0.0729308
15	0xbddf0f56	-0.10891597
16	0xbe36f9d8	-0.17868745
17	0xbe8c1ffe	-0.27368158
18	0xbe6babcc	-0.23014754
19	0xbdb81170	-0.08987701
20	0xbdfc0a79	-0.12306685
21	0xbe76a49a	-0.24086228
22	0xbe31084b	-0.1728832
23	0xbe3a637a	-0.1820201
24	0xbe4e4339	-0.20142831
25	0xbe6c1c65	-0.23057707
26	0xbdc9ce20	-0.09853768
27	0xbe5d1680	-0.21590614
28	0xbe64cdd1	-0.22344138
29	0xbe1c5067	-0.15265046
30	0xbcaebd61	-0.021330537
31	0xbe89a1ad	-0.2688116

body.block2.norm.running_mean f4 [32]
0	0x3e4b805e	0.19873187
1	0xbec95e09	-0.39329556
2	0xbcc9d90b	-0.024639627
3	0xbe941c2b	-0.2892774
4	0x3f23e9a9	0.6402841
5	0xbeb7d17b	-0.35902008
6	0x3ed05f11	0.4069753
7	0xbe98a8e8	-0.29816365
8	0xbc38ca60	-0.011278719
9	0xbe8b528f	-0.27211425
10	0xbec5776e	-0.3856768
11	0x3e1b6b24	0.1517759
12	0xbe9cef0f	-0.30651137
13	0x3ee8ba72	0.45454746
14	0xbdfbbad6	-0.122914955
15	0xbe892c0d	-0.2679142
16	0xbe9ca69f	-0.30595872
17	0x3ecddfd5	0.40209833
18	0xbeed261e	-0.46318144
19	0xbf013782	-0.50475323
20	0x3f655d52	0.8959552
21	0x3e38d73a	0.18050852
22	0x3e0e3200	0.13886261
23	0xbe704bbc	-0.2346639
24	0xbe9a3250	-0.3011651
25	0xbe64f3ca	-0.22358623
26	0x3e718e64	0.23589474
27	0x3ed4843e	0.41507143
28	0xbd7921a3	-0.060823094
29	0xbf5c8fe7	-0.8615708
30	0x3e24a3b2	0.1607807
31	0x3e5a4a5b	0.21317427

body.block2.norm.running_var f4 [32]
0	0x3f4b7e59	0.79489666
1	0x3eee3f02	0.46532446
2	0x3f944670	1.1583996
3	0x3fed5060	1.8540154
4	0x3edb3950	0.42817163
5	0x3f4328d6	0.76234186
6	0x3f071f57	0.52782196
7	0x3f11ab75	0.5690225
8	0x3eb4964a	0.3527091
9	0x3f0d943c	0.5530431
10	0x3f304188	0.6884999
11	0x3f07e981	0.53090674
12	0x3f8aabea	1.0833714
13	0x3f2a9b10	0.66642857
14	0x3eb9c9cf	0.3628678
15	0x3e7bb7f9	0.24581899
16	0x3f1f9523	0.6233694
17	0x3ed23708	0.4105761
18	0x3ecfd9a1	0.40595725
19	0x3f297267	0.6619019
20	0x3f2bb5a2	0.67074025
21	0x3f8ec7b0	1.115469
22	0x3f4a9250	0.79129505
23	0x3ec58abe	0.38582414
24	0x3f3a68bb	0.72816056
25	0x3f36e945	0.7144969
26	0x3f111434	0.5667145
27	0x3f4dff1b	0.80467385
28	0x3f6bae2d	0.92062646
29	0x3f6472b4	0.89237523
30	0x3eea2f10	0.4573903
31	0x3f06eb9b	0.52703255

body.block3.conv.weight f4 [32, 32, 3, 3]
0	0xbd287663	-0.041128527
1	0x3d8187a0	0.063246965
2	0x3c31d597	0.010854146
3	0xbd6538cd	-0.055962373
4	0xbd0315d1	-0.032003228
5	0xbd37020b	-0.044679683
6	0xbc72ca43	-0.014818731
7	0xbd55d901	-0.052208904
8	0xbd98429d	-0.074345805
9	0x3b5003f7	0.0031740644
10	0x3d0f64df	0.035008308
11	0xbbabe166	-0.0052453754
12	0xbcffc710	-0.03122285
13	0x3ccde532	0.025133703
14	0xbd3cc168	-0.046082884
15	0x3c631358	0.013859592
16	0x3d3d5da8	0.046231896
17	0xbd59f7aa	-0.053214706
18	0x3d405f42	0.046965845
19	0x3dcd6a2c	0.10030016
20	0x3da88351	0.082281716
21	0x3d20a7de	0.03922259
22	0x3d8755ea	0.06608184
23	0x3d5c0c63	0.05372275
24	0xba903946	-0.0011003397
25	0x3bfce6b1	0.0077179302
26	0x3cdb1470	0.026743144
27	0x3d0755f8	0.03304097
28	0x3c4ec4ed	0.012620193
29	0xbd3d8727	-0.04627147
30	0x3c40ccf5	0.011767616
31	0xbd47b890	-0.048759997
32	0xbdbb1ae0	-0.091359854
33	0x3c96b052	0.018394623
34	0xbcecef63	-0.028922742
35	0xbde639ef	-0.11241519
36	0xbda7adac	-0.08187422
37	0x3b35bc79	0.0027730747
38	0x3c8e42aa	0.017365772
39	0xbd58dcf1	-0.05294508
40	0x3c84fc7b	0.016233673
41	0x3d472c14	0.04862602
42	0xbd519681	-0.051168922
43	0xbae1b6c7	-0.001722061
44	0x3cabba82	0.020962957
45	0x3d529405	0.051410694
46	0x3d68470a	0.056708373
47	0x3a19d231	0.0005867808
48	0xbce0f9cf	-0.027462868
49	0x3c1b7acb	0.009489725
50	0xbc9c8d5e	-0.019110378
51	0xbd62c8ff	-0.055367466
52	0xbcd5e9d1	-0.026112469
53	0x3c8902d7	0.016724987
54	0x3d4afa34	0.04955502
55	0x3dbb8813	0.091568135
56	0x3d98d8f6	0.07463257
57	0x3cccffea	0.025024373
58	0x3d640a3a	0.055673815
59	0x3d1951fc	0.037431702
60	0xbd2d346e	-0.04228633
61	0xbc23561c	-0.009969261
62	0xbce6062d	-0.028079117
63	0x3d16a56d	0.036778856
64	0x3c60f898	0.013731144
65	0xbbc74f70	-0.0060824677
66	0x3d48805a	0.04895053
67	0x3b9de598	0.0048186295
68	0xbd5b90cc	-0.053604886
69	0x3dc0dbed	0.094169475
70	0x3d2f7dfb	0.042844754
71	0xbcd64f1f	-0.026160775
72	0xbd72bb12	-0.059260435
73	0x3cae1659	0.02125089
74	0x3c814a57	0.015782518
75	0xbc9a1fcc	-0.01881399
76	0xbd801d65	-0.062556066
77	0xbdd36464	-0.10321882
78	0xbcf02829	-0.029316025
79	0xbd9db9b5	-0.077014364
80	0xbdded4ac	-0.10880408
81	0x3d9b5c81	0.07586003
82	0x3c554520	0.013016969
83	0x3d5974b9	0.05308983
84	0x3d610e1f	0.054945108
85	0x3d3c6afe	0.046000473
86	0x3dfcacb3	0.12337627
87	0x3cddfab3	0.027097082
88	0x3d56fbb2	0.05248613
89	0x3d44ed5e	0.048077933
90	0x3d8b7c8a	0.06810863
91	0x3d5ec2ff	0.05438518
92	0xbb3fee8c	-0.0029286472
93	0xbc9a63fa	-0.0188465
94	0x3ccbe368	0.02488871
95	0x3d233ab2	0.039850898
96	0x3d56be1a	0.05242739
97	0x3d998a1f	0.07497048
98	0x3cde352c	0.027124964
99	0xbd1a1a51	-0.037622754
100	0xbcc44a23	-0.023961132
101	0xbc6704e2	-0.014100285
102	0xbd62e0bd	-0.05539011
103	0xbcebc5f0	-0.028780907
104	0x3cc4d5ac	0.024027668
105	0xbbe8c7fa	-0.007103917
106	0xbd178b25	-0.036997933
107	0xbc586150	-0.013206795
108	0xbcc2317d	-0.023705238
109	0x3db44b3f	0.088034146
110	0x3d8497b9	0.06474251
111	0xbcd68ffc	-0.026191704
112	0x3c25e484	0.010125283
113	0x3d24cc20	0.04023373
114	0xbd749c05	-0.059719104
115	0x3b597657	0.0033182108
116	0xbd108c9e	-0.035290353
117	0x3d56b5b4	0.05241938
118	0x3db260c7	0.08709865
119	0x3df0daf1	0.1176051
120	0xbd327c02	-0.043575294
121	0x3d5f9ecb	0.054594796
122	0x3d672c84	0.056438938
123	0xbdd2b488	-0.1028834
124	0xbd9cc633	-0.07654991
125	0xbda48b35	-0.08034364
126	0x3d6651a9	0.05623022
127	0x3d811ee0	0.06304717
128	0x39e71fcf	0.00044083453
129	0x3c136c6b	0.008998017
130	0xbbe07a33	-0.006850505
131	0xbd3c427d	-0.045961846
132	0xbc2c7b4b	-0.010527442
133	0x3c9bc574	0.019015051
134	0xbd508938	-0.050912112
135	0x3b522d0e	0.0032070312
136	0xbd955268	-0.07291108
137	0xbcdf9387	-0.027292026
138	0x3adafa56	0.0016706686
139	0xbd020805	-0.03174593
140	0xbcce34e1	-0.025171699
141	0x3d3feab5	0.046854693
142	0xbd5ea65f	-0.054357883
143	0xbd8c048d	-0.068368055
144	0x3c215c62	0.009848686
145	0x3d74ce4d	0.059767056
146	0x3decbe9d	0.11559794
147	0xbd1fada8	-0.03898397
148	0x3cbc4a6a	0.022984702
149	0x3d4bd9b7	0.049768176
150	0x3b814635	0.003945137
151	0x3d0c19cc	0.03420429
152	0x3d973915	0.073839344
153	0x3cd078b8	0.025448188
154	0x3d59aeb8	0.05314514
155	0x3c95f49d	0.018305117
156	0xbc20efad	-0.009822768
157	0x3d044be6	0.032298945
158	0x3dbed670	0.093182445
159	0xbc56a826	-0.013101613
160	0x3d31ebcb	0.04343776
161	0x3d5db2bc	0.054125533
162	0xbca0fd0b	-0.01965191
163	0xbce1bb86	-0.027555238
164	0xbde49ffe	-0.111633286
165	0xbc9fef54	-0.0195233
166	0xbd7b37be	-0.061332457
167	0xbb71595b	-0.0036826942
168	0x3bcc7edf	0.00624071
169	0xbd23f6a9	-0.040030155
170	0xbd8fdcc0	-0.070245266
171	0xbd12c287	-0.035830047
172	0xbc26c521	-0.010178835
173	0x3d0bc370	0.03412193
174	0xbcf248d9	-0.029575752
175	0xbc983719	-0.01858096
176	0xbd1166ab	-0.035498302
177	0xbcfd7cef	-0.030943362
178	0xbdd3d123	-0.10342624
179	0xbd4044e3	-0.046940695
180	0xbc95fd93	-0.01830939
181	0xbbb48589	-0.0055090827
182	0xbd0335d7	-0.032033768
183	0xbcdebbd0	-0.027189165
184	0x3a7aa083	0.0009560661
185	0xbbda2875	-0.006657655
186	0xbd4cb1ce	-0.049974255
187	0xbc6e1ef2	-0.014533745
188	0x3ca9126e	0.02063867
189	0x3d169a1a	0.036768056
190	0xbcc93dc8	-0.024565592
191	0xbd134ced	-0.035962034
192	0x3d9b4003	0.07580569
193	0x3c8b7af6	0.017026406
194	0x3d7891de	0.060685985
195	0x3dbde530	0.0927223
196	0x3d542c78	0.05180022
197	0x3cd24cb3	0.025671339
198	0x3b9e539c	0.0048317444
199	0x3b00e55e	0.0019667963
200	0xbcad6640	-0.02116692
201	0x3d3bc9c7	0.045846727
202	0xbc31e0f0	-0.010856852
203	0xbc86fe7b	-0.016478768
204	0x3cb7aef2	0.022422288
205	0x3aaa8a70	0.0013011228
206	0x3b817032	0.0039501423
207	0xbcecceb3	-0.028907156
208	0x3d2f42c6	0.04278829
209	0x3ded8de8	0.11599332
210	0x3d66b040	0.05632043
211	0x3cd07b05	0.025449285
212	0x3c761c2e	0.015021367
213	0x3c6d5811	0.014486329
214	0x3d5d218c	0.05398707
215	0x3c9ade4e	0.018904831
216	0x3d0f3c86	0.03496983
217	0x3cd001c1	0.025391461
218	0x3c6c499c	0.014421847
219	0x3c9d01ce	0.0191659
220	0x3af5ae12	0.0018743894
221	0xbd3d5c05	-0.046230335
222	0xbd1ab633	-0.037771415
223	0xbd09f89a	-0.03368435
224	0xbd31d881	-0.043419365
225	0xbd9d2a17	-0.076740436
226	0xbd96ace6	-0.073571965
227	0xbdb22ea2	-0.08700301
228	0x3bd03eb7	0.0063551324
229	0x3ab891a5	0.0014081491
230	0xbc1f1dab	-0.009711663
231	0xbd308962	-0.04309977
232	0xbd399175	-0.045304734
233	0xbd7138c1	-0.058892015
234	0xbc9c0490	-0.019045144
235	0xbd1cd6ac	-0.038290665
236	0xbd3c85c1	-0.046025995
237	0xbc1dfbcb	-0.009642552
238	0x3b147549	0.0022652915
239	0xbcbd3b84	-0.023099668
240	0x3c30523e	0.010761796
241	0x3d5335fd	0.05156516
242	0x3ced2561	0.028948488
243	0x3bd21b3f	0.0064119394
244	0xbc1b6663	-0.00948486
245	0xbd05ae41	-0.032636885
246	0x3d201d36	0.039090358
247	0x3dcc8423	0.099861406
248	0x3d30f65d	0.0432037
249	0x3d23d6c0	0.039999723
250	0x3cd47466	0.02593441
251	0xbcb57f23	-0.02215535
252	0xbcba657f	-0.022753475
253	0xbd0cdec2	-0.034392126
254	0xbd21f92a	-0.039544262
255	0xbc61bbe6	-0.013777709

body.block3.conv.bias f4 [32]
0	0xbcb20e3a	-0.0217353
1	0xbc0c3101	-0.008556605
2	0xbb8ca72b	-0.004292389
3	0xbd5a6d51	-0.05332691
4	0xbd309dc6	-0.043119214
5	0x3d8dfd02	0.06933023
6	0x3c320968	0.0108665
7	0x3ca24675	0.019808987
8	0x3bf5307b	0.007482586
9	0xbd04a9ef	-0.032388624
10	0x3d05f3df	0.032703277
11	0x3c8e40f2	0.017364953
12	0x3d796209	0.06088451
13	0xbaec74b9	-0.0018040157
14	0xbd18ef92	-0.037337847
15	0xbcb595cb	-0.022166153
16	0xbc8072f3	-0.015679812
17	0x3d0d20ba	0.03445504
18	0xbc873014	-0.016502418
19	0x3d14e27d	0.03634881
20	0x3c6b2e89	0.014354357
21	0xbca3c542	-0.01999152
22	0x3c1846ea	0.009294251
23	0x3d5789b6	0.052621566
24	0xbc8329d3	-0.016011154
25	0x3d599de7	0.053129103
26	0x3d352f27	0.04423442
27	0x3ca85ceb	0.02055212
28	0x3d34488b	0.044014495
29	0xbcf62678	-0.03004764
30	0x3c0dcaac	0.008654278
31	0xbc08cb48	-0.008349247

body.block3.norm.weight f4 [32]
0	0x3f6199a9	0.8812509
1	0x3f5716d5	0.84019214
2	0x3f590c3c	0.84784293
3	0x3f54c407	0.83111614
4	0x3f565293	0.8371975
5	0x3f5771da	0.841581
6	0x3f55b7eb	0.8348376
7	0x3f4886ef	0.7833089
8	0x3f434d31	0.7628966
9	0x3f553a99	0.8329254
10	0x3f4591ec	0.77175784
11	0x3f40bdc3	0.75289553
12	0x3f40bdb8	0.7528949
13	0x3f6911ed	0.9104298
14	0x3f6084f3	0.87702864
15	0x3f30e185	0.69094115
16	0x3f469589	0.7757192
17	0x3f42fb8d	0.76165086
18	0x3f5dc605	0.8663028
19	0x3f51b0db	0.81910485
20	0x3f6a502c	0.9152858
21	0x3f4b32f2	0.7937461
22	0x3f465080	0.77466583
23	0x3f61522b	0.88016003
24	0x3f3f30f3	0.74684066
25	0x3f4c344e	0.7976731
26	0x3f492994	0.7857907
27	0x3f50f079	0.8161693
28	0x3f44318b	0.76638097
29	0x3f64190c	0.8910072
30	0x3f3dbf03	0.74119586
31	0x3f5476ef	0.8299398

body.block3.norm.bias f4 [32]
0	0xbe472fcd	-0.19451828
1	0xbe1265db	-0.14296667
2	0xbecbb143	-0.39783677
3	0xbe9438f1	-0.28949693
4	0xbe2ca328	-0.16859114
5	0xbe4c6fd9	-0.19964541
6	0xbe42fe75	-0.1904238
7	0xbe7ed310	-0.24885201
8	0xbe6dea9b	-0.23234026
9	0xbe86bfb5	-0.26318136
10	0xbe8f2084	-0.27954495
11	0xbe58d0a9	-0.21173348
12	0xbe8584c6	-0.2607786
13	0xbe92a66d	-0.28642598
14	0xbe115418	-0.14192235
15	0xbe3e07db	-0.18557684
16	0xbe8c3f72	-0.27392155
17	0xbe9d9cc6	-0.3078367
18	0xbdf3c547	-0.11902862
19	0xbe7baee3	-0.24578433
20	0xbe9e8ae7	-0.3096535
21	0xbe8f6302	-0.28005224
22	0xbe786549	-0.24257387
23	0xbe8be3c4	-0.2732221
24	0xbe866ef0	-0.26256514
25	0xbe87d13b	-0.26526818
26	0xbe4d9eba	-0.2008008
27	0xbe76c901	-0.24100114
28	0xbe969454	-0.2941004
29	0xbe940eb2	-0.28917462
30	0xbe8833ec	-0.26602113
31	0xbe6d799b	-0.2319092

body.block3.norm.running_mean f4 [32]
0	0xbeac4f12	-0.33654076
1	0xbe50bd43	-0.20384698
2	0xbf05a626	-0.5220665
3	0xbf05eeab	-0.52317303
4	0xbf33be21	-0.7021199
5	0xbd127ab2	-0.035761543
6	0x3ec242c8	0.37941575
7	0xbf06910a	-0.5256506
8	0xbf0e6d1a	-0.55635226
9	0xbdfed6c6	-0.124433085
10	0xbe51a774	-0.20474035
11	0xbdc285f1	-0.094982035
12	0xbe5fc55e	-0.21852633
13	0xbd9532f7	-0.072851114
14	0x3f355221	0.70828444
15	0x3c59424e	0.013260437
16	0xbeec76fd	-0.4618453
17	0xbe6e52ba	-0.23273745
18	0x3d046c41	0.0323298
19	0xbe95f40f	-0.29287764
20	0xbdf68698	-0.120373905
21	0xbf17ea22	-0.59341633
22	0xbe15b29e	-0.14618918
23	0x3d78d15b	0.060746532
24	0x3db359e0	0.08757377
25	0xbdef17fb	-0.11674496
26	0xbf011764	-0.50426316
27	0xbdfd19fb	-0.12358471
28	0xbedb15da	-0.4279011
29	0xbe97e01d	-0.29663172
30	0xbe209278	-0.15680873
31	0xbea365f9	-0.31913736

body.block3.norm.running_var f4 [32]
0	0x3fdc1aac	1.719564
1	0x3f82abc0	1.0208664
2	0x3f5814aa	0.8440653
3	0x3ffec547	1.9903954
4	0x3f9d7e4c	1.2304168
5	0x3f7ed771	0.9954749
6	0x3f87c5bc	1.0607219
7	0x3f9c3b06	1.2205513
8	0x3f259956	0.646871
9	0x3f82ae57	1.0209454
10	0x3f9703cd	1.1798035
11	0x3f4438fc	0.7664945
12	0x3fcc6108	1.5967112
13	0x3f0d785c	0.5526178
14	0x3fdda624	1.7316327
15	0x3f1a034c	0.6016128
16	0x3f8da115	1.1064783
17	0x3f754e69	0.9582277
18	0x3f8dd42c	1.1080375
19	0x3f96e585	1.1788794
20	0x3e55895c	0.2085318
21	0x3f8324af	1.024557
22	0x3f1c9771	0.6116858
23	0x3f85df41	1.0458757
24	0x3f04ce0c	0.518769
25	0x3f169c14	0.58831906
26	0x3f80f51f	1.0074805
27	0x3fbd9b44	1.4813008
28	0x3f37cb4d	0.7179459
29	0x3fcabb01	1.5838319
30	0x3f70e99d	0.94106466
31	0x3fb4596b	1.4089788
