code/Output/balloons/pdl_e8000_1px_lr0.0007a3.0_up-conv5_1_W[1.0, 0.5, 0.1, 0.075, 0.075](2)/7/netG.pth (torch, 471621 bytes, 26 tensors)

head.conv.weight f4 [64, 3, 3, 3]
000000 92 cd 2a bd 73 e9 07 3c 7b 62 fe 3d 8c f3 38 3d
       -0.041699953 0.008295405 0.124211274 0.04515414
000010 1e 39 27 be 92 17 06 3e e9 a8 0e bd 31 42 08 be
       -0.16330382 0.13094929 -0.034829054 -0.133065
000020 09 23 a6 3d 98 11 17 bd ca 84 a0 3b 09 42 f0 3c
       0.08112151 -0.036882013 0.004898642 0.029328363
000030 a2 3d 32 3d 20 6f 09 be fb 0b b4 3d 7b 95 aa bb
       0.04351581 -0.13421297 0.087913476 -0.0052058077
000040 5c 37 c7 bd 01 7b fd 3d 0d 11 aa bd 7f 0f 07 bd
       -0.09727356 0.12376977 -0.083040334 -0.032973763
000050 c7 60 14 bd a6 03 d9 3c 46 33 7c bd 03 1d df 3b
       -0.036225107 0.026490998 -0.061572336 0.0068088784
000060 b3 07 ba bc f0 8b f8 3c 83 b9 a0 3d 1a 91 7d 3c
       -0.02270875 0.030340165 0.078478836 0.015476489
000070 58 aa b8 3d 50 dc 34 bd 40 71 cb 3d a9 29 dc 3d
       0.090168655 -0.04415542 0.0993371 0.107501335
000080 d5 75 51 bd 40 86 d7 3d f5 b5 17 3e 4b 5c ab 3d
       -0.051137764 0.10523653 0.14815505 0.08367213
000090 89 c9 14 3c f9 81 70 bc 47 38 9f bd e5 e0 26 3c
       0.009081253 -0.014679425 -0.07774406 0.010185455
0000a0 4b a1 11 3d bf 98 90 bd ab 6e 16 bc 53 f8 20 bc
       0.03555421 -0.07060384 -0.009181659 -0.00982483
0000b0 9e 25 a2 bd a2 17 32 bd 77 a1 86 bc 1a 30 34 bd
       -0.07917331 -0.04347957 -0.016434414 -0.043991186
0000c0 75 fc 81 bc 62 97 e5 3b 64 aa 03 bd 54 c7 c2 bd
       -0.015867451 0.0070065716 -0.03214492 -0.09510675
0000d0 ec 8d 0b bd e7 38 9b bd c5 7a df 3c b9 a6 32 3d
       -0.034070894 -0.07579213 0.02728022 0.04361603
0000e0 4d 51 44 bc 89 38 80 bd ff 45 02 3d 98 3c 4f 3d
       -0.011982274 -0.06260783 0.031805035 0.050594896
0000f0 52 48 f1 bd ac 78 ec bd 39 e6 3d 3e c8 34 8a 3c
       -0.11781372 -0.11546454 0.18544854 0.016870871
000100 d5 df 27 3d 0c 75 00 3d 81 4c d9 bc 12 c3 7a 3d
       0.040984947 0.031361625 -0.026525738 0.06122119
000110 ac 5d 33 3d 2f 81 89 bd 7e d0 b9 bd 7a 59 97 3d
       0.043790504 -0.06714093 -0.0907297 0.07390113
000120 7d 34 36 3d 99 14 04 3d 78 97 55 bd 1d 11 24 3c
       0.04448365 0.032246206 -0.052146405 0.010013846
000130 42 28 93 3d 29 1f ad bc 79 d6 62 bd 8c 7d d4 bd
       0.07185413 -0.021133022 -0.05538032 -0.10375509
000140 77 10 01 bc 0f 0e 70 ba ec b1 76 3d 85 f6 99 bc
       -0.007877461 -0.00091573683 0.060228273 -0.018794307
000150 91 b4 cc bd e4 2f 86 3c d7 9e f5 3d 43 ab 3f bd
       -0.09995378 0.016380258 0.11993187 -0.046794187
000160 e5 9c 51 3b 39 ea fb 3d e7 01 ec 3d 52 a7 82 3c
       0.0031984386 0.12300534 0.115238 0.015948925
000170 4e 7d 26 be c5 c1 68 3d 27 87 49 bd 9b a0 f1 bd
       -0.16258737 0.056825418 -0.049201157 -0.11798211
000180 5f d4 0a 3c 84 d3 18 bd 35 c4 6c bd ca f8 49 3e
       0.008473485 -0.037311092 -0.057804305 0.19723812
000190 f9 17 6f 3d 40 03 73 be 79 10 10 3e a0 f7 2d 3c
       0.05837247 -0.23731709 0.14068784 0.01061812
0001a0 6b 35 cf bd 08 d4 cd 3d 9e bb de 3c e1 0a 3f bd
       -0.101176105 0.100502074 0.027189072 -0.046641234
0001b0 e1 d0 3a bd 14 cb 94 3d 93 79 68 3d 39 97 5e bd
       -0.04560936 0.072652966 0.056756567 -0.054343436
0001c0 ed d4 47 bc 39 7e 99 bd 30 5f 56 3d 30 77 50 3d
       -0.012196762 -0.07494778 0.05233687 0.050894916
0001d0 b6 0d 6b bc 03 79 b1 bd 47 99 8c bd 7b f7 8d bd
       -0.014346531 -0.08665659 -0.06865173 -0.06931969
0001e0 20 4a 68 bd 15 ab 07 be 35 68 dd bd 7f bd b4 3d
       -0.056711316 -0.13248856 -0.108108915 0.08825206
0001f0 95 13 13 bb 61 b9 ca 3c 47 60 31 3c 2d 24 36 bd
       -0.0022442092 0.024746599 0.010826177 -0.044468094
000200 98 0c 6e bc 61 a3 03 3d c9 12 8d bd 75 c8 79 bd
       -0.01452937 0.032138232 -0.068883486 -0.060982186
000210 ad e0 ec 3d f8 9f 5f 3d 93 9a 10 3d e2 9a 04 bd
       0.11566291 0.054595917 0.035303663 -0.03237427
000220 b8 b3 10 bd 50 7f 10 bd 4c 2b 0c be ed a9 01 be
       -0.035327643 -0.035277665 -0.13688391 -0.12662478
000230 69 b8 df bd c4 9b 82 bb 9e 9b 66 bd 86 76 b3 3c
       -0.10923845 -0.003985854 -0.056300752 0.021907102
000240 e6 f9 e7 3d 2f 54 bf 3d 02 bb 26 bc 7f 80 04 3e
       0.11326961 0.093422286 -0.010176422 0.12939642
000250 1f 64 bd 3d 04 21 2c 3d 1b 01 11 3e e7 e4 0a 3e
       0.09247612 0.042023674 0.14160578 0.13563882
000260 9e 48 4a 3e 5a 99 b1 3c 86 46 78 bd ad db a4 bd
       0.19754264 0.021679569 -0.06061413 -0.08049712
000270 34 7e 62 bd 10 50 8d bd 44 e6 81 bd ee fb 70 bd
       -0.055296138 -0.06900036 -0.06342748 -0.05883401
000280 7f b5 74 bd 27 83 06 bc b6 a7 d7 bd d8 92 2b be
       -0.0597434 -0.00820998 -0.10530035 -0.16755235
000290 db 87 df bd 1b 46 bf 3d 3b 60 66 3d 2e d7 8f bc
       -0.10914584 0.093395434 0.056244116 -0.01755866
0002a0 56 5e d6 3d 1e 81 56 3d 9f 3f 04 bd 5e 7d d0 bc
       0.10467212 0.05236923 -0.032287236 -0.025450405
0002b0 2a 5b 11 be 52 6c ad bd 63 2d c2 3d de f4 32 3d
       -0.14194933 -0.08467926 0.09481313 0.043690555
0002c0 52 bc b6 bd d6 f9 3e 3d b3 07 ab 3d 49 59 22 3d
       -0.08922638 0.04662498 0.08351078 0.03963593
0002d0 7d 5c c9 bc a7 ff db bd 66 e3 9c bd 26 7b e5 3d
       -0.024580235 -0.10742121 -0.0766056 0.11205129
0002e0 6d 8d cb bc 02 20 00 bd b6 06 8d 3d 1f 79 10 3e
       -0.02484771 -0.031280525 0.06886046 0.14108704
0002f0 b1 ca 8d 3d ea 82 f0 bb ab 26 cc 3c c9 b8 ee bc
       0.06923426 -0.007339825 0.024920782 -0.029140847
000300 ec e7 cd ba 9c 08 14 bd cb db 59 bd 44 93 8d bd
       -0.0015709377 -0.036141023 -0.053188127 -0.06912854
000310 ce 11 c8 bc ca c7 d9 bd a1 db 40 3e 2a 1d 67 3e
       -0.024422552 -0.1063381 0.18833782 0.22569719
000320 c4 6a a4 3d a5 4b 8d 3d 8e cd f9 3d db ec 77 39
       0.080281764 0.06899194 0.121974096 0.00023643991
000330 7e ab bb 3d 75 05 4c 3d b0 ef 86 bc 18 dd 0a 3e
       0.09163569 0.04980989 -0.016471714 0.13560903
000340 93 b6 2c 3e f0 37 e0 3d 15 e7 88 bc 3f b8 a2 3d
       0.16866522 0.10948169 -0.016711751 0.079452984
000350 70 36 44 bc 3d 83 12 bd c8 e6 9d 3c cd be 9c ba
       -0.01197587 -0.03576969 0.019275084 -0.0011958719
000360 dd cc 1f be 29 41 6e bc d7 ee 86 bd c8 92 88 be
       -0.15605493 -0.014541903 -0.06588524 -0.26674485
000370 3e be 7d bc ee 3b 5c bc 0c 7f 10 be 2b 46 42 3c
       -0.015487252 -0.013442023 -0.14110965 0.01185755
000380 e3 08 48 bd 62 59 e5 bd 40 e9 7f bd 72 0c 30 3d
       -0.0488366 -0.11198689 -0.062478304 0.04298062
000390 8a 2f 9c bd 5c 59 07 3d 40 c2 bb 3c da 1e a0 3c
       -0.07626255 0.033044204 0.022919774 0.019545961
0003a0 65 e7 33 3e 07 55 c3 3a e5 d9 13 bc 2e 22 15 3d
       0.17568739 0.001490266 -0.009024118 0.03640955
0003b0 ff 95 e1 3d e5 18 46 bc 4f 3d fa 3d c6 b2 0b 3e
       0.110149376 -0.012090896 0.12218725 0.13642415
0003c0 02 f4 d2 3d b5 eb 13 3e 41 e6 24 bc 32 52 ab 3b
       0.10300447 0.14445384 -0.010064662 0.0052283043
0003d0 c7 9b 73 3d 2d 79 f4 3d 23 c0 43 bd 80 8e 42 3d
       0.059474733 0.11937175 -0.047790658 0.04749918
0003e0 c1 c4 8c 3d 43 00 22 3c 89 fa 3f 3d cf 7d ee 3c
       0.06873465 0.009887758 0.04686979 0.029112725
0003f0 e4 a1 d4 3d 7e d2 51 3e 12 b1 1b 3e 70 fd 40 3d
       0.10382441 0.20490453 0.15204266 0.047116697

head.conv.bias f4 [64]
000000 02 da b5 bd a3 4b a9 bd 06 1b fb 3d 0a c3 ce be
       -0.08879472 -0.0826638 0.12261014 -0.40383178
000010 31 3d 07 3d 0a 5e dc 3c 3d f4 2c 3c 80 46 18 3d
       0.03301734 0.02690031 0.010556278 0.03717661
000020 1e a3 21 3d 1a d3 d0 bc 0c 44 9f 3c 2a 12 69 3b
       0.0394622 -0.025491286 0.019441627 0.0035563805
000030 c1 33 ff 3d 79 a9 30 3e 32 09 2e 3d a3 90 f7 bd
       0.12461043 0.17252149 0.042489238 -0.12088134
000040 61 cd 62 be 29 59 97 bb 36 6d d8 3d 4b 7f 14 3e
       -0.22148658 -0.004618783 0.10567705 0.14501683
000050 58 7d 10 bd 1c 2f 2f be 3b ea 37 be 23 f8 0f bd
       -0.035275787 -0.17107815 -0.17960446 -0.03514875
000060 50 f1 75 bb 18 78 ee 3d 6b 46 c1 bd 38 27 c3 bc
       -0.0037527867 0.11644 -0.09437259 -0.023822412
000070 ac e4 03 be 9f 2c d7 bd 46 10 0b 3d d3 6d ab bc
       -0.128802 -0.10506558 0.033951066 -0.020926392
000080 74 d9 cc 3d 9b 57 59 3e 50 47 dc 3d 92 6a 20 3e
       0.100024134 0.21224825 0.10755789 0.15665653
000090 ac 91 c3 bc 6c 64 82 3c 61 1a a2 3c 86 57 70 bc
       -0.023873173 0.015917026 0.019787969 -0.014669305
0000a0 ee 60 23 3e 8b e3 b4 3b 7c e9 1b be 80 8e ae 3e
       0.15954944 0.0055202893 -0.15225786 0.34093094
0000b0 ea ce 9c 3d dc 89 1e 3e 10 1f 34 3e b5 e8 15 3e
       0.07656653 0.15482277 0.17589974 0.14639552
0000c0 58 66 f1 3c 66 10 56 3e 75 42 3e 3e 25 b9 14 be
       0.029467747 0.20904693 0.18580039 -0.14523752
0000d0 cc 70 d3 3d 4c 1c fa 3d 30 08 03 3e 2d e6 84 3d
       0.10324249 0.122124285 0.12796092 0.06489215
0000e0 f3 a6 a0 3d 5b 5c a7 3d 47 c6 e7 3d dc b7 5a 3e
       0.07844343 0.08171912 0.11317115 0.213592
0000f0 9f 2a 10 3e a2 ce ea bd a3 12 1a be 55 9d 11 be
       0.14078759 -0.11465193 -0.15046172 -0.14220174

head.norm.weight f4 [64]
000000 73 76 79 3f 25 79 27 3f 46 57 7f 3f 08 29 92 3f
       0.97446364 0.65419227 0.99742544 1.1418772
000010 97 10 54 3f f5 a0 87 3f fa c7 95 3f 00 ef 80 3f
       0.82837814 1.0595995 1.1701653 1.0072937
000020 75 08 98 3f f3 04 8c 3f 5a cb 9f 3f fa 11 70 3f
       1.1877581 1.093901 1.2483933 0.9377743
000030 0f e9 87 3f de 65 90 3f bd 8f 4a 3f 2a 39 67 3f
       1.0617999 1.1281087 0.7912558 0.903216
000040 77 ea 7b 3f 15 0b 68 3f d0 48 5a 3f d5 18 61 3f
       0.9840464 0.9064191 0.85267353 0.87928516
000050 54 bf 7b 3f aa cf 80 3f d3 a9 44 3f d7 7c 82 3f
       0.9833882 1.0063374 0.7682163 1.0194348
000060 cc 1a 75 3f 3f 45 57 3f 5c 71 2f 3f d1 67 5c 3f
       0.95744014 0.84090036 0.6853235 0.8609591
000070 74 ec 78 3f 95 73 79 3f e2 f0 5e 3f f6 c7 80 3f
       0.972358 0.9744199 0.8708631 1.0061023
000080 55 5a 5f 3f e0 96 89 3f 71 93 81 3f b0 3b 68 3f
       0.8724721 1.0749168 1.012312 0.90716076
000090 c9 f0 58 3f 96 e9 7d 3f 75 6e 91 3f 70 28 85 3f
       0.8474241 0.9918455 1.1361834 1.0402966
0000a0 c1 0d 67 3f 4c 5e 82 3f 41 aa 7b 3f 3b 51 85 3f
       0.9025536 1.0185027 0.9830666 1.0415415
0000b0 99 b7 81 3f b8 56 8b 3f d9 e0 31 3f 4f c0 3e 3f
       1.0134155 1.088584 0.69483715 0.7451219
0000c0 13 6b 86 3f 34 9f 6c 3f cc 78 76 3f 6c 26 78 3f
       1.0501426 0.92430425 0.9627807 0.9693363
0000d0 e4 ff 63 3f 08 17 58 3f 48 a0 48 3f 89 ce 4f 3f
       0.89062333 0.8441014 0.7836957 0.8117452
0000e0 a9 e4 94 3f 2c 7f 4d 3f c7 e4 50 3f 6a 87 8e 3f
       1.1632282 0.80272174 0.81599087 1.1135075
0000f0 ed 63 86 3f 08 c2 47 3f db 70 77 3f 3a 56 7a 3f
       1.0499245 0.78030443 0.9665658 0.9778782

head.norm.bias f4 [64]
000000 7c 23 7d be f4 87 51 be 31 e6 b9 be 31 9c 04 bf
       -0.24720567 -0.20462018 -0.36308435 -0.5180083
000010 ae 61 cf be f3 6d 8c bc b6 9f 41 be 29 3f 5e 3d
       -0.4050421 -0.017142272 -0.18908581 0.054259453
000020 eb 51 4a bd eb 44 c9 bd d2 97 14 be f1 a5 89 be
       -0.04939453 -0.09827598 -0.1451104 -0.26884416
000030 2f 34 0e be d0 01 c9 be eb 6f 68 be f2 5e 6b bd
       -0.13887094 -0.39259195 -0.22698943 -0.057463594
000040 d4 11 32 3e fa 9a 94 be 1d e6 f3 be b4 63 bf be
       0.17389613 -0.29024488 -0.476365 -0.37380755
000050 1f 1b bd bd 7f fa d2 bb 5e 5f 1b be cc 61 d1 be
       -0.092336886 -0.006438553 -0.15173098 -0.40894926
000060 ff 8f b6 bd 06 c2 28 be 59 91 1c be f4 4b 74 be
       -0.08914184 -0.16480264 -0.1528982 -0.23857099
000070 f7 40 4d 3e d6 f3 91 bd 8b ef 93 be b0 99 8d bd
       0.20044313 -0.07126586 -0.28893694 -0.06914079
000080 62 b1 3e be 4b a3 4f be 77 9e 8b bd 15 21 99 be
       -0.18622354 -0.20277135 -0.06817334 -0.29908052
000090 4e 73 19 be 87 50 d1 3d 5b 23 df bd 0e 0f dc be
       -0.14985391 0.102204375 -0.108954154 -0.42980236
0000a0 9c b6 b8 be 91 96 b6 3d a9 66 e8 be 8d a7 bc be
       -0.3607682 0.08915437 -0.45390823 -0.3684658
0000b0 4a da e9 bd ad ca f0 be 88 93 c4 be b1 42 54 be
       -0.114185885 -0.4702963 -0.38393807 -0.20728566
0000c0 f8 be 2f 3d bc 9f 70 be d5 e5 4c be e1 e9 bf bd
       0.04290673 -0.23498434 -0.20009549 -0.09370781
0000d0 3a 29 79 be c4 ed dc bd 5d 1e ba bd f3 12 15 be
       -0.24332133 -0.10787538 -0.090878226 -0.1455801
0000e0 12 e0 c9 bd 84 cd 54 be 7a 5b 5a bd e3 fd 43 be
       -0.09857191 -0.20781523 -0.053309895 -0.19139819
0000f0 14 7d 9d be 22 0d 42 be 03 c3 7c be 6a 3f 8a be
       -0.3075949 -0.18950322 -0.24683766 -0.27001506

head.norm.running_mean f4 [64]
000000 60 3c d4 bd 9b 44 58 be 7d cb ec 3d 89 46 d6 be
       -0.10363078 -0.21119921 0.1156225 -0.4185069
000010 e5 8c 6c bb d9 bd d3 3d e2 5e 1e 3d 02 db 62 3e
       -0.0036094722 0.10338945 0.038664706 0.22153857
000020 18 a5 55 3e a6 bb d0 bc a3 ab 8f 3d 7f 17 d9 bd
       0.2086376 -0.025480103 0.07015159 -0.10600185
000030 b0 60 ec 3d fa 92 15 3e e6 ae 98 bd 0a 4d 84 be
       0.11541879 0.14606848 -0.07455234 -0.25840026
000040 29 2f 3d 3b 83 29 bd 3c a4 25 f1 3c 74 8c b7 3d
       0.002886722 0.023091083 0.029436894 0.08962336
000050 8d d6 ba 3c 70 df 34 bd 7a cf 80 be d7 10 31 bd
       0.022807384 -0.0441584 -0.25158292 -0.04322895
000060 33 af 4b 3e b1 96 5d 3c 45 74 46 be f5 48 01 be
       0.19891052 0.013524697 -0.19380291 -0.12625487
000070 63 18 aa bd 8d 5b 74 3d 85 5f d0 bd 3b 76 2a 3e
       -0.08305433 0.059657622 -0.10174469 0.16646664
000080 14 74 68 bd c8 ed 61 3e 09 b2 9c 3e 4d 3c d2 3d
       -0.056751326 0.22063363 0.3060458 0.10265408
000090 12 4e df bd aa 37 12 3e a1 8c 21 3d b3 5a 1a bd
       -0.109035626 0.14279047 0.039440755 -0.037684154
0000a0 43 73 8d 3d 8a 65 1e 3e 3a 7e 3d be 18 dd a3 3e
       0.0690675 0.15468422 -0.18505183 0.3200462
0000b0 d1 d6 75 3e 90 c3 06 3e 37 47 e5 3d ec c2 32 3d
       0.24007727 0.13160539 0.11195224 0.043642923
0000c0 73 dd 00 3e 59 4e c5 3d 14 22 56 3e a9 0c d4 3b
       0.12584476 0.09634084 0.20911437 0.006471236
0000d0 33 83 61 bd 42 0b f6 3d 2a 4d ce 3d 4c 61 c1 bd
       -0.055056762 0.12013866 0.100733116 -0.09442386
0000e0 b2 f9 19 3e 6c 57 03 bc f3 03 a9 3d 1e 92 5b 3e
       0.15036657 -0.0080164485 0.082527064 0.21442458
0000f0 6a dd cd 3d 2d 72 71 be 3d 86 0d be 4e 78 7a be
       0.10051997 -0.23578711 -0.13820739 -0.24459955

head.norm.running_var f4 [64]
000000 53 9f 99 3b 82 64 c1 3c 05 ab 82 3b e3 3e 11 3c
       0.0046881824 0.023607496 0.0039876723 0.008865091
000010 80 e5 43 3c 1b ea bb 3b 58 9e 83 3c b2 18 f3 3d
       0.0119565725 0.0057346947 0.016066715 0.11869945
000020 00 a0 46 3d f7 f5 01 3d cb 3f 87 3c d4 10 ad 3d
       0.04849243 0.03172871 0.016509911 0.08450475
000030 23 3d 73 3c b1 93 3b 3c 52 dc 64 3d 44 44 1d 3d
       0.014846119 0.011448787 0.055874176 0.03839518
000040 91 11 4e 3e 49 41 e6 3c ac 5a 61 3d b4 9a 34 3d
       0.20123889 0.028107302 0.055018112 0.04409285
000050 fc 92 9a 3c ae b6 10 3d 7a 7b 5a 3c b6 89 c2 3b
       0.018868916 0.035330467 0.013335103 0.0059368266
000060 fa 45 c6 3d 57 6e a7 3c 97 a6 5f 3c 2c b8 ab 3c
       0.09681316 0.020438356 0.013650558 0.020961843
000070 b8 1f b4 3d 70 59 82 3d 62 6e fa 3c 12 d8 c6 3d
       0.08795112 0.06364715 0.030570213 0.09709181
000080 86 47 15 3d ea d6 b8 3b a5 3f b4 3d 94 8a 87 3b
       0.036445163 0.005640854 0.08801202 0.004136393
000090 57 b7 95 3c 25 e6 99 3d be 28 8b 3d 68 d6 69 3c
       0.0182759 0.075146 0.0679488 0.01427231
0000a0 fd 2b be 3d d9 33 dd 3d e6 e5 09 3c 87 7a 11 3c
       0.09285734 0.10800905 0.008416628 0.00887931
0000b0 17 22 7f 3d 62 c1 19 3c 8d 26 00 3c 5a 82 9a 3c
       0.06228837 0.009384485 0.007821691 0.018860985
0000c0 f6 a5 96 3d 59 56 b7 3c ba 60 bd 3b 5d f2 89 3d
       0.07355873 0.022380041 0.005779353 0.0673568
0000d0 3d 73 01 3d 25 f6 e0 3b 3f 9b 8d 3c d6 f8 25 3d
       0.03160404 0.00686528 0.017285941 0.04052051
0000e0 05 ec c7 3c ff 0a 7f 3c df 1d ae 3b 08 aa aa 3b
       0.024404535 0.0155665865 0.0053136195 0.0052082576
0000f0 98 13 c5 3b c5 96 c6 3c 92 91 c3 3d 55 b0 21 3d
       0.0060142986 0.024241814 0.0954925 0.039474804

body.block1.conv.weight f4 [64, 64, 3, 3]
000000 b9 f0 d3 bc f7 e3 fe bb e9 ab ac 3d ca fc 02 be
       -0.025871621 -0.0077786404 0.08431227 -0.12791744
000010 d6 c8 49 bc 06 ec 32 3c ef 4d 88 bd 5b 8f 83 bb
       -0.012315949 0.01092053 -0.0665549 -0.004014892
000020 5c de 16 bd 91 90 4c 3d e3 63 32 3d 94 c9 1d 3c
       -0.036833152 0.049942557 0.04355229 0.0096305795
000030 06 77 09 3d b6 08 91 3c 50 d5 00 3c 0b e0 75 3c
       0.033560775 0.017704349 0.007863358 0.015007029
000040 b8 84 2e 3c 0f 5c 6e bb d0 5e b5 bd 06 19 d4 bd
       0.01065176 -0.003637079 -0.08855975 -0.10356335
000050 4d 9b 97 bc 71 8e 70 bd b6 63 37 bd d0 a3 79 bd
       -0.01850667 -0.058729593 -0.044772826 -0.06094724
000060 a9 9a 10 be ce 81 2f be 23 69 d8 bd 38 b9 b7 bd
       -0.14121498 -0.1713936 -0.10566928 -0.089708745
000070 ef ec 86 b8 91 44 a3 3c 5f a3 aa bd ff f2 0d 3d
       -6.43375e-05 0.019930156 -0.08331942 0.034655567
000080 11 7a 3c bd d4 7c 90 bd 8b 72 01 be b5 61 d8 bd
       -0.04601485 -0.07055059 -0.12641351 -0.10565511
000090 91 18 cd bb ef a8 6d bc b8 4d a5 bc e0 d7 61 bd
       -0.006259032 -0.014505609 -0.02017866 -0.055137515
0000a0 cd 8f 30 bd aa 76 82 bd 82 24 4b bd 32 aa 95 bd
       -0.04310589 -0.063702896 -0.049595363 -0.07307853
0000b0 b4 54 b5 bd 0c 9d e7 3d fd e2 2a 3d 9e 39 41 bd
       -0.088540465 0.11309251 0.04172038 -0.04717409
0000c0 ff 96 94 3d 4d 82 a3 3d 79 07 9f bd c4 b0 50 3d
       0.07255363 0.07983837 -0.07765097 0.050949827
0000d0 0d f6 92 3d 56 77 38 bd 4b 2a c9 bb 50 bb 7b 3d
       0.07175837 -0.045035683 -0.006139075 0.061457932
0000e0 6b 62 87 3d a6 ac e2 bd b6 6e c1 bd 44 16 13 bb
       0.066105686 -0.11068086 -0.094449446 -0.0022443691
0000f0 43 83 aa bd de ce 7b bd 04 eb 22 be e8 1f 58 3a
       -0.083258174 -0.06147658 -0.15909964 0.00082445005
000100 a3 68 58 bd 30 42 14 be 58 28 24 3d 1c 45 82 bc
       -0.052834164 -0.14478374 0.040077537 -0.015902095
000110 4e 6d 0c be e2 c8 2a 3d 74 0f 84 3d bf 11 6b bd
       -0.13713571 0.041695483 0.0644826 -0.05738997
000120 b4 93 de bd 9a fa d9 bc 23 a9 6d bc 07 71 7d bd
       -0.10868016 -0.026608754 -0.014505657 -0.06187537
000130 14 14 4f bd 72 48 85 bb d2 7f 51 bd 68 cb c5 bb
       -0.050556257 -0.004067474 -0.05114729 -0.006036211
000140 55 28 d3 3b 72 e4 a7 3c ff 19 a0 bb 38 9e 75 bd
       0.006444017 0.020494673 -0.0048859115 -0.059965342
000150 d9 dd 19 bd 29 65 ef bd 9a fa ca bd 99 b5 b8 bd
       -0.037565086 -0.11689217 -0.0991108 -0.09019012
000160 5f fe 18 be 0b 80 fd bd eb 83 d0 3b 09 92 9f 3b
       -0.14940785 -0.12377938 0.006363382 0.0048697037
000170 bd 9a 1a bc f3 52 c0 bb 6a 26 9b 3d d7 ad 10 bd
       -0.009436307 -0.0058692633 0.07575686 -0.035322037
000180 9d 7a 89 3b f2 13 c5 bb 55 a5 c4 bd 2a 23 27 3c
       0.004195525 -0.0060143406 -0.09601847 0.010201255
000190 cc ab 5e 3c a7 1c 0d bd 32 a4 2b 3d 7f 20 9f bc
       0.013590764 -0.034451153 0.041904636 -0.019424675
0001a0 18 ea f4 bd d4 21 4d bb a9 1a 28 bd bc ac c5 bd
       -0.11958712 -0.003130068 -0.04104105 -0.09652087
0001b0 d6 44 0e 3e dc d2 89 3c ba e7 45 3d 52 ab a8 bc
       0.13893446 0.016824178 0.048316695 -0.020589504
0001c0 5a f9 ba bc 34 85 3b 3c cf d2 2c bd 9c 9e 7a bd
       -0.022823978 0.011445332 -0.04219323 -0.061186418
0001d0 c3 99 2f 3d 72 12 e8 bc 04 11 a7 3c a5 d7 c9 3c
       0.042871248 -0.028329108 0.020393856 0.02463896
0001e0 86 13 b9 bd 68 1b 7e bd 1b 58 a8 bc b7 4f 5e be
       -0.09036927 -0.062037855 -0.020549824 -0.21710096
0001f0 00 11 f7 bd 59 f3 98 bb 99 a4 12 3d 3c 89 93 3d
       -0.12063789 -0.004667681 0.035801504 0.0720391
000200 d6 c0 4a 3d 77 4d 21 3d 28 89 82 3b c9 29 c7 3b
       0.04950031 0.039380517 0.0039836355 0.006077979
000210 86 56 75 bc 45 34 5a bc 30 ae 74 bd 99 62 ab 3d
       -0.014974242 -0.013318126 -0.05973643 0.083684154
000220 1f 32 1d bb c2 19 0c bd 85 ce 0f 3c 91 2e 44 bd
       -0.0023986173 -0.034204252 0.008777265 -0.04789597
000230 59 d5 7a bd 3e 3c 62 3d e7 10 d9 bc ba 6a f0 bc
       -0.06123862 0.055233233 -0.026497317 -0.029347766
000240 ea 8a 12 3c 6a 99 57 bd b4 a2 13 be bd 55 99 3d
       0.0089442525 -0.05263654 -0.14417535 0.074870564
000250 0a 9e cd 3b 7c 7a 4c bd 5e ea 8c 39 15 91 07 bc
       0.0062749432 -0.049921498 0.00026877498 -0.008274336
000260 bc d9 17 bc 38 2d 27 3c 4d 53 f8 bc 13 83 33 bd
       -0.0092682205 0.010203652 -0.030313158 -0.043826174
000270 33 f8 90 bd 11 0c da bd ba 37 01 be 65 f4 d1 bd
       -0.0707859 -0.10646833 -0.12618914 -0.10251693
000280 e6 f2 a0 bd 7e c9 1b be a9 0e 80 3c fd a3 ba bc
       -0.07858829 -0.15213582 0.01563199 -0.022783274
000290 fb 98 35 bc 0e 58 71 bd 1c e1 af bd be 8a ba bd
       -0.011083837 -0.058921866 -0.08587858 -0.09108494
0002a0 c7 05 9d bd 43 d6 b7 bd 3e 41 5f bd bd de 9a bd
       -0.076671176 -0.08976414 -0.05450558 -0.07562015
0002b0 cd d7 05 bd 5d f3 87 bd 1d 96 31 bd a0 9f 76 bd
       -0.032676507 -0.06638215 -0.04335605 -0.060210824
0002c0 56 57 aa bd e1 71 e3 bd 5e 3c b8 bd 68 ac 0c be
       -0.08317439 -0.11105705 -0.08995889 -0.13737643
0002d0 8b 7b d4 bd ed 15 f3 bd e8 e6 b6 bd db 78 0e be
       -0.103751265 -0.118694164 -0.089307606 -0.1391329
0002e0 92 e5 ad bd f5 13 fb 3a 50 91 25 bd 4f be 20 3d
       -0.08491053 0.0019155728 -0.040421784 0.039243992
0002f0 b3 a1 b5 3c 0e 80 d1 bd ca 5e c0 bd e1 87 42 bd
       0.02217183 -0.102295026 -0.093930796 -0.047492865
000300 5e 10 0a bc b4 ad 23 bd 02 e9 81 bc 25 b6 9c 3c
       -0.008426754 -0.039960578 -0.015858177 0.019129822
000310 85 7a b7 3c b6 f7 8e 3a 0b fe 4a 3d 99 80 03 bd
       0.022397289 0.0010907564 0.04955868 -0.032105062
000320 48 79 94 3d b4 eb a1 bb b8 3a 86 bc ae d4 9b 39
       0.07249695 -0.004941428 -0.016385421 0.00029722363
000330 2d 05 68 3d 39 b5 88 3d 36 52 e5 bc 5d 86 9d bc
       0.05664556 0.066751905 -0.027993303 -0.019229108
000340 4f f8 8f bd a0 b4 11 be e8 00 19 bd f0 da 67 bd
       -0.07029783 -0.14229059 -0.03735438 -0.05660528
000350 4f 3b 8c bd 07 4e 22 bb 4b 97 6f bd 10 4d eb bd
       -0.0684725 -0.0024765746 -0.058493894 -0.11489308
000360 e5 33 b2 bc 8a 93 eb 3b a4 98 86 bd 5b 4f 31 3d
       -0.02175326 0.007189219 -0.06572083 0.04328857
000370 06 fe 6d 3d 27 4e 18 bc 72 1c 8f bc 61 31 e9 3c
       0.058103584 -0.009295977 -0.017469618 0.028465929
000380 86 5a 91 3d 73 7a 1e 3e 44 c1 74 3d 23 24 98 3b
       0.07097344 0.15476398 0.059754625 0.0046429797
000390 31 94 4b 3d 10 e5 58 ba 7d 93 b2 bc 0f ed 2e 3d
       0.049701873 -0.0008273879 -0.021798844 0.042706545
0003a0 fa 99 3e 3c 41 50 16 bd 88 1e f3 3d 12 47 38 3d
       0.011633391 -0.03669763 0.11871058 0.044989653
0003b0 34 44 ad 3d 44 d6 81 3d 91 50 2e bc 16 30 46 3d
       0.08460274 0.06339696 -0.010639326 0.048385702
0003c0 11 cd 8f 3b 11 a4 96 bc a4 2b 27 3d 79 4b be 3d
       0.0043884595 -0.01838878 0.040813103 0.09291739
0003d0 9d ac 98 3d 57 0d cf 3c be 9e a4 3d fb da 4b 3d
       0.07454798 0.025274916 0.0803809 0.049769383
0003e0 f5 9c 1c 3d a5 79 ba 3d 79 b6 df 3d a8 84 75 3d
       0.038235623 0.09105233 0.10923476 0.059940964
0003f0 64 72 0c 3d 20 76 6d 3d 66 e4 e6 3c 52 0a 45 3d
       0.03428878 0.05797398 0.02818508 0.048105545

body.block1.conv.bias f4 [64]
000000 e9 22 89 bc 51 52 16 bd b8 37 a2 3c c6 d7 cb bb
       -0.01674028 -0.036699597 0.01980196 -0.0062207906
000010 b0 e8 c9 3c 90 9a c5 bc b0 63 43 3c a3 63 f6 3c
       0.024647087 -0.024121553 0.011925623 0.030076807
000020 03 99 b9 3b b3 ca 2a bd 63 83 12 3d f6 03 16 bc
       0.0056639924 -0.041697215 0.03576983 -0.009156218
000030 d1 9d 87 3c e0 43 25 3d d9 0e e4 3a d6 01 21 bc
       0.016554745 0.040347934 0.0017399444 -0.009827098
000040 c0 1f de 3c 16 9f 56 bc 90 f5 23 bc 19 d4 e9 bc
       0.027114749 -0.0130994525 -0.010007277 -0.028543519
000050 b7 34 01 3d f5 3d 1c bc 0b 42 40 3c c8 1c 6c 3c
       0.031544413 -0.009536256 0.011734496 0.014411159
000060 a2 0b 8c 3c b4 6c b7 3c e8 94 ca bc 6f 6d 1e bd
       0.01709539 0.0223907 -0.024729207 -0.038678583
000070 e7 a0 96 3a 34 5c 39 3c d0 85 26 3d 11 0c 10 3d
       0.0011492044 0.011313487 0.040654957 0.035167757
000080 54 f6 e0 bc ca a2 e1 bc 1e 9c 97 3b ad a9 51 3b
       -0.027461208 -0.027543444 0.004626765 0.0031992004
000090 3a 16 b6 bc 5f 46 c9 bc 0b b8 40 3c 7f e7 8d bc
       -0.022227395 -0.024569688 0.011762629 -0.0173223
0000a0 98 ae 9e 3c 9f b3 cf bc 36 86 1e bd 8b 94 23 3c
       0.019370362 -0.025354205 -0.038702212 0.009984146
0000b0 f6 46 68 3c b6 2b e5 3c f9 02 c0 3a 20 0f da bc
       0.014177075 0.027974945 0.0014649323 -0.02661854
0000c0 a0 17 b9 bc 81 0f b6 bc db d4 0f 3d c4 37 84 3b
       -0.022594273 -0.02222419 0.035115104 0.004034968
0000d0 8d f2 c4 bc 6e be 68 3b 0a 44 81 3c 9d 42 b7 bc
       -0.024041438 0.0035513896 0.015779514 -0.02237063
0000e0 f6 ef 06 bd 4b be 12 3d 40 dd 0c bd d1 1b 1d 3d
       -0.03294369 0.03582601 -0.034390688 0.038356606
0000f0 a5 bb 5a 3c 56 90 ac 3b b9 ab e8 3c 28 0f 46 bc
       0.013350402 0.0052662296 0.028402196 -0.0120885745

body.block1.norm.weight f4 [64]
000000 b0 1f 70 3f d0 36 76 3f 0e 65 83 3f f7 c1 7e 3f
       0.9379835 0.9617739 1.0265214 0.99514717
000010 65 57 4e 3f 3a b5 3e 3f 6b e2 80 3f 26 33 80 3f
       0.80602103 0.7449528 1.0069097 1.0015609
000020 d4 d7 5c 3f 22 e1 93 3f 3a 7e 60 3f e6 c0 6a 3f
       0.8626683 1.155308 0.87692606 0.9170059
000030 45 f6 80 3f 1e 95 54 3f 79 b2 8a 3f 48 03 72 3f
       1.0075155 0.83040035 1.0835716 0.94536257
000040 da a6 78 3f ee e0 86 3f 43 a6 87 3f ef d5 77 3f
       0.97129595 1.0537393 1.0597614 0.9681081
000050 6e 10 80 3f a3 1a 89 3f e9 c3 7e 3f 37 35 82 3f
       1.0005014 1.0711254 0.99517685 1.017249
000060 e8 8a 6f 3f d2 81 74 3f 26 1b 6d 3f b8 27 69 3f
       0.9357133 0.9551059 0.9261955 0.9107623
000070 aa 8e 71 3f 1f d2 6d 3f 3d 4c 83 3f 03 ca 6d 3f
       0.94358313 0.92898744 1.0257641 0.9288637
000080 ca 5a 5a 3f 6d 57 83 3f 1f d2 89 3f a1 66 5e 3f
       0.85294783 1.0261055 1.0767249 0.8687535
000090 e3 af 89 3f c2 4f 86 3f 97 cd 64 3f 1a cc 79 3f
       1.0756801 1.049309 0.89376205 0.9757706
0000a0 12 28 84 3f e7 9b 87 3f 16 98 7b 3f aa 57 7c 3f
       1.0324728 1.0594453 0.9827894 0.98571265
0000b0 74 8d 86 3f 23 bc 63 3f 64 c3 81 3f 0e a6 7b 3f
       1.0511918 0.8895895 1.0137753 0.98300254
0000c0 5c a3 5f 3f f7 9c 6c 3f 42 96 9d 3f f2 72 86 3f
       0.8735864 0.9242701 1.231148 1.0503829
0000d0 c8 db 5f 3f 5b c0 7f 3f e0 9e 4f 3f 8c cb 71 3f
       0.87444735 0.99902886 0.811018 0.9445121
0000e0 54 3b 80 3f 4a 9f 87 3f b2 c6 89 3f 9f 34 8c 3f
       1.0018106 1.0595486 1.0763762 1.0953559
0000f0 2d 45 8b 3f 52 2f 5a 3f 9e 04 79 3f 66 ae 8d 3f
       1.0880486 0.85228455 0.9727267 1.1068847

body.block1.norm.bias f4 [64]
000000 bb 82 0e be 31 4c cd be aa 0d 0e be 7d fd ab be
       -0.13917057 -0.40097192 -0.138724 -0.33591834
000010 dd 82 36 be 79 f3 f6 be 7d b2 4b 3c 85 5c 07 bf
       -0.17823358 -0.4823263 0.012432692 -0.5287555
000020 bf d3 9e be d7 a9 8e bd 8e f5 04 bf 14 16 92 be
       -0.31020924 -0.06965988 -0.51937187 -0.2853247
000030 71 02 8c 3c 78 92 b5 be d5 07 15 be 44 4c 05 bf
       0.017091008 -0.3546331 -0.14553769 -0.520695
000040 3b a6 20 bf 07 a3 a9 bd 78 ba c1 ba 85 14 1b bf
       -0.6275365 -0.08283048 -0.0014780303 -0.60578185
000050 09 bd 41 3d e3 39 cc be 18 c4 cc be cf 91 bf 3d
       0.04729942 -0.39887914 -0.39993358 0.09353983
000060 95 cf ec bd 49 3f 9e be 32 74 cb be bd 22 33 bf
       -0.11563031 -0.30907658 -0.39737087 -0.6997488
000070 6a b3 0b bc 81 45 ec bd 73 c2 c2 be 9a 09 64 3c
       -0.008526662 -0.11536694 -0.38038978 0.013918305
000080 f6 f6 ea be 6c 80 52 be 5c be f2 bd 10 fe 23 bf
       -0.4589154 -0.20556802 -0.118527144 -0.64059544
000090 b4 a9 af be d8 c4 47 bd ea 99 0f bf 82 24 dd be
       -0.3430916 -0.04877171 -0.5609423 -0.43191916
0000a0 41 8e 03 3c a2 29 0c bf 50 67 b1 bd 18 f8 0a bf
       0.008029521 -0.54751027 -0.086622834 -0.5428481
0000b0 76 80 f9 be 78 c2 0a bf a0 f9 0c bd 10 23 0d bf
       -0.4873082 -0.54202986 -0.03441775 -0.55131626
0000c0 9e 43 9d be 3c 48 93 be bd 4a d3 be ac bf b4 bd
       -0.3071565 -0.28766048 -0.41267958 -0.08825621
0000d0 e1 35 ad be 26 a8 99 be c1 8e 96 be 39 fd 23 be
       -0.3383017 -0.300111 -0.29405788 -0.16014566
0000e0 77 a6 69 3d f3 34 a3 be 69 af b5 3d 2c f8 bc 3d
       0.05704352 -0.31876335 0.088713475 0.092270225
0000f0 1f 1f 93 bd f3 63 8c be 11 1f 89 be e7 d1 82 bd
       -0.0718367 -0.27420005 -0.26781514 -0.06387692

body.block1.norm.running_mean f4 [64]
000000 a8 3e c8 bf 9d fb 3c bf 1b fd 46 c0 0a cc 74 3f
       -1.5644121 -0.7382143 -3.1091983 0.9562384
000010 73 6d 04 3f 58 c7 af 3f 76 c9 13 c0 f9 73 59 bf
       0.51729506 1.373271 -2.3091712 -0.84942585
000020 b0 ad c0 bf b3 f6 ee bf f4 47 02 c0 ae 2e b1 bf
       -1.5053005 -1.8669037 -2.0356417 -1.384237
000030 6f 40 fd bf 34 09 92 3f 44 61 82 c0 44 77 60 40
       -1.9785289 1.1409059 -4.0743732 3.5072794
000040 36 3e 98 40 24 62 43 c0 d9 02 07 3f 76 e2 c1 bf
       4.757594 -3.052865 0.5273872 -1.5147235
000050 85 38 9e bf 4e 67 89 bf f9 16 23 bf f7 c9 bc bf
       -1.2360998 -1.0734651 -0.6370693 -1.4749135
000060 96 d8 4f bf 56 6f f4 3f f7 c5 ca bf 33 fa 87 be
       -0.8118986 1.9096477 -1.5841664 -0.26558074
000070 c5 b1 5d c0 78 26 aa bf 0e 77 ab 3e d7 82 20 40
       -3.4639752 -1.329299 0.3348927 2.5079858
000080 23 f2 91 3f 27 df ff bf 3c 20 49 c0 80 f1 da 3d
       1.1402019 -1.9989976 -3.1425924 0.10690594
000090 3f 9c 4f bf 83 54 04 c0 1d 47 42 40 ef 9d 1a bf
       -0.8109779 -2.0676582 3.0355904 -0.6039724
0000a0 f4 ec 1e bf 67 5b 34 bf 1c d0 36 40 61 8e e0 40
       -0.6208031 -0.7045197 2.856452 7.01738
0000b0 81 bd 38 bf 01 bc 39 3e 73 a5 55 be 47 31 0c c0
       -0.7216416 0.18138124 -0.20863895 -2.1905077
0000c0 c7 ed 11 3f ec 25 b3 bf 5d c2 57 c0 be 6c fa bf
       0.57003444 -1.3995948 -3.371238 -1.9564435
0000d0 24 00 00 c0 08 10 b4 be b9 dc b5 3d 23 9f b2 3e
       -2.0000086 -0.3516848 0.0887999 0.34887037
0000e0 19 63 e6 bf 67 c5 d7 3e 6a 32 79 c0 04 79 ce bf
       -1.7998992 0.42142794 -3.893702 -1.6130681
0000f0 1b ac 18 40 38 1f 71 3f 34 29 9c 3d 00 d1 62 c0
       2.3855045 0.9418826 0.07625046 -3.5440063

body.block1.norm.running_var f4 [64]
000000 6f d8 05 41 84 50 7d 40 12 54 ff 40 3e 30 99 40
       8.36534 3.9580393 7.9790125 4.787139
000010 fd 3c 6c 41 03 b8 59 41 25 7a 95 41 28 b4 05 40
       14.76489 13.607425 18.68464 2.0891209
000020 4b 1a c4 40 e0 70 0f 40 41 4a b8 40 d3 23 00 41
       6.1282096 2.2412643 5.759064 8.008746
000030 a3 7a f1 40 89 d0 a1 41 d0 bc 27 41 f2 8b 2f 41
       7.5462203 20.226824 10.483597 10.971666
000040 2d f3 23 41 54 81 88 40 c6 5b e1 40 ef 33 a5 40
       10.246869 4.265787 7.042453 5.1625896
000050 c4 87 81 42 46 e6 6d 40 46 cb 09 40 92 d7 ac 41
       64.76517 3.7171798 2.1530318 21.605259
000060 99 81 0a 41 19 94 6c 41 02 9a 82 41 b1 fb 06 41
       8.65664 14.786157 16.3252 8.436448
000070 d0 b5 e0 41 cd 53 15 41 19 aa 74 40 e9 d0 88 41
       28.088776 9.332959 3.822882 17.102007
000080 12 20 ab 40 dd d0 3a 40 09 24 70 40 9d 09 e8 40
       5.347665 2.918998 3.7521994 7.2511735
000090 5e df 4c 40 ab a4 33 41 bb 59 17 41 04 b1 5d 40
       3.2011333 11.227702 9.459407 3.4639292
0000a0 fe 71 bd 41 98 87 23 40 3c 39 f5 40 fb ee 4b 41
       23.68066 2.555151 7.6632366 12.745845
0000b0 80 a7 e2 3f 7a 57 7f 40 0e 7f 90 42 e2 c5 f7 40
       1.7707367 3.9897141 72.24815 7.7429056
0000c0 c8 86 62 41 3c f8 98 41 67 fa 98 40 20 a1 46 40
       14.157906 19.121208 4.7805667 3.1035843
0000d0 8f e6 25 41 cb e6 70 40 e6 35 06 41 bc 0b 1d 41
       10.368789 3.7640865 8.388159 9.815365
0000e0 de d0 2c 42 8a 96 42 40 51 b7 c5 41 4e da c5 41
       43.20397 3.0404382 24.71451 24.731594
0000f0 08 ef 5f 40 14 7c 59 41 de cd 5c 40 b9 21 ff 40
       3.4989643 13.5927925 3.4500651 7.9728665

body.block2.conv.weight f4 [64, 64, 3, 3]
000000 4d 5c 3a 3d a2 13 95 3c 16 4d 26 bd 20 90 6f 3d
       0.04549818 0.018197838 -0.04060086 0.058487058
000010 3c 65 b2 3c c6 61 6e bc 10 4d ca 3d 08 29 35 3d
       0.021776788 -0.014549678 0.0987798 0.044228584
000020 cd 3b 7f 3c e2 da 11 3d 5c f0 ab 3d 0a 1c 0b bd
       0.015578222 0.035609134 0.08395454 -0.033962287
000030 95 f5 18 3c 22 6b 8e bb 26 8f 42 bc 60 e9 4e 3b
       0.009335895 -0.0043462673 -0.01187495 0.0031572208
000040 a5 89 0b bd f7 30 a7 3c 60 7a 2a 3c 46 ed b3 bb
       -0.034066815 0.02040909 0.010405153 -0.0054909317
000050 b6 d9 14 3d 89 99 4b 3c 13 4d 27 bd c6 ab a9 ba
       0.036340438 0.012426742 -0.040844988 -0.0012944869
000060 e3 a9 c8 bd 55 46 35 be 8e 4b 48 be 30 1d a0 bd
       -0.09798028 -0.17702611 -0.19560072 -0.07818067
000070 0f 27 ef bc a5 6a 21 bc dd 08 65 be 0a 5c 4b bd
       -0.02919343 -0.009852086 -0.22366662 -0.049648322
000080 f2 71 3f bd b4 0d 6b be 86 58 20 be f3 50 4a bd
       -0.046739526 -0.22954446 -0.15658769 -0.049393605
000090 85 97 0b be 24 51 16 be 00 2a 21 be 67 3e 06 be
       -0.13632019 -0.1467939 -0.15738678 -0.13109742
0000a0 d5 96 01 be 28 ab 35 be 13 e2 e9 bd 70 2b b8 bd
       -0.12655194 -0.17741072 -0.11420073 -0.0899266
0000b0 b6 58 84 bd 93 a5 25 bd 0a 2a 39 bc 1d fd eb 3c
       -0.06462233 -0.040441107 -0.011301527 0.028807217
0000c0 1e 15 06 bd 5f 64 74 3a 76 48 a0 bc 1e c2 f2 3c
       -0.032734983 0.0009322818 -0.019565802 0.029633578
0000d0 1a 75 f6 bb f2 52 86 bd eb d9 a7 bd 0d 04 7d bd
       -0.007521284 -0.06558789 -0.081958614 -0.06177144
0000e0 50 d5 b5 bd 1c 81 21 bd 0d ea 5a bd 20 97 de bd
       -0.08878577 -0.03942977 -0.053445864 -0.108686686
0000f0 d5 af 33 3d 61 c6 7d bc de 70 07 be 1b 70 57 3d
       0.04386886 -0.015489192 -0.13226649 0.052597146
000100 6f 7f 50 3d 9e 20 8f bd 73 2f 68 bd 99 08 b3 bd
       0.05090278 -0.06988643 -0.056685876 -0.08741874
000110 10 52 9c bd c9 4b eb bc 5f 34 84 bd 19 4a 9a bd
       -0.0763284 -0.02872266 -0.064553015 -0.07533664
000120 bd ba 5e bc 09 6e a3 bd ce 8f d3 bc d9 53 41 3c
       -0.013594327 -0.07979972 -0.025825407 0.011799776
000130 ec d8 0f bd 14 f0 16 bd da 16 53 3d 4b 24 35 3c
       -0.035118982 -0.03685005 0.051535465 0.011056016
000140 78 c7 ec 3c 4d 09 f8 bc 14 af f4 bd 5f d5 e1 bd
       0.028903708 -0.030277872 -0.11947456 -0.110270254
000150 2d 63 bf bd 8c 42 b3 bd a5 e4 87 bd 6c 1d 82 3d
       -0.09345088 -0.08752927 -0.06635407 0.06353268
000160 4d 74 85 3c ce 34 7d 3d 8d 0c a8 3d db 9a 8b 3d
       0.016290808 0.061817937 0.08205519 0.06816646
000170 eb 32 9a 3d e4 6e 78 3b a1 9d d2 3c 4c 12 01 3d
       0.07529243 0.0037907893 0.025709929 0.03151159
000180 51 04 bc bd 8f 6b 27 be 05 ff 2e be 34 89 de 3d
       -0.09180511 -0.16349624 -0.1708947 0.10866013
000190 63 3e bd 3b 14 ac bf 3c 82 48 d6 3d e1 9f 28 3d
       0.0057752593 0.023397483 0.104630485 0.041168097
0001a0 6b 7c 1e bd 4a 56 9d 3d f5 9f c5 3b 55 38 4f bc
       -0.038692873 0.07682474 0.0060310313 -0.012647708
0001b0 ab b9 cc bd a8 e1 5e bd 7c bc bd bd cd 45 c7 3d
       -0.09996351 -0.05441442 -0.09264466 0.0973011
0001c0 a7 31 88 3c 85 5e ad 3c f0 51 5c bc 8f fe f2 3b
       0.016625239 0.021163234 -0.01344727 0.0074155997
0001d0 c7 0d 3e 3d 3d e2 29 bd cf 47 09 bd e3 7c d0 bc
       0.046399858 -0.041475523 -0.033515748 -0.025450176
0001e0 9c 30 bb bc 3b 98 ae bd fa e5 af bd 7c ba 2d bd
       -0.022850327 -0.085251294 -0.085887864 -0.042414173
0001f0 fb ae 67 bb d4 9a 48 3d 10 f7 80 3c df 89 4a 3d
       -0.00353521 0.04897578 0.015742809 0.04944789
000200 08 ad 04 3e 5f be 46 3b a1 be 8d 3c 07 1a e7 3c
       0.12956631 0.0030325872 0.017302813 0.028210653
000210 9d a3 1a bd 8e 87 f2 ba af 40 fa 3c 57 1d 76 bc
       -0.03775369 -0.0018503533 0.030548422 -0.015021644
000220 b4 cc 16 3e 40 c0 29 3e 0d e4 40 bd ed 56 07 3d
       0.14726526 0.16577244 -0.047092486 0.033041883
000230 8f af b8 3d a6 ee 32 3d bf 14 73 3d 60 79 25 3b
       0.0901786 0.043684624 0.059345957 0.0025249347
000240 fc 56 4a be 0e 2c 17 be 76 b1 0a bd f6 1e ea bd
       -0.19759744 -0.147629 -0.033860646 -0.114316866
000250 c1 49 a4 bd 6d 02 bc bc d7 f9 f5 bd 04 7e 81 bc
       -0.0802188 -0.022950375 -0.12010544 -0.01580716
000260 0e ff 11 3d f6 ec 98 3b 3e 22 2f bc f4 31 ae 3d
       0.03564363 0.00466692 -0.010689316 0.085056216
000270 c9 a5 81 3d 4b 99 b7 3c 5d b6 45 3d 03 20 04 3e
       0.06330449 0.022411963 0.04826962 0.12902837
000280 c3 f1 63 3d 28 f5 6c 3c ad a0 5d 3d 58 2d 86 3d
       0.055650484 0.014462747 0.05410831 0.065516174
000290 f1 74 9c 3d 74 43 9c 3d 2f c7 83 3d 04 07 13 3d
       0.07639492 0.07630053 0.06434476 0.035895362
0002a0 29 f8 b5 3d ba 40 e4 3d 21 25 98 3d d0 1b 5c 3d
       0.088852234 0.11145158 0.07428957 0.05373746
0002b0 de 0d 2e 3d 78 24 02 3d 66 c8 e4 3c 26 2b e9 bc
       0.042493694 0.03177306 0.027927589 -0.028462958
0002c0 6a bf 1e 3c 08 1f be bd 42 28 92 bd 0e 9e ae bd
       0.009689191 -0.092832625 -0.07136585 -0.0852624
0002d0 9c 68 18 3e 46 8d 02 3e 84 74 9b 3d 96 fb 1e 3e
       0.14883655 0.12749204 0.07590583 0.1552566
0002e0 33 13 18 3e f7 45 8d 3d 6c 37 ff 3d 44 0f 1a 3e
       0.14851074 0.0689811 0.12461743 0.15044886
0002f0 75 10 18 3d 73 aa 05 3e ce 7a 87 3d cf 59 79 3d
       0.03712507 0.13053302 0.0661522 0.060876664
000300 83 15 7d 3d cc 8f eb 3d b8 98 11 3e 96 63 58 3d
       0.061788093 0.115020365 0.14218414 0.052829348
000310 10 77 17 3e 05 58 33 3e 4b fb a4 bc e1 34 14 3d
       0.14791512 0.17514046 -0.020139357 0.03618324
000320 51 0b aa bc 43 a5 59 bd 03 42 8f 3c 65 50 66 bd
       -0.02075735 -0.05313612 0.017487532 -0.056229014
000330 97 bc 39 bb 0b 90 86 bd ab 9a ef 3b 02 2e 0b 3c
       -0.0028341168 -0.06570443 0.007312139 0.008494856
000340 0b f4 35 bc 87 e3 d9 3c e1 ed f0 3c 9d c2 65 3d
       -0.011105548 0.026597751 0.029410305 0.0560938
000350 cd 5d 43 3d 6d 62 12 bc 7a a7 c6 3c c0 44 85 3d
       0.047696877 -0.008934599 0.02424978 0.06507254
000360 53 32 6e 3d 60 28 4b 3c 77 41 02 bd 1f 82 39 3d
       0.05815346 0.012399763 -0.031800713 0.04529011
000370 5d 4f 51 3c 07 d2 cf bc 05 a3 38 3d 8f cc 5f 3d
       0.012775269 -0.025368704 0.045077343 0.05463844
000380 74 25 c3 bb da eb db bc 8d 7a 84 3c 69 82 73 3c
       -0.0059553925 -0.026845861 0.016171718 0.014862635
000390 7f 58 8f bc fd e9 b5 bc d4 71 6b 3c f4 57 6b 3c
       -0.017498253 -0.0222063 0.0143704 0.014364231
0003a0 c2 1e 40 3c 05 d5 09 bd 42 f0 04 bd 3b 15 44 bb
       0.011726083 -0.033650417 -0.03245569 -0.002991988
0003b0 49 36 4f bd 44 eb 06 3c 65 58 26 bd 52 1e 92 bd
       -0.05058888 0.008234803 -0.040611643 -0.071346894
0003c0 f6 09 d6 3d 44 b3 9a 3d f6 05 db 3c 1c ad b8 3b
       0.10451119 0.075537235 0.02673624 0.0056358706
0003d0 1c 5c 46 bc ff e2 cd 3c 2f 34 81 3b 3a d8 50 bc
       -0.0121069215 0.025132654 0.0039429883 -0.012746865
0003e0 68 d0 48 3d 7c fb f6 bc c2 85 af b9 3b 0d 29 3c
       0.049026877 -0.030149214 -0.00033478258 0.010318096
0003f0 a5 93 87 bd 48 58 82 3b 6b bc 42 bc 13 33 df bc
       -0.06619958 0.003977809 -0.011885743 -0.027246034

body.block2.conv.bias f4 [64]
000000 ac 5a 33 bd ed 67 55 bc a7 6e 13 3d d5 b9 62 3c
       -0.043787643 -0.013025266 0.0359942 0.013838251
000010 2f 78 f5 3b 1c b8 72 3c 6a f2 1f bd 13 56 1c bd
       0.0074911336 0.014814403 -0.039049543 -0.038168024
000020 11 66 8c 3c 76 a2 eb 3a c0 43 44 bc a7 43 81 3b
       0.017138513 0.0017977494 -0.0119790435 0.0039448324
000030 f4 71 78 3c b1 9e db 3b 60 87 e4 3c c8 4a b7 3c
       0.015163887 0.006702267 0.027896583 0.022374526
000040 4c 84 f6 bb 87 be 0d 3c 57 d4 60 bb 56 66 16 3d
       -0.0075230952 0.008651382 -0.0034306252 0.03671869
000050 66 ea ce bb 45 11 70 3c 70 8d 90 bc b9 4d 11 bd
       -0.0063145636 0.014652555 -0.017645568 -0.035474513
000060 22 7f b1 bc 9e a4 d9 3c 09 db 19 bd e9 c0 40 3d
       -0.021667067 0.026567753 -0.037562404 0.047058973
000070 71 ee 17 bd 56 cb 3f 3c a5 33 91 3b 9f dc e0 3c
       -0.03709263 0.011706194 0.0044312053 0.02744895
000080 3d 3f 12 3b ca 64 01 bd df e1 92 bc 92 38 da bc
       0.0022315525 -0.03159026 -0.01792997 -0.026638303
000090 07 7b aa bc ff 9a ff bc 1b 4e 8e bb a7 a3 02 bd
       -0.020810617 -0.031201838 -0.004342807 -0.031894352
0000a0 31 f5 13 bd 48 a4 b1 3c cd d5 cc 3c 60 57 55 bc
       -0.036122505 0.02168478 0.025004292 -0.01302132
0000b0 d6 ad 10 bd 6d 42 4a bc e2 3d c8 3c f9 b1 9c bc
       -0.035322033 -0.012344939 0.02444357 -0.019127833
0000c0 5e eb 18 3b 84 dc e6 bc e5 be d7 3c 3f f3 1a bd
       0.002333365 -0.028181322 0.026336143 -0.037829634
0000d0 60 d9 c0 3c 08 19 d1 3b e1 ee d0 bc 3d 2b 91 bc
       0.023541152 0.006381158 -0.025504531 -0.017720813
0000e0 a4 7e 81 bc 9a c8 9a bc a9 57 a7 3b da 20 28 3d
       -0.015807457 -0.018894482 0.0051068855 0.041046955
0000f0 98 7c f4 3a 38 0d fa 3b ce 7b 39 3c 14 d7 b6 3c
       0.0018652854 0.0076309703 0.011321021 0.022319354

body.block2.norm.weight f4 [64]
000000 c5 61 87 3f 72 ac 6d 3f d9 1a 6b 3f 5b 40 79 3f
       1.0576712 0.92841256 0.9183784 0.97363824
000010 50 0f 7e 3f da bc 6a 3f 7d ad 29 3f 8d 8e 87 3f
       0.99242115 0.91694415 0.6628035 1.0590378
000020 1f 16 45 3f a9 e4 85 3f 14 eb 82 3f 6e 3c 6f 3f
       0.7698688 1.0460407 1.022799 0.93451583
000030 a2 9f 76 3f cf 82 5d 3f d9 4b 67 3f f1 6a 7c 3f
       0.9633733 0.86527723 0.9035011 0.9860068
000040 e9 d6 5a 3f 42 ac 5d 3f 29 90 7e 3f 8b e2 84 3f
       0.85484177 0.8659097 0.9943872 1.0381635
000050 f1 25 5b 3f 24 41 6b 3f 93 b9 7f 3f d5 55 63 3f
       0.8560477 0.9189627 0.9989254 0.88802844
000060 ae a1 79 3f e9 17 61 3f 03 89 83 3f 5f a3 7b 3f
       0.9751233 0.8792711 1.0276188 0.9829616
000070 b4 76 7a 3f 79 1b 90 3f 83 d6 72 3f d9 1a 70 3f
       0.97837377 1.1258384 0.9485857 0.93790966
000080 61 d5 80 3f e5 9c 5c 3f 96 f0 65 3f bd 4b 4b 3f
       1.0065118 0.861769 0.8982023 0.7941244
000090 9b a1 6a 3f ac ac 55 3f 00 5e 88 3f d0 30 70 3f
       0.9165284 0.834666 1.0653687 0.9382448
0000a0 39 b7 66 3f fd 5d 7f 3f 23 be 69 3f 13 c3 6f 3f
       0.90123326 0.9975279 0.9130575 0.93657035
0000b0 4c c2 49 3f 25 8b 48 3f bb d7 4b 3f 8a 5d 6e 3f
       0.788121 0.7833732 0.79626054 0.9311148
0000c0 59 5e 74 3f 92 ab 71 3f 26 2a 72 3f 12 03 85 3f
       0.95456463 0.9440242 0.94595563 1.0391562
0000d0 33 27 6a 3f 15 5d 95 3f 22 b3 77 3f d0 18 78 3f
       0.91466063 1.1669031 0.9675771 0.9691286
0000e0 dd 0d 6b 3f fd da 4e 3f 44 2a 6b 3f 63 68 6a 3f
       0.9181803 0.808029 0.9186137 0.9156553
0000f0 fb 65 72 3f 97 ed 66 3f 9e 43 72 3f 18 ab 89 3f
       0.9468686 0.90206283 0.94634426 1.0755339

body.block2.norm.bias f4 [64]
000000 5c f6 98 bd ab 4f 41 be b0 52 bb be 86 d3 af be
       -0.07468864 -0.18878047 -0.36586523 -0.34341067
000010 12 18 a6 bd a7 c7 d9 be 66 27 b7 be 7b d9 58 bd
       -0.0811006 -0.42535135 -0.35772246 -0.05294178
000020 e5 c8 d8 be 04 9a 91 be 30 4f ef bd 93 9a c7 be
       -0.4234077 -0.28437817 -0.11685026 -0.38985118
000030 83 4a 3b be 29 0e 1f be 8c ed 33 bd 51 fc d6 be
       -0.18290143 -0.15532745 -0.043927714 -0.41989377
000040 be c1 c5 be 64 ed 51 be 0e bb 96 3c 18 f4 79 be
       -0.38624376 -0.20500714 0.018399742 -0.2440952
000050 f0 b0 f3 be 68 e0 45 be ce a1 f6 3b 3d f9 a9 bd
       -0.4759593 -0.19323885 0.007526613 -0.082994916
000060 f5 b9 b3 bd e8 ba ec be 76 fc 4d bd 75 98 f4 bd
       -0.08775703 -0.46236348 -0.050289594 -0.11943141
000070 7a d1 54 bd 73 c3 e9 be 6e 81 cd be a6 3c e3 be
       -0.051957585 -0.45656928 -0.4013781 -0.4438221
000080 87 e4 11 be 4c 1b ab be 46 02 d2 be 58 6d ee be
       -0.14247333 -0.33419263 -0.4101736 -0.46567798
000090 a9 6e 4f be f2 68 dd be 16 a6 07 3d d9 41 eb be
       -0.20257057 -0.4324413 0.033117376 -0.45948675
0000a0 50 76 01 bf 03 fa d6 be a0 58 7d be 37 39 5b 3c
       -0.50571156 -0.4198762 -0.24740839 0.01338034
0000b0 36 01 04 bf 9a 71 b1 be 4f dd 12 bf 37 1d dd be
       -0.5156435 -0.34656984 -0.5736894 -0.43186352
0000c0 c5 d9 c3 bd 30 aa 86 be 5f fd 1f be 4e 77 9c be
       -0.095630206 -0.26301718 -0.15623997 -0.30559772
0000d0 fb 7e 43 be 2c d1 93 3d 03 bb b7 be 13 64 b2 bd
       -0.19091408 0.07217631 -0.35884866 -0.08710494
0000e0 f7 36 22 be 58 0a a6 be c9 3e b0 be 2a 13 2b be
       -0.1584128 -0.32429767 -0.344229 -0.1670653
0000f0 ed 5e f4 be fa ed b1 be 5e 91 8c be e4 af de be
       -0.47728673 -0.34751874 -0.27454656 -0.4349357

body.block2.norm.running_mean f4 [64]
000000 89 fd c8 3f 7c b5 27 c0 aa ab 92 bf 83 60 0b c0
       1.5702373 -2.620452 -1.1458638 -2.1777656
000010 a5 d5 20 3f 9d 78 1f bf df dd 39 bf 3b 90 55 3e
       0.62825996 -0.62293416 -0.72604173 0.20855801
000020 fe 9a dd bf f8 a2 1f c0 fe bf c9 3f b8 b6 c5 3f
       -1.7312925 -2.4943218 1.5761716 1.5446386
000030 8d c8 7d bf 78 39 af 3e 7b 84 a4 bf 67 f3 40 c0
       -0.9913414 0.34223533 -1.285293 -3.014856
000040 3a 15 3c be d3 4e e1 3e 7f cb 1e 3e 1e f3 fe bf
       -0.18367472 0.4400545 0.15507315 -1.9917943
000050 58 4d 50 40 d4 46 38 bf 02 00 1c c0 8f 2d 43 bf
       3.2547207 -0.71983075 -2.4375005 -0.7624139
000060 e8 29 84 bf ac da 91 3f 0d 69 2d c0 6e 36 95 3f
       -1.0325289 1.1394858 -2.7095368 1.1657236
000070 9b ed 0c c0 72 58 38 c0 43 3c e2 bf 25 1c 47 40
       -2.2020023 -2.8803983 -1.767464 3.1110928
000080 d8 42 4e c0 82 18 24 bf f0 25 99 bf 65 e8 3e 40
       -3.2228298 -0.64099896 -1.1964703 2.9829342
000090 e8 f7 ad 3f b9 01 b7 be be ef 17 c0 41 52 22 40
       1.359128 -0.35743502 -2.3740077 2.5362704
0000a0 73 b8 85 bf 30 85 4b c0 ce 77 aa 3d d3 9b f0 be
       -1.0446914 -3.1800041 0.08323632 -0.46993884
0000b0 a0 c0 03 bf fb fb 84 bf 7c fe 34 40 c9 90 02 40
       -0.514658 -1.0389398 2.8280325 2.040087
0000c0 7b 28 49 c0 b2 0e 0b 40 17 d4 3f 3f c6 2f 35 bf
       -3.1430957 2.172772 0.74933 -0.7077602
0000d0 71 a2 0a 3e 93 43 af bf 60 19 12 bf 37 89 f2 bf
       0.13538529 -1.3692497 -0.5706997 -1.8948125
0000e0 92 f5 f9 3f 93 c4 34 3c 0e 9b 29 40 32 50 21 40
       1.9528067 0.011033195 2.6500888 2.5205197
0000f0 d7 8e b7 3f 44 2c e9 3f c3 14 b2 3f 09 f0 da bf
       1.4340466 1.8216634 1.3912586 -1.7104503

body.block2.norm.running_var f4 [64]
000000 8b b0 98 41 d6 42 2f 41 ca 0e 9f 40 22 2d 0c 40
       19.086203 10.953817 4.9705553 2.1902547
000010 c9 b6 1d 40 f5 29 15 41 55 d2 49 40 14 30 71 41
       2.4642813 9.322743 3.1534626 15.074238
000020 9a ce 16 41 78 37 52 40 de ba e3 40 b6 57 0b 41
       9.42544 3.2846355 7.116561 8.708914
000030 ff 79 9d 41 72 18 a5 40 05 04 11 41 4e 83 86 41
       19.684568 5.159234 9.063481 16.814114
000040 a2 e1 db 40 18 84 1e 41 ef df a2 40 7f e1 56 40
       6.871293 9.907249 5.0898356 3.3575132
000050 cd 17 64 41 8e 76 93 41 24 c8 83 40 0b a2 34 40
       14.255811 18.432888 4.118181 2.8223903
000060 e6 6b 17 41 51 cc f2 40 86 8f fe 40 5e a0 77 41
       9.463842 7.587441 7.95502 15.476652
000070 e0 be 16 41 7d 87 d1 3f fa 04 9e 40 35 75 f3 40
       9.4216 1.6369473 4.9381075 7.6080575
000080 4a 20 ac 41 ba b1 d0 40 52 8d 6d 41 bd bb 2b 41
       21.515766 6.521695 14.847002 10.733335
000090 76 a3 eb 40 99 a8 81 40 5b 05 3d 41 c2 5b 15 41
       7.3637037 4.051831 11.8138075 9.334902
0000a0 d0 2f 22 40 fb 40 2b 41 76 a5 f1 40 d2 86 8e 40
       2.5341682 10.703364 7.551448 4.4539576
0000b0 13 20 0d 40 e7 0c 50 40 2a 69 0b 41 6d 0e 31 41
       2.2050827 3.2507875 8.713175 11.066022
0000c0 36 10 96 41 e0 82 2d 41 9f 70 1a 41 3b 3e 87 40
       18.757915 10.844452 9.652495 4.2263465
0000d0 f7 0d 70 40 3b 62 89 41 19 a6 48 40 23 96 1e 41
       3.7508523 17.172964 3.1351378 9.911654
0000e0 93 4d d5 40 7c 58 80 40 27 62 21 41 25 fb 68 40
       6.6657195 4.0108013 10.086463 3.6403286
0000f0 64 1d 0e 41 b4 f5 b1 40 61 4f 13 41 54 7a af 40
       8.882175 5.561243 9.20688 5.4836826
