code/Output/starry_night_full/pdl_e8000_1px_lr0.001a10.0_up-conv5_1_W[1.0, 0.5, 0.1, 0.075, 0.075](8)/4/netG.pth (torch, 471621 bytes, 26 tensors)

head.conv.weight f4 [64, 3, 3, 3]
0	0x3dd473e2	0.103736654
1	0x3d46dcd1	0.04855043
2	0xbd252dd9	-0.040326927
3	0x3dc138ce	0.09434663
4	0x3cbb4b24	0.022862978
5	0x3c9a7972	0.018856738
6	0xbd878894	-0.06617847
7	0x3c73477d	0.014848587
8	0xbc6a8de7	-0.014316059
9	0x3dc65846	0.096848056
10	0x3d51d811	0.051231448
11	0xbd9f9d19	-0.07793636
12	0x3d3832f1	0.044970457
13	0xbd8e52aa	-0.06949361
14	0xbd98f766	-0.074690625
15	0xbe5e5ba0	-0.2171464
16	0x3abc40e6	0.0014362603
17	0x3ac4eea1	0.001502473
18	0x3da63576	0.081156656
19	0x3c8d83c1	0.01727474
20	0xbd7102fc	-0.058840737
21	0xbcaf1a53	-0.021374857
22	0xbc392540	-0.011300385
23	0x3d5035c7	0.050832536
24	0xbdb0d8ae	-0.08635078
25	0x3c9458a7	0.018108679
26	0x3bb3a6ad	0.005482516
27	0xbd3bc7c6	-0.045844816
28	0x3c1ac397	0.009446046
29	0xbc50f8a5	-0.012754594
30	0xbd06d780	-0.03292036
31	0xbd5bd83d	-0.053673018
32	0xbd1d933e	-0.0384705
33	0xbc65e0a0	-0.014030606
34	0xbbe8abaa	-0.007100542
35	0xbc8034bb	-0.015650144
36	0xbe0bc3d6	-0.13648924
37	0xbd251106	-0.040299438
38	0xbcc9ae95	-0.02461938
39	0xbdc9c2db	-0.09851619
40	0xbe01215d	-0.12610383
41	0xbd2bbfaa	-0.041930832
42	0x3bba4791	0.005684801
43	0xbd589600	-0.052877426
44	0xbd00e9c4	-0.031472936
45	0xbde9b2c7	-0.11411052
46	0xbcb84838	-0.022495374
47	0x3ba31b0e	0.0049775904
48	0xbc842e50	-0.016135365
49	0x3c2c301f	0.01050952
50	0x3cc3976f	0.02387592
51	0x3d05eee6	0.032698534
52	0x3ca4c6f9	0.020114409
53	0x3d7bb061	0.061447505
54	0x3c895d6b	0.016768178
55	0xbd9c58fa	-0.076341584
56	0xbddc4dae	-0.10757004
57	0x3d880f91	0.06643594
58	0x3ad4abb4	0.0016225488
59	0x3c1705a9	0.009217658
60	0x3a4ee1c6	0.0007891919
61	0xbd90698f	-0.07051384
62	0xbc0e7243	-0.008694234
63	0x3c8e4c97	0.017370505
64	0x3b3eafee	0.0029096561
65	0xbdb5c730	-0.088758826
66	0x3e080368	0.1328255
67	0x3d9db1bb	0.07699915
68	0x3d8ab9fe	0.067737564
69	0x3da73e67	0.08166199
70	0x3d5f6646	0.054540895
71	0x3e0f13e2	0.13972428
72	0xbd0cb464	-0.03435172
73	0xbd182bed	-0.037151266
74	0xbd600b43	-0.05469824
75	0xbbc7656e	-0.0060850894
76	0xbd3ef7c8	-0.04662302
77	0xbd1a017d	-0.037599076
78	0x3d1e5204	0.038652435
79	0xbc242238	-0.010017924
80	0x3d0755f5	0.03304096
81	0xbc4d3150	-0.012523964
82	0xbcdbf55a	-0.026850391
83	0xbb855ba1	-0.004069761
84	0xbbf3db49	-0.0074419123
85	0x3ce2773c	0.027644746
86	0xbb9f7df9	-0.004867312
87	0xbd1338f3	-0.035942983
88	0xbd520291	-0.05127198
89	0x3cf2d6e1	0.029643478
90	0xbd63dd5e	-0.055631034
91	0xbbac9cf6	-0.0052677346
92	0x3c81ef21	0.015861096
93	0x3c3fdbb2	0.011710094
94	0x3d1865ab	0.037206333
95	0xbc0ba04b	-0.008522104
96	0x3d521386	0.05128815
97	0xba5f2ae2	-0.0008513165
98	0x3c3a708e	0.011379374
99	0x392c1038	0.0001640924
100	0x3c26914c	0.010166477
101	0x3de7e8a8	0.113236725
102	0x3d14ffd3	0.036376785
103	0x3d6069ec	0.054788515
104	0xbc9649fd	-0.018345827
105	0xbcd53f89	-0.026031272
106	0xbe1ccd4d	-0.15312691
107	0xbe79bb72	-0.24387911
108	0x3c2d697d	0.010584232
109	0xbbd10ae4	-0.006379472
110	0x3d355428	0.04426971
111	0x3c38872d	0.011262697
112	0x3a023573	0.0004967071
113	0xbd0cef2c	-0.03440778
114	0xbc836519	-0.016039418
115	0xbc4287d6	-0.011873206
116	0x3d85194c	0.064989656
117	0x3d03dfd8	0.032195896
118	0xbb43d82c	-0.0029883487
119	0x3c4c868a	0.0124832485
120	0x3cf0bad0	0.029385954
121	0x3c1fdb99	0.009756946
122	0xbdadb134	-0.084810644
123	0x3b318255	0.002708574
124	0x3d611bda	0.054958202
125	0x3c4b84c7	0.012421793
126	0x3dd81f0c	0.10552797
127	0xbdeb7c6b	-0.1149834
128	0xbdae5990	-0.085131764
129	0x3dd6e79e	0.10493396
130	0x3cf51c51	0.029920729
131	0xbbaa4089	-0.0051956815
132	0xbb8d0050	-0.004303016
133	0x3d3180a5	0.043335576
134	0xbd481636	-0.048849307
135	0xbd056362	-0.032565482
136	0x3c2dc195	0.010605236
137	0x3da257e4	0.0792692
138	0x3d9b500a	0.075836256
139	0x3ce2eb57	0.02770011
140	0xbcd61c7f	-0.026136635
141	0x3da8fa9f	0.08250927
142	0x3de840a4	0.11340454
143	0xbc4c19c1	-0.012457312
144	0xbd912cd5	-0.07088629
145	0xbd798a1e	-0.060922734
146	0x3c98deff	0.01866102
147	0xbdd7489f	-0.10511898
148	0xbe2b38a0	-0.1672082
149	0xbca8d365	-0.020608613
150	0xbcaaace0	-0.020834386
151	0xbcbbb733	-0.022914505
152	0xbd98f751	-0.07469047
153	0x3d957d96	0.07299344
154	0x3d3cf86e	0.04613536
155	0xbb2c5750	-0.002629716
156	0x384db12c	4.9040813e-05
157	0xbca29ade	-0.019849237
158	0x3d9b20d3	0.0757462
159	0xbd8fe134	-0.07025376
160	0x3bb82d2c	0.0056206193
161	0x3d2b4c4b	0.041820806
162	0xbdafc327	-0.08582144
163	0xbd668fbb	-0.056289416
164	0xbcfe9323	-0.03107602
165	0xbd7ce3c1	-0.06174064
166	0xbc4aaa08	-0.01236964
167	0x3d6c8683	0.057745468
168	0x3d5cfada	0.05395017
169	0x3d2d40f8	0.042298287
170	0x3ce1ffa5	0.027587721
171	0xbdb3f307	-0.08786588
172	0x3b01c315	0.0019800116
173	0xbd1731db	-0.03691278
174	0x3cdbfed5	0.026854912
175	0x3cc66754	0.024219193
176	0x3d57a7bc	0.0526502
177	0x3d843f73	0.064574145
178	0x3d54a7bd	0.05191778
179	0x3d272d69	0.04081479
180	0x3d69d54c	0.05708818
181	0x3d89b182	0.0672331
182	0x3d96c906	0.07362561
183	0x3dc9db29	0.098562546
184	0x3d1e12f3	0.03859229
185	0xbdc22a28	-0.09480697
186	0xbdd7ddfd	-0.10540388
187	0xbdc63705	-0.09678463
188	0xbd5b152f	-0.053487
189	0x3ade98bd	0.0016982775
190	0x3cad59f8	0.021161065
191	0x3ce97018	0.028495833
192	0xbd3ffdac	-0.04687278
193	0x3cefcb7e	0.029271837
194	0xbcdd1a23	-0.026990002
195	0x3c770606	0.01507712
196	0xbc9c254a	-0.01906075
197	0xbdc2d161	-0.09512592
198	0x3c8a2752	0.016864453
199	0xbd705642	-0.05867601
200	0xbc87d387	-0.016580356
201	0x3c2dd6bf	0.0106102815
202	0x3d180271	0.037111703
203	0xbd866943	-0.06563046
204	0xbc4f3974	-0.012647975
205	0xbd17a969	-0.037026796
206	0xbd89c7a1	-0.06727529
207	0xbc3a9b22	-0.011389526
208	0xbd11cb8d	-0.03559451
209	0x3c1aaec5	0.009441082
210	0x3dd38295	0.10327641
211	0x3d76847b	0.060184937
212	0xbbe323a2	-0.006931738
213	0x3d986e71	0.0744294
214	0x3d16f9ef	0.03685945
215	0x3d2a26b5	0.04154082
216	0x3c4f2438	0.012642913
217	0x3b2d2dc9	0.0026424995
218	0xbdd53c60	-0.10411906
219	0xbd0e738d	-0.034778167
220	0x3c9c9ffd	0.019119257
221	0x3b88ba2f	0.0041725854
222	0x3c5de543	0.01354343
223	0xbc9f322e	-0.019433107
224	0x3cf5d5d7	0.030009193
225	0x3cb72aca	0.02235927
226	0x3be8eddd	0.0071084336
227	0x3cec9092	0.02887753
228	0xbe1634c4	-0.14668566
229	0x3d321959	0.043481205
230	0x3de59c36	0.112114355
231	0xbd77f58d	-0.06053691
232	0xbd09c3ff	-0.033634182
233	0x3da1c2b4	0.07898465
234	0xbd323850	-0.043510735
235	0x3be4159b	0.0069605834
236	0x3d9016f9	0.07035632
237	0xbdded837	-0.108810835
238	0x3cac243e	0.021013375
239	0x3dacffa5	0.08447198
240	0xbe093034	-0.13397294
241	0x3bcaf39e	0.006193592
242	0x3dba82f6	0.0910701
243	0xbd451c2d	-0.048122574
244	0x3d12b131	0.035813514
245	0x3c70a277	0.014687172
246	0xbd36dfdd	-0.044647086
247	0xbd8b86ba	-0.068128064
248	0xbdab0e74	-0.08352366
249	0x3ca52f34	0.02016411
250	0xbd624c5e	-0.05524861
251	0xbad87338	-0.001651383
252	0xbd56a3ab	-0.05240218
253	0x3d2ecf90	0.042678416
254	0x3c662b43	0.0140484
255	0x3ab899d9	0.0014083936

head.conv.bias f4 [64]
0	0x3ce6395c	0.028103523
1	0xbe224d5a	-0.1584982
2	0xbdabf7e6	-0.08396892
3	0x3e257472	0.16157702
4	0x3e2a55b5	0.16634257
5	0x3dba8a81	0.09108449
6	0xbe3373f0	-0.17524695
7	0xbe3f23a8	-0.18665946
8	0x3db2cbab	0.08730253
9	0xbe0800c3	-0.1328154
10	0xbd5dcb3f	-0.05414891
11	0xbded158d	-0.11576376
12	0x3e17b81f	0.1481633
13	0xbd3211c6	-0.04347398
14	0xbcbea241	-0.023270728
15	0xbe2ad6ea	-0.16683546
16	0xbe18153b	-0.14851849
17	0xbdaf0fd0	-0.08547938
18	0x3c28ac37	0.0102949655
19	0xbe0085fa	-0.12551108
20	0x3e60bce5	0.21947058
21	0xbe2120bc	-0.15735143
22	0x3d98d2f2	0.074621096
23	0xbe40cc80	-0.1882801
24	0x3db7faca	0.08983381
25	0x3e20af92	0.15691975
26	0x3d4d4de3	0.050123107
27	0x3e0b3803	0.13595586
28	0xbd173218	-0.036913007
29	0x3e1e981d	0.15487714
30	0xbe346ee6	-0.1762043
31	0x3e1538f2	0.14572504
32	0x3d6a32b3	0.057177257
33	0x3da407fc	0.080093354
34	0xbe07015b	-0.13184111
35	0xbe22114b	-0.15826909
36	0x3e3a6271	0.18201615
37	0xbe2c3fdc	-0.16821235
38	0x3d4c2b41	0.049845938
39	0xbe1fe6bf	-0.15615366
40	0xbd99bf53	-0.07507195
41	0xbd9e7b14	-0.07738319
42	0x3e162e23	0.14666037
43	0xbdb21ee1	-0.08697296
44	0x3e0eab20	0.13932467
45	0x3e2d761d	0.16939588
46	0x3d902045	0.07037405
47	0x3e1eb919	0.15500297
48	0xbc504ed4	-0.012714107
49	0x3df19cf9	0.11797518
50	0xbdf6515c	-0.12027237
51	0x3dc7fed2	0.097654
52	0x3da0bb67	0.07848244
53	0xbc93fda0	-0.018065274
54	0x3c9f82b1	0.019471498
55	0x3cb6990b	0.022289773
56	0x3e458c4a	0.19291797
57	0x3cd9f082	0.02660394
58	0xbbfbd4ba	-0.007685271
59	0x3cbaa565	0.022783944
60	0x3d48301c	0.048874006
61	0xbc4d9eef	-0.0125501
62	0x3e43031f	0.1904416
63	0x3ddac156	0.10681407

head.norm.weight f4 [64]
0	0x3f884506	1.0646064
1	0x3f643d21	0.89155775
2	0x3f8684e1	1.0509301
3	0x3f5db8f8	0.86610365
4	0x3f852217	1.0401028
5	0x3f819b77	1.0125569
6	0x3f8a83e0	1.0821495
7	0x3f72d952	0.94862854
8	0x3f87aabe	1.0598981
9	0x3f60b5da	0.87777483
10	0x3f8a60b7	1.0810765
11	0x3f73f2f7	0.9529261
12	0x3f8249ec	1.0178809
13	0x3f646704	0.8921969
14	0x3f60591b	0.87635964
15	0x3f6ffa10	0.9374094
16	0x3f85ba24	1.0447431
17	0x3f5eb355	0.8699239
18	0x3f665abc	0.899822
19	0x3f6db055	0.92847186
20	0x3f7fea4e	0.99966896
21	0x3f6b60af	0.919444
22	0x3f87c8b7	1.0608128
23	0x3f670833	0.90246886
24	0x3f87b70e	1.0602739
25	0x3f772073	0.9653389
26	0x3f8e32eb	1.1109289
27	0x3f7a90fc	0.9787748
28	0x3f6b0c61	0.91815764
29	0x3f750b4b	0.95720357
30	0x3f8d37d7	1.1032666
31	0x3f76dc13	0.96429557
32	0x3f83a4a1	1.0284616
33	0x3f86cff4	1.0532212
34	0x3f602a75	0.87564784
35	0x3f5076bc	0.81431174
36	0x3f8f6991	1.1204091
37	0x3f93bd28	1.1542101
38	0x3f85312f	1.0405635
39	0x3f6e6352	0.931203
40	0x3f618067	0.8808655
41	0x3f6405b2	0.8907119
42	0x3f829013	1.0200218
43	0x3f913375	1.1343828
44	0x3f85a777	1.0441731
45	0x3f642663	0.89121073
46	0x3f6125a2	0.8794805
47	0x3f6fb3b3	0.93633574
48	0x3f7a6c10	0.9782114
49	0x3f5b5cbc	0.85688376
50	0x3f702f3c	0.93822074
51	0x3f7981e1	0.97463804
52	0x3f83e12d	1.0303093
53	0x3f5397a7	0.8265328
54	0x3f808801	1.0041505
55	0x3f6a4544	0.9151194
56	0x3f7906b2	0.9727584
57	0x3f55f266	0.83572996
58	0x3f70cae3	0.9405958
59	0x3f7472f6	0.95487916
60	0x3f6b57a0	0.9193058
61	0x3f7d667c	0.98984504
62	0x3f685987	0.9076161
63	0x3f795691	0.97397715

head.norm.bias f4 [64]
0	0xbde29405	-0.11063389
1	0xbe5ed927	-0.21762525
2	0xbea0b78d	-0.31390038
3	0xbe619000	-0.22027588
4	0xbe86e41b	-0.26345906
5	0xbe853aac	-0.26021326
6	0xbe67855e	-0.2260947
7	0xbe176c80	-0.14787483
8	0xbdd339d0	-0.10313761
9	0xbe51dd84	-0.20494658
10	0xbd98b0bc	-0.074555844
11	0x3daaeb4e	0.08345662
12	0xbd65b31d	-0.05607902
13	0xbea0e843	-0.31427202
14	0xbe5f9f87	-0.21838199
15	0xbe50cfa8	-0.20391715
16	0xbe97601f	-0.29565522
17	0xbe05a690	-0.1305182
18	0xbdb64011	-0.088989384
19	0xbe2ebe86	-0.17064866
20	0xbdff6203	-0.12469866
21	0xbe5575e0	-0.20845747
22	0xbc07e5f9	-0.008294576
23	0xbeb39910	-0.35077715
24	0xbe611bb4	-0.21983224
25	0xbdf6bd73	-0.12047853
26	0xbe050acc	-0.129924
27	0xbe8e35f8	-0.2777555
28	0xbe5b9251	-0.21442534
29	0xbe1cf1a9	-0.15326561
30	0xbdc8933d	-0.097937085
31	0xbe59b3a8	-0.2125994
32	0xbe841ec2	-0.25804716
33	0xbd2fb8eb	-0.04290096
34	0xbe19b689	-0.15011038
35	0xbed99a7d	-0.42500678
36	0xbe6a0a2d	-0.22855444
37	0xbe4ed756	-0.20199332
38	0xbd5884c1	-0.05286098
39	0xbe55080b	-0.2080385
40	0xbe61935c	-0.2202887
41	0xbec562eb	-0.3855203
42	0xbe7db6bc	-0.24776739
43	0xbd8894ea	-0.06669028
44	0xbe78afd3	-0.24285822
45	0xbe5c765f	-0.2152953
46	0xbe2b71aa	-0.16742578
47	0xbe775f0f	-0.24157356
48	0xbeb8ecea	-0.3611825
49	0xbd118783	-0.035529625
50	0xbe5e705c	-0.21722549
51	0xbdd6b6c9	-0.10484082
52	0xbd1e179b	-0.03859673
53	0xbe523d2a	-0.20531145
54	0xbe9970c3	-0.29968843
55	0xbeae0631	-0.339891
56	0xbe9f9ca1	-0.31174186
57	0xbe560bff	-0.20903014
58	0xbe7b5f98	-0.24548185
59	0xbe8be736	-0.27324837
60	0xbe893169	-0.2679551
61	0xbda7969e	-0.08183025
62	0xbe8ac40c	-0.27102697
63	0xbd909112	-0.0705892

head.norm.running_mean f4 [64]
0	0x3ccee968	0.025257781
1	0x3ce6c7b3	0.028171396
2	0xbdf49cee	-0.119439945
3	0x3e5076ce	0.2035782
4	0x3e03bd6a	0.12865224
5	0x3db5d739	0.08878941
6	0xbe3bb6dc	-0.18331474
7	0xbe18317c	-0.14862627
8	0x3dcd85eb	0.100353085
9	0xbd4715db	-0.048604827
10	0xbd19a9ff	-0.037515637
11	0xbe27b0be	-0.16376016
12	0x3e328b64	0.17435986
13	0x3dab7f8e	0.083739385
14	0xbdedb88c	-0.11607465
15	0xbe75152a	-0.23933855
16	0xbe62763b	-0.22115414
17	0x3c779bfb	0.015112872
18	0x3e26e700	0.16299057
19	0xbdae42f5	-0.08508865
20	0x3e5dfb8b	0.21677987
21	0xbe926e30	-0.2859969
22	0x3d9cc396	0.076544926
23	0xbe882e02	-0.265976
24	0x3d8399ad	0.06425796
25	0x3e153ef5	0.14574797
26	0x3d8c6df4	0.068569094
27	0x3d0803c7	0.033206727
28	0xbd106566	-0.03525295
29	0x3dc47d1e	0.09594177
30	0xbe2cd8f0	-0.1687963
31	0x3ddcff93	0.107909344
32	0x3d05aa84	0.03263332
33	0x3d738598	0.059453577
34	0x3dae1827	0.085007004
35	0xbd83905a	-0.06424017
36	0x3e3e8328	0.1860472
37	0xbe2aa74a	-0.16665378
38	0x3d08e7c3	0.03342415
39	0xbe3696f2	-0.17831019
40	0xbd000fe1	-0.031265143
41	0x3d82f601	0.06394578
42	0x3e19d29f	0.15021752
43	0xbd9c85ec	-0.07642731
44	0x3df2100e	0.118194684
45	0xbc049aed	-0.008093578
46	0x3e88c4c4	0.2671262
47	0x3e145bb9	0.14488114
48	0xbdf4092e	-0.119158134
49	0x3e9fd14c	0.31214368
50	0xbe543924	-0.20724922
51	0x3e02db46	0.12778959
52	0x3dbce06b	0.09222492
53	0x3e00a96b	0.12564628
54	0x3c618b44	0.013766114
55	0x3bb69681	0.0055721407
56	0x3cd073e7	0.025445892
57	0x3e3a0bc2	0.18168548
58	0xbdd79ffb	-0.10528561
59	0xbdbd1b1f	-0.092336886
60	0x3e15552a	0.14583269
61	0x3c6314ff	0.013859986
62	0x3e7689a3	0.24075942
63	0x3dd9a732	0.10627593

head.norm.running_var f4 [64]
0	0x3b95082f	0.0045480947
1	0x3d4ec47d	0.050480355
2	0x3c0ce337	0.008599094
3	0x3bda34ff	0.0066591497
4	0x3b4f2744	0.0031609097
5	0x3b0ba798	0.002130961
6	0x3b443422	0.00299383
7	0x3ba8bd6e	0.005149535
8	0x3b973f21	0.00461568
9	0x3c0a8742	0.0084551
10	0x3b26b50a	0.0025437498
11	0x3cd7f9ce	0.026364233
12	0x3b99777b	0.0046834326
13	0x3c800f20	0.015632212
14	0x3ccbe6fa	0.024890412
15	0x3c171a95	0.009222646
16	0x3be5c12c	0.0070115533
17	0x3c2e7ced	0.010649902
18	0x3cc0ec0a	0.023550052
19	0x3c0deb6c	0.008662086
20	0x3b217ae2	0.0024639894
21	0x3c871427	0.016489102
22	0x3b4d0824	0.003128537
23	0x3cb25c4a	0.021772522
24	0x3b088a7d	0.0020834499
25	0x3b0456d0	0.0020193346
26	0x3a8d5c7b	0.0010785008
27	0x3c4f31b4	0.0126461275
28	0x3b393802	0.0028262143
29	0x3c3d091e	0.011537818
30	0x3b00153f	0.0019543914
31	0x3c7ad282	0.015308978
32	0x3b7b1075	0.003830937
33	0x3c0e360d	0.008679879
34	0x3d7eb314	0.0621825
35	0x3d07e639	0.03317854
36	0x3b6f6ea4	0.0036534453
37	0x3af750af	0.001886865
38	0x3abc1f51	0.0014352595
39	0x3b87d8c5	0.004145714
40	0x3b5845ed	0.0033000663
41	0x3cfecd26	0.031103682
42	0x3cbad772	0.02280781
43	0x3adc5b2f	0.0016811843
44	0x3ba0dd2e	0.004909179
45	0x3d8e42f2	0.069463626
46	0x3d2f8530	0.042851627
47	0x3b269211	0.0025416652
48	0x3c39bc54	0.011336405
49	0x3d163d40	0.036679506
50	0x3bbaf622	0.005705611
51	0x3b3d365e	0.0028871517
52	0x3bf39d35	0.007434512
53	0x3cc4ac14	0.024007834
54	0x3b8564ea	0.004070868
55	0x3c070e88	0.008243211
56	0x3cdcddd7	0.02696125
57	0x3d1008e4	0.03516473
58	0x3c3f3c16	0.01167204
59	0x3c3ff66a	0.011716465
60	0x3c6fd4f4	0.014638174
61	0x3c55d7ed	0.013051969
62	0x3bd44865	0.0064783567
63	0x3b9e1fa2	0.0048255483

body.block1.conv.weight f4 [64, 64, 3, 3]
0	0xbc233409	-0.009961137
1	0x3d7cd448	0.061725885
2	0xbd8e68f3	-0.06953611
3	0x3ccc3480	0.024927378
4	0xbd6ce68a	-0.057837047
5	0xbd2efd1f	-0.042721864
6	0x3cd8475d	0.026401216
7	0x3be2d0f1	0.0069218804
8	0xbcf91b6b	-0.030408582
9	0x3b545a7b	0.0032402563
10	0xbcf47b2b	-0.029843887
11	0xbd894056	-0.06701724
12	0xbd558f0a	-0.052138366
13	0xbcf2e5fd	-0.029650683
14	0xbd63b540	-0.055592775
15	0xbd1a67fc	-0.037696823
16	0x3c618de0	0.013766736
17	0x3cbf4d87	0.023352398
18	0xbcdceb63	-0.02696771
19	0x3b1b8fc1	0.0023736807
20	0xbda190fe	-0.07888983
21	0xbd848435	-0.06470529
22	0x3cecf75e	0.028926548
23	0xbcd86c90	-0.026418954
24	0xbc99a7f6	-0.018756848
25	0xbd35db49	-0.04439858
26	0xbd5993c5	-0.05311944
27	0x3d5cfaa3	0.053949963
28	0xbd7b464a	-0.06134633
29	0xbc7bff7b	-0.0153807355
30	0xbc7f4a61	-0.015581698
31	0xbd2158b2	-0.039391227
32	0xbd2e46cd	-0.04254799
33	0x3d53549d	0.051594365
34	0xbbcc4402	-0.006233693
35	0x3d6d9765	0.05800571
36	0xbe0bfa09	-0.136696
37	0xbcf8ad34	-0.030356027
38	0xbcc3e837	-0.02391444
39	0xbe051d06	-0.12999353
40	0x3c44ba26	0.012007272
41	0x3bd5bfe4	0.0065231193
42	0xbdaeabd5	-0.08528868
43	0xbbe588a3	-0.0070048138
44	0x3c98a1bd	0.01863181
45	0xbcd15827	-0.02555473
46	0xbd6e9093	-0.058243345
47	0xbda89a72	-0.08232583
48	0x3dbb9122	0.09158541
49	0x3c6b72b7	0.014370612
50	0xbb3ae49b	-0.0028517607
51	0x3d3e7ec1	0.0465076
52	0x3c5adb61	0.013357968
53	0x3d10efd6	0.035384975
54	0x3dcd217a	0.10016151
55	0x3c8868c6	0.016651522
56	0x3d1660bd	0.03671335
57	0xbd3c274f	-0.045935925
58	0xbd695f6a	-0.05697576
59	0xbd53fca3	-0.051754605
60	0xbe21d18b	-0.1580259
61	0xbd36eeb6	-0.044661246
62	0x3ce9b833	0.028530216
63	0xbda2013d	-0.079103924
64	0xbd87573a	-0.06608434
65	0xbdda1e3f	-0.106503
66	0xbd08fcbf	-0.033444162
67	0xbcffecf5	-0.03124092
68	0xbdb1efdc	-0.08688328
69	0x3c861054	0.016365208
70	0xbc0dc98a	-0.008654008
71	0x3d268dd5	0.040662605
72	0x3e07ff7b	0.13281052
73	0xbcc86870	-0.024463862
74	0xbc9130de	-0.017723497
75	0x3deb95cc	0.11503181
76	0xbdcd2fbf	-0.100188725
77	0x3d306465	0.043064494
78	0x3cd1b078	0.025596842
79	0xbce6a28d	-0.028153682
80	0x3ce6d429	0.028177338
81	0x3d5fa4ea	0.054600634
82	0xbd6fd06d	-0.05854838
83	0xbc7954dd	-0.015217987
84	0x3b41c14c	0.0029564677
85	0x3d35e5e0	0.04440868
86	0x3cf8e9b9	0.030384885
87	0xbcbcb2de	-0.02303451
88	0xbcbdd7b0	-0.023174137
89	0xbd73e20d	-0.05954175
90	0x3d545a64	0.051844016
91	0xbd36cdd0	-0.04462987
92	0x3d294812	0.041328497
93	0xbd73f100	-0.059556007
94	0xbc550ecf	-0.013004019
95	0xbd6d21ba	-0.057893492
96	0x3ceb6a37	0.02873717
97	0x3d9dc346	0.07703261
98	0xba329956	-0.000681301
99	0xbda6aa25	-0.08137921
100	0xbd6dd906	-0.058068298
101	0xbda3b494	-0.07993427
102	0xbd54aebc	-0.051924452
103	0xbd4f41e8	-0.050599962
104	0xbad26ead	-0.0016054712
105	0x3d1c6edb	0.038191658
106	0xbc1464b6	-0.0090572145
107	0xbd5808fd	-0.052742947
108	0xbcbfb274	-0.023400523
109	0xbc3c9b34	-0.011511613
110	0x3d84e5be	0.06489132
111	0xbd86455e	-0.065561995
112	0xbb8ccc3c	-0.0042968076
113	0xbcd55c27	-0.026044918
114	0xbd8b0495	-0.06787983
115	0xbd2fed00	-0.04295063
116	0xbe02c3b2	-0.12769964
117	0xbc454507	-0.012040383
118	0xbac3e441	-0.0014945344
119	0xbc66a973	-0.014078486
120	0xbc063fa9	-0.008193889
121	0xbc28ce40	-0.01030308
122	0xbd33eda4	-0.043927804
123	0xbd78e6c5	-0.060766954
124	0x3d94ea78	0.07271284
125	0xbd5e0b31	-0.05420989
126	0xbdf14281	-0.11780263
127	0xbc638ed7	-0.013889036
128	0xbe03fe38	-0.12889946
129	0xbde2aeb2	-0.11068477
130	0xbda19118	-0.078890026
131	0xbd2234dd	-0.039601196
132	0xbdbb02c4	-0.09131387
133	0xbcd063b9	-0.025438176
134	0xbd703878	-0.058647603
135	0xbd39d220	-0.045366406
136	0x3c01ceed	0.00792287
137	0xbc8a5aa2	-0.01688892
138	0xbd1bf621	-0.038076524
139	0x3d974dad	0.07387862
140	0x3ca1690e	0.019703414
141	0xbcd57e9f	-0.026061354
142	0x3c82a138	0.015946016
143	0xbe0373c2	-0.12837127
144	0x3ca0f841	0.019649627
145	0xbcb5c0ca	-0.022186656
146	0xbcbefd3a	-0.023314107
147	0xbd01b5dd	-0.03166758
148	0xbd064aec	-0.032786295
149	0xbdc91c16	-0.0981981
150	0x3c0bb47a	0.008526916
151	0x3db154fb	0.08658787
152	0x3db29e11	0.08721555
153	0xbc2a7a95	-0.010405202
154	0x3cdf7266	0.02727623
155	0x3bde2c7a	0.0067802044
156	0x3caaccf6	0.020849686
157	0xbce688b2	-0.028141353
158	0x3cc05c15	0.023481408
159	0xbccc2f69	-0.02492495
160	0xbd5ef031	-0.054428283
161	0xbd829b5b	-0.06377288
162	0xbbd46d7e	-0.006482779
163	0x3be5c3dd	0.007011874
164	0x3cc20047	0.023681773
165	0xbc9491c8	-0.01813592
166	0xbd4d6f5d	-0.050155032
167	0xbddbc6ec	-0.10731301
168	0xbc6949ed	-0.014238817
169	0xbd316c08	-0.043315917
170	0xbcc6971c	-0.024241976
171	0xbd92d8f9	-0.071702905
172	0xbd89e98a	-0.06733997
173	0xbd13c851	-0.03607971
174	0x3c592499	0.0132533545
175	0xbc935a1c	-0.017987303
176	0xbd98534c	-0.074377626
177	0xbcb42adc	-0.021993093
178	0xbcd64389	-0.02615525
179	0xbd70f7d1	-0.058830086
180	0x3dca323e	0.09872864
181	0x3c5a9a96	0.01334252
182	0xbcf79bf3	-0.03022573
183	0xbd996f7e	-0.074919686
184	0xbc556384	-0.013024215
185	0xbd10a982	-0.035317905
186	0x3af1d266	0.0018449544
187	0xbd2d4607	-0.04230311
188	0x3ca2a246	0.019852769
189	0x3df3ead9	0.11910028
190	0xbcabee7a	-0.020987738
191	0xbd05aaaf	-0.03263348
192	0x3cf1b0d5	0.029503265
193	0x3c25ddcb	0.01012368
194	0xbc35b0c2	-0.011089506
195	0x3c79080a	0.015199671
196	0xbd70abe2	-0.05875767
197	0xbc51eb8e	-0.012812508
198	0xbd8113da	-0.063026145
199	0xbde98b4e	-0.114035234
200	0x3bfda9e9	0.007741202
201	0xbd39763f	-0.045278784
202	0xbd193d7b	-0.037412148
203	0xbd3fffc0	-0.04687476
204	0x3d4f4682	0.05060435
205	0x3d89fa09	0.067371435
206	0x3d84812d	0.06469951
207	0x3c9e0523	0.019289559
208	0xbadadd6f	-0.0016698072
209	0x3da821f1	0.08209599
210	0x3c6a289a	0.014291907
211	0xbe0a6cba	-0.13518038
212	0xbd225236	-0.039629184
213	0xbcee1b10	-0.029065639
214	0xbdc0f4b0	-0.094216704
215	0x3c07f661	0.008298487
216	0xbdf5e58a	-0.12006672
217	0xbcf29ea1	-0.029616656
218	0x3d54e87e	0.051979534
219	0xbde1e16e	-0.110293254
220	0xbd59e6d3	-0.053198647
221	0x3d224d64	0.039624587
222	0xbd97e903	-0.0741749
223	0xbcf388f8	-0.029728398
224	0x3df22f53	0.11825433
225	0x3d7c825b	0.061647754
226	0x3d299eb4	0.041411117
227	0xbcd9411a	-0.0265203
228	0xbd7198e6	-0.058983706
229	0x3ccdc8a9	0.025120096
230	0x3c051286	0.008122092
231	0x3bcb1635	0.0061977156
232	0x3c758358	0.014984928
233	0xbc735855	-0.014852603
234	0x3e01709c	0.12640613
235	0xbb8a9ee1	-0.0042303656
236	0xbe08dc8a	-0.13365379
237	0xbe0bfb0c	-0.13669986
238	0xbe2df9b6	-0.16989788
239	0xbbfbdc06	-0.007686141
240	0x3ce05bb3	0.027387476
241	0x3d02441a	0.031803228
242	0x3d8c96df	0.06864714
243	0xbb1d6402	-0.0024015908
244	0xbd4538cb	-0.048149865
245	0xbd613d39	-0.054990027
246	0xbc76b1fd	-0.015057084
247	0x3c059a8b	0.008154522
248	0xbceb6166	-0.028732967
249	0xbd1844a9	-0.037174854
250	0xbcd264a1	-0.02568275
251	0xbd801a4f	-0.06255018
252	0x3da007fc	0.07814023
253	0xbd81e4b3	-0.06342449
254	0x3c93dead	0.018050516
255	0x3da585e2	0.08082177

body.block1.conv.bias f4 [64]
0	0xbb18f17e	-0.00233373
1	0x3c65c74c	0.014024567
2	0xbca908f2	-0.020634148
3	0xbce98f35	-0.02851067
4	0x3d23be9d	0.039976705
5	0xbc313bbd	-0.010817465
6	0xbd2e63ca	-0.042575635
7	0x3c8ac031	0.016937347
8	0xbc9c3059	-0.019066023
9	0xba1ea1ff	-0.0006051361
10	0x3c3cbc12	0.011519449
11	0x3bfb390b	0.007666712
12	0x3d25508a	0.04036001
13	0x3cc6202b	0.02418526
14	0x3d10202b	0.035186928
15	0x3c6d3f71	0.014480458
16	0xbcf86359	-0.03032081
17	0x3c9d6955	0.019215265
18	0x3cb1e3eb	0.021715125
19	0xbc9667df	-0.018360076
20	0x39bd2b04	0.00036080938
21	0x3d0ba673	0.034094285
22	0x3cdb57a4	0.026775189
23	0xbce22617	-0.027606053
24	0xbbedbb43	-0.0072549894
25	0xbc8369d5	-0.016041676
26	0x3cb3a16b	0.021927556
27	0xbd00332f	-0.031298812
28	0xbcffe080	-0.03123498
29	0xbc8dae2e	-0.01729497
30	0x3b5cd15b	0.0033694122
31	0xbc009d1f	-0.007849961
32	0xbb4020e8	-0.0029316489
33	0x3ce7d7d1	0.028301151
34	0x3d1f0c09	0.038829837
35	0x3bf70c42	0.007539303
36	0x3cc949d8	0.024571344
37	0xbc5750e1	-0.013141842
38	0xbc5258ac	-0.012838524
39	0xbc0d03ea	-0.00860689
40	0x3c81c639	0.01584159
41	0xbc98a125	-0.018631527
42	0x3ce1320e	0.027489688
43	0x3bdc1ac0	0.006717056
44	0x3c3dc028	0.011581458
45	0x3cfa93e3	0.030588096
46	0x3ce19511	0.0275369
47	0x3d30dddb	0.043180328
48	0xbbfd55db	-0.007731182
49	0x3c604502	0.013688328
50	0x3c4e2142	0.0125811715
51	0xbceb9b46	-0.028760564
52	0xbaaec5c3	-0.0013334084
53	0x3ca5fdee	0.020262685
54	0xbc7c71c7	-0.015407986
55	0xbd1eb967	-0.038751032
56	0xbcd553cb	-0.026040932
57	0x3c2710bb	0.01019686
58	0x3d089252	0.033342667
59	0x3d08f6f1	0.033438627
60	0x3c6ae659	0.014337146
61	0xbca52437	-0.02015887
62	0xbc34581e	-0.011007337
63	0x3cb02013	0.02149967

body.block1.norm.weight f4 [64]
0	0x3f8105a3	1.0079845
1	0x3f8384a6	1.0274856
2	0x3f80ea9d	1.0071598
3	0x3f7e593d	0.99354917
4	0x3f833a5c	1.0252185
5	0x3f7d0516	0.98835886
6	0x3f90901a	1.1293976
7	0x3f7c2616	0.98495615
8	0x3f6f6b17	0.9352278
9	0x3f81375a	1.0095017
10	0x3f71845c	0.9434259
11	0x3f83f786	1.0309913
12	0x3f8c1323	1.094334
13	0x3f960560	1.172039
14	0x3f8058bd	1.0027081
15	0x3f74d1bc	0.9563253
16	0x3f67f06d	0.90601236
17	0x3f82d696	1.0221736
18	0x3f7b19f0	0.9808645
19	0x3f8f934f	1.121683
20	0x3f7d024c	0.9883163
21	0x3f82f6a2	1.0231516
22	0x3f68f0e2	0.9099256
23	0x3f8502a8	1.0391436
24	0x3f5ada11	0.8548899
25	0x3f6060dc	0.87647796
26	0x3f88fc70	1.0702038
27	0x3f82d002	1.0219729
28	0x3f7c8479	0.9863964
29	0x3f7dcd88	0.9914174
30	0x3f7f1280	0.99637604
31	0x3f7438ba	0.9539906
32	0x3f7d0b0d	0.9884499
33	0x3f7c402e	0.9853543
34	0x3f731cc8	0.9496579
35	0x3f6329c3	0.887356
36	0x3f9651f3	1.1743759
37	0x3f815a63	1.0105709
38	0x3f6d7391	0.92754465
39	0x3f6c296a	0.9225069
40	0x3f77764f	0.966649
41	0x3f811862	1.0085566
42	0x3f8a04dc	1.0782733
43	0x3f7c11bd	0.98464566
44	0x3f775f3a	0.9662968
45	0x3f7ecd32	0.99531853
46	0x3f848f3b	1.035621
47	0x3f723a10	0.94619846
48	0x3f791c13	0.9730846
49	0x3f79f3b6	0.976375
50	0x3f8c6e46	1.0971153
51	0x3f738714	0.9512799
52	0x3f8a6ac3	1.0813831
53	0x3f72e688	0.9488301
54	0x3f7c2d63	0.98506755
55	0x3f716b5c	0.9430444
56	0x3f8f0350	1.1172886
57	0x3f6d1234	0.926059
58	0x3f7f9c2b	0.9984767
59	0x3f71304c	0.9421432
60	0x3f815f89	1.010728
61	0x3f80836a	1.0040104
62	0x3f7fe074	0.99951863
63	0x3f6ee7f8	0.93322706

body.block1.norm.bias f4 [64]
0	0xbe51ebdf	-0.20500134
1	0xbd6499ae	-0.055810623
2	0xbe0b2060	-0.13586569
3	0xbdfbba6b	-0.12291416
4	0xbdd9a02d	-0.10626254
5	0xbe0c11e9	-0.13678707
6	0xbe86ab0a	-0.26302367
7	0xbda2dab8	-0.079518735
8	0xbe55672f	-0.20840143
9	0xbe0c3182	-0.1369076
10	0xbe3b5430	-0.18293834
11	0xbe2eaf11	-0.1705897
12	0xbdbb4f2c	-0.0914596
13	0xbe1838d4	-0.14865428
14	0xbcb7fffa	-0.022460926
15	0xbe418a42	-0.18900397
16	0xbe101c2b	-0.14073245
17	0xbe3a7cf8	-0.18211734
18	0xbea57e95	-0.32323137
19	0xbe263073	-0.1622942
20	0xbe922551	-0.28544095
21	0xbe97f24d	-0.29677048
22	0xbdeb832c	-0.114996284
23	0xbddcedd7	-0.10787552
24	0xbe4dac67	-0.20085298
25	0xbe82e97b	-0.25568756
26	0xbddfff00	-0.10937309
27	0xbd7f76f9	-0.06236932
28	0xbe7e7923	-0.24850897
29	0xbe3b8313	-0.1831172
30	0xbda8f9cf	-0.08250772
31	0xbe8fb482	-0.28067404
32	0xbe86a5a1	-0.2629824
33	0xbe5fc7f0	-0.21853614
34	0xbea31d72	-0.31858402
35	0xbe514d88	-0.20439732
36	0xbd83fc01	-0.0644455
37	0xbe3fa25e	-0.18714282
38	0xbe10aa4b	-0.14127462
39	0xbe18b80a	-0.14913955
40	0xbe31a73a	-0.17348948
41	0xbe3a870e	-0.18215582
42	0xbe26673f	-0.16250323
43	0xbe4e8319	-0.20167197
44	0xbdf458ee	-0.119310245
45	0xbe917bf2	-0.28414875
46	0xbe0a51a1	-0.13507701
47	0xbe3f35d0	-0.18672872
48	0xbe7cf144	-0.2470141
49	0xbdbc0e55	-0.09182421
50	0xbdf0eff5	-0.11764518
51	0xbdd7adf2	-0.10531224
52	0xbe186cb5	-0.14885218
53	0xbe094982	-0.13406947
54	0xbe35bc1c	-0.1774754
55	0xbe6b13d2	-0.2295678
56	0xbe084f23	-0.13311438
57	0xbe7f8d43	-0.24956231
58	0xbe2e6d60	-0.17033911
59	0xbdd0a2b6	-0.10187285
60	0xbe4ae443	-0.19813637
61	0xbe5ab621	-0.21358539
62	0xbe221ee8	-0.15832102
63	0xbe338724	-0.17532021

body.block1.norm.running_mean f4 [64]
0	0xbfeb5cf5	-1.8387743
1	0xbff2085a	-1.8908799
2	0x3d04734e	0.032336526
3	0xbf4166de	-0.7554759
4	0xbf7a0287	-0.97660106
5	0xbf864aaa	-1.0491536
6	0xbdc2eec1	-0.09518195
7	0x3d1203de	0.03564822
8	0xbf53c6c7	-0.82725185
9	0xbda7a47e	-0.08185671
10	0x3f25d9e3	0.64785594
11	0x3f3609e7	0.7110886
12	0x3f6abd45	0.9169505
13	0xbfad9ee9	-1.356412
14	0xbf327f3f	-0.6972541
15	0xbb19fc48	-0.0023496319
16	0xbfce6341	-1.612404
17	0xbf50b93e	-0.8153266
18	0x3ff8c01c	1.9433627
19	0xbfcae17f	-1.5850066
20	0x40461875	3.0952427
21	0xbec322d4	-0.3811251
22	0xbf773365	-0.96562797
23	0x3f60769e	0.87680995
24	0x3e956dc7	0.29185316
25	0x3ed309b7	0.4121835
26	0xbe6af570	-0.2294519
27	0x3f63cf8c	0.88988566
28	0x3f410491	0.7539759
29	0x3eaa3320	0.3324213
30	0x3f20113f	0.62526315
31	0x3d09cfe0	0.03364551
32	0x4014b6be	2.3236537
33	0x3dffded2	0.124936715
34	0x3f9a443d	1.2052075
35	0xbdd54c2b	-0.104149185
36	0xbfb70794	-1.4299188
37	0xbf34989b	-0.7054536
38	0xbff6d060	-1.9282341
39	0xbfcad88e	-1.5847337
40	0xbc56f58d	-0.013120067
41	0x3f97a349	1.1846706
42	0xbbb87e38	-0.005630281
43	0x3f73b6c7	0.9520077
44	0x3d82f16f	0.06393706
45	0x3ead3626	0.33830374
46	0x3dc2ec11	0.09517682
47	0x3f76141f	0.9612445
48	0xbe6bad40	-0.23015308
49	0x3f8e619b	1.1123537
50	0xbeefacf7	-0.4681165
51	0xbf6c9338	-0.9241214
52	0xbe644f78	-0.2229594
53	0x3e302966	0.17203292
54	0xbd331f93	-0.043731283
55	0xbea3086c	-0.31842363
56	0xbff0baeb	-1.8807043
57	0xbd4a95ff	-0.049459454
58	0xbf40afcc	-0.75268245
59	0xbf8e0eda	-1.1098282
60	0xbf1bbb31	-0.60832506
61	0x3f757157	0.9587607
62	0xbd9f05d1	-0.07764781
63	0xbf5af7fe	-0.85534656

body.block1.norm.running_var f4 [64]
0	0x3fcb4312	1.5879843
1	0x4103378e	8.201063
2	0x3faab9d7	1.3337964
3	0x40a220bd	5.0664964
4	0x3f76efd0	0.96459675
5	0x3f4e705c	0.80640197
6	0x3f5d512b	0.8645198
7	0x400d5156	2.2080894
8	0x4060954e	3.5091128
9	0x3fe88417	1.8165311
10	0x3fa870a4	1.3159375
11	0x3fb752c6	1.4322135
12	0x3fa28a95	1.2698542
13	0x3f2a23b0	0.66460705
14	0x400673c6	2.1008162
15	0x3f5c2879	0.85999256
16	0x4080dc63	4.0269027
17	0x40dfaf1f	6.990127
18	0x407ed815	3.9819386
19	0x3f4f2ab7	0.8092455
20	0x40d89c34	6.769068
21	0x3fc07f48	1.5038843
22	0x404b52a3	3.1769187
23	0x4007f49c	2.1243048
24	0x4092bf1e	4.5858297
25	0x40328f0f	2.7899816
26	0x3f7b8273	0.98245925
27	0x3f91093c	1.1330943
28	0x4009f9ba	2.155867
29	0x3ee58538	0.448282
30	0x3f6817c8	0.9066129
31	0x402f0982	2.7349553
32	0x40e5edc7	7.1852756
33	0x3fe2ca47	1.771798
34	0x3fd005b5	1.6251742
35	0x3f1b3847	0.6063275
36	0x400fd421	2.2473223
37	0x3f31c1ff	0.6943664
38	0x4053e697	3.310949
39	0x4067c4ec	3.6213942
40	0x3fff6f3b	1.995582
41	0x40412487	3.0178545
42	0x3f3f1873	0.7464668
43	0x3fcc3bbc	1.595573
44	0x4007b5f3	2.1204803
45	0x40f8677a	7.7626314
46	0x3f61092f	0.8790464
47	0x40ea8bb0	7.3295517
48	0x3fe77f89	1.8085796
49	0x3f92ec35	1.1478335
50	0x3f03962a	0.5140101
51	0x3fd7b4d0	1.6852055
52	0x3f9c1c20	1.2196083
53	0x4012f94f	2.2964666
54	0x3f66fe3f	0.902317
55	0x3f75f711	0.9608012
56	0x3fcccfe5	1.6000944
57	0x4015508b	2.333041
58	0x3f9cf34e	1.2261751
59	0x40949b85	4.6439843
60	0x3f8a1f02	1.0790713
61	0x402057e5	2.5053647
62	0x3faa491b	1.330356
63	0x40389918	2.884344

body.block2.conv.weight f4 [64, 64, 3, 3]
0	0x3b93d36e	0.0045112884
1	0x3cc053e7	0.023477508
2	0xbc979c5c	-0.018507175
3	0xbbac8a4b	-0.0052655092
4	0x3d8f2e34	0.069912344
5	0x3b9d9cbe	0.004809945
6	0xbe0b3952	-0.13596085
7	0xbdaafc77	-0.08348935
8	0xbd2a9366	-0.041644476
9	0xbc800190	-0.015625745
10	0x3d0a80bb	0.033814173
11	0x3cce15c2	0.02515686
12	0x3c293eba	0.010329897
13	0x3cd9c1ee	0.02658173
14	0x3dafb0ac	0.08578619
15	0xbc0896de	-0.008336751
16	0xbcd2d41e	-0.025735911
17	0x3d280520	0.041020513
18	0xbd700a14	-0.05860336
19	0xbc8390d1	-0.016060265
20	0xbc50208a	-0.01270307
21	0xbcab723d	-0.020928496
22	0x3c8504b6	0.016237598
23	0xbc5973d4	-0.0132722445
24	0xbcd1e8b3	-0.025623655
25	0xbc82ffa7	-0.015991045
26	0xbd87a568	-0.066233456
27	0xbd080fbd	-0.033218134
28	0xbd0d6827	-0.034523156
29	0xbc0fe491	-0.008782522
30	0xbd81891f	-0.06324982
31	0xbd6ccac2	-0.057810552
32	0xbdf0d67a	-0.11759658
33	0xbd418e66	-0.047254942
34	0xbd777044	-0.0604098
35	0xbdc4ff94	-0.0961906
36	0x3dc398cf	0.0955063
37	0x3d0686d5	0.03284343
38	0xbd17c332	-0.037051387
39	0xbc848454	-0.01617638
40	0xbc8cf928	-0.01720865
41	0xbd53dfc2	-0.051727064
42	0xbcdba168	-0.026810363
43	0x3d99f430	0.07517278
44	0x3d8620c9	0.06549222
45	0xbbbe541c	-0.0058083665
46	0xbb728f75	-0.0037011777
47	0x3b2dc8fc	0.00265175
48	0x3dcffdb6	0.101558134
49	0x3d4632b6	0.048388205
50	0xbd8ee610	-0.06977475
51	0x3c8efdcb	0.017455002
52	0xbd18a409	-0.03726581
53	0x3d267d6a	0.040646948
54	0x3dc8f2f7	0.09811967
55	0x3d129c09	0.035793338
56	0xbbf63b63	-0.0075144037
57	0x3d90679d	0.07051013
58	0x3cbc96d9	0.023021149
59	0xbd03888c	-0.032112643
60	0xbdb2d177	-0.087313585
61	0xbbc00158	-0.005859535
62	0xbdf62071	-0.120179065
63	0x3db747ff	0.08949279
64	0x3cf3b48c	0.029749177
65	0x3d4aebf8	0.049541444
66	0x3dd38b26	0.10329275
67	0xbcc67da8	-0.02422984
68	0x3d01cbba	0.03168843
69	0x39e046fa	0.0004277749
70	0xbd82fd5d	-0.063959815
71	0xbd5847aa	-0.05280272
72	0x3c493b42	0.012282195
73	0xbcb4cb72	-0.022069667
74	0xbbc1d796	-0.0059155924
75	0xbd5665d5	-0.05234321
76	0x3bb10b66	0.00540297
77	0xbc74e535	-0.014947225
78	0xbdb750bc	-0.08950946
79	0xbd5a7a31	-0.053339187
80	0xbd9aa0a1	-0.07550169
81	0x3da15ffd	0.078796364
82	0xbcf327b6	-0.029682022
83	0xbce75bcd	-0.028242016
84	0x3cfe8e9c	0.03107386
85	0x3c8e5a5b	0.01737707
86	0x3d644a2e	0.055734806
87	0x3db13963	0.08653524
88	0xba371b82	-0.0006984995
89	0x3da246e3	0.07923677
90	0x3a8f31ad	0.0010924839
91	0x3d19ced5	0.037550766
92	0xbb8a8950	-0.0042277947
93	0x3c2171aa	0.00985376
94	0x3aa9e33a	0.0012961396
95	0xbd907588	-0.07053667
96	0x3b7babb3	0.0038401901
97	0x3cc890c0	0.024483085
98	0xbd1ddffa	-0.03854368
99	0xbb21b3f5	-0.0024673913
100	0xbd01661d	-0.031591523
101	0xbd9cdb4a	-0.076590136
102	0x3db0d7b6	0.086348936
103	0x3dcfc6c8	0.101453364
104	0x3d43d597	0.047811117
105	0xbb60ceef	-0.003430303
106	0x3d5ca654	0.05386956
107	0xbc5d1993	-0.013494867
108	0x3d21d6e9	0.039511595
109	0xbbc5d58b	-0.006037419
110	0x3d048cba	0.03236077
111	0xbccc154e	-0.024912503
112	0xbd0061d2	-0.03134329
113	0xbca457f5	-0.020061472
114	0xbb83e159	-0.0040246663
115	0xbc3d5e31	-0.0115581015
116	0xbaa351b4	-0.0012460263
117	0x3d369576	0.04457613
118	0xbc2fe194	-0.010734934
119	0xbd6bce29	-0.057569657
120	0x3cb85a80	0.022504091
121	0x3ca77e9b	0.020446112
122	0x3c832b77	0.016011937
123	0xbce17bb4	-0.027524807
124	0x3d40027a	0.04687736
125	0xbc0d0309	-0.008606681
126	0x3d0128b8	0.031532973
127	0x3cd1621e	0.025559481
128	0x3d436935	0.047707755
129	0x3d574052	0.052551575
130	0xbdcb2f86	-0.09921174
131	0xbd5d4f99	-0.05403099
132	0xbc75d985	-0.015005474
133	0xbd341db3	-0.043973636
134	0x3dabe9dc	0.083942145
135	0x3c96a28e	0.018388059
136	0x39fe37c2	0.00048488198
137	0x3d0d022a	0.034425892
138	0xbc38c4d8	-0.0112774
139	0xbd05faee	-0.03271001
140	0xbc0d31c4	-0.008617822
141	0xbb80473d	-0.0039147423
142	0x3cc83686	0.024440061
143	0x3c758f44	0.0149877705
144	0x3d14a429	0.036289368
145	0x3d162322	0.0366546
146	0x3d8d1713	0.06889167
147	0x3d58e16f	0.052949365
148	0x3cffef60	0.031242073
149	0x3d728c4d	0.059215833
150	0x3ce16b27	0.027516915
151	0x3d8011bf	0.06253385
152	0x3d35046e	0.044193678
153	0xbcb62b80	-0.02223754
154	0xbd219d21	-0.03945649
155	0x3c772cc8	0.01508636
156	0xbc42b816	-0.01188471
157	0xbd566e9a	-0.05235157
158	0xbd40c1d9	-0.047059868
159	0xbd607af0	-0.054804742
160	0xbd6b785f	-0.05748784
161	0xbd217974	-0.039422467
162	0xbc593a0f	-0.013258471
163	0xbccbb18d	-0.024864936
164	0xbaaa8f43	-0.0013012666
165	0xbd5bfcc1	-0.05370784
166	0xbc665f50	-0.01406081
167	0x3c876c07	0.016531004
168	0xbc9fab73	-0.019490933
169	0xbce33887	-0.027736915
170	0xbd09c94a	-0.03363923
171	0x3d971793	0.07377543
172	0x3d6a9247	0.057268407
173	0x3dbae56b	0.09125789
174	0xbc939a0b	-0.01801779
175	0xbd0ccd2d	-0.03437536
176	0x3d85a712	0.06526007
177	0xbca0e92b	-0.019642433
178	0xbc2315dd	-0.009953943
179	0xbd17751d	-0.036976922
180	0x3c260df7	0.010135165
181	0xbcc8c3cc	-0.024507426
182	0xbd5d2cb9	-0.05399773
183	0x3c44a48f	0.012002124
184	0x3cc5a871	0.02412817
185	0x3cb42b7f	0.021993397
186	0x3d0bb320	0.034106374
187	0x3d816a63	0.0631912
188	0x3d8163ee	0.06317888
189	0x3d1a384b	0.03765134
190	0x3dbea174	0.093081385
191	0x3d290128	0.04126087
192	0xbd9aa2b7	-0.07550567
193	0x3d7adccd	0.06124573
194	0x3bb2bfad	0.0054549784
195	0xbd09bab1	-0.03362531
196	0x3c741476	0.014897456
197	0x3d051cf5	0.03249832
198	0xbd0723bf	-0.032993075
199	0x3bef3c04	0.0073008556
200	0x3d04abc2	0.032390364
201	0x3cf92d1c	0.030417018
202	0xbd04f686	-0.032461666
203	0x3ceed628	0.029154852
204	0xbd5721cd	-0.05252247
205	0x3d10c68c	0.0353456
206	0x3d6df3f7	0.05809399
207	0x3bd593db	0.00651787
208	0x3ce5e9f1	0.028065654
209	0x3cbc062f	0.022952167
210	0x3bc90d42	0.0061356137
211	0x3d650405	0.055912036
212	0xbcbd539c	-0.023111157
213	0x3cbfa9be	0.02339637
214	0xbd30c665	-0.043157954
215	0x3b102477	0.002199439
216	0xbd963be0	-0.07335639
217	0xbd42808a	-0.047485866
218	0xbc2ec33c	-0.010666665
219	0xbd87f193	-0.066378735
220	0xbced69d3	-0.028981125
221	0xbc3eae2b	-0.011638205
222	0xbd354f94	-0.044265345
223	0xbc86de45	-0.016463408
224	0xbd3d0f20	-0.046157002
225	0x3c9103f0	0.017702073
226	0xbca09aca	-0.01960506
227	0xbd0e4be4	-0.034740344
228	0x3bc9ee3d	0.0061624334
229	0xbbd05b52	-0.0063585425
230	0x3be82457	0.00708441
231	0x3d9d79ec	0.076892704
232	0xbcb0cc48	-0.021581784
233	0xbb8269bd	-0.00397989
234	0xbc0ad6b7	-0.008474044
235	0xbd096e32	-0.033552356
236	0x3d37dad4	0.044886425
237	0xbd16d1f9	-0.03682134
238	0x3cfdf036	0.03099833
239	0x3da1109c	0.07864496
240	0xbdec3a0d	-0.1153451
241	0x3cea665a	0.028613258
242	0xbcd752f1	-0.026284667
243	0xbcdf8bf8	-0.027288422
244	0xba78998e	-0.00094833307
245	0xbd1e7dcf	-0.0386942
246	0xbc8dfb36	-0.0173317
247	0x3dae7cf2	0.08519925
248	0x3dd6d84d	0.10490475
249	0xbc8ec326	-0.017427038
250	0xbdcb9731	-0.09940947
251	0xbc849cb9	-0.016188012
252	0x3d485062	0.048904784
253	0x3d3a3f35	0.045470435
254	0x3d03924c	0.03212194
255	0xbda94381	-0.082648285

body.block2.conv.bias f4 [64]
0	0x3937229a	0.0001746513
1	0xbc92f166	-0.017937373
2	0x3cfd07ba	0.030887473
3	0x3bedfa55	0.007262508
4	0x3cb31ebd	0.021865243
5	0xbd0ac876	-0.03388258
6	0x3c8acfa7	0.01694472
7	0xbd20584a	-0.0391467
8	0x3c9ee505	0.019396314
9	0xbd17561b	-0.03694735
10	0x3d1e223d	0.03860687
11	0xbcbb21c1	-0.022843244
12	0xba8f0e5e	-0.0010914316
13	0x3ca1e337	0.019761665
14	0xbcf14d93	-0.029455936
15	0xbcfa6a5d	-0.030568296
16	0x3c21a684	0.009866361
17	0xbcbb04af	-0.022829382
18	0x3d18e225	0.037325043
19	0xbd01172d	-0.031516243
20	0x3c48bb33	0.012251663
21	0x3ce577e2	0.028011266
22	0xbd047f4c	-0.032347962
23	0x3c673bac	0.014113348
24	0x3cd343c8	0.025789157
25	0x3c770b2f	0.01507835
26	0xbc7458fd	-0.014913795
27	0x3c0a9831	0.008459137
28	0x3d0d0f40	0.03443837
29	0x3bc7698a	0.0060855793
30	0x3c9bbd33	0.019011116
31	0xba2bcdbd	-0.000655379
32	0xbcb66811	-0.02226642
33	0xbc22e02d	-0.009941143
34	0xbbeb56c6	-0.007181975
35	0x3cc269cc	0.023732089
36	0xbc9eff9c	-0.019408993
37	0x3d15d525	0.036580224
38	0x3bf9a546	0.007618579
39	0xbd098c55	-0.033581097
40	0x3d09bbce	0.03362637
41	0x3cf217ea	0.029552419
42	0x3cb954e9	0.022623496
43	0x3cee91a1	0.029122176
44	0x39e2ef31	0.0004328429
45	0x3ce7b469	0.028284268
46	0x3c76638f	0.015038385
47	0xbcf13fec	-0.029449426
48	0xbc462073	-0.012092697
49	0x3c9e7cab	0.019346556
50	0xbd0d5738	-0.034507006
51	0xbceed50c	-0.029154323
52	0xbc8ec6e2	-0.01742882
53	0xba9273db	-0.0011173444
54	0x3d1000bd	0.035156954
55	0xbcafa9e7	-0.02144332
56	0x3c06c7bb	0.00822633
57	0xba8ddce8	-0.0010823281
58	0xbc9d1696	-0.019175809
59	0xbbd989fd	-0.006638764
60	0xbc8c062b	-0.017092785
61	0x3c5d6064	0.013511751
62	0xbc3408cd	-0.010988426
63	0x3b9ab66f	0.004721455

body.block2.norm.weight f4 [64]
0	0x3f81dbd2	1.0145209
1	0x3f6cc591	0.9248896
2	0x3f921afb	1.1414484
3	0x3f68cef9	0.90940815
4	0x3f6bdbc2	0.921322
5	0x3f999a52	1.200022
6	0x3f807180	1.0034637
7	0x3f72c399	0.9482971
8	0x3f838941	1.0276262
9	0x3f6a0c91	0.91425425
10	0x3f682c0b	0.90692204
11	0x3f79acf6	0.9752954
12	0x3f84e1cb	1.0381407
13	0x3f811887	1.008561
14	0x3f81acea	1.0130894
15	0x3f781b53	0.96916693
16	0x3f83c97d	1.0295864
17	0x3f77b296	0.96756876
18	0x3f70e6db	0.9410226
19	0x3f67674c	0.90391994
20	0x3f810e29	1.0082446
21	0x3f5c335f	0.86015886
22	0x3f749a7d	0.9554823
23	0x3f8329cd	1.0247132
24	0x3f78cb0d	0.9718483
25	0x3f6e44a5	0.93073493
26	0x3f843496	1.0328548
27	0x3f81bdc5	1.0136038
28	0x3f7e2b09	0.99284416
29	0x3f845d79	1.0341026
30	0x3f626c3c	0.884464
31	0x3f749852	0.9554492
32	0x3f5ea841	0.86975485
33	0x3f670543	0.90242404
34	0x3f867c7e	1.0506742
35	0x3f8606b2	1.0470793
36	0x3f8c5db9	1.0966102
37	0x3f8b39c8	1.0877008
38	0x3f6f6f60	0.9352932
39	0x3f6b2f80	0.91869354
40	0x3f83434c	1.0254912
41	0x3f7818ed	0.96913034
42	0x3f71edcf	0.9450349
43	0x3f87e961	1.0618097
44	0x3f7d8f22	0.9904653
45	0x3f7a87df	0.9786357
46	0x3f805e46	1.002877
47	0x3f8757b0	1.0573635
48	0x3f7900e8	0.9726701
49	0x3f85ab5b	1.0442919
50	0x3f816e58	1.0111799
51	0x3f926d16	1.143954
52	0x3f6862d7	0.9077582
53	0x3f82f4c8	1.0230951
54	0x3f68b790	0.90905094
55	0x3f79a5c7	0.9751858
56	0x3f7e178b	0.99254674
57	0x3f795e79	0.9740978
58	0x3f83b6d3	1.0290169
59	0x3f7e7b5a	0.9940697
60	0x3f84aca2	1.0365183
61	0x3f700bdd	0.937681
62	0x3f7c2b73	0.985038
63	0x3f77ca8e	0.9679345

body.block2.norm.bias f4 [64]
0	0xbdc63ccf	-0.09679567
1	0xbde71997	-0.11284178
2	0xbd8c53c6	-0.06851916
3	0xbe81ab1f	-0.25325868
4	0xbeb8ff41	-0.36132243
5	0xbddf13d9	-0.108924575
6	0xbe29ecec	-0.16594285
7	0xbe74feef	-0.23925374
8	0xbdc4a86f	-0.09602439
9	0xbe7483f2	-0.23878458
10	0xbeb8cbd0	-0.36092997
11	0xbe53114d	-0.20612068
12	0xbc488892	-0.012239592
13	0xbe0e8054	-0.13916141
14	0xbe378854	-0.17923099
15	0xbde2b079	-0.11068816
16	0xbd45e108	-0.04831031
17	0xbd732fcb	-0.05937175
18	0xbde930a7	-0.11386233
19	0xbe001e66	-0.12511596
20	0xbd8ca92d	-0.06868205
21	0xbe8935e7	-0.26798937
22	0xbdbe6134	-0.09295884
23	0xbe61395f	-0.21994542
24	0xbe26d19c	-0.16290897
25	0xbd74c910	-0.05976206
26	0xbd895f85	-0.06707672
27	0xbe652881	-0.22378732
28	0xbe0ea854	-0.139314
29	0xbe306ae7	-0.1722828
30	0xbe479da2	-0.19493726
31	0xbe6c26dd	-0.230617
32	0xbe49f036	-0.1972054
33	0xbdad9fc8	-0.084777415
34	0xbe0d86b2	-0.13820913
35	0xbe1f2baa	-0.15544
36	0xbe219f77	-0.15783487
37	0xbe0663c4	-0.13123995
38	0xbe3f796e	-0.18698665
39	0xbdce2247	-0.10065132
40	0xbe389eb6	-0.18029293
41	0xbd1fbd33	-0.038998794
42	0xbe40ebc2	-0.18839934
43	0xbee7bfa4	-0.45263398
44	0xbe6c53fb	-0.23078911
45	0xbe5a2ca0	-0.21306086
46	0xbe0f50ad	-0.13995619
47	0xbde79ffa	-0.1130981
48	0xbe0b7097	-0.13617168
49	0xbd8baa4d	-0.06819592
50	0xbda96f8b	-0.08273228
51	0xbddc4ce6	-0.10756855
52	0xbe17915e	-0.14801547
53	0x3cab520b	0.020913145
54	0xbe3a169d	-0.18172689
55	0xbe85e46a	-0.2615083
56	0xbdca9299	-0.098912425
57	0xbe9ff7d3	-0.31243762
58	0xbe041bb9	-0.129012
59	0xbdb05fc0	-0.08612013
60	0xbdc7c6f3	-0.097547434
61	0xbd570e47	-0.05250385
62	0xbe959775	-0.29217115
63	0xbe667fac	-0.2250964

body.block2.norm.running_mean f4 [64]
0	0x3da2572c	0.07926783
1	0xbf91a8c4	-1.1379628
2	0xbdff77b8	-0.124740064
3	0xbe40364c	-0.18770713
4	0xbed70571	-0.4199634
5	0xbf0b6e98	-0.5446563
6	0xbe26c869	-0.16287388
7	0x3e6aaad0	0.22916722
8	0x3d8a5430	0.06754339
9	0x3ee03332	0.4378906
10	0x3e54497b	0.20731156
11	0xbee6bec8	-0.4506743
12	0x3f8860fb	1.0654596
13	0xbe8fec4f	-0.28109977
14	0xbe97e6f2	-0.29668385
15	0xbed5b728	-0.417413
16	0x3e80b600	0.25138855
17	0xbf1fce0e	-0.6242379
18	0xbede1b26	-0.43380088
19	0xbf071e60	-0.52780724
20	0xbe92d360	-0.2867689
21	0xbeb12243	-0.34596452
22	0xbe1837e6	-0.14865074
23	0x3f0f07ed	0.5587147
24	0x3d9c1f84	0.07623199
25	0xbf2b3753	-0.66881293
26	0xbeef17e9	-0.4669793
27	0xbf52c13c	-0.823261
28	0xbecc80af	-0.39941928
29	0x3e568140	0.20947742
30	0xbcddb462	-0.027063552
31	0x3e1615ab	0.14656703
32	0xbda1bdb7	-0.07897513
33	0xbe2a8751	-0.16653182
34	0x3f01caed	0.50700265
35	0xbe47dfa8	-0.19518912
36	0xbee29b75	-0.4425923
37	0x3eb91775	0.3615071
38	0x3f4d25ad	0.80135614
39	0xbf320b6d	-0.69548684
40	0xbee5d9ce	-0.44892734
41	0xbeb0f067	-0.34558412
42	0x3cd4b3c7	0.02596463
43	0x3eb6fab6	0.35738152
44	0xbde6cb67	-0.11269265
45	0x3e23a530	0.15980983
46	0x3fb6b388	1.4273539
47	0x3e6e89fb	0.23294823
48	0x3f065608	0.52475023
49	0xbdd8f2f5	-0.105932154
50	0xbf555bf3	-0.8334343
51	0xbe8415a3	-0.25797758
52	0xbe292198	-0.16516721
53	0xbeb8442c	-0.3598951
54	0x3ea37071	0.31921723
55	0x3dacfed5	0.08447043
56	0xbed076ee	-0.40715736
57	0x3e5862ca	0.21131435
58	0x3f981582	1.1881564
59	0xbf129615	-0.57260257
60	0xbee77379	-0.45205286
61	0xbf2de589	-0.6792837
62	0x3f2e9861	0.6820126
63	0x3f7e6a23	0.993807

body.block2.norm.running_var f4 [64]
0	0x404256bb	3.0365436
1	0x3fd6afbe	1.6772382
2	0x3f867c88	1.0506754
3	0x408384e2	4.109971
4	0x3fd951f5	1.6978136
5	0x3fea53ce	1.8306825
6	0x406222e4	3.5333796
7	0x3f79ebc9	0.97625405
8	0x400dca1f	2.2154615
9	0x3f71ec58	0.94501257
10	0x3fd5a401	1.6690675
11	0x40684777	3.6293619
12	0x4030be5c	2.7616186
13	0x3fb53bf6	1.4158924
14	0x3ff5b537	1.9195927
15	0x40278e7a	2.618071
16	0x3f43ddf0	0.76510525
17	0x4018f4b9	2.3899367
18	0x401d1a7c	2.4547415
19	0x3fd39c8d	1.653215
20	0x3f448dc5	0.76778823
21	0x3fbff46a	1.4996464
22	0x407041fb	3.7540271
23	0x40bc4b02	5.884156
24	0x402d8467	2.7112062
25	0x400dd481	2.2160952
26	0x3fefcfb0	1.8735256
27	0x3fbfc889	1.4983073
28	0x3f7b58ca	0.98182356
29	0x40a90c49	5.2827497
30	0x3f89ee2a	1.0775807
31	0x401fe46b	2.4983165
32	0x3fcad400	1.5845947
33	0x3faf0d1b	1.3675874
34	0x3fb647a5	1.4240614
35	0x3fd30b66	1.6487854
36	0x3ff0f692	1.8825247
37	0x3ffa08e2	1.9533961
38	0x3f8c87f4	1.097899
39	0x3fff9302	1.9966738
40	0x3fb4ae3d	1.4115673
41	0x407ef3d6	3.9836326
42	0x4008e410	2.1389198
43	0x40b318e7	5.59679
44	0x40fce88c	7.903387
45	0x3fabea01	1.3430787
46	0x406cf810	3.7026405
47	0x3fc0d542	1.5065081
48	0x40037b1d	2.0543892
49	0x401e7817	2.4760797
50	0x3feba867	1.8410767
51	0x3fb417e2	1.4069788
52	0x400cbb1e	2.1989207
53	0x401aa436	2.4162726
54	0x4014a2d0	2.3224373
55	0x3fc3e2b2	1.5303557
56	0x3ff16a48	1.886056
57	0x3fd4e410	1.6632099
58	0x4076f66e	3.8587909
59	0x3ff5353b	1.915687
60	0x3f858632	1.0431578
61	0x40a8f3c7	5.279758
62	0x404536bd	3.081466
63	0x40f3512d	7.603659
