Examples/cows/pdl_e8000_1px_lr0.0001a35.0_up-conv5_1_W[1.0, 0.5, 0.1, 0.075, 0.075](2)/5/netG.pth (torch, 471621 bytes, 26 tensors)

head.conv.weight f4 [64, 3, 3, 3]
0.03472727 -0.004129443 -0.01943114 0.0059889816 -0.0008066205 0.0015900944 -0.014586361 -0.012621747
-0.026811492 0.0060986793 0.015897563 -0.007610068 0.012060579 -0.048744857 -0.03677148 -0.029089909
0.029273722 0.015575455 0.02127879 0.020155573 0.018264484 -0.018191595 0.010007754 0.014710643
-0.017397182 -0.0069116303 -0.016289186 -0.0020437932 0.011807062 0.00670943 -0.007926928 0.010411447
-0.007846363 -0.007281389 0.0107834125 0.0058819014 -0.029830048 -0.017360585 0.007110288 -0.0032040612
-0.009259628 -0.019647578 0.018796636 -0.03579484 -0.037233807 -0.060487024 -0.009659481 -0.0027229667
0.0022152916 0.006756852 0.0015336347 0.021190438 -0.010245892 0.033827037 0.039143443 -0.001710363
-0.01584799 0.026659492 0.028980793 0.02236084 0.040862847 -0.031076446 -0.011982137 0.00982803
0.03627124 -0.039064012 0.01999456 0.017246772 -0.0058130305 0.032748207 0.008738583 0.02962337
0.010506973 0.022183578 -0.0024603962 0.00985246 -0.017818771 -0.0056852046 0.010096824 -0.0053661964
0.0054551363 -0.007734741 0.012506934 0.007604918 0.0012223014 0.022824585 -0.0168412 -0.034509655
-0.0085673835 0.027735153 -0.04409204 0.005693624 -0.005917596 -0.018661937 0.00997018 -0.019991547
0.027726544 0.027503803 0.008618181 -0.006770929 -0.018387621 -0.0007629143 -0.0006841205 -0.0067712963
-0.017795628 -0.0031872382 -0.025721991 -0.048487093 0.00784739 -0.005663951 0.0068150563 -0.0020309428
0.01338703 -0.023792924 -0.021095507 -0.02465615 0.0448989 0.0048209843 0.002096753 -0.009580613
0.0012117497 0.012214117 -0.06357925 0.005409626 0.037900448 0.007052211 0.04655733 -0.014873485
-0.01482883 0.008680979 0.014287399 0.012726297 -0.014077157 0.011863617 -0.01301113 -0.015985921
-0.0017765732 0.024933854 0.009528855 0.0015081355 -0.048490345 0.009788146 0.036928464 0.02289667
-0.010274836 0.00079330755 -0.013057896 -0.033539295 -0.042397056 -0.0066530723 -0.020712782 -0.009897307
-0.0062997085 0.022978066 0.0060529695 0.0033045013 0.009862096 -0.0058526043 0.013189683 -0.01996033
0.002546848 0.0060667056 -0.03832561 -0.029162018 -0.018783862 -0.013711043 0.008279223 0.0049856757
0.026701856 0.02151844 0.035604373 -0.0507354 0.0019452864 -0.026698772 0.030679738 0.00012968958
0.007387552 0.034184206 0.0019236438 0.002918206 -0.002658338 0.0035051515 0.011640968 0.02602346
0.015365862 -0.024585325 -0.023438262 -0.024776032 0.0046712095 0.011175316 0.023986893 0.0006939115
-0.04385477 0.032080516 -0.0058248946 0.0034006252 0.002862493 -0.045747727 0.018780552 -0.033308394
-0.011619143 -0.008045885 0.03942071 -0.00583358 -0.036789905 -0.013591682 -0.010478037 -0.018613735
-0.009613693 0.013155269 0.026401566 0.035330158 0.008421981 -0.0028041732 -0.010863826 0.018207602
0.0031984944 0.023634247 -0.041688565 -0.020733396 0.017672427 0.0011493184 -0.0042350544 -0.018965565
-0.001614002 0.054904 0.0018152944 0.017642112 -0.069182806 0.027780145 0.038411338 -0.02291563
-0.022807721 -0.0032735574 -0.0048523904 -0.011651783 0.029736724 -0.016422074 -0.0027656602 0.012354787
-0.043629657 0.0073400172 0.016140206 0.0033653025 0.031479906 0.009505958 -0.001737562 -0.024939831
-0.024721455 0.015611668 -0.036182065 0.016749293 -0.03144442 0.016957812 -0.004340922 0.01826171
00000000: 2f3e 0e3d 4750 87bb 0e2e 9fbc 383f c43b
00000010: 6373 53ba b76a d03a a2fb 6ebc 72cb 4ebc
00000020: c6a3 dbbc 6ed7 c73b 9b3b 823c e15d f9bb
00000030: bc99 453c b0a8 47bd b19d 16bd f64d eebc
00000040: 72cf ef3c 3130 7f3c db50 ae3c 4d1d a53c
00000050: 669f 953c 8a06 95bc 90f7 233c e904 713c
00000060: 8984 8ebc f57a e2bb e670 85bc 29f1 05bb
00000070: 6872 413c c7da db3b f2df 01bc c694 2a3c
00000080: 088e 00bc b898 eebb e9ac 303c f7bc c03b
00000090: 255e f4bc c937 8ebc 6bfd e83b 3afb 51bb
000000a0: b2b5 17bc f5f3 a0bc 67fb 993c 9c9d 12bd
000000b0: 7a82 18bd 3ec1 77bd cd42 1ebc cd73 32bb
000000c0: 6d2e 113b 9568 dd3b 3e04 c93a 9297 ad3c
000000d0: 63de 27bc 388e 0a3d e054 203d 422e e0ba
000000e0: a5d3 81bc 0265 da3c 2169 ed3c 152e b73c
000000f0: cd5f 273d 0894 febc ba50 44bc bf05 213c
00000100: 2791 143d 9601 20bd a2cb a33c 1a49 8d3c
00000110: 3c7b bebb fc22 063d 462c 0f3c b6ac f23c
00000120: 7025 2c3c 56ba b53c 993e 21bb 366c 213c
00000130: acf8 91bc f44a babb 266d 253c ebd6 afbb
00000140: 00c1 b23b b673 fdbb e2e9 4c3c ad32 f93b
00000150: a135 a03a a0fa ba3c 8ef6 89bc ff59 0dbd
00000160: 365e 0cbc d534 e33c db99 34bd 9491 ba3b
00000170: 65e8 c1bb ebe0 98bc f759 233c 50c5 a3bc
00000180: c722 e33c a84f e13c 4533 0d3c abde ddbb
00000190: a3a1 96bc 50fe 47ba 8d56 33ba c0e1 ddbb
000001a0: 23c8 91bc fce0 50bb edb6 d2bc 679a 46bd
000001b0: 5792 003c aa98 b9bb d650 df3b 9119 05bb
000001c0: 4655 5b3c 61e9 c2bc 7cd0 acbc b2fb c9bc
000001d0: e9e7 373d 59f9 9d3b ae69 093b 01f8 1cbc
000001e0: 93d3 9e3a b81d 483c d635 82bd 3b43 b13b
000001f0: 803d 1b3d 3c16 e73b e6b2 3e3d ebaf 73bc
00000200: 9ff4 72bc aa3a 0e3c b215 6a3c f581 503c
00000210: e0a3 66bc 9e5f 423c a22c 55bc e8f4 82bc
00000220: e8db e8ba 1542 cc3c ea1e 1c3c a1ac c53a
00000230: d09d 46bd 765e 203c 4d42 173d cc91 bb3c
00000240: c957 28bc f8f5 4f3a c9f0 55bc 8060 09bd
00000250: 89a8 2dbd 0402 dabb daad a9bc 5028 22bc
00000260: c96d cebb 7f3c bc3c fd57 c63b 5590 583b
00000270: a194 213c 34c7 bfbb 8a19 583c d983 a3bc
00000280: 05e9 263b 37cb c63b 51fb 1cbd 2fe5 eebc
00000290: 9de0 99bc 48a4 60bc 94a5 073c e15e a33b
000002a0: dabd da3c 7147 b03c e4d5 113d eccf 4fbd
000002b0: fbf8 fe3a 62b7 dabc 1354 fb3c 48fd 0739
000002c0: 4713 f23b bd04 0c3d c622 fc3a 5f3f 3f3b
000002d0: 8337 2ebb afb6 653b c2b9 3e3c 272f d53c
000002e0: 19c1 7b3c 2a67 c9bc 9901 c0bc 1bf7 cabc
000002f0: f210 993b ac18 373c 2980 c43c 9de7 353a
00000300: 0fa1 33bd dc66 033d c2de bebb 06dd 5e3b
00000310: aa98 3b3b f861 3bbd acd9 993c 626e 08bd
00000320: 385e 3ebc e3d2 03bc 9c77 213d 9e27 bfbb
00000330: 03b1 16bd a5af 5ebc 13ac 2bbc d57b 98bc
00000340: c082 1dbc 3389 573c 1948 d83c 5bb6 103d
00000350: 59fc 093c 38c6 37bb 30fe 31bc 1c28 953c
00000360: d59d 513b 9c9c c13c a1c1 2abd 15d9 a9bc
00000370: c4c5 903c baa4 963a 36c6 8abb ac5d 9bbc
00000380: ec8c d3ba 04e3 603d 2cef ed3a 3186 903c
00000390: b7af 8dbd 3093 e33c 3555 1d3d 8fb9 bbbc
000003a0: 42d7 babc 2e89 56bb cd00 9fbb 1fe7 3ebc
000003b0: 6e9a f33c 9687 86bc 1440 35bb bc6b 4a3c
000003c0: 03b5 32bd 8784 f03b 7738 843c 688c 5c3b
000003d0: 13f1 003d e1be 1b3c e8be e3ba 9e4e ccbc
000003e0: a684 cabc 15c8 7f3c a533 14bd d035 893c
000003f0: ddcb 00bd 1ceb 8a3c 4b3e 8ebb 9599 953c

head.conv.bias f4 [64]
0.023211924 -0.14346647 -0.025874874 0.17336243 0.11679324 0.127134 -0.13292193 -0.17130978
0.06659702 -0.12996191 -0.0588372 -0.11079164 0.13210335 -0.06380171 -0.030093461 -0.20864204
-0.14960942 -0.079813294 0.024522949 -0.08786219 0.1671244 -0.19961445 0.057777587 -0.19787234
0.03454794 0.20481466 -0.02891711 0.1131032 -0.03761253 0.1746775 -0.06741501 0.1358113
0.00160813 0.012731547 -0.12798347 -0.15617031 0.050402608 -0.15629642 0.06776246 -0.15430073
-0.05854114 -0.04351603 0.15541631 -0.04777533 0.11912275 0.17562866 0.087798364 0.10720435
-0.00047575956 0.12862247 -0.14092062 0.12313995 0.02031409 -0.07149486 0.043979388 0.006077823
0.21321775 0.034062628 -0.016427092 0.0090421 0.032303385 -0.06543445 0.12691928 0.071574286
00000000: ef26 be3c e0e8 12be 8bf7 d3bc ec85 313e
00000010: 4b31 ef3d 6a2f 023e b01c 08be d56b 2fbe
00000020: 0564 883d bc14 05be 47ff 70bd bae6 e2bd
00000030: 1a46 073e 79aa 82bd 9086 f6bc 42a6 55be
00000040: 3633 19be 2775 a3bd 5ae4 c83c 18f1 b3bd
00000050: a922 2b3e bb67 4cbe 31a8 6c3d 0c9f 4abe
00000060: 2482 0d3d efba 513e 93e3 ecbc a7a2 e73d
00000070: 990f 1abd a9de 323e e110 8abd 1e12 0b3e
00000080: e4c7 d23a fa97 503c 190e 03be 1ceb 1fbe
00000090: f772 4e3d 2b0c 20be 0bc7 8a3d 0301 1ebe
000000a0: d6c8 6fbd dd3d 32bd 7425 1f3e 10b0 43bd
000000b0: a1f6 f33d 00d8 333e a1cf b33d f48d db3d
000000c0: 5e6f f9b9 9cb5 033e 7f4d 10be cc30 fc3d
000000d0: bc69 a63c e66b 92bd bb23 343d 7a28 c73b
000000e0: c155 5a3e 4185 0b3d 1c92 86bc 5125 143c
000000f0: 8e50 043d 7f02 86bd 21f7 013e 8a95 923d

head.norm.weight f4 [64]
0.96175903 1.0018167 1.016749 0.9672875 1.013665 0.9975029 0.9930062 1.02081
0.96166146 0.979328 1.0093123 1.0104852 1.0480636 1.0083705 0.99314624 1.0254557
1.0029023 1.0200622 1.0224553 1.0090991 0.9701824 0.9962035 1.0382277 1.0188373
1.0159179 1.0183872 1.0081314 1.0310742 1.0112934 1.0151464 1.0128435 0.9672107
0.9979346 1.0363135 0.98037183 0.98918587 1.0265625 0.9823894 0.99853396 1.0063056
0.9989717 0.99845433 1.0046799 0.9944671 0.98863375 0.9838459 0.9875049 0.973968
0.9840593 0.9768213 0.9848216 1.0229012 1.0018508 0.9654312 1.0271773 1.0050974
1.0066295 0.9877222 0.98979324 0.98226076 1.0378937 0.97681856 1.0019511 0.9998498
00000000: d735 763f 883b 803f d524 823f 27a0 773f
00000010: c6bf 813f 5a5c 7f3f a835 7e3f e7a9 823f
00000020: 722f 763f 3db5 7a3f 2531 813f 9457 813f
00000030: f326 863f 4912 813f d53e 7e3f 2242 833f
00000040: 1a5f 803f 6691 823f d1df 823f 292a 813f
00000050: e05d 783f 3107 7f3f a5e4 843f 4369 823f
00000060: 9909 823f 835a 823f 730a 813f 3dfa 833f
00000070: 1072 813f 51f0 813f dba4 813f 1f9b 773f
00000080: a478 7f3f eca5 843f a6f9 7a3f 493b 7d3f
00000090: 6666 833f df7d 7b3f ec9f 7f3f 9fce 803f
000000a0: 9cbc 7f3f b49a 7f3f 5a99 803f 6595 7e3f
000000b0: 1a17 7d3f 53dd 7b3f 1fcd 7c3f f855 793f
000000c0: 4feb 7b3f f610 7a3f 451d 7c3f 6dee 823f
000000d0: a63c 803f 8026 773f 8c7a 833f 08a7 803f
000000e0: 3cd9 803f 5ddb 7c3f 1763 7d3f 7175 7b3f
000000f0: b3d9 843f c810 7a3f ef3f 803f 28f6 7f3f

head.norm.bias f4 [64]
-0.0088286875 -0.026540734 0.004909517 -0.024393354 -0.030616295 -0.03086263 -0.00034731507 -0.03593427
-0.011130583 -0.00963906 -0.0156392 -0.05225895 -0.028578794 -0.033464093 -0.030498 -0.06331104
-0.01906418 -0.03303874 -0.021908944 -0.01501908 -0.023383541 0.0020814307 -0.015813515 -0.0023551665
-0.012954503 -0.02353214 -0.020907288 -0.005298765 -0.0054628355 -0.022022825 0.036842085 -0.05012699
-0.008523825 -0.010118883 -0.041342188 -0.05857278 -0.019025551 -0.0130422 1.5916863e-05 -0.018598823
-0.031139558 -0.024198951 -0.008373472 0.009522452 0.017892864 -0.019006247 0.009781126 -0.02949687
-0.01861271 -0.024183897 -0.0024085566 -0.021470172 -0.0036820497 -0.022344781 0.0064821322 -0.029562019
-0.034810383 -0.00041722317 -0.055087365 0.028954955 -0.01888882 -0.0015076329 -0.009447753 -0.010201358
00000000: 33a6 10bc f46b d9bc 03e0 a03b 92d4 c7bc
00000010: 06cf fabc a0d3 fcbc d717 b6b9 d02f 13bd
00000020: 0c5d 36bc 26ed 1dbc c81d 80bc 7b0d 56bd
00000030: 131e eabc a511 09bd f1d6 f9bc 38a9 81bd
00000040: 7c2c 9cbc a153 07bd 637a b3bc 9612 76bc
00000050: d78e bfbc 9d68 083b 588b 81bc 2359 1abb
00000060: 203f 54bc 79c6 c0bc c345 abbc 43a1 adbb
00000070: 9601 b3bb 3669 b4bc bae7 163d f551 4dbd
00000080: 83a7 0bbc acc9 25bc 6d56 29bd 03ea 6fbd
00000090: 79db 9bbc f4ae 55bc 3485 8537 8f5c 98bc
000000a0: 6318 ffbc e13c c6bc e330 09bc 0f04 1c3c
000000b0: 0e94 923c fdb2 9bbc 0441 203c 6ba3 f1bc
000000c0: af79 98bc 4f1d c6bc e0d8 1dbb 37e2 afbc
000000d0: 8b4e 71bb 670c b7bc 1168 d43b 0c2c f2bc
000000e0: 5595 0ebd bfbe dab9 4aa3 61bd f132 ed3c
000000f0: babc 9abc c49b c5ba c0ca 1abc 9923 27bc

head.norm.running_mean f4 [64]
0.00972149 -0.14146015 -0.027471727 0.22360489 0.10184446 0.10730809 -0.12737326 -0.1983766
0.07130119 -0.12677282 -0.08070168 -0.13652562 0.11749615 -0.0703055 -0.036376618 -0.21501099
-0.12735608 -0.13464674 -0.0070963386 -0.11763357 0.16348645 -0.20107639 0.056203924 -0.26601398
0.05199397 0.19449867 -0.03376766 0.16004863 -0.013418313 0.13806388 -0.06433196 0.15017608
-0.029996082 -0.021222547 -0.12315817 -0.109691516 0.053667303 -0.20054188 0.07497745 -0.17824887
-0.08067131 -0.021485971 0.21138951 -0.03515259 0.14686315 0.10651135 0.07592343 0.069545396
-0.006729127 0.0897062 -0.16558407 0.11061895 -0.023542838 -0.10755786 0.085104935 0.03600066
0.21043934 0.042262234 -0.04466817 0.008563631 0.080073416 -0.108453386 0.13275388 0.11814788
00000000: e246 1f3c eeda 10be 630c e1bc aef8 643e
00000010: d493 d03d 58c4 db3d 236e 02be 3c23 4bbe
00000020: 5c06 923d bcd0 01be ec46 a5bd 5fcd 0bbe
00000030: d2a1 f03d 54fc 8fbd a6ff 14bd d72b 5cbe
00000040: a269 02be d6e0 09be 6788 e8bb dfe9 f0bd
00000050: fe68 273e f8e6 4dbe 1636 663d fc32 88be
00000060: a1f7 543d a92a 473e f54f 0abd cae3 233e
00000070: 7cd8 5bbc 9e60 0d3e 7ac0 83bd c2c7 193e
00000080: 58ba f5bc e8da adbc 5a3a fcbd f2a5 e0bd
00000090: 3fd2 5b3d da5a 4dbe c78d 993d df86 36be
000000a0: 0037 a5bd 5903 b0bc 7e76 583e 2afc 0fbd
000000b0: 4b63 163e 9f22 da3d be7d 9b3d d16d 8e3d
000000c0: 0280 dcbb e2b7 b73d df8e 29be 308c e23d
000000d0: e9dc c0bc 4c47 dcbd 7f4b ae3d 6e75 133d
000000e0: 697d 573e 2a1b 2d3d f9f5 36bd 794e 0c3c
000000f0: 88fd a33d cf1c debd a2f0 073e 84f7 f13d

head.norm.running_var f4 [64]
0.00046870435 0.00044512024 0.001247788 0.000884646 0.00021545557 0.00041887004 0.0006189084 0.0004041092
0.00049535546 0.00023082204 0.00034509154 0.00032427436 0.00030941862 0.00031858165 0.00018901442 0.00044071427
0.00068657927 0.0010816611 0.0005418261 0.0006107218 0.0005800444 0.0005951274 0.00035995984 0.0016299766
0.0003936689 0.00034650238 0.00040669288 0.0010199678 0.00029233945 0.0011275528 0.0001417272 0.0001357337
0.0005067833 0.00053854904 0.001994989 0.00074339705 0.00035945515 0.0008340712 0.00020597516 0.00053015776
0.000382687 0.0013123988 0.00088858575 0.00034722147 0.0021444527 0.0016917876 0.0006862807 0.00059220364
0.00010182014 0.0011850126 0.00036587354 0.00022664886 0.00095406146 0.0010275083 0.0005574515 0.00032100998
0.0004155468 0.00073232077 0.000576483 0.00069023046 0.00077453646 0.0012361102 0.00034642467 0.0007573905
00000000: 6fbc f539 075f e939 d18c a33a 97e7 673a
00000010: eaeb 6139 c99b db39 3d3e 223a 9ede d339
00000020: beda 013a d208 7239 67ed b439 5e03 aa39
00000030: 7739 a239 4e07 a739 2c32 4639 ab0f e739
00000040: 8efb 333a 86c6 8d3a 5609 0e3a d918 203a
00000050: 1f0e 183a 5302 1c3a feb8 bc39 f0a4 d53a
00000060: 5865 ce39 c3aa b539 6539 d539 71b0 853a
00000070: 2345 9939 65ca 933a 9b9c 1439 bd53 0e39
00000080: a7d9 043a 6a2d 0d3a 5dbe 023b 88e0 423a
00000090: 4175 bc39 92a5 5a3a 09fb 5739 49fa 0a3a
000000a0: 61a3 c839 cc04 ac3a fbef 683a 470b b639
000000b0: f289 0c3b f9be dd3a 85e7 333a 1d3e 1b3a
000000c0: 4588 d538 6d52 9b3a b7d2 bf39 97a8 6d39
000000d0: fb19 7a3a 75ad 863a f021 123a 3b4d a839
000000e0: bfdd d939 37f9 3f3a 1f1f 173a 95f0 343a
000000f0: 430a 4b3a fa04 a23a 55a0 b539 9e8b 463a

body.block1.conv.weight f4 [64, 64, 3, 3]
-0.054424364 0.026523829 -0.037696056 0.020087143 -0.026891422 -0.012802526 0.008100029 -0.0013894814
-0.024114497 0.02678203 0.0235158 -0.004904935 -0.014159706 -0.008490448 0.013893267 -0.038795512
0.027558235 0.05577219 -0.037981376 -0.019536836 -0.04562459 0.0015698872 0.047055546 0.014791264
0.042677116 0.010734577 0.010195416 0.013961901 0.018816054 0.02277928 -0.01707053 0.014128021
0.0074015837 0.034579504 -0.001406343 -0.0024419413 0.007030204 0.004409188 0.020419562 0.012210277
-0.0030672569 -0.008237996 -0.010010087 0.001192085 -0.038884938 -0.008638565 0.0009046215 -0.004477042
0.018616358 -0.017872827 -0.014844263 -0.016120289 -0.014193298 0.016379002 0.0376796 0.028564107
0.0063031735 0.018759776 0.008728728 0.018977841 -0.008672885 -0.027276421 -0.018602233 0.023904014
-0.040320404 -0.066800505 -0.013559028 -0.019126492 0.011764708 0.02727662 0.0043912125 0.03235114
0.077463165 0.052211724 -0.019011872 0.035084013 -0.023390451 0.01750719 -0.011976557 0.017375527
-0.00031637403 0.047122333 0.017216358 0.009272487 -0.03153609 0.022934219 0.031007007 -0.018877903
0.011248724 -0.002442554 0.027078537 0.0068582734 -0.00081394135 0.001321931 0.012490428 0.02426163
0.028788414 0.01137245 0.03907832 -0.0012447668 0.011550237 -0.013083193 -0.00054661254 -0.030723892
0.014003639 0.0057503753 0.0015858575 -0.038855437 -0.021340985 -0.021779332 0.039319646 -0.012311936
0.0132637415 0.0043673674 -0.018621694 -0.029525636 -0.023317693 -0.018436592 -0.030638762 -0.008127399
-0.024786025 -0.007769878 -0.00957259 -0.040559046 0.05041939 -0.03387838 -0.038198747 -0.016683921
-0.05908562 -0.017322432 0.0063907797 0.0015382527 -0.04025749 -0.011816266 -0.030796582 -0.011696988
-0.029758748 -0.00011065734 -0.006398721 0.007126754 0.030945431 -0.019905305 -0.021902557 -0.005428562
0.0052881446 -0.026711246 -0.05968882 0.004698739 -0.028674992 -0.048033424 -0.0142385755 0.036906675
0.02479257 -0.012619731 -0.0021209293 -0.024330799 -0.0037184497 0.0057448545 0.0041251234 -0.016314493
0.0018700088 -0.03897549 -0.034112126 0.004514117 -0.0034880934 0.004771832 -0.022256594 -0.057496678
0.014762814 -0.047519036 -0.004245414 -0.030652635 -0.022205688 -0.0061035627 -0.02168665 0.0071907914
-0.022190636 -0.028250337 -0.033041123 -0.012099551 0.051402207 0.014949976 -0.014239661 -0.04921062
0.016497344 0.0017023527 0.043024592 -0.035309706 -0.0069540623 0.017680163 0.03062286 -0.0069018593
-0.021018762 0.031008065 0.0028144692 0.022767222 0.0010204142 0.025635716 -0.038729344 -0.016926399
-0.003601771 -0.058530193 0.0133002335 -0.004629937 0.019504974 0.013910234 -0.01853207 -0.030511897
-0.02990539 -0.011686294 0.022978589 -0.03839736 -0.013502949 0.0030176782 -0.02154862 -0.0036068982
-0.043525428 -0.017772093 -0.0070404764 0.004508936 0.0030432914 -0.030223105 0.0062354393 -0.010680338
-0.03278241 0.013276919 -0.030504197 -0.03151978 -0.0032036677 0.023109136 -0.025845468 -0.035483055
0.004455972 0.007247445 0.014391975 -0.0056678695 -0.0094321715 -0.04945526 -0.032734383 -0.0021757786
0.0153824305 0.021020832 0.008660704 -0.010448123 0.001484196 -0.0051961006 -0.007845157 0.032664273
0.0028283766 -0.0015486248 0.020545999 -0.019667512 0.010098855 -0.00461877 -0.004940773 0.030177096
00000000: 15ec 5ebd 8048 d93c 2e67 1abd cb8d a43c
00000010: 664b dcbc b0c1 51bc fcb5 043c 421f b6ba
00000020: c48b c5bc fd65 db3c 35a4 c03c 94b9 a0bb
00000030: 1dfe 67bc 851b 0bbc 96a0 633c 0be8 1ebd
00000040: cfc1 e13c 6171 643d 5c92 1bbd b70b a0bc
00000050: dae0 3abd acc4 cd3a 51bd 403d 0f57 723c
00000060: 33ce 2e3d 14e0 2f3c ad0a 273c 75c0 643c
00000070: 2024 9a3c 9d9b ba3c 7fd7 8bbc 3779 673c
00000080: fc88 f23b 3da3 0d3d 0a55 b8ba fa08 20bb
00000090: a05d e63b f37a 903b ed46 a73c 9d0d 483c
000000a0: 0804 49bb a9f8 06bc 5901 24bc bc3f 9c3a
000000b0: d045 1fbd c588 0dbc 1f24 6d3a 26b4 92bb
000000c0: 5581 983c 096a 92bc 5a35 73bc b20e 84bc
000000d0: 028b 68bc 422d 863c ed55 1a3d 46ff e93c
000000e0: da8a ce3b 1aae 993c f002 0f3c 6b77 9b3c
000000f0: b718 0ebc cd72 dfbc b663 98bc 5ad2 c33c
00000100: 0227 25bd b4ce 88bd af26 5ebc 29af 9cbc
00000110: c3c0 403c 3873 df3c 29e4 8f3b a182 043d
00000120: 02a5 9e3d f6db 553d c9be 9bbc 41b4 0f3d
00000130: 559d bfbc 3d6b 8f3c 5239 44bc 1f57 8e3c
00000140: 01df a5b9 5903 413d 5209 8d3c a1eb 173c
00000150: fd2b 01bd 8be0 bb3c 6802 fe3c d5a5 9abc
00000160: 914c 383c 4213 20bb cfd3 dd3c 5ebb e03b
00000170: ae5e 55ba a544 ad3a a7a4 4c3c 53c0 c63c
00000180: aed5 eb3c 8353 3a3c 9710 203d 7127 a3ba
00000190: 353d 3d3c e45a 56bc 8c4a 0fba acb0 fbbc
000001a0: 856f 653c a56d bc3b 8cdc cf3a e126 1fbd
000001b0: 4ad3 aebc 926a b2bc a30d 213d 01b8 49bc
000001c0: 2a50 593c 221c 8f3b 868c 98bc bfdf f1bc
000001d0: bf04 bfbc 5608 97bc 24fe fabc c828 05bc
000001e0: 100c cbbc 769a febb 5ad6 1cbc 3e21 26bd
000001f0: 9084 4e3d 0ec4 0abd 4a76 1cbd b8ac 88bc
00000200: c303 72bd c6e7 8dbc bf69 d13b 329f c93a
00000210: 0ae5 24bd 0399 41bc 1d49 fcbc b9a4 3fbc
00000220: 9ec8 f3bc b510 e8b8 5dac d1bb 8c87 e93b
00000230: 4681 fd3c 7310 a3bc fe6c b3bc 14e2 b1bb
00000240: 2c48 ad3b 8bd1 dabc 447c 74bd e1f7 993b
00000250: d1e7 eabc b2be 44bd ea48 69bc 742b 173d
00000260: ca19 cb3c fdc2 4ebc 4aff 0abb 6251 c7bc
00000270: 3cb1 73bb 553f bc3b 0b2c 873b f9a5 85bc
00000280: 151b f53a c3a4 1fbd 28b9 0bbd 28eb 933b
00000290: 7f98 64bb 075d 9c3b 7653 b6bc a381 6bbd
000002a0: bbdf 713c 52a3 42bd 1d1d 8bbb 3c1b fbbc
000002b0: b4e8 b5bc 6500 c8bb 34a8 b1bc bba0 eb3b
000002c0: 23c9 b5bc 406d e7bc 2156 07bd 323d 46bc
000002d0: 1f8b 523d bef0 743c 784d 69bc 1391 49bd
000002e0: 7025 873c 7a21 df3a 8e3a 303d e9a0 10bd
000002f0: e7de e3bb fdd5 903c cbdc fa3c fe28 e2bb
00000300: 8a2f acbc a004 fe3c f572 383b 5382 ba3c
00000310: 6bbf 853a fe01 d23c a9a2 1ebd 3ba9 8abc
00000320: b10b 6cbb 5bbd 6fbd 39e9 593c bab6 97bb
00000330: e5c8 9f3c c0e7 633c 91d0 97bc 16f4 f9bc
00000340: 26fc f4bc df77 3fbc 983d bc3c 8d46 1dbd
00000350: 793b 5dbc 3dc4 453b bb86 b0bc b661 6cbb
00000360: b847 32bd c896 91bc ccb3 e6bb b2bf 933b
00000370: f571 473b 7296 f7bc a852 cc3b 96fc 2ebc
00000380: d946 06bd 6f87 593c f0e3 f9bc e31a 01bd
00000390: a0f4 51bb 5f4f bd3c e0b9 d3bc ae56 11bd
000003a0: 6703 923b fa7b ed3b 51cc 6b3c 89b9 b9bb
000003b0: 6589 1abc 9991 4abd 7d14 06bd 8297 0ebb
000003c0: 9706 7c3c e133 ac3c a0e5 0d3c 9b2e 2bbc
000003d0: 5b89 c23a 0d44 aabb f988 00bc f9ca 053d
000003e0: 495c 393b 3afb caba 1550 a83c c31d a1bc
000003f0: ab75 253c 0d59 97bb 35e6 a1bb f535 f73c

body.block1.conv.bias f4 [64]
-0.0034286964 0.025133207 -0.024685761 -0.034348425 0.03990869 -0.012437767 -0.04012616 0.0067112865
-0.012686203 -0.0010335884 0.0111271795 0.009724375 0.03940866 0.03290065 0.026263792 0.009465417
-0.03186271 0.014714082 0.022677355 -0.014244158 -0.006982383 0.03599736 0.020867942 -0.026331853
-0.010968971 -0.013319591 0.017794915 -0.0353601 -0.031482127 -0.028117616 0.0025267801 -0.010311935
-0.003939119 0.019695817 0.03804016 0.011692853 0.02214907 -0.016523471 -0.014683751 -0.008021952
0.01570037 -0.020789223 0.023810297 0.0064483313 0.008340793 0.025407875 0.032761376 0.038091846
-0.0018578551 0.014272593 0.012527456 -0.023555657 -0.0070926426 0.021026546 -0.011008852 -0.03671063
-0.029339291 0.0079534445 0.03567135 0.032335427 0.012299236 -0.022934152 -0.01142584 0.020661382
00000000: fbb3 60bb 28e4 cd3c cb39 cabc efb0 0cbd
00000010: 4b77 233d c7c7 4bbc 545b 24bd 5aea db3b
00000020: cbd9 4fbc 7979 87ba c64e 363c fc52 1f3c
00000030: fa6a 213d d5c2 063d 2a27 d73c d614 1b3c
00000040: 7982 02bd 5513 713c dcc5 b93c 5460 69bc
00000050: 79cc e4bb f871 133d 3ff3 aa3c e6b5 d7bc
00000060: 33b7 33bc 6a3a 5abc a4c6 913c c1d5 10bd
00000070: 67f3 00bd ea56 e6bc 5698 253b 64f3 28bc
00000080: ba13 81bb 1f59 a13c 00d0 1b3d 6193 3f3c
00000090: f771 b53c 3b5c 87bc 1e94 70bc 816e 03bc
000000a0: 109e 803c 294e aabc d00d c33c 864c d33b
000000b0: d2a7 083c 2d24 d03c cb30 063d 3206 1c3d
000000c0: 4683 f3ba 98d7 693c f53f 4d3c cbf7 c0bc
000000d0: 6669 e8bb dd3f ac3c 795e 34bc e35d 16bd
000000e0: f458 f0bc 2a4f 023c 1f1c 123d 2772 043d
000000f0: bc82 493c 67e0 bbbc 7233 3bbc 0f42 a93c

body.block1.norm.weight f4 [64]
0.99428093 1.02649 1.0083455 1.0158763 1.061017 0.99899024 1.0123981 0.9869323
0.9795378 0.98969907 1.002119 1.0033513 0.99747944 1.0089172 1.0245808 1.0069
0.9801915 1.0267687 0.982362 0.96526873 0.9998376 1.0149233 1.0098186 1.0083904
0.9467646 0.9970883 1.0288061 0.9747351 1.0050013 0.9993131 1.0033991 0.97498435
0.9772495 1.0267224 0.9865521 0.99612415 1.0208229 1.017564 1.0065453 1.0420163
0.9768385 1.0295445 1.0159657 1.0132493 0.99188936 0.9875616 0.98469055 0.9607582
0.9996801 0.9864614 1.0462443 0.985015 0.9973489 1.0463847 0.95515317 1.0138968
1.018872 1.0486166 1.0089817 1.0041229 0.99162585 1.0097716 0.9724945 0.9924299
00000000: 3289 7e3f 0664 833f 7711 813f 3c08 823f
00000010: 68cf 873f d3bd 7f3f 4396 813f 98a7 7c3f
00000020: fdc2 7a3f eb5c 7d3f 6f45 803f d16d 803f
00000030: d05a 7f3f 3324 813f 7725 833f 19e2 803f
00000040: d5ed 7a3f 286d 833f 137c 7b3f da1b 773f
00000050: 5bf5 7f3f 02e9 813f bc41 813f f012 813f
00000060: 2a5f 723f 2e41 7f3f ebaf 833f 3d88 793f
00000070: e2a3 803f fcd2 7f3f 626f 803f 9398 793f
00000080: 062d 7a3f a46b 833f ae8e 7c3f fe01 7f3f
00000090: 53aa 823f 8a3f 823f 7ad6 803f ca60 853f
000000a0: 1712 7a3f 1dc8 833f 2a0b 823f 27b2 813f
000000b0: 76ec 7d3f d6d0 7c3f ae14 7c3f 40f4 753f
000000c0: 09eb 7f3f bc88 7c3f 55eb 853f f129 7c3f
000000d0: 4252 7f3f efef 853f eb84 743f 5fc7 813f
000000e0: 666a 823f 1239 863f 5026 813f 1987 803f
000000f0: 31db 7d3f 3240 813f 66f5 783f e30f 7e3f

body.block1.norm.bias f4 [64]
-0.008287166 -0.00822549 -0.02255653 -0.0053171627 0.018251177 -0.007170223 -0.024042487 -0.01944741
-0.013093161 -0.013668462 -0.013551237 -0.014072432 -0.010032803 -0.015737064 -0.0022976338 -0.020781508
-0.016317027 -0.029240835 -0.029728493 -0.029100778 -0.007608042 -0.0022936028 -0.0056089456 0.0035684921
-0.05406489 0.003696291 -0.021209313 -0.047269955 -0.002628541 -0.045737248 -0.027061678 -0.03456225
-0.0069734063 -0.006370941 -0.015715316 -0.0028518094 -0.044326384 0.022131827 -0.017027603 0.0005999865
-0.034212686 -0.00036619933 -0.043968208 -0.0309402 -0.03533866 -0.017692568 -0.0155237205 -0.05708885
-0.025528857 -0.0250623 -0.015029613 0.0023465818 -0.0010436542 -0.004781974 -0.015466507 0.016325038
-0.052057922 -0.01689426 -0.0045247814 -0.017169638 -0.023398476 -0.0128559675 -0.022992559 -0.020152915
00000000: e5c6 07bc 35c4 06bc 79c8 b8bc 983b aebb
00000010: 7e83 953c 31f4 eabb c0f4 c4bc 2d50 9fbc
00000020: b384 56bc aff1 5fbc 0206 5ebc 0f90 66bc
00000030: a060 24bc 04eb 80bc e693 16bb fb3d aabc
00000040: 49ab 85bc 7a8a efbc 2b89 f3bc c164 eebc
00000050: e24c f9bb 4550 16bb 3fcb b7bb 5ddd 693b
00000060: 2573 5dbd 793d 723b 27bf adbc 249e 41bd
00000070: 9a43 2cbb fb56 3bbd 74b0 ddbc 2591 0dbd
00000080: 2c81 e4bb 54c3 d0bb 68bd 80bc 6ce5 3abb
00000090: 958f 35bd ce4d b53c 797d 8bbc 6a48 1d3a
000000a0: 9a22 0cbd 71fe bfb9 0218 34bd 4d76 fdbc
000000b0: 45bf 10bd 01f0 90bc 3457 7ebc ffd5 69bd
000000c0: e521 d1bc 744f cdbc c43e 76bc 1cc9 193b
000000d0: 39cb 88ba 1bb2 9cbb 3b67 7dbc 16bc 853c
000000e0: b03a 55bd d565 8abc 9e44 94bb 57a7 8cbc
000000f0: 29ae bfbc d6a1 52bc e45a bcbc ba17 a5bc

body.block1.norm.running_mean f4 [64]
-0.3441385 -0.5652416 0.1732998 0.07527907 -0.7555164 -0.2450735 -0.14501545 0.003951179
-0.504381 0.09097109 0.724815 0.07194103 0.48226005 -0.16467783 -0.7010357 -0.13110489
0.04922116 0.005880832 0.7386464 0.054844704 0.055304788 0.014306053 -0.10220481 0.05983135
0.07366258 -0.013048725 -0.18709637 0.7619314 0.5400929 0.18045843 0.4330947 0.2932009
-0.21800531 -0.15956098 0.02797541 -0.2403382 0.0024407546 -0.5713892 -0.47489935 -0.40486673
-0.16288403 -0.41562766 0.15679356 0.11337477 0.5183602 0.4132207 -0.32793474 0.23353106
0.3835828 -0.07391958 0.23281543 -0.39852273 -0.16325139 0.22365153 -0.13633344 -0.12680717
-0.25721306 -0.17451823 -0.10854849 -0.19281596 -0.30937865 0.37992147 0.46574736 0.16282086
00000000: ec32 b0be acb3 10bf 8175 313e ea2b 9a3d
00000010: 8669 41bf 8cf4 7abe ee7e 14be e478 813b
00000020: 1d1f 01bf 0d4f ba3d 7a8d 393f d255 933d
00000030: caea f63e 4ea1 28be 1377 33bf 5c40 06be
00000040: 219c 493d ffb3 c03b ee17 3d3f d7a4 603d
00000050: 4687 623d ef63 6a3c c150 d1bd b811 753d
00000060: 68dc 963d 52ca 55bc 3196 3fbe f00d 433f
00000070: 8743 0a3f 18ca 383e 97be dd3e 6e1e 963e
00000080: c93c 5fbe f463 23be b02c e53c 381b 76be
00000090: 11f5 1f3b 9046 12bf 0226 f3be b14a cfbe
000000a0: 12cb 26be 26cd d4be 7e8e 203e 0831 e83d
000000b0: 41b3 043f aa91 d33e 10e7 a7be c422 6f3e
000000c0: f764 c43e 2663 97bd 2b67 6e3e 2c0b ccbe
000000d0: 5f2b 27be e804 653e fe9a 0bbe bdd9 01be
000000e0: 6eb1 83be e8b4 32be ac4e debd 8c71 45be
000000f0: e166 9ebe 1185 c23e 7076 ee3e 83ba 263e

body.block1.norm.running_var f4 [64]
0.32460332 0.12889247 0.18969946 0.15071537 0.39960214 0.092083305 0.103658356 0.1630509
0.106950596 0.15359929 0.23989369 0.11971225 0.19675206 0.08736653 0.4767646 0.2180086
0.22039858 0.13298176 0.35210243 0.21745422 0.17898983 0.116300985 0.28287002 0.20505163
0.1250443 0.18006578 0.15625592 0.20929085 0.4153133 0.0994452 0.29722828 0.2022346
0.17613727 0.28676295 0.18893941 0.12659916 0.07784374 0.16759016 0.12220842 0.19105963
0.23257646 0.18650319 0.19133307 0.10481883 0.15471077 0.10597296 0.26240885 0.15677665
0.36539668 0.27756247 0.37319723 0.2188506 0.1216459 0.26183826 0.093441114 0.25267673
0.11791004 0.17929682 0.098616265 0.15006155 0.083808035 0.16335985 0.16956484 0.22542138
00000000: 6832 a63e 63fc 033e 9340 423e 2155 1a3e
00000010: a798 cc3e 2c96 bc3d d54a d43d d1f6 263e
00000020: ea08 db3d 2249 1d3e b1a6 753e b22b f53d
00000030: 5f79 493e 39ed b23d 7d1a f43e a53d 5f3e
00000040: 2ab0 613e 5f2c 083e c546 b43e 52ac 5e3e
00000050: 1c49 373e 362f ee3d 57d4 903e 0ef9 513e
00000060: 9d0b 003e 2a63 383e 8d01 203e 5750 563e
00000070: f2a3 d43e eda9 cb3d 4e2e 983e 9616 4f3e
00000080: 545d 343e 98d2 923e 5579 413e 36a3 013e
00000090: 8a6c 9f3d c19c 2b3e 6848 fa3d 23a5 433e
000000a0: 8628 6e3e b1fa 3e3e d1ec 433e 41ab d63d
000000b0: 806c 1e3e 5a08 d93d 745a 863e 0f8a 203e
000000c0: 4615 bb3e ab1c 8e3e b513 bf3e 5f1a 603e
000000d0: 7c21 f93d aa0f 863e 0e5e bf3d d85e 813e
000000e0: d27a f13d 9699 373e 53f7 c93d bca9 193e
000000f0: 8ca3 ab3d ce47 273e 68a2 2d3e ddd4 663e

body.block2.conv.weight f4 [64, 64, 3, 3]
0.0057207854 -0.018834721 0.013731293 -0.008598327 0.02439527 -0.016109664 -0.01800939 -0.00267479
0.0010266235 0.018287582 0.0053116237 0.0020552974 0.002287436 0.009328849 0.045253847 -0.006819869
-0.02267203 0.005498191 -0.005150325 0.025244426 0.019707175 -0.00036933695 0.024069637 0.014769753
-0.03212196 0.016611146 -0.012203356 -0.0441182 -0.044120256 -0.0026845222 -0.03813267 -0.0015976852
-0.022327831 0.0069605736 0.011771444 0.0054454617 -0.006500468 0.018691406 0.008983752 -0.0075199446
0.0029648747 -0.036654837 -0.0073730648 0.003970739 0.010258151 0.034871273 0.008318207 -0.026740426
0.038393542 0.017842853 -0.051970575 0.007834337 -0.027573032 -0.035787906 -0.025277985 0.0099715
0.019370317 0.017044947 -0.032586373 0.03168619 -0.030535212 -0.0134482365 -0.00084226916 -0.023606084
-0.0020737906 -0.0038270215 0.0054232352 0.008456587 0.0163508 0.008302537 -0.03954809 -0.0013792403
0.006807038 -0.034229092 0.0024544315 -0.04200609 0.027919052 0.020010233 -0.014339041 0.007358621
-0.012356246 0.024689369 -0.013396848 -0.014543226 0.019639114 -0.00019638818 0.012275951 -0.007991502
-0.027083496 0.015231255 -0.013052478 0.029587056 -0.0028019426 -0.01479918 -0.0134244645 -0.053473573
-0.005197203 0.014108566 0.0031524247 0.0008705742 -0.0044015544 -0.0038881903 0.013779691 0.020261873
0.012693395 -0.0075546526 0.007583996 0.002208068 0.009360327 -0.020384455 0.008930198 0.007430194
0.01385528 -0.0070177587 0.027179746 0.0053695547 -0.00245793 0.024461959 0.020392967 -0.023761073
0.0018575871 0.00054501736 -0.021379797 0.010389954 0.046488747 0.011958583 -0.0018991508 -0.0111757945
-0.00537106 -0.0276285 -0.057779707 0.021603035 0.029194508 -0.0069945003 0.014001336 0.013321584
-0.008681383 0.009088575 -0.0044219303 -0.03892078 -0.029510187 -0.016703814 0.027082345 0.026132496
0.016933229 -0.0039040807 0.02270069 0.02582077 -0.024853133 0.026009116 -0.00035866583 0.015137702
-0.015855744 -0.0018103819 -0.038226787 0.014461864 0.018916454 -0.026884774 -0.022494026 -0.013830627
-0.012602997 -0.0004890258 0.019202571 -0.032506365 0.0005440622 -0.018319692 -0.009386753 0.0029428399
0.016970228 -0.044078846 -0.011266813 0.011519211 0.038220398 0.030340942 -0.02586511 -0.014955467
0.0061104842 0.007531384 -0.0110336775 -0.011050049 -0.017549677 -0.024022887 -0.018698387 -0.0011338909
0.02566554 0.0059202816 -0.0038856536 0.008016665 -0.005582628 0.004610559 0.021300897 0.02983871
-0.031306878 -0.027523244 -0.0050133667 -0.01438672 0.0026271734 0.034299925 -0.019008636 -0.003444545
0.0050805258 0.009401623 -0.039867137 0.00039008333 -0.033564318 0.031102965 0.010164418 0.016002126
-0.003420827 0.0115278065 -0.0125566805 -0.00014740351 0.016812867 0.024388831 -0.0059184297 0.030323125
-0.02211227 -0.009760063 -0.005516783 0.0072082 0.018892886 0.00082619605 0.018677246 0.023773378
-0.022446688 -0.01670173 -0.015936792 0.010179211 -0.017511489 -0.027359031 0.005183407 0.008636993
-0.039054107 0.014911456 -0.0049809585 -0.014132111 0.0031561689 -0.023801671 0.009505193 0.02146825
-0.03050458 0.03584254 0.024261534 -0.022967858 -0.0071132337 -0.015566663 -0.010794768 0.018195791
0.05113117 -0.0053909714 -0.015897993 0.010540499 -0.0031071797 0.008039973 0.00895882 -0.04750986
00000000: 6d75 bb3b 464b 9abc 38f9 603c ffdf 0cbc
00000010: 97d8 c73c 6af8 83bc 6e88 93bc 884b 2fbb
00000020: c58f 863a d7cf 953c 210d ae3b 2bb2 063b
00000030: cfe8 153b 07d8 183c 195c 393d 3579 dfbb
00000040: b1ba b9bc 2b2a b43b 0fc4 a8bb 66cd ce3c
00000050: f170 a13c 91a3 c1b9 b02d c53c d6fc 713c
00000060: 5192 03bd 1914 883c 96f0 47bc 49b5 34bd
00000070: 71b7 34bd cfee 2fbb 0131 1cbd 6b69 d1ba
00000080: dbe8 b6bc 8615 e43b 04dd 403c d86f b23b
00000090: e101 d5bb b81e 993c 9630 133c de69 f6bb
000000a0: 584e 423b 6223 16bd c099 f1bb f91c 823b
000000b0: ce11 283c 2ed5 0e3d 1749 083c bd0e dbbc
000000c0: 8c42 1d3d 2d2b 923c 19df 54bd 975b 003c
000000d0: d7e0 e1bc 5796 12bd c713 cfbc 815f 233c
000000e0: 80ae 9e3c d8a1 8b3c 4a79 05bd 61c9 013d
000000f0: fb24 fabc fe55 5cbc bacb 5cba 8c61 c1bc
00000100: 6fe8 07bb c4ce 7abb 65b5 b13b 7f8d 0a3c
00000110: 1df2 853c 5d07 083c 2efd 21bd a0c7 b4ba
00000120: 930d df3b ce33 0cbd 87da 203b 940e 2cbd
00000130: 7fb6 e43c 80ec a33c 4cee 6abc 9620 f13b
00000140: da71 4abc 5c41 ca3c 747e 5bbc b646 6ebc
00000150: 35e2 a03c 8ded 4db9 1221 493c caee 02bc
00000160: 35de ddbc 848c 793c 10da 55bc 8e60 f23c
00000170: cca0 37bb 4378 72bc 49f2 5bbc 1b07 5bbd
00000180: 4c4d aabb 9d27 673c e998 4e3b 3f37 643a
00000190: ea3a 90bb 02d1 7ebb 37c4 613c 3afc a53c
000001a0: f5f7 4f3c 058d f7bb 2b83 f83b 3cb5 103b
000001b0: 0f5c 193c 4dfd a6bc f74f 123c fc78 f33b
000001c0: 4201 633c 3af5 e5bb 0fa8 de3c 17f3 af3b
000001d0: 3915 21bb 7264 c83c 270f a73c 95a6 c2bc
000001e0: 487a f33a 7fdf 0e3a af24 afbc a03a 2a3c
000001f0: fc6a 3e3d efed 433c edec f8ba ae1a 37bc
00000200: b8ff afbb 2a55 e2bc 6aaa 6cbd d9f8 b03c
00000210: 5229 ef3c 1f32 e5bb dc65 653c c642 5a3c
00000220: 5c3c 0ebc 3fe8 143c d7e5 90bb 656b 1fbd
00000230: 59bf f1bc 70d6 88bc cbdb dd3c d113 d63c
00000240: 8eb7 8a3c 9bdb 7fbb ccf6 b93c 1486 d33c
00000250: cc98 cbbc 1211 d53c 500b bcb9 2004 783c
00000260: e8e3 81bc 564a edba b193 1cbd 74f1 6c3c
00000270: aef6 9a3c 753d dcbc 6445 b8bc db99 62bc
00000280: cd7c 4ebc f731 00ba b64e 9d3c 6525 05bd
00000290: 659f 0e3a 2e13 96bc e5ca 19bc a9dc 403b
000002a0: 2605 8b3c 058c 34bd 7098 38bc 13bb 3c3c
000002b0: fe8c 1c3d 918d f83c 11e3 d3bc c607 75bc
000002c0: 753a c83b d4c9 f63b 99c6 34bc 440b 35bc
000002d0: 57c4 8fbc a5cb c4bc 5c2d 99bc 119f 94ba
000002e0: 8a40 d23c ecfe c13b 73a6 7ebb 5458 033c
000002f0: 7aee b6bb 2c14 973b 387f ae3c 4f70 f43c
00000300: a43b 00bd 6d78 e1bc 2b47 a4bb 47b6 6bbc
00000310: a82c 2c3b 147e 0c3d 00b8 9bbc e0bd 61bb
00000320: 8a7a a63b 4409 1a3c b94b 23bd 1984 cc39
00000330: bd7a 09bd a5cb fe3c a988 263c e416 833c
00000340: f42f 60bb 20df 3c3c 89ba 4dbc 5490 1ab9
00000350: 23bb 893c 16cb c73c 63ef c1bb 3468 f83c
00000360: cb24 b5bc ace8 1fbc 21c6 b4bb c432 ec3b
00000370: 41c5 9a3c 1495 583a 0601 993c 63c0 c23c
00000380: 1ee2 b7bc 11d2 88bc e08d 82bc b5c6 263c
00000390: 4174 8fbc 0c20 e0bc 92d9 a93b 2d82 0d3c
000003a0: 33f7 1fbd 2e4f 743c 4f37 a3bb 5f8a 67bc
000003b0: bad7 4e3b b9fb c2bc abbb 1b3c 2fde af3c
000003c0: bee4 f9bc a1cf 123d 20c0 c63c 1727 bcbc
000003d0: 2116 e9bb 510b 7fbc 8adc 30bc 570f 953c
000003e0: eb6e 513d bfa6 b0bb 823c 82bc 0fb2 2c3c
000003f0: d3a1 4bbb 17ba 033c 04c8 123c b399 42bd

body.block2.conv.bias f4 [64]
-0.003356326 -0.018792657 0.02690935 0.012514814 0.020215154 -0.04483426 0.022562405 -0.038504027
0.023378208 -0.03925284 0.042125516 -0.024268067 -0.0005206547 0.021213524 -0.025924029 -0.025231704
-0.00018187902 -0.026440002 0.037783746 -0.029777706 -0.0023833108 0.03710232 -0.033194695 0.009339946
0.026074983 0.012628392 -0.013985729 0.010053069 0.0337287 0.007707191 0.02109592 -0.0042754025
-0.024870837 -0.0070124245 -0.013842797 0.027265778 -0.021710644 0.03893945 0.0062173675 -0.033547323
0.031519804 0.030723276 0.022459693 0.026809808 -0.001850003 0.015679538 0.01689767 -0.03508289
-0.00951736 0.016708635 -0.04006901 -0.02415937 -0.01475975 0.0007864711 0.038343653 -0.019925084
0.0054312237 -0.009087856 -0.01457116 -0.001439314 -0.036729965 0.013778841 -0.015517982 0.003981991
00000000: cef5 5bbb 0ff3 99bc ff70 dc3c ef0a 4d3c
00000010: 409a a53c 21a4 37bd cbd4 b83c 66b6 1dbd
00000020: a883 bf3c 96c7 20bd ce8b 2c3d d3cd c6bc
00000030: 8c7c 08ba fcc7 ad3c a15e d4bc b8b2 cebc
00000040: c7b6 3eb9 b498 d8bc 21c3 1a3d 60f0 f3bc
00000050: 5231 1cbb 9af8 173d 29f7 07bd 9306 193c
00000060: 349b d53c 51e7 4e3c 6624 65bc a1b5 243c
00000070: 1b27 0a3d 9b8c fc3b 5ad1 ac3c ad18 8cbb
00000080: edbd cbbc 7bc8 e5bb e6cc 62bc 7b5c df3c
00000090: 85da b1bc f97e 1f3d 0fbb cb3b eb68 09bd
000000a0: e91a 013d 61af fb3c 64fd b73c 3ea0 db3c
000000b0: cd7b f2ba 6072 803c fc6c 8a3c 14b3 0fbd
000000c0: b3ee 1bbc 8ce0 883c 671f 24bd dfe9 c5bc
000000d0: e1d2 71bc 2f2b 4e3a 3c0e 1d3d ee39 a3bc
000000e0: 68f8 b13b 3be5 14bc e0bb 6ebc 5da7 bcba
000000f0: 2972 16bd a6c0 613c 223f 7ebc 5d7b 823b

body.block2.norm.weight f4 [64]
1.0372807 0.9859087 1.0070225 1.0313197 1.014903 1.0300103 0.9783927 1.0169744
0.96566325 0.9989981 1.0179774 1.0119567 0.98538697 1.004239 1.0152249 0.98794276
0.99599624 0.9914056 0.9848178 1.0017902 0.9692244 0.95687675 0.9671413 1.018036
1.0123354 1.010228 1.0108944 1.0323099 1.0012641 1.0263404 0.94645476 0.9723531
1.0407284 0.9986866 1.017524 1.0229523 1.0104733 0.98268443 1.0014848 0.9311861
1.0035241 0.9742169 1.0116186 1.0223674 1.0091565 1.008332 1.0163138 1.0150831
0.9662112 0.99360794 0.99189013 1.0293996 1.0020485 1.0461508 0.97534734 1.0143226
1.0082184 1.0101287 0.99681437 1.0032403 1.0570917 0.99317205 0.9626833 0.93177015
00000000: 9dc5 843f 8364 7c3f 1de6 803f 4902 843f
00000010: 57e8 813f 61d7 833f f277 7a3f 382c 823f
00000020: b535 773f 57be 7f3f 154d 823f cc87 813f
00000030: 5242 7c3f e78a 803f e4f2 813f d1e9 7c3f
00000040: 9cf9 7e3f c2cc 7d3f 051d 7c3f a93a 803f
00000050: 171f 783f e0f5 743f 9296 773f 014f 823f
00000060: 3594 813f 274f 813f fd64 813f bb22 843f
00000070: 6c29 803f 1f5f 833f dc4a 723f 22ec 783f
00000080: 9736 853f eda9 7f3f 3a3e 823f 1af0 823f
00000090: 3057 813f 3591 7b3f a730 803f 3662 6e3f
000000a0: 7a73 803f 4766 793f b87c 813f efdc 823f
000000b0: 0a2c 813f 0611 813f 9216 823f 3eee 813f
000000c0: 9e59 773f 175d 7e3f 83ec 7d3f 5ec3 833f
000000d0: 2043 803f 45e8 853f 5db0 793f 53d5 813f
000000e0: 4d0d 813f e64b 813f 3a2f 7f3f 2e6a 803f
000000f0: c84e 873f 8640 7e3f 6a72 763f 7d88 6e3f

body.block2.norm.bias f4 [64]
0.004523428 -0.014179997 -0.020444945 -0.016724868 0.012177664 -0.0063750674 -0.025044931 -0.02560517
-0.04346145 -0.0048180963 -0.0068504843 -0.022073248 -0.021706862 -0.023205314 -0.024591953 0.0046934113
0.0075536594 -0.008377773 0.017719189 -0.0027462929 -0.007848191 -0.0031441718 -0.026025767 -0.028595028
-0.010766259 -0.018301709 -0.01525386 -0.011033555 -0.051691856 0.0038639498 -0.008299273 -0.013716288
-0.029822191 0.010239805 -0.02400963 -0.000119608114 -0.018604655 -0.015508306 -0.023543926 -0.019610465
-0.019939829 -0.029802164 -0.022426441 -0.06793376 -0.021396281 0.0007395169 -0.027666422 -0.009840387
0.010954367 -0.045285594 -0.015896063 -0.04226223 -0.028369214 -0.021174151 0.0016476287 -0.012565123
-0.012516291 -0.01922673 -0.019292833 -0.021603072 -0.015002697 -0.037534405 -0.0081340615 -0.03127649
00000000: 4439 943b 3853 68bc 287c a7bc 9702 89bc
00000010: d384 473c f1e5 d0bb 072b cdbc efc1 d1bc
00000020: a204 32bd 1fe1 9dbb 077a e0bb f5d2 b4bc
00000030: 97d2 b1bc 1219 bebc 1075 c9bc 30cb 993b
00000040: b084 f73b ed42 09bc d527 913c 26fb 33bb
00000050: b395 00bc 730e 4ebb fd33 d5bc 1f40 eabc
00000060: f764 30bc 77ed 95bc 53eb 79bc 15c6 34bc
00000070: d7ba 53bd 523a 7d3b adf9 07bc 48ba 60bc
00000080: ab4d f4bc dbc4 273c d8af c4bc 1ed6 fab8
00000090: ca68 98bc 8d16 7ebc 31df c0bc 20a6 a0bc
000000a0: da58 a3bc ab23 f4bc a8b7 b7bc db20 8bbd
000000b0: 4147 afbc 24dc 413a b1a4 e2bc 9339 21bc
000000c0: f279 333c 637d 39bd 7638 82bc 291b 2dbd
000000d0: 8e66 e8bc 6a75 adbc 3ff5 d73a f2dd 4dbc
000000e0: 2111 4dbc 6081 9dbc 010c 9ebc edf8 b0bc
000000f0: dfcd 75bc adbd 19bd ba44 05bc c71b 00bd

body.block2.norm.running_mean f4 [64]
0.026820334 -0.019245462 0.31352243 -0.26189443 0.48389587 -0.5263669 -0.113604605 -0.113495946
-0.0037429838 0.3331264 -0.083969526 -0.079907775 -0.26471636 -0.2879271 0.1325527 -0.12598264
0.04337293 -0.17926157 0.015845742 -0.3012216 -0.38649493 -0.29936633 -0.036018446 -0.066147745
-0.32230476 -0.26442602 -0.110771716 -0.38288665 -0.18093626 -0.063248895 -0.06913205 -0.09927609
0.04232517 -0.22063377 -0.20581692 0.094468795 -0.1539523 0.024664043 0.2873466 0.2954802
-0.3950076 -0.09251489 0.0938406 0.17144038 -0.040909033 -0.11911243 0.1491763 -0.42459998
0.43302855 0.34601244 -0.18195052 -0.0047693043 -0.009899654 0.042033937 -0.287951 -0.27992198
0.08692404 0.0689242 0.22422266 -0.5043003 -0.35856152 -0.04886555 -0.02303786 -0.06104933
00000000: 51b6 db3c a9a8 9dbc 0386 a03e 0717 86be
00000010: 33c1 f73e fbbf 06bf 88a9 e8bd 9070 e8bd
00000020: d94c 75bb 8b8f aa3e 37f8 abbd b0a6 a3bd
00000030: e788 87be 2e6b 93be e5bb 073e 9801 01be
00000040: d0a7 313d 5890 37be eece 813c b839 9abe
00000050: aae2 c5be 8b46 99be 1488 13bd 7878 87bd
00000060: 2105 a5be d962 87be 48dc e2bd b809 c4be
00000070: 5b47 39be a388 81bd 1b95 8dbd 4351 cbbd
00000080: 285d 2d3d d2ed 61be acc1 52be db78 c13d
00000090: aca5 1dbe 3f0c ca3c 181f 933e 2e49 973e
000000a0: 703e cabe 7278 bdbd 802f c03d 118e 2f3e
000000b0: 3b90 27bd 38f1 f3bd acc1 183e 2b65 d9be
000000c0: ebb5 dd3e 8b28 b13e 3d51 3abe d347 9cbb
000000d0: 2932 22bc c72b 2c3d 506e 93be ef51 8fbe
000000e0: 3b05 b23d 2228 8d3d a09a 653e d319 01bf
000000f0: 6095 b7be 3e27 48bd e5b9 bcbc dd0e 7abd

body.block2.norm.running_var f4 [64]
0.16527636 0.19856082 0.13287121 0.14863065 0.32480112 0.21193486 0.09482342 0.20880277
0.109885834 0.11314989 0.36324733 0.23361786 0.11001117 0.18768215 0.25498393 0.1335924
0.10489457 0.23039097 0.42743453 0.19379799 0.09872276 0.17776364 0.19137578 0.14632653
0.12354682 0.22433412 0.29700157 0.28010422 0.093186185 0.21731035 0.17628032 0.18090661
0.1445446 0.22080177 0.07445848 0.23247543 0.12543161 0.095829554 0.1587885 0.15483986
0.22328612 0.22085415 0.24626912 0.1036833 0.15773584 0.10657632 0.3592825 0.21187052
0.16933364 0.13337594 0.14047667 0.20052801 0.34349763 0.38835838 0.3060012 0.13481338
0.15934092 0.15659578 0.26382357 0.16393001 0.16452903 0.19386311 0.062564336 0.14172366
00000000: 353e 293e 8753 4b3e 640f 083e a232 183e
00000010: 554c a63e 7405 593e c832 c23d 65d0 553e
00000020: d30b e13d 21bb e73d 8efb b93e 8539 6f3e
00000030: 894d e13d c02f 403e 418d 823e 72cc 083e
00000040: f7d2 d63d 9ceb 6b3e b3d8 da3e fb72 463e
00000050: 292f ca3d ac07 363e 03f8 433e 9fd6 153e
00000060: 1d06 fd3d d8b7 653e 9710 983e d269 8f3e
00000070: 66d8 be3d 9b86 5e3e d482 343e 953f 393e
00000080: 8003 143e dc19 623e b07d 983d 0a0e 6e3e
00000090: 2571 003e 4942 c43d 7499 223e 578e 1e3e
000000a0: 1ea5 643e 9727 623e f92d 7c3e e957 d43d
000000b0: 8185 213e b044 da3d e0f3 b73e 96f4 583e
000000c0: cc65 2d3e b493 083e 1ed9 0f3e 3757 4d3e
000000d0: ecde af3e e9d6 c63e 30ac 9c3e 850c 0a3e
000000e0: 442a 233e a55a 203e e213 873e 45dd 273e
000000f0: 4c7a 283e 0d84 463e bb21 803d 0220 113e

body.block3.conv.weight f4 [64, 64, 3, 3]
0.013928353 0.0266783 -0.008565323 -0.013778158 0.036064684 0.01656146 0.058573835 0.023043515
0.023692038 0.015488365 -0.042323187 -0.0159231 -0.010848648 -0.078296095 -0.007905059 0.018607916
0.0110520655 0.015323137 0.012660486 -0.007149569 -0.021386383 -0.01084203 0.024462005 -0.011899934
0.018856581 -0.012290742 0.021497313 -0.015310433 -0.039935645 -0.04870165 -0.03149184 0.0018196537
-0.00019625695 -0.056845713 -0.05057318 -0.014028029 0.014815306 -0.01900361 -0.013341311 -0.0079934085
0.035174787 0.014430082 -0.02421505 -0.013920834 -0.0015439314 0.010950684 -0.004150143 0.005904923
0.017535971 -0.006328992 -0.005874214 -0.011382374 0.0056088394 0.034567717 0.017861567 0.024747012
-0.01692289 0.0051742033 0.025577197 0.0014479351 0.0366814 -0.0150810685 0.037623268 0.016177757
-0.02228736 0.006701651 -0.032714088 0.008083281 0.035306264 0.013895245 0.01252777 -0.021976674
0.01619272 0.00271998 -0.0075525334 0.0045174854 -0.0032638991 0.006535381 0.028453002 0.0010490646
0.01017027 -0.006722915 0.05024013 0.01366026 0.027870422 0.025164222 0.015628668 0.024297804
0.014551601 0.03532584 -0.048755374 -0.013299702 -0.02653155 -0.02155929 -0.023790061 -0.024519984
-0.010381839 -0.039476287 -0.042336807 -0.028692462 -0.01560344 -0.008386118 -0.009692571 -0.0040984927
0.01707719 -0.0017116587 0.00872053 0.020107599 -0.0027676572 -0.013378061 0.015278271 0.028235655
0.01058999 0.011730945 -0.03506171 -0.027454583 0.0050492818 0.0037029353 0.015749335 0.016830236
-0.019321693 -0.016895223 -0.007049138 -0.002386358 0.02127198 0.0135127 0.024694234 0.0032622237
-0.031127851 -0.0044821138 -0.014138086 -0.009892055 -0.028683044 0.010806558 0.0159699 -0.015621888
-0.00021787625 -0.023524018 0.025818458 -0.011141164 0.01268469 -0.05749477 -0.010335992 0.016905086
0.029158646 0.0006775344 -0.0017552981 0.0245178 0.014691503 0.020813325 -0.004165174 -0.0120718535
-0.019727137 -0.00934068 0.012212325 0.006629823 0.0011618463 0.007348478 -0.022464177 -0.039621532
-0.04680439 -0.014491533 -0.014552511 0.025599035 0.04408789 -0.035336073 -0.0010603286 0.0091344025
-0.022006847 -0.0027770915 0.0042164805 0.0077211433 0.044514142 -0.016378375 -0.0127334 0.0077345986
0.021584608 -0.00316866 0.007346126 0.013461598 -0.025113273 -0.030651808 0.021009957 0.04069249
-0.02163951 0.0020503101 -0.0075579034 0.009199717 0.030436436 0.023860605 -0.014171768 0.016702807
0.031117486 -0.011538133 -0.013266828 -0.015335598 -0.01660289 0.036994334 -0.030349614 0.041129407
0.029807199 -0.019878628 0.0005415119 -0.01625511 0.02209296 -0.00072294974 0.006355262 0.006259629
-0.0028931259 0.012724788 0.024126468 0.002585662 -0.00042108435 0.029491924 0.05085496 -0.008117088
-0.017483188 0.023959097 -0.033170875 -0.012699079 -0.009905898 -0.012636047 -0.023790868 0.027363777
0.024757734 -0.010229545 -0.04205807 -0.0027227 -0.016044693 0.012949791 0.016244449 -0.017553844
0.025955899 0.026321864 -0.030698571 -0.008192962 0.014660468 0.05411983 0.013577226 -0.035683703
0.0002942058 -0.00039897158 0.005708999 -0.018464588 -0.016491923 0.03515662 0.000770402 -0.022816136
0.03560737 0.01931804 -0.0010915897 0.0023217888 0.029003894 -0.0046836557 -0.022078933 -0.02283072
00000000: bf33 643c 738c da3c 9255 0cbc c9bd 61bc
00000010: 90b8 133d e6ab 873c 1eeb 6f3d c1c5 bc3c
00000020: ce15 c23c e9c2 7d3c 145b 2dbd 2971 82bc
00000030: 87be 31bc b459 a0bd 3884 01bc a16f 983c
00000040: b913 353c e50d 7b3c ed6d 4f3c ef46 eabb
00000050: 7f32 afbc c5a2 31bc 8b64 c83c f1f7 42bc
00000060: 1e79 9a3c 1c5f 49bc 221b b03c 9cd8 7abc
00000070: 8f93 23bd 627b 47bd 96fd 00bd 7281 ee3a
00000080: 53ca 4db9 0dd7 68bd d325 4fbd d1d5 65bc
00000090: e6bb 723c 75ad 9bbc 8495 5abc c9f6 02bc
000000a0: 7013 103d 276c 6c3c a45e c6bc 3614 64bc
000000b0: be5d caba 7f6a 333c ecfd 87bb 167e c13b
000000c0: 99a7 8f3c 6f63 cfbb 7b7c c0bb 237d 3abc
000000d0: 5bca b73b e196 0d3d 6c52 923c 3fba ca3c
000000e0: dfa1 8abc 5d8c a93b 4587 d13c a4c8 bd3a
000000f0: 3c3f 163d 9616 77bc db1a 1a3d 3787 843c
00000100: fb93 b6bc 8699 db3b 35ff 05bd bd6f 043c
00000110: 4d9d 103d e2a8 633c 4741 4d3c 6d08 b4bc
00000120: 98a6 843c b141 323b 3e7b f7bb 6a07 943b
00000130: 24e7 55bb c026 d63b 4516 e93c c480 893a
00000140: 34a1 263c e64b dcbb 98c8 4d3d 48cf 5f3c
00000150: 8350 e43c 3325 ce3c b107 803c 300c c73c
00000160: d769 6e3c d4b1 103d b7b3 47bd fee6 59bc
00000170: b158 d9bc 1c9d b0bc 60e3 c2bc 22de c8bc
00000180: 9718 2abc e3b1 21bd 5c69 2dbd 740c ebbc
00000190: 92a5 7fbc ee65 09bc 97cd 1ebc a64c 86bb
000001a0: 77e5 8b3c bc59 e0ba 8ee0 0e3c b1b8 a43c
000001b0: 9561 35bb a82f 5bbc b751 7a3c 764e e73c
000001c0: a381 2d3c 2633 403c de9c 0fbd 6fe8 e0bc
000001d0: 7274 a53b f2ac 723b c004 813c 90df 893c
000001e0: 8748 9ebc da67 8abc 75fc e6bb 7264 1cbb
000001f0: 9342 ae3c 5f64 5d3c 904b ca3c 08cb 553b
00000200: d6ff febc b2de 92bb 6ea3 67bc 4912 22bc
00000210: b4f8 eabc fd0d 313c 4fd3 823c f3f2 7fbc
00000220: b675 64b9 71b5 c0bc 3b81 d33c 6e89 36bc
00000230: 72d3 4f3c a37f 6bbd 4b58 29bc 897c 8a3c
00000240: 1dde ee3c 909c 313a 0812 e6ba 8ed9 c83c
00000250: a1b4 703c b580 aa3c 037c 88bb 06c9 45bc
00000260: ce9a a1bc a709 19bc 3416 483c fc3e d93b
00000270: 1849 983a 80cb f03b cb06 b8bc 304a 22bd
00000280: f6b5 3fbd e56d 6dbc a86d 6ebc 11b5 d13c
00000290: 8195 343d 8fbc 10bd b9fa 8aba 76a8 153c
000002a0: b447 b4bc ddff 35bb 672a 8a3b a501 fd3b
000002b0: 7654 363d f12b 86bc c09f 50bc 8472 fd3b
000002c0: 34d2 b03c 4ba9 4fbb c5b7 f03b 098e 5c3c
000002d0: 5aba cdbc 8019 fbbc 131d ac3c 2bad 263d
000002e0: 5745 b1bc 7f5e 063b 4aa8 f7bb 69ba 163c
000002f0: d555 f93c 5177 c33c b430 68bc 53d4 883c
00000300: 19ea fe3c 700a 3dbc 1c5d 59bc 2942 7bbc
00000310: c902 88bc 5f87 173d c19f f8bc 4f77 283d
00000320: 3a2e f43c 81d8 a2bc 40f4 0d3a 7029 85bc
00000330: 4cfc b43c 5684 3dba cd3f d03b 931d cd3b
00000340: 999a 3dbb a17b 503c dfa4 c53c 3674 293b
00000350: fcc4 dcb9 0c99 f13c 4a4d 503d 89fd 04bc
00000360: e738 8fbc de45 c43c 2fde 07bd cc0f 50bc
00000370: 594c 22bc 6c07 4fbc 11e5 c2bc 002a e03c
00000380: bbd0 ca3c d299 27bc 1545 2cbd 536f 32bb
00000390: 2970 83bc 5c2b 543c 1413 853c 14cd 8fbc
000003a0: 77a1 d43c f3a0 d73c 927b fbbc c63b 06bc
000003b0: 7632 703c c1ac 5d3d 0373 5e3c 1329 12bd
000003c0: a23f 9a39 0f2d d1b9 8e12 bb3b 0c43 97bc
000003d0: 121a 87bc 6300 103d cef4 493a e8e8 babc
000003e0: 09d9 113d de40 9e3c ac13 8fba 2729 183b
000003f0: 9399 ed3c 5a79 99bb e1de b4bc 7d07 bbbc
