code/Output/birds/pdl_e8000_1px_lr0.0002a10.0_up-conv5_1_W[1.0, 0.75, 0.2, 0.2, 0.2](1)/0/netG.pth (torch, 130371 bytes, 26 tensors)

head.conv.weight f4 [32, 3, 3, 3]
00000000: 1d82 c03b 8e38 243d a552 26bc 643d 7a3c
00000010: 44ab cebc ce8a d13b 5093 f2bc 8c4b 1fbd
00000020: 8cf4 ee3c 6f9d c0bc 0d00 15bd d855 51bc
00000030: a040 69bb 6b44 8d3c b72b eebc 2f30 a83c
00000040: 56db 16bd b098 043d 13e4 923c 7e33 79bb
00000050: 9e6e bd3c c73a 45bc 98fc 053c 8100 bb3c
00000060: ca96 bdbc ef58 3bbd 6e94 863d f2c8 d4bc
00000070: 2cd6 d1ba 0665 c5bc c741 35bd bad0 f8bc
00000080: 92be 8e3c c0f5 2d3d 0992 9c3b 1f4e 033c
00000090: 9fdb 33bd bafb ea3b 5faf 083d df0d b0bc
000000a0: 539a a43c 4d5c 113b 8845 813c 8ed9 33bc
000000b0: 3732 c93b 0fd5 c3bc 2ae7 dabc 0f45 c23a
000000c0: e7ef 73bc 88f0 17bc 2b74 8abc 4ced b33c
000000d0: f3f3 9fbb d4a5 91bb f878 b73c 4d5c cfbc
000000e0: e007 d6bc 9499 35bc ce78 fb3a ee1a d5bc
000000f0: 5d47 ba3c 7efe 82bc 2380 3a3b 9e4d d0bb
00000100: ca79 c23c 16b4 28bd d227 533c 09fb 05bd
00000110: 789f bbbc 09e2 053c b013 173b 189c 453b
00000120: 135e 1a3c dd6f 413d 2ae6 98bc ac09 093d
00000130: 3967 f7bc 4e3a 723b ef63 38bc c327 7e3c
00000140: 9ef7 60bc 8058 e8bc b6cc d3bc 61bb b3bc
00000150: 8de0 19bc e8e4 24bc ecfc cd3b 9ae2 973c
00000160: 59bf 833c 9960 ccbc ea60 a1bc d1e0 bfbb
00000170: 0847 26bd c088 5dbc a072 55b9 98ec da3b
00000180: c801 b13c ec7b 2d3c 9500 b63c a486 e4bc
00000190: d810 36bd fb54 3fbc 2478 dd3c 4136 c23c
000001a0: 2630 563b cfa8 85bc 4eac 14bc 391b e23b
000001b0: e9ad bdbb bfff b838 0bbf 5bbc 91c6 37bd
000001c0: d005 2c3c 3947 3fbc 7d00 04bc 7550 783c
000001d0: ef4d 8abd cb45 b73b 5559 5b3c 9fe3 e73b
000001e0: a000 a53c 1758 bfbb 0807 42bc 0855 61bc
000001f0: 201d 80bb 42d7 aebd 4e7a 9539 1cdf 4fbc
00000200: 4795 c73b 3ea1 ca3c 3381 85bb 9066 c33c
00000210: e527 943c 83b4 5fbc 94e3 98bd 9e63 de3c
00000220: 39cd 763d f0e7 20ba 0124 173d 3757 c7bc
00000230: ee76 9f3c 82f6 1d3c b9a6 8c3c 059f 1ebd
00000240: 8aff a2bc 2523 5a3d a001 223c 339f 843c
00000250: 128d 08bd 1c27 bcbc 5182 9e3c 5edc 3e3c
00000260: 11f9 2fbc 7a3b 133d c69b 0c3d 0849 563b
00000270: b42f 853c 1b69 35bd 7689 083c e966 34bc
00000280: 5919 a6bc 9205 f63a d501 a63b deb4 793b
00000290: e133 cc3c 712f f33b 3969 7a3b 7d92 d83c
000002a0: 6ac2 74bd ef76 66bc 27fc 9bbc dfb6 4bba
000002b0: 1c0f 06bc 531d b0bc 59a9 3bbb bed5 e63b
000002c0: 0fe7 afbc 1570 82bd 1def 38bd 692a 32bd
000002d0: 7692 88bb 68d6 833b 0f69 62bb e927 46bb
000002e0: c3ea 31bc a0a1 c1bb b87d d8bc 094d 0dbb
000002f0: 63e4 dbbc a726 bc3a d88b dabb e08f 13bd
00000300: 593e 4f3c c20e 8b3b ce21 ae3c 14de 9bbc
00000310: ccc4 c03b e054 d5bc 8017 423c c9be 573d
00000320: 52d8 4ebb 391a bb3c e748 c43c e2cd e13c
00000330: 30d0 cebb 7d6f fb3b f922 dcbc 3d5d 4c3c
00000340: 9d94 c73c 2fea 18b9 69ad 4f3b ecc6 ce3c
00000350: cfe0 aa3a f3c4 33ba 3755 383d 241c 97bc
00000360: bb36 9f3c 5686 c33b 0948 67bd 552e aeba
00000370: 5b61 22bd 5ee1 a43b 4937 d33b 1347 163d
00000380: 968b 923c f162 143d d70e 89bc de2c dabc
00000390: 566a 86ba 2041 49bd fbfc 5c3c 6c98 373c
000003a0: da12 02bc 1996 99bc 4633 643c 22cf ba3c
000003b0: 8bf6 4f3c b51f cf3b a318 42bc 8750 49bb
000003c0: ec59 d1bc 713c 89bc a0bf e23c 6e35 f73b
000003d0: 5424 e5bc ef4a 713c f44e 4ebc 8543 023b
000003e0: 1f04 923b 74d2 4fbc 6c65 0cbc 3ebc a63a
000003f0: bdf6 3a3b 5497 10bd 2869 f23c 23e3 ddbc
0.0058748857 0.040092997 -0.01015154 0.015273426 -0.02522815 0.0063947206 -0.02961126 -0.038890406
0.029169343 -0.02351257 -0.036377 -0.012776814 -0.0035591498 0.017244538 -0.02907358 0.020530788
-0.03683027 0.032372177 0.01793102 -0.0038025077 0.023124035 -0.012037939 0.008177899 0.022827389
-0.02314319 -0.04573911 0.065712795 -0.025974724 -0.0016009263 -0.024096023 -0.044252183 -0.030372966
0.017424855 0.042470694 0.004778151 0.008014231 -0.04391062 0.0071711214 0.033370372 -0.02149099
0.020093119 0.002218026 0.015780225 -0.010977162 0.0061400193 -0.023905305 -0.026721556 0.0014821606
-0.01488874 -0.009273656 -0.016901096 0.021963738 -0.004881376 -0.004444817 0.02239655 -0.025312567
-0.026126802 -0.011083979 0.0019185783 -0.026013818 0.022739107 -0.015990492 0.0028457723 -0.006356909
0.023739714 -0.04118737 0.012887912 -0.03271011 -0.022903189 0.008171567 0.0023052506 0.0030152854
0.009421843 0.04722582 -0.018664438 0.03345649 -0.030200588 0.0036961022 -0.011254295 0.01551241
-0.013730912 -0.028362513 -0.02585445 -0.021939935 -0.009391916 -0.010064341 0.006286254 0.01854067
0.016082453 -0.024948405 -0.019699533 -0.0058556576 -0.040595084 -0.013521373 -0.00020355964 0.006681036
0.021607295 0.010588627 0.022217074 -0.027896233 -0.044449657 -0.011677976 0.027034827 0.02370751
0.0032682507 -0.016315846 -0.009074284 0.006900218 -0.005788554 8.82144e-05 -0.013412247 -0.044867102
0.010499433 -0.011674696 -0.008056757 0.015155901 -0.06753146 0.0055930368 0.013387998 0.007076695
0.0201419 -0.0058393585 -0.011842497 -0.013753183 -0.003909722 -0.08537151 0.0002851062 -0.012687471
0.0060907933 0.02473509 -0.0040742396 0.023852617 0.01808543 -0.013653877 -0.07465282 0.02714711
0.06025431 -0.0006138077 0.03689957 -0.02433358 0.01946589 0.009641292 0.017169343 -0.03872587
-0.019897241 0.053256173 0.009888083 0.016189193 -0.03333766 -0.022967868 0.01934925 0.011649219
-0.010740534 0.035945393 0.034328245 0.0032697339 0.016258098 -0.04428969 0.0083335545 -0.011010864
-0.020275759 0.0018769971 0.0050661364 0.003810219 0.024927082 0.007421427 0.003820969 0.026437039
-0.05975572 -0.014066442 -0.019041134 -0.00077710854 -0.008182313 -0.021498358 -0.0028634875 0.007044523
-0.021472482 -0.06369034 -0.04514991 -0.043497477 -0.00416785 0.004023362 -0.0034547483 -0.003023619
-0.010859194 -0.00590916 -0.026427135 -0.002156081 -0.026842302 0.0014354781 -0.0066695027 -0.03602588
0.012649142 0.0042437026 0.021256354 -0.019026794 0.005882835 -0.026041448 0.011846423 0.05267218
-0.0031562042 0.022839652 0.023960544 0.027563993 -0.006311439 0.0076732025 -0.026872145 0.012473402
0.024362857 -0.0001458309 0.0031689054 0.025241338 0.0013036969 -0.0006857656 0.045003142 -0.018446036
0.019435277 0.005966942 -0.056465182 -0.0013288955 -0.039643627 0.0050317487 0.0064457995 0.036688875
0.017888825 0.03622717 -0.016730709 -0.026632722 -0.0010255079 -0.049134374 0.01348805 0.011205774
-0.007939065 -0.01874833 0.01392824 0.022803847 0.012693058 0.0063209184 -0.011846694 -0.0030718164
-0.025555573 -0.016752454 0.027679265 0.007544211 -0.027971424 0.014727338 -0.012592066 0.001987667
0.0044560577 -0.012684453 -0.008569103 0.0012720895 0.0028528415 -0.035300568 0.029591158 -0.027085846

head.conv.bias f4 [32]
00000000: 3980 233e 1d08 9a3d f79d 463e 694e efbd
00000010: 83b9 36bd fbad 15be 59b6 0f3d 5af3 ad3d
00000020: 8b84 70bd 20be 6cbd 9d72 2f3e 7e21 8a3d
00000030: a10d a83d 39db 9a3d c53b 023d d25b 13be
00000040: 7ea3 d73d a62d 00bd 489e d13d 7920 423d
00000050: 3271 563e 1075 983d 6acf eb3c fcce 713d
00000060: f2e2 853c cdf1 c23d 68db 96bd d262 82bb
00000070: 205c 443b 5b7f 413e a1de 743d 69dd fc3c
0.15966882 0.07521079 0.19396196 -0.116848774 -0.04461051 -0.1461715 0.03508601 0.08493681
-0.058720153 -0.057798505 0.17133565 0.067446694 0.082057245 0.07561345 0.031795282 -0.14390495
0.105292305 -0.031293534 0.10235268 0.04739425 0.20941618 0.07444203 0.028785426 0.059035286
0.016343568 0.09518776 -0.07366067 -0.0039790655 0.0029962137 0.18896239 0.059782628 0.030867295

head.norm.weight f4 [32]
00000000: 1f12 833f a232 7c3f 1f09 7a3f fc3c 7a3f
00000010: fe95 843f 940d 703f fdfe 813f c676 783f
00000020: c2b7 7d3f 4a02 7b3f 9a8a 803f b103 7c3f
00000030: 2497 793f 009d 713f be76 793f 257c 7e3f
00000040: c921 783f e023 853f c702 7a3f 166f 893f
00000050: cb45 7c3f 6d9c 7c3f 3761 7c3f be87 813f
00000060: 5158 7f3f 65f3 7b3f 3aa2 773f fa81 7c3f
00000070: 628d 803f 626c 863f b8a4 733f e04d 763f
1.0239905 0.9851476 0.9767017 0.97749305 1.0358274 0.9377072 1.0155941 0.97056234
0.9910852 0.9805037 1.0042298 0.9844313 0.9749625 0.9438019 0.9744681 0.9940818
0.9692655 1.0401573 0.9766049 1.0737026 0.98543996 0.98676187 0.9858584 1.011955
0.99744135 0.98418266 0.96731913 0.9863583 1.0043147 1.0501826 0.95173216 0.9621258

head.norm.bias f4 [32]
00000000: fdae 98bb 9206 8e3c 4582 8dbd 1f09 47bd
00000010: 6fe0 21bb 3ff1 33bd 6fb7 213c b304 09bd
00000020: fb00 c63c 5e72 8abb 9f24 dfbb 5c23 08be
00000030: d402 f9bc cee2 10bd 77af fabb 5d4b 26bd
00000040: 5435 1fbd c36f d2bb c643 76bd 8ca7 1dbc
00000050: 1fbe a7bc 966a 0dbd eb5c 8dbc 12fc a3bc
00000060: a28a bebd 2ad8 d3bd a9b4 a3bb d3d8 533b
00000070: 505c 91ba cac7 a1bd d0c2 98bc 3d2a 893b
-0.004659532 0.017337117 -0.069096126 -0.048592683 -0.0024700423 -0.043931242 0.009870394 -0.033451747
0.02417039 -0.0042250594 -0.0068097855 -0.13294739 -0.030396856 -0.035372548 -0.0076503116 -0.040599216
-0.038869217 -0.0064220144 -0.060123228 -0.009622466 -0.020476399 -0.034525476 -0.01725622 -0.020017657
-0.09303786 -0.103439644 -0.0049959016 0.0032325282 -0.0011090133 -0.07899435 -0.018647581 0.0041859434

head.norm.running_mean f4 [32]
00000000: 0f3f 233e fdb3 973d bdeb 453e 6f1d f2bd
00000010: 1398 3fbd f733 14be 9f43 043d e004 b13d
00000020: f5fd 71bd 170d 6cbd 02cb 313e c6e2 833d
00000030: 7b07 a93d ee17 9d3d 59c2 f73c cf14 11be
00000040: beda dc3d 50a0 ecbc 9ca4 cd3d 046d 453d
00000050: 45bd 583e ec7f 9b3d f4eb e73c 96c7 7b3d
00000060: d756 813c 856f c23d 6f3c 96bd 33e6 84bb
00000070: 6c63 7a3b 137b 3d3e a048 703d a4f4 033d
0.15942024 0.07407377 0.19328208 -0.1182202 -0.04677589 -0.14472948 0.03229105 0.08643508
-0.059080083 -0.05762967 0.17362598 0.06439738 0.0825338 0.0767058 0.03024404 -0.14168094
0.10783909 -0.028885037 0.10041162 0.04819967 0.2116595 0.075927585 0.028310753 0.061469637
0.015788479 0.09493927 -0.073357455 -0.004055762 0.0038206233 0.1850398 0.05866301 0.03221573

head.norm.running_var f4 [32]
00000000: 66fe a23c 3a82 663c 62ed 323c e2b1 3a3c
00000010: 315f 033d 0aca d43c 3b7f ac3c ef95 6a3c
00000020: fb8d 583c 997d a23c 3dc2 c03c 73b3 843c
00000030: ae90 8a3c b828 683c 1195 713c 0b47 a83c
00000040: fdc2 573c 979e 233d a4e3 6a3c c91a ee3c
00000050: 65e9 1f3d 2d86 ad3c 0b5e 4d3c 202d a63c
00000060: 418b 863c 1dc4 5f3c f3b6 573c 4296 493c
00000070: bd34 583c fd2e 213d 9d87 553c 87a2 4c3c
0.019896697 0.014069134 0.010920854 0.01139495 0.032073203 0.025975246 0.021056762 0.0143179735
0.0132174445 0.01983528 0.02353012 0.01619885 0.016914692 0.014169864 0.014745013 0.020541688
0.013169047 0.039946165 0.0143365 0.029065507 0.03904094 0.021182144 0.012534629 0.02028519
0.016423823 0.013657597 0.013166177 0.012303891 0.013196168 0.039351452 0.013032821 0.012489921

body.block1.conv.weight f4 [32, 32, 3, 3]
00000000: 3431 e33a 8f94 d83c c2b0 23bc b3dc 9cbc
00000010: a199 653c 6276 64bc 2584 c13c fcb5 33bc
00000020: 91a2 f5bb 2a68 77bc 9f3c 6c3c 0d03 003d
00000030: b483 56bb 0a77 99bc d6a1 aebc 7336 44bb
00000040: 1cf7 c8bc b5d7 c4bc 44c5 893c f89f 01bd
00000050: 8d86 ecbb 0588 6c3b 348b 273b 92a6 0fbd
00000060: 031f 3f3c 841d 46bc 0a93 033c a732 943b
00000070: cbd8 d6ba 6969 f6ba 775b 2e3c c3cb 3fbc
00000080: d6ba ee3c 8b56 ea3c 7157 afbc 002e 3dbd
00000090: 61e2 91bc d16a fbbc e389 19bd 246c 2d3c
000000a0: d10a babc d30a 61bd 6540 913c 665a 61bb
000000b0: 3961 21bd 6b9a ef39 39a8 3ebd c6c9 9dbc
000000c0: 7e7c a0ba da8b 45bb e322 13bd 7c2d e13b
000000d0: 9702 893a d3d0 42bd 6692 08bd 7fe3 7a3b
000000e0: 2401 bb3c cf60 39bc c1c8 bb3c 5fb2 85bc
000000f0: 38bf 813c bd43 a13c 9d81 e5bc 6731 3dbc
00000100: a73e c33c 4507 3ebd ee69 083c 62b6 c83c
00000110: 90c6 edbc ecbe eebb d22c d6bc c9e2 a9b9
00000120: f0d4 aabc 9006 d7bc cd64 f03a 104c 01bc
00000130: a057 07bd be93 3cbd 8235 843a be1b 59bb
00000140: 31e0 ecbc 349c c0bc 49f9 9dbc d7c5 26bd
00000150: 747d f93c bca8 453a b675 c2bc 7e86 9bbc
00000160: 69b5 5abb c00d 4339 97a8 a43c 30ef d13a
00000170: 9354 ffbc 3a6b 753b 42e7 853c 0ec9 a5bc
00000180: a2ee 6dbb deef 93bc 7b7f 11bb 11ec abbb
00000190: 51b4 553c 1518 05bd b465 96bc fc70 99bb
000001a0: 0db0 73bc 5b2b a63c 1c83 86bb 7513 c1bc
000001b0: a4a2 5b3c 33f7 f1bb 76ee 4bb9 5e83 0e3d
000001c0: 2531 0a3c a4db 703c c260 073d 907a 873c
000001d0: c351 7ebc 6c3a a53c 3af2 843c 4d22 bbbc
000001e0: 1446 1a3d 5d66 133c de6c 6b3c b55a 1c3d
000001f0: 337c 9dbc 4d2f 19bc 7a54 bbbb ac18 2cbc
00000200: 69eb c33a 3665 cb3c 3d09 99bc cd93 30bb
00000210: 9485 923c 84f3 2abc 3005 7bbc e8b2 29bb
00000220: 3f16 34bc a8f4 43bc 7438 673c fa93 d13b
00000230: ed1c 813b bea3 1d3c 9d61 85bc cda2 363c
00000240: 58f6 03bc b6f7 e8bc 0f86 5a3a dd04 ebbb
00000250: 93d5 033d e7aa 0cbd cd04 a6b9 2c41 3c3d
00000260: 8d7c 4a3d 0d94 bf3b e9b6 603b 7d3f 30bd
00000270: 7067 9dbb 5f6b 64bb 02f1 bebc c21d 753d
00000280: a128 17bd 99e5 31bd 51eb 2bbd 89ad 3a3c
00000290: 7350 0cbd 67de e2bc e372 0a3d dff9 31bd
000002a0: 55cb eb3c 2a6d 9c3b 7962 02bd 9b95 d4bb
000002b0: a78f d4bc ba13 74bc 4d5c 1e3c 77de 663c
000002c0: 4b57 67bc 4c6a 443d 3836 553d 8d2c 3b3d
000002d0: c830 a73c 7e90 03bd caf4 c83c 4385 c53b
000002e0: ad04 f73b db2e 613c a8a7 0d3d 2d3c e23c
000002f0: 24d0 f8bc b675 8ebc 0059 a53c 87c9 e3bc
00000300: 825a 57bc 8951 363c 64df 80bc fb23 d83c
00000310: 58f3 3cbd 68e6 35bc 6d39 c03c 689e bcbc
00000320: 7aef fdbc fb1b 21bc 74e1 1a3c 9b03 533c
00000330: a700 a03c f811 2b3d c33b 383b d624 6a3c
00000340: 6c74 13bc dfac 1cbd 12c2 843c 841c d93c
00000350: 1871 81bd 9086 8dbc 4955 713c 2283 f7ba
00000360: a984 5bbc 431d 203d 33e5 2c3c 4afe c33c
00000370: 7c11 1ebd d9ee e93b a1e8 c33c 9314 aebc
00000380: c408 48bc 6c63 033c 8a44 bfbc 61d4 a3bc
00000390: bba4 95bc c9dd e2bb c6e9 95bc 74a3 203b
000003a0: 3293 48ba 0558 79bd 9dc6 e63c 5355 b93c
000003b0: 8e2d d03b 327d ad3c 8798 21bb 3ec2 373c
000003c0: 0a5a 95bc 0fc5 bd3c 792c 823c d021 6cbc
000003d0: 759e 26bd 08f3 ecbc 776b 36bc b97b b73c
000003e0: 5f95 47bc 6f82 393c bcbb 933c c2b3 13bd
000003f0: 53fe 99ba 6577 a2bc 6f28 2cbc 7299 c8bb
0.0017333389 0.026438026 -0.009990873 -0.019148206 0.014013679 -0.01394424 0.023622582 -0.010968681
-0.007496186 -0.015100518 0.01441875 0.03125291 -0.003273231 -0.01873352 -0.021317404 -0.002993968
-0.024531893 -0.024028638 0.016817696 -0.0316467 -0.007218188 0.0036091816 0.002556515 -0.035070963
0.011665109 -0.012091998 0.008030662 0.00452264 -0.0016391514 -0.0018799725 0.010641924 -0.011706295
0.029141825 0.02860572 -0.021404 -0.046186447 -0.017808141 -0.030690582 -0.037485015 0.010584865
-0.022710236 -0.054941963 0.017730901 -0.0034386157 -0.03939936 0.00045700683 -0.04654715 -0.019261252
-0.0012244133 -0.0030143172 -0.035921942 0.0068718772 0.0010453042 -0.04756243 -0.03334274 0.003828257
0.022827692 -0.011314585 0.022922875 -0.016320406 0.01583825 0.01968562 -0.028015906 -0.011547423
0.023833586 -0.04639365 0.008326037 0.02450103 -0.029025346 -0.0072859433 -0.026144419 -0.0003240316
-0.02085349 -0.026248246 0.0018340588 -0.00789167 -0.03304255 -0.046039335 0.0010086747 -0.0033128108
-0.028915497 -0.023511983 -0.019283907 -0.04071602 0.030455329 0.0007540097 -0.02373777 -0.01898503
-0.003337229 0.00018601771 0.020099921 0.0016016718 -0.031168258 0.0037447945 0.016345624 -0.020237472
-0.0036305566 -0.018058714 -0.0022201228 -0.005246647 0.013043479 -0.03249367 -0.018359043 -0.0046826582
-0.014873517 0.020284345 -0.004104985 -0.023568848 0.013405476 -0.007384205 -0.00019448422 0.03479325
0.0084345685 0.014700804 0.03305126 0.016537935 -0.015522423 0.02016946 0.016228784 -0.022843504
0.037664488 0.008996573 0.014369218 0.038172442 -0.019224262 -0.009349656 -0.0057168575 -0.010503929
0.0014947477 0.024828535 -0.018681163 -0.0026943565 0.01788596 -0.010434035 -0.015321061 -0.002589399
-0.010991632 -0.011960186 0.014112581 0.006395814 0.003940216 0.009621559 -0.016281897 0.011147213
-0.008054338 -0.02843843 0.00083360163 -0.0071722106 0.032186102 -0.034342673 -0.00031665564 0.04596059
0.049435187 0.0058465065 0.003428871 -0.043029297 -0.0048035905 -0.0034854037 -0.02330828 0.059842832
-0.03690398 -0.043431852 -0.041972462 0.011393913 -0.03425641 -0.02769394 0.03380097 -0.043451186
0.02878348 0.0047737556 -0.031832192 -0.006487561 -0.025947405 -0.014897281 0.009665561 0.014091126
-0.014119933 0.047952935 0.05205366 0.045696784 0.020409003 -0.03212022 0.024530787 0.006027849
0.007538399 0.013744081 0.034583718 0.027616585 -0.030372687 -0.017390113 0.02018404 -0.027806057
-0.013144137 0.011127838 -0.015731521 0.026384344 -0.04613051 -0.011102296 0.023464883 -0.023024753
-0.03099798 -0.009833331 0.009453166 0.012879278 0.019531561 0.041765183 0.0028111793 0.014291009
-0.008999925 -0.0382508 0.016205821 0.026502855 -0.06320399 -0.017276078 0.014729806 -0.0018883685
-0.013398328 0.039090406 0.010552692 0.023924965 -0.038590893 0.0071390686 0.023914637 -0.021250045
-0.012209121 0.0080193095 -0.023348112 -0.019998731 -0.018267026 -0.0069234115 -0.018299948 0.0024511488
-0.00076513283 -0.060874958 0.028170878 0.022623694 0.006353087 0.021177862 -0.0024657564 0.011215745
-0.01823141 0.023165254 0.015890347 -0.014412358 -0.04067846 -0.02892448 -0.01113402 0.022397863
-0.012181609 0.011322602 0.018033855 -0.036060102 -0.0011748768 -0.019832322 -0.010507687 -0.0061218077

body.block1.conv.bias f4 [32]
00000000: 157b 253d 043f 4c3c 3dfa e83c 8d61 3cbd
00000010: e17a 29bd a2a2 b03c 1d33 93b9 fcc2 d6bb
00000020: 5bd0 f4bc 100a 343d da66 023d e428 4ebd
00000030: c1ed 52bc 6dcd c7bb a478 193d 8feb e4bc
00000040: c8c0 603d 377a 22bd 04ee 9d3c 9e78 0ebd
00000050: 72b7 1f3d 355e 5ebd a68b 85bc 6db5 1cbd
00000060: 7f09 b53c e245 8abb e3b1 b23b 92d3 82bc
00000070: 29aa 87bb c00e 153c 9286 ebbc 9b09 5d3b
0.040400583 0.012466196 0.028439635 -0.04599147 -0.041376952 0.021561924 -0.00028076107 -0.0065540057
-0.029884508 0.04395491 0.03183637 -0.050331965 -0.012874068 -0.0060974867 0.037468567 -0.027944354
0.05487135 -0.039667334 0.019278534 -0.034783 0.038993306 -0.05428906 -0.016301941 -0.03825896
0.022099255 -0.0042197565 0.0054533347 -0.015970025 -0.0041401577 0.009097755 -0.028750692 0.003372765

body.block1.norm.weight f4 [32]
00000000: fb77 7d3f 57ea 703f 4dca 7a3f 81d6 713f
00000010: ee1a 783f 830a 883f 193d 803f f4e8 773f
00000020: 08cb 7c3f ff33 853f b552 753f 4f77 7d3f
00000030: ac1a 783f 1de2 7e3f 431d 803f d90c 773f
00000040: e491 783f 12a6 823f ea05 793f ef31 6f3f
00000050: 4ae1 793f 07d1 803f d6e4 7d3f c8f4 7d3f
00000060: 7f82 7d3f ed28 833f 8281 973f daa9 7a3f
00000070: 621c 7e3f 468f 813f 5be7 703f 3a9f 853f
0.990112 0.94107574 0.97964936 0.9446793 0.9691609 1.0628208 1.0018646 0.96839833
0.987473 1.0406493 0.95829326 0.99010175 0.969157 0.9956377 1.000893 0.9650398
0.9709761 1.0206931 0.9727465 0.9343557 0.9760939 1.006379 0.991773 0.9920163
0.99027246 1.0246865 1.1836398 0.9791542 0.9926206 1.0121849 0.9410302 1.0439217

body.block1.norm.bias f4 [32]
00000000: 9ae1 83bc 8628 72bd bff6 90bd 069d a8bd
00000010: e61a 8ebd c542 413a 9500 403c e31a 06bd
00000020: 7ae0 dcbc 390d 9bbd 9153 c4bc 7f4d c2bb
00000030: 90bb 91bd bd50 16bd d760 be3c 176d 2bbd
00000040: 91b1 9bbd 6e08 6bbc eff7 19be a763 d7bc
00000050: 9b47 77bd 707e 84bd a13d 8abd 1029 27be
00000060: 428e 863a 566a 0bbe db2d 6cbe 72ef 0abd
00000070: 6e96 2fbb 8075 edbd 24a5 1c3c 7787 a1ba
-0.016098786 -0.059120677 -0.07078313 -0.08233075 -0.06938724 0.0007372315 0.011718889 -0.032740485
-0.026962508 -0.075708814 -0.023965629 -0.0059296484 -0.07115853 -0.03669809 0.023239536 -0.041852083
-0.076022275 -0.0143452715 -0.15035985 -0.026292635 -0.060371023 -0.064694285 -0.06750036 -0.16324258
0.0010265785 -0.13614783 -0.23064367 -0.03391976 -0.0026792544 -0.11594677 0.009560857 -0.0012323697

body.block1.norm.running_mean f4 [32]
00000000: a785 3ebe 22d2 c33d de37 b9be ddd7 3a3c
00000010: 59f0 d4bd 777e 10bf 23f8 2fbd 8ac2 b6bd
00000020: 18da d93d 4646 3ebc 21be 5b3c 8320 35be
00000030: 88dc 3c3e 806a 2f3d b1a4 7e3d ffa4 013e
00000040: e668 61be 1c10 18bf 2df5 2f3d d053 a53d
00000050: 458e 5d3d 511c 0ebe d9b5 6dbd 988a e33d
00000060: cb3a 09be cf1e b3bc 1390 febe 5607 6e3e
00000070: f3b4 aebd a44c 003e 70c6 53be ad1f 7abe
-0.18605672 0.09561564 -0.36175436 0.011404005 -0.10397405 -0.5644297 -0.04296125 -0.08923824
0.10637301 -0.011613434 0.0134120295 -0.17688183 0.18443501 0.042826176 0.06216878 0.12660597
-0.22012672 -0.5939958 0.042958427 0.080726266 0.054090757 -0.1387799 -0.05803475 0.11110419
-0.13401334 -0.021865277 -0.49719295 0.23244986 -0.08530607 0.12529236 -0.20681167 -0.24426146

body.block1.norm.running_var f4 [32]
00000000: fbd0 9b3d d4c0 213e 4c3c 033e 0b1f f83d
00000010: c5d3 a33d fde4 133e 607e c63d 6d5b e13d
00000020: 128d 053e ab8b b73d 5d1c 8c3d f11f 353d
00000030: 2b9a d03d 6daf 8a3d feb6 973d 29aa 4f3d
00000040: d917 cf3d 5100 293e dcb9 a13d 3f3e 593d
00000050: ccad 993d ce58 d93d 7ff0 033e 2320 d63d
00000060: 47e4 9b3d c490 d03d 1833 103e 733d 993d
00000070: dafb 3f3e 1c32 d43d 937f 093e f2b7 7c3d
0.07608219 0.15796214 0.1281597 0.12115296 0.07999376 0.14442821 0.09692073 0.11003766
0.13042095 0.089621864 0.06841347 0.044219915 0.10185655 0.06771741 0.0740795 0.050699387
0.101119705 0.16504027 0.07896778 0.053037878 0.07503852 0.10612641 0.1288471 0.10455348
0.076119 0.10183862 0.1408199 0.07482424 0.18748417 0.1036112 0.13427572 0.06169886

body.block2.conv.weight f4 [32, 32, 3, 3]
00000000: 40ba 4fbd 794b dcbc 6aff d6bc a398 3c3d
00000010: 9841 e6bb 7a47 1abb 4fcf 38bc dc91 133c
00000020: 68dc bdbc 9f5a d93b f723 0dbd 07dd 06bd
00000030: 1639 d0bc b3c0 0bbd ee49 f2bc ca9e 07bd
00000040: f6c5 55ba 22a4 19bc 2990 73bb e0f2 883c
00000050: e6a2 02bb 902b 0dbc e729 c1bc 7e4a 09bd
00000060: d6b5 39bc 2f8c 793c a384 eb3c 0bdc 41bc
00000070: 225e 083a 0eac 16bc fe31 00bc 41f2 b93a
00000080: 7827 ae3b bd43 7a3c 7356 323c cfa2 273d
00000090: 34c9 98bb e9ed 6c3c a19d 91bc 4c0a 9cbb
000000a0: 8316 62bc 432d 07bd e7fe 293d 2796 dcbb
000000b0: 2505 9bbc 69c6 1f3b d179 3d3d ff01 003b
000000c0: 1471 98bc a135 1d3d f362 743c 6059 af3b
000000d0: 1177 563a 0857 f43c 9480 4c3c 825f 8cbc
000000e0: 4b36 47bb 4de0 403c 22aa 0e3d a54f d43b
000000f0: 3af9 dbbb 20ef 7bbb 4f1b f4b7 98ba 133c
00000100: d741 ff3c ad3b b93c 2196 27bc 2eec c6bc
00000110: 022d 6cbb fc36 97bb 1d5b edbc 30db bebb
00000120: 89fc ba3c d90b 06bc aa75 ad3c 3d54 47bc
00000130: 090e 233b 5a66 a7bc 5cf4 89bb 9f17 843c
00000140: 4ea3 d43c be5f 633c 86f8 26bd 4308 cd3c
00000150: 300d acbc 2a96 073c 8c8e 883c cf85 7e3c
00000160: f3bd 38bb a9cf e73c 1656 d7bc cb53 31bc
00000170: 9c15 f6ba 2031 00bc 1ded e93c c12b 1b3d
00000180: df28 ad3b d76f 41bb f3a9 85bb cdc3 563b
00000190: b4d9 b8bc a883 143c 86d9 313c 3843 f6ba
000001a0: 9374 aabc 391a 143c c041 9c3c 30d4 ed3b
000001b0: 1a14 18bd 53f4 89bc acca 64bc af0c 943b
000001c0: f8dd 983c cdec 99bc c78a 8e3b b9c2 7c3c
000001d0: 9d6f 2dbd b446 1bbd 6c31 973c 6aeb ab3c
000001e0: f847 1abc 69f2 43bd 3d58 cfbc 95d8 4c3a
000001f0: 6fa1 00bd cadf f3bc 0513 8cbb ab31 8b3c
00000200: 77b1 adbb fcae 87bc 11d2 c03c 6236 8f3c
00000210: df35 1ebd c9a7 40bd 331c 023d bcde 4d3d
00000220: 8679 fcbc c28c 623d 8578 373c b5a6 0c3d
00000230: 44ba 273b e5b9 01bc 0b31 59bc cac8 a7bc
00000240: 2095 69bc 6107 f0ba b8d0 813c 0c11 9c3c
00000250: 3250 7d3c ea40 b23c d92f 673b 0484 823c
00000260: ee6d a138 4031 86bc ce5b 7abb 3b38 a1bc
00000270: 4237 893c c45f eabb 4e1f ecbc fc1e 95bc
00000280: 9e76 08bd cce7 ecbb 8ecd 5bbd 0bc1 c83a
00000290: fe56 073d 8c09 f0bc 5d6e 033d 83e1 88bb
000002a0: 7dd4 8b3b f207 893c 4fc2 283c 7872 97bb
000002b0: 5ee0 053d 0165 64bb ab6e 833c 10c6 c3bc
000002c0: 8d77 46bc 72fd b2bc ddb2 bb3c 0632 be3c
000002d0: 6162 b0bd 866b 9bbc 0604 19bd e5d6 7abc
000002e0: 6627 743b cf8a 36bd 14c3 43bc 6e5b 71bb
000002f0: 3ac0 f5bc ca3c 07bc 5bff 1f3c 258d d23c
00000300: fd1c dcbc 9a01 a3bb 4978 2a3b e3c9 163c
00000310: b5de 1bbc 46b8 02bb 044b a1bc 7dd9 4dbc
00000320: 0dde e0bb 0a83 a3ba 6881 9eba af81 59ba
00000330: d5c9 babc 27c5 513c a73a b63c 00c0 9cbc
00000340: db85 103d 9d74 7ebd 8c5e ac3b 607b acbc
00000350: f302 ed3b 83f0 553b 0cc9 473d da63 a0bc
00000360: aa65 00bd 772d 43bc 09c6 033d f0f3 e93c
00000370: e78e 8abc c428 88bc da76 043d d9a7 c8bc
00000380: 1d75 71bc 16d6 0dbd c7f8 5fbd 67c9 cfbc
00000390: 0ad5 a8bc c04d 063c 7d18 76bc df30 5b3c
000003a0: 5105 f1bb c2d7 8a3c 8747 b13c c5b0 1f3d
000003b0: 836b 29bc bbb5 633c 8b3f debc 9bbb 59bd
000003c0: 599d 9bbd 23d6 16bd 3b37 8eba 71d2 213d
000003d0: d107 9b3a d2ee 8fbc 3475 e23b 99d7 973b
000003e0: b747 11bc 8c82 90bc cb88 883c 7afd 49bc
000003f0: cc7e ef3c 7654 a6bc 8ffb a0bc 44cc c13b
-0.05071473 -0.026891457 -0.026244838 0.046044003 -0.0070268624 -0.0023541139 -0.011279895 0.009006944
-0.023176387 0.0066331173 -0.034458127 -0.03292563 -0.025417846 -0.03411932 -0.029576268 -0.033110417
-0.00081548037 -0.009377511 -0.0037164784 0.016717374 -0.001993352 -0.008616343 -0.02357955 -0.033518307
-0.011334857 0.015231176 0.02874977 -0.0118322475 0.0005202015 -0.0091962945 -0.007824419 0.0014186577
0.0053147636 0.015274939 0.010884869 0.04092675 -0.004662657 0.014461019 -0.017775359 -0.0047619697
-0.0137993125 -0.03300215 0.04150286 -0.0067317667 -0.018923352 0.0024379736 0.04625875 0.001953244
-0.018608607 0.038381223 0.014916169 0.0053512305 0.00081811944 0.029826656 0.012481827 -0.017135385
-0.0030397351 0.0117722275 0.03483022 0.006479221 -0.0067130597 -0.003844209 -2.9099783e-05 0.009016655
0.031159325 0.022611463 -0.010228665 -0.024282541 -0.003603757 -0.004614709 -0.02897411 -0.005824469
0.022825496 -0.008181536 0.02117427 -0.01216608 0.0024880192 -0.020434547 -0.004210038 0.016124545
0.025956776 0.013877807 -0.040764354 0.025028354 -0.021002382 0.008275548 0.016669534 0.015534832
-0.002818939 0.028297262 -0.026286166 -0.0108232 -0.0018774751 -0.007824212 0.028555447 0.037883524
0.005284413 -0.0029516125 -0.0040790974 0.0032770515 -0.022564746 0.009064592 0.010855084 -0.0018788343
-0.02080754 0.009039455 0.01907432 0.0072579607 -0.037128545 -0.016840136 -0.013964336 0.0045181136
0.01866053 -0.018789673 0.0043500396 0.015427285 -0.04234277 -0.037909225 0.018456183 0.020986278
-0.009416573 -0.047838602 -0.02531063 0.00078142557 -0.031403955 -0.029769797 -0.0042747282 0.016991457
-0.0053006965 -0.016562931 0.023537667 0.017481986 -0.038625594 -0.047035012 0.031765174 0.050261244
-0.030819666 0.05531002 0.011198168 0.03433867 0.00255932 -0.007917856 -0.013256322 -0.020481486
-0.014256746 -0.0018312746 0.015846595 0.019051097 0.015461015 0.021759469 0.0035276322 0.01593209
7.697554e-05 -0.016380906 -0.0038201693 -0.019680133 0.016749982 -0.0071525294 -0.028823521 -0.018203251
-0.033316247 -0.007229781 -0.05366283 0.001531632 0.033041947 -0.029301427 0.032087673 -0.0041772737
0.004267274 0.016727421 0.010300233 -0.0046218 0.032684676 -0.0034850242 0.016043982 -0.023898154
-0.012113464 -0.021849368 0.022912437 0.023217212 -0.08612514 -0.01897217 -0.037357353 -0.015310024
0.0037254929 -0.044565972 -0.011948366 -0.0036828178 -0.029998887 -0.008254239 0.009765471 0.025702069
-0.026869291 -0.004974556 0.0026011637 0.009203407 -0.009513547 -0.0019946261 -0.01968909 -0.01256406
-0.006862408 -0.0012474966 -0.001209301 -0.00082972174 -0.02280132 0.012803352 0.022244764 -0.019134521
0.035283905 -0.06212293 0.0052602943 -0.021054924 0.0072330176 0.0032644577 0.048775718 -0.019578863
-0.031346954 -0.011912695 0.032171283 0.028558701 -0.016913844 -0.016621001 0.03233991 -0.024494098
-0.014737395 -0.034627996 -0.054680612 -0.02536459 -0.020609397 0.008197248 -0.015020487 0.013378351
-0.00735537 0.016948584 0.021640552 0.03898694 -0.010340574 0.013898308 -0.027129909 -0.05315743
-0.07598371 -0.03682531 -0.00108502 0.039507333 0.0011827891 -0.017569933 0.0069109444 0.0046338555
-0.008867196 -0.017640375 0.01666679 -0.0123285 0.029235266 -0.020303946 -0.019651202 0.005914243

body.block2.conv.bias f4 [32]
00000000: 2719 393c 73d8 8bbc 33a3 943c 484c d93c
00000010: aa80 6abd f5d0 b6bc fcb1 06bd 243f 363b
00000020: 7048 693b 7b89 e73c d389 363c 72aa 423d
00000030: 1116 60bd 8753 e33c 44d0 36bd b617 febc
00000040: d871 183d 4383 673d 3c35 c63c 05ee 35bd
00000050: c849 65bd ea1a 303d 2782 313d d2dc 3c3d
00000060: e0b1 9ebc 7b6a ef3b c739 443d 47ca 5738
00000070: 3396 47bd 94db 8a3c 736d aa3c 4f5f 493d
0.011297501 -0.017070984 0.018144226 0.026525632 -0.05725161 -0.022316435 -0.032884583 0.002780863
0.0035596155 0.028263798 0.011141258 0.04752583 -0.054708544 0.02774979 -0.04463221 -0.031017166
0.037217945 0.056521665 0.024195306 -0.044416446 -0.055978566 0.042994417 0.043337014 0.04610903
-0.019371927 0.0073063946 0.047906663 5.144838e-05 -0.048727226 0.016950406 0.020804143 0.04916316

body.block2.norm.weight f4 [32]
00000000: d219 803f c74e 713f 1f40 7d3f cfd7 833f
00000010: 35d2 6a3f 2dcd 893f c699 7a3f 5788 783f
00000020: 538b 723f cb1a 833f d373 853f 8c1f 833f
00000030: 1beb 713f 26b3 743f a6f7 753f f37e 763f
00000040: 9a7e 833f 80a6 733f 9195 783f 8626 6f3f
00000050: a18d 7d3f f3a8 723f f29c 7b3f e34e 7f3f
00000060: 3142 7d3f cebe 7c3f 45d5 7f3f f3fe 803f
00000070: 2f99 783f 74d5 833f 1391 8a3f f9ea 743f
1.000788 0.9426083 0.98925966 1.0300235 0.91727 1.076574 0.9789089 0.9708304
0.9474384 1.0242552 1.0425972 1.0244002 0.9449937 0.9558586 0.96081007 0.9628746
1.0273011 0.95175934 0.9710322 0.9341816 0.99044234 0.94789046 0.98286355 0.99729747
0.98929125 0.98728645 0.999348 1.0077804 0.9710874 1.0299516 1.0825523 0.9567104

body.block2.norm.bias f4 [32]
00000000: 9fba dfbc dee2 e0bc 70c6 15bd 475f 39bd
00000010: b59e ebbd dd44 f0bd 2b6c 23bd ae36 87bd
00000020: 9f6d 75bd b64f bd3c a848 49bd 0406 4dbd
00000030: e831 3dbd 198c aabd e63a e8bd e6fb bcbd
00000040: 16ba 82bd 3357 8ebd 310d 01be 2b76 6bbd
00000050: 7abc 98bb b070 f1bd 0717 8bbc 2e3b b3bd
00000060: 8de3 9abd a4d3 b7bd dca7 cbbc 575f 16be
00000070: 661e 8dbd 95d7 27be 60ba acbd c09a 41bd
-0.027310668 -0.027451929 -0.036566198 -0.04525688 -0.1150488 -0.11731885 -0.03989808 -0.06602226
-0.059918996 0.023109298 -0.049141556 -0.050054565 -0.046190172 -0.08327503 -0.11339359 -0.09227733
-0.06383149 -0.06950226 -0.12602688 -0.05748574 -0.00466114 -0.117890716 -0.016978754 -0.08751522
-0.07562933 -0.08975914 -0.024860315 -0.14684807 -0.06890564 -0.16390832 -0.08433986 -0.04726672

body.block2.norm.running_mean f4 [32]
00000000: b770 8ebe 6493 8cbd 09bb 253c 2faf a63d
00000010: 44f7 ac3e 22ef b2bd c712 f0bc cb8e aabe
00000020: c898 8b3e b9e0 023e 24bd 063c 2989 b3be
00000030: 0a97 9dbd b8f4 7e3e dd1f 2cbb 3e4e 14bf
00000040: 9535 ab3e 88fb d43d 60df f63d ca2b a0bd
00000050: 9f84 3fbe 027a 34bc dee2 5b3e 6ad7 f13d
00000060: 0cff 15be 3b97 7c3c 78b7 22bd c051 a83d
00000070: 6764 203e a27b 3b3c e134 533e 81d5 8bbc
-0.2782037 -0.0686405 0.010115393 0.08138882 0.337824 -0.08737017 -0.029305829 -0.33312067
0.27265 0.12781037 0.008223806 -0.35065582 -0.07694824 0.2489804 -0.002626411 -0.5793189
0.33439317 0.10399538 0.12054324 -0.07820852 -0.18702935 -0.011015417 0.21473262 0.11808665
-0.14648074 0.0154169155 -0.03972575 0.082187176 0.156633 0.011443051 0.2062564 -0.01706958

body.block2.norm.running_var f4 [32]
00000000: aa71 8e3d 2663 b13d 4e63 ab3d 532c 103e
00000010: 87f0 953d 5b55 be3d 9765 c13d 7246 903d
00000020: 9d78 a33d 6ffd 123e 57a7 d13d 580b d63d
00000030: ee9d de3d ed53 033e f1a9 e03d fc3b ab3d
00000040: 57ba 033e 0d55 9d3d 8d9b c53d 7c19 a33d
00000050: 4e10 483e a67f 033e 2bf6 f83d de19 093e
00000060: ffdb c63d b6d5 983d b28a d23d e379 d13d
00000070: d99e 073e d761 d93d e967 063e b884 973d
0.069552734 0.08661489 0.0836855 0.14079408 0.073212676 0.09293624 0.09443205 0.070446864
0.079819895 0.1435449 0.10236996 0.104513824 0.108699664 0.12824984 0.10969914 0.083610505
0.12864052 0.07682238 0.096488096 0.07963845 0.1953747 0.12841663 0.12156328 0.13388774
0.0970993 0.07462637 0.1028036 0.10228326 0.1324419 0.106143646 0.13125576 0.07398361

body.block3.conv.weight f4 [32, 32, 3, 3]
00000000: fd80 a53b 3306 bcbb f758 8a3c 922c 17bc
00000010: 860d 56bc 58ea 13bc 8136 0ebd 70a7 0f3c
00000020: 582a 683c 5bc5 9d3c 60bb 533c f27b 51bc
00000030: 44ac f13b 03c4 61bb 5b55 01bc 2481 5abc
00000040: 792b dc3c 112e a6bc bd11 cd3b 3cf9 113d
00000050: 6292 123b 58c6 07bd 0e6c 24bb 39e4 4ebc
00000060: f5e7 bfbc b734 3abd e901 e1bc ad7b 33bd
00000070: 5b33 c23b 61dc 0f3c df57 d83b cbfe bc3b
00000080: 0fe4 803b 3801 c93b 1cd9 863c a457 11bc
00000090: 5e5f 8f3b 2b15 e7bb 0e99 bb3c ac84 a1bc
000000a0: 61bc c2bc 4fc7 06bd 3e47 613b e73d fa3a
000000b0: eacf fdbc 490a f1ba 8b2d 193d 5f82 19bb
000000c0: dc1d 94bc d7c7 0abc f621 543d aff8 983d
000000d0: 48a6 eb3c d5c0 4e3d cec0 96bc 01c1 c8bc
000000e0: fc39 cbbc a2b0 f4bc 3108 533b ecb9 adbc
000000f0: 3570 c1bc 38ea 4f3c 08f7 91bc 0444 8abc
00000100: 9ea4 bbbb d410 52bc 4662 d23b 700b 91bc
00000110: 1ca8 f1bc 290b babd 53fa 01bc 70e4 f0bc
00000120: 541b 9fbc f561 c2bc 3d3b 33bc e388 12bd
00000130: 83df 7abc 887d 59bd 14ab afbb af7d f33b
00000140: 85c0 8cbc 2e8b a43b b3a7 663c 055f b8b8
00000150: c30f 15bc cef5 98bc 7987 e63a e362 0e3d
00000160: 1bbf 22bd 3c45 eb3b 3f1e f23b e136 263c
00000170: f9b2 2d3b e9c5 e6bc bf03 4bbc 1528 45bc
00000180: 6246 4c3b faa7 793c 8fc5 283c eb27 893d
00000190: eb52 a83c 1074 963c 1674 383d 85bf 913b
000001a0: 8d7c 2bbb 537d 62bc 8ec1 173c c017 a4bc
000001b0: f460 17bd 5eee 9ebc d858 493c 4c04 2f3c
000001c0: 4cfe 6b3c a932 edbc 5868 aebb b35c ad3c
000001d0: c8ad 3b3c 5f61 d33c ad75 293d cf79 8b3b
000001e0: ba5a 013d 6b5c c93b 1e14 f63b e3c9 3fb9
000001f0: 3e91 333c e63a 903b 654d 0bbc 7ceb cc3b
00000200: eba6 48bc 9344 a83b 7818 66bb 075f 863c
00000210: 132c 733d d4e7 ce3c f790 9bbc f4eb 34bc
00000220: 31dd 533b 1a1b 67bb 79c5 34bd 00f8 64bc
00000230: 177f 75bc bb48 d0bc 9f76 a3bb 7e65 adbc
00000240: e13d 05bb 42df 98bc 4379 e33a 5e8c a5bb
00000250: d57f 94bc e19b 04bd 40da 17bc 4858 1e3b
00000260: aa81 a63c fdb1 0a3c d714 31bc 0c64 53bc
00000270: a1a2 583c ad42 52bc 4cbe 8eba 39ca 0fbc
00000280: 6fad 84bc e233 1abd e57f c33c e37a 9d3b
00000290: 995d 5cbc f040 f4bc 3c88 473c 6456 30bd
000002a0: 0caf cbbc abc0 c93c d9f8 0bbd 1610 f3bc
000002b0: 0d3b 4dbb 0518 9f3c 0391 043b 900b c8bc
000002c0: f287 0f3c 46b2 9b3b cd73 9dbc 8fcb 2ebc
000002d0: 9f99 8fba ba34 9dbb de53 aabb 9574 96bc
000002e0: 31d3 a2bd 5cd2 673c 8308 943b f1b6 2dbc
000002f0: 81f8 22bd 3243 b7bc bc31 50bb 4b84 dd3b
00000300: 5dcc beba c66a 79bc 7792 2d3b 6ef6 e8bc
00000310: a015 543b d689 2abc 5ecf 5abc 1c7e 183d
00000320: a934 a8bc ff85 65bc 6f0b 003d c1cb ec3a
00000330: 9d9d c33c 7cd9 b43b b572 7c3c bb9b 00bd
00000340: f538 4fbd 664c 9fbc 0b16 0abc 379e d33b
00000350: 0fe4 90bc 08ec 40bb cab8 8fbb 7901 3ebc
00000360: e620 923c 1515 8a3c 644e ea3c 5b13 c03c
00000370: b7e2 a3bb 7236 4ebd 316c 0dbc f8bf 863c
00000380: ce74 ce3c aaee 5b3c 5ac2 66bc 38e4 91bb
00000390: a7a2 5e3c 9b5f 6a3c 716f 7a3c 8da6 1d3d
000003a0: ceb0 e33c c1af 3b3d e53c 9b3c eed2 843c
000003b0: 3756 0f3d 0c1c 3e3c b4f8 0bbc d3e0 ce3c
000003c0: 0f84 313d 9673 debc ddfb b73c 1e46 0e3c
000003d0: 7b94 bdb9 ac09 9abc 1a34 1d3c f126 96bc
000003e0: 1dcc 91ba 24dc dfbc aac3 05bc 526a cabc
000003f0: 52c0 a3bc e59c f23c 3d03 203d d907 2d3c
0.005050777 -0.0057380437 0.016888125 -0.009226935 -0.013064748 -0.00902804 -0.034719948 0.008767948
0.014170252 0.019259145 0.012923092 -0.0127858985 0.007375272 -0.0034449107 -0.0078938855 -0.013336454
0.026876198 -0.020285638 0.006258218 0.03563808 0.0022365083 -0.03314814 -0.002508882 -0.012627655
-0.023426035 -0.04546043 -0.027466731 -0.04381912 0.005926532 0.00878057 0.006602272 0.0057676784
0.0039334367 0.0061341785 0.016460948 -0.008870993 0.0043753823 -0.007052084 0.02290013 -0.019716583
-0.023771467 -0.03290492 0.003437474 0.0019091935 -0.03098293 -0.0018389906 0.03739695 -0.0023423654
-0.018080644 -0.008470497 0.0517902 0.07469308 0.028765813 0.050476868 -0.018402483 -0.024506094
-0.024807923 -0.029869381 0.0032200927 -0.021206819 -0.023613075 0.012690119 -0.017817989 -0.016878136
-0.005726411 -0.012821395 0.0064204065 -0.01770565 -0.029499106 -0.0908416 -0.007933217 -0.029405802
-0.01942221 -0.02372835 -0.0109394165 -0.035775077 -0.015312078 -0.05309823 -0.0053609703 0.007430754
-0.017181644 0.0050214743 0.014078069 -8.7915025e-05 -0.009097996 -0.018671896 0.0017587981 0.034762274
-0.039733034 0.0071798842 0.0073888595 0.01014492 0.002650438 -0.028170543 -0.01239103 -0.012033482
0.003116988 0.015237803 0.010301008 0.06697067 0.02054735 0.01836589 0.045032583 0.0044478797
-0.0026166767 -0.013823825 0.009262456 -0.020030856 -0.036957696 -0.019400772 0.012289248 0.010682177
0.014403891 -0.02895482 -0.0053224973 0.021162366 0.011455007 0.025803266 0.04137199 0.004256464
0.031580664 0.0061450503 0.0075097224 -0.00018290388 0.010959921 0.0044015525 -0.008502339 0.006253658
-0.012246828 0.005135128 -0.00351098 0.016402734 0.059368204 0.025257029 -0.018990023 -0.011042584
0.0032327885 -0.0035263957 -0.044133637 -0.013975143 -0.014983914 -0.025425306 -0.004988506 -0.02116656
-0.0020331072 -0.018661145 0.0017354864 -0.0050521335 -0.018127361 -0.03237522 -0.009268343 0.0024161506
0.0203255 0.008465287 -0.010808191 -0.012902271 0.0132223675 -0.01283328 -0.0010890453 -0.008776241
-0.01619598 -0.037647136 0.023864696 0.004805909 -0.01345005 -0.02981612 0.012178477 -0.04305114
-0.024863742 0.024628004 -0.034172866 -0.029670756 -0.0031315715 0.019420633 0.0020228035 -0.024419576
0.008760439 0.0047514765 -0.019220257 -0.010668649 -0.0010955817 -0.0047975453 -0.005197986 -0.018366138
-0.07950438 0.014149275 0.0045176162 -0.010602699 -0.039787773 -0.022370908 -0.0031767925 0.0067601553
-0.0014556755 -0.015223211 0.0026485005 -0.02843782 0.0032361522 -0.010408839 -0.013355104 0.037229642
-0.020532923 -0.014008998 0.031260904 0.0018066094 0.023878867 0.00551909 0.015408208 -0.031398516
-0.050591428 -0.01944561 -0.008428107 0.0064580697 -0.017686872 -0.002943756 -0.0043860422 -0.011597031
0.017837953 0.016855756 0.028601833 0.02344673 -0.0050013917 -0.05034489 -0.008631752 0.01644896
0.025202181 0.013423601 -0.014084423 -0.0044522546 0.013588584 0.014305021 0.015285359 0.038488913
0.027794268 0.04582191 0.018949935 0.01621386 0.03499433 0.011603367 -0.008543182 0.025253689
0.04333883 -0.027154725 0.022458965 0.008683709 -0.00036159516 -0.01880344 0.0095949415 -0.018329116
-0.0011123453 -0.02732665 -0.008164326 -0.0247089 -0.019989166 0.029615829 0.03906559 0.010560953

body.block3.conv.bias f4 [32]
00000000: 9613 f0bc 71d0 113c 6cc5 ebbb ca2a 833d
00000010: c8bb 14bb 0341 d2bb 4e24 103d 7f04 7f3d
00000020: 5537 e43b 1244 62bc 5c13 e2bb 344e 1c3d
00000030: 737f 0e3c 2afd 17bd 9502 d13c 78a4 ed3c
00000040: a6ab 90bc 1432 f63b c47c 523c b518 963c
00000050: 185d d63c aab6 343d f22b 89bb b998 e8bc
00000060: 1b10 fabb ef52 fb3c d9d6 63bc 770e efbc
00000070: 3d74 04bd 4b94 5d3d 0b81 203c 6901 0abc
-0.029306214 0.008899794 -0.0071951654 0.06404646 -0.0022694934 -0.0064164414 0.035190873 0.062260147
0.006964604 -0.013810175 -0.0068992805 0.038160518 0.008697378 -0.03710667 0.025513927 0.029009089
-0.017659973 0.007513294 0.012847129 0.018322328 0.026167437 0.044119515 -0.004186147 -0.028393136
-0.0076313145 0.030679194 -0.013906204 -0.029181702 -0.032337416 0.0540965 0.009796391 -0.008423188

body.block3.norm.weight f4 [32]
00000000: 0dfc 8c3f c2f5 873f e7a9 783f b6b2 793f
00000010: 8b4d 7a3f e479 883f a900 853f 2bf1 7d3f
00000020: 706d 7a3f 7e86 813f 266e 823f 1774 843f
00000030: b3e1 7c3f 6cbe 823f bece 7d3f 2df8 803f
00000040: 9dce 783f bb89 823f 7492 883f 6367 813f
00000050: 39d6 7a3f 5d33 893f 1744 823f cae2 7f3f
00000060: a4cb 833f e4e0 803f 5121 813f ff19 743f
00000070: 8684 7a3f 5f62 823f f946 7a3f e26b 7b3f
1.101442 1.0621874 0.9713425 0.97538316 0.9777457 1.0662198 1.0390826 0.9919612
0.9782324 1.0119169 1.0189865 1.0347928 0.9878189 1.0214362 0.9914359 1.0075737
0.97190267 1.0198282 1.0669694 1.0109676 0.9798313 1.07188 1.0177029 0.9995543
1.0296521 1.0068631 1.0088292 0.95352167 0.97858465 1.018627 0.97764546 0.9821149

body.block3.norm.bias f4 [32]
00000000: 07e4 283b d318 8e3c 7e3c 5ebd acd6 d33c
00000010: 1c8a d83c 0755 893b 92ea f13c 4b22 613d
00000020: 3f74 0d3d e9d4 bc3d 796a 853d 2e17 243d
00000030: fec3 d9bd 1083 353d 56b4 f93c 5251 be3c
00000040: f6a5 3bbd 63f3 1dbc 8cd6 993d 9eaf b23c
00000050: 5150 84bd 46c8 543d 616c b2bd b333 ba3c
00000060: fc35 613d d9b1 1d3d 0d37 b93c 1356 22bd
00000070: d1c3 683d 5141 9d3d 2535 f6bd 2825 5abd
0.002577068 0.017345821 -0.05425691 0.0258592 0.026433043 0.0041910443 0.029530797 0.054964345
0.03453469 0.09220297 0.06514449 0.04006117 -0.10633086 0.044314444 0.030481499 0.023232136
-0.04581257 -0.009640547 0.07511625 0.021812256 -0.06460632 0.051948808 -0.08712078 0.02272973
0.054983124 0.038499687 0.022609258 -0.039632868 0.05682737 0.07678474 -0.12021855 -0.05325809

body.block3.norm.running_mean f4 [32]
00000000: 45eb e0bc c409 b5be df6d 2d3d 936f 3bbe
00000010: 8a5c e3bd fd21 bdbe 2436 20be fde2 3cbe
00000020: 3245 063d 3b81 20bf 467f f2be 5bb5 d6be
00000030: 8d8e 043d 181d 2ebe 7da5 fcbe 835e 0ebd
00000040: 5c2e ab3e 3442 6e3d a3af 3ebe 7fdb ad3d
00000050: 75de d23d bebb bcbe 7c88 1ebd 5044 80be
00000060: e189 bebe dd64 5bbe 2131 913e 9f5c b03e
00000070: 3d1c 30be 002d 4bbe e969 143e 3127 b0bd
-0.027455935 -0.35359013 0.04234111 -0.18304281 -0.11101635 -0.36939994 -0.15645653 -0.18445964
0.032780834 -0.6269719 -0.47362727 -0.41935238 0.03236251 -0.17003286 -0.49345008 -0.034758102
0.33433807 0.058168605 -0.18621688 0.08489131 0.102963366 -0.36861986 -0.03870438 -0.25052118
-0.37214568 -0.21425195 0.28357795 0.34445664 -0.17198272 -0.19841385 0.14493527 -0.08601225

body.block3.norm.running_var f4 [32]
00000000: 12be 7a3e 3d89 b73e f4a0 c93d 7e93 c83e
00000010: a96c 003e 11ec 4d3e 71c1 853e 572e 4f3e
00000020: 24de 3c3e 7bfe 743e cdac 6b3e 31f9 263e
00000030: 2d1f a13d 1229 6d3e 385a 493e 5d98 683e
00000040: 6df2 833e a960 013f 5b1b 583e 4639 f53d
00000050: a433 e33d acbe 373e 87ca 9b3d acc2 8e3e
00000060: e711 953e 7f34 173e afe0 1b3e fed0 333e
00000070: f4d7 463e 36b6 753e b5f9 943d 5a8b 8a3e
0.24486569 0.35846892 0.098451525 0.39175028 0.1254145 0.20109583 0.26124147 0.20232521
0.18444115 0.23925202 0.23015137 0.16305996 0.078672744 0.23160198 0.19663322 0.22714372
0.25770894 0.50538117 0.21104185 0.11973815 0.11093834 0.1794383 0.076069884 0.27882898
0.2911522 0.1476612 0.15222429 0.17560193 0.19418317 0.23995289 0.0727419 0.27059442

tail.0.weight f4 [3, 32, 3, 3]
00000000: c6c1 253c 4fe3 393b cb41 ec3c 8cdf 173c
00000010: 5138 06bd d945 e83c eaa7 36bc c895 97ba
00000020: 9944 5bbd 3b52 f43c d37c 9d3d 694e 85bc
00000030: ad36 8e3b 04ff d83c 429b fd39 47ef 863d
00000040: 8748 4d3d f038 da3c e35b ac3c df25 9cbb
00000050: 1f72 fc3c 8fe6 a13c e061 86bc 1083 4f3c
00000060: 21ec 21bc 4537 ee3c b9be a03d 1b11 633d
00000070: 1600 e43c 0117 77bb 4bfc db3b c863 1e3c
00000080: 5bb6 143c 43c4 a73c 221a 223d 503e 1e3d
00000090: 77a1 a13b 369d 6eba 246d 17bd 2242 64bb
000000a0: ba39 90bc 8f28 26bb 5e9c 0f3d d67c 4d3d
000000b0: 5d19 4e3d b26d 743d 3b3f 65bb b425 e3bc
000000c0: b2bb 4f3d 82e3 f33c c855 04bc e13a 013d
000000d0: 774b c83d 5292 4f3d ad5f 673d 1ef5 343d
000000e0: 4fd5 cbbc 9361 8a3c b415 4f3b 0bf4 5cbc
000000f0: 2cee ff3c 94c2 e93c 2d78 613d 55a1 f2bc
00000100: 56a8 b43c d61d 103a 0801 c83c e7d1 4b3d
00000110: 2032 203c 9797 443d dd3a 8c3c 2d33 5b3d
00000120: 51ee e9bb 6cbb 053d caa3 983c a14f d13c
00000130: b72c 0e3d 7ebe 963c b24f dc3c 5c2f 593d
00000140: f98c bd3c a749 883b 736b 8dbb bdfd 91bb
00000150: 5e57 1c3d c904 f63c 598b 823d a5b6 ea3a
00000160: ddab 9f3b 6d1a 653b 8098 c43b d6d6 9cbc
00000170: a5a2 5ebc 00ef 8c3d 0a87 083c d77b 2ebd
00000180: b914 923d 77e5 293d 5fa4 f13c 9131 2b3c
00000190: 1028 0ebd 2383 6f3c dafb 0e3d 5155 fc3c
000001a0: 7b2d a33c ae68 f43c a63c 9e3d e0bb 893c
000001b0: 80ae 6a3c fb83 1bbb a525 c0bc 1462 d63c
000001c0: 848b 35bc ea4e e4bb b1fc 4a3d a233 623c
000001d0: 837a 81bd 52b3 3e3d 2c96 e43c 0105 893d
000001e0: a51f 853c 96a9 203d 45f5 0b3d 4921 dc3c
000001f0: c062 aa3c 3d55 6fbb c525 dd3c d57b d53b
00000200: b057 ccbb 4760 e13c 8271 153d 1f10 a23b
00000210: bc1d 983c 482e 083c e4b9 043d 76c6 683c
00000220: 4d48 28bb 8bf3 c83c 0491 613d eecb 933d
00000230: 1de6 cb3c 13bc 8b3d 16f9 363d 08e8 003d
00000240: a00b debb 8fa0 353d a130 06bc 6680 e23c
00000250: a13d 2f3d ba5b be3c bdd4 eebb 1bbc 033c
00000260: 56c6 d03c 3bbb ea3c a4cc 3bbc 0182 4cbd
00000270: a345 273b 5eeb 873d c84e 143d 36d3 833b
00000280: 8fd6 2cbc 2609 95bc e172 843d 7b31 263d
00000290: fa1e ff3c bb5c ffbc cc07 9e3c c793 063d
000002a0: 318d 683c de1f ab38 a53c 8dba 947a 553d
000002b0: cf3d 693d a2fd 923d ba67 c33a b5bb 4bbd
000002c0: 0a79 1cbc 5a69 063d 0ca3 0d3c b946 85bc
000002d0: 3f4d aa3c c2e1 76bd 8132 943c 3159 a3bc
000002e0: 0198 b23b cba2 253c e09b 0cbc ad10 94bc
000002f0: 2e2f bcbc 2c35 063d 45ab 51bb e656 ecbc
00000300: f01e 043c 5521 5bbc b7a4 7dbb 1207 b13d
00000310: c5a5 3a3d 2493 3f3d 7f7d 98bc df37 14bd
00000320: 999f 313d 762e ccbc e520 46bd 6f6b 143d
00000330: c667 e33c 72c6 87bc 0aea 4dbd 875d 8bbc
00000340: ffe5 a1bc e5ab 4d3c 40b3 3d3d 085f 1d3d
00000350: e7c9 cd3c 803d 873d 2cb4 6b3c aa67 9d3d
00000360: 3489 7d3c 12d7 afbb 9ff1 063c f64f d1bb
00000370: 7950 41bd 282a aa3c 6caf 183d 77c4 9b3d
00000380: bfe8 563d d2ab 4e3c 5903 3c3c 566b be3c
00000390: d9c8 143d bb76 983d f817 813b 8c9e 23bc
000003a0: 5100 e43c a218 873d 7e46 6eb9 c725 043d
000003b0: cb55 c83c 72b3 9c3a b997 d8bb 50ed 43bb
000003c0: 134c 1d3d 1396 133b 9547 fd3c c133 2dbd
000003d0: 81e0 f03c 710a 11bd 44bb 93bc 429c c73b
000003e0: 54ab 283d 42aa 5c3c 4a05 04bc 6121 39bd
000003f0: 5fe4 093d 6639 363d 9086 a5bb 3bb7 d6bc
0.010117 0.0028364246 0.028839966 0.009269606 -0.03276855 0.028353618 -0.011148432 -0.0011565024
-0.053532217 0.029824367 0.07689824 -0.01627274 0.004340014 0.026488788 0.00048371596 0.06588607
0.050117996 0.026638478 0.021039909 -0.004765257 0.030816136 0.01976326 -0.016404092 0.012665525
-0.009882958 0.029079089 0.078488775 0.055436235 0.027832072 -0.003770292 0.0067134253 0.009667344
0.00907668 0.020479327 0.039575703 0.038633645 0.004932578 -0.0009102406 -0.03696932 -0.0034829457
-0.017605651 -0.0025353765 0.035061233 0.05016788 0.050317157 0.059674926 -0.0034980315 -0.02772794
0.05071611 0.02977157 -0.0080770925 0.031550292 0.09780019 0.05067665 0.056487728 0.044179074
-0.024881987 0.01689223 0.003159863 -0.013485919 0.031241499 0.028535165 0.05504625 -0.029617945
0.022052925 0.000549761 0.024414554 0.049760725 0.009777576 0.04799613 0.017117912 0.053515602
-0.007139005 0.032649443 0.018632788 0.025550665 0.034710612 0.01840138 0.02689347 0.05302368
0.02313851 0.0041591707 -0.0043157875 -0.004455297 0.038169257 0.030031579 0.06374235 0.0017907216
0.0048727826 0.0034958378 0.0059996247 -0.01914541 -0.013588582 0.06881523 0.008332977 -0.04259857
0.07132859 0.0414786 0.029497324 0.010448829 -0.034706175 0.014618668 0.034908153 0.0308024
0.019919148 0.029835071 0.077264115 0.016813219 0.014323831 -0.002372979 -0.02345545 0.026169814
-0.011080626 -0.006967415 0.04955739 0.0138062555 -0.063221954 0.046557732 0.027903639 0.066904075
0.01625044 0.03922423 0.034169454 0.02687134 0.02079904 -0.0036519312 0.026995549 0.006515006
-0.006236039 0.027511729 0.036485203 0.0049457694 0.018568866 0.008311816 0.03240384 0.014207473
-0.002567786 0.024530193 0.05506994 0.07216631 0.02489 0.06822982 0.04467114 0.031471282
-0.006776288 0.044342574 -0.008190305 0.027649116 0.042783383 0.023237098 -0.007288544 0.008040453
0.025485199 0.028653732 -0.011462364 -0.04992867 0.0025523684 0.066366896 0.036207944 0.004022981
-0.010549202 -0.018192839 0.06467224 0.040574532 0.0311427 -0.031172147 0.019290827 0.032855775
0.014193819 8.159851e-05 -0.001077552 0.052118853 0.05694371 0.07177283 0.0014908232 -0.04973956
-0.009550342 0.032815315 0.00864483 -0.016269075 0.020788787 -0.060273893 0.018090488 -0.01993999
0.005450249 0.010109614 -0.008582085 -0.018074358 -0.022971716 0.032765552 -0.0031992954 -0.02885003
0.008064017 -0.013374646 -0.0038702914 0.08643927 0.045568246 0.046771184 -0.018614529 -0.036186095
0.043365095 -0.024924498 -0.048371214 0.03623527 0.027759444 -0.016574118 -0.050272025 -0.01701237
-0.019762991 0.01255319 0.046313524 0.038420707 0.025120689 0.06603527 0.014386218 0.07685788
0.015474606 -0.0053662146 0.008236318 -0.006387706 -0.047195885 0.020772055 0.03727667 0.07605832
0.052468058 0.012614207 0.0114754075 0.023244541 0.036324356 0.07444521 0.003939625 -0.009986531
0.027832182 0.06596495 -0.00022723709 0.03226259 0.024454972 0.0011955334 -0.0066098836 -0.0029896088
0.03840263 0.002251987 0.030917922 -0.042285684 0.029403927 -0.03541035 -0.018033631 0.0060916254
0.041179016 0.013468327 -0.008057902 -0.04519785 0.033665057 0.044488333 -0.0050514415 -0.026210418

tail.0.bias f4 [3]
00000000: 4d77 da3c 57e5 a43d 5e35 85bd
0.026668215 0.080515556 -0.065043196
