code/Output/starry_night_full/gram_e8000_1px_lr0.0005a0.5_up-conv5_1_W[1, 0.75, 0.2, 0.2, 0.2](4)/6/netG.pth (torch, 471621 bytes, 26 tensors)

head.conv.weight f4 [64, 3, 3, 3]
-0.23479615 0.018513277 0.20065713 -0.34733972 -0.19441073 0.0666579 -0.323647 -0.059301164
-0.08621062 -0.09173457 0.050350882 0.15133086 0.005486846 0.0035805108 0.11190043 -0.07575904
0.086363144 -0.077179305 -0.13002774 -0.05736553 -0.030315457 0.06612444 -0.007370478 0.06355854
0.024329957 -0.05276393 -0.0136440825 -0.4290871 -0.21028404 -0.11452831 0.005648676 0.13864067
-0.13283412 -0.13294517 0.009894959 -0.13035795 -0.076511435 0.11534387 0.09234213 0.3886984
0.44250426 0.0774897 0.21507588 0.21584933 -0.056045577 0.0071706707 0.1985402 0.10978677
-0.07336555 -0.022235427 0.067918904 -0.03153931 -0.17416011 -0.16074955 0.06196593 0.012198316
-0.06456275 0.048445273 0.016372865 -0.017390756 0.020906083 0.05696226 0.10875061 0.023957197
-0.015687082 -0.05754816 0.016817687 0.047470782 -0.013074078 -0.076548986 -0.00031094105 0.061202753
0.12511715 0.1127889 0.1356395 0.033523712 0.049533363 0.1726217 0.07359334 0.06380831
0.2548993 0.003469486 0.03354118 0.09815936 -0.021097237 0.0029002838 0.13690837 0.058883492
0.14773521 0.20790936 -0.106323294 -0.11243108 -0.012097075 -0.1426176 -0.16071288 -0.106546976
-0.061393917 -0.019627677 -0.0040352377 -0.105959654 -0.005269455 0.060471114 -0.18294436 -0.10862501
-0.07193577 0.036102787 0.0048756283 -0.0004256589 -0.07147117 0.016503615 0.0016749039 -0.019190729
0.03257296 0.013274735 0.030364404 0.05677481 -0.022705229 -0.11069123 0.035515778 0.033880007
-0.08579431 0.042859685 -0.048078787 -0.008287045 0.04806023 -0.022158265 -0.16122776 0.006860933
-0.0035853968 -0.11137683 -0.01887414 -0.087006874 0.03390534 0.045436118 -0.1468742 0.14334518
0.09537739 0.04627065 0.18491039 0.05781416 -0.023945898 0.03518506 -0.09490492 -0.11466128
0.17696717 0.084173195 -0.035822414 0.117232755 0.0075696222 -0.04987631 0.054161873 -0.11342265
-0.16297396 0.06809969 -0.06967936 -0.24707837 -0.0044174893 0.03887699 -0.07222963 0.07615258
0.016625391 -0.10803717 0.033267334 -0.009794639 0.019284286 0.04183911 0.038994595 0.014301015
-0.011620265 -0.011622229 0.028469045 0.07486194 0.031467445 -0.005730271 0.10075283 0.028138483
-0.049299583 -0.037126306 -0.0032774769 -0.09431266 0.19621664 0.09253474 -0.100450546 0.2643705
0.14513165 -0.040047716 0.16077897 0.15471128 -0.009583298 -0.10852536 -0.21098281 0.12092252
-0.22212262 -0.23016196 0.13264139 -0.19580357 -0.05311656 0.061120007 0.019261131 -0.026499853
0.14462878 0.039588727 -0.02713769 0.15640141 -0.051709883 0.07812518 0.09267858 0.0757949
-0.039697237 0.02486863 0.13384856 -0.13178879 -0.1002952 0.046145275 -0.21701811 -0.022633059
-0.06561536 0.10729253 0.008100347 -0.1660258 -0.03514214 -0.04280091 -0.055695076 0.04666248
-0.03661778 -0.041780677 0.186485 0.1055252 0.005298609 0.11460865 0.007749529 0.0796112
0.23319648 -0.004952292 -0.16806726 0.020161802 0.03383904 0.1613803 0.1739835 0.0168843
0.047327068 0.11466603 0.041906737 -0.08911986 -0.1669972 -0.1471833 0.0062923883 0.008484031
0.11311426 -0.122119814 0.07383274 0.024738468 -0.15346809 -0.3214994 -0.3376182 -0.07436937
00000000: 676e 70be 28a9 973c 1079 4d3e 83d6 b1be
00000010: 9b13 47be f083 883d 0fb5 a5be c7e5 72bd
00000020: 328f b0bd 56df bbbd ba3c 4e3d 7af6 1a3e
00000030: 00cb b33b 01a7 6a3b 0d2c e53d 8e27 9bbd
00000040: 29df b03d 2f10 9ebd fe25 05be 1ef8 6abd
00000050: 1f58 f8bc 406c 873d 0d84 f1bb fb2a 823d
00000060: 9e4f c73c fe1e 58bd 6e8b 5fbc 4eb1 dbbe
00000070: b354 57be d28d eabd 8718 b93b d2f7 0d3e
00000080: ab05 08be c722 08be 771e 223c 8e7c 05be
00000090: 07b2 9cbd 6839 ec3d df1d bd3d 7a03 c73e
000000a0: eb8f e23e ebb2 9e3d da3c 5c3e 9b07 5d3e
000000b0: 0c90 65bd f2f7 ea3b 1f4e 4b3e e3d7 e03d
000000c0: ad40 96bd 1227 b6bc 1119 8b3d 5d2f 01bd
000000d0: 0757 32be 889b 24be fdcf 7d3d 72db 473c
000000e0: 7a39 84bd 8d6e 463d 6320 863c 0f77 8ebc
000000f0: 3c43 ab3c 4251 693d a4b8 de3d e241 c43c
00000100: 3282 80bc 9fb7 6bbd 3fc5 893c b970 423d
00000110: a834 56bc b7c5 9cbd cd05 a3b9 bdaf 7a3d
00000120: b61e 003e defd e63d 15e5 0a3e 2950 093d
00000130: 7fe3 4a3d bec3 303e 1bb8 963d eead 823d
00000140: 2982 823e 5160 633b 7a62 093d c607 c93d
00000150: 1dd4 acbc b012 3e3b b531 0c3e d12f 713d
00000160: e647 173e 31e6 543e 07c0 d9bd 4442 e6bd
00000170: cf32 46bc 590a 12be eb91 24be 4d35 dabd
00000180: 3078 7bbd 39ca a0bc 073a 84bb 6001 d9bd
00000190: 64ab acbb 8fb0 773d c455 3bbe ca76 debd
000001a0: 1053 93bd 84e0 133d bcc3 9f3b f82a dfb9
000001b0: 7a5f 92bd 9732 873c 7388 db3a e035 9dbc
000001c0: 396b 053d 467e 593c c5be f83c b48c 683d
000001d0: 5100 babc 15b2 e2bd fe78 113d c3c5 0a3d
000001e0: edb4 afbd a38d 2f3d 43ee 44bd 63c6 07bc
000001f0: ceda 443d 4085 b5bc e418 25be add1 e03b
00000200: faf8 6abb 8919 e4bd f19d 9abc a930 b2bd
00000210: 53e0 0a3d 391b 3a3d 3166 16be 14c9 123e
00000220: 3955 c33d 4b86 3d3d 2659 3d3e 8ace 6c3d
00000230: 302a c4bc 361e 103d 835d c2bd 88d3 eabd
00000240: e236 353e ff62 ac3d 86ba 12bd ba17 f03d
00000250: 980a f83b 1a4b 4cbd d7d8 5d3d 224a e8bd
00000260: a5e2 26be da77 8b3d 0db4 8ebd 1d02 7dbe
00000270: 96c0 90bb 7b3d 1f3d 21ed 93bd e2f5 9b3d
00000280: f931 883c 9742 ddbd 5443 083d b279 20bc
00000290: 14fa 9d3c 7d5f 2b3d ccb8 1f3d ce4e 6a3c
000002a0: ed62 3ebc 296b 3ebc ea37 e93c 3851 993d
000002b0: 02e4 003d ffc4 bbbb 8057 ce3d ad82 e63c
000002c0: 5cee 49bd c111 18bd f0ca 56bb ff26 c1bd
000002d0: 04ed 483e db82 bd3d 04b9 cdbd 925b 873e
000002e0: 649d 143e 1309 24bd 3ea3 243e a26c 1e3e
000002f0: 4403 1dbc 8b42 debd e10b 58be 3aa6 f73d
00000300: 1d74 63be 94af 6bbe 25d3 073e bb80 48be
00000310: c090 59bd f958 7a3d 85c9 9d3c 3816 d9bc
00000320: 9119 143e ca27 223d dc4f debc b127 203e
00000330: becd 53bd 1800 a03d 44ce bd3d 5b3a 9b3d
00000340: 9299 22bd 4cb9 cb3c 990f 093e a4f3 06be
00000350: 9267 cdbd d402 3d3d ff39 5ebe f768 b9bc
00000360: 5961 86bd 30bc db3d 51b7 043c ab02 2abe
00000370: 34f1 0fbd 0250 2fbd 8520 64bd 2821 3f3d
00000380: 86fc 15bd 3722 2bbd edf5 3e3e 991d d83d
00000390: f49f ad3b f1b7 ea3d c3ef fd3b 320b a33d
000003a0: 0fcb 6e3e d646 a2bb d319 2cbe 5d2a a53c
000003b0: ce9a 0a3d e140 253e bb28 323e f250 8a3c
000003c0: 07da 413d 06d6 ea3d 66a6 2b3d 7984 b6bd
000003d0: 5001 2bbe 38b7 16be 6130 ce3b 9b00 0b3c
000003e0: 73a8 e73d f419 fabd 9f35 973d 54a8 ca3c
000003f0: bd26 1dbe 929b a4be 4bdc acbe f84e 98bd

head.conv.bias f4 [64]
0.095227204 -0.19848318 -0.14345187 -0.1023422 0.0068820254 0.04419496 -0.120672435 0.109609954
0.16018362 0.044146106 0.05413616 -0.070831485 -0.1706092 0.16502927 -0.115272686 0.0739645
0.1844279 -0.09746466 -0.11827062 -0.035523728 0.059467435 0.10564018 -0.13238353 -0.018783135
-0.10965033 0.10584586 -0.15815748 0.11951318 -0.05998471 -0.06443598 0.17280929 0.14394899
-0.17131138 0.007982477 0.0023443694 -0.008590339 -0.033609863 0.12542292 -0.035237435 -0.02103378
-0.06889997 0.027526785 0.15244348 -0.04740132 0.051148463 0.017275713 -0.119765125 -0.119063005
-0.10108429 -0.13617137 0.17719428 0.05687783 0.15933315 0.01200028 -0.011170854 -0.052106317
0.047608797 0.041822907 0.063402556 0.16610038 0.029889444 -0.14521924 -0.08604552 0.009923129
00000000: 7b06 c33d 2d3f 4bbe 0ce5 12be ca98 d1bd
00000010: 9d82 e13b c605 353d 1c23 f7bd 2f7b e03d
00000020: 2d07 243e 8cd2 343d e1bd 5d3d 1910 91bd
00000030: 2eb4 2ebe 6ffd 283e 1614 ecbd b37a 973d
00000040: abda 3c3e 8d9b c7bd de37 f2bd 5481 11bd
00000050: 2094 733d e159 d83d 8c8f 07be 17df 99bc
00000060: 5a90 e0bd b7c5 d83d 09f4 21be 53c3 f43d
00000070: 87b2 75bd 03f7 83bd ebf4 303e 5d67 133e
00000080: 406c 2fbe efc8 023c fea3 193b 7ebe 0cbc
00000090: 7faa 09bd de6e 003e 2155 10bd 094f acbc
000000a0: 6d1b 8dbd da7f e13c 251a 1c3e e327 42bd
000000b0: 0d81 513d cc85 8d3c 6b47 f5bd 4ed7 f3bd
000000c0: 4805 cfbd 8270 0bbe 6b72 353e baf8 683d
000000d0: 3b28 233e d39c 443c f505 37bc 6f6d 55bd
000000e0: 7101 433d 7f4e 2b3d 33d9 813d 3816 2a3e
000000f0: b5da f43c 5ab4 14be a238 b0bd 9f94 223c

head.norm.weight f4 [64]
0.93944794 1.2495067 0.6671622 0.87245256 1.0130445 0.8058147 0.6573423 1.037525
0.8082097 0.74013823 1.1413409 0.8863684 1.1894476 0.81652725 1.0221606 1.0448511
0.7894964 0.8350838 1.0949329 1.1329746 0.9799515 1.2391568 0.77993375 0.7244261
1.2260824 1.1285307 0.9948106 0.68907267 0.77208936 0.7355043 0.8609405 0.62079066
0.78183174 0.9013045 1.8252687 1.2973446 1.0700061 1.4455466 1.2038454 0.6208303
0.86449075 0.78757536 0.76823914 1.0661887 1.4096563 1.3973151 1.0693443 0.86695457
0.69523144 0.8363442 0.90988994 0.8923903 0.86314756 0.8251893 0.98684216 1.0399274
0.8180283 0.85587746 1.2993894 0.82307357 1.2263572 1.0139201 0.8402068 0.7936877
00000000: a97f 703f d6ef 9f3f 24cb 2a3f 0d59 5f3f
00000010: 71ab 813f df49 4e3f 9647 283f 9fcd 843f
00000020: d5e6 4e3f b379 3d3f 7517 923f 0ae9 623f
00000030: d23f 983f ee07 513f 29d6 823f aebd 853f
00000040: 701c 4a3f 0dc8 553f c326 8c3f 5005 913f
00000050: 1ade 7a3f b19c 9e3f bda9 473f fd73 393f
00000060: 45f0 9c3f b273 903f e8ab 7e3f 1167 303f
00000070: a6a7 453f 034a 3c3f 9966 5c3f 23ec 1e3f
00000080: 2026 483f e4bb 663f 68a2 e93f 630f a63f
00000090: f6f5 883f ac07 b93f 9b17 9a3f bcee 1e3f
000000a0: 444f 5d3f 8a9e 493f 52ab 443f df78 883f
000000b0: 9e6f b43f 39db b23f 46e0 883f bcf0 5d3f
000000c0: b0fa 313f a71a 563f 8cee 683f b173 643f
000000d0: 3df7 5c3f 9b3f 533f b0a1 7c3f 571c 853f
000000e0: 4d6a 513f c91a 5b3f 6452 a63f f3b4 523f
000000f0: 46f9 9c3f 22c8 813f cb17 573f 1e2f 4b3f

head.norm.bias f4 [64]
-0.25470906 -0.26479164 -0.087381095 -0.3143899 -0.7738556 -0.3018242 -0.056203023 -0.43695822
-0.32914478 -0.17026168 -0.27396435 -0.43594778 -0.07545831 -0.18411289 -0.004788453 -0.594654
-0.32872283 -0.42796627 -0.2751262 -0.5321662 -0.213498 -0.00088436337 -0.22068653 -0.1728422
-0.324829 -0.13187264 -0.4188366 -0.1349945 -0.15268287 -0.20996861 -0.40982628 -0.27886724
-0.11847816 0.026630173 -0.2042666 -0.51363343 -0.25249556 -0.46937406 -0.3991164 -0.10642855
-0.26462665 0.028951406 -0.124741144 -0.5063424 -0.06769973 -0.39650112 -0.30213764 -0.20110373
-0.010112263 -0.09395179 -0.18987586 -0.23897626 -0.32462457 -0.39990303 -0.49345878 -0.29558942
-0.16321956 -0.51180965 -0.31700066 -0.2868463 -0.34770614 -0.3161611 -0.08594354 -0.14436826
00000000: 3a69 82be c592 87be dcf4 b2bd b7f7 a0be
00000010: 671b 46bf b488 9abe 2435 66bd fdb8 dfbe
00000020: aa85 a8be 1459 2ebe 0e45 8cbe 8c34 dfbe
00000030: e389 9abd 1788 3cbe 75e8 9cbb 3f3b 18bf
00000040: 5c4e a8be 651e dbbe 57dd 8cbe 0b3c 08bf
00000050: 389f 5abe 9fd4 67ba a6fb 61be 8cfd 30be
00000060: fd4f a6be 9f09 07be c071 d6be 003c 0abe
00000070: e658 1cbe 0302 57be c0d4 d1be b0c7 8ebe
00000080: ada4 f2bd 8527 da3c 432b 51be 7b7d 03bf
00000090: 1947 81be cc51 f0be fc58 ccbe 36f7 d9bd
000000a0: 257d 87be 802b ed3c 4978 ffbd a89f 01bf
000000b0: 28a6 8abd 3202 cbbe c9b1 9abe 23ee 4dbe
000000c0: e8ad 25bc cc69 c0bd d16e 42be 31b6 74be
000000d0: 3135 a6be 17c0 ccbe a1a6 fcbe 7f57 97be
000000e0: 0723 27be f505 03bf e94d a2be 85dd 92be
000000f0: 8a06 b2be dedf a1be 2b03 b0bd 46d5 13be

head.norm.running_mean f4 [64]
0.40684587 -0.18729705 -0.3347999 -0.11481612 0.06917701 -0.058849685 -0.2748939 0.27327767
0.027675899 0.4301037 0.19722857 -0.01204302 -0.15591043 0.6762729 -0.115504615 0.1811216
-0.0813785 -0.02484489 -0.27365234 0.0692895 0.5531436 -0.026524704 0.25937077 -0.1411643
-0.108169794 -0.042669613 -0.18489496 0.46323803 0.21447118 -0.24362698 -0.090853356 0.07382801
0.1659291 0.21077071 -0.051611096 -0.059410762 0.29462525 0.16902553 0.121068 0.14167935
-0.19734596 -0.13245857 0.037362814 -0.24104758 0.15184094 -0.045005042 -0.31211284 0.34602854
-0.23385449 0.04066419 0.09060054 -0.10010483 -0.098240465 -0.14577003 -0.22382754 -0.10965868
0.20783946 -0.12718824 -0.040125545 0.1831993 0.025893347 -0.20775867 0.09705677 -0.08002313
00000000: 1a4e d03e ccca 3fbe e46a abbe b724 ebbd
00000010: adac 8d3d 5e0c 71bd e5be 8cbe 0deb 8b3e
00000020: 91b8 e23c 8d36 dc3e 49f6 493e 1650 45bc
00000030: fca6 1fbe 3920 2d3f af8d ecbd f177 393e
00000040: c5a9 a6bd 8387 cbbc 291c 8cbe a7e7 8d3d
00000050: d29a 0d3f 564a d9bc 3fcc 843e 608d 10be
00000060: 2088 ddbd 55c6 2ebd 1b55 3dbe 892d ed3e
00000070: 559e 5b3e 5a79 79be 5311 babd 2433 973d
00000080: 51e9 293e 47d4 573e 2866 53bd b358 73bd
00000090: 1fd9 963e 0715 2d3e 80f2 f73d 6414 113e
000000a0: 0f15 4abe 38a3 07be c009 193d 2dd5 76be
000000b0: 317c 1b3e 3557 38bd 41cd 9fbe a72a b13e
000000c0: 8d77 6fbe 7e8f 263d c78c b93d c303 cdbd
000000d0: 4c32 c9bd bd44 15be 0c33 65be bb94 e0bd
000000e0: ded3 543e a23d 02be af5a 24bd 9998 3b3e
000000f0: 491e d43c b0be 54be b3c5 c63d 2be3 a3bd

head.norm.running_var f4 [64]
0.07850198 0.023904983 0.116934374 0.031721916 0.023099026 0.023095112 0.091759086 0.024041047
0.064695165 0.1680015 0.03491759 0.15816694 0.020873869 0.18038854 0.07670736 0.07143552
0.05833854 0.08514235 0.08184526 0.08503657 0.12485297 0.042939797 0.10874025 0.03663049
0.046757944 0.04658135 0.04666365 0.07863127 0.06625861 0.13062064 0.056368556 0.048238598
0.097988285 0.05276876 0.02829723 0.011772564 0.07885834 0.06505904 0.021488734 0.043025758
0.050927844 0.05020283 0.023861766 0.040470805 0.029725682 0.032572705 0.112766266 0.14284392
0.07504533 0.033578902 0.050880633 0.04417332 0.06653343 0.021623362 0.06513202 0.029074075
0.021831414 0.0345039 0.06681708 0.044113263 0.014109141 0.041193094 0.09007345 0.038632046
00000000: a5c5 a03d 62d4 c33c 4a7b ef3d d7ee 013d
00000010: 2b3a bd3c f631 bd3c 30ec bb3d bbf1 c43c
00000020: e67e 843d 9608 2c3e bf05 0f3d 84f6 213e
00000030: adff aa3c c6b7 383e c018 9d3d c94c 923d
00000040: 65f4 6e3d 1d5f ae3d 7d9e a73d a727 ae3d
00000050: eab2 ff3d a4e1 2f3d 35b3 de3d da09 163d
00000060: 4285 3f3d 16cc 3e3d 6222 3f3d 6e09 a13d
00000070: 98b2 873d 6bc1 053e b7e2 663d d695 453d
00000080: 15ae c83d 0e24 583d 98cf e73c b6e1 403c
00000090: 7b80 a13d ad3d 853d 2409 b03c c73b 303d
000000a0: b799 503d 7ca1 4d3d c079 c33c b7c4 253d
000000b0: 4683 f33c f56a 053d 00f2 e63d ad45 123e
000000c0: 5eb1 993d 088a 093d 3668 503d 15ef 343d
000000d0: ae42 883d 7a23 b13c f063 853d c12c ee3c
000000e0: cbd7 b23c f653 0d3d 65d7 883d 1cb0 343d
000000f0: 072a 673c 17ba 283d 6e78 b83d a33c 1e3d

body.block1.conv.weight f4 [64, 64, 3, 3]
-0.00797833 0.050135586 -0.06360337 0.012649604 0.04841605 0.03773444 -0.167242 -0.036244392
0.18504006 0.020160845 0.00962162 0.08434791 0.036086407 -0.032377683 0.33928508 0.22035348
0.29378828 0.33886877 -0.043711055 0.015582472 -0.01412157 -0.034786332 -0.02174225 -0.0987678
0.009144185 -0.030877315 -0.13090917 -0.08878743 -0.058002036 -0.042460427 -0.05612949 -0.063649885
-0.10368731 -0.18860361 -0.018611431 0.0017478251 -0.037845775 0.018533586 -0.1297181 -0.08170084
-0.13067032 -0.1601226 -0.084287345 -0.06899528 -0.022270907 -0.018958643 -0.091114245 -0.13052927
-0.033341967 -0.004021862 0.020486038 -0.17626819 -0.067509465 -0.099048056 -0.036785204 -0.026108706
-0.022968844 0.016223308 -0.052577294 -0.009700272 -0.04304772 -0.011145074 0.030098781 0.01567842
-0.094447665 -0.118781306 -0.15256321 -0.02084383 0.055944007 -0.20818949 0.2641688 0.1985186
-0.00042299507 -0.072384365 -0.10954357 -0.024895053 0.07163102 0.04796224 0.045345303 0.046530433
0.096225515 0.017294386 0.013663254 -0.02896083 -0.011240563 -0.0061195083 0.017278103 0.049092147
0.09458339 0.052079655 0.19062614 0.26083574 0.15122044 0.12792163 0.06368071 -0.11715293
0.046951395 0.17295967 -0.013485256 -0.101437576 -0.015934868 -0.05373678 -0.02962402 -0.06543583
-0.007668959 -0.053912234 -0.08681852 -0.08947731 -0.056738835 0.016083868 -0.0023479254 0.0034853518
0.06750485 0.10262205 0.1410424 -0.11308539 -0.031992637 -0.0004005318 0.01853192 -0.05430341
0.08331195 0.039657205 0.067035325 0.1031718 0.11090205 -0.046330474 0.043487456 0.11745449
0.010669324 0.031155113 0.0030870358 -0.1355673 0.05984735 -0.21716572 -0.2713998 -0.090051845
0.043326356 -0.13066693 -0.10755756 -0.15327124 -0.18785311 -0.16737622 -0.13929644 -0.11582555
-0.081791095 -0.07356369 0.021355256 -0.038833827 -0.04853712 0.009245957 -0.15330541 -0.17622317
-0.08107245 -0.07387566 -0.068579026 -0.050541565 -0.036625825 -0.07147382 -0.04011898 -0.052477695
-0.069953404 -0.08622151 -0.14338036 -0.03958842 0.035307735 0.016483333 0.11458245 0.25774917
-0.067506574 -0.11508366 0.02046718 -0.09661148 -0.11289963 0.005566785 0.16002233 0.06605159
-0.09512749 -0.09565762 -0.08831081 -0.11621506 0.03333406 0.10011905 0.0057271193 -0.0054171775
-0.0024687431 0.012021079 0.14579318 0.10012311 0.10441431 -0.19891156 -0.0144900605 0.023632288
0.113609105 0.050214533 0.11053205 0.08077362 -0.1328758 -0.08280318 0.056920815 -0.024117075
-0.20722055 -0.05308784 -0.0956195 0.0034687906 0.04072945 0.1753518 0.06772017 0.022776144
-0.040578064 -0.11819569 -0.09489549 -0.030760143 0.005780631 0.06309002 0.14687906 0.049334064
-0.05789988 -0.10022638 -0.27203056 -0.050788525 -0.032584704 -0.106608495 -0.028138336 0.049660843
-0.16282344 0.18209007 0.12595606 0.15617399 -0.054746527 0.033281922 -0.23183845 -0.15390018
-0.16741024 0.09244682 0.011594916 -0.053974885 -0.05416688 -0.04687534 -0.047204714 -0.08864765
0.053992223 -0.012919518 -0.10413831 -0.007857625 0.06165029 -0.030120043 0.033047933 0.07622282
0.026176771 0.075488724 0.16578831 0.08558723 0.06797362 0.06777977 -0.123384096 0.041048825
00000000: 8bb7 02bc f95a 4d3d 7c42 82bd 4940 4f3c
00000010: e84f 463d 6e8f 1a3d 7d41 2bbe 0075 14bd
00000020: 247b 3d3e 5b28 a53c 00a4 1d3c 99be ac3d
00000030: 57cf 133d 769e 04bd c6b6 ad3e 58a4 613e
00000040: 6b6b 963e 3580 ad3e 5d0a 33bd a04d 7f3c
00000050: 285e 67bc 1d7c 0ebd ce1c b2bc c646 cabd
00000060: 7ed1 153c 6cf2 fcbc 0e0d 06be 2fd6 b5bd
00000070: 8b93 6dbd fcea 2dbd 09e8 65bd df5a 82bd
00000080: 035a d4bd 4e21 41be 0077 98bc 4717 e53a
00000090: 2c04 1bbd bfd3 973c d2d4 04be c552 a7bd
000000a0: 71ce 05be 2ef7 23be d89e acbd 664d 8dbd
000000b0: 7a71 b6bc 284f 9bbc 1b9a babd 77a9 05be
000000c0: 9691 08bd d3c9 83bb 56d2 a73c a67f 34be
000000d0: 6742 8abd b5d9 cabd 15ac 16bd ede1 d5bc
000000e0: 2829 bcbc bee6 843c 4a5b 57bd e4ed 1ebc
000000f0: ce52 30bd d499 36bc b891 f63c 0870 803c
00000100: c76d c1bd 9d43 f3bd 8839 1cbe aec0 aabc
00000110: 8b25 653d a02f 55be 2241 873e 7648 4b3e
00000120: 70c5 ddb9 413e 94bd 6158 e0bd b6f0 cbbc
00000130: 49b3 923d 0e74 443d ffbb 393d b296 3e3d
00000140: e211 c53d f5ac 8d3c d7db 5f3c 433f edbc
00000150: 572a 38bc 2886 c8bb cf8a 8d3c d914 493d
00000160: f0b4 c13d 7a51 553d 8033 433e 438c 853e
00000170: 88d9 1a3e e3fd 023e 086b 823d e0ed efbd
00000180: 1b50 403d 571c 313e 43f1 5cbc 81be cfbd
00000190: d789 82bc 191b 5cbd 13ae f2bc 3803 86bd
000001a0: e44b fbbb 13d3 5cbd e9cd b1bd e13f b7bd
000001b0: fb66 68bd 51c2 833c a7df 19bb 806a 643b
000001c0: fc3f 8a3d 822b d23d 6b6d 103e 5099 e7bd
000001d0: b60a 03bd 78fe d1b9 41d0 973c 416d 5ebd
000001e0: 759f aa3d 986f 223d d149 893d bd4b d33d
000001f0: 9d20 e33d 06c5 3dbd e71f 323d fb8b f03d
00000200: 63ce 2e3c 0239 ff3c de4f 4a3b 27d2 0abe
00000210: 7f22 753d b160 5ebe eaf4 8abe 1a6d b8bd
00000220: fa76 313d 8dcd 05be 2347 dcbd 23f3 1cbe
00000230: 915c 40be ac64 2bbe baa3 0ebe f235 edbd
00000240: 1782 a7bd 8fa8 96bd 38f1 ae3c 3810 1fbd
00000250: dcce 46bd 5b7c 173c 18fc 1cbe d973 34be
00000260: 5009 a6bd 1f4c 97bd 2973 8cbd ac04 4fbd
00000270: f604 16bd de60 92bd cd53 24bd daf2 56bd
00000280: bb43 8fbd e794 b0bd 4dd2 12be 7827 22bd
00000290: d89e 103d 0e08 873c 34aa ea3d b3f7 833e
000002a0: e340 8abd fbb0 ebbd caaa a73c 3ddc c5bd
000002b0: ec37 e7bd 9469 b63b e5dc 233e 0e46 873d
000002c0: 34d2 c2bd 24e8 c3bd 4cdc b4bd 2902 eebd
000002d0: 4c89 083d 370b cd3d 8faa bb3b 9482 b1bb
000002e0: a3ca 21bb 0ff4 443c cf4a 153e 580d cd3d
000002f0: 2bd7 d53d 79af 4bbe b867 6dbc 8098 c13c
00000300: e4ab e83d c1ad 4d3d a15e e23d a46c a53d
00000310: 9810 08be b794 a9bd cd25 693d 2c91 c5bc
00000320: a031 54be a372 59bd 28d4 c3bd a654 633b
00000330: ecd3 263d 6c8f 333e dfb0 8a3d 0995 ba3c
00000340: 2f35 26bd 9510 f2bd 9158 c2bd b2fc fbbc
00000350: 736b bd3b 5735 813d 7767 163e 8412 4a3d
00000360: 6d28 6dbd 7d43 cdbd 9747 8bbe a107 50bd
00000370: 8a77 05bd 8e55 dabd 5e82 e6bc 2b69 4b3d
00000380: 30bb 26be d275 3a3e a0fa 003e 13ec 1f3e
00000390: e53d 60bd a052 083d 0f67 6dbe 0298 1dbe
000003a0: 976d 2bbe c254 bd3d 9af8 3d3c c514 5dbd
000003b0: 17de 5dbd 5b00 40bd bb59 41bd e68c b5bd
000003c0: f326 5d3d 63ac 53bc 7746 d5bd 45bd 00bc
000003d0: 0485 7c3d 4fbe f6bc 455d 073d b61a 9c3d
000003e0: ab70 d63c d599 9a3d 69c4 293e 5c48 af3d
000003f0: c135 8b3d 1fd0 8a3d cdb0 fcbd d022 283d

body.block1.conv.bias f4 [64]
-6.196771e-05 0.0062757893 0.02091127 -0.0050457506 0.01536535 -0.03637897 -0.006057183 -0.03193344
-0.035479132 0.0099648805 -0.037127085 -0.01810977 -0.042678975 -0.016845139 0.021659797 -0.010905144
-0.0177496 0.0022252828 -0.023343474 -0.009588701 -0.012150251 0.030402878 0.023441719 -0.03780314
0.011964913 0.004020857 0.015088365 0.0020155513 0.0044056457 0.02916706 -0.02157005 -0.03735665
-0.00017106289 0.030218923 0.033985008 0.03941001 -0.001398002 0.012931545 0.009467234 0.018245947
0.00016676942 -0.016227841 0.034110464 0.02284667 -0.0037182623 0.041212622 0.014484978 0.024292445
0.029749049 -0.03724932 0.011903568 -0.01588513 0.015155605 -0.023321373 0.009922279 0.004899244
0.033967033 -0.035241656 -0.030598095 -0.02748852 -0.020417571 -0.0311636 -0.031902432 0.036156803
00000000: a9f4 81b8 23a5 cd3b 1d4e ab3c d356 a5bb
00000010: f3be 7b3c 1d02 15bd 557b c6bb a4cc 02bd
00000020: 9152 11bd bd43 233c 9212 18bd f15a 94bc
00000030: 26d0 2ebd d1fe 89bc e36f b13c 7dab 32bc
00000040: 9c67 91bc 0dd6 113b d03a bfbc ed19 1dbc
00000050: d911 47bc 750f f93c d908 c03c 77d7 1abd
00000060: 7c08 443c 65c1 833b 3135 773c 5717 043b
00000070: 3c5d 903b c2ef ee3c acb3 b0bc 4903 19bd
00000080: 585f 33b9 ad8d f73c dd33 0b3d 646c 213d
00000090: 2a3d b7ba d5de 533c 751c 1b3c 8678 953c
000000a0: d3de 2e39 40f0 84bc 6ab7 0b3d f128 bb3c
000000b0: 17ae 73bb 91ce 283d 6752 6d3c f300 c73c
000000c0: 47b4 f33c be92 18bd 2f07 433c 8821 82bc
000000d0: 374f 783c 770c bfbc 0e91 223c d689 a03b
000000e0: 0421 0b3d 8e59 10bd dba8 fabc 9b2f e1bc
000000f0: c042 a7bc ce4a ffbc 20ac 02bd 2819 143d

body.block1.norm.weight f4 [64]
0.9703607 1.3592411 0.7241473 1.1817241 0.8742217 0.72444826 1.2789562 0.7282086
0.7863568 1.1383477 0.7746693 1.1945735 0.8397453 1.1028606 1.1875821 0.972101
0.9847661 0.7319063 0.6710255 0.67393345 1.2453883 0.92833716 1.2523296 1.0943832
0.98761815 0.7644832 0.53331274 1.1317862 1.1507258 1.1643584 0.882092 1.1249795
1.4189392 0.9049982 1.0099536 0.76498646 0.64189976 0.8180042 1.00077 0.74238443
0.8312814 1.029621 1.1618745 0.7765315 1.2662984 0.7331754 1.2570549 0.92018926
1.0693614 1.0201255 0.6219691 1.036338 1.0124336 1.1903985 0.6335936 0.76987875
1.5852354 0.7557694 1.2943368 1.3830869 0.97483903 0.7408337 1.1560886 1.0380316
00000000: 8f69 783f 9dfb ad3f b861 393f bc42 973f
00000010: fecc 5f3f 7175 393f d6b4 a33f e16b 3a3f
00000020: ae4e 493f 61b5 913f ba50 463f c9e7 983f
00000030: 8cf9 563f 892a 8d3f b102 983f 9cdb 783f
00000040: a219 7c3f 365e 3b3f 54c8 2b3f e786 2c3f
00000050: e268 9f3f 81a7 6d3f 564c a03f c014 8c3f
00000060: 8bd4 7c3f 2cb5 433f 2f87 083f 5fde 903f
00000070: fc4a 933f b209 953f c8d0 613f 54ff 8f3f
00000080: cd9f b53f f6ad 673f 2946 813f 27d6 433f
00000090: 8b53 243f b968 513f 3b19 803f e80c 3e3f
000000a0: dcce 543f 9fca 833f 4eb8 943f c5ca 463f
000000b0: 1116 a23f 62b1 3b3f 2de7 a03f 8691 6b3f
000000c0: d6e0 883f 7993 823f 5e39 1f3f b9a6 843f
000000d0: 6d97 813f fa5e 983f 3133 223f c616 453f
000000e0: fee8 ca3f 1a7a 413f d4ac a53f fe08 b13f
000000f0: 0d8f 793f 47a7 3d3f b6fa 933f 38de 843f

body.block1.norm.bias f4 [64]
-0.19022806 0.11231622 -0.43976724 -0.101535626 -0.7516109 -0.5836724 -0.4124681 -0.49556586
-0.32359698 -0.115800455 -0.3335963 -0.4391152 -0.53749377 -0.6527092 -0.2695788 -0.103717275
-0.4359662 -0.45809358 -0.19169089 -0.29131842 -0.11131037 -0.120195135 -0.056830965 -0.5884485
0.15173326 -0.590797 -0.26421738 -0.3142791 -0.3427527 -0.51273423 -0.352862 -0.40068635
-0.027865818 -0.5662356 -0.31961432 -0.6080513 -0.32246774 -0.2295187 -0.2983461 -0.6279048
-0.49806896 -0.3903463 -0.4156059 -0.4518736 -0.2721134 -0.7484402 -0.2767194 -0.65882564
-0.31425318 -0.34703758 -0.5317416 -0.2660039 -0.3389577 -0.28343794 -0.22569452 -0.9005599
-0.40501207 -0.41489884 -0.35946113 -0.32381374 -0.23151848 -0.19957876 -0.21768975 -0.2504503
00000000: 25cb 42be 0c06 e63d 2c29 e1be e9f1 cfbd
00000010: 9269 40bf 8e6b 15bf 052f d3be cfba fdbe
00000020: 81ae a5be ca28 edbd 22cd aabe b5d3 e0be
00000030: 3199 09bf f317 27bf 3c06 8abe b969 d4bd
00000040: f636 dfbe 3e8b eabe 9e4a 44be b027 95be
00000050: b1f6 e3bd de28 f6bd 96c7 68bd 90a4 16bf
00000060: f75f 1b3e 793e 17bf 8047 87be 31e9 a0be
00000070: 487d afbe 8d42 03bf 54aa b4be c326 cdbe
00000080: db46 e4bc d1f4 10bf 7da4 a3be 40a9 1bbf
00000090: 7e1a a5be f306 6bbe d2c0 98be 5ebe 20bf
000000a0: e502 ffbe 78db c7be 4cca d4be fa5b e7be
000000b0: 7352 8bbe c799 3fbf 2aae 8dbe cca8 28bf
000000c0: cbe5 a0be e9ae b1be 3820 08bf aa31 88be
000000d0: dd8b adbe c71e 91be 771c 67be 188b 66bf
000000e0: be5d cfbe 9f6d d4be 4a0b b8be eaca a5be
000000f0: 2e13 6dbe 605e 4cbe 10ea 5ebe 063b 80be

body.block1.norm.running_mean f4 [64]
-0.98059875 1.2091113 -0.77748317 1.3824111 3.3790042 -1.4256147 0.9804928 0.52954155
3.4943395 2.348598 3.9447627 1.8641272 2.222881 2.837941 -2.5458305 -1.3518945
-4.1282506 -1.0557443 -1.8818367 -0.622749 -3.6096063 0.9724079 -1.0327648 1.8459141
0.66555107 0.40734786 -0.5844003 0.090062015 -1.7227967 0.7016121 -3.1288176 -3.0946774
-3.114408 3.2046423 -2.3381562 -0.8450124 2.0007298 5.625727 -3.8992562 -0.010330214
-1.9589648 0.82092535 2.5529604 2.4164863 -2.7870834 3.2524328 0.42451644 1.9409064
4.9400244 0.009536712 -0.08197132 -1.6792228 -0.9285794 -5.36823 -1.0466671 0.017308546
-2.8222547 -2.918185 -0.37941447 -2.4202833 -0.41978285 -1.5994557 -0.9675179 -0.014355766
00000000: 8508 7bbf 29c4 9a3f 2309 47bf d9f2 b03f
00000010: 9b41 5840 8b7a b6bf 9301 7b3f 0990 073f
00000020: 42a3 5f40 6e4f 1640 fe76 7c40 b89b ee3f
00000030: af43 0e40 d3a0 3540 e3ee 22c0 e10a adbf
00000040: a11a 84c0 a122 87bf 06e0 f0bf 7a6c 1fbf
00000050: ca03 67c0 b9ef 783f a331 84bf ea46 ec3f
00000060: 8e61 2a3f e68f d03e 429b 15bf 6f72 b83d
00000070: 9a84 dcbf da9c 333f 8c3e 48c0 320f 46c0
00000080: 7652 47c0 dc18 4d40 5aa4 15c0 bc52 58bf
00000090: f50b 0040 f505 b440 6a8d 79c0 0f40 29bc
000000a0: 5cbf fabf 2a28 523f b463 2340 b6a7 1a40
000000b0: 935f 32c0 dc27 5040 385a d93e 9f6f f83f
000000c0: ae14 9e40 df3f 1c3c 94e0 a7bd c6f0 d6bf
000000d0: 61b7 6dbf 8ac8 abc0 30f9 85bf a7ca 8d3c
000000e0: d29f 34c0 8bc3 3ac0 9d42 c2be ece5 1ac0
000000f0: c7ed d6be f7ba ccbf 41af 77bf 7234 6bbc

body.block1.norm.running_var f4 [64]
14.056965 10.092279 9.8804865 14.77454 8.925306 9.540929 8.547761 5.922201
12.0641165 14.027685 17.31089 12.775895 18.5653 7.729299 19.245422 11.593763
16.845934 50.41931 23.515196 8.177882 13.769694 21.515661 11.592362 4.6239605
26.05557 41.66685 26.41656 12.783961 10.278373 22.04305 22.466595 11.842913
9.600465 9.5704975 9.430113 20.874434 11.616617 15.027033 11.330417 8.120122
19.382984 7.3458843 8.9081335 10.867973 12.062344 10.641464 10.7776 6.9599004
22.800426 8.273553 31.4464 4.711211 10.896666 22.203295 17.337114 10.964727
5.3152595 30.041105 5.4561067 6.152808 12.603266 10.111691 11.024736 12.2352085
00000000: 54e9 6041 fa79 2141 7916 1e41 8464 6c41
00000010: 0ece 0e41 a5a7 1841 a1c3 0841 ac82 bd40
00000020: 9f06 4141 6671 6041 b47c 8a41 116a 4c41
00000030: bc85 9441 6b56 f740 a0f6 9941 0e80 3941
00000040: 79c4 8641 60ad 4942 1f1f bc41 9bd8 0241
00000050: ab50 5c41 1320 ac41 517a 3941 7cf7 9340
00000060: cf71 d041 dbaa 2642 1d55 d341 1b8b 4c41
00000070: 3774 2441 2b58 b041 96bb b341 927c 3d41
00000080: 819b 1941 c220 1941 bee1 1641 d7fe a641
00000090: aadd 3941 ba6e 7041 6349 3541 05ec 0141
000000a0: 5a10 9b41 7c11 eb40 b787 0e41 38e3 2d41
000000b0: 5cff 4041 7043 2a41 0d71 2c41 81b7 de40
000000c0: 4667 b641 7960 0441 3a92 fb41 3ec2 9640
000000d0: be58 2e41 59a0 b141 69b2 8a41 866f 2f41
000000e0: 9b16 aa40 2f54 f041 6d98 ae40 cee3 c440
000000f0: faa6 4941 7dc9 2141 5265 3041 6ac3 4341

body.block2.conv.weight f4 [64, 64, 3, 3]
-0.026321735 0.26462364 0.15844667 0.09304038 0.027757188 0.01141551 -0.0031576732 0.10705567
0.19116618 -0.21893328 -0.20019124 -0.30528498 0.10046041 -0.009076092 -0.034928698 -0.023990743
0.05035877 0.2863281 -0.012686731 -0.03210471 -0.038423177 -0.03830292 -0.023255756 -0.033382513
0.006002898 0.00035562043 0.012100042 0.36765358 0.27173662 0.27831694 0.059879243 0.061963573
0.13995788 0.0332926 0.124639384 0.29940936 -0.019790927 -0.008637794 0.019791892 0.07273509
0.075274356 -0.07921493 -0.019558748 0.009171846 -0.14585851 -0.060415357 0.030403648 0.012165118
0.114366464 0.09541665 0.039144453 0.16486497 0.11513658 0.11224777 0.17105854 -0.28135645
-0.16473986 -0.018208275 -0.17771327 -0.02268316 0.1509594 0.011472428 0.05581017 -0.07968965
-0.054880165 -0.0126729 -0.05981285 -0.03086203 -0.0073131197 -0.08781145 -0.025617179 -0.01137058
-0.043004222 -0.02180232 -0.007759395 -0.055698153 -0.1356275 -0.091711774 -0.013872055 -0.040235177
-0.049745187 -0.048213758 -0.014763175 0.07261814 -0.14826435 0.036211632 0.22831267 -0.0062368093
0.049770515 0.038175393 -0.09923922 -0.06449873 -0.056629132 -0.024048045 -0.11538327 -0.13292007
-0.11800598 -0.14689519 -0.06270047 0.04635437 0.011001638 -0.038676944 0.019721324 0.05830615
0.17625622 -0.102185905 -0.0011018214 0.17144692 -0.041974716 -0.050635144 -0.042413488 0.009731545
-0.004536331 0.017542336 -0.04882383 -0.11103049 -0.11952265 -0.09660296 -0.1530983 -0.2603514
-0.04532252 -0.01016955 0.03638161 0.24661265 -0.109342724 -0.08720846 -0.0047358642 0.18502106
0.11794639 0.19609393 0.30602536 0.24119185 0.06589949 0.0046477583 0.18546177 0.08957362
-0.009589763 -0.1528003 0.044436026 -0.0911919 -0.1370683 0.09836398 0.0046081054 0.062189173
-0.18546596 -0.01844563 -0.03479014 0.11567907 0.048264824 -0.099447966 -0.07985264 -0.17545873
-0.08686045 0.09091572 0.060391523 0.098483965 0.058906257 0.035402335 0.0611543 0.114109226
0.046247657 0.06568582 -0.06543726 -0.022863248 -0.12693407 -0.026252994 0.013683556 -0.042020436
-0.043533124 -0.02085358 0.1241784 -0.003719348 -0.048719674 -0.09217099 -0.053974282 -0.11493812
-0.13503139 -0.123640135 -0.020450002 0.09071837 -0.11631551 -0.07110696 0.08539012 0.02666867
-0.08054771 -0.13823773 0.07674261 0.12927379 -0.12829924 -0.016906539 -0.0078489445 0.08751638
0.042427454 0.1187968 0.07558601 -0.010943836 0.06929295 0.038815625 0.056589175 0.003969782
-0.139723 -0.070022255 0.022602474 0.14112109 -0.013888589 0.04377339 -0.025542261 -0.093528636
-0.016907396 0.09016746 0.28418142 0.12165177 0.112403385 -0.34147003 -0.41573384 -0.40741304
-0.09779774 -0.28359747 -0.12752439 -0.0505005 0.089293286 0.14262027 0.013256152 0.08023532
0.20815533 0.034533866 0.054529246 0.046039857 0.02852886 0.053826187 0.043938063 0.107997544
0.0681561 0.072924905 -0.036951054 -0.031561695 0.0004450799 0.007926173 -0.05253499 -0.00017733808
0.040128272 0.0045398977 0.04067067 -0.026476612 -0.071951985 -0.20061357 -0.13652551 -0.06706779
-0.03348006 -0.1873996 -0.09789391 -0.070100375 0.13993257 -0.12780185 -0.15945622 0.059159666
00000000: aea0 d7bc c07c 873e d83f 223e f48b be3d
00000010: 0b63 e33c 1f08 3b3c f7f0 4ebb 0140 db3d
00000020: 11c1 433e 0c30 60be effe 4cbe 504e 9cbe
00000030: 30be cd3d e4b3 14bc 6511 0fbd 3c88 c4bc
00000040: ff44 4e3d 9999 923e 02dc 4fbc 3a80 03bd
00000050: 9f61 1dbd 86e3 1cbd db82 bebc 1abc 08bd
00000060: f5b3 c43b 9172 ba39 413f 463c 173d bc3e
00000070: 1021 8b3e 8f7f 8e3e f043 753d 84cd 7d3d
00000080: 1e51 0f3e d25d 083d ef42 ff3d 2f4c 993e
00000090: 9520 a2bc 8985 0dbc 9b22 a23c 23f6 943d
000000a0: 7129 9a3d 703b a2bd ab39 a0bc 8345 163c
000000b0: ef5b 15be 1876 77bd 1211 f93c 3450 473c
000000c0: f738 ea3d ce69 c33d ef55 203d 5dd2 283e
000000d0: bacc eb3d 29e2 e53d f829 2f3e f40d 90be
000000e0: 91b1 28be 8529 95bc 78fa 35be 09d2 b9bc
000000f0: 1a95 1a3e daf6 3b3c 3499 643d 5434 a3bd
00000100: 06ca 60bd ffa1 4fbc 52fe 74bd 5ed2 fcbc
00000110: e5a2 efbb 7dd6 b3bd 1edb d1bc ab4b 3abc
00000120: 3225 30bd c79a b2bc 8642 febb bf23 64bd
00000130: efe1 0abe 62d3 bbbd 9e47 63bc a4cd 24bd
00000140: 9cc1 4bbd ca7b 45bd 3ee1 71bc d2b8 943d
00000150: 9cd2 17be a652 143d ccca 693e 265e ccbb
00000160: 2bdc 4b3d cd5d 1c3d ef3d cbbd e917 84bd
00000170: f3f3 67bd 6800 c5bc 104e ecbd 331c 08be
00000180: 1fad f1bd b16b 16be 1b69 80bd 14de 3d3d
00000190: 3740 343c b76b 1ebd 9d8e a13c 6ed2 6e3d
000001a0: 837c 343e d846 d1bd fe6a 90ba c88f 2f3e
000001b0: aeed 2bbd cc66 4fbd c4b9 2dbd 0f71 1f3c
000001c0: 81a5 94bb f2b4 8f3c 7ffb 47bd f463 e3bd
000001d0: 4bc8 f4bd c6d7 c5bd cdc5 1cbe c74c 85be
000001e0: 1ba4 39bd 2f9e 26bc e204 153d 0788 7c3e
000001f0: 14ef dfbd 599a b2bd 4f2f 9bbb 2976 3d3e
00000200: e08d f13d d9cc 483e 5baf 9c3e fffa 763e
00000210: 50f6 863d 394c 983b b1e9 3d3e 6072 b73d
00000220: 621e 1dbc af77 1cbe 8d02 363d d2c2 babd
00000230: a25b 0cbe 0e73 c93d 97ff 963b 13ba 7e3d
00000240: caea 3dbe 4a1b 97bc 1b80 0ebd 26e9 ec3d
00000250: 56b1 453d 60ab cbbd c889 a3bd 74ab 33be
00000260: e4e3 b1bd 0532 ba3d 1a5d 773d f6b1 c93d
00000270: b047 713d 0a02 113d ee7c 7a3d 19b2 e93d
00000280: 2f6e 3d3d 4a86 863d f803 86bd b54b bbbc
00000290: 01fb 01be 8510 d7bc fe30 603c 9f1d 2cbd
000002a0: ca4f 32bd 21d5 aabc 3f51 fe3d 4ec0 73bb
000002b0: 488e 47bd 25c4 bcbd 2314 5dbd ad64 ebbd
000002c0: ab45 0abe 0a37 fdbd c386 a7bc 8eca b93d
000002d0: d336 eebd 87a0 91bd 04e1 ae3d 4178 da3c
000002e0: 33f6 a4bd 318e 0dbe 3b2b 9d3d 5960 043e
000002f0: e060 03be 957f 8abc dc98 00bc ca3b b33d
00000300: 69c8 2d3d bd4b f33d d7cc 9a3d c64d 33bc
00000310: 76e9 8d3d 22fd 1e3d 0dca 673d f214 823b
00000320: 8c13 0fbe d467 8fbd d328 b93c 0c82 103e
00000330: f78c 63bc ba4b 333d 013e d1bc f18b bfbd
00000340: 6181 8abc b8a9 b83d 3a80 913e 9024 f93d
00000350: bf33 e63d 29d5 aebe 11db d4be 7198 d0be
00000360: 2e4a c8bd b033 91be c195 02be 9dd9 4ebd
00000370: 66df b63d 0c0b 123e 5530 593c 6a52 a43d
00000380: ac26 553e 6273 0d3d 0f5a 5f3d 4a94 3c3d
00000390: 5bb5 e93c d978 5c3d 66f8 333d d12d dd3d
000003a0: 6d95 8b3d a759 953d fd59 17bd d646 01bd
000003b0: 9d59 e939 c7dc 013c ee2e 57bd d4f3 39b9
000003c0: 8b5d 243d 6cc3 943b 4a96 263d 7be5 d8bc
000003d0: 905b 93bd a56d 4dbe 58cd 0bbe d65a 89bd
000003e0: 6322 09bd aee5 3fbe 9a7c c8bd c990 8fbd
000003f0: 7c4a 0f3e 7dde 02be 7e48 23be 6851 723d

body.block2.conv.bias f4 [64]
0.036835823 -0.0051579615 -0.00029823295 0.037717845 0.023409992 -0.0041450523 0.038000677 -0.030492928
-0.010307334 0.019512333 -0.02971675 0.029400751 -0.03295619 0.018900778 0.030322203 0.0027577928
-0.026171153 0.03097164 0.034745127 -0.023364417 -0.01784265 0.004229145 0.017860876 -0.038919404
0.015771743 -0.014555411 0.022733461 -0.00078806933 -0.031060413 -0.016411306 -0.024868099 0.029239489
0.0048816283 0.012344442 -0.0025057066 0.03375683 -0.03661264 -0.040359493 -0.0027038595 -0.010287349
-0.012744044 -0.010764448 0.023464527 -0.024261693 0.034572147 0.021689046 0.040254325 -0.009826726
0.0019101853 0.027943008 -0.03452598 -0.01171771 -0.002188769 0.014573603 -0.007932005 0.0057908916
-0.0024119825 0.002549794 -0.017693702 0.03701765 -0.03611885 0.035219286 -0.01592445 -0.008845842
00000000: 29e1 163d 1e04 a9bb 265c 9cb9 077e 1a3d
00000010: 50c6 bf3c 38d3 87bb 99a6 1b3d 4ecc f9bc
00000020: 18e0 28bc 54d8 9f3c 8b70 f3bc d8d9 f03c
00000030: 12fd 06bd ced5 9a3c 4566 f83c 16bc 343b
00000040: e364 d6bc 3db8 fd3c e850 0e3d bc66 bfbc
00000050: c02a 92bc a494 8a3b f950 923c f469 1fbd
00000060: be33 813c d279 6ebc 863b ba3c 7096 4eba
00000070: 6872 febc 0171 86bc 2fb8 cbbc a787 ef3c
00000080: 11f6 9f3b 5840 4a3c c836 24bb 9a44 0a3d
00000090: 23f7 15bd ff4f 25bd 3c33 31bb 458c 28bc
000000a0: 65cc 50bc 5e5d 30bc ae38 c03c 75c0 c6bc
000000b0: 869b 0d3d 3aad b13c b8e1 243d 4700 21bc
000000c0: 2f5f fa3a bce8 e43c 1d6b 0dbd a3fb 3fbc
000000d0: 7371 0fbb 1fc6 6e3c 3ef5 01bc 85c1 bd3b
000000e0: 5a12 1ebb 721a 273b 62f2 90bc d29f 173d
000000f0: 5cf1 13bd 1942 103d fe73 82bc 27ee 10bc

body.block2.norm.weight f4 [64]
1.1195337 0.79870874 0.65039504 0.89690614 0.6312053 0.76751673 0.6838058 1.2486917
0.66066086 0.8478502 0.6625891 0.69332016 1.1923898 0.86172515 1.2103788 0.92506844
1.1428411 0.72045213 1.1372391 0.80198586 1.1527773 1.1399744 1.1418886 1.097748
1.1099261 0.98018193 1.0012268 0.9301964 1.0163931 0.69985455 1.1452647 1.2321955
0.87022835 0.8894079 1.1098536 0.8603871 0.68764836 1.0853742 1.2134033 1.0082841
0.77008903 1.3002574 1.2603989 1.1919405 1.2278451 0.94312537 0.6494731 1.0612016
1.1147146 0.95942926 1.2882206 1.1274991 1.1200073 0.6243204 0.92531884 1.3395636
0.62912166 0.65721285 1.2506479 1.1462219 1.2247354 0.736848 0.88392156 0.7064416
00000000: e14c 8f3f 2d78 4c3f 4a80 263f a49b 653f
00000010: ac96 213f fa7b 443f e60d 2f3f 21d5 9f3f
00000020: 1221 293f b60c 593f 709f 293f 6e7d 313f
00000030: 3ba0 983f 059a 5c3f b1ed 9a3f 49d1 6c3f
00000040: 9e48 923f 8d6f 383f 0d91 913f f24e 4d3f
00000050: 358e 933f aeea 913f 6829 923f 0283 8c3f
00000060: 0f12 8e3f 34ed 7a3f 3328 803f 5a21 6e3f
00000070: 2b19 823f ab29 333f 0998 923f 95b8 9d3f
00000080: 49c7 5e3f 3cb0 633f af0f 8e3f 5442 5c3f
00000090: b909 303f 8bed 8a3f cd50 9b3f 740f 813f
000000a0: 8e24 453f d66e a63f c054 a13f 8291 983f
000000b0: 072a 9d3f aa70 713f de43 263f 74d5 873f
000000c0: f8ae 8e3f 289d 753f 6ae4 a43f e451 903f
000000d0: 665c 8f3f 76d3 1f3f b2e1 6c3f d276 ab3f
000000e0: 1e0e 213f 1a3f 283f 3b15 a03f 66b7 923f
000000f0: 21c4 9c3f 12a2 3c3f af48 623f 5bd9 343f

body.block2.norm.bias f4 [64]
-0.19642729 -0.5932294 -0.791275 -0.17337692 -0.6462799 -0.45735443 -0.5057674 -0.19342603
-0.644516 -0.134537 -0.66624814 -0.51608354 -0.07471393 -0.31323853 -0.26104778 -0.6155736
-0.33389086 -0.509835 -0.69591635 -0.26520187 -0.0699526 -0.088607654 -0.038500335 -0.6176629
-0.11915978 -0.14552167 -0.45769125 -0.50551915 -0.7003266 -0.43201986 -0.057105444 -0.44110852
-0.25396228 -0.44583765 -0.23929065 -0.3611379 -0.620355 0.015623929 -0.056916047 -0.34984452
-0.49036202 -0.09500709 -0.14677507 -0.17647533 -0.19048513 -0.72685397 -0.5086244 -0.3987532
-0.033117205 -0.4266796 -0.43128428 -0.14855705 -0.5185389 -0.558512 -0.78969276 -0.1751934
-0.6308186 -0.57262003 -0.4366508 -0.12267456 -0.2034006 -0.5553585 -0.5179627 -0.523756
00000000: 3c24 49be e2dd 17bf 0091 4abf b889 31be
00000010: 9972 25bf 5c2a eabe f979 01bf 7911 46be
00000020: 00ff 24bf 11c4 09be 3d8f 2abf 0d1e 04bf
00000030: 9e03 99bd cd60 a0be 0ea8 85be 3b96 1dbf
00000040: bef3 aabe 8c84 02bf 9327 32bf 8ac8 87be
00000050: 4f43 8fbd ee77 b5bd 87b2 1dbd 281f 1ebf
00000060: 0b0a f4bd a203 15be 8256 eabe b469 01bf
00000070: 9b48 33bf b531 ddbe 66e7 69bd fad8 e1be
00000080: 5807 82be d544 e4be 9c08 75be 11e7 b8be
00000090: 96cf 1ebf 82fb 7f3c cd20 69bd d21e b3be
000000a0: bb10 fbbe 1493 c2bd 344c 16be f3b5 34be
000000b0: 890e 43be 1a13 3abf 3535 02bf 6129 ccbe
000000c0: e8a5 07bd c075 dabe 4bd1 dcbe 571f 18be
000000d0: f7be 04bf a4fa 0ebf 4e29 4abf e665 33be
000000e0: 547d 21bf 3a97 12bf b290 dfbe cd3c fbbd
000000f0: 3f48 50be fa2b 0ebf 3499 04bf e014 06bf

body.block2.norm.running_mean f4 [64]
-0.71821105 -0.03842698 0.13824052 0.5545873 1.7231437 -0.6427505 1.5771499 -1.5746126
-0.028530933 2.0420496 1.3648424 0.55550903 -1.0881805 0.8103555 -0.1973477 0.051124856
0.7672259 1.0085441 -1.1007617 -0.13800472 -3.797444 -0.48087326 -1.4957808 -1.2242663
-1.4347605 -0.42255813 0.9613556 1.1366354 1.2958004 1.1964763 -0.98788476 -0.3820452
1.0451409 0.44336435 -0.42422065 1.0704827 0.27161014 -1.6091197 -1.1006595 -0.6435542
1.8102915 -0.66104305 -3.8951576 -2.1339538 -1.6337491 0.05670621 0.856166 -0.88284266
-1.9094108 -1.1371411 0.24870877 -2.0293257 0.8608461 -0.78762865 1.3974999 -0.16641131
1.6572421 0.9119352 0.5590139 -1.5790377 -0.9011628 0.13510904 0.5994781 0.26077712
00000000: aedc 37bf 9c65 1dbd ec8e 0d3e 6ff9 0d3f
00000010: f98f dc3f 4c8b 24bf 0ce0 c93f e88c c9bf
00000020: b4b9 e9bc f1b0 0240 28b3 ae3f d735 0e3f
00000030: 8049 8bbf 7573 4f3f 8415 4abe 4c68 513d
00000040: eb68 443f f917 813f c2e5 8cbf 1c51 0dbe
00000050: 5309 73c0 0535 f6be bf75 bfbf c2b4 9cbf
00000060: 3ba6 b7bf 8a59 d8be 671b 763f 457d 913f
00000070: cadc a53f 2326 993f 04e6 7cbf 6e9b c3be
00000080: 2dc7 853f a700 e33e 7333 d9be 9405 893f
00000090: 7c10 8b3e a2f7 cdbf 69e2 8cbf f8bf 24bf
000000a0: a2b7 e73f 1e3a 29bf 434a 79c0 b392 08c0
000000b0: b11e d1bf c544 683d b22d 5b3f fa01 62bf
000000c0: 9367 f4bf d78d 91bf 83ad 7e3e 79e0 01c0
000000d0: 6960 5c3f 08a2 49bf 47e1 b23f ba67 2abe
000000e0: 8220 d43f 9674 693f 891b 0f3f e81d cabf
000000f0: 9bb2 66bf 065a 0a3e 6677 193f 9484 853e

body.block2.norm.running_var f4 [64]
13.16025 5.375162 12.53554 15.565884 10.502642 6.933875 6.4107714 6.3742394
3.159472 20.207674 14.741395 5.507515 7.9719825 15.260608 10.217678 6.4872847
20.526024 4.0031104 10.295183 7.889969 24.07456 9.842892 11.181007 10.520137
16.965582 7.096636 5.687843 20.976902 5.6250243 3.9993978 6.713027 5.1762657
13.676105 3.7498634 13.606349 8.84434 14.257505 8.374805 7.3007474 11.650913
8.913483 6.503353 14.105111 11.489877 9.731543 4.545029 12.98302 9.214784
8.155891 3.7636197 9.263802 12.174635 10.82321 4.398649 6.4457703 3.6525977
16.409801 8.983642 4.895091 18.547918 13.330865 10.180187 5.948191 4.495523
00000000: 6290 5241 5401 ac40 9291 4841 dc0d 7941
00000010: d20a 2841 4ee2 dd40 0a25 cd40 c5f9 cb40
00000020: ca34 4a40 51a9 a141 c1dc 6b41 903d b040
00000030: 7b1a ff40 732b 7441 9c7b 2341 d697 cf40
00000040: 4c35 a441 7b19 8040 12b9 2441 a07a fc40
00000050: b398 c041 7c7c 1d41 68e5 3241 7b52 2841
00000060: 83b9 8741 a417 e340 cf02 b640 b2d0 a741
00000070: 3300 b440 22f6 7f40 1ed1 d640 f8a3 a540
00000080: 53d1 5a41 c3fd 6f40 9bb3 5941 6b82 0d41
00000090: be1e 6441 34ff 0541 b99f e940 246a 3a41
000000a0: a09d 0e41 781b d040 89ae 6141 89d6 3741
000000b0: 66b4 1b41 e170 9140 73ba 4f41 c16f 1341
000000c0: 887e 0241 25df 7040 8838 1441 4ecb 4241
000000d0: de2b 2d41 bcc1 8c40 c043 ce40 29c4 6940
000000e0: 4647 8341 ffbc 0f41 96a4 9c40 2362 9441
000000f0: 394b 5541 0ce2 2241 9557 be40 53db 8f40

body.block3.conv.weight f4 [64, 64, 3, 3]
-0.14270194 -0.13728133 0.14897715 0.16830702 -0.11569858 -0.061082773 0.05426183 -0.12347188
-0.17591017 -0.027998846 0.009586703 -0.053002656 -0.08038259 0.062142577 0.045753613 0.024504663
0.061062865 0.05957759 0.03840261 0.014842706 0.05091229 0.04777605 0.05606277 0.04849161
0.08597767 0.047050733 0.025953287 -0.046779796 -0.13446406 -0.28064907 -0.097190395 -0.09215765
-0.121826746 -0.055559296 -0.12492478 -0.046143837 0.05387516 0.018385595 0.024780257 0.029955355
0.03748518 0.036108572 0.0012438158 0.020727035 0.052981127 -0.053073082 -0.03752522 -0.11694485
-0.027317872 -0.006986362 -0.014370033 0.025795544 0.04411136 0.06729185 0.028521787 0.07007683
0.03395732 0.037615843 0.0120677175 0.058748968 -0.021549681 0.035916835 0.051344838 0.08669538
0.11443984 -0.052130643 -0.089115605 -0.21877338 0.031935688 0.12101911 -0.23836036 0.2028169
0.13471341 -0.06974131 0.14179225 0.08941015 0.004508796 0.008873986 -0.020703953 0.07965158
-0.0058874893 0.01788697 -0.12792954 -0.14979748 -0.026267137 -0.049951617 -0.07484396 -0.052808776
-0.04181582 -0.032086093 0.020694619 0.07327507 0.11009588 0.035321828 0.056822605 0.07373554
0.017219342 0.01134732 0.00908509 0.043131813 -0.006776399 0.032204427 0.023468105 0.015820073
0.01046856 -0.011636123 0.041115515 0.047234766 -0.011068252 -0.036379088 -0.006924116 -0.14223868
0.065788485 -0.024510842 -0.11205448 0.06033963 0.17708349 0.09532042 -0.23810135 -0.19610605
-0.11741704 0.03285602 -0.09956981 -0.36480653 0.0054889843 0.043394286 -0.04288585 0.21946163
-0.05485238 0.06032923 -0.06456369 0.16047037 0.2272441 -0.10844091 -0.07352394 0.21471862
0.0031078062 -0.0050696726 0.16589026 0.016908558 -0.0051777316 0.1501291 0.10922495 0.0031679724
0.13443087 -0.0762286 0.26005957 0.011245133 -0.19695431 0.16255835 0.14244261 -0.17235976
0.09189661 0.11471552 0.024060803 0.13876428 0.07611082 0.0155431 0.102437064 -0.004154451
-0.07754376 0.038685847 -0.2305696 -0.06718247 0.033753686 0.035079516 -0.037356224 0.14672612
0.005193109 0.038035847 0.01256669 -0.0074701607 -0.015890576 -0.13620616 0.0042230496 0.028741838
-0.06933233 -0.021867326 0.09589187 0.05055058 0.18544698 0.18249491 0.15898319 0.2952113
0.11035102 0.04906304 0.08376802 -0.018962257 0.037935182 -0.013604257 0.063453145 -0.07206683
0.0051055984 -0.22302888 0.034050964 0.24367855 -0.10870259 -0.06711621 -0.041228298 0.08287358
0.17558748 0.09386004 0.021519873 0.13878196 -0.13006616 -0.12928307 -0.08546454 0.061354745
-0.0033398564 0.1649721 -0.019365262 -0.0283613 0.07391636 -0.006186701 -0.053363137 0.07598517
0.25553176 -0.15340021 0.14416084 0.16605924 0.0032908197 0.054991703 0.13459128 -0.12219131
0.069902435 0.038990945 -0.07249533 0.04431238 0.014685674 -0.1837572 -0.05912775 0.03165979
-0.11726333 0.27184758 -0.045698028 0.0672627 0.041767407 -0.05990767 -0.051064454 0.037546143
0.052123435 -0.0012702334 -0.14740309 0.120704554 0.067802124 -0.049972847 0.1347716 0.044490248
-0.1185168 -0.04179533 -0.11131112 -0.1528283 0.079866834 0.090724654 0.05180496 0.044893313
00000000: 7520 12be 7a93 0cbe 778d 183e ad58 2c3e
00000010: 61f3 ecbd ee31 7abd a741 5e3d d3de fcbd
00000020: cc21 34be d65d e5bc 8c11 1d3c 5019 59bd
00000030: a19f a4bd 3789 7e3d 2468 3b3d 01be c83c
00000040: 0e1d 7a3d a207 743d 0e4c 1d3d d22e 733c
00000050: 6889 503d d2b0 433d 13a2 653d 239f 463d
00000060: 1015 b03d 45b8 403d fd9b d43c 2c9c 3fbd
00000070: f2b0 09be 3cb1 8fbe c20b c7bd 26bd bcbd
00000080: 4d80 f9bd 2592 63bd 90d8 ffbd 5201 3dbd
00000090: 33ac 5c3d 639d 963c f7ff ca3c ef64 f53c
000000a0: 0f8a 193d 95e6 133d 8807 a33a becb a93c
000000b0: bd02 593d 2963 59bd 0cb4 19bd c880 efbd
000000c0: bbc9 dfbc daed e4bb 4970 6bbc 2d51 d33c
000000d0: 1dae 343d 4fd0 893d 86a6 e93c 7184 8f3d
000000e0: d516 0b3d 1213 1a3d adb7 453c c2a2 703d
000000f0: f588 b0bc 881d 133d f74e 523d 598d b13d
00000100: 6f5f ea3d f186 55bd 3e82 b6bd 2106 60be
00000110: ffce 023d ded8 f73d bd14 74be 3caf 4f3e
00000120: 50f2 093e 88d4 8ebd fd31 113e ab1c b73d
00000130: 86be 933b 3264 113c 569b a9bc 5e20 a33d
00000140: d7eb c0bb b287 923c f6ff 02be 8364 19be
00000150: 2e2e d7bc 119a 4cbd ca47 99bd 044e 58bd
00000160: 1147 2bbd b56c 03bd c387 a93c 3d11 963d
00000170: f379 e13d 9fad 103d d2be 683d a902 973d
00000180: 940f 8d3c 1cea 393c a1d9 143c fcaa 303d
00000190: 8e0c debb cae8 033d 2f40 c03c 1999 813c
000001a0: 5384 2b3c 70a5 3ebc be68 283d 3e79 413d
000001b0: 9d57 35bc 3d02 15bd b2e3 e2bb 04a7 11be
000001c0: 1dbc 863d f6ca c8bc d27c e5bd b026 773d
000001d0: 6055 353e 5a37 c33d d7d0 73be 06d0 48be
000001e0: 5878 f0bd 0994 063d 42eb cbbd ecc7 babe
000001f0: f0dc b33b 35be 313d 13a9 2fbd 8dba 603e
00000200: e4ac 60bd c81b 773d f839 84bd 5852 243e
00000210: adb2 683e 4516 debd b893 96bd 33df 5b3e
00000220: 56ac 4b3b 7f1f a6bb 23df 293e d183 8a3c
00000230: f6a9 a9bb 71bb 193e 55b1 df3d c29d 4f3b
00000240: 3fa8 093e be1d 9cbd 8726 853e 823d 383c
00000250: 64ae 49be b275 263e 7adc 113e 147f 30be
00000260: 4a34 bc3d f8ef ea3d 291b c53c 3918 0e3e
00000270: fddf 9b3d 7da8 7e3c 86ca d13d 1022 88bb
00000280: 43cf 9ebd 0d75 1e3d 701a 6cbe f696 89bd
00000290: 4e41 0a3d 8aaf 0f3d d702 19bd 5f3f 163e
000002a0: f52a aa3b 7acb 1b3d 85e4 4d3c 40c8 f4bb
000002b0: f42c 82bc a179 0bbe 8261 8a3b 0174 eb3c
000002c0: 1cfe 8dbd 1b23 b3bc f562 c43d 200e 4f3d
000002d0: d0e5 3d3e f2df 3a3e 7dcc 223e ef25 973e
000002e0: b7ff e13d 54f6 483d 918e ab3d bc56 9bbc
000002f0: ec61 1b3d 64e4 5ebc b9f3 813d c697 93bd
00000300: dd4c a73b af61 64be 0679 0b3d df86 793e
00000310: 779f debd 3974 89bd 01df 28bd a0b9 a93d
00000320: 34cd 333e b139 c03d 724a b03c dc1c 0e3e
00000330: 1030 05be c862 04be 0808 afbd 1d4f 7b3d
00000340: 7ee1 5abb 72ee 283e e6a3 9ebc f555 e8bc
00000350: 7661 973d cfb9 cabb 4e93 5abd 1d9e 9b3d
00000360: 0fd5 823e f214 1dbe e69e 133e 6f0b 2a3e
00000370: cbaa 573b fb3e 613d 4cd2 093e 703f fabd
00000380: 0229 8f3d f8b4 1f3d 6e78 94bd e680 353d
00000390: 2e9c 703c d92a 3cbe f12f 72bd b2ad 013d
000003a0: c227 f0bd 9b2f 8b3e db2d 3bbd 07c1 893d
000003b0: 4d14 2b3d bf61 75bd f628 51bd fcc9 193d
000003c0: 627f 553d f67d a6ba d6f0 16be f333 f73d
000003d0: d7db 8a3d 54b0 4cbd 9101 0a3e 683b 363d
000003e0: f0b8 f2bd 9431 2bbd 16f7 e3bd 067f 1cbe
000003f0: 3991 a33d d9cd b93d 7031 543d 0de2 373d

body.block3.conv.bias f4 [64]
0.00038032382 0.010745365 -0.0035384644 0.039731674 0.03680172 -0.008037285 -0.012448978 -0.0067153242
-0.04098245 -0.013642468 0.03330433 0.012562995 -0.032482006 0.04106683 -0.033299394 0.017132847
-0.017047228 -0.032720633 0.026682604 0.013261448 -0.032236364 -0.02675896 -0.02712425 -0.036518555
-0.037801802 0.03387648 -0.033402212 -0.025969608 -0.020152686 0.0056424094 -0.03701111 0.007547631
0.016171772 0.028764604 0.04016187 0.01166447 0.02889095 0.029722704 -0.013239046 -0.041878715
0.039118543 -0.040179994 -0.01028498 -0.0014165071 -0.03024585 -0.0022475785 0.02316559 -0.036944523
-0.017758539 0.0074039856 -0.0058748545 -0.03006116 0.033674985 -0.011536523 -0.02705606 0.036943853
-0.0036847084 0.0050557465 -0.01141318 -0.022686053 -0.0073255356 0.03354912 -0.0069338097 -0.042059947
00000000: 3366 c739 540d 303c 95e5 67bb aebd 223d
00000010: 66bd 163d d1ae 03bc ccf6 4bbc 390c dcbb
00000020: 37dd 27bd a884 5fbc 1f6a 083d 05d5 4d3c
00000030: da0b 05bd b135 283d f264 08bd 2f5a 8c3c
00000040: a1a6 8bbc 1206 06bd 7a95 da3c 8b46 593c
00000050: 470a 04bd 9b35 dbbc ad33 debc 7b94 15bd
00000060: 10d6 1abd 10c2 0a3d c2d0 08bd 37be d4bc
00000070: 3f17 a5bc f6e3 b83b f698 17bd 1e52 f73b
00000080: aa7a 843c bfa3 eb3c c680 243d 551c 3f3c
00000090: b7ac ec3c 077d f33c 95e8 58bc 0489 2bbd
000000a0: c43a 203d c793 24bd 5582 28bc 17aa b9ba
000000b0: 25c6 f7bc 1c4c 13bb c3c5 bd3c 2453 17bd
000000c0: 5b7a 91bc 229d f23b da81 c0bb d242 f6bc
000000d0: c8ee 093d af03 3dbc aca4 ddbc 7052 173d
000000e0: 267b 71bb adaa a53b 59fe 3abc 1ad8 b9bc
000000f0: 0c0b f0bb cd6a 093d 0335 e3bb 0d47 2cbd
