code/Output/balloons/pdl_e8000_1px_lr0.001a5.0_up-conv5_1_W[1.0, 0.5, 0.1, 0.075, 0.075]/3/netG.pth (torch, 130371 bytes, 26 tensors)

head.conv.weight f4 [32, 3, 3, 3]
0.0864011 0.07598848 0.079754725 0.0945125 0.09325949 0.034186345 0.06675706 0.026181756
0.034122873 0.1472486 0.033533417 -0.05212061 0.05574728 0.018156566 -0.04164339 0.016386252
-0.014363161 -0.009497529 0.05383709 0.005111488 0.0349882 0.0014028323 -0.003501245 0.009407797
-0.008513666 -0.05121897 0.020690141 0.08598804 0.09720291 0.01632667 0.09148666 0.048225638
0.01156918 0.078169696 0.05080002 0.014322216 -0.031873323 0.019983346 -0.08005119 -0.04224147
-0.012557167 0.03430345 -0.018004205 0.020511402 0.09000799 -0.09133358 -0.009635089 -0.08671497
-0.16170375 -0.035763998 0.026964895 -0.1266215 -0.030339286 -0.017800996 0.07747967 -0.041042276
-0.010291063 -0.019780409 -0.08616322 -0.04335015 0.043923028 0.07621214 0.10710554 0.22967477
-0.019848352 -0.017337384 0.024845365 -0.03453595 -0.054805476 0.020327378 0.0075972774 -0.025411608
0.20592134 0.067814134 0.0628261 0.015312907 -0.005270495 -0.0036306677 0.07778694 -0.002040372
0.027869105 -0.045047645 0.030393684 0.10128051 -0.013375392 0.075356126 0.036782302 -0.15675695
-0.104161344 0.03309425 -0.04217847 0.01393821 -0.111712016 -0.016369851 0.0072385846 -0.026940564
-0.06051359 -0.027866356 0.06890808 -0.041403487 0.064465106 -0.06481442 -0.017048914 0.026922649
-0.033827364 0.011711437 -0.049142193 0.021793168 -0.026272308 -0.059183374 0.032568682 0.029899232
-0.048183076 0.039258957 0.03372412 0.007223172 0.0893293 -0.084329374 -0.07517453 0.06936406
-0.10568857 -0.07478922 0.018071882 -0.046131935 -0.067308314 0.047382697 -0.044497274 0.021711014
0.1854658 -0.024310425 -0.0116210515 0.08327966 0.0040522423 0.009981294 0.040936638 -0.02120173
0.0037304948 -0.024394155 0.050799213 -0.056217197 0.0055984203 -0.03800251 -0.042277876 0.06467955
0.07960859 0.062483367 -0.090032175 0.06442782 -0.004700342 -0.13647382 -0.07826221 -0.062516056
-0.03128407 0.03129662 0.044297058 -0.045475226 0.03968386 -0.0337888 -0.105492204 0.0020895132
0.024890702 0.015330869 0.087791055 0.083923705 0.0011966341 0.07759763 0.13698377 0.042023573
-0.07143096 0.049065895 0.04410724 -0.044451647 -0.049515847 -0.072033785 -0.020810857 -0.03449643
-0.07785444 -0.070089184 -0.04199916 -0.058302123 -0.035786476 0.016434366 -0.06579711 -0.02055703
-0.024882732 -0.018763477 -0.06888147 -0.027691707 -0.023498189 -0.12488391 -0.077640876 0.11213022
-0.06188236 0.055114064 0.06393269 0.019410813 -0.025851024 -0.10568045 -0.03927541 0.010573847
0.20416944 -0.023212675 0.05247596 0.07385483 0.04538407 -0.027511923 -0.02790479 0.0105257025
-0.033355396 0.07938169 0.03261853 -0.0071000406 0.029938834 -0.009411032 -0.03173746 -0.10078536
0.034178264 0.031277783 0.05835054 0.029818295 -0.068845674 -0.0072820885 0.1231027 0.024495633
0.0052078315 0.101902224 0.016477406 -0.028605146 0.087077476 0.09219351 0.10881043 0.061102007
0.062368073 0.07666864 -0.04167295 -0.081657864 -0.07589582 -0.07555091 -0.06204485 -0.06602159
-0.067095965 -0.024509057 -0.011578624 -0.04661022 0.06729283 0.15491341 0.05272199 -0.005617259
0.0015809655 0.028689045 -0.0616747 -0.04404393 -0.04523804 0.11037412 0.108283095 0.061536577
00000000: 0ff3 b03d d99f 9b3d 7256 a33d c58f c13d
00000010: d5fe be3d fb06 0c3d edb7 883d 1f7b d63c
00000020: 6dc4 0b3d 56c8 163e 565a 093d 6c7c 55bd
00000030: 4357 643d 14bd 943c 4292 2abd 763c 863c
00000040: 7753 6bbc 869b 1bbc 4884 5c3d 457e a73b
00000050: c94f 0f3d 3edf b73a 2575 65bb 2923 1a3c
00000060: e77c 0bbc fcca 51bd 5f7e a93c 7f1a b03d
00000070: 5212 c73d 82bf 853c 5c5d bb3d 3f88 453d
00000080: a88c 3d3c 6f17 a03d af13 503d baa7 6a3c
00000090: 9a8d 02bd 1db4 a33c e1f1 a3bd 6405 2dbd
000000a0: 93bc 4dbc c681 0c3d 8e7d 93bc 8707 a83c
000000b0: 1c56 b83d 1a0d bbbd 7edc 1dbc 9e97 b1bd
000000c0: ab95 25be 457d 12bd 7ce5 dc3c 11a9 01be
000000d0: 188a f8bc 65d3 91bc a9ad 9e3d f21b 28bd
000000e0: d99b 28bc 860a a2bc 5876 b0bd ed8f 31bd
000000f0: a2e8 333d 1c15 9c3d 265a db3d dd2f 6b3e
00000100: 0399 a2bc 2107 8ebc 8288 cb3c 9175 0dbd
00000110: b57b 60bd 9a85 a63c 95f2 f83b 012c d0bc
00000120: 0bdd 523e 23e2 8a3d f8aa 803d fde2 7a3c
00000130: 1eb4 acbb 7ff0 6dbb c24e 9f3d c3b7 05bb
00000140: c04d e43c e183 38bd 2dfc f83c 286c cf3d
00000150: 7624 5bbc 5054 9a3d 0aa9 163d e584 20be
00000160: 8b52 d5bd d68d 073d 55c3 2cbd 175d 643c
00000170: 45c9 e4bd 111a 86bc a631 ed3b 75b2 dcbc
00000180: 19dd 77bd fc47 e4bc ae1f 8d3d b496 29bd
00000190: 4806 843d 6cbd 84bd 2aaa 8bbc e38c dc3c
000001a0: 908e 0abd 54e1 3f3c 5349 49bd 9687 b23c
000001b0: 0639 d7bc 446a 72bd bd66 053d 3cef f43c
000001c0: 9e5b 45bd 00ce 203d 4e22 0a3d 5cb0 ec3b
000001d0: 48f2 b63d e1b4 acbd 1bf5 99bd bf0e 8e3d
000001e0: 4073 d8bd 172b 99bd 7c0b 943c d7f4 3cbd
000001f0: f1d8 89bd 5c14 423d c642 36bd 4cdb b13c
00000200: bfea 3d3e a826 c7bc 3966 3ebc 878e aa3d
00000210: acc8 843b 9588 233c 2dad 273d 40af adbc
00000220: 517b 743b 40d6 c7bc d612 503d 0144 66bd
00000230: f472 b73b 85a8 1bbd 912b 2dbd b676 843d
00000240: d409 a33d 8fee 7f3d ca62 b8bd bcf2 833d
00000250: 5405 9abb cbbf 0bbe f047 a0bd 6b08 80bd
00000260: ba23 00bd e230 003d d570 353d 3b44 3abd
00000270: 8b8b 223d 2066 0abd 4c0c d8bd 37f0 083b
00000280: 96e7 cb3c 532e 7b3c cccb b33d 31e0 ab3d
00000290: 61d8 9c3a 82eb 9e3d 7945 0c3e e920 2c3d
000002a0: 654a 92bd 52f9 483d cba9 343d ee12 36bd
000002b0: 21d1 4abd 7386 93bd 887b aabc 214c 0dbd
000002c0: 2672 9fbd eb8a 8fbd 5007 2cbd 35ce 6ebd
000002d0: d794 12bd 5da1 863c a3c0 86bd 3767 a8bc
000002e0: dfd6 cbbc ddb5 99bc ba11 8dbd b8d9 e2bc
000002f0: 467f c0bc 23c3 ffbd 2e02 9fbd 87a4 e53d
00000300: 5c78 7dbd 49bf 613d 24ef 823d 6d03 9f3c
00000310: 87c5 d3bc fe6e d8bd 41df 20bd ee3d 2d3c
00000320: cb11 513e 8228 bebc 08f1 563d 3341 973d
00000330: a6e4 393d af60 e1bc 9698 e4bc ff73 2c3c
00000340: ab9f 08bd de92 a23d 029b 053d 75a7 e8bb
00000350: 4942 f53c bb30 1abc 24ff 01bd 8e68 cebd
00000360: 82fe 0b3d 221d 003d fa00 6f3d 7f45 f43c
00000370: f6fe 8cbd 969e eebb 451d fc3d 11ab c83c
00000380: 75a6 aa3b 1db2 d03d a0fb 863c 5755 eabc
00000390: ad55 b23d f3cf bc3d 01d8 de3d 1946 7a3d
000003a0: aa75 7f3d 7304 9d3d 41b1 2abd 3d3c a7bd
000003b0: 456f 9bbd 6fba 9abd be22 7ebd 5436 87bd
000003c0: 9c69 89bd 38c7 c8bc 45b4 3dbc 5cea 3ebd
000003d0: d3d0 893d 9fa1 1e3e 03f3 573d fc10 b8bb
000003e0: 6638 cf3a 4a05 eb3c 9c9e 7cbd 6867 34bd
000003f0: 864b 39bd d40b e23d 87c3 dd3d c70d 7c3d

head.conv.bias f4 [32]
0.07908368 0.029003544 -0.16110304 -0.1645436 -0.2987235 0.033692457 0.1518041 -0.05451285
-0.13181385 -0.14282663 -0.16105518 -0.17107528 0.08372275 -0.017323034 -0.078734875 -0.0034001316
-0.017090935 0.20877251 -0.07235921 0.050823256 -0.030529618 -0.0142849125 0.08353611 0.1656415
0.10669604 -0.03875296 -0.104244605 -0.37679097 0.057675302 0.15856078 0.0425459 -0.077005334
00000000: a0f6 a13d d798 ed3c 32f8 24be 1e7e 28be
00000010: 49f2 98be 1a01 0a3d 8972 1b3e de48 5fbd
00000020: 36fa 06be 2541 12be a6eb 24be 5c2e 2fbe
00000030: d576 ab3d 09e9 8dbc c03f a1bd bed4 5ebb
00000040: 4a02 8cbc 76c8 553e 1131 94bd 0c2c 503d
00000050: 4019 fabc 440b 6abc fb14 ab3d ed9d 293e
00000060: 7483 da3d 6cbb 1ebd 327e d5bd bfea c0be
00000070: f03c 6c3d c25d 223e 9c44 2e3d f9b4 9dbd

head.norm.weight f4 [32]
0.8547257 0.95091236 0.9715387 0.7742468 0.95295745 0.766489 0.7194395 1.149421
1.0362604 0.9351887 0.9940528 1.0222969 1.048842 1.1630613 0.9861451 0.8478587
0.9395653 1.0592697 0.9433813 1.0000775 1.0182424 0.97836435 0.9804878 1.0428069
1.039158 0.91907513 0.89348936 1.0791453 1.0019563 0.86438483 1.1245142 0.95459265
00000000: 4ecf 5a3f fe6e 733f c3b6 783f 0a35 463f
00000010: 05f5 733f a038 443f 302d 383f 3a20 933f
00000020: 2ea4 843f 8768 6f3f 3f7a 7e3f a0da 823f
00000030: 7440 863f 31df 943f 0174 7c3f 450d 593f
00000040: 5a87 703f 2696 873f 7081 713f 8a02 803f
00000050: c455 823f 1676 7a3f 4001 7b3f b27a 853f
00000060: 2103 853f 8248 6b3f b8bb 643f 6f21 8a3f
00000070: 1b40 803f 5348 5d3f 15f0 8f3f 2f60 743f

head.norm.bias f4 [32]
-0.17171696 -0.4132884 -0.124922805 -0.4412531 -0.10404747 -0.3957446 -0.42555407 0.20333911
-0.10845642 -0.20571816 -0.31152445 -0.19974793 0.0039212834 -0.0415125 0.06253808 -0.36858588
-0.33539048 -0.45565665 -0.3043878 -0.2836505 0.12501177 0.113038436 -0.030893488 -0.020762902
0.09547361 -0.37240857 -0.24004 -0.16363768 -0.25548133 -0.2581939 0.11557985 0.057806555
00000000: 92d6 2fbe 8a9a d3be 87d7 ffbd edeb e1be
00000010: d716 d5bd 099f cabe 39e2 d9be 2138 503e
00000020: 661e debd c8a7 52be 2280 9fbe b98a 4cbe
00000030: 1c7e 803b 0309 2abd f713 803d 4ab7 bcbe
00000040: 4db8 abbe d44b e9be b8d8 9bbe a33a 91be
00000050: 1603 003e b280 e73d 5714 fdbc f616 aabc
00000060: ab87 c33d 56ac bebe 0ccd 75be a390 27be
00000070: 73ce 82be fe31 84be 21b5 ec3d 91c6 6c3d

head.norm.running_mean f4 [32]
0.05346429 -0.08887255 -0.094548844 -0.19026996 -0.29822734 0.016635973 0.03378842 -0.022433573
-0.16974443 -0.16578682 -0.17585482 -0.17510217 0.1136106 0.025809558 -0.040493347 -0.0663261
-0.0394027 0.19273725 -0.009768231 0.04983482 -0.049002912 0.03820882 0.18057163 0.18918349
0.17562725 -0.07840351 -0.11024905 -0.3892181 -0.024907313 0.097600244 0.12944235 0.063651025
00000000: 5ffd 5a3d d002 b6bd d3a2 c1bd 21d6 42be
00000010: 41b1 98be 2a48 883c ba65 0a3d 9dc6 b7bc
00000020: 7cd1 2dbe 05c4 29be 4913 34be fc4d 33be
00000030: adac e83d 916e d33c 5adc 25bd fad5 87bd
00000040: ba64 21bd ea5c 453e ee0a 20bc 991f 4c3d
00000050: 47b7 48bd da80 1c3d c5e7 383e 51b9 413e
00000060: a1d7 333e 0592 a0bd 41ca e1bd 9847 c7be
00000070: 6c0a ccbc a3e2 c73d 898c 043e 785b 823d

head.norm.running_var f4 [32]
0.023185253 0.02237032 0.033065073 0.0065716654 0.0051289643 0.006271124 0.024870439 0.0052749207
0.0059541655 0.0051694578 0.0025250085 0.0035919028 0.016303701 0.012162028 0.023878712 0.017236182
0.0024274248 0.0017277471 0.016094059 0.00535419 0.0040983004 0.003167318 0.012476368 0.025359768
0.010145576 0.01742148 0.012244106 0.003068201 0.0090282075 0.008417578 0.021809658 0.10865787
00000000: 00ef bd3c f641 b73c 3e6f 073d 2057 d73b
00000010: df10 a83b 007e cd3b 17bd cb3c 3ed9 ac3b
00000020: 291b c33b 8e64 a93b 9d7a 253b 2166 6b3b
00000030: 578f 853c 3e43 473c 4a9d c33c e532 8d3c
00000040: 6e15 1f3b 9375 e23a b0d7 833c 3372 af3b
00000050: 094b 863b c792 4f3b ae69 4c3c 4abf cf3c
00000060: a139 263c 7eb7 8e3c 819b 483c df13 493b
00000070: 0ceb 133c e2e9 093c 2baa b23c 0488 de3d

body.block1.conv.weight f4 [32, 32, 3, 3]
0.07415773 0.04740172 0.07022758 0.0018775251 0.020546695 0.03282259 -0.045955747 0.023704002
0.03792985 -0.029637448 -0.019799225 -0.021170873 -0.053715102 0.01996711 0.065038875 -0.029406458
0.035711057 0.048420615 0.15503868 0.17056319 0.13481548 -0.007817049 -0.005536807 0.07510263
0.035700835 -0.009071846 0.10363034 -0.0018482698 0.033316072 0.10551254 0.04799012 0.03060832
0.009032703 -0.0022623218 -0.003675556 -0.050301343 0.01156058 -0.039169233 0.015621213 0.00024097561
-0.024927441 0.040779706 0.11556574 -0.021964682 0.099611335 0.025778998 -0.037059825 0.055104528
0.036951512 0.028394911 0.032630157 0.05335935 0.0017892484 0.027802883 0.046106715 0.047991663
0.008128028 0.021088293 0.03694466 -0.07282597 0.053420365 0.06258872 -0.00045871106 -0.06915568
0.18782793 0.06549589 -0.028853016 0.01996846 -0.054070517 0.08107833 -0.033996366 0.05064793
-0.16915472 -0.04949911 -0.021112857 -0.053755894 0.0059218025 0.011699606 -0.13650824 -0.06666084
-0.058137365 -0.0014160211 -0.0688023 0.15706713 0.049675215 0.0907336 0.05297619 0.055047173
-0.02591822 0.07812647 0.089607134 0.059646647 0.000622099 0.009653551 0.005256464 0.07410926
0.0052265236 -0.0662507 0.011902046 0.075158566 0.034230985 0.11580977 -0.006111193 0.004032854
-0.061506305 -0.035585966 0.07082628 0.046838213 -0.00013639133 0.008901325 -0.006946665 -0.031412378
-0.029052861 0.038768068 -0.024410916 -0.023435064 0.018742373 -0.002008942 0.07112052 -0.027332932
-0.051119324 -0.04353203 0.05728437 0.0738853 -0.13925666 -0.042063706 0.09794722 0.082453914
0.08881192 0.104946926 0.0031616916 0.022520596 -0.01047599 -0.053416282 0.063559316 -0.041078597
0.019348012 0.011023842 0.020267814 0.06470033 0.05636027 -0.036066487 0.058813557 0.044249803
0.0779138 -0.006064752 0.07714186 -0.0011311712 -0.051136907 0.097511455 0.015993634 0.027099112
0.0119543895 0.16887419 -0.037963398 0.09287017 0.069042675 -0.044653796 -0.0494927 0.11084745
-0.03039975 -0.033538762 -0.071490034 -0.029749796 -0.085047565 0.015598664 0.06150596 -0.0013829665
-0.07528492 0.010523475 -0.017331282 0.0030554957 0.09232412 0.053816326 0.069307245 -0.03797309
0.08773647 0.031424083 0.06263465 -0.0006956437 0.10152181 0.074278004 0.1133636 -0.033143643
0.074446045 0.035008322 -0.11911548 -0.0050911196 -0.008603556 0.01675225 -0.02883658 -0.038065992
0.04912683 -0.056602024 0.012435999 -0.09283728 0.012635152 0.046268895 0.10533083 0.04251337
0.022337863 0.059648354 -0.018376568 0.06995678 0.084541984 -0.003355958 -0.044635862 0.03266957
0.04070166 0.06301562 0.018776946 0.064674705 0.07700594 -5.786453e-05 0.055516433 0.04745278
-0.012610426 -0.16034453 0.056811444 0.013048765 -0.10230534 -0.008110571 -0.049428865 -0.0316693
-0.01842341 0.0029364116 -0.011435144 0.04356339 0.06371787 0.021096459 0.008580241 0.04211516
0.05645805 0.03416146 0.048532926 0.09475389 0.05346549 0.003073251 0.056633983 0.011897696
-0.025070643 0.049407255 0.028565463 -0.004206108 0.12400451 0.007954669 0.05148858 -0.11837437
0.07376693 0.00375803 -0.0062926305 -0.014523527 -0.11247449 -0.057498816 -0.014820688 -0.014315383
00000000: 02e0 973d 4e28 423d 7ad3 8f3d 4a17 f63a
00000010: 8b51 a83c fb70 063d 183c 3cbd e52e c23c
00000020: 555c 1b3d 3cca f2bc fc31 a2bc 8a6e adbc
00000030: 5e04 5cbd 1192 a33c 1a33 853d d0e5 f0bc
00000040: c245 123d b254 463d 76c2 1e3e 1ea8 2e3e
00000050: 120d 0a3e 1413 00bc 1a6e b5bb 68cf 993d
00000060: 0a3b 123d 14a2 14bc 253c d43d a541 f2ba
00000070: 6f76 083d f516 d83d 4a91 443d 4dbe fa3c
00000080: e7fd 133c 7643 14bb 99e1 70bb c808 4ebd
00000090: 9668 3d3c eb6f 20bd 1ef0 7f3c 66ae 7c39
000000a0: a234 ccbc 9f08 273d bbad ec3d 47ef b3bc
000000b0: 0701 cc3d 7a2e d33c 0bcc 17bd 49b5 613d
000000c0: 785a 173d 729c e83c 33a7 053d 558f 5a3d
000000d0: 3785 ea3a dfc2 e33c 65da 3c3d e892 443d
000000e0: 6c2b 053c 5bc1 ac3c 4953 173d c825 95bd
000000f0: 50cf 5a3d 842e 803d 287f f0b9 7ea1 8dbd
00000100: f755 403e b622 863d 295d ecbc e594 a33c
00000110: 0c79 5dbd 650c a63d c63f 0bbd 3474 4f3d
00000120: e536 2dbe 94bf 4abd dff4 acbc 242f 5cbd
00000130: ae0b c23b b4af 3f3c d1c8 0bbe 7a85 88bd
00000140: 7221 6ebd c999 b9ba 38e8 8cbd 35d6 203e
00000150: 3d78 4b3d 8ad2 b93d 90fd 583d 2579 613d
00000160: 7252 d4bc c500 a03d f283 b73d 0b50 743d
00000170: 5b14 233a ed29 1e3c 6a3e ac3b 99c6 973d
00000180: 4243 ab3b 72ae 87bd cd00 433c bcec 993d
00000190: ca35 0c3d ac2d ed3d 6740 c8bb 0826 843b
000001a0: 09ee 7bbd 97c2 11bd 5e0d 913d 6dd9 3f3d
000001b0: 4504 0fb9 ddd6 113c d9a0 e3bb 44aa 00bd
000001c0: 4400 eebc 44cb 1e3d 67f9 c7bc e4fa bfbc
000001d0: 9b89 993c 74a8 03bb a3a7 913d 50e9 dfbc
000001e0: 7f62 51bd a44e 32bd 04a3 6a3d 2d51 973d
000001f0: 4c99 0ebe fe4a 2cbd 8d98 c83d 99dd a83d
00000200: 06e3 b53d 6aee d63d 6234 4f3b 1d7d b83c
00000210: 7da3 2bbc 08cb 5abd 632b 823d 0842 28bd
00000220: b97f 9e3c 589d 343c b008 a63c 9b81 843d
00000230: 07da 663d 74ba 13bd 7ce6 703d 483f 353d
00000240: 4591 9f3d d4ba c6bb 8dfc 9d3d cf43 94ba
00000250: ef74 51bd 16b4 c73d 1505 833c f5fe dd3c
00000260: 58dc 433c 5bed 2c3e 827f 1bbd b732 be3d
00000270: 3f66 8d3d e6e6 36bd dbb8 4abd fd03 e33d
00000280: e608 f9bc f15f 09bd 5e69 92bd d8b5 f3bc
00000290: 6b2d aebd 8a91 7f3c aced 7b3d a844 b5ba
000002a0: fb2e 9abd a76a 2c3c 55fa 8dbc b63e 483b
000002b0: 6e14 bd3d 826e 5c3d f5f0 8d3d ac89 1bbd
000002c0: 2eaf b33d 8ab6 003d 9846 803d dc5b 36ba
000002d0: abea cf3d 111f 983d 2d2b e83d a1c1 07bd
000002e0: 2b77 983d e364 0f3d d1f2 f3bd 68d3 a6bb
000002f0: eef5 0cbc 043c 893c b13a ecbc 16eb 1bbd
00000300: 3739 493d 86d7 67bd 5cc0 4b3c 7921 bebd
00000310: ab03 4f3c 7484 3d3d b1b7 d73d 8022 2e3d
00000320: e5fd b63c d551 743d 758a 96bc 8045 8f3d
00000330: 5924 ad3d a2ef 5bbb 18d4 36bd 87d0 053d
00000340: c9b6 263d 550e 813d 1cd2 993c 2c74 843d
00000350: 4ab5 9d3d 91b3 72b8 3365 633d d95d 423d
00000360: f69b 4ebc 5b31 24be 1eb3 683d 7dca 553c
00000370: 7685 d1bd 33e2 04bc ec75 4abd abb7 01bd
00000380: b1ec 96bc d070 403b 785a 3bbc 866f 323d
00000390: 847e 823d 7bd2 ac3c 2494 0c3c f280 2c3d
000003a0: 8e40 673d e3ec 0b3d 76ca 463d 540e c23d
000003b0: a1fe 5a3d 9968 493b 09f9 673d 8eee 423c
000003c0: f360 cdbc 435f 4a3d 1e02 ea3c 64d3 89bb
000003d0: 14f6 fd3d 4d54 023c b0e5 523d 436e f2bd
000003e0: 1e13 973d 4849 763b 6932 cebb 16f4 6dbc
000003f0: 0759 e6bd e183 6bbd 79d2 72bc 118b 6abc

body.block1.conv.bias f4 [32]
-0.038981475 -0.024092287 -0.022182845 0.046566065 -0.018457916 -0.024663344 0.01631883 0.032626353
-0.041180782 0.04973681 0.04542078 0.04098202 -0.017137263 -0.04502397 -0.00090814824 0.0464397
-0.039744176 -0.029120073 -0.022721365 -0.044340745 -0.03384158 -0.050098572 0.024438623 -0.029641671
-0.030820608 -0.024304753 -0.012389025 0.05647881 -0.022863973 0.044846248 0.038736224 -0.04392561
00000000: 0aab 1fbd 305d c5bc ccb8 b5bc 0fbc 3e3d
00000010: 0e35 97bc c80a cabc 11af 853c 36a3 053d
00000020: 2ead 28bd d3b8 4b3d 240b 3a3d c3dc 273d
00000030: 7263 8cbc 0e6b 38bd cc10 6eba 8e37 3e3d
00000040: caca 22bd 388d eebc 2822 babc a49e 35bd
00000050: 789d 0abd 2934 4dbd 8233 c83c 17d3 f2bc
00000060: 807b fcbc c31a c7bc 56fb 4abc 5356 673d
00000070: 3a4d bbbc b3b0 373d e0a9 1e3d 57eb 33bd

body.block1.norm.weight f4 [32]
0.804066 0.9382651 1.0129471 0.9853606 0.93212926 1.0451076 1.0226659 1.0185702
1.065168 0.9426135 0.9487456 1.0253736 1.0618303 0.9462825 1.0847428 0.9016236
1.0471414 0.9713556 1.049306 0.9945442 1.0351931 0.9542205 0.9684761 0.956566
1.0218987 0.98768705 0.9741123 0.9611733 0.88342404 1.0972625 0.93044174 0.9842162
00000000: 45d7 4d3f 2432 703f 40a8 813f 9840 7c3f
00000010: 06a0 6e3f 16c6 853f b7e6 823f 8260 823f
00000020: 6d57 883f 1e4f 713f fee0 723f 713f 833f
00000030: 0eea 873f 923f 723f dad8 8a3f ced0 663f
00000040: bb08 863f c3aa 783f a94f 863f 739a 7e3f
00000050: 3581 843f cb47 743f 0dee 773f 82e1 743f
00000060: 94cd 823f 0fd9 7c3f 6c5f 793f 740f 763f
00000070: 1428 623f 1973 8c3f 6e31 6e3f 98f5 7b3f

body.block1.norm.bias f4 [32]
-0.48237827 -0.39353105 -0.3999355 -0.09062289 -0.24335106 -0.071249165 -0.35811177 -0.07681531
0.07987814 -0.449307 -0.36353767 -0.575981 -0.1497146 -0.24759883 -0.4255386 -0.38265267
-0.003698589 -0.31253335 0.04043318 -0.38587254 -0.02612854 -0.12698291 -0.44886374 -0.5647376
0.0026709484 -0.19695157 -0.35851982 -0.38641578 -0.36443293 -0.04808556 -0.23684014 -0.023502827
00000000: 49fa f6be e77c c9be 59c4 ccbe 7e98 b9bd
00000010: 0531 79be 15eb 91bd 6d5a b7be 5851 9dbd
00000020: 2697 a33d 910b e6be 9c21 babe 7e73 13bf
00000030: c94e 19be 8c8a 7dbe 32e0 d9be 0deb c3be
00000040: 0764 72bb 5f04 a0be 439d 253d 1691 c5be
00000050: 850b d6bc cf07 02be 78d1 e5be a592 10bf
00000060: 140b 2f3b acad 49be e98f b7be 4ad8 c5be
00000070: f496 babe 5df5 44bd 3986 72be 0089 c0bc

body.block1.norm.running_mean f4 [32]
0.67135507 -0.44594216 0.7230276 -1.3339947 0.93483293 0.05397056 -0.49964106 0.50743407
-1.3533685 1.0895437 -0.0791107 0.17795138 -1.4425445 -1.3141766 -0.5109935 -1.2109681
-0.566667 -1.141822 -0.90726566 -0.14596948 0.07346094 0.094256155 -0.080071665 0.5114287
0.6792985 0.46557602 -1.1867946 0.044713847 -0.007250867 -0.8654251 0.60708725 -0.7573447
00000000: eddd 2b3f 8852 e4be 5618 393f 57c0 aabf
00000010: 3651 6f3f 3c10 5d3d f4d0 ffbe 33e7 013f
00000020: 2e3b adbf 2b76 8b3f ca04 a2bd e338 363e
00000030: 4ca5 b8bf f036 a8bf 78d0 02bf 0101 9bbf
00000040: 1711 11bf 3927 92bf 9042 68bf 0679 15be
00000050: b072 963d 5f09 c13d 9dfc a3bd feec 023f
00000060: 82e6 2d3f fb5f ee3e e3e8 97bf de25 373d
00000070: ae98 edbb 808c 5dbf 126a 1b3f 58e1 41bf

body.block1.norm.running_var f4 [32]
0.8790272 0.8106423 1.1631182 1.0866045 1.728229 1.5479165 0.7750549 0.8811358
3.4862266 0.757869 1.0633006 0.54385275 1.6264722 1.7084541 0.5044681 0.8513437
2.8127303 0.61301446 2.5777953 0.69044924 1.2871822 1.5032315 1.059547 1.2148763
3.8990152 1.2254463 0.5845702 0.6969433 0.78076243 1.2667314 1.4096596 1.1303935
00000000: ed07 613f 4186 4f3f 0fe1 943f db15 8b3f
00000010: 9c36 dd3f 2122 c63f ff69 463f 1e92 613f
00000020: 561e 5f40 b403 423f 3c1a 883f ef39 0b3f
00000030: 3e30 d03f a0ae da3f d224 013f a9f1 593f
00000040: c603 3440 84ee 1c3f 99fa 2440 48c1 303f
00000050: 63c2 a43f e469 c03f 3c9f 873f 1181 9b3f
00000060: 7789 7940 6ddb 9c3f 65a6 153f e06a 323f
00000070: 0ce0 473f 4124 a23f ba6f b43f bcb0 903f

body.block2.conv.weight f4 [32, 32, 3, 3]
0.017457962 0.054481965 -0.07800376 0.053998243 -0.072919615 -0.040700473 0.034334727 -0.0135562075
0.024931118 0.03106098 0.012954324 0.033225294 0.094697095 0.08260523 0.043334723 0.10803906
-0.029401323 -0.0735938 -0.042585973 -0.03564324 -0.03148363 0.046096988 0.064015575 -0.03327212
0.09227206 -0.019435626 -0.02471262 -0.017324092 -0.095603056 0.023543917 -0.01989172 -0.021501409
0.03213498 0.042652115 0.01886674 -0.030545672 0.054559316 0.053444907 -0.04336591 -0.046369545
-0.047544103 0.042464767 -0.024713622 -0.099523276 -0.007838832 0.0249594 -0.04035606 -0.04309798
0.050933365 0.03274088 0.014365377 0.112471595 0.04093101 0.0033879327 0.024649616 -0.013945227
-0.013567519 -0.053830132 0.02280973 0.03872334 -0.1199789 -0.021397984 -0.006613747 0.027660297
-0.0844339 -0.084085934 0.0068083038 0.022697784 -0.065715395 0.0029099737 -0.012196763 0.02483783
0.071876295 0.09482343 0.0020761439 0.10973624 -0.004311456 -0.036166504 -0.006015301 0.05361602
-0.0117035145 0.059816036 -0.10153833 -0.049580384 0.0248552 -0.04091421 -0.019418491 0.07387969
-0.031520266 -0.012167988 0.027441403 -0.10150163 -0.10651151 0.08356216 -0.033059675 -0.030555531
-0.029941838 -0.03300178 -0.04684579 0.0509545 0.052935343 0.117620684 0.015550566 -0.048619702
0.031282984 0.10082109 -0.042832807 -0.1423713 0.11599709 0.021612389 0.050857764 0.017370695
-0.014493515 0.0029928484 0.02708047 0.025480263 0.09853205 -0.034557026 -0.08678289 -0.11785901
0.038274374 0.011708025 -0.0010715146 0.092092976 -0.05498603 -0.0052782916 -0.09558927 -0.094129056
0.0030328431 -0.034941915 -0.04041914 0.024805378 0.044039633 0.031247823 -0.050131444 -0.14981954
0.059227563 -0.004343095 -0.044074472 0.07747249 -0.033629663 -0.10561013 0.10543741 -0.0070898654
0.036192976 0.00017408917 -0.024329081 -9.007729e-05 -0.03948939 -0.07593805 -0.06848217 -0.027799465
-0.15514399 0.116206005 0.08204765 0.07495557 -0.02673264 -0.014276062 -0.018733853 0.011827259
-0.073471844 -0.010890465 -0.0626358 0.02618928 0.021264877 -0.052693896 -0.048627026 -0.0696349
-0.025768518 -0.109196715 -0.09233245 -0.08444938 0.025133193 -0.001011874 0.00095168845 0.001410416
-0.09937444 0.071060166 0.031196011 -0.046505228 -0.07380581 -0.050898172 -0.051690966 -0.029056493
0.040203333 -0.029355636 -0.07366413 0.01603064 0.0064067263 -0.036662854 -0.07612636 0.06929808
-0.12949136 -0.04133739 0.13862488 -0.022296773 -0.023757163 0.087552585 -0.0471635 0.023960853
0.014422466 -0.10671347 -0.06590154 -0.0040618386 0.00084478915 -0.026430482 0.0043699727 -0.056507155
0.020768851 -0.0005860721 -0.012678651 0.031129932 0.06678873 0.041946 0.059117116 0.0068543567
0.041859187 -0.0229853 -0.0061973035 0.010523276 -0.07321634 0.0019796288 -0.11344663 -0.11025222
-0.040247895 0.025220986 0.032840934 -0.032136437 -0.029814383 -0.026404606 -0.021531248 -0.1056195
-0.07293002 0.085441135 -0.055601083 -0.006887296 0.105559066 -0.036367137 -0.035235956 0.015784664
0.06926815 0.04805193 -0.043356378 -0.021469267 -0.081352435 -0.12729101 -0.06115014 0.011074583
0.020019986 -0.090644434 -0.04846877 0.03602815 -0.03140691 0.030731421 0.05827056 -0.10856447
00000000: 0004 8f3c 7b28 5f3d 6fc0 9fbd 432d 5d3d
00000010: e156 95bd 8ab5 26bd 92a2 0c3d db1a 5ebc
00000020: 583c cc3c 9973 fe3c 5f3e 543c 3f17 083d
00000030: 8df0 c13d ee2c a93d c07f 313d 9543 dd3d
00000040: 0bdb f0bc 59b8 96bd a16e 2ebd a5fe 11bd
00000050: fbf4 00bd 32d0 3c3d 991a 833d 5948 08bd
00000060: 22f9 bc3d 7637 9fbc 1f72 cabc 41eb 8dbc
00000070: 89cb c3bd 2cdf c03c f6f3 a2bc b923 b0bc
00000080: f89f 033d fcb3 2e3d 6c8e 9a3c eb3a fabc
00000090: 9779 5f3d 0ce9 5a3d 74a0 31bd feed 3dbd
000000a0: 9bbd 42bd 89ef 2d3d 3974 cabc dcd2 cbbd
000000b0: 726e 00bc a877 cc3c 654c 25bd 8287 30bd
000000c0: 819f 503d 4d1b 063d c25c 6b3c 8257 e63d
000000d0: 46a7 273d 1408 5e3b feed c93c 857a 64bc
000000e0: 4d4a 5ebc fc7c 5cbd 79db ba3c 5d9c 1e3d
000000f0: 7fb7 f5bd d34a afbc 22b8 d8bb d997 e23c
00000100: aeeb acbd 3f35 acbd 3118 df3b b4f0 b93c
00000110: cb95 86bd 42b5 3e3b efd4 47bc b478 cb3c
00000120: e133 933d c932 c23d ea0f 083b 65bd e03d
00000130: 1d47 8dbb 5423 14bd 011c c5bb 799c 5b3d
00000140: 19c0 3fbc a901 753d 54f3 cfbd cd14 4bbd
00000150: 229d cb3c a995 27bd 8713 9fbc 3c4e 973d
00000160: 651b 01bd 3e5c 47bc cbcc e03c 16e0 cfbd
00000170: b522 dabd a322 ab3d 9569 07bd 984f fabc
00000180: 9648 f5bc e02c 07bd 5fe1 3fbd aab5 503d
00000190: bbd2 583d 1de3 f03d cdc7 7e3c 7425 47bd
000001a0: 9622 003d 4a7b ce3d 7471 2fbd c8c9 11be
000001b0: e28f ed3d 770c b13c 3b50 503d fd4c 8e3c
000001c0: 3576 6dbc aa23 443b ddd7 dd3c fcbb d03c
000001d0: 2ccb c93d ab8b 0dbd 3abb b1bd 1160 f1bd
000001e0: 97c5 1c3d 04d3 3f3c 1072 8cba 3e9b bc3d
000001f0: 0839 61bd 85f5 acbb 4fc4 c3bd bcc6 c0bd
00000200: aac2 463b 411f 0fbd 8a8e 25bd a634 cb3c
00000210: e762 343d 6ffb ff3c a156 4dbd 4b6a 19be
00000220: 9a98 723d 8550 8ebb 6f87 34bd e6a9 9e3d
00000230: 42bf 09bd 204a d8bd 92ef d73d 1a52 e8bb
00000240: 163f 143d b58b 3639 c84d c7bc e0e7 bcb8
00000250: a0bf 21bd 6985 9bbd 6140 8cbd b4bb e3bc
00000260: 11de 1ebe 6afd ed3d 9908 a83d 4e82 993d
00000270: 69fe dabc 25e6 69bc bd77 99bc 1fc7 413c
00000280: 6878 96bd ec6d 32bc 3347 80bd e78a d63c
00000290: ae33 ae3c 8ed5 57bd 222d 47bd be9c 8ebd
000002a0: 8018 d3bc 87a2 dfbd cc18 bdbd ccf3 acbd
000002b0: 20e4 cd3c dba0 84ba bb7a 793a b5dd b83a
000002c0: d484 cbbd fe87 913d c78e ff3c 447c 3ebd
000002d0: 8027 97bd 9a7a 50bd e8b9 53bd e207 eebc
000002e0: 40ac 243d 3b7b f0bc 38dd 96bd b052 833c
000002f0: 84ef d13b ca2b 16bd 23e8 9bbd 27ec 8d3d
00000300: 6299 04be 6551 29bd aef3 0d3e b9a7 b6bc
00000310: 629e c2bc c54e b33d 842e 41bd 8d49 c43c
00000320: 354c 6c3c 978c dabd 63f7 86bd 2c19 85bb
00000330: d774 5d3a bd84 d8bc fd31 8f3b 0c74 67bd
00000340: 7023 aa3c a2a2 19ba 1eba 4fbc 3304 ff3c
00000350: 88c8 883d 92cf 2b3d ca24 723d 839a e03b
00000360: 8a74 2b3d ab4b bcbc c012 cbbb d269 2c3c
00000370: 73f2 95bd a9bc 013b b556 e8bd eacb e1bd
00000380: fada 24bd 3e9c ce3c 3784 063d 7fa1 03bd
00000390: 4b3d f4bc 794e d8bc 4d62 b0bc 094f d8bd
000003a0: 565c 95bd c3fb ae3d f6bd 63bd d4ae e1bb
000003b0: 5a2f d83d b5f5 14bd 9453 10bd d74e 813c
000003c0: 76dc 8d3d 1ad2 443d 7596 31bd 51e0 afbc
000003d0: 1b9c a6bd 9358 02be 9278 7abd 2b72 353c
000003e0: f400 a43c caa3 b9bd 3087 46bd 4192 133d
000003f0: 88a4 00bd 76c0 fb3c 1cad 6e3d 0d57 debd

body.block2.conv.bias f4 [32]
-0.04707451 -0.048892565 0.055886194 -0.04892024 -0.02422062 -0.07358012 0.019013304 0.045767475
0.054738406 0.021234574 0.061205518 -0.052075613 -0.018079178 -0.024096532 0.05295129 0.05302056
0.041839097 0.00026683428 0.020545313 -0.00021735439 -0.020562796 0.056769967 -0.02498368 0.0026170867
-0.0054187444 0.007962681 -0.028567813 0.055454407 -0.04093586 0.0041648475 0.042566795 0.029081903
00000000: 34d1 40bd 9243 48bd ece8 643d 9760 48bd
00000010: 526a c6bc 2db1 96bd cac1 9b3c ad76 3b3d
00000020: 6135 603d 21f4 ad3c a3b2 7a3d 3d4d 55bd
00000030: c91a 94bc 1766 c5bc 74e3 583d 162c 593d
00000040: 795f 2b3d e4e5 8b39 a54e a83c a0e9 63b9
00000050: 4f73 a8bc a087 683d 93aa ccbc 6e83 2b3b
00000060: b98f b1bb e875 023c 0c07 eabc 2924 633d
00000070: 5cac 27bd 4679 883b 855a 2e3d 2c3d ee3c

body.block2.norm.weight f4 [32]
0.85784155 0.9031209 0.9385357 1.0035285 0.9941134 1.0042502 1.002379 0.91614175
1.0108929 0.96920025 0.98231715 0.991475 1.0152749 0.92115307 0.9732236 0.8884319
0.97150093 0.9438033 1.0265739 0.89510596 1.0291353 0.97509724 0.92628145 0.966545
0.98759633 0.968457 1.0526127 0.96731937 0.9890177 0.92986065 0.9454349 0.8255746
00000000: 819b 5b3f ee32 673f e043 703f 9f73 803f
00000010: 377e 7e3f 458b 803f f44d 803f 4488 6a3f
00000020: f064 813f 821d 783f 2379 7b3f 4ed1 7d3f
00000030: 87f4 813f b0d0 6b3f 2f25 793f 4670 633f
00000040: 49b4 783f 189d 713f c666 833f aa25 653f
00000050: b5ba 833f f99f 793f c820 6d3f 7e6f 773f
00000060: 1dd3 7c3f ccec 773f 03bc 863f 3ea2 773f
00000070: 4430 7d3f 590b 6e3f 0608 723f db58 533f

body.block2.norm.bias f4 [32]
-0.30089283 -0.1153971 -0.27556452 -0.0043059182 0.049622968 -0.008927183 -0.08512662 -0.33005717
-0.001739202 0.09878605 -0.3617507 -0.06865425 -0.5889288 -0.27453735 -0.1867654 -0.22960816
-0.2501935 -0.30908766 -0.5067287 -0.18014874 0.0302134 -0.37016112 -0.47838867 -0.1914185
-0.080193184 -0.2882371 -0.2507904 -0.14903726 -0.3513622 -0.12869641 -0.5210572 -0.42083463
00000000: a00e 9abe 5155 ecbd cb16 8dbe a918 8dbb
00000010: 7441 4b3d 5243 12bc de56 aebd 41fd a8be
00000020: eff5 e3ba 5750 ca3d 6337 b9be 999a 8cbd
00000030: 0ac4 16bf 2990 8cbe 6e3f 3fbe 671e 6bbe
00000040: 5d19 80be bd40 9ebe f9b8 01bf e978 38be
00000050: 1882 f73c c285 bdbe 5cef f4be 3603 44be
00000060: 533c a4bd d093 93be 9967 80be 399d 18be
00000070: bfe5 b3be fec8 03be 0164 05bf a377 d7be

body.block2.norm.running_mean f4 [32]
-0.4408388 -0.34102866 0.6916408 -0.5450328 -0.047733076 -0.61275566 -0.66750085 -0.92863494
-0.19717357 -0.6045526 0.41967666 0.03474078 -0.4077411 0.9048504 -1.041609 -1.3672519
-0.44896635 0.33424953 -0.008507468 0.24788752 -1.0436556 0.30457383 -0.016511224 -0.8615011
-0.7089637 0.24951702 -0.8288206 -0.116060145 -0.32178795 -0.062400468 -0.16498193 -0.24377146
00000000: a0b5 e1be 4f9b aebe 5f0f 313f 4587 0bbf
00000010: c283 43bd 8edd 1cbf 56e1 2abf 05bb 6dbf
00000020: dee7 49be f6c3 1abf dcdf d63e 594c 0e3d
00000030: 71c3 d0be 47a4 673f 7253 85bf 1c02 afbf
00000040: ebde e5be c122 ab3e e862 0bbc 3ad6 7d3e
00000050: 8296 85bf 1af1 9b3e 8c42 87bc 568b 5cbf
00000060: a57e 35bf 6481 7f3e 962d 54bf f1b0 edbd
00000070: 64c1 a4be a297 7fbd 06f1 28be 3a9f 79be

body.block2.norm.running_var f4 [32]
0.4142991 1.5751257 1.2457547 1.5692332 10.092772 1.9369941 2.2411149 0.55716777
4.020235 1.6702511 1.3404214 1.7345301 0.77016634 1.566374 0.7900122 0.8455963
0.52166283 0.32938072 0.66929764 2.0284467 10.034864 1.0874 0.72822857 0.9862731
2.4282281 0.74853486 0.5825936 1.2004559 0.27426934 5.3051453 0.8562827 0.86993057
00000000: 031f d43e b89d c93f e474 9f3f a2dc c83f
00000010: fe7b 2141 6cef f73f 6d6e 0f40 8ca2 0e3f
00000020: c4a5 8040 caca d53f ee92 ab3f 1505 de3f
00000030: 9f29 453f f17e c83f 3d3e 4a3f 0079 583f
00000040: b28b 053f 97a4 a83e 1757 2b3f 12d2 0140
00000050: ce8e 2041 ec2f 8b3f 306d 3a3f 657c 7c3f
00000060: 1768 1b40 fb9f 3f3f db24 153f 8aa8 993f
00000070: 086d 8c3e c0c3 a940 5835 5b3f c5b3 5e3f

body.block3.conv.weight f4 [32, 32, 3, 3]
-0.025850076 0.06153133 -0.019038033 0.04800867 0.045405302 -0.069294006 -0.016946608 -0.025481584
0.0014258331 -0.024841737 -0.026953112 0.06330663 0.037560754 -0.021790883 -0.036826808 0.022601664
0.055946 0.0391771 0.062530376 -0.048108153 -0.056483872 0.028577125 0.042268816 0.071831174
0.016054492 0.053385496 0.016141374 -0.03244833 0.04693519 -0.037562605 0.046004735 0.03492879
0.053310167 -0.05182997 -0.03643449 -0.09396414 0.11635154 0.06933357 0.035483185 0.011222905
-0.039331317 -0.05995433 0.0841357 -0.00048409725 -0.12393758 0.009418228 -0.018699657 -0.0019553094
-0.058178827 0.052843884 0.1390424 -0.117898665 -0.05832199 0.017954528 0.025570447 0.124710895
-0.09562155 -0.046725944 0.015514496 0.09236699 -0.025973946 0.03945801 0.008465497 0.079315886
-0.10617204 -0.18099266 -0.0141055295 -0.024679251 0.02550468 -0.024561314 0.009046916 0.0208362
0.053471543 0.08241153 -0.026937533 -0.010368494 0.09358466 -0.007386885 -0.018356634 -0.027821042
-0.030286787 0.031686395 -0.0128361555 -0.029779105 0.008905727 -0.02432676 0.032818995 -0.017943695
-0.05144855 0.030909853 0.05157542 -0.022334464 -0.06493182 0.03391774 0.014458759 0.009713795
0.051286206 0.00255653 -0.074532524 -1.8744344e-05 -0.0070357122 0.034119032 -0.013694917 0.014565827
0.109557524 -0.026566839 -0.0034334157 0.0609785 0.17546606 0.07670345 0.018266622 0.11622758
-0.061269023 0.026903229 -0.007937978 -0.06823099 -0.042851686 0.057146966 0.02732857 -0.017899506
0.03321609 0.05339086 0.030989252 0.09263439 -0.013266337 -0.036184207 0.027502341 0.02769262
0.0050838767 0.09149635 -0.06323001 0.019927865 0.0044999076 -0.018772658 0.10046009 -0.052686084
-0.017350791 -9.137819e-05 -0.0021170285 -0.018305518 -0.02345645 0.0043801647 0.004597132 0.049730375
0.049035832 0.10548746 -0.009659813 0.08497512 0.03795525 -0.0499449 -0.06536915 -0.015102351
0.01812634 -0.10760853 0.022563038 0.006725065 0.055100176 0.019449096 0.002049036 0.023867287
0.04914974 0.036912184 0.020269806 -0.022478787 -0.11984639 0.047066085 -0.061215565 -0.11400864
0.06744357 -0.051939044 -0.049420763 0.088876694 -0.012752877 -0.019007968 0.026354989 -0.08403593
-0.0033792746 0.052717518 -0.044194188 -0.01315146 0.119941935 0.08904079 0.04004873 0.054642048
0.03492469 -0.089585185 -0.037390344 -0.044508178 -0.1525459 -0.020985775 0.0016345222 -0.05322586
-0.0065952586 -0.09789754 -0.02278971 0.039094713 -0.013829943 0.013667546 0.0006729611 -0.06421868
0.084979445 0.004507369 -0.066035986 0.054055117 -0.055980593 0.04387753 0.05448741 -0.013654081
-0.06122758 0.039300065 -0.11212653 -0.03731599 -0.033813793 -0.035766803 -0.057889696 0.008482972
0.0057668127 0.12656172 0.028264055 -0.025233885 0.0645688 -0.012986969 -0.009790321 0.019406755
-0.07836356 -0.00834536 0.05188226 -0.002387561 0.05036456 0.03553464 0.018305907 0.022461146
0.00091600564 -0.035744615 0.0051959516 -0.018798066 0.13568842 0.016717978 0.030421557 0.10798577
-0.016785765 0.017604446 -0.012266506 -0.02764398 -0.019154055 -0.045217473 -0.03979827 -0.049781654
-0.03818179 0.01259889 0.03578712 -0.04728425 -0.019660505 -0.080595285 0.08433164 0.0012820811
00000000: 8ac3 d3bc 4708 7c3d a6f5 9bbc bda4 443d
00000010: e9fa 393d 04ea 8dbd 9dd3 8abc c1be d0bc
00000020: 05e3 ba3a e680 cbbc c6cc dcbc e8a6 813d
00000030: 4ed9 193d cb82 b2bc b5d7 16bd 2027 b93c
00000040: a227 653d 2b78 203d ed0f 803d 0e0d 45bd
00000050: a25b 67bd 931a ea3c 1122 2d3d 391c 933d
00000060: b684 833c c0aa 5a3d ea3a 843c 8ae8 04bd
00000070: 1d3f 403d 3fdb 19bd 766f 3c3d 7e11 0f3d
00000080: c35b 5a3d aa4b 54bd 553c 15bd 4570 c0bd
00000090: b749 ee3d c2fe 8d3d d156 113d 46e0 373c
000000a0: e019 21bd ac92 75bd 564f ac3d 6fce fdb9
000000b0: fcd2 fdbd e94e 1a3c 0630 99bc a624 00bb
000000c0: ec4c 6ebd d472 583d 2261 0e3e db74 f1bd
000000d0: 0ae3 6ebd 6015 933c 1d79 d13c 6d68 ff3d
000000e0: 3bd5 c3bd b463 3fbd 8330 7e3c e82a bd3d
000000f0: 50c7 d4bc b99e 213d deb2 0a3c 5e70 a23d
00000100: ba70 d9bd 2456 39be e11a 67bc 242c cabc
00000110: 31ef d03c cf34 c9bc 8439 143c aeb0 aa3c
00000120: fa04 5b3d 60c7 a83d 1aac dcbc 9ee0 29bc
00000130: 50a9 bf3d af0d f2bb a760 96bc f4e8 e3bc
00000140: ff1b f8bc 98c9 013d bd4e 52bc 4ff3 f3bc
00000150: 54e9 113c ea48 c7bc 366d 063d a8fe 92bc
00000160: b7bb 52bd a936 fd3c bf40 533d c4f6 b6bc
00000170: f9fa 84bd 54ed 0a3d 6ee4 6c3c 9c26 1f3c
00000180: 7c11 523d 758b 273b 82a4 98bd 2c3d 9db7
00000190: d58b e6bb 66c0 0b3d a560 60bc 82a5 6e3c
000001a0: b25f e03d b3a2 d9bc 2803 61bb 97c4 793d
000001b0: 60ad 333e b316 9d3d e2a3 953c ba08 ee3d
000001c0: 3af5 7abd 2964 dc3c 4b0e 02bc b0bc 8bbd
000001d0: 4085 2fbd f012 6a3d 2ae0 df3c fca1 92bc
000001e0: 980d 083d 60b0 5a3d 2cdd fd3c 19b7 bd3d
000001f0: 0d5b 59bc e435 14bd 974c e13c a2db e23c
00000200: a696 a63b 7062 bb3d bc7e 81bd c33f a33c
00000210: f673 933b 1ec9 99bc 05be cd3d 5dcd 57bd
00000220: 3f23 8ebc 4ba2 bfb8 d8bd 0abb 74f5 95bc
00000230: be27 c0bc 7c87 8f3b 8aa3 963b 14b2 4b3d
00000240: ccd9 483d cf09 d83d 3144 1ebc 7007 ae3d
00000250: f776 1b3d 0693 4cbd 43e0 85bd da6f 77bc
00000260: b17d 943c dc61 dcbd 1fd6 b83c ef5d dc3b
00000270: b9b0 613d b653 9f3c 1f49 063b 5485 c33c
00000280: 3d51 493d 3b31 173d dd0c a63c 6f25 b8bc
00000290: 0672 f5bd 5ec8 403d 2cbd 7abd 5d7d e9bd
000002a0: db1f 8a3d 09be 54bd 6d6d 4abd fc04 b63d
000002b0: 71f1 50bc 99b6 9bbc 6be6 d73c 081b acbd
000002c0: d276 5dbb 53ee 573d f704 35bd 3979 57bc
000002d0: 1ea4 f53d 055b b63d 230a 243d 57d0 5f3d
000002e0: 310d 0f3d 7078 b7bd 9e26 19bd 354e 36bd
000002f0: fe34 1cbe 5cea abbc 773d d63a 5c03 5abd
00000300: 0a1d d8bb 817e c8bd 7cb1 babc c721 203d
00000310: fc96 62bc d8ed 5f3c a869 303a 1585 83bd
00000320: b409 ae3d 8db2 933b e03d 87bd e668 5d3d
00000330: e84b 65bd edb8 333d 312e 5f3d 5eb5 5fbc
00000340: c5c9 7abd 1bf9 203d 98a2 e5bd a7d8 18bd
00000350: 5580 0abd 3680 12bd bf1d 6dbd 2afc 0a3c
00000360: 88f7 bc3b 6599 013e 058a e73c 4bb7 cebc
00000370: a63c 843d 4cc7 54bc 9567 20bc eafa 9e3c
00000380: 137d a0bd faba 08bc 7e82 543d a078 1cbb
00000390: 124b 4e3d c58c 113d 45f6 953c 7000 b83c
000003a0: 1920 703a f268 12bd cd42 aa3b 67fe 99bc
000003b0: e8f1 0a3e 24f4 883c a136 f93c a527 dd3d
000003c0: 4d82 89bc 3337 903c 75f9 48bc a175 e2bc
000003d0: f7e8 9cbc f535 39bd 8303 23bd d9e7 4bbd
000003e0: 8264 1cbd 936b 4e3c 8495 123d 21ad 41bd
000003f0: 110f a1bc 240f a5bd 11b6 ac3d 810b a83a

body.block3.conv.bias f4 [32]
0.012306437 0.032190934 -0.024605261 0.014410259 0.037008163 -0.0063529625 -0.0016220085 -0.00028205707
-0.054983668 -0.0238854 -0.044846743 0.025628537 -0.013044275 -0.03314693 -0.03500096 0.022168107
-0.041833036 -0.025456026 -0.053150237 0.0063504516 -0.034496132 -0.030786185 -0.05119432 0.04000157
0.036502175 0.010786313 0.02924996 -0.015957156 0.00015809094 0.0009078631 -0.0708621 0.0025309054
00000000: f0a0 493c a4da 033d f990 c9bc 0219 6c3c
00000010: df95 173d 832c d0bb 9399 d4ba 0fe1 93b9
00000020: 8e36 61bd 50ab c3bc 38b1 37bd f0f2 d13c
00000030: a8b7 55bc 13c5 07bd 2b5d 0fbd e499 b53c
00000040: 1e59 2bbd 2889 d0bc 10b4 59bd 7317 d03b
00000050: d14b 0dbd 4f33 fcbc 23b1 51bd b0d8 233d
00000060: 4e83 153d 13b9 303c 9d9d ef3c 95b8 82bc
00000070: 37c5 2539 a9fd 6d3a 2620 91bd 8cdd 253b

body.block3.norm.weight f4 [32]
0.75058216 0.61662304 0.78513646 0.79991233 0.70530415 0.6218062 0.7671384 0.5897965
0.70326823 0.75883657 0.71529466 0.7890638 0.68180287 0.6682385 0.57757074 0.6639403
0.6235393 0.5962595 0.7238869 0.7201871 0.742402 0.59911585 0.65126646 0.66027486
0.73517853 0.6861317 0.667614 0.68027794 0.75322187 0.5996358 0.7896085 0.67110395
00000000: 2726 403f 02db 1d3f b4fe 483f 0ec7 4c3f
00000010: d08e 343f b12e 1f3f 2f63 443f e7fc 163f
00000020: 6309 343f 1d43 423f 8d1d 373f 1600 4a3f
00000030: a28a 2e3f ae11 2b3f addb 133f fef7 293f
00000040: 46a0 1f3f 76a4 183f a750 393f 2f5e 383f
00000050: 0f0e 3e3f a85f 193f 66b9 263f c607 293f
00000060: a934 3c3f 54a6 2f3f c0e8 2a3f b226 2e3f
00000070: 26d3 403f bb81 193f c823 4a3f 78cd 2b3f

body.block3.norm.bias f4 [32]
-0.35571885 -0.28760827 -0.46365952 -0.19955553 -0.28054413 -0.32207608 -0.27253094 -0.35260692
-0.36776248 -0.36339143 -0.29872724 -0.4023027 -0.32062274 -0.32457593 -0.26035607 -0.28492022
-0.21289527 -0.288671 -0.24340707 -0.1319174 -0.21535765 -0.2550826 -0.30107448 -0.29339635
-0.30197114 -0.1804905 -0.27493384 -0.23524906 -0.37280637 -0.30183673 -0.2612989 -0.29861978
00000000: c820 b6be 6441 93be c864 edbe 4958 4cbe
00000010: 7ba3 8fbe 28e7 a4be 2d89 8bbe e588 b4be
00000020: 5d4b bcbe 710e babe c7f2 98be 9ffa cdbe
00000030: aa28 a4be d12e a6be 644d 85be 10e1 91be
00000040: 3801 5abe afcc 93be b43f 79be 5b15 07be
00000050: b786 5cbe 309a 82be 6f26 9abe 0c38 96be
00000060: f69b 9abe 80d2 38be 21c4 8cbe 21e5 70be
00000070: 7ae0 bebe 588a 9abe f8c8 85be b1e4 98be

body.block3.norm.running_mean f4 [32]
0.13222687 -1.0583136 -0.2416163 -0.97281003 0.02821504 0.02575866 0.44430125 -0.3629505
-0.9716654 -0.4023569 -0.50309175 -0.0016865714 0.24269073 -0.85481185 -0.78714067 -1.1927578
-0.98029333 -0.7617952 -1.1385082 0.61883557 0.21634017 -0.33322418 -0.6281839 0.012056015
-0.44694728 -0.48665652 -0.82501495 -0.342834 -0.51389366 -0.6131711 -0.74795127 0.0041005425
00000000: 7b66 073e d276 87bf 436a 77be 140a 79bf
00000010: 3a23 e73c d303 d33c 747b e33e a6d4 b9be
00000020: 10bf 78bf b901 cebe 9fca 00bf f20f ddba
00000030: eb83 783e f3d4 5abf 0d82 49bf 4aac 98bf
00000040: 81f4 7abf 0305 43bf a3ba 91bf 026c 1e3f
00000050: 4788 5d3e 5c9c aabe a9d0 20bf 9886 453c
00000060: 46d6 e4be 0b2b f9be 2e34 53bf f087 afbe
00000070: 898e 03bf c8f8 1cbf bc79 3fbf d85d 863b

body.block3.norm.running_var f4 [32]
0.38684478 0.660734 0.50702834 3.6134322 3.3970437 0.5181414 1.1041092 0.77603805
1.7329384 0.47883824 0.764035 0.98551613 0.48351067 0.8752679 0.7464185 3.0836613
0.66362536 1.0696436 2.5146909 1.6871045 5.620344 1.7900298 1.7247605 1.369674
2.527676 1.4590449 2.4609718 2.4175916 0.8951829 0.7306963 0.90547997 0.6060459
00000000: 8510 c63e dd25 293f 9ccc 013f 7942 6740
00000010: 2a69 5940 eaa4 043f 7353 8d3f 6eaa 463f
00000020: edd0 dd3f 492a f53e cc97 433f c94a 7c3f
00000030: b68e f73e 8f11 603f 4815 3f3f b55a 4540
00000040: 5ae3 293f 15ea 883f b2f0 2040 0af3 d73f
00000050: dcd9 b340 b21f e53f f4c4 dc3f 7a51 af3f
00000060: 72c5 2140 fcc1 ba3f 9080 1d40 d2b9 1a40
00000070: b52a 653f ea0e 3b3f 89cd 673f d325 1b3f

tail.0.weight f4 [3, 32, 3, 3]
0.0099806 -0.016961424 -0.0050294907 -0.009068808 0.06335444 -0.006514505 0.028323103 -0.0046558916
-0.032077786 0.03331952 -0.048781794 0.023536406 0.016221087 0.05117657 -0.049483754 -0.054135054
0.03810082 -0.042603504 -0.020131206 -0.014619267 0.010982847 0.09453531 -0.06357622 0.050440397
-0.058561273 -0.026194679 0.010904543 0.0054407627 -0.0027272198 -0.01524076 -0.010184715 -0.028250845
-0.046846826 -0.05820612 -0.006729592 0.0007686657 -0.02086057 0.0045052054 -0.029295791 -0.008026231
-0.012615635 0.012392269 -0.060941618 0.029785668 0.028613891 0.015402551 -0.010227561 -0.03226234
-0.029665448 -0.008519419 0.010505936 0.039104316 -0.026796497 -0.0025734603 0.030756567 -0.046554722
0.050635573 0.05256141 -0.0364857 0.0072864564 0.032953378 0.036659624 -0.0009662005 -0.033804998
0.0027340262 -0.031456266 0.025199778 -0.019694153 -0.056999296 -0.028682273 0.0340218 0.044709083
-0.005336144 -0.058374602 -0.06970097 0.022115663 -0.006092942 0.050554913 -0.017397804 0.023442145
-0.078178205 -0.008421444 0.019141829 0.0008896067 0.013578667 -0.025621098 -0.0307933 -0.0040860297
0.008955103 0.030721435 0.029006997 -0.019705873 0.008773764 -0.048816632 -0.020832798 -0.00020311994
0.023036323 0.051286485 -0.00094468356 -0.025255395 -0.0062757293 0.019535922 -0.013344686 -0.05915075
0.035113957 -0.0025236695 -0.024007624 -0.041120615 -0.016043713 -0.07663095 0.05401823 0.016502952
0.030191932 -0.043887943 0.027819125 -0.02372517 0.0068008257 -0.006811763 0.07338983 0.031782035
0.02064022 -0.07353179 0.033191495 0.0073683667 0.01811285 0.022372365 0.045230158 -0.0069780163
0.026125833 -0.003911393 -0.0061488086 0.008739065 0.07777981 0.024822643 0.041663487 -0.0017287864
0.03779054 0.017538372 0.028776309 0.0050108745 0.026921438 -0.030681504 -0.039706588 0.031789202
0.020943372 -0.016050557 0.06050337 -0.0010157531 0.011094197 0.03517439 -0.025364228 -0.014493941
-0.05493487 -0.060744017 0.03520693 -0.010657774 -0.025521701 -0.0034237725 -0.016004432 0.007405163
0.026130805 -0.031312693 -0.012532305 -0.009984635 -0.0066218274 0.03574712 0.029203996 0.106156066
0.006297096 -0.032091398 0.008327383 -0.0061720284 0.006709944 -0.02120152 -0.043719728 0.005025093
-0.024684265 0.009163903 0.018638153 -0.013500381 0.010690309 0.016793659 0.031251576 0.03184065
0.002640062 0.023051418 0.0003286433 -0.017202245 -0.023701573 -0.024511533 -0.03427446 -0.03667831
0.007222123 -0.010691078 0.01901744 0.062177524 -0.0030174993 -0.06148161 -0.063746266 -0.00077918463
0.027069638 0.029485276 -0.036750276 -0.03053097 0.035207417 0.0412873 0.027257128 -0.018368948
-0.010554948 -0.008309215 -0.04795781 -0.013518999 0.005192105 0.0037112366 0.06456083 -0.013040931
0.0075452984 0.005740962 0.0308516 -0.07084903 -0.04324474 0.017127601 0.0005874284 0.0029811664
-0.015104191 -0.062605545 -0.022564324 -0.037496634 0.034606434 -0.045285515 0.043498136 0.0014708596
-0.03326562 0.017815705 0.03786524 0.015262833 -0.011155717 -0.0659186 0.005394809 0.027910855
-0.08166635 -0.026263213 -0.020023227 -0.014562601 -0.04871003 -0.013890727 0.027471365 -0.011946682
-0.061752386 0.08562924 -0.016957453 0.011892619 0.017032025 -0.038856614 0.026348906 0.05030777
00000000: ac85 233c aff2 8abc 6dce a4bb 5695 14bc
00000010: f9bf 813d a177 d5bb da05 e83c 7390 98bb
00000020: ff63 03bd 0d7a 083d 6bcf 47bd 6ccf c03c
00000030: 16e2 843c 869e 513d 7aaf 4abd b8bc 5dbd
00000040: 9b0f 1c3d 0381 2ebd 33ea a4bc a685 6fbc
00000050: 66f1 333c bb9b c13d 4034 82bd 979a 4e3d
00000060: f2dd 6fbd 3996 d6bc f8a8 323c 6d48 b23b
00000070: 28bb 32bb 61b4 79bc cadd 26bc 516e e7bc
00000080: 75e2 3fbd 8a69 6ebd e983 dcbb 4880 493a
00000090: c9e3 aabc 67a0 933b bafd efbc 7480 03bc
000000a0: cfb1 4ebc f208 4b3c eb9d 79bd 1301 f43c
000000b0: ae67 ea3c fb5a 7c3c 8091 27bc 8425 04bd
000000c0: f404 f3bc 0895 0bbc 1721 2c3c d92b 203d
000000d0: 5484 dbbc 80a7 28bb 32f5 fb3c 2ab0 3ebd
000000e0: 3f67 4f3d a24a 573d 0872 15bd 3ac3 ee3b
000000f0: 1ffa 063d 6728 163d 9e48 7dba 1c77 0abd
00000100: 592d 333b 49d8 00bd c46f ce3c a255 a1bc
00000110: 1878 69bd 16f7 eabc 715a 0b3d df20 373d
00000120: d2da aebb 351a 6fbd 62bf 8ebd e82b b53c
00000130: 4da7 c7bb ab12 4f3d d785 8ebc be09 c03c
00000140: e51b a0bd 19fa 09bc 53cf 9c3c 7f34 693a
00000150: 0f79 5e3c 56e3 d1bc 3b42 fcbc 1ae4 85bb
00000160: 6db8 123c 85ab fb3c 15a0 ed3c 366e a1bc
00000170: d5bf 0f3c f3f3 47bd 8ba9 aabc 98fc 54b9
00000180: acb6 bc3c c711 523d a4a4 77ba 67e4 cebc
00000190: a2a4 cdbb cc09 a03c aba3 5abc 0f48 72bd
000001a0: a7d3 0f3d 2664 25bb a3ab c4bc 176e 28bd
000001b0: 1b6e 83bc b0f0 9cbd 3842 5d3d 3331 873c
000001c0: 1255 f73c d8c3 33bd efe4 e33c 4a5b c2bc
000001d0: 76d9 de3b 3635 dfbb 684d 963d e12d 023d
000001e0: ae15 a93c d697 96bd cef3 073d 5772 f13b
000001f0: 6661 943c 4046 b73c 4243 393d d8a7 e4bb
00000200: d805 d63c 252b 80bb f27b c9bb 4c2e 0f3c
00000210: 054b 9f3d db58 cb3c 55a7 2a3d 7298 e2ba
00000220: 41ca 1a3d a2ac 8f3c 4bbc eb3c 4332 a43b
00000230: 598a dc3c c757 fbbc 60a3 22bd 6535 023d
00000240: 6f91 ab3c 757c 83bc 62d2 773d 0523 85ba
00000250: 6fc4 353c 0513 103d a4c8 cfbc ff77 6dbc
00000260: 6303 61bd b8ce 78bd 2435 103d f29d 2ebc
00000270: e312 d1bc 5f61 60bb ba1b 83bc 02a7 f23b
00000280: 4510 d63c bd41 00bd 4c54 4dbc 9896 23bc
00000290: eafb d8bb 926b 123d 383d ef3c 5a68 d93d
000002a0: df57 ce3b 4572 03bd 936f 083c ba3e cabb
000002b0: 17df db3b cfae adbc 7513 33bd 89a9 a43b
000002c0: a836 cabc 3224 163c 0aaf 983c b430 5dbc
000002d0: 6826 2f3c db92 893c a701 003d 576b 023d
000002e0: e404 2d3b 54d6 bc3c c24d ac39 b9eb 8cbc
000002f0: cd29 c2bc 69cc c8bc 6063 0cbd ff3b 16bd
00000300: 8fa7 ec3b a229 2fbc 76ca 9b3c dcad 7e3d
00000310: 3dc1 45bb 24d4 7bbd 678d 82bd 3242 4cba
00000320: 25c1 dd3c 1b8b f13c 7587 16bd 161c fabc
00000330: a735 103d df1c 293d 574a df3c 7a7a 96bc
00000340: a9ee 2cbc 6023 08bc 696f 44bd cb7e 5dbc
00000350: 8922 aa3b 3838 733b 7838 843d a1a9 55bc
00000360: 8d3e f73b ae1e bc3b 7fbc fc3c 4c19 91bd
00000370: 6621 31bd 2f4f 8c3c a7fd 193a ac5f 433b
00000380: 9277 77bc 5637 80bd d1d8 b8bc 1296 19bd
00000390: 7abf 0d3d 4e7d 39bd 1a2b 323d dcc9 c03a
000003a0: 8841 08bd 3ef2 913c 9518 1b3d f610 7a3c
000003b0: 78c6 36bc 5500 87bd f0c6 b03b 4ea5 e43c
000003c0: b040 a7bd f325 d7bc c007 a4bc fa97 6ebc
000003d0: 2b84 47bd ef95 63bc a10b e13c 04bc 43bc
000003e0: 12f0 7cbd 625e af3d 5bea 8abc 42d9 423c
000003f0: bf86 8b3c 1d28 1fbd a9d9 d73c 850f 4e3d

tail.0.bias f4 [3]
0.001684476 0.02978445 0.04386335
00000000: a3c9 dc3a 85fe f33c 0eaa 333d
