Examples/Tuebingen_Neckarfront/pdl_e8000_1px_lr0.0001a5.0_up-conv5_1_W[1.0, 0.5, 0.1, 0.075, 0.075](2)/5/netG.pth (torch, 471621 bytes, 26 tensors)

head.conv.weight f4 [64, 3, 3, 3]
000000 f5 45 c5 3c 4c c0 12 bc 1f 8e 4e bc 64 ef 71 3b
       0.02408121 -0.00895698 -0.0126071265 0.003691637
000010 34 d0 7d 3c 18 80 f7 3b 8b 8d 9f bc 82 cd e7 bb
       0.015491534 0.0075531118 -0.019476673 -0.007074059
000020 df 41 0d bd f8 ed 09 3b dd bd 2a 3c 57 7e 8f bc
       -0.034486648 0.0021046381 0.0104212435 -0.017516298
000030 a8 98 a7 3c 83 c5 42 bd d8 f5 0b bd af bd 37 bd
       0.020458534 -0.047551643 -0.03417 -0.04485863
000040 30 73 cb 3c d7 31 37 3c 8c 58 70 3c d0 56 23 3c
       0.0248352 0.011181316 0.014669549 0.009969428
000050 4c 5d 67 3c 6d 0c f0 bc 39 43 23 3c b2 c0 9a 3c
       0.014121365 -0.0293028 0.009964758 0.018890712
000060 63 be e4 bc 7a 64 f9 ba 00 d8 8e bc b2 fe c0 3c
       -0.027922815 -0.0019027137 -0.017436981 0.023558948
000070 af d0 be 3c 2c 9f 9e 3c 34 d4 aa bb be 31 6d 3c
       0.023292867 0.019363008 -0.005213285 0.0144771915
000080 c8 4e 97 bb 75 12 4f bc 0e 7b 84 3c d8 17 85 3c
       -0.0046175458 -0.012638678 0.016171958 0.016246721
000090 9e e0 6a 3b 1c 3b a4 bc dd d1 16 bc 08 84 d2 bb
       0.0035839449 -0.020047717 -0.009205309 -0.0064244308
0000a0 c3 8f bb bb b6 ad 4b bc 49 47 50 3c b5 a1 22 bd
       -0.005723925 -0.012431553 0.012712308 -0.039704997
0000b0 5d fb 0e bd 3d d3 1d bd e1 84 0e bd 6f ae 04 bc
       -0.034907687 -0.03853153 -0.034794692 -0.008098229
0000c0 93 3c 06 ba a3 eb fb ba 7c ed 2e bb b9 ca e7 3c
       -0.00051207206 -0.0019220005 -0.0026691845 0.028294908
0000d0 3a 21 31 bb d8 b5 eb 3c 4a e4 29 3c 6b a8 ea 3b
       -0.0027027861 0.028773233 0.01036937 0.0071611903
0000e0 ae 8f 27 3c 1c 4d e0 3c 69 a8 0e 3d e4 ae b2 3c
       0.010227127 0.027380519 0.034828577 0.02181191
0000f0 13 00 c2 3c f1 aa a6 bc c9 09 9d 36 ec 23 3b 3b
       0.023681676 -0.020345183 4.6801038e-06 0.0028555347
000100 4a 62 18 3d 1c 96 e8 bc ef c2 97 3c 84 68 e2 3b
       0.03720311 -0.02839189 0.018525569 0.006909432
000110 fe 20 a2 bc 84 47 d0 3c ed 8d 49 bb 82 94 ff 3c
       -0.019791123 0.025424726 -0.003075476 0.031198744
000120 96 3c a6 3b 19 17 a6 3c b7 26 d6 bc f8 83 a7 3a
       0.0050731404 0.020274686 -0.026141508 0.0012780419
000130 5a 40 bf bc a6 9f 0f bd 0a 37 c3 3c 5a 84 45 3c
       -0.023346115 -0.035064362 0.023829956 0.012055481
000140 44 c2 09 3b 59 07 8f 3b cc 09 6b 3c d4 7d fe 3b
       0.0021020332 0.0043648896 0.0143455975 0.0077664647
000150 12 56 3a bb cc 17 e6 3c db 14 92 bc 8f 1d 22 bd
       -0.002843265 0.02808752 -0.01783221 -0.03957897
000160 d6 59 57 bc 5d 98 a3 3c 29 1c 89 bc 88 5c c0 3b
       -0.013143977 0.019970113 -0.01673706 0.0058704056
000170 42 01 8d bc 8a fc 21 bc 37 f6 73 3c c4 c7 02 bd
       -0.017212514 -0.00988687 0.014890245 -0.031928793
000180 0e cb c5 3c d8 46 a5 3c 1e 29 04 bc ca eb 83 3c
       0.024144676 0.020175382 -0.008066444 0.016103644
000190 4b 96 22 bc 37 3e 92 bb 26 a6 ee 3b 09 ac a2 3c
       -0.009923528 -0.004462983 0.00728299 0.019857423
0001a0 39 8f cc bc ac f8 58 3b 1b f9 83 bc 53 e9 84 bd
       -0.024970638 0.0033107204 -0.016109994 -0.064898156
0001b0 18 01 eb 3b f6 98 d5 3a ab 18 0b 3c a9 f6 c1 bb
       0.0071717612 0.0016296196 0.008489768 -0.0059192968
0001c0 3f 47 16 3c 9d 72 c8 bc df 76 a5 bb 31 b1 9a bb
       0.00917226 -0.024468714 -0.005049571 -0.00472083
0001d0 a0 36 96 3c 9e b4 67 3c 6c 5f b2 3c 6e c9 5c bc
       0.018336594 0.014142184 0.021774016 -0.013475759
0001e0 b5 63 9e ba cd f4 fe 3b a9 f3 8c bd 2f f6 20 3c
       -0.0012084158 0.0077806474 -0.06882412 0.00982432
0001f0 a6 f3 62 3d e0 0b 89 bc 82 0d 1c 3d b7 86 fd bb
       0.055408143 -0.016729295 0.03809882 -0.0077370065
000200 b9 09 ad bc 82 f5 ec ba 49 98 e5 3b 80 0b 0c bb
       -0.0211228 -0.0018078538 0.007006679 -0.002136916
000210 3c 6b 3d bc 85 c0 0c 3d 01 56 a2 bc cc 60 b7 bc
       -0.011561211 0.03436329 -0.0198164 -0.022385024
000220 95 79 51 bc 3c e6 03 3d c2 dd 74 3c ad 52 76 bb
       -0.012785335 0.03220199 0.014945449 -0.00375859
000230 91 d5 00 bd a7 61 03 3c dd f6 0a 3d d3 83 8b 3b
       -0.031453673 0.008018888 0.033926833 0.004257658
000240 80 06 74 bc 49 b0 18 bc 88 65 53 bc 3b 82 7b bc
       -0.014894128 -0.009319373 -0.012902625 -0.015350874
000250 46 b8 3a bd 8a 5d a0 bb 2f 85 bb bc 95 f9 2c bc
       -0.045585893 -0.004893963 -0.022890655 -0.010557552
000260 06 f8 ae bc 96 f2 ba 3c 38 a4 0d bc 31 4b c1 3b
       -0.021358501 0.022820752 -0.00864511 0.005898856
000270 cc 30 36 3c 28 f4 69 bc 33 bb d3 3c a5 79 97 bc
       0.0111200325 -0.014279403 0.0258461 -0.018490622
000280 48 68 86 3b 10 04 28 3c 85 10 0b bd d6 a3 ce bb
       0.0041017868 0.010254875 -0.0339513 -0.006306152
000290 57 5c 20 bc 1b 41 a1 bc 6b 12 4d 3c 05 37 42 3b
       -0.009787641 -0.019684365 0.012516598 0.0029634845
0002a0 ae 4b f0 3c 8e 4a 64 3c a1 02 c6 3c 71 d6 79 bd
       0.029332962 0.013933791 0.024171175 -0.060995523
0002b0 cb e5 8a 3c fd 94 74 bc 7c de a4 3c 8c 11 c0 3b
       0.016955277 -0.0149281 0.02012562 0.0058614668
0002c0 2a 5e bc b9 80 53 f9 3c 81 79 d1 38 c5 66 b0 ba
       -0.00035928312 0.030435324 9.9885285e-05 -0.0013458362
0002d0 f7 6f cc bb 6e 94 82 3c 1e 61 e8 3c 8b f9 a6 3c
       -0.006238933 0.015939917 0.028366622 0.020382663
0002e0 94 94 be 3c 7f 35 ec bc 34 69 c5 bc a0 bd 90 bc
       0.023264207 -0.028834103 -0.024098016 -0.017668545
0002f0 80 4a da 39 f6 26 b5 39 95 9c a1 3c 9f 4b 5d bb
       0.00041635707 0.00034552038 0.019727984 -0.0033766998
000300 13 9a 14 bd a7 24 18 3d 25 40 1c bc 9c 87 a1 3c
       -0.03627975 0.03714433 -0.009536778 0.019717984
000310 cc f9 69 3c aa 82 32 bd b6 9a 94 3c ba 3e 97 bc
       0.014280748 -0.043581642 0.018140178 -0.018462528
000320 da c8 96 bc e5 2d 7d 3c 18 fa 6b 3d f6 84 b8 bc
       -0.01840632 0.015452837 0.057611555 -0.022524338
000330 b5 2d c0 bc 6d 9b 34 3b 71 e8 79 bc a6 fa 6a bc
       -0.023459295 0.0027558461 -0.015253172 -0.014341986
000340 4e 96 b7 ba 1d 7a 4c 3c a5 2a fa 3c 48 6e f4 3c
       -0.0014006586 0.012480286 0.030537913 0.029837742
000350 74 46 84 bb ae 7c 2e ba da 5e 13 bc 07 21 5c 3c
       -0.004036719 -0.0006656152 -0.008994782 0.013435609
000360 0d 29 66 bb 05 ca 1d 3c 40 23 52 bd f5 7f bc bc
       -0.0035119683 0.009630685 -0.05130315 -0.023010233
000370 d3 32 24 3c e7 a0 c3 3a 82 b1 3c 3c ba 89 19 bc
       0.010021883 0.0014925272 0.011516931 -0.0093712155
000380 3e 46 20 3b a7 56 42 3d a5 00 45 3a f2 a4 a1 3c
       0.002445593 0.04744592 0.00075150497 0.019731972
000390 c3 a8 91 bd d1 ec aa 3c 25 63 23 3d 70 f2 86 3a
       -0.07112267 0.020864876 0.039889473 0.0010295641
0003a0 8e 09 78 bc b4 f1 ad ba 9d 97 aa bc af 6c a0 bc
       -0.015138997 -0.0013270886 -0.020824248 -0.019583074
0003b0 8c c5 05 3d 0e 04 b8 bc d6 2f 57 bc 0d 89 84 3b
       0.0326591 -0.02246287 -0.013133964 0.004044658
0003c0 c5 7f 4a bd 56 86 c2 bb 7a 28 07 3c 0d dc 72 bc
       -0.049438257 -0.0059364242 0.008249396 -0.014822972
0003d0 48 75 af 3b b3 a4 d8 bb 4e 93 98 3b 2d 7c f0 bc
       0.005354557 -0.0066114306 0.004656232 -0.029356087
0003e0 e7 a1 de bc c4 3b aa 3c f9 7e e8 bc dd 3f 7c 3c
       -0.02717681 0.020780452 -0.028380858 0.015396086
0003f0 fe 03 cb bc 96 20 d6 3c fe 85 ac 3b be e7 f9 3c
       -0.024782177 0.026138585 0.0052649966 0.030506011

head.conv.bias f4 [64]
000000 97 94 50 3c 8e 30 0b be e3 70 0d bd 23 76 25 3e
       0.012730739 -0.13592741 -0.034531485 0.16158347
000010 7c cc 06 3e e6 07 1b 3e c0 5f 0a be b9 3c 40 be
       0.13163942 0.15139732 -0.13513088 -0.18773164
000020 cb a5 59 3d da 9b 0e be 04 ed 73 bd a8 d4 cb bd
       0.053136628 -0.1392664 -0.059552208 -0.0995267
000030 d5 3e 29 3e c8 95 8e bd 06 3a b5 bc f8 40 40 be
       0.16527875 -0.06962162 -0.022122394 -0.18774784
000040 23 7a 20 be b8 5a 97 bd 85 f5 9a 3c fe fe c6 bd
       -0.15671591 -0.0739035 0.018915901 -0.09716605
000050 6c 8f 2a 3e b6 a0 3a be 0e ef 97 3d 6a 18 40 be
       0.16656274 -0.18225369 0.07418643 -0.18759313
000060 88 04 42 3d a3 a5 3a 3e 70 2d f5 ba 4c 77 e5 3d
       0.047367603 0.18227248 -0.0018705558 0.11204395
000070 21 07 25 bd fa c1 2a 3e 62 9a 22 bd 20 7c 02 3e
       -0.04029 0.16675559 -0.039698012 0.12742662
000080 d3 ff 96 3c ff 4e b1 3c 95 f0 f6 bd 4f b6 15 be
       0.018432533 0.021644114 -0.12057606 -0.14620326
000090 ff 14 4e 3d af 7a 1b be 0e e7 8b 3d d0 7a 0a be
       0.050312992 -0.15183519 0.068311796 -0.13523412
0000a0 dd 6e 41 bd 79 cf 5b bd 75 8f 19 3e cb 20 1b bd
       -0.047224868 -0.05366466 0.14996131 -0.03787307
0000b0 92 e2 f3 3d 88 66 33 3e c6 ab a3 3d 2d 80 d4 3d
       0.11908449 0.17519581 0.079917476 0.1037601
0000c0 39 46 7b 3c db 09 03 3e 64 35 07 be 06 8a ec 3d
       0.015336567 0.12796728 -0.1320396 0.115497634
0000d0 a5 2c c8 3c 78 c4 8a bd a1 71 48 3d fa fe 3d 3c
       0.02443535 -0.06775755 0.04893649 0.011596436
0000e0 ae bf 3b 3e d0 45 9b 3c 03 15 1b bd 6e 9f b7 bb
       0.18334839 0.018954188 -0.037861835 -0.0056037223
0000f0 dc e4 db 3c 7d 5b 6b bd f9 6f 12 3e 77 5a cd 3d
       0.026842527 -0.057460297 0.14300527 0.100270204

head.norm.weight f4 [64]
000000 87 e2 76 3f d1 3f 83 3f c1 4f 80 3f e5 a9 78 3f
       0.96439403 1.025385 1.0024339 0.9713424
000010 39 72 82 3f 1b fa 80 3f f2 2e 80 3f 77 20 80 3f
       1.0191108 1.0076326 1.0014327 1.0009907
000020 91 b6 75 3f 16 63 79 3f 45 24 81 3f 4b c5 80 3f
       0.959817 0.9741682 1.0089194 1.0060209
000030 bd ba 85 3f 8b 86 7e 3f d9 27 7a 3f f5 9d 82 3f
       1.0447613 0.99424046 0.9771705 1.0204455
000040 9b 6a 7d 3f 39 ba 81 3f 84 f7 82 3f 77 bc 7d 3f
       0.9899079 1.0134956 1.0231786 0.991157
000050 c8 b7 7b 3f 56 03 7f 3f 67 eb 84 3f d6 2c 7f 3f
       0.983273 0.99614465 1.0384339 0.9967779
000060 49 df 81 3f b6 05 83 3f 98 03 80 3f d7 89 81 3f
       1.0146266 1.0236118 1.0001097 1.012019
000070 a9 a6 80 3f c6 19 81 3f 1a d5 83 3f d6 46 74 3f
       1.0050861 1.008599 1.0299408 0.9542059
000080 bf 2e 7d 3f 67 9d 83 3f 92 dd 7b 3f b3 0a 81 3f
       0.98899454 1.028241 0.98384964 1.008139
000090 64 4c 84 3f fc ae 80 3f d1 0b 82 3f 61 57 82 3f
       1.0335813 1.0053401 1.0159856 1.0182916
0000a0 e9 49 81 3f b8 31 7f 3f 54 63 80 3f 88 71 81 3f
       1.010068 0.9968524 1.0030313 1.0112772
0000b0 6d 89 7b 3f d3 4b 79 3f ed 66 80 3f 7b 0e 77 3f
       0.9825657 0.97381324 1.003141 0.9650647
0000c0 0e 51 7e 3f 14 9f 79 3f 85 d5 7b 3f 13 cb 80 3f
       0.9934243 0.9750836 0.9837268 1.0061973
0000d0 74 f6 7e 3f ea ea 7b 3f 3a eb 80 3f b8 0a 7f 3f
       0.9959481 0.98405325 1.0071785 0.9962573
0000e0 fc 43 7e 3f 99 16 7a 3f fe ec 7a 3f 09 c0 78 3f
       0.99322486 0.9769073 0.9801787 0.9716802
0000f0 5c b0 82 3f 11 d0 79 3f da 90 80 3f c9 bc 79 3f
       1.0210071 0.9758311 1.0044205 0.9755369

head.norm.bias f4 [64]
000000 73 13 48 bd 14 b4 2d bd b6 a5 1b bd 2f 6a ba bc
       -0.048846673 -0.042408064 -0.03799983 -0.02275571
000010 25 ab 36 bc 6c e0 4a 3b 35 94 46 3b dd a5 44 bd
       -0.0111492025 0.003095652 0.003030074 -0.048009742
000020 a3 82 42 3c 64 3f 3f 3b 65 df 9b bc c6 c4 19 bd
       0.0118719665 0.002918207 -0.019027421 -0.037541173
000030 1e 2c 02 bd f5 3c 5a bd 8d 20 d9 bc 7f 17 34 bd
       -0.031780355 -0.05328079 -0.02650478 -0.04396772
000040 8c 6e 0c bd 7c f2 ec bc 76 87 f7 bc ca 59 18 bd
       -0.034285113 -0.02892422 -0.03021596 -0.037195005
000050 85 53 58 3b 30 d4 84 bd 2b cb c0 bc 80 48 46 bd
       0.0033008766 -0.06485784 -0.023534378 -0.048408985
000060 03 62 cf bc b7 56 05 bd e8 75 86 3c 2d 98 0f bd
       -0.02531529 -0.0325534 0.016413644 -0.035057236
000070 46 ea c2 bc a5 13 3d bd d5 9d 06 bd 5b 37 2a bd
       -0.02379335 -0.046161313 -0.032865364 -0.041556697
000080 be 70 05 bd 33 c0 98 bc 3a 8a a2 bb 1e d8 09 bd
       -0.032578222 -0.018646335 -0.0049603255 -0.03365337
000090 ab ba 59 bd 2a be 3e bd 63 e2 e1 bc 12 df 17 bc
       -0.053156536 -0.046568073 -0.02757377 -0.009269493
0000a0 33 c1 f2 bb 78 ad 5c bc 04 e5 8e bc 79 9e 4d bc
       -0.007408285 -0.013469093 -0.017443188 -0.01254999
0000b0 2e 61 d7 bc 9e df 7f bd c9 74 b1 bc f2 96 9a bc
       -0.026291456 -0.062469117 -0.021662133 -0.018870804
0000c0 cf e4 9c bc 12 12 06 bd 25 0b 17 bc b6 9d 16 bd
       -0.019152073 -0.032732077 -0.009218966 -0.0367715
0000d0 1d e1 25 bd a1 98 7e bc ef 11 85 bd cd fe 24 bd
       -0.040497888 -0.015539319 -0.06497561 -0.04028206
0000e0 71 e6 08 bd ff fc cc bb 89 77 2f bd 5d c9 b9 bc
       -0.03342289 -0.0062557454 -0.042838607 -0.022679025
0000f0 24 80 7a 3c 3a a5 c2 bc 20 40 82 3b b3 af e6 bc
       0.01528934 -0.023760427 0.0039749295 -0.028159952

head.norm.running_mean f4 [64]
000000 a2 6b e2 3c 37 d3 0f be 17 98 83 bd a4 d1 2b 3e
       0.027639214 -0.14045416 -0.06425493 0.1677919
000010 f9 53 03 3e 85 7a 25 3e e8 34 0d be 09 50 44 be
       0.12825002 0.16160019 -0.13789713 -0.19171156
000020 31 98 86 3d 51 fb 01 be b2 f8 62 bd a9 fc d7 bd
       0.06571997 -0.12693526 -0.055412956 -0.10546238
000030 a0 d4 20 3e 60 82 76 bd 1b 81 14 bd 63 50 46 be
       0.1570611 -0.06018293 -0.036255937 -0.19366603
000040 d9 f7 33 be 8a 49 6a bd 60 c7 20 3d d2 50 88 bd
       -0.17575015 -0.05719904 0.03925264 -0.0665604
000050 fe 66 29 3e ca 31 4f be a9 9f 9e 3d d1 23 51 be
       0.16543195 -0.20233837 0.077452965 -0.20423819
000060 52 03 01 3d 57 20 34 3e c6 06 c2 3b e6 e3 c0 3d
       0.031497307 0.17590462 0.0059212176 0.09418468
000070 1c 30 25 bd 73 df 20 3e 5a ed 30 bd 2a 99 03 3e
       -0.040329084 0.15710239 -0.043195106 0.12851396
000080 35 96 3d 3b 9b 01 9d 3c f7 56 b1 bd 4d f5 18 be
       0.0028928642 0.019165805 -0.08659165 -0.14937325
000090 3a 67 50 3d ee df 1e be 96 ab 7d 3d b0 e9 03 be
       0.050879695 -0.1551511 0.061931215 -0.12882113
0000a0 47 c1 22 bd 24 25 bf bc 0a 5c 18 3e d9 43 0d bd
       -0.039735105 -0.02333314 0.1487886 -0.034488533
0000b0 07 57 c7 3d 12 28 25 3e fb 6d e6 3d 45 40 c5 3d
       0.09733396 0.16128567 0.11251446 0.09631399
0000c0 b5 36 10 3c 80 f1 14 3e d1 fc 13 be 10 09 e3 3d
       0.008802106 0.1454525 -0.1445191 0.11085713
0000d0 fe dd 87 3d ff 73 5a bd 64 4f 59 3d ae 21 70 3c
       0.066341385 -0.05333328 0.05305423 0.014656467
0000e0 e0 fc 1c 3e 55 78 2b 3d 84 90 58 bd 39 7e 99 bc
       0.15330839 0.041862804 -0.052872196 -0.018736945
0000f0 a1 0e 34 3d da 1d 98 bd 88 fa 18 3e 68 8d e5 3d
       0.043959264 -0.07427569 0.1493932 0.11208612

head.norm.running_var f4 [64]
000000 38 38 bf 3a cf 47 ad 3a e8 4f 5d 3b 69 9f be 3a
       0.0014588898 0.0013220253 0.0033769552 0.0014543358
000010 08 1b d3 39 a6 f1 77 3a 1f b9 b1 39 80 3c 4f 3a
       0.00040265196 0.00094583107 0.00033897997 0.00079054385
000020 9e 3d c7 3a 55 a3 55 3a fb 2b 77 39 9a 29 ed 3a
       0.0015200858 0.00081496435 0.0002357214 0.0018094063
000030 2b 8a 2c 3a 9e 5e 20 3a b4 73 2d 3b 01 e7 87 39
       0.0006581868 0.00061176147 0.002646667 0.00025921318
000040 dc 0f 09 3b 23 3c 13 3b e2 9f 31 3b de 50 7e 3b
       0.0020913994 0.0022466264 0.0027103354 0.0038805525
000050 cc 80 c3 39 41 5a dd 3a 71 bd 92 39 1d 3a a1 3b
       0.0003728926 0.001688786 0.00027988435 0.0049202577
000060 17 6b aa 3a db 5f 1f 3b 25 f5 49 3a a5 67 ca 3a
       0.0013001886 0.002431861 0.0007704071 0.0015442265
000070 59 e1 8a 3a 54 fe 90 3a 18 a2 c0 39 73 d4 c6 39
       0.0010595723 0.0011062124 0.00036741863 0.0003792379
000080 d9 8c 9d 3a 9a 6a 07 3b d9 a1 2b 3c 38 d6 c2 39
       0.0012020125 0.0020662905 0.010475599 0.0003716217
000090 ed 25 0b 3a a7 f3 e6 3a 0e f8 44 3a 3f ac 5c 3a
       0.00053080806 0.0017620221 0.00075137697 0.00084180007
0000a0 bc 58 6e 3a 1c 34 86 3b 56 fe 02 3b 0f 94 86 39
       0.0009092202 0.0040955674 0.0019988022 0.00025668784
0000b0 6d 4f 49 3b a2 6c ba 3b 58 33 94 3b e9 e4 9f 3a
       0.0030717507 0.0056892196 0.004522722 0.0012198958
0000c0 ab 40 37 39 b5 2c 9f 3a 16 59 22 3a b5 ab b9 39
       0.0001747633 0.0012144061 0.00061930844 0.0003541388
0000d0 64 a9 df 3b b8 2b bd 3a 00 6f 19 3a 6d ea 37 3b
       0.006825613 0.0014432585 0.0005853027 0.0028063313
0000e0 8e fc c5 3b c8 c2 55 3b d1 35 4c 3a ba b8 7c 3a
       0.0060420698 0.003261732 0.00077900017 0.00096405635
0000f0 b8 7e db 3a 1d 04 20 3c 85 41 1d 3a 93 ed cf 3a
       0.0016746139 0.009766606 0.0005998838 0.0015863649

body.block1.conv.weight f4 [64, 64, 3, 3]
000000 f6 ad 8d bd be 21 56 3c 98 3d 38 bd ad 4a d2 3c
       -0.06917946 0.013069568 -0.044980615 0.025670374
000010 19 08 e0 bc 08 da 85 bc 64 77 87 3c f8 38 10 bc
       -0.027347611 -0.016339317 0.016536422 -0.008802645
000020 a3 ec eb bc ee 2a 83 3c fd 00 71 3c 9c 81 66 bc
       -0.02879936 0.016011681 0.014709708 -0.014068987
000030 a8 4c fc bc 16 57 d2 bc 23 70 4a bc 9e 01 2c bd
       -0.030798271 -0.025676291 -0.012355837 -0.04199373
000040 a4 00 e7 3c 52 81 02 3d 1f 25 af bc 57 14 c8 bc
       0.028198548 0.03186161 -0.021380005 -0.024423761
000050 92 28 db bb 17 82 17 ba 68 bf 0d 3d 01 32 e4 3c
       -0.006688186 -0.0005779578 0.034606367 0.027855875
000060 f7 3d 0f 3d ab 46 ea 3c 09 6b aa 3c 29 57 21 3c
       0.034971204 0.02859815 0.020802991 0.009847441
000070 f6 1d f7 b8 68 3d 0b 3d a0 36 b6 bc e4 7c d0 3b
       -0.000117834585 0.03399411 -0.022242844 0.0063625444
000080 40 ba b0 3c 81 02 32 3d 19 e4 99 3c a8 be ba 3c
       0.021573186 0.04345942 0.018785523 0.02279599
000090 0d dc 6c 3b 8c aa 3c 3c 0e 1b 28 3d 59 2b 6d bc
       0.0036141903 0.011515271 0.041041426 -0.014475667
0000a0 76 a1 fe ba 0e 93 17 3c 79 fe 20 3c b9 bb 29 3d
       -0.0019426781 0.009251369 0.009826296 0.041438792
0000b0 be f6 cb bc ba 1e ec bc c2 32 b9 bb 01 5a 75 bc
       -0.02489793 -0.028823245 -0.0056518028 -0.014975072
0000c0 f3 03 2d bb 50 a3 81 bc 60 3d a7 bc 01 23 77 bb
       -0.002640006 -0.015824944 -0.020415008 -0.0037710073
0000d0 fb bf 95 bb 1f 9a 6c 3c 68 4f bd 3c 75 80 4d 3c
       -0.004570005 0.014441042 0.023109153 0.012542834
0000e0 90 58 98 3c 11 ba 9b 3c e3 8c 4b bb a1 d4 d5 3b
       0.018596917 0.019009622 -0.0031059317 0.0065255915
0000f0 29 ae 80 3b 65 ef 9d bb 09 dc e4 bb 34 f0 20 3c
       0.0039270115 -0.004819798 -0.006984238 0.009822894
000100 34 30 4c bd 3b 4e 70 bd fb fd 64 bc ff 45 2e 3c
       -0.049850658 -0.058668356 -0.013976569 0.010636806
000110 50 8c 55 3c 8d 15 fb 3c e7 2a 30 3c 86 5e f2 3c
       0.013033941 0.030649925 0.010752416 0.029586088
000120 5d 2a 8b 3d e4 3e 2e 3d 26 7a ce bb 4c 10 43 3d
       0.067951895 0.042540446 -0.0063011823 0.047622964
000130 45 78 02 3c 42 93 e2 3c a8 54 16 bc a0 b5 31 3d
       0.007963245 0.027658109 -0.009175457 0.0433861
000140 bf fe 61 3c be 26 40 3d 90 25 1a 3d f6 1a ae 3c
       0.013793646 0.046911947 0.03763348 0.02125309
000150 ab 26 68 bb 44 2d bf 3c d3 8b d1 3c d4 b6 b7 bb
       -0.0035423439 0.023337014 0.025579369 -0.0056065116
000160 f0 89 b3 3b 32 ed 16 3b 6c e3 4c 3c 38 d1 bd bc
       0.00547909 0.0023029563 0.0125053935 -0.023171052
000170 ba 02 60 3c 85 f2 a6 bc da 84 30 3c d6 f8 c3 3c
       0.013672525 -0.020379314 0.010773862 0.023922365
000180 1b b4 b6 3c 4c b0 90 3c 96 df 35 3d d1 f3 6e 3c
       0.022302678 0.01766219 0.04440268 0.014584498
000190 cb 07 58 3b b4 a4 ac 3b 58 a8 fb 3c 0d 1b 74 bc
       0.003296363 0.0052686576 0.030719921 -0.0148990275
0001a0 6b 95 88 3b 71 17 31 3c e1 19 8d bc 2c 9e 45 bd
       0.0041682026 0.0108088115 -0.017224254 -0.048246548
0001b0 86 d6 79 bc a9 e9 87 bc ed 80 80 3c b7 32 e7 bc
       -0.0152489 -0.01659091 0.015686477 -0.028222425
0001c0 a8 1c 32 ba 1c 4a 79 3c 30 c7 50 3c 71 54 a7 bb
       -0.0006794431 0.015215423 0.0127428025 -0.0051065017
0001d0 94 0e 08 bd c6 cb 14 bc 36 50 8f bc 97 79 68 bc
       -0.033217028 -0.0090817865 -0.017494302 -0.0141891455
0001e0 04 f0 44 bc 98 43 4c bb e2 9d 95 bb 45 1f ee bc
       -0.012020115 -0.0031168219 -0.0045659402 -0.029067645
0001f0 09 61 55 3d 07 c3 ee bc 7a 8e 0c bd b3 65 a5 3c
       0.052094493 -0.02914573 -0.034315564 0.020190096
000200 ff ed 38 bd f2 c7 91 ba a0 b3 82 bb ce 5d a2 3c
       -0.045148846 -0.001112221 -0.003988698 0.01982012
000210 5a 90 cd bc ec 67 c8 bb 4d d9 0d bb cf 71 16 ba
       -0.025093246 -0.006115904 -0.0021644414 -0.00057390047
000220 2c 77 83 bc 38 cf 1b 3c 96 a5 cf 3b e4 69 a5 3c
       -0.016048037 0.009509854 0.006336878 0.020192094
000230 33 b3 d7 3c 95 7b 91 bc 0a dc 25 bc 4d e6 27 bd
       0.026330566 -0.017759124 -0.010123262 -0.040991116
000240 40 bb f9 3c ac 04 1c bc da 90 3b bd cd 4a fe bb
       0.030484796 -0.009522598 -0.045792438 -0.007760382
000250 4d 00 27 bd bf 4d eb bc 74 58 56 bc 0d dc fb 3c
       -0.04077177 -0.028723596 -0.013082612 0.030744577
000260 8d 35 0a 3d 25 d8 9f bb 6a b2 93 3c 90 39 82 bc
       0.033742476 -0.0048780614 0.01802941 -0.015896589
000270 6d 80 3b 3b 34 15 02 3c 53 9b 90 3c c6 df 06 3c
       0.0028610483 0.0079396255 0.01765219 0.008232063
000280 cc c0 40 3c 4b 6d ca bc ba e0 b6 bb 0f 88 c4 3c
       0.011764716 -0.024710318 -0.0055809887 0.023990659
000290 25 42 25 3d bb 56 dd ba cc ed 62 bb ab 57 03 bd
       0.040346283 -0.001688681 -0.0034626601 -0.03206603
0002a0 c7 d5 9a ba 45 39 11 bd 40 ec 8f 3c 9d fb 87 bc
       -0.0011812978 -0.035455007 0.017568707 -0.01659947
0002b0 2d b2 32 bb 8b 7a 93 bc 9b 12 04 ba 45 df b3 3c
       -0.0027266846 -0.018002769 -0.0005038173 0.02195705
0002c0 89 dc 80 bc a1 5a fb bb 04 b2 8d bc 77 75 35 bc
       -0.01573016 -0.007670716 -0.017296799 -0.011075369
0002d0 d3 d0 1a 3d 50 27 10 3b 44 bc aa bc 4f dd a3 bd
       0.037796807 0.0021996088 -0.020841725 -0.08001196
0002e0 3f 71 c9 ba ce cb 36 3b 28 81 1a 3d 67 61 35 bc
       -0.0015368833 0.0027892473 0.03772083 -0.011070586
0002f0 5f 4f 7d 3b b4 93 93 3c c5 97 57 3d 83 f1 67 3b
       0.0038652045 0.018014766 0.052634973 0.0035391755
000300 bf 85 3c bc f4 cf 18 3d c4 68 c2 3b 5c 38 99 3c
       -0.011506497 0.037307695 0.005932899 0.018703632
000310 05 0b ad ba 09 39 7e 3c ea d1 21 bc 06 fb d9 bc
       -0.0013202137 0.015516528 -0.009876708 -0.026608955
000320 aa 85 ce bb f9 46 1d bd 92 2f 9e 3c 13 47 c4 3a
       -0.006302555 -0.038397763 0.019309793 0.0014974795
000330 9f ab 8e 3c 6e b5 82 bc 73 5d 49 bc e6 09 55 bc
       0.01741582 -0.015955653 -0.012290346 -0.013002848
000340 13 db 8c bc 56 5e 6e bb 9f d9 85 3c 99 4d 2e bd
       -0.017194306 -0.0036372147 0.016339121 -0.04255447
000350 bc e3 cb bc 64 e5 3a 3b d5 67 05 bd 64 3c 2c bc
       -0.024888866 0.0028518075 -0.032569725 -0.010512445
000360 16 bc 56 bd 60 69 9a bb a2 e6 3c ba 67 72 d1 bb
       -0.052425466 -0.0047122687 -0.0007205998 -0.0063918117
000370 4c 77 a8 3b de 14 83 3b 18 3a 80 bc 90 b8 86 bc
       0.0051411744 0.0040002903 -0.015652701 -0.016445428
000380 c6 07 89 3c cd ee 94 3c 2b ef cc bc c5 f6 f9 bc
       0.01672734 0.018180275 -0.025016388 -0.030513177
000390 29 f8 59 3b 9e cc a0 3c 62 36 c5 bb 0c da ff bc
       0.0033259487 0.01962882 -0.006018446 -0.031231903
0003a0 02 34 e3 bc 4c aa b4 bc c5 c5 df 3c 0c 4f aa 3c
       -0.02773476 -0.02205386 0.027315984 0.020789646
0003b0 df 92 7e 3c db 03 d9 3a 9d df 7f 3b 4b 4d 01 3d
       0.0155379465 0.0016556935 0.0039043196 0.031567853
0003c0 c3 c2 29 3d 54 90 18 3d 91 c2 f4 3c c8 dd 11 3c
       0.041445505 0.037247017 0.029877933 0.008902974
0003d0 4d 9a bb 3c e5 d7 b4 3c 4a 1b 98 bc 7c 19 18 3d
       0.022900725 0.022075603 -0.0185677 0.03713368
0003e0 c2 65 10 3d 95 85 54 bc 8d 5c 31 3c 44 57 83 3c
       0.035253294 -0.012971302 0.0108252885 0.016032822
0003f0 e4 34 a7 3c de 71 45 3b b3 69 6f 3c 01 53 a3 3c
       0.020410962 0.0030127685 0.014612603 0.01993704

body.block1.conv.bias f4 [64]
000000 42 b1 a0 bb 7d ea 86 3c 41 23 b0 bc f3 3e f6 bc
       -0.0049039433 0.016469235 -0.021501185 -0.030059313
000010 0a 24 21 3d 66 df 2d bc 2c ed 27 bd 02 97 0b 3c
       0.03934101 -0.010612344 -0.04099767 0.00851989
000020 6f 40 94 bc 61 5b 80 bb ef 6a 0f 3c d2 cc 04 3c
       -0.01809713 -0.003917143 0.008753522 0.008105474
000030 f4 54 2b 3d ae c3 04 3d e3 3b f4 3c 6a 55 41 3c
       0.041829064 0.032413177 0.029813712 0.011800149
000040 44 fc 0b bd 8a a1 90 3c c0 a9 be 3c cf d7 44 bc
       -0.034176126 0.017655153 0.023274302 -0.012014343
000050 f9 f5 68 bb d5 71 f7 3c 31 87 c5 3c 4e d1 db bc
       -0.0035547002 0.030205647 0.024112316 -0.026833203
000060 12 6f c7 bb d9 02 79 bc f5 c2 97 3c ef da 01 bd
       -0.0060862387 -0.015198433 0.01852558 -0.031702932
000070 7f 10 06 bd a5 80 d1 bc 79 49 8e 3a ba 62 27 bc
       -0.032730576 -0.025574038 0.0010855637 -0.010216409
000080 8f 72 0f bb 05 07 c4 3c ec 03 21 3d ba bc 01 3c
       -0.002188835 0.023929128 0.03931038 0.007918531
000090 a3 bf b1 3c d3 41 93 bc c0 1f 85 bc c5 ee e7 bb
       0.021697825 -0.017975723 -0.016250491 -0.007078024
0000a0 e8 13 4a 3c 1d 15 96 bc 35 cc b9 3c 35 51 38 3c
       0.012333848 -0.018320614 0.022680381 0.01124983
0000b0 24 a6 3f 3c bc ba fa 3c d2 2a d9 3c d3 be 21 3d
       0.011697326 0.03060662 0.026509676 0.039488625
0000c0 fc e9 28 bb 00 a1 35 3c ae 7c 2d 3c 45 ce e2 bc
       -0.0025774231 0.011085749 0.010588808 -0.027686248
0000d0 96 62 87 ba 3d 30 98 3c 1a 99 9a bc 3e 20 19 bd
       -0.0010329064 0.01857769 -0.018871833 -0.037384264
0000e0 63 89 d4 bc b6 ce 17 3c e0 9d 0c 3d 20 cd f8 3c
       -0.025944417 0.009265592 0.03433025 0.030371249
0000f0 6d 97 6e 3c 13 da b1 bc 8d 8d 03 bc 92 ca ac 3c
       0.01456247 -0.021710431 -0.008029354 0.021092687

body.block1.norm.weight f4 [64]
000000 c2 55 81 3f 49 af 83 3f 95 f3 7f 3f 7a 29 7d 3f
       1.0104296 1.0287868 0.9998105 0.98891413
000010 f3 1a 85 3f 91 7b 80 3f 88 82 7c 3f 9a d0 7b 3f
       1.0398849 1.003771 0.98636675 0.98365176
000020 a9 2b 7d 3f f3 9d 7e 3f fa cd 7f 3f 91 7e 83 3f
       0.98894745 0.9945976 0.9992367 1.0273
000030 74 aa 7b 3f b7 2a 82 3f f5 61 82 3f 32 9c 82 3f
       0.98306966 1.0169286 1.0186144 1.0203917
000040 d4 74 7c 3f 9e 1c 83 3f 44 51 7c 3f 32 47 74 3f
       0.98615766 1.0243108 0.985615 0.95421135
000050 63 33 7a 3f 15 6f 81 3f 28 0c 82 3f 38 3d 80 3f
       0.9773466 1.0112025 1.015996 1.0018682
000060 8d 19 77 3f 86 0b 7d 3f c5 76 83 3f e6 de 7b 3f
       0.9652336 0.9884571 1.027062 0.9838699
000070 32 2b 7f 3f 34 89 81 3f 7f 9e 80 3f c8 2b 78 3f
       0.99675286 1.0119996 1.0048369 0.96941805
000080 0f 0a 7c 3f 82 11 82 3f 13 bc 80 3f 0b 45 7c 3f
       0.9845285 1.0161593 1.0057396 0.9854285
000090 01 c3 82 3f 61 0f 81 3f 5c 6c 7e 3f bb b4 83 3f
       1.021576 1.0082818 0.99384093 1.028953
0000a0 03 59 7a 3f 3e 5d 81 3f a8 3a 83 3f f8 fe 80 3f
       0.9779207 1.010658 1.0252275 1.007781
0000b0 6f fb 82 3f 16 dd 80 3f 9e 69 79 3f 70 52 77 3f
       1.0232981 1.006747 0.97426784 0.96610165
0000c0 3f bc 82 3f 28 66 81 3f 2a 6d 84 3f b5 f0 7b 3f
       1.0213698 1.0109301 1.0345814 0.98414165
0000d0 4c f2 7f 3f 62 0f 84 3f ab 87 72 3f f4 88 82 3f
       0.9997909 1.0317194 0.9473826 1.0198045
0000e0 0c 06 82 3f 1f 25 85 3f 7f 11 80 3f 80 7a 80 3f
       1.0158095 1.0401953 1.0005339 1.0037384
0000f0 54 b9 7d 3f 07 c6 80 3f 2c 77 75 3f 7e 5d 79 3f
       0.99110913 1.0060433 0.95884967 0.9740828

body.block1.norm.bias f4 [64]
000000 bc 4f 01 bd 62 33 5c bc c0 17 be bc 72 70 b3 bc
       -0.03157018 -0.013439985 -0.023204684 -0.021904204
000010 d9 dd 1b bd 9e 78 fc bc 67 46 ab bc 89 70 04 bd
       -0.038053367 -0.030819234 -0.020907594 -0.032333884
000020 48 5e 2b bd d3 95 c7 bc f6 08 43 bd a7 3f a5 bd
       -0.04183796 -0.024363434 -0.047615968 -0.08068781
000030 70 5e 4f bd 94 4e 47 bc be 22 77 3c 3a d1 85 bb
       -0.050627172 -0.012164731 0.015083967 -0.0040837796
000040 09 7b 93 bc 22 67 44 bd e2 8c 34 bd d2 a9 08 bd
       -0.018003004 -0.047949918 -0.04407967 -0.03336508
000050 14 13 73 bd 09 15 80 bd 32 a6 e8 bc a7 ad 96 bc
       -0.059344366 -0.06254012 -0.02839956 -0.01839335
000060 dc 67 08 bd bc f0 53 bd 27 82 96 bc ca cc 68 bd
       -0.033302173 -0.051743254 -0.018372608 -0.056835927
000070 23 6a a1 bc 08 5c 8f bc b3 79 dd bc 76 c7 ba bc
       -0.01970393 -0.017499939 -0.02703557 -0.022800189
000080 9c 4d 2d bc fa a0 eb bc 6c ca c5 bc f6 97 e6 bc
       -0.010577586 -0.028763283 -0.024144374 -0.028148632
000090 26 52 ca bc e1 d6 dd bc df e4 11 bd 58 55 3b bc
       -0.024697375 -0.027080001 -0.03561866 -0.011433922
0000a0 cb 09 29 bc c2 87 21 bd fe e6 ce bc c4 dc aa bc
       -0.010317276 -0.03943611 -0.02525663 -0.020857222
0000b0 8c bf 52 bd 4e 2d e0 bc 89 09 25 bc d8 18 ae bc
       -0.051452205 -0.027365353 -0.010073074 -0.02125208
0000c0 93 0f 22 bd 45 ac 12 bd 06 12 e3 bc 33 b2 3c bd
       -0.039565634 -0.03580882 -0.027718555 -0.04606838
0000d0 c0 9a 81 ba c6 96 e3 bc 5a 5a e5 bc 74 51 b2 3a
       -0.0009888038 -0.027781855 -0.027997185 0.0013604597
0000e0 f4 7a ee bc 17 cb 7f bc 33 74 c7 bc ce 30 8d bd
       -0.029111363 -0.015612385 -0.0243474 -0.068940744
0000f0 c7 0e 03 bd 4f f4 ba bc 38 f4 61 bc ef 34 bd bc
       -0.031996515 -0.022821574 -0.013791136 -0.02309653

body.block1.norm.running_mean f4 [64]
000000 5d 33 18 3e b2 df d4 be c5 d7 3f 3f 06 cb 3a be
       0.14863344 -0.41576916 0.74938613 -0.1824151
000010 b5 f3 c8 bd d4 ea 17 bf 51 cb 45 be 94 f8 82 3d
       -0.098121084 -0.59342694 -0.1931584 0.06395069
000020 36 63 10 3e 1e 66 ad 3d 78 93 fe 3d 97 54 57 3e
       0.14100346 0.08466743 0.12430471 0.21028362
000030 7c 48 b5 3e 65 9d fa be 63 db 6c bf 8f 40 04 bf
       0.35406864 -0.48948207 -0.9252226 -0.5166101
000040 70 ed 3b 3f ee 8e 45 be d6 f2 57 3e 43 e8 70 be
       0.73409176 -0.19292805 0.21088728 -0.23526101
000050 19 72 bd 3d 7b d6 da bd a9 4d be 3d e7 5c 3e 3e
       0.09250278 -0.1068544 0.09292156 0.18590127
000060 46 90 c0 bd a3 f1 00 3e 77 d0 c9 be b6 84 83 3e
       -0.09402518 0.12592177 -0.3941686 0.25687188
000070 bf fe 0e 3f 1e 5d 76 3e 41 13 40 3f c9 ee 7a 3e
       0.5585746 0.24058959 0.7502938 0.24505152
000080 ea 52 aa 3d ca 2e b7 be 6e c1 07 3f 30 1c 4e 3f
       0.08316596 -0.35777885 0.53029525 0.8051176
000090 ef 77 2f bd 25 9d eb be bf 21 4e be eb 31 54 bf
       -0.042838987 -0.4601833 -0.2013006 -0.8288867
0000a0 44 aa 89 be 03 7c d2 be f9 98 ff 3d 99 5f f4 3d
       -0.26887715 -0.41110238 0.12480349 0.11932296
0000b0 16 26 ea bb 47 ea 02 be 47 7a be bc b2 93 14 3f
       -0.0071456535 -0.12784682 -0.023251666 0.58037865
0000c0 d9 05 89 be ee d3 ab 3d 67 6b 28 be 65 5c 00 bf
       -0.26762274 0.08390032 -0.1644722 -0.5014098
0000d0 7d 49 20 bf 22 82 0f be 60 1a bd be 8a 12 df bd
       -0.62612134 -0.14014485 -0.36934185 -0.10892208
0000e0 98 13 1d bf ce d4 54 bd db a8 c4 be f5 94 22 be
       -0.6135802 -0.05196076 -0.38410076 -0.15877135
0000f0 7f af 5d be f3 a4 56 3e dd 47 2d 3f 22 9e 28 bf
       -0.21648978 0.2096136 0.6768778 -0.6586629

body.block1.norm.running_var f4 [64]
000000 6e cc c6 3d 74 80 0a 3e 15 c9 22 3e 5a bf 30 3e
       0.097069606 0.13525563 0.15897019 0.17260495
000010 c1 ab e9 3d 84 32 01 3e 36 df a5 3d c6 f4 82 3e
       0.114097126 0.12616926 0.08099215 0.25577372
000020 28 35 cb 3d 1a 74 e7 3d 14 41 94 3d c6 e5 64 3d
       0.09922248 0.113014415 0.07238975 0.05588319
000030 f2 54 b9 3d 7e 3c a8 3d ff f6 04 3e b8 86 2c 3e
       0.09049405 0.08214663 0.12984847 0.16848266
000040 37 03 7e 3e a0 3f 56 3e aa 0d 43 3e de 52 09 3e
       0.24805914 0.20922709 0.19048181 0.13410518
000050 21 0e 83 3d 16 94 08 3e f5 d6 3a 3e 97 ac 10 3e
       0.06399179 0.1333774 0.18246062 0.14128338
000060 be 40 b2 3d 7a 2d c1 3d 50 db 23 3e 97 e4 69 3d
       0.08703755 0.09432502 0.1600163 0.057102766
000070 1c 5e 56 3e 73 09 a7 3d 1f d6 8e 3e d2 a3 c6 3d
       0.20934337 0.08156099 0.27897736 0.09699215
000080 3a 22 82 3e f2 e1 80 3e 3a 20 93 3d 7b 0d a9 3e
       0.25416738 0.25172383 0.07183881 0.33018097
000090 7e 0d a1 3d e7 37 67 3d c4 d8 99 3d f8 bf ec 3d
       0.078639016 0.056449797 0.07512048 0.11560053
0000a0 ab 50 d3 3e a3 87 c9 3d c0 1c 11 3e 29 4d 88 3d
       0.41272482 0.09840324 0.14171124 0.06655342
0000b0 5e 5d 58 3d 03 0b 06 3e 4e 3f b7 3d 95 42 aa 3e
       0.052823417 0.13090138 0.08947621 0.33253923
0000c0 cf 98 a9 3d 06 7f 96 3d 7b 81 62 3d e9 96 15 3e
       0.08281099 0.073484465 0.055299263 0.14608349
0000d0 4e b3 bc 3d a0 bb 0b 3e 59 4c 38 3e 3a d6 60 3d
       0.09213887 0.13645792 0.17997874 0.054891802
0000e0 35 ec 07 3e d4 a0 5b 3d e0 ff c7 3d 91 a9 3f 3d
       0.132737 0.053620175 0.09765601 0.04679257
0000f0 c2 dc 8c 3d d8 6b 26 3e 9b 7b 92 3e ce d3 9f 3e
       0.06878044 0.16252077 0.28609928 0.31216282

body.block2.conv.weight f4 [64, 64, 3, 3]
000000 50 ee 19 b9 a8 ff ed ba 80 c2 c4 3c 7d 2a 69 bb
       -0.00014679995 -0.0018157857 0.024018526 -0.0035578304
000010 2e 3d 33 3d 72 7c a0 bb 51 cb 30 bc 82 8e b0 3b
       0.043759517 -0.0048976475 -0.010790662 0.005388082
000020 af cf a3 3a 0a cb 82 3c 3b 60 d9 3b 2c 9d a3 bc
       0.0012497808 0.015965957 0.006633786 -0.019972406
000030 d6 d7 0c 3c d5 a0 50 3c 27 bb 56 3d 63 ed dc ba
       0.008596381 0.012733658 0.052424576 -0.0016855415
000040 a1 97 df bc 47 57 2e 3c d3 57 b6 bc fb 7d e4 3c
       -0.027293982 0.010640926 -0.022258675 0.027892103
000050 f8 bb 05 3d 27 3f 53 3c 20 44 c2 3c 7b 29 f4 39
       0.032649964 0.012893475 0.023714125 0.00046570212
000060 86 71 ad bc 94 da 8b 3c d8 4e df bb 9b 20 3f bd
       -0.021172296 0.017072 -0.006814819 -0.046661954
000070 21 a4 12 bd 67 60 32 3c b3 e2 16 bd 63 12 c9 bb
       -0.035801057 0.010887242 -0.03683729 -0.006136225
000080 0d c1 91 bc a3 17 83 3b fa 08 94 bb 76 46 3f bc
       -0.01779225 0.0040006205 -0.0045176717 -0.011674514
000090 c6 ea 59 3c 65 78 e0 3c 5e 1d 16 3c 72 0a 6a bc
       0.013300603 0.027401159 0.009162275 -0.014284717
0000a0 3e c6 1d b9 e5 ba c1 bc ab 89 c5 3b dd 45 da 3b
       -0.00015046538 -0.023648689 0.006028374 0.0066611604
0000b0 3c 76 bb 3c a0 e4 e0 3a 26 22 86 bc 33 fd e3 bc
       0.022883527 0.0017157979 -0.016373705 -0.027830696
0000c0 3f 61 1d 3d 15 a1 8c 3c f4 ea 5e bd 49 71 d8 3a
       0.03842282 0.017166654 -0.054423288 0.0016513254
0000d0 b1 41 05 bd 94 fc 98 3a 0c 2d 40 bc 0b f5 ed 3c
       -0.03253335 0.0011671954 -0.01172949 0.02904751
0000e0 34 70 7a 3c 08 18 b0 3c 20 c6 0c bd 9c da 4c 3a
       0.01528554 0.021495834 -0.034368634 0.0007814558
0000f0 74 0b 9f bd c5 65 fd bc d3 85 30 bc 7e a4 02 bc
       -0.077658564 -0.030932317 -0.010774094 -0.007973788
000100 a6 22 f2 bb 29 16 cc bc 82 28 34 3c a1 36 a9 3c
       -0.0073893843 -0.02491291 0.010995986 0.020655932
000110 97 6a 9b 3c 52 a5 08 3c 9c d7 ea bc cb 1a 22 3c
       0.018971724 0.008340197 -0.028667264 0.009894083
000120 a2 76 a3 b9 bc 59 75 bd d7 cc 30 bc cc 9f 00 bd
       -0.0003117817 -0.05990003 -0.010791025 -0.031402394
000130 21 5b 08 3d 37 6e 92 3c 82 fb 48 bc 42 97 e5 3b
       0.033290032 0.01787482 -0.012266995 0.0070065567
000140 34 b3 30 bc 23 25 99 3c 2e 7e 59 3a 07 43 fe bb
       -0.010784913 0.018694466 0.00082966953 -0.007759455
000150 82 b6 bb 3b 57 ce 28 bc 88 36 cd bc 82 10 54 bd
       0.0057285437 -0.0103031015 -0.025050417 -0.051773556
000160 7a 1b 3c bd a8 d7 69 3c d7 b1 85 ba f6 1c d3 3c
       -0.04592464 0.014272608 -0.0010200095 0.025770646
000170 73 4d de 3b a0 2a cb bc a7 01 13 bc be 26 11 bd
       0.006784135 -0.024800599 -0.008972562 -0.035437338
000180 02 80 cb bb b6 fb c4 ba fe 2d a2 3b 68 fa 86 bc
       -0.006210328 -0.0015028629 0.0049493304 -0.016476825
000190 39 df 1b bd bb d7 3a bc 76 e4 b7 3c 72 7f 2d 3c
       -0.03805468 -0.011403973 0.022447806 0.010589467
0001a0 5e e5 13 3c a8 24 83 3c e0 f9 5d 3c a3 fb 94 3b
       0.009026853 0.01600869 0.013548344 0.004546599
0001b0 9f 37 74 3c 3c c9 c0 bc 80 7c 10 3c 80 fe 8f 3c
       0.014905839 -0.023533456 0.008818746 0.01757741
0001c0 13 3f a7 3c 59 27 a6 3b b4 11 d6 3b f6 54 92 3c
       0.020415818 0.0050706086 0.006532872 0.017862778
0001d0 7a e4 95 3c 63 24 7f 3c 10 a4 25 bb c9 e3 90 bc
       0.018297423 0.01557264 -0.002527479 -0.017686741
0001e0 8e ac 5e 3b 1d 6e 48 bb 36 85 da 3b 8f 5c 44 bc
       0.0033977362 -0.003058321 0.006668712 -0.011984958
0001f0 7f f4 5f 3c e3 42 66 3b d9 79 00 3b 68 7c 46 bc
       0.013669132 0.0035135082 0.0019603877 -0.012114622
000200 65 f8 9e 3b b3 72 a6 bc 5a 5f 3e bd bb c2 ed ba
       0.0048513883 -0.020318365 -0.046477653 -0.0018139699
000210 2f 9e a0 3c 57 b2 91 bc 41 ca 01 3d 2e 0e d8 3c
       0.019606678 -0.017785234 0.031687025 0.026373949
000220 39 ea 1c bc 46 1a 4d bb e6 34 e7 bb 95 23 10 bd
       -0.009577327 -0.0031296178 -0.0070558665 -0.035190184
000230 18 eb 79 bc 17 e2 68 3c 26 1e cb 3c d6 64 f1 3b
       -0.015253805 0.01421406 0.02479465 0.007366757
000240 22 75 8f 3c 51 18 1b 3b 7d 1b 43 3b 23 eb 2c 3d
       0.017511908 0.0023665617 0.0029771023 0.04221643
000250 5a 14 05 bc bd 1f 9e 3c 23 22 b1 bb 79 90 20 ba
       -0.008122528 0.019302243 -0.0054056807 -0.0006125044
000260 f3 e5 eb bc 13 d9 01 bc 5a 6d 61 bc 84 0e 19 3d
       -0.028796172 -0.00792529 -0.013758982 0.03736736
000270 ea 65 07 3c c2 ca 11 bd 80 56 20 bc 08 f5 b4 bc
       0.008264044 -0.035593756 -0.009786248 -0.022089496
000280 a5 cf 0b bd 83 ef ff bb 43 fb b7 3b 43 c1 17 bd
       -0.034133572 -0.0078105344 0.0056146695 -0.037049543
000290 08 b1 a0 bb be e4 e6 bc 9a 24 23 bc ab 56 f5 3b
       -0.0049039163 -0.028185245 -0.009957457 0.0074871383
0002a0 69 e1 00 3b 45 e9 d5 bc f5 db 91 bb 8c aa ae 3b
       0.0019665605 -0.026112208 -0.0044512697 0.0053303894
0002b0 6a eb b0 3c 7b 4b aa 3c 75 5e 09 bd c3 39 3f bc
       0.02159663 0.020787945 -0.033537347 -0.011671486
0002c0 8a 6e 77 3b 0c 79 6d bc f6 48 62 bc df 50 cc bb
       0.0037755095 -0.014494192 -0.013811341 -0.0062352265
0002d0 26 e5 cd bc 36 34 8f bc 83 10 3c bd 98 d8 88 bc
       -0.02513368 -0.01748095 -0.045914184 -0.016704842
0002e0 0c 5a e4 3b 06 39 2d bc cf 32 60 bc f6 fa 27 bc
       0.0069687422 -0.0105726775 -0.013683989 -0.010252705
0002f0 4d a3 cb bc 13 d4 af 3c ad 22 76 3b ae 67 5e 3c
       -0.024858141 0.02146343 0.003755729 0.013574524
000300 28 e0 f9 bc 0b 66 1c bb 7b 41 15 ba e1 b0 34 3c
       -0.030502394 -0.0023864533 -0.0005693656 0.011028499
000310 8f b5 bb 3c 94 84 4f 3d 1f d1 de bc 91 e6 51 bc
       0.022913722 0.050663546 -0.027199326 -0.012811319
000320 9f a2 d2 3a 7f 48 69 3c 59 16 f1 bc 5c a0 71 3c
       0.0016070193 0.014238476 -0.029429602 0.014747705
000330 20 3e 27 bd 50 a9 65 3b d7 df ed bb 7e 8b af bc
       -0.04083073 0.0035043545 -0.00725935 -0.02142882
000340 f0 2d ec bc 4c 7e b5 3b 31 b5 46 bc 41 14 73 3c
       -0.028830498 0.0055387374 -0.01212816 0.014836372
000350 2e ff 01 3c 7c e5 62 3c 5e 10 87 bc 26 3f 01 3d
       0.007934375 0.013848659 -0.016487297 0.031554364
000360 0f 30 05 bd cd c2 a3 bc cb 80 0b 3c e1 a0 63 3b
       -0.032516535 -0.01999035 0.008514593 0.0034733342
000370 c4 1a d2 3b 32 04 9c 3c 27 09 3b 3c 41 48 87 3c
       0.006411882 0.01904497 0.011415756 0.016513946
000380 6d e8 a7 bb 09 f0 9d 3b b9 c2 80 bc c0 58 26 3c
       -0.005124143 0.004819874 -0.015717851 0.010152996
000390 84 49 db 3b 80 f1 38 bc 23 11 49 3c 3c a7 16 3d
       0.0066921134 -0.011288047 0.012272152 0.03678058
0003a0 fd c4 c1 bc dc 93 ca 3b 10 10 fb 3b 2a 33 d0 3a
       -0.023653502 0.006182177 0.007661827 0.0015884389
0003b0 f7 97 00 3d 47 d6 14 bd 1f 37 d7 bb f6 a2 1d 3c
       0.031394925 -0.036337163 -0.0065678502 0.009621372
0003c0 20 d9 22 bd 80 37 a7 3c 72 a1 14 3c e5 4a 87 bc
       -0.039757848 0.020412207 0.009071695 -0.016515205
0003d0 98 e9 94 3b 91 a0 62 3b 23 8b a8 3b 20 4a a3 3c
       0.004544448 0.0034580568 0.0051435395 0.019932806
0003e0 0b 1d 67 3d a9 7c f8 3b 19 98 eb bc 8d 15 af bc
       0.056424182 0.00758322 -0.02875905 -0.02137258
0003f0 dc 96 14 3b 52 f0 f5 3b 05 27 57 ba 6a a0 77 bd
       0.0022672927 0.007505455 -0.00082074135 -0.060455717

body.block2.conv.bias f4 [64]
000000 c2 9e 83 bb 8d 9c 89 bc 35 b2 e2 3c af bf 53 3c
       -0.004016728 -0.016798282 0.027672866 0.012924119
000010 7d 6a ba 3c e1 80 0a bd 6d 2c 92 3c 52 4c 26 bd
       0.022755856 -0.033814315 0.01784345 -0.04060013
000020 de 09 8b 3c e1 43 19 bd 09 57 1d 3d 3b 8c cd bc
       0.016972478 -0.03741825 0.03841308 -0.025091281
000030 46 88 62 39 90 5c 85 3c 80 04 ea bc ea 5b cf bc
       0.00021603805 0.016279489 -0.028566599 -0.025312383
000040 20 b7 ca ba ef a5 e8 bc 7d 56 24 3d de e0 eb bc
       -0.0015465952 -0.028399436 0.040121544 -0.028793748
000050 9b b3 ba 3b ef c7 0d 3d 53 eb 08 bd 5d 7f 14 3c
       0.00569768 0.0346145 -0.033427548 0.009063569
000060 03 ff cd 3c 71 20 72 3c d0 46 5b bc f4 b8 38 3c
       0.025146013 0.014778242 -0.013383582 0.011274565
000070 fa 2f 0f 3d e0 29 d0 3b 86 a0 92 3c a9 1e 6a bb
       0.034957863 0.006352648 0.01789881 -0.0035723841
000080 1e e6 ab bc 18 8b 0a bc cb cd 24 bc b8 a1 c2 3c
       -0.020983752 -0.008456014 -0.0100588305 0.023758754
000090 21 a7 9b bc dd a0 16 3d 4d 0f 12 3c f1 8c 10 bd
       -0.019000592 0.036774505 0.008914781 -0.035290662
0000a0 3f ab 18 3d 19 87 e0 3c 08 d1 a2 3c 2f d4 e6 3c
       0.037272688 0.02740817 0.019875064 0.028177349
0000b0 6c ef 22 3b f9 3d c5 3c ce da 74 3c e1 8f 0f bd
       0.0024861945 0.024077402 0.014944745 -0.035049323
0000c0 79 2b 0d bc 8c af 9a 3c 97 0b 1e bd d3 1a c4 bc
       -0.008616322 0.018882535 -0.03858527 -0.023938572
0000d0 ab 3d 6e bc ac 75 90 ba a5 c6 18 3d 7d b6 b9 bc
       -0.01454107 -0.0011021397 0.037298817 -0.022670025
0000e0 50 1e 31 3c 0a cc 08 bc 48 a6 84 bc 71 69 2a bb
       0.01081045 -0.008349428 -0.01619257 -0.002600279
0000f0 00 f5 00 bd 47 46 4d 3c 2d 81 8b bc 6e b5 0a 3b
       -0.03148365 0.012528962 -0.01702937 0.002116527

body.block2.norm.weight f4 [64]
000000 60 4c 82 3f 86 ea 7e 3f a8 69 7d 3f d5 96 7e 3f
       1.0179558 0.99576604 0.98989344 0.994489
000010 68 c1 81 3f 0d bb 84 3f 0b 7b 79 3f 9e 18 82 3f
       1.0137148 1.0369583 0.97453374 1.0163763
000020 db 44 7f 3f b5 d1 7b 3f 18 ef 83 3f 6d 64 81 3f
       0.9971444 0.9836686 1.0307341 1.0108773
000030 8e 44 7f 3f 12 2d 83 3f e3 3b 82 3f 15 fd 77 3f
       0.9971398 1.0248129 1.0174526 0.9687055
000040 88 8f 7e 3f d5 06 81 3f 57 69 7a 3f 71 92 7a 3f
       0.9943776 1.008021 0.97816986 0.978797
000050 85 32 73 3f 29 56 70 3f 6a d2 78 3f 65 ee 7f 3f
       0.9499896 0.9388147 0.97196066 0.99973136
000060 52 a8 83 3f e3 75 80 3f 5d 28 82 3f cd 87 85 3f
       1.0285742 1.0035976 1.0168568 1.0432068
000070 e9 8d 7e 3f a2 f2 7e 3f fd 29 74 3f 52 63 76 3f
       0.9943529 0.9958898 0.9537657 0.962453
000080 73 00 81 3f 8d 7f 76 3f 33 fd 7d 3f 10 e9 81 3f
       1.0078262 0.9628838 0.99214476 1.014925
000090 7e 4b 81 3f a1 66 76 3f c2 db 78 3f 11 7c 6f 3f
       1.0101163 0.9625035 0.97210324 0.93548685
0000a0 35 7b 80 3f 02 80 7c 3f 0a 60 81 3f 2e 69 81 3f
       1.00376 0.98632824 1.0107434 1.0110223
0000b0 48 b1 82 3f b8 63 80 3f 2a 06 83 3f 7d 3a 82 3f
       1.0210352 1.0030432 1.0236256 1.0174099
0000c0 52 37 7e 3f d4 dc 80 3f ae ff 7c 3f 66 50 85 3f
       0.9930316 1.0067391 0.98827636 1.0415161
0000d0 25 09 83 3f f2 47 86 3f c6 59 7b 3f eb 15 82 3f
       1.0237166 1.0490706 0.9818386 1.0162939
0000e0 9e 0a 7d 3f 9c 43 83 3f 6a f2 7e 3f 97 b2 81 3f
       0.98844326 1.0255008 0.99588645 1.0132626
0000f0 8e d0 86 3f a5 4e 7d 3f 7b 5e 7c 3f 66 ff 72 3f
       1.0532396 0.9894813 0.98581666 0.9492096

body.block2.norm.bias f4 [64]
000000 47 8a f2 3b 81 bd 50 3c 7d f6 2e bd d1 86 09 bd
       0.007401738 0.012740494 -0.04271554 -0.033575837
000010 73 27 24 bc f4 b7 ca bc c4 4b b2 bc 8f ca 1d ba
       -0.010019171 -0.024745919 -0.021764643 -0.0006019258
000020 54 f4 d3 bb 6b db 2a bb 06 91 38 bd e4 24 3c bc
       -0.006468335 -0.0026070725 -0.04506018 -0.011483405
000030 7b 2b 45 3b 9e e5 24 bd 68 57 da 3b 32 76 5c bd
       0.003008573 -0.040258043 0.0066632517 -0.053823657
000040 4a 71 d3 bc 8d 14 c7 3b 95 33 bf bb e7 49 c7 bc
       -0.025810856 0.006075448 -0.0058350065 -0.024327232
000050 a3 11 8b bc f7 d3 96 bc c1 9b 09 bd a7 f9 73 bc
       -0.016976183 -0.01841162 -0.033595804 -0.014891065
000060 69 33 f8 b9 a0 60 30 bd f6 99 dc bb 7c fc 7e bc
       -0.0004734055 -0.0430609 -0.0067322208 -0.015563127
000070 80 c0 d6 bc 73 71 c2 bc 1e 9a 37 bc 1c 2d f1 bc
       -0.026214838 -0.023735737 -0.011206178 -0.029440455
000080 5d be dc bb 2d 39 25 bc 8c be 58 bd d6 37 91 bc
       -0.0067365603 -0.010084433 -0.052916095 -0.01772682
000090 95 8a 40 bb 06 4f d8 bc 0a 8f 1f bd 21 48 f5 bb
       -0.0029379476 -0.026404869 -0.038954772 -0.007485405
0000a0 ce fc 8e bb 21 29 cc 3a a5 13 bb bc 27 b6 97 bd
       -0.0043636328 0.0015576222 -0.022836516 -0.0740779
0000b0 06 94 9b bc 01 9e ff bc c7 c5 f2 bc e1 c8 d3 3b
       -0.018991482 -0.031203272 -0.029635323 0.0064631556
0000c0 5b cc 09 bd ad af 2e bc 8f f9 12 bc ff 9e 2e bc
       -0.033642154 -0.010662002 -0.008970632 -0.010658025
0000d0 13 ef a6 bc 76 9a 0e 3b 3a 2f 22 bc 0e 83 ca bc
       -0.020377671 0.0021759546 -0.009898955 -0.024720695
0000e0 71 7c 2e bb ae 74 e7 bc 61 2c b5 bc ab 91 ce bb
       -0.0026624466 -0.02825388 -0.022115888 -0.006303986
0000f0 e3 b2 09 bc 6c 6e 9a bc 7b bb 68 bd 71 16 9c bc
       -0.008404466 -0.018851481 -0.05681942 -0.01905367

body.block2.norm.running_mean f4 [64]
000000 2e 1d 9e be 32 78 04 bf ae eb dd 3d e2 1a bd be
       -0.30881637 -0.51745903 0.10835968 -0.36934572
000010 a2 37 12 3e 81 60 d1 bd 39 ee 88 bd 5f 08 2f 3e
       0.14279035 -0.10223485 -0.06686062 0.17093037
000020 86 8a 65 3d d4 08 90 3e 77 32 b7 bd d0 bf 5d 3e
       0.05604031 0.28131735 -0.08945172 0.21655202
000030 b9 c6 49 be 2a ce 8f be 9d 3e 95 3d 37 d9 02 be
       -0.19704713 -0.28086978 0.07287333 -0.12778173
000040 6d 6e 6f bd 3f 84 9b bd 26 4a 8a be 68 ff 84 be
       -0.05845492 -0.07593583 -0.27009696 -0.2597611
000050 bd 12 b0 bd 62 f4 89 3d 8a e3 39 be 0f c3 8a be
       -0.08597324 0.067360654 -0.18153206 -0.27101943
000060 48 75 a2 3d b8 07 33 be fe d5 2f bf 52 96 bd be
       0.07932526 -0.17483413 -0.686859 -0.37028748
000070 b5 14 60 3e 62 95 75 3e 5f 42 43 3e 7e e7 98 be
       0.21882899 0.23982766 0.19068287 -0.29864115
000080 74 12 55 3d 19 91 d5 be 2d ed 8b bd eb 57 df 3d
       0.05201955 -0.41712263 -0.06832347 0.10905441
000090 c1 a6 92 bc fe 1d 1c be be 19 81 3d 44 3f 08 3d
       -0.01790178 -0.15245816 0.06303738 0.03326346
0000a0 0c 69 91 be 5e 4b 84 be 7f 49 fd bd a9 89 3d 3e
       -0.28400457 -0.2583875 -0.12367534 0.18509544
0000b0 80 ae 3b 3e db d4 02 bd 93 b7 e6 3e 0b cb 5b bc
       0.18328285 -0.031941276 0.4506193 -0.013415108
0000c0 68 32 7e 3e 33 08 23 3e 30 7f 27 be 5f 8e a6 3d
       0.24823916 0.15921097 -0.16357112 0.08132624
0000d0 93 18 14 be d5 4e 96 3d be d5 5f 3d de ac b5 3d
       -0.144625 0.07339255 0.0546472 0.088708624
0000e0 85 58 ca 3c dd 0c 74 be d6 2f 10 3c 25 39 e1 3a
       0.024700413 -0.23833032 0.0088004675 0.0017183168
0000f0 6f 23 16 bc 74 cd c5 be b1 d9 81 bd 47 c1 5f be
       -0.009163721 -0.3863331 -0.063403495 -0.21851073

body.block2.norm.running_var f4 [64]
000000 55 cc d1 3e 0b ee a5 3e 40 0e bf 3d 58 1a 04 3e
       0.40976205 0.32408175 0.0932889 0.12900674
000010 27 64 8f 3e 73 45 22 3e a0 ab 1e 3e 04 2f ea 3e
       0.28006098 0.15846805 0.15495157 0.45738995
000020 cc f0 8a 3e a9 ae 23 3e b8 4d 05 3e 61 c4 0e 3e
       0.27136838 0.15984596 0.13017929 0.139421
000030 08 7a f9 3d 52 84 8a 3d 2a 81 23 3e 11 56 07 3e
       0.12181479 0.06763519 0.15967241 0.13216425
000040 7d 30 37 3e ab 66 1f 3f 4d 43 6c 3e 56 28 bd 3e
       0.1788959 0.62266034 0.23072548 0.36944836
000050 69 b7 dd 3e 5d e0 10 3e e1 12 15 3e e8 88 4b 3e
       0.43303993 0.14148088 0.14557983 0.19876444
000060 3f 91 16 3e 5c e6 89 3d 2f 67 b6 3e bc 42 51 3e
       0.14703844 0.06733391 0.35625598 0.20435613
000070 40 4a fd 3d a9 02 c3 3e 2b c5 ac 3e 73 f5 82 3e
       0.12367678 0.38087967 0.33744177 0.25577888
000080 2a 59 54 3e 51 11 5b 3e 72 ce f0 3d d1 35 17 3e
       0.20737138 0.21393324 0.11758126 0.14766623
000090 d5 3a aa 3e da 1c 00 3e 69 11 2c 3f fe 18 07 3e
       0.3324801 0.12511006 0.67214066 0.13193128
0000a0 26 41 b2 3e 6d 24 15 3f b0 52 bb 3e af 32 b5 3e
       0.3481533 0.58258706 0.36586523 0.3539023
0000b0 b1 67 23 3e 15 4b d8 3d d4 aa cf 3d 13 d2 31 3e
       0.15957524 0.10561196 0.10140005 0.17365293
0000c0 b9 36 83 3e b9 17 5e 3e 24 25 ae 3e 85 3b 6c 3e
       0.25627688 0.21688737 0.3401271 0.2306958
0000d0 25 61 52 3e 70 7d 52 3e 32 6a 7c 3e bf d5 7f 3e
       0.2054487 0.20555663 0.24649885 0.24983881
0000e0 0b 46 4d 3e a8 17 27 3e c2 0d 91 3e 6c 2f 46 3e
       0.2004625 0.16317618 0.2833081 0.19354028
0000f0 c9 97 67 3e 83 b3 35 3e 60 e6 87 3d 3c 2e 43 3e
       0.22616495 0.1774426 0.066357374 0.19060606
