code/Output/starry_night_full/pdl_e8000_1px_lr0.0001a3.0_up-conv5_1_W[1, 0.75, 0.2, 0.2, 0.2](7)/3/netG.pth (torch, 130371 bytes, 26 tensors)

head.conv.weight f4 [32, 3, 3, 3]
0	0x3b2d5880	0.0026450455
1	0xbc083c32	-0.008315133
2	0x3bb70690	0.005585499
3	0x3c14d79d	0.009084609
4	0x3af223f7	0.0018473853
5	0xbbb4697d	-0.0055057392
6	0x3cc57aca	0.024106402
7	0xbcbafdc2	-0.02282608
8	0x3c4b0e08	0.012393482
9	0x3d1e7288	0.038683444
10	0x3c9c5ba6	0.01908667
11	0xbc984eda	-0.018592287
12	0x3caddade	0.021222528
13	0x3c69b16f	0.014263495
14	0xbbde9ca3	-0.006793575
15	0x3cc4587c	0.023967974
16	0xbb706eec	-0.0036687208
17	0x3886ca1e	6.427265e-05
18	0xbbf756cb	-0.0075481883
19	0xbc146864	-0.009058092
20	0x3cab85e8	0.020937875
21	0xbc923317	-0.017846627
22	0xbc318893	-0.0108357845
23	0xbbb6436f	-0.005562238
24	0xbc65139f	-0.013981729
25	0xbd26e4de	-0.04074561
26	0x3ab9e468	0.001418245
27	0x3c80ac8b	0.015707275
28	0x3cfdae7f	0.030966995
29	0xbc3d8403	-0.011567119
30	0xbc87458f	-0.01651266
31	0x3b127ed5	0.002235343
32	0xbd083d06	-0.03326132
33	0x3c053f2e	0.008132739
34	0x3cd8af91	0.026450904
35	0xbad4d11a	-0.0016236634
36	0xbc263f16	-0.010146877
37	0x3bc3fa6a	0.0059807794
38	0xbc96c2cc	-0.018403433
39	0xbc217d21	-0.009856493
40	0xbc1e14aa	-0.009648481
41	0x3c26d15f	0.010181754
42	0xbc12efcf	-0.008968308
43	0xbc21566c	-0.009847265
44	0x3c0762e7	0.008263326
45	0xbcd3d4ae	-0.02585825
46	0xbbba3061	-0.0056820367
47	0xbd0278a5	-0.031853337
48	0xbc7a6168	-0.0152820125
49	0x3c09873b	0.008394058
50	0x3d38d5c9	0.045125756
51	0xbccd1e54	-0.025038876
52	0xbb0c2eed	-0.0021390275
53	0xbccf1ecb	-0.025283238
54	0x3c9a2642	0.01881707
55	0x3b899bd5	0.004199485
56	0x3caae811	0.020862611
57	0x3b161661	0.0022901522
58	0xbd0b6317	-0.034030046
59	0xbc018ddc	-0.007907357
60	0x3c87a15e	0.016556438
61	0x3c6ecac3	0.014574709
62	0x3c1bdf44	0.00951368
63	0x3cab3607	0.020899786
64	0x3c664161	0.0140536735
65	0xbae6b878	-0.0017602583
66	0xbc3ab230	-0.011395022
67	0x3cc86e9f	0.02446681
68	0xbcfc2782	-0.030780558
69	0x3c0c720f	0.008572116
70	0x3c551a35	0.0130067365
71	0xbc99d1db	-0.018776825
72	0x3ccb4a45	0.024815688
73	0x3cc597c1	0.024120213
74	0x3c38774a	0.0112589095
75	0xbd02d70e	-0.031943373
76	0xbc2cb238	-0.010540538
77	0xbd031254	-0.0319999
78	0x3cd81856	0.026378792
79	0xbd350807	-0.04419711
80	0x3b3cb0d8	0.002879193
81	0xbc9cb948	-0.019131318
82	0xbb8550bc	-0.004068462
83	0x3d35a91b	0.044350725
84	0xbd02d6bd	-0.03194307
85	0x3ca0a857	0.01961152
86	0xbc896853	-0.016773378
87	0xbcc38988	-0.023869291
88	0xbca89833	-0.020580387
89	0x3cae5e8e	0.021285322
90	0x3bc92d06	0.0061394004
91	0x3c27f252	0.010250645
92	0x39c58a0a	0.00037677615
93	0xbc067673	-0.008206951
94	0xb6c9e4c7	-6.0169e-06
95	0x3c81a5d9	0.015826153
96	0xbcefa25d	-0.029252226
97	0x3ced17ba	0.028941978
98	0x3c8c8043	0.017151004
99	0xbcddd62a	-0.02707966
100	0x3c9daddd	0.019247944
101	0xbc967b5a	-0.018369365
102	0xbc73a9c5	-0.014872019
103	0x3ca98d6d	0.02069732
104	0x3bc06a7f	0.0058720703
105	0x3b00b00f	0.001963619
106	0xbbc7d219	-0.0060980436
107	0x39874a29	0.0002580446
108	0xbca67d29	-0.020323353
109	0xbd235014	-0.03987129
110	0xbb570eef	-0.0032815298
111	0xbae0dc5b	-0.0017155515
112	0xbd1f991a	-0.03896437
113	0x3c88ac08	0.016683593
114	0x3bcd4faa	0.0062656
115	0x3c14276c	0.009042602
116	0x3c5a145d	0.013310519
117	0x3c5e1107	0.013553864
118	0xbcfeec2a	-0.031118471
119	0x3c82aabb	0.015950551
120	0xbc063bd2	-0.008192973
121	0xbc4e1a42	-0.012579503
122	0x3ba27631	0.004957937
123	0x3cb95178	0.022621855
124	0xbc960ec7	-0.018317593
125	0x3cc7a4f3	0.024370646
126	0xbc817018	-0.01580052
127	0xbc0d2015	-0.008613606
128	0x3d0fcb48	0.035105973
129	0x3bd75cef	0.006572358
130	0xbc9063ff	-0.017625807
131	0xbbf51057	-0.0074787545
132	0x3c85a99a	0.016316224
133	0x3ca6f88a	0.020382185
134	0x3ba8f264	0.0051558483
135	0xbcb1cae5	-0.021703193
136	0xbb27d4aa	-0.0025608935
137	0xbcd2795d	-0.025692636
138	0x3ca30a64	0.019902416
139	0xbd02ce6e	-0.031935148
140	0xbb80f1e1	-0.003935084
141	0x3b0a2622	0.0021079858
142	0xbce2e78b	-0.027698299
143	0xbc72c19d	-0.014816669
144	0x3cc2f7db	0.023799827
145	0x3c4e6229	0.012596645
146	0xbcf36f2e	-0.0297161
147	0x3c9e61e5	0.01933379
148	0x3cc58b33	0.024114227
149	0xbccb0fa9	-0.02478774
150	0xbcdf89d9	-0.02728741
151	0xbc594ba1	-0.01326266
152	0x3ae98063	0.0017814751
153	0xbb4d2bdb	-0.0031306657
154	0x3c2f16e6	0.010686612
155	0xbc46d30b	-0.0121352775
156	0x3c33a363	0.010964247
157	0xbcb8c77d	-0.02255606
158	0xbd5c6aa1	-0.053812627
159	0x3bf3674b	0.007428085
160	0x3c7ce053	0.015434342
161	0xbc5d62d2	-0.01351233
162	0x3cfdff58	0.031005546
163	0x3c29120c	0.010319244
164	0xbadc6445	-0.0016814551
165	0x3c25131e	0.010075359
166	0x3cab9866	0.020946693
167	0xbd0b4756	-0.034003578
168	0xbcb82be9	-0.022481875
169	0x3a5b60da	0.0008368619
170	0x3bd8b0d3	0.006612876
171	0x3b8e6175	0.004345114
172	0xbc29fb5b	-0.010374869
173	0x3cc895b7	0.024485452
174	0x3c18b54e	0.00932057
175	0xbd1bd514	-0.038045004
176	0xbd0ecf3a	-0.034865595
177	0xbc74819d	-0.01492348
178	0xbcc33c13	-0.023832357
179	0xbc940822	-0.018070284
180	0xbc489576	-0.0122426655
181	0x3d423ddd	0.04742228
182	0xba2ca3cf	-0.00065856887
183	0xb951cca5	-0.00020008029
184	0xbd0f5804	-0.034996048
185	0xbcda7c71	-0.026670666
186	0xbc8a7c5e	-0.016905006
187	0xbbf16e95	-0.0073679187
188	0xbc9867f7	-0.018604262
189	0xbce668d3	-0.028126156
190	0xbb03bed3	-0.0020102754
191	0x3d180b26	0.037120007
192	0xbc3d4347	-0.011551685
193	0x3d038f47	0.03211906
194	0x3c93cd46	0.018042218
195	0xbb8b8ef0	-0.004258983
196	0xbd30cf1e	-0.043166272
197	0xbccaeae6	-0.024770211
198	0x3a234269	0.00062278524
199	0xbc7eef37	-0.015559963
200	0x3c0bbd96	0.0085290875
201	0xbc18c2e4	-0.009323809
202	0x3c5a331a	0.013317848
203	0x3c719d38	0.0147469565
204	0x3cfea366	0.031083774
205	0xbcfbbe18	-0.030730292
206	0x3c58a567	0.013223029
207	0x3ccd153f	0.025034545
208	0xbc019728	-0.007909574
209	0x3ad65d48	0.0016354704
210	0x3c4299cc	0.011877488
211	0x3b106a9b	0.0022036198
212	0x3cedc0b8	0.02902256
213	0x3bab97c6	0.0052365987
214	0x3cc424d1	0.023943337
215	0xbce53012	-0.027977023
216	0xbbafb17e	-0.005361735
217	0x3c9a4865	0.018833349
218	0x3d0710de	0.03297507
219	0xbc2f4014	-0.01069643
220	0xbcc66759	-0.024219202
221	0x3ba59b82	0.0050539384
222	0x3c894031	0.016754242
223	0x3c994ae8	0.018712476
224	0xbb5cb042	-0.0033674394
225	0x3cabafb3	0.020957803
226	0xbbd9a5c6	-0.006642076
227	0xbd1a78aa	-0.03771273
228	0x3bb33b68	0.0054697283
229	0x3d10a77d	0.03531598
230	0x3cae2ceb	0.021261653
231	0xbc2e6c75	-0.010645975
232	0x3c193b7b	0.00935256
233	0xbbc5e366	-0.006039071
234	0xbd158c49	-0.03651074
235	0xbccac9d5	-0.024754444
236	0xbc651f3f	-0.0139845
237	0xbbe64a00	-0.0070278645
238	0x3c454b2d	0.012041849
239	0xbcbeea93	-0.023305213
240	0xbd03f604	-0.03221704
241	0x3c05cb0d	0.008166087
242	0xbb95c8fc	-0.0045710783
243	0xbb63dbd4	-0.003476848
244	0x3c3b702a	0.011440316
245	0x3cc5e3b7	0.024156434
246	0xbaacf7e8	-0.001319644
247	0x3c7e2698	0.015512131
248	0x3c284a79	0.010271662
249	0x3c5b53bd	0.013386664
250	0xbbf5e89f	-0.0075045372
251	0xb9fd81b7	-0.00048352565
252	0xbc8ba1f8	-0.017045006
253	0x3d059945	0.032616872
254	0x3ce5dd49	0.028059619
255	0x3c88d69f	0.016703902

head.conv.bias f4 [32]
0	0x3d8af33d	0.06784675
1	0x3d00abbf	0.03141379
2	0xbe1e34f0	-0.15449882
3	0xbe1b85a5	-0.151877
4	0xbe20e63a	-0.15712824
5	0x3ccb381a	0.024807025
6	0x3e168a72	0.1470125
7	0x3ca2f2da	0.019891191
8	0xbda0740e	-0.07834636
9	0xbe311285	-0.17292221
10	0xbc3bff24	-0.0114744045
11	0xbdc7c920	-0.097551584
12	0x3d4b23d4	0.049594715
13	0x3cee3472	0.029077742
14	0xbdfb9010	-0.12283337
15	0xbc47ee7a	-0.012202853
16	0xbc13a84b	-0.009012292
17	0x3d6a6335	0.057223517
18	0xbd53ce41	-0.05171037
19	0x3d07add0	0.033124745
20	0xbd0ab05e	-0.033859603
21	0xbdb97aca	-0.09056623
22	0x3e17e85a	0.14834729
23	0x3e1147d9	0.14187564
24	0x3db02578	0.086008966
25	0xbd7ccaf9	-0.061717007
26	0xbe0e74ad	-0.13911696
27	0xbe2259c8	-0.15854561
28	0x3d669ace	0.056299977
29	0x3e25128a	0.16120353
30	0x3d22104e	0.03956633
31	0xbdb9004f	-0.09033262

head.norm.weight f4 [32]
0	0x3f83a181	1.0283662
1	0x3f7e8de6	0.9943527
2	0x3f7f8a05	0.99819976
3	0x3f73e666	0.95273435
4	0x3f79db58	0.97600317
5	0x3f7c3853	0.98523444
6	0x3f7a85a0	0.97860146
7	0x3f841797	1.0319699
8	0x3f809c45	1.004769
9	0x3f8515e7	1.0397309
10	0x3f77dcce	0.96821296
11	0x3f80aa4b	1.0051969
12	0x3f815ef9	1.0107108
13	0x3f80250a	1.0011303
14	0x3f80c2d1	1.0059453
15	0x3f82ab28	1.0208483
16	0x3f7eb67d	0.99497205
17	0x3f7b1995	0.9808591
18	0x3f7d78bf	0.9901237
19	0x3f810f23	1.0082744
20	0x3f79a0bf	0.97510904
21	0x3f7e0cb1	0.99238116
22	0x3f7bfdae	0.9843396
23	0x3f7d3e1f	0.98922914
24	0x3f7f91b1	0.9983168
25	0x3f7e2a4b	0.99283284
26	0x3f7efaed	0.9960163
27	0x3f8052dc	1.0025287
28	0x3f824c05	1.0179449
29	0x3f7eb923	0.99501246
30	0x3f802900	1.0012512
31	0x3f7e503e	0.9934119

head.norm.bias f4 [32]
0	0xbc835b6f	-0.01603481
1	0xbcbcc48d	-0.023042941
2	0xbc7b8feb	-0.015354137
3	0xbc33f0cc	-0.010982703
4	0xbc7a0bd1	-0.015261606
5	0xbc343f10	-0.011001363
6	0xbb9bc85e	-0.0047541102
7	0xbb8f2080	-0.004367888
8	0xbb28b420	-0.0025742128
9	0xbbd9409d	-0.006630017
10	0xbc41fcb3	-0.011840033
11	0x3a6c3de6	0.0009011909
12	0xbc860c60	-0.016363323
13	0xbc5188db	-0.012788977
14	0xbba0d9da	-0.0049087824
15	0xbbde2b9e	-0.006780102
16	0xbca29e2e	-0.019850817
17	0x3c31fb69	0.0108631635
18	0xbc5ac2bd	-0.013352093
19	0xbbb90000	-0.005645752
20	0xba342f95	-0.00068735454
21	0xba305816	-0.0006726993
22	0xbc54af24	-0.01298121
23	0xbc2b1742	-0.010442557
24	0xbbd8c053	-0.0066147237
25	0xbc13053e	-0.008973418
26	0xbc9a6ae0	-0.01884979
27	0xbab125e1	-0.0013515317
28	0xbc5de438	-0.013543181
29	0xbc5204f3	-0.012818563
30	0x3bd24029	0.00641634
31	0xbba8b221	-0.0051481877

head.norm.running_mean f4 [32]
0	0x3d54f398	0.05199012
1	0x3d306cd6	0.043072544
2	0xbe2d7491	-0.16938998
3	0xbe188d0a	-0.14897552
4	0xbe145ce9	-0.14488567
5	0x3d8bdbf0	0.06829059
6	0x3e2e9c0f	0.17051719
7	0x3c7cfb0a	0.015440712
8	0xbdb17e0e	-0.08666621
9	0xbe39fff5	-0.18164046
10	0xbcde3e7e	-0.027129408
11	0xbdc0aff3	-0.0940856
12	0x3d0c5193	0.034257483
13	0x3c004e80	0.007831216
14	0xbe06b8a3	-0.13156371
15	0x3cb95dc1	0.022627713
16	0x3c8eb242	0.017418984
17	0x3ce06a34	0.027394392
18	0xbcfdd856	-0.030986946
19	0x3d0c2a34	0.034219936
20	0xbd74283f	-0.059608694
21	0xbdace567	-0.084421925
22	0x3e15c565	0.14626081
23	0x3dca3065	0.09872512
24	0x3db590b9	0.08865494
25	0xbcdafd9e	-0.026732262
26	0xbe008b32	-0.12553099
27	0xbe34e9f5	-0.17667373
28	0x3d0603db	0.03271852
29	0x3e30f0c2	0.17279342
30	0x3d0e8750	0.034797013
31	0xbe0ff2be	-0.14057443

head.norm.running_var f4 [32]
0	0x3a04d6d1	0.00050674105
1	0x3a4110f1	0.000736489
2	0x39d177f0	0.00039952947
3	0x399dbf61	0.00030087962
4	0x39f3b6f7	0.0004648489
5	0x3b1659bb	0.0022941667
6	0x3b025e41	0.0019892605
7	0x3a0bd351	0.0005333918
8	0x3a2c4b0e	0.00065724633
9	0x3a8ea2c7	0.0010882252
10	0x394cba01	0.00019524248
11	0x39998353	0.00029280278
12	0x3a23e9d0	0.00062527973
13	0x3a454857	0.0007525733
14	0x3a5c8d14	0.0008413356
15	0x3a9de5f3	0.001204668
16	0x3ad4eed0	0.0016245488
17	0x3a7cf76b	0.0009649905
18	0x39efb96a	0.00045723777
19	0x3a0bbbd0	0.00053304154
20	0x3a8e6e27	0.0010866568
21	0x39160561	0.00014307119
22	0x399edfc9	0.0003030284
23	0x3aec60d7	0.0018034232
24	0x39a1884e	0.00030809868
25	0x3b1aaf7f	0.002360314
26	0x3a828814	0.0009958767
27	0x3af353af	0.0018564368
28	0x3a2cfe0d	0.0006599136
29	0x3a3a9b24	0.00071184547
30	0x3ab9206a	0.001412404
31	0x3bc09f46	0.005878362

body.block1.conv.weight f4 [32, 32, 3, 3]
0	0x3b76fd46	0.0037687584
1	0xbb12982d	-0.0022368536
2	0x3b995388	0.004679147
3	0x3cbadd85	0.022810707
4	0x3c150066	0.009094333
5	0xbc53e127	-0.0129320985
6	0xbc46ca5e	-0.012133209
7	0x399b9c42	0.00029680325
8	0x3c7118ce	0.014715387
9	0x3cba424a	0.022736687
10	0xbc136e59	-0.008998477
11	0xbcb0a4e0	-0.021562994
12	0x3ac14a25	0.0014746828
13	0xbcad3bb1	-0.021146627
14	0x3ca1e6ec	0.019763432
15	0x3c114c4d	0.008868289
16	0xbd313fa9	-0.0432736
17	0x3c49ab43	0.012308898
18	0x3cc8a1d5	0.02449123
19	0xbbeebfe5	-0.007286059
20	0x3b77a25b	0.003778598
21	0xbcd65201	-0.02616215
22	0x3a312395	0.00067573163
23	0xbabca6f1	-0.0014393014
24	0x3c7328e9	0.014841297
25	0x3ae1f806	0.0017240054
26	0x3d038cad	0.03211658
27	0x3c06e757	0.008233867
28	0x3c9ebeac	0.019378029
29	0x3c1930bc	0.009349998
30	0x3ba2091d	0.004944934
31	0x3d2261b9	0.039643977
32	0x3b04034d	0.002014357
33	0xbc0b513e	-0.008503256
34	0xbc0b7a03	-0.008512977
35	0x3c87f893	0.016598022
36	0x3c8402f9	0.016114699
37	0x3c2f0434	0.010682154
38	0xbac659d5	-0.0015132973
39	0xbc77b5d4	-0.015119035
40	0x3c052bcc	0.008128118
41	0xbc0a341e	-0.008435277
42	0x3d3ca54e	0.046056084
43	0x3abb53ff	0.0014292
44	0x3d007ff9	0.031372044
45	0x3c0b3b55	0.008498033
46	0xbd343cc0	-0.04400325
47	0x3bbe7102	0.0058118114
48	0x3cb80e04	0.02246762
49	0x3c9d0b8d	0.019170547
50	0x3bee61f5	0.007274861
51	0x3d3cd2b7	0.04609939
52	0xbc848e1e	-0.016181048
53	0xbabd4eff	-0.0014443098
54	0x3cc80760	0.02441758
55	0x3c99fa3c	0.018796079
56	0x3c1ad935	0.0094512
57	0x3ad539b8	0.0016267812
58	0xbc18cdc4	-0.009326402
59	0xbd03e0d2	-0.032196827
60	0x3ce8e7a8	0.028430775
61	0x3c247abb	0.010039027
62	0x3c1ecc88	0.009692319
63	0xbb662de8	-0.0035122577
64	0x3cd0e725	0.025500843
65	0xbd05436a	-0.032534994
66	0xbc41c12a	-0.011825839
67	0xbbb9ce66	-0.0056703566
68	0xbc0bb5ef	-0.008527263
69	0x3c9a0775	0.018802384
70	0xbcf2e1ce	-0.029648688
71	0x3d3a5f63	0.045501124
72	0xbcc1e3ac	-0.023668133
73	0xbc94bea5	-0.018157313
74	0xbcaeb813	-0.021328008
75	0x3ab294c6	0.001362466
76	0xbc73f51a	-0.01488998
77	0xbcc9ef50	-0.024650246
78	0xbd46be83	-0.04852153
79	0xbd30a3c2	-0.04312492
80	0xbd38c133	-0.045106124
81	0xbc17c34f	-0.009262874
82	0xbc455798	-0.01204481
83	0xbc082482	-0.008309485
84	0xbb18eb42	-0.0023333584
85	0x3c9b6a6f	0.01897165
86	0xbcb725c5	-0.022356877
87	0xbc29f31c	-0.010372903
88	0xbd51353f	-0.05107617
89	0xbc3bccf2	-0.011462437
90	0xbba54bbb	-0.005044428
91	0x3c2d1ebe	0.010566412
92	0xbbb58a3d	-0.005540161
93	0xbd2ca216	-0.042146765
94	0x3cedafd7	0.029014511
95	0x3c953015	0.018211404
96	0xbc97e400	-0.018541336
97	0x3b62aa71	0.0034586454
98	0xbc936b1d	-0.017995412
99	0x3d288b40	0.041148424
100	0x3931b838	0.00016948662
101	0x3d2f4736	0.04279252
102	0xbccdc878	-0.025120005
103	0x3ba04564	0.0048910845
104	0xbc2f0e53	-0.0106845675
105	0x3ad4eae6	0.0016244322
106	0xbc0e489b	-0.008684303
107	0x3d2ae6bc	0.04172395
108	0xbabc5aca	-0.0014370319
109	0x3bcf275a	0.0063218297
110	0xbba1ef07	-0.0049418244
111	0x3cdaddeb	0.026717147
112	0xbc649997	-0.013952634
113	0x3d0656d0	0.032797635
114	0xbb8dd2c7	-0.004328105
115	0x3bb683a2	0.005569891
116	0xbc2b30ba	-0.010448629
117	0x3c1f8fa2	0.009738835
118	0x3aedc88c	0.0018141433
119	0x3c302e32	0.010753201
120	0xbc9ebed4	-0.019378103
121	0xbc1593d2	-0.009129481
122	0x3c0bf773	0.008542883
123	0x3c8863ad	0.016649092
124	0xbc0921c2	-0.008369865
125	0xbc8bc676	-0.017062407
126	0x3c3325bb	0.010934289
127	0x3c08ea62	0.0083566625
128	0xbc157442	-0.009121956
129	0x3cd6c96c	0.026219092
130	0xba6e77e4	-0.00090968446
131	0xbd1df149	-0.038560186
132	0x3caf32fc	0.021386616
133	0xbc62d035	-0.013843586
134	0x3c103c5b	0.008803452
135	0xbd065838	-0.032798976
136	0x3c184a69	0.0092950845
137	0xbcb61571	-0.022227021
138	0xbca00ec9	-0.0195383
139	0x3c32183d	0.010870037
140	0x391c1cce	0.0001488805
141	0xbd4334b5	-0.047657687
142	0x3c4e38d6	0.012586793
143	0x3c207d1d	0.009795454
144	0x3c1e8d67	0.009677268
145	0x3c30d970	0.010794029
146	0x3c7d9aa8	0.015478767
147	0xbcddf11d	-0.02709251
148	0xbc35a6f1	-0.011087165
149	0xbc368145	-0.011139219
150	0x3d2a625d	0.041597713
151	0xbc805def	-0.015669791
152	0x3cca1f0b	0.024673006
153	0x3c3e4288	0.011612542
154	0xbbb92443	-0.0056500747
155	0xbbcc28c1	-0.006230444
156	0xbb91e5f7	-0.004452463
157	0x388159e4	6.167943e-05
158	0x3bec57e0	0.007212624
159	0x3bb2e222	0.005459086
160	0xbc5c866b	-0.013459782
161	0xbc5c80d2	-0.0134584475
162	0xbc908b48	-0.01764454
163	0xbc28f764	-0.010312889
164	0xbd161bf4	-0.036647752
165	0x3d148bbc	0.036266074
166	0x3c2f8bfa	0.010714525
167	0xbd205a1c	-0.039148435
168	0xbd01edc9	-0.03172091
169	0xbc3f6493	-0.011681694
170	0xbc46fad3	-0.012144762
171	0x3d100674	0.035162404
172	0x3c82ed06	0.015982162
173	0xba28ea93	-0.00064436457
174	0x3d04fb5b	0.032466274
175	0xbcd72ae2	-0.026265565
176	0x3bb25685	0.005442443
177	0x3d30ce2a	0.043165363
178	0xbbaf9023	-0.0053577586
179	0xbc685257	-0.014179788
180	0x3cf2c4a1	0.029634776
181	0x3cc2a817	0.023761792
182	0x3ccb6071	0.02482626
183	0xbba68f1d	-0.0050829784
184	0x3cc9880c	0.024601005
185	0x3c9db8ac	0.019253097
186	0xbc89b54d	-0.016810084
187	0x3c8162b0	0.015794128
188	0x3c201720	0.009771138
189	0xbb40247b	-0.002931862
190	0x3cbd7f24	0.023131914
191	0xbc6e706e	-0.0145531725
192	0x3d25ee7f	0.04051065
193	0x3c069f47	0.008216686
194	0xbd1dd047	-0.038528707
195	0xbce5bf84	-0.028045423
196	0xba0baa8e	-0.0005327844
197	0x3c721764	0.014776085
198	0x39dd6fe0	0.00042235758
199	0x3ca34ca8	0.019934013
200	0x3b7e2959	0.003878197
201	0x3ccf719f	0.025322733
202	0x3cca1087	0.024666084
203	0xbc68e470	-0.01421462
204	0x3cc7d4d4	0.024393477
205	0x3d1e8211	0.03869826
206	0xbd000553	-0.031255078
207	0xba361c06	-0.0006946925
208	0xbc6ab72a	-0.014325896
209	0x3c28fdbb	0.0103144
210	0xbc64fd68	-0.013976432
211	0x3c1743e1	0.009232492
212	0x3d11c838	0.035591334
213	0xbb65bb2b	-0.0035054188
214	0x3c87a495	0.016557971
215	0xbc53f74f	-0.012937381
216	0xbcbc7a8e	-0.023007657
217	0xbc52972b	-0.012853424
218	0x3cadc3b8	0.02121149
219	0xbc29df25	-0.010368143
220	0xbc1d1e27	-0.009589708
221	0x3d07ce7e	0.03315591
222	0x3afd129b	0.0019307913
223	0x3c80d5d7	0.015726967
224	0x3a8d65c9	0.0010787781
225	0x3b03e9f1	0.0020128454
226	0xbcf8f363	-0.030389493
227	0x3cc5bb6a	0.024137218
228	0x3c279b09	0.010229834
229	0xbd02bdd5	-0.03191932
230	0xbb995168	-0.004678894
231	0xbbd4b55e	-0.006491347
232	0xbc58e5b5	-0.01323836
233	0x3cb5301f	0.022117672
234	0x3c57e9c2	0.013178291
235	0x3d2c52c7	0.04207113
236	0x3d1bacd9	0.038006637
237	0x3c0dd0b2	0.008655714
238	0x3ca53924	0.020168848
239	0x3b88fa26	0.0041802106
240	0x3c958090	0.01824978
241	0x3c739a0e	0.0148682725
242	0x3d01863e	0.031622164
243	0x3bc336d7	0.005957465
244	0x3cacc6bd	0.02109086
245	0x3bcf1e34	0.006320739
246	0x3d141b6c	0.036158964
247	0xbc1b1ef6	-0.009467831
248	0x3ca26b3d	0.019826526
249	0x3c91a523	0.017778939
250	0x3c773ecb	0.015090655
251	0x39551e13	0.00020324466
252	0xbcb38974	-0.021916129
253	0x3c7f63b0	0.015587732
254	0x3bbcb46e	0.0057588136
255	0xbce23b34	-0.02761612

body.block1.conv.bias f4 [32]
0	0xbd3c6fed	-0.04600518
1	0xbcdb1189	-0.02674176
2	0xbccbfce8	-0.024900869
3	0x3d4c1b10	0.049830496
4	0xbc68ddbb	-0.014213021
5	0xbcb3b554	-0.02193705
6	0x3ca474ac	0.020075165
7	0x3d274ebb	0.040846568
8	0xbd238996	-0.039926134
9	0x3d442dc4	0.047895208
10	0x3d2b5c07	0.04183581
11	0x3d3ea05d	0.046539653
12	0xbc3aeb27	-0.011408604
13	0xbd364f6c	-0.044509336
14	0x3b8a7060	0.004224822
15	0x3d39cd1a	0.045361616
16	0xbd7b1a0d	-0.06130414
17	0xbcd19ca2	-0.025587384
18	0xbc1996d7	-0.009374342
19	0xbd5a4b5b	-0.05329452
20	0xbc666754	-0.014062721
21	0xbd5089b7	-0.050912585
22	0x3ccb657d	0.024828667
23	0xbcfc401f	-0.030792294
24	0xbd26cba0	-0.040721536
25	0xbcd043b9	-0.025422918
26	0xbc8e6072	-0.017379973
27	0x3d75d7c4	0.060020223
28	0xbcc7f875	-0.024410466
29	0x3d236408	0.03989032
30	0x3d1ac8fd	0.037789334
31	0xbd0bf2d2	-0.03416712

body.block1.norm.weight f4 [32]
0	0x3f7f81b2	0.99807274
1	0x3f81b1b1	1.0132352
2	0x3f808363	1.0040096
3	0x3f8065ba	1.0031044
4	0x3f7abc74	0.97943807
5	0x3f81d1c1	1.0142137
6	0x3f86024f	1.0469455
7	0x3f85ba17	1.0447415
8	0x3f83f332	1.0308592
9	0x3f7b9f0f	0.9828958
10	0x3f79a539	0.97517735
11	0x3f7e90cc	0.9943969
12	0x3f84cbf3	1.037474
13	0x3f7d3b70	0.9891882
14	0x3f8034cc	1.0016112
15	0x3f7ddcf9	0.991653
16	0x3f7de7ce	0.9918183
17	0x3f7e8e1c	0.9943559
18	0x3f7ed65f	0.99545854
19	0x3f8172e4	1.0113187
20	0x3f8200ed	1.0156533
21	0x3f7e61b4	0.99367833
22	0x3f81c1fa	1.0137322
23	0x3f7ef535	0.99592906
24	0x3f80187f	1.0007476
25	0x3f8177c4	1.0114675
26	0x3f837664	1.0270505
27	0x3f861f35	1.0478274
28	0x3f7b9d4a	0.9828688
29	0x3f7e6716	0.99376047
30	0x3f7fe137	0.99953026
31	0x3f77bf2a	0.9677607

body.block1.norm.bias f4 [32]
0	0xbb208a36	-0.0024496443
1	0xbb3cc603	-0.0028804548
2	0xbcb1cf34	-0.021705247
3	0xbc9d17ff	-0.019176481
4	0xbcdd4fab	-0.027015528
5	0x3b4dda69	0.00314107
6	0xbc29eb8f	-0.010371103
7	0x3c6df49a	0.01452365
8	0x3a14d4bd	0.00056774524
9	0xbc9a5642	-0.018839959
10	0xbb2e98d3	-0.0026641383
11	0x3c102ed2	0.008800225
12	0xbbe5f2a7	-0.007017452
13	0xbc85fbdb	-0.016355446
14	0x3ae45643	0.0017420728
15	0xbc125dbe	-0.008933483
16	0x3bced57b	0.00631207
17	0xbb86eb66	-0.004117417
18	0xbb164481	-0.0022929015
19	0xbac292da	-0.001484479
20	0x3bd19698	0.006396126
21	0x3bd241e4	0.006416546
22	0xbc2ba409	-0.010476121
23	0xbc349d50	-0.011023834
24	0xbb242c4d	-0.002505082
25	0xbb473c6b	-0.0030401002
26	0xbbe55633	-0.006998801
27	0xbc580ad7	-0.013186178
28	0xbc9de820	-0.019275725
29	0xbba8befd	-0.0051497207
30	0xbbc5aa31	-0.0060322513
31	0xbc26cf75	-0.010181298

body.block1.norm.running_mean f4 [32]
0	0x3d8f04ea	0.06983359
1	0xbe4066d9	-0.18789233
2	0x3d2e0ead	0.042494465
3	0xbdac43a7	-0.08411341
4	0xbd03ce57	-0.032179203
5	0xbe9265db	-0.28593335
6	0x3db925a0	0.090403795
7	0xbe00d4bd	-0.12581153
8	0xbe71d012	-0.23614529
9	0x3ebadb1a	0.36495286
10	0x3d7a6da6	0.061139725
11	0xbc9f94c3	-0.019480115
12	0xbe970cba	-0.29501897
13	0xbddbdbf2	-0.107353106
14	0xbdb66542	-0.08906032
15	0xbe1eb5c5	-0.15499027
16	0xbe9bbe46	-0.30418605
17	0xbe0f9bff	-0.14024352
18	0xbd9799c7	-0.074023776
19	0xbe1c67dd	-0.15273996
20	0xbdccd4be	-0.10001515
21	0xbd2fb36a	-0.042895712
22	0x3db90ca9	0.09035618
23	0x3e9da263	0.30787954
24	0x3d8c99b6	0.068652555
25	0xbe0c64bc	-0.13710302
26	0xbdeb4a9b	-0.11488839
27	0x3e66c9aa	0.22537866
28	0xbe3ca12a	-0.18420854
29	0x3eb21c63	0.34787282
30	0x3b43417b	0.0029793668
31	0xbe7622be	-0.2403669

body.block1.norm.running_var f4 [32]
0	0x3d2a345f	0.04155385
1	0x3d853406	0.06504063
2	0x3d3b5323	0.045733582
3	0x3d83e962	0.064409986
4	0x3e81f4e5	0.25382152
5	0x3d72bed5	0.059264023
6	0x3dddc1fc	0.10828015
7	0x3e16963b	0.14705746
8	0x3d55e475	0.052219827
9	0x3e519732	0.20467833
10	0x3e31bf85	0.17358215
11	0x3cf7ccac	0.030248962
12	0x3d88e3c5	0.066840686
13	0x3e31e064	0.17370754
14	0x3cda6ded	0.026663745
15	0x3d6a0831	0.05713672
16	0x3d16fbe4	0.036861315
17	0x3d5439db	0.051812988
18	0x3d5a13f5	0.05324169
19	0x3d7d93f4	0.061908677
20	0x3ce257b6	0.027629714
21	0x3e29fd19	0.16600455
22	0x3d62506b	0.055252474
23	0x3d5cee39	0.053938124
24	0x3d437efe	0.04772853
25	0x3dc9a6ff	0.09846305
26	0x3d84a77a	0.06477256
27	0x3d88715d	0.06662247
28	0x3da60cd0	0.081079125
29	0x3d980568	0.07422906
30	0x3d4e4a12	0.050363608
31	0x3d4d1fa4	0.050079003

body.block2.conv.weight f4 [32, 32, 3, 3]
0	0xbc606bf4	-0.013697613
1	0x3c928a83	0.017888313
2	0xbb19d08d	-0.0023470253
3	0x3c29e217	0.010368845
4	0xbd14427f	-0.036196228
5	0x3ca8127d	0.020516628
6	0x3c5dd817	0.013540289
7	0x3bc96562	0.006146119
8	0xbc0217c8	-0.00794024
9	0x3cb4756e	0.022028651
10	0x3c7a5591	0.01527919
11	0x3c319fab	0.0108412905
12	0x3c828153	0.015930807
13	0x3d04034e	0.032229714
14	0x3d771fe1	0.060333136
15	0x3ade448f	0.0016957688
16	0x3a44a5c5	0.0007501508
17	0xbcab213a	-0.020889867
18	0xbcca0dae	-0.024664726
19	0x3c3a7714	0.0113809295
20	0x3ab2d592	0.0013643971
21	0x3bd4cdc6	0.0064942567
22	0x3bfbb5a5	0.007681566
23	0xbcfcd3a7	-0.030862642
24	0x3d660181	0.056153778
25	0xbcc5ee56	-0.024161499
26	0x3d18018a	0.037110843
27	0xbca328e5	-0.019916961
28	0xbd3f42e6	-0.04669466
29	0x3ca42afb	0.020040026
30	0xbcae5fbe	-0.021285888
31	0x3bc2f2c6	0.005949351
32	0x3c9da7d0	0.019245058
33	0x3bfbddb3	0.0076863407
34	0x3bc73af2	0.006080025
35	0x3b8726ac	0.004124483
36	0x3cb1a9eb	0.021687469
37	0x3d450ba4	0.048106804
38	0xbc5aef70	-0.01336275
39	0xbca52889	-0.02016093
40	0xbd287651	-0.04112846
41	0x3d150170	0.036378324
42	0xbd34dda2	-0.044156678
43	0xbca74b72	-0.020421717
44	0xbc1dee7d	-0.00963938
45	0xbb9b703f	-0.0047436054
46	0xbd546c6a	-0.051861204
47	0x3c3ed43a	0.011647278
48	0xbbc50128	-0.0060121007
49	0xbc421839	-0.011846595
50	0xbc80aacc	-0.015706442
51	0x3c2c76b6	0.01052635
52	0xbcd257c9	-0.025676625
53	0xbcac7aa0	-0.021054566
54	0xb9da89a2	-0.00041682745
55	0x3b6d5a9b	0.0036217335
56	0xbd415719	-0.047202203
57	0xbd12be66	-0.03582611
58	0xbc0f043c	-0.008729037
59	0xbb89a36c	-0.0042003896
60	0xbc232448	-0.009957381
61	0x3a38e2ce	0.00070528395
62	0xbaddc43b	-0.0016919443
63	0xba1b11d7	-0.0005915439
64	0xbc98c612	-0.018649135
65	0xbb9ce632	-0.0047881836
66	0xbbccf789	-0.0062550944
67	0x3cecdfa9	0.028915243
68	0xbb218072	-0.002464321
69	0xb9f1f21c	-0.00046147488
70	0x3ae86a1a	0.0017731816
71	0xbc3b7962	-0.011442514
72	0x3d1635fe	0.036672585
73	0x3d2d465a	0.04230342
74	0x3c07941c	0.008275058
75	0x3d56995d	0.052392352
76	0xbc21a7c5	-0.0098666595
77	0x3cd824b9	0.026384698
78	0x3bd6527e	0.0065405956
79	0x3c7e96f4	0.01553892
80	0xbc2d4e17	-0.0105777
81	0x3cf492b8	0.029855117
82	0x3c1d090a	0.009584675
83	0x3c67e394	0.01415338
84	0x3c2a16f0	0.010381445
85	0xbcc478b7	-0.023983343
86	0x3c9723ab	0.018449625
87	0x3c972a23	0.01845271
88	0xbca158f1	-0.01969573
89	0x3b57a145	0.003290252
90	0x3d56acbc	0.052410826
91	0x3c7e2ae0	0.015513152
92	0xbc2d0691	-0.010560648
93	0x3c927ee0	0.017882764
94	0xbc8ee0ce	-0.01744118
95	0xbc79a8dd	-0.015238014
96	0xbcd2b20f	-0.02571967
97	0xbcb67640	-0.022273183
98	0xbd258f30	-0.040419757
99	0x3c1d311d	0.009594229
100	0x3ba4a8c6	0.005025002
101	0x3c218218	0.009857677
102	0x3c999011	0.018745454
103	0x3bd800f7	0.006591912
104	0x3bd13e9c	0.0063856374
105	0x3c7915a6	0.015202915
106	0xbc545f5d	-0.0129621895
107	0xbc832c6e	-0.016012397
108	0x3c4331c7	0.011913723
109	0x3be9b1da	0.0071317973
110	0x3c173e5e	0.009231178
111	0xbbc3392b	-0.0059577427
112	0x3b816559	0.003948849
113	0x3babd50d	0.0052439035
114	0xbce6ec07	-0.028188718
115	0x3c7a10db	0.015262808
116	0x3d0df2f5	0.03465553
117	0xbd405429	-0.04695526
118	0xbd0103a5	-0.031497616
119	0xbc358f24	-0.011081491
120	0xbc1678a1	-0.009184034
121	0x3c63240c	0.013863575
122	0xbc4fba5b	-0.012678708
123	0xbb4e9e16	-0.0031527332
124	0xbc4c97bf	-0.012487351
125	0xbc5b3ae9	-0.0133807445
126	0x3ce52091	0.02796963
127	0x3c3d0f4a	0.01153929
128	0xbba7258b	-0.005100911
129	0x3bc4f88a	0.0060110735
130	0xbc404144	-0.011734311
131	0x3cd3238a	0.025773782
132	0x3d117e81	0.035521034
133	0x3c9ad938	0.018902406
134	0xbbda963e	-0.0066707423
135	0xbc873f95	-0.01650981
136	0xbc2929b4	-0.010324884
137	0xbca70c73	-0.020391678
138	0x3c2f6655	0.01070555
139	0xbb9c504b	-0.004770314
140	0xbb3d2b66	-0.0028864979
141	0xbd0c63ad	-0.034274746
142	0xb96d3b04	-0.00022624066
143	0x3c952606	0.018206608
144	0x3b1fac6f	0.0024364253
145	0xbcfa3d0b	-0.030546686
146	0xbce45b3b	-0.027875533
147	0xbc75eeba	-0.01501053
148	0xbb739e6d	-0.0037173287
149	0x3c3b5c68	0.011435606
150	0xbb6aa2b4	-0.0035802545
151	0xb9964757	-0.00028663382
152	0xb9ce6679	-0.0003936773
153	0x3d17803f	0.03698754
154	0x3c17d2f3	0.009266603
155	0xbcf0390e	-0.02932408
156	0xbc9b4dea	-0.01895805
157	0xbafeda8b	-0.0019443793
158	0xbce01e19	-0.027358102
159	0x3c841e31	0.016127678
160	0x3c5f68f8	0.013635866
161	0xbccc7004	-0.024955757
162	0xbb5da2ab	-0.0033818881
163	0x3d10a5b9	0.035314295
164	0xbc8ee601	-0.017443659
165	0x3b89665e	0.0041931113
166	0x3c4790bf	0.012180506
167	0xbd1eba30	-0.03875178
168	0x3cd7150f	0.026255159
169	0xbc803f74	-0.015655257
170	0xbd1cfda1	-0.038327817
171	0xbc8b22e2	-0.016984407
172	0xbc933338	-0.017968759
173	0xbc37896b	-0.011202197
174	0xbc87872f	-0.016543953
175	0x3cc5ea94	0.024159707
176	0xbc67fa93	-0.014158863
177	0xbb21211a	-0.002458638
178	0xbc335371	-0.010945187
179	0xbc296b47	-0.010340518
180	0xbd03db4d	-0.032191563
181	0xbd07723c	-0.033067927
182	0xbbf8f0ac	-0.0075970497
183	0xbd1caeba	-0.03825257
184	0x3cb4cb0a	0.022069473
185	0xbb88246e	-0.0041547334
186	0xbcdb4026	-0.026763987
187	0x3a1c30b9	0.0005958188
188	0x3be34609	0.006935839
189	0xbc9b683e	-0.018970605
190	0xbc9decb5	-0.01927791
191	0x3b42130e	0.0029613408
192	0xbbc1d319	-0.0059150574
193	0xbb31ccab	-0.0027130048
194	0x3b8b9db1	0.0042607416
195	0x3cba9b1a	0.022779036
196	0x3a647ba1	0.0008715932
197	0xbc89d47b	-0.016824951
198	0xbb608383	-0.0034258075
199	0x3c8f7044	0.017509587
200	0x3d2e3884	0.042534366
201	0xbc8d47d2	-0.01724616
202	0xbc7f1aee	-0.015570385
203	0xbabc42e8	-0.0014363201
204	0xbca10df0	-0.019659966
205	0xbc52461a	-0.012834096
206	0x3c6affd4	0.014343221
207	0x3cfd20ee	0.030899491
208	0xbbe575ae	-0.007002554
209	0xbce98e63	-0.028510278
210	0xbcecfdc1	-0.028929593
211	0xbce8b637	-0.0284072
212	0xbb5f3dbb	-0.0034063894
213	0xbc3063a7	-0.0107659465
214	0xbbe3fd52	-0.0069576884
215	0x3cf3ca46	0.029759537
216	0x3bf6c43d	0.0075307176
217	0x3c29ca04	0.010363106
218	0xbc5e387b	-0.013563271
219	0x3cd6cbeb	0.026220283
220	0xbb646197	-0.0034848207
221	0xbcc1b9e0	-0.023648202
222	0xbb895304	-0.0041908044
223	0xbc3b06e9	-0.011415222
224	0x3bae695e	0.0053226193
225	0x3c8973f6	0.016778927
226	0xbbfa0f0e	-0.007631189
227	0xbbd1a5da	-0.006397945
228	0xb97a7722	-0.00023886238
229	0xbc40c6ba	-0.01176613
230	0x3cf6b697	0.030116362
231	0xbd2e717d	-0.0425887
232	0xbbe1b68e	-0.0068882173
233	0x3c8437a2	0.016139809
234	0x3ca1dc63	0.019758409
235	0xbd05aaa9	-0.032633457
236	0x3d0a5039	0.033767913
237	0x3bdd09f1	0.00674557
238	0xbce880c8	-0.02838172
239	0x3cacf621	0.021113457
240	0x3c02fe76	0.0079952385
241	0x3a12fb4f	0.0005606906
242	0xbd34ac2a	-0.0441095
243	0xbc75ea6f	-0.015009507
244	0xbc4429bf	-0.011972844
245	0xbcc5fb1c	-0.02416759
246	0xba1c86cd	-0.00059710146
247	0x3cae0830	0.021244138
248	0x3cb1c7bb	0.021701684
249	0xbd131fa3	-0.035918843
250	0xbc503b97	-0.01270952
251	0xbad4445e	-0.0016194691
252	0xbb92cbd0	-0.0044798627
253	0x3d176274	0.036959127
254	0x3d28403b	0.04107688
255	0xbcec0090	-0.028808862

body.block2.conv.bias f4 [32]
0	0xbd53dfaf	-0.051726993
1	0xbd2a5e47	-0.041593816
2	0x3d54e908	0.05198005
3	0xbd59d4b0	-0.05318135
4	0xbcd56c3a	-0.026052583
5	0xbd4e50fd	-0.050370205
6	0x3cd84fb6	0.026405197
7	0x3d4ecd59	0.050488804
8	0x3d6e0337	0.058108535
9	0x3ca39d7b	0.019972553
10	0x3d5d7186	0.054063343
11	0xbd59e6e2	-0.053198703
12	0xbd0c7860	-0.034294486
13	0xbcc5fb89	-0.024167793
14	0x3d3bc8a0	0.045845628
15	0x3d54ba42	0.05193544
16	0x3cee4f9e	0.029090699
17	0x3c1923cb	0.009346913
18	0x3c849043	0.01618207
19	0xbb25ec91	-0.0025318007
20	0xbc49d50c	-0.012318861
21	0x3d68f09f	0.0568701
22	0xbcfcb3ff	-0.030847548
23	0x3bdedc29	0.0068011475
24	0xbc226fe1	-0.009914369
25	0x3bed948f	0.0072503756
26	0xbcb94ce3	-0.02261967
27	0x3d67d85e	0.05660283
28	0xbd31b598	-0.043386072
29	0x3bdb9621	0.0067012464
30	0x3d2e11eb	0.042497557
31	0x3cccc6a8	0.02499707

body.block2.norm.weight f4 [32]
0	0x3f82e66a	1.0226567
1	0x3f78baf3	0.9716026
2	0x3f79fc4f	0.9765062
3	0x3f7cb223	0.98709315
4	0x3f823768	1.0173159
5	0x3f7c025f	0.9844112
6	0x3f812787	1.0090188
7	0x3f840742	1.0314715
8	0x3f8203a8	1.0157366
9	0x3f819def	1.0126323
10	0x3f7e5292	0.9934474
11	0x3f7cc5a2	0.98739064
12	0x3f7d353f	0.9890937
13	0x3f7b4fac	0.98168445
14	0x3f74c811	0.9561778
15	0x3f7e9e7b	0.9946057
16	0x3f819544	1.0123677
17	0x3f809cc9	1.0047847
18	0x3f84dc25	1.0379683
19	0x3f7f3398	0.996881
20	0x3f803e5d	1.0019032
21	0x3f854457	1.0411481
22	0x3f84f953	1.0388588
23	0x3f80b60b	1.0055555
24	0x3f81ea98	1.0149717
25	0x3f809fea	1.0048802
26	0x3f7bbe3e	0.9833716
27	0x3f81822a	1.0117848
28	0x3f7f70f1	0.9978171
29	0x3f85283b	1.0402902
30	0x3f7f45d5	0.9971593
31	0x3f806293	1.0030082

body.block2.norm.bias f4 [32]
0	0xbc8363a2	-0.01603872
1	0xbbfa465a	-0.007637781
2	0xbc0181cd	-0.007904482
3	0xbc3ab5f9	-0.011395925
4	0xbbf52573	-0.007481271
5	0xbabfa7bb	-0.0014622131
6	0xbc69028c	-0.014221799
7	0x3c3b0734	0.011415292
8	0xbc3feb0a	-0.0117137525
9	0xbc95c4be	-0.01828229
10	0xbb9ec166	-0.0048448322
11	0xbb04f220	-0.002028592
12	0xbb2bb78f	-0.0026201939
13	0x3b847bc5	0.004043075
14	0xbc0f7893	-0.0087567745
15	0xbb1bb257	-0.0023757422
16	0xbc03ab92	-0.008036511
17	0xbb73fcbd	-0.0037229501
18	0xbc37ca07	-0.011217601
19	0x3b9b5e57	0.004741471
20	0xba8d244a	-0.0010768261
21	0xbb950288	-0.004547421
22	0xbb8f239f	-0.00436826
23	0xbc1a7aba	-0.009428674
24	0xbbfdb579	-0.0077425805
25	0xbc65d96a	-0.014028886
26	0xba7cd4b4	-0.00096447323
27	0xbb950e3d	-0.0045488165
28	0x3acab16a	0.001546425
29	0xbbf03386	-0.007330361
30	0xbc36a2d8	-0.011147223
31	0xbbe9ee7c	-0.0071390253

body.block2.norm.running_mean f4 [32]
0	0xbe657cd3	-0.22410898
1	0xbdbab65b	-0.09116813
2	0x3ec9410f	0.39307448
3	0x3dcec081	0.10095311
4	0x3a885a59	0.0010402902
5	0xbe2f3372	-0.17109469
6	0xbd075bb4	-0.03304644
7	0xbebc619a	-0.36793214
8	0x3da900df	0.08252119
9	0xbdc4e20a	-0.09613426
10	0x3e64a81a	0.2232975
11	0xbe2fdd7b	-0.17174332
12	0x3e3db064	0.18524319
13	0x3e0ae10c	0.13562411
14	0xbdaf87a9	-0.08570797
15	0x3da78219	0.08179111
16	0xbda734d2	-0.081643716
17	0x3c1de4d4	0.009637076
18	0xbe366507	-0.17811976
19	0xbdf545ef	-0.119762294
20	0xbe3f21d7	-0.18665253
21	0x3dc3dfbe	0.0956416
22	0x3e1d4793	0.15359335
23	0xbe48e25e	-0.19617602
24	0xbe1a40ea	-0.15063825
25	0xbe49ca2c	-0.19706029
26	0xbcfb82ae	-0.030701961
27	0x3d4c0603	0.04981042
28	0xbe43817c	-0.19092363
29	0xbd12674d	-0.035743047
30	0xbdbadc09	-0.091239996
31	0xbd818ce1	-0.06325699

body.block2.norm.running_var f4 [32]
0	0x3da5f501	0.081033714
1	0x3ef055dc	0.46940506
2	0x3dd5356c	0.1041058
3	0x3d225f42	0.039641626
4	0x3d7eabcd	0.06217556
5	0x3d3e904c	0.04652433
6	0x3d83e580	0.06440258
7	0x3d0bea69	0.034159098
8	0x3d91165a	0.07084341
9	0x3d0e6aee	0.034769945
10	0x3e0c8482	0.13722423
11	0x3e7ea012	0.2486575
12	0x3dc0e745	0.09419111
13	0x3db964e9	0.0905245
14	0x3df41621	0.11918283
15	0x3dd7f604	0.10544971
16	0x3d9f4ad7	0.077779464
17	0x3e9601bb	0.29298195
18	0x3d3547d9	0.044257972
19	0x3de2ec5c	0.11080238
20	0x3db80f6d	0.08987317
21	0x3de6551b	0.11246701
22	0x3d9ff4c8	0.0781036
23	0x3d17dfb2	0.037078567
24	0x3e0ee089	0.13952841
25	0x3e051685	0.12996872
26	0x3e024c76	0.1272448
27	0x3dbc01bf	0.091800205
28	0x3d099ff2	0.0335998
29	0x3d2cee99	0.042219732
30	0x3d1c8c9f	0.038220044
31	0x3da5e760	0.08100772

body.block3.conv.weight f4 [32, 32, 3, 3]
0	0x3aaecf87	0.0013336994
1	0x3bc254b1	0.005930506
2	0xbbfa2cd1	-0.007634737
3	0xbaacfb3a	-0.001319743
4	0x3d0fa3ef	0.03506845
5	0xbb88b0ca	-0.0041714655
6	0xbcc8157a	-0.024424303
7	0xbb17ea54	-0.0023180442
8	0xbd1caf3c	-0.038253054
9	0xbd031801	-0.032005314
10	0xbd2eec6a	-0.04270593
11	0x3d2fc2ab	0.04291026
12	0x3c818cab	0.015814146
13	0xbc8626c6	-0.01637591
14	0xbd42acca	-0.047528066
15	0xb9b41171	-0.0003434527
16	0x3ccd4e09	0.025061624
17	0x3c6d45bf	0.014481961
18	0x3cd49691	0.025950702
19	0xbc1a1f0b	-0.009406815
20	0xbc4d8c79	-0.012545698
21	0x3c4ee88e	0.012628688
22	0x3ca4379e	0.020046052
23	0x3d16b14d	0.03679018
24	0xbcb4bf4c	-0.022063874
25	0x3cd20ed9	0.025641846
26	0xbc48092c	-0.012209218
27	0xbc0de25f	-0.008659928
28	0xbb8b78a4	-0.004256325
29	0xbc835a97	-0.016034408
30	0x3c3281df	0.0108952215
31	0xbbeaca88	-0.007165257
32	0x3d3675d7	0.044545975
33	0xbd0213c6	-0.03175714
34	0x3c51b0e1	0.012798519
35	0xb9690865	-0.00022223739
36	0xbc1232c1	-0.0089232335
37	0xbcb7696c	-0.022389136
38	0x3b7de9dd	0.003874413
39	0xbd753460	-0.0598644
40	0xbd0efc4d	-0.03490858
41	0x3aacec5e	0.0013193002
42	0x3bef0ed5	0.0072954693
43	0x3d20b87d	0.03923844
44	0x3b92e153	0.004482427
45	0x3bc4977a	0.0059995027
46	0x3c780a8a	0.015139231
47	0xba07ed49	-0.00051851996
48	0x3b0df56f	0.0021661182
49	0x3cf9d066	0.03049488
50	0x3c55837e	0.013031838
51	0x3cbf4306	0.023347389
52	0x3c3addb0	0.0114053935
53	0x3cc616ef	0.024180857
54	0x3b131445	0.0022442502
55	0x3c5000a6	0.012695467
56	0x3c69eec9	0.014278122
57	0x3b577a86	0.0032879426
58	0x3af45552	0.001864115
59	0x3d4a4361	0.049380664
60	0x3c236d48	0.009974785
61	0x3c56d28d	0.013111723
62	0x3cc02929	0.023457127
63	0x3d42cce7	0.04755869
64	0xba922efc	-0.0011152918
65	0xbcb8d69d	-0.022563273
66	0xbcf544dd	-0.029940063
67	0x3c1e5293	0.009663242
68	0x3d6c89a9	0.05774847
69	0xbc9abfb5	-0.018890241
70	0x3cfe6c5e	0.031057533
71	0x3b7a69ac	0.0038209958
72	0xbc831183	-0.015999561
73	0x3b407836	0.0029368526
74	0xbb9ce79b	-0.0047883517
75	0xbd10780d	-0.03527074
76	0x3d151988	0.0364013
77	0xbc959553	-0.01825968
78	0x3c1eb826	0.009687459
79	0xbc95530f	-0.018228082
80	0xba811582	-0.0009848329
81	0x3be95179	0.007120308
82	0xbb01ad7b	-0.001978724
83	0xbca076b7	-0.019587858
84	0xbd0e9c9e	-0.03481733
85	0xbcc82de8	-0.024435952
86	0xbccbdb39	-0.024884807
87	0xbb43766c	-0.0029825224
88	0xbc9925d0	-0.018694788
89	0xbb8fd25c	-0.0043890905
90	0x3bf3e02d	0.0074424953
91	0xbcf5149f	-0.02991706
92	0x3be7a4d3	0.007069209
93	0x3c860347	0.016358985
94	0x3c7f0b25	0.015566622
95	0xbc46c5e9	-0.012132146
96	0x3c2e821d	0.010651139
97	0xbc9ff584	-0.01952625
98	0xbd182c52	-0.037151642
99	0xbbbfe6e3	-0.0058563813
100	0xbc15a31f	-0.009133129
101	0xbb8980d9	-0.004196268
102	0xbc8e66cc	-0.017383002
103	0xbcaaf36f	-0.020868031
104	0x3cecfc68	0.02892895
105	0xbd03d279	-0.032183144
106	0xbca0fd97	-0.019652171
107	0x3c6f5385	0.014607315
108	0x3ce36ecd	0.027762795
109	0x3bf57f0b	0.0074919513
110	0xbc6c8c70	-0.01443778
111	0x3ba96493	0.00516946
112	0x3cfa9207	0.03058721
113	0x3bc6014d	0.0060426355
114	0xbcdc7803	-0.026912695
115	0xbd2387f3	-0.039924573
116	0x3c73ab9d	0.014872459
117	0x3b8fe84a	0.0043917047
118	0x3cb71967	0.02235098
119	0xb9512556	-0.00019945702
120	0xbb0d41d8	-0.0021554139
121	0x3ceb5d3b	0.02873098
122	0x3cd52496	0.026018422
123	0x3d53e412	0.051731177
124	0xbd2f4804	-0.04279329
125	0xbcf5bf18	-0.029998347
126	0x3b949d52	0.0045353556
127	0x3d01aec1	0.0316608
128	0x3d34e092	0.04415948
129	0x39cefbc3	0.0003947896
130	0xbce59bcb	-0.02802839
131	0x3cae8a5b	0.021306207
132	0x3c9fe354	0.019517578
133	0x39930b22	0.0002804632
134	0x3cfed4d8	0.031107351
135	0x3ca3dfa5	0.020004103
136	0x3ce68a02	0.02814198
137	0xbc33d04e	-0.010974957
138	0xbb22232d	-0.0024740205
139	0x3b1f14c9	0.0024273864
140	0xbb3ea73a	-0.0029091374
141	0xbc2f0775	-0.01068293
142	0xbc63ff8c	-0.013915908
143	0x39ad4c3e	0.00033053936
144	0x3c6c25d0	0.014413312
145	0x3bed791f	0.007247105
146	0xbc087020	-0.008327514
147	0x3d1a9ac3	0.03774525
148	0x3c718b79	0.0147427255
149	0x3b8ba09b	0.004261089
150	0xbcf7c7cb	-0.030246636
151	0x3d10dc89	0.03536657
152	0x3c7a41b8	0.015274458
153	0xbcb121f8	-0.021622643
154	0xbcc6cc96	-0.024267476
155	0x3adcfdd0	0.001686031
156	0x3d1e21b9	0.03860638
157	0x3cc45b00	0.023969173
158	0xbbb702d0	-0.005585052
159	0x3aec2e9c	0.0018019262
160	0x3c9f6772	0.019458506
161	0x3c3d1727	0.0115411645
162	0xbcc452fb	-0.02396535
163	0xbbd2d0b3	-0.0064335703
164	0xbd46c9cc	-0.048532292
165	0x3c807ec6	0.01568545
166	0x3c608e5f	0.013705819
167	0xbcb526dd	-0.022113258
168	0x3d24aa99	0.040201757
169	0xbc0c3563	-0.00855765
170	0x3c641012	0.013919847
171	0x3ce20fda	0.02759545
172	0x39e7c82b	0.0004420889
173	0x3ccd078f	0.025028018
174	0xbc6408aa	-0.013918081
175	0xbc931401	-0.017953875
176	0x3aa40b78	0.0012515625
177	0xbd3c613a	-0.04599116
178	0xbca632d0	-0.020287901
179	0x3b1392ed	0.0022517995
180	0x3b2d0327	0.0026399584
181	0xbb947a25	-0.0045311623
182	0xbc94c549	-0.01816048
183	0xbbc6b776	-0.0060643507
184	0x3c758ef9	0.014987701
185	0xbba2ede7	-0.004972208
186	0xbaa80dea	-0.001282153
187	0x3cc0f2df	0.02355331
188	0xbd08352d	-0.033253837
189	0xbb99c54e	-0.00469271
190	0x3cea12ce	0.02857342
191	0xbcc9865e	-0.024600204
192	0xbae00c53	-0.0017093517
193	0xbd06daaa	-0.032923378
194	0xbc99bc98	-0.018766686
195	0x3cee2915	0.029072324
196	0xbc8e0f16	-0.017341178
197	0x3c084b51	0.008318738
198	0x3cb62aac	0.022237144
199	0x3bc2437a	0.005928454
200	0x3cde2125	0.027115414
201	0x3d5b4076	0.05352827
202	0xbcc3dcab	-0.023908934
203	0x3cbbeb21	0.022939267
204	0x3c55909d	0.013034967
205	0x3c2d493c	0.0105765425
206	0x3a9f6295	0.0012160117
207	0xbc47da70	-0.012198076
208	0xbd2304e0	-0.03979957
209	0x3d44bc2f	0.04803103
210	0xbd94d412	-0.07267012
211	0xbb0cbb99	-0.0021474122
212	0xbba60da0	-0.005067542
213	0xbbe7ac8d	-0.00707013
214	0xbc83c1f2	-0.016083691
215	0x3a1f182f	0.0006068972
216	0x3be6f17f	0.0070478315
217	0x3cab23d9	0.020891117
218	0xbb9363bd	-0.0044979737
219	0xbd311000	-0.04322815
220	0xbbeec2f5	-0.0072864243
221	0xbc764189	-0.015030273
222	0xbd017026	-0.031601094
223	0x3b7917da	0.0038008601
224	0x3b8c6953	0.0042850166
225	0xbc9cee96	-0.019156735
226	0xbba3b4c2	-0.0049959132
227	0xbc21e515	-0.009881278
228	0x3d04f796	0.03246268
229	0x3c4597f7	0.012060157
230	0x3c040d51	0.0080598155
231	0xb9d5815d	-0.0004072291
232	0xbc5eadef	-0.013591274
233	0x3b370c00	0.0027930737
234	0x3c8dc44d	0.017305518
235	0xbd1bbed1	-0.038023774
236	0x3c9da572	0.01924393
237	0x3b061771	0.002046075
238	0x3cd4770d	0.025935674
239	0x3cc6def9	0.024276244
240	0xbc836de0	-0.016043603
241	0x3afc3396	0.0019241448
242	0x3ae866ee	0.0017730871
243	0xbc9d54ed	-0.019205535
244	0xbb5e16e6	-0.003388816
245	0xbd21cdc0	-0.03950286
246	0xbc7a16ba	-0.0152642075
247	0xbc7a86a2	-0.015290888
248	0xbbf28acb	-0.0074017993
249	0xbc9973a6	-0.018731903
250	0x3b8e0752	0.0043343687
251	0xbd67206b	-0.0564274
252	0xbcd9744e	-0.026544716
253	0xbc7e2820	-0.015512496
254	0x3d02ea93	0.03196199
255	0x3c855102	0.01627398

body.block3.conv.bias f4 [32]
0	0x3cafca5f	0.021458803
1	0x3d2f8d3d	0.042859305
2	0xbd039275	-0.032122094
3	0x3d0dacb1	0.03458852
4	0x3cf95445	0.03043569
5	0xbad8c42c	-0.0016537956
6	0x3c9e9abb	0.01936089
7	0x3c157e8e	0.009124411
8	0xbd7132ac	-0.058886215
9	0xbd194efa	-0.037428834
10	0xbcb1dbfd	-0.021711344
11	0x3d212ec7	0.03935125
12	0xbc81191c	-0.015759043
13	0xbcdfff96	-0.027343553
14	0xbd24ede9	-0.04026595
15	0x3cca96f8	0.02473019
16	0xbcff2af9	-0.03114842
17	0xbcb7beb1	-0.022429796
18	0xbd4f8a3b	-0.050668936
19	0x3c67129b	0.014103557
20	0xbc86c419	-0.016450929
21	0xbcd0a9bd	-0.025471563
22	0xbd53817b	-0.051637154
23	0x3d287ba6	0.041133545
24	0x3d1c970a	0.03822998
25	0xbbc1c2e7	-0.0059131267
26	0x3cec6b55	0.028859774
27	0x3b15d68d	0.0022863478
28	0xbc40a8ff	-0.011759042
29	0xbb32ef31	-0.0027303214
30	0xbd7b8648	-0.061407357
31	0x3c038853	0.008028108

body.block3.norm.weight f4 [32]
0	0x3f829453	1.0201515
1	0x3f80fc1c	1.0076938
2	0x3f7dbd3a	0.9911686
3	0x3f8129ae	1.0090845
4	0x3f81ed1f	1.0150489
5	0x3f767ce2	0.96284306
6	0x3f7f797c	0.99794745
7	0x3f7c261d	0.98495656
8	0x3f805298	1.0025206
9	0x3f82024c	1.0156951
10	0x3f798089	0.97461754
11	0x3f7b90b7	0.9826769
12	0x3f75e0ff	0.9604644
13	0x3f756982	0.9586412
14	0x3f7ec279	0.9951549
15	0x3f74ce3b	0.9562718
16	0x3f7f1715	0.99644595
17	0x3f7f574d	0.99742585
18	0x3f7e171a	0.99254
19	0x3f7b8f55	0.9826558
20	0x3f7c923c	0.98660636
21	0x3f7dbf87	0.9912037
22	0x3f7a1a24	0.9769614
23	0x3f7f8e51	0.9982653
24	0x3f7a8c0f	0.9786996
25	0x3f7612be	0.9612235
26	0x3f7f97db	0.9984109
27	0x3f7c578b	0.9857108
28	0x3f7df67d	0.99204236
29	0x3f7840fa	0.96974146
30	0x3f792ab0	0.9733076
31	0x3f7a86d2	0.9786197

body.block3.norm.bias f4 [32]
0	0xbb446d9b	-0.0029972557
1	0xbbcc3740	-0.0062321723
2	0xbb0cde18	-0.0021494683
3	0xbbffa9e2	-0.007802234
4	0xba2f2644	-0.0006681422
5	0xbc58dd50	-0.013236359
6	0xbbe5530a	-0.0069984244
7	0xbc39400b	-0.011306773
8	0xbcf69942	-0.030102376
9	0xbc113ca5	-0.008864556
10	0xbc9ecbab	-0.019384226
11	0xbc9ce241	-0.019150855
12	0xbc6f5337	-0.014607242
13	0xbc4a0d38	-0.012332253
14	0xbc8cbc52	-0.017179642
15	0xbcf7ef54	-0.030265488
16	0xbb9ee8e1	-0.0048495387
17	0xbc752c05	-0.014964108
18	0xbc5a18a2	-0.013311537
19	0xbac30fba	-0.0014882006
20	0xbc1e9d3b	-0.009681041
21	0xbbfc9290	-0.0077079013
22	0xbcdbb127	-0.026817871
23	0xbb51bb4b	-0.0032002504
24	0xbc8be0a1	-0.017074885
25	0x39b934dc	0.00035325333
26	0x378491ac	1.580346e-05
27	0xbba3cb62	-0.0049986104
28	0xbb88b361	-0.0041717743
29	0xbc8ab29d	-0.016930873
30	0xbc47494f	-0.012163474
31	0xbc6227e1	-0.013803453

body.block3.norm.running_mean f4 [32]
0	0x3d1d8c4b	0.038463872
1	0xbcf5d19d	-0.030007178
2	0x3d8a4a1f	0.06752419
3	0xbe239da6	-0.15978107
4	0xbd9f7306	-0.07785611
5	0xbe383c27	-0.17991696
6	0xbe018c36	-0.12651142
7	0x3e4ff729	0.20309128
8	0xbea006ba	-0.31255132
9	0xbe318c47	-0.17338668
10	0xbd9662b0	-0.07343042
11	0x3ea28232	0.31739956
12	0xbd4f67e8	-0.050636202
13	0xbd9e8bbc	-0.07741496
14	0xbe6474e3	-0.22310214
15	0xbe7cb3b7	-0.24677931
16	0x3ca9d286	0.020730268
17	0xbde31339	-0.11087651
18	0xbecb1d75	-0.3967091
19	0x3e75b757	0.2399572
20	0xbebef8ba	-0.37299138
21	0xbe1207c3	-0.14260773
22	0xbe41417c	-0.18872637
23	0xbdb71b14	-0.089407116
24	0xbe5fa550	-0.21840405
25	0xbe80e483	-0.2517434
26	0xbe2d98f6	-0.16952881
27	0xbdd7b343	-0.10532238
28	0xbeb541dd	-0.35401812
29	0x3c8cce56	0.017188232
30	0xbe874932	-0.2642303
31	0xbd35db88	-0.044398814

body.block3.norm.running_var f4 [32]
0	0x3dcaeb19	0.099081226
1	0x3e5a50a5	0.21319826
2	0x3ddfe401	0.1093216
3	0x3dd95df1	0.10613621
4	0x3dc653ac	0.09683928
5	0x3ec1ec45	0.37875572
6	0x3e3e9916	0.18613085
7	0x3e3bdba3	0.18345504
8	0x3dea201e	0.11431907
9	0x3e303312	0.17206982
10	0x3e04008d	0.12890835
11	0x3dd669d6	0.10469405
12	0x3e2b49bd	0.16727348
13	0x3d841171	0.06448639
14	0x3dcabd68	0.098994076
15	0x3e5f2abe	0.21793649
16	0x3df3a0d1	0.11895908
17	0x3e7811cd	0.2422554
18	0x3d9423f5	0.07233421
19	0x3e81ebef	0.25375316
20	0x3e91f3dc	0.28506362
21	0x3e5e9e26	0.21740016
22	0x3e4fe630	0.20302653
23	0x3e2af787	0.16695987
24	0x3da1cad7	0.07900017
25	0x3e8336a7	0.25627634
26	0x3dc518cb	0.096238695
27	0x3deaafd9	0.114593215
28	0x3e212275	0.157358
29	0x3e368f81	0.1782818
30	0x3daf63bd	0.085639454
31	0x3ead1f42	0.3381291
