code/Output/birds/pdl_e8000_1px_lr0.0002a3.0_up-conv5_1_W[1.0, 0.75, 0.2, 0.2, 0.2](3)/3/netG.pth (torch, 130373 bytes, 26 tensors)

head.conv.weight f4 [32, 3, 3, 3]
0	0xbc01cce7	-0.007922388
1	0xbcdbb4ce	-0.026819613
2	0xbbb0aeb2	-0.005391919
3	0x3da48c24	0.08034542
4	0x3d28ce57	0.041212406
5	0x3cbc1da8	0.02296336
6	0x3d2da4b0	0.042393386
7	0xbcbbbdf5	-0.022917727
8	0x3c9f9e86	0.01948477
9	0x3d8cbd70	0.0687207
10	0x3ce8ff73	0.02844212
11	0xbd250793	-0.040290426
12	0x3d4b7310	0.04967028
13	0x3abfbdaf	0.0014628674
14	0xbd15f675	-0.036611993
15	0x3af57c60	0.0018729083
16	0xbd32243a	-0.04349158
17	0xbce52fdb	-0.02797692
18	0x3cd7e388	0.026353613
19	0x3d736b3f	0.05942845
20	0x3d874e92	0.06606783
21	0xbcfeed80	-0.031119108
22	0xbbd10a1d	-0.0063793794
23	0xbcd2bf6f	-0.025726048
24	0xbd1beaae	-0.038065605
25	0xbd9d99c1	-0.07695342
26	0xbd374dfa	-0.0447521
27	0x3cc68b50	0.024236351
28	0x3cdb6b23	0.026784485
29	0x39b02d0a	0.00033602893
30	0xbd2cafd1	-0.04215986
31	0xbd8a9e95	-0.06768528
32	0xbdff1829	-0.1245578
33	0x3d2bba4a	0.041925706
34	0x3d80db16	0.06291787
35	0x3c8f3ef0	0.017486066
36	0x3c2d68dc	0.010584082
37	0xba079b0e	-0.0005172946
38	0xbb8f1540	-0.004366547
39	0xbc6e56d5	-0.01454707
40	0xbd42e34c	-0.04758005
41	0xbd38ae14	-0.04508789
42	0x3bf586f5	0.007492895
43	0x3d327eb2	0.043577857
44	0x3d741318	0.05958852
45	0xbd6d67f7	-0.057960477
46	0xbd45524e	-0.048174195
47	0xbc661869	-0.014043906
48	0xbc179bde	-0.00925347
49	0xbbd261bf	-0.0064203436
50	0x3d4e5b83	0.05038024
51	0xbd312070	-0.043243825
52	0xbc7d303e	-0.015453396
53	0xbb56e910	-0.0032792725
54	0x3dcace1b	0.09902593
55	0x3d19a29e	0.0375086
56	0x3c8b0ba3	0.016973322
57	0x3d489edc	0.048979625
58	0xbc54594f	-0.012960746
59	0xbb34a170	-0.0027562045
60	0x3d16ac3c	0.03678535
61	0x3ce63f5b	0.028106382
62	0x3ca6a1af	0.020340769
63	0x3db5fbda	0.088859275
64	0x3c9e10cd	0.01929512
65	0xbd319244	-0.04335238
66	0xbc17a663	-0.009255978
67	0x3b5300ad	0.0032196448
68	0xbd88e866	-0.066849515
69	0xbc93bc70	-0.01803419
70	0xbbe5a6c5	-0.007008406
71	0xbd00034e	-0.03125315
72	0x3d5e7abb	0.054316264
73	0x3ca304af	0.019899694
74	0xbbcf9400	-0.0063347816
75	0xbcea880f	-0.02862933
76	0xbd2c804c	-0.04211454
77	0xbd8f62f2	-0.07001294
78	0x3c0b6c63	0.008509728
79	0xbdb06b18	-0.086141765
80	0xbd18ebf5	-0.0373344
81	0x3aaa5b97	0.0012997267
82	0x3c6bb1b4	0.014385629
83	0x3d8d8335	0.069097914
84	0xbd2b7af3	-0.0418653
85	0x3cea5a9d	0.02860766
86	0xbc95af3c	-0.018272035
87	0xbd965a2d	-0.073414184
88	0xbd108e1c	-0.035291776
89	0xbaaa1669	-0.001297665
90	0x3d1507a0	0.036384225
91	0x3d1d42c7	0.038393762
92	0x3d4d77f4	0.050163224
93	0xbcec98b6	-0.028881412
94	0x3cbed7e3	0.023296302
95	0x3d21c731	0.039496604
96	0xbdc55b63	-0.09636571
97	0x3cbeb627	0.023280216
98	0x3c0df74d	0.008664918
99	0xbc678969	-0.014131882
100	0x3d2e9952	0.042626686
101	0xbcb0b175	-0.021568993
102	0xbd3886b3	-0.045050334
103	0x3d6c24c7	0.05765226
104	0x3ae0f4c5	0.0017162791
105	0xbd176908	-0.0369654
106	0x3d0135c6	0.031545423
107	0x3c244d14	0.0100281425
108	0xbd180a9a	-0.037119485
109	0xbce32c95	-0.02773122
110	0x3d503898	0.050835222
111	0xba604704	-0.0008555504
112	0xbd75ede1	-0.060041312
113	0x3cf23065	0.029564092
114	0x3bc10896	0.005890916
115	0xbcf128c4	-0.029438384
116	0xbc9d3df3	-0.019194579
117	0xbb06ed79	-0.0020588322
118	0xbca7a0dc	-0.020462446
119	0x3dc0a8ac	0.094071716
120	0x3b4b3c3d	0.0031011247
121	0xbcafe339	-0.021470653
122	0x3d027a93	0.031855177
123	0x3d45e9a1	0.04831851
124	0xbd0d3783	-0.03447677
125	0x39e0592b	0.00042791045
126	0xbd2b4d80	-0.041821957
127	0x3c9b3db5	0.018950323
128	0x3de8d9a7	0.11369639
129	0xbcb2c6fb	-0.021823397
130	0x3be116a2	0.006869153
131	0x3d41ed0b	0.047345202
132	0xbc691f61	-0.014228673
133	0x3d3d0110	0.04614359
134	0x3d21c02b	0.039489906
135	0xbb8bea77	-0.0042698937
136	0x3cab3767	0.020900441
137	0xbc73e958	-0.014887176
138	0xbbfd0b0f	-0.0077222656
139	0xbd1a6e2a	-0.037702717
140	0xbc9f07d7	-0.019412918
141	0xbd78727f	-0.060656067
142	0xbd8bf8ce	-0.06834565
143	0xbc79ed71	-0.015254364
144	0x3d8c8f48	0.06863266
145	0x3ce3342b	0.027734837
146	0xbd1a7d5e	-0.037717216
147	0x3d01bdd2	0.031675167
148	0x3ceac4db	0.028658321
149	0xbcc7a7b7	-0.024371965
150	0xbd3f64ab	-0.046726864
151	0xbcd1e009	-0.025619524
152	0x3cdfcc60	0.027319133
153	0x3db187ec	0.08668503
154	0x3c04514d	0.008076024
155	0xbd34c87c	-0.04413651
156	0x3d87ead8	0.0663659
157	0xbcab9c37	-0.020948512
158	0xbda399ef	-0.07988345
159	0x3d83067d	0.06397722
160	0x3d0bec6a	0.03416101
161	0xbb7e0291	-0.0038758854
162	0x3db19e52	0.08672775
163	0x3d56fc51	0.05248672
164	0x3caccc6e	0.021093573
165	0x3d1fa96f	0.038979944
166	0x3d1360c5	0.03598096
167	0xbd2ea786	-0.04264023
168	0xbd23cc97	-0.039990034
169	0x3c54c920	0.012987405
170	0xbc6f7f23	-0.014617714
171	0x3d61682b	0.055030983
172	0x3c8bfd4d	0.017088557
173	0x3cbcaac1	0.02303064
174	0x3cbe4f1a	0.023231078
175	0xbd662202	-0.056184776
176	0xbd9f7e7e	-0.07787798
177	0xbd557176	-0.052110158
178	0xbce2232d	-0.027604664
179	0xbd418ee2	-0.047255404
180	0x3d873e9d	0.066037394
181	0x3db140f0	0.08654964
182	0x3d071a25	0.032983918
183	0x3d59299b	0.053018194
184	0xbc7a1113	-0.01526286
185	0xbce73517	-0.028223557
186	0x3c329b44	0.010901276
187	0x3cd148ef	0.025547473
188	0xbc9503b2	-0.018190239
189	0xbd964340	-0.07337046
190	0x3c8cc301	0.017182829
191	0x3dbcd9c9	0.09221227
192	0xbcde944b	-0.027170321
193	0x3d0d4ab2	0.034495063
194	0x3d1a52db	0.037676673
195	0x3cafca0c	0.021458648
196	0xbd11f4e7	-0.035633948
197	0xbd2ed4ce	-0.042683415
198	0xbd3e8f25	-0.046523232
199	0x3c74bceb	0.01493762
200	0x3d73be83	0.059507858
201	0xbd12f560	-0.03587854
202	0x3c4e132f	0.012577816
203	0x3cb46dae	0.022024956
204	0x3ca95601	0.020670893
205	0xbd756785	-0.059913177
206	0xbcfe277a	-0.031024683
207	0xbcbf8e81	-0.02338338
208	0x3ba6a975	0.005086119
209	0x3ce86d17	0.02837233
210	0xbcaf3947	-0.021389617
211	0x3be2b786	0.0069188504
212	0x3d4eea30	0.050516307
213	0x3b390ac0	0.0028235167
214	0x3cc96d2d	0.024588192
215	0xbcd5876c	-0.02606555
216	0xbbb61bae	-0.005557499
217	0x3b96bf32	0.004600429
218	0x3baecbfa	0.0053343745
219	0xbcdcd9bf	-0.026959298
220	0xbc2614d2	-0.0101368
221	0xbce23f83	-0.027618175
222	0x3cff8560	0.031191528
223	0x3dc38185	0.09546188
224	0x3ca29ca2	0.019850079
225	0x3c2f45c9	0.01069779
226	0x3b75dba3	0.0037514947
227	0xbd785039	-0.06062338
228	0x3c3497d9	0.011022531
229	0x3dacad18	0.084314525
230	0x3b936636	0.0044982685
231	0xbcd3c5ec	-0.025851212
232	0x3d9d65ba	0.076854184
233	0x3a278f78	0.0006391923
234	0xbd7d8593	-0.061894964
235	0xbd5c61c4	-0.053804174
236	0xbd8c85ff	-0.06861495
237	0xbd287f8f	-0.041137274
238	0x3cffba95	0.031216899
239	0xbd433e86	-0.04766705
240	0xbda20f72	-0.07913102
241	0x3cf595c0	0.029978633
242	0xbc24939a	-0.010044957
243	0xbcaa4b0a	-0.020787735
244	0x3d81409f	0.063111536
245	0x3d4df7d6	0.050285183
246	0xbb4ef371	-0.0031578208
247	0x3d17bfda	0.0370482
248	0x3c966ab3	0.018361425
249	0x3ca0e9a8	0.019642666
250	0xbbdc03f8	-0.0067143403
251	0x3bfa7518	0.007643353
252	0xbd13a2f1	-0.036044065
253	0x3d901a6f	0.07036292
254	0x3d3e73dc	0.04649721
255	0xbbf9eb83	-0.007626952

head.conv.bias f4 [32]
0	0x3e02296a	0.1271111
1	0xbccae12a	-0.02476557
2	0xbe130ce0	-0.1436038
3	0xbddd19c7	-0.10795932
4	0xbe20d5f6	-0.1570662
5	0x3d4c83e7	0.04993048
6	0x3e15cd5f	0.14629124
7	0x3c8dc049	0.017303603
8	0xbda105bb	-0.07862421
9	0xbe119cea	-0.14220014
10	0xbd95f711	-0.07322515
11	0xbdb0f5a9	-0.08640606
12	0xbce37065	-0.027763555
13	0x3c1fa275	0.009743323
14	0xbe0041b0	-0.12525058
15	0xbbd2cabc	-0.006432859
16	0xbb9c3acb	-0.004767751
17	0x3d11fac2	0.035639532
18	0xbd8d62d7	-0.06903618
19	0xbc2adb4f	-0.010428264
20	0xbc10e698	-0.00884404
21	0xbd356d2e	-0.044293575
22	0x3e1351c1	0.14386655
23	0x3e23833c	0.1596803
24	0x3d9ffc6d	0.07811818
25	0xbd9f75f3	-0.07786169
26	0xbe2d4e17	-0.1692432
27	0xbe2b481f	-0.16726731
28	0x3d00e464	0.03146781
29	0x3e3312a5	0.17487581
30	0x3d274c14	0.040844038
31	0xbd7e6ecf	-0.062117394

head.norm.weight f4 [32]
0	0x3f8444a0	1.0333443
1	0x3f828b2f	1.0198725
2	0x3f75e7cb	0.96056813
3	0x3f6e575e	0.9310206
4	0x3f75ff9c	0.96093154
5	0x3f7ee9b4	0.9957535
6	0x3f8158b7	1.0105199
7	0x3f86d37a	1.0533288
8	0x3f834bf7	1.0257558
9	0x3f7b9df1	0.98287874
10	0x3f80764f	1.0036105
11	0x3f841bb8	1.0320959
12	0x3f86c5e4	1.0529141
13	0x3f84fab3	1.0389007
14	0x3f6b6e15	0.91964847
15	0x3f688fc5	0.90844375
16	0x3f78d4ac	0.9719951
17	0x3f76c48f	0.96393675
18	0x3f57ae41	0.84250265
19	0x3f869c20	1.0516396
20	0x3f8613c2	1.047478
21	0x3f85b6f2	1.0446455
22	0x3f749384	0.9553759
23	0x3f74d28f	0.95633787
24	0x3f7b834e	0.9824723
25	0x3f6bfbc0	0.92181015
26	0x3f7074d7	0.93928283
27	0x3f881d08	1.063386
28	0x3f8391e8	1.0278902
29	0x3f719c47	0.94379085
30	0x3f7a5285	0.97782165
31	0x3f7c9967	0.98671573

head.norm.bias f4 [32]
0	0xbdc46ef9	-0.09591479
1	0xbc8fa48d	-0.017534519
2	0xbe74a3cb	-0.23890607
3	0xbe4537d7	-0.19259582
4	0xbd2363c0	-0.03989005
5	0xbdb6c9d7	-0.08925217
6	0xbe621163	-0.22076945
7	0xbe44706c	-0.1918351
8	0xbe49be11	-0.19701411
9	0xbe6cdcd2	-0.23131111
10	0xbde3112f	-0.11087262
11	0xbe1c3dff	-0.15258025
12	0xbe3b8623	-0.18312888
13	0xbdd83c20	-0.10558343
14	0xbe68d09c	-0.22735828
15	0xbe0adaf4	-0.13560086
16	0xbdf84018	-0.121216
17	0xbe29d79a	-0.16586152
18	0xbe1eed6f	-0.15520261
19	0xbdbb440c	-0.09143838
20	0xbe9b5966	-0.30341643
21	0xbdbd2b4d	-0.092367746
22	0x3d250f95	0.040298063
23	0xbe34c04b	-0.17651479
24	0xbe5bb0d8	-0.2145418
25	0xbd49fa05	-0.049310703
26	0xbe0c93ad	-0.13728209
27	0x3dafb330	0.08579099
28	0xbe01bb4b	-0.12669103
29	0xbdd22f5d	-0.1026294
30	0xbe2c002e	-0.16796944
31	0xbdefa5fc	-0.11701581

head.norm.running_mean f4 [32]
0	0x3e66bc5e	0.22532794
1	0xbc334393	-0.010941404
2	0x3d442f15	0.047896463
3	0xbe061904	-0.1309548
4	0xbe7d080d	-0.24710102
5	0xbdb0247d	-0.086007096
6	0x3e0eceae	0.1394603
7	0x3c0ee3b0	0.008721277
8	0x3d9a3f63	0.07531621
9	0x3d06ad3c	0.032880053
10	0x3d9eef03	0.077604316
11	0xbd91ad95	-0.07113186
12	0xbce27bc6	-0.02764691
13	0x3db6cb93	0.089255475
14	0xbe37dc9c	-0.1795525
15	0xbe1a0b23	-0.15043311
16	0x3d74f816	0.059806906
17	0x3e825ccf	0.25461432
18	0xbe7f14dd	-0.24910302
19	0xbcdfccff	-0.02731943
20	0x3e14fbf5	0.14549239
21	0xbd4807bc	-0.0488355
22	0xbd14fa27	-0.036371376
23	0x3ebe328e	0.37147945
24	0x3d8647fe	0.065567
25	0xbd5998c4	-0.053124204
26	0xbe547ec3	-0.20751481
27	0xbea997c1	-0.33123592
28	0x3ea69549	0.3253577
29	0x3eafd906	0.34345263
30	0x3d89be68	0.0672577
31	0x3e8f6274	0.280048

head.norm.running_var f4 [32]
0	0x3be3b942	0.0069495747
1	0x3b857784	0.0040730853
2	0x3c7ce5ce	0.015435649
3	0x3b4f48bf	0.0031629053
4	0x3b63e67e	0.0034774835
5	0x3c0accfa	0.008471722
6	0x3bce1bdc	0.006289942
7	0x3aecd378	0.0018068394
8	0x3bd3a02d	0.0064583034
9	0x3c2c4da3	0.010516557
10	0x3bf70aeb	0.0075391433
11	0x3c7584df	0.014985292
12	0x3b875377	0.004129823
13	0x3bfd8b38	0.0077375434
14	0x3b016e0b	0.0019749429
15	0x3ca89897	0.020580573
16	0x3b0c1973	0.0021377474
17	0x3cc4ae5f	0.024008928
18	0x3c996002	0.018722538
19	0x3ba65389	0.005075876
20	0x3c2d0b22	0.010561736
21	0x3ac9e4a9	0.0015403229
22	0x3c256032	0.0100937355
23	0x3d7226b7	0.059118953
24	0x3b76ee41	0.0037678631
25	0x3c2d7f54	0.010589439
26	0x3b372de3	0.0027950935
27	0x3c1a6734	0.00942402
28	0x3d839741	0.06425334
29	0x3c1ba7ed	0.009500486
30	0x3cb96da7	0.022635294
31	0x3dba577b	0.09098717

body.block1.conv.weight f4 [32, 32, 3, 3]
0	0x3b23ace6	0.0024974882
1	0xbce4f00c	-0.027946495
2	0x3c93f348	0.018060341
3	0x3d82e5e8	0.063915074
4	0xbbb220d6	-0.0054360433
5	0xbcf6a4c1	-0.030107858
6	0x3d099a8f	0.033594664
7	0xbc9bf8be	-0.019039508
8	0xbd12e844	-0.035866037
9	0xbd1b5bcf	-0.037929352
10	0xbd691b14	-0.05691059
11	0xbd69cf5c	-0.05708252
12	0xbcf83a54	-0.03030125
13	0xbd7939cb	-0.06084613
14	0xbcf2c909	-0.029636877
15	0xbc5d7344	-0.013516251
16	0xbd63b8d1	-0.055596177
17	0xbd0e7183	-0.034776222
18	0xbc791bd6	-0.0152043905
19	0xbd2779d7	-0.04088768
20	0x3caf6adc	0.02141326
21	0xbce8f672	-0.028437827
22	0xbc894711	-0.01675752
23	0xbbe2f6cf	-0.0069263945
24	0x3d606f6d	0.054793764
25	0xbbad4af5	-0.0052884766
26	0x3ca639b8	0.020291194
27	0xbb57cc89	-0.003292831
28	0xbb7b3969	-0.003833378
29	0xbcfc445e	-0.030794319
30	0x39dcca60	0.0004211245
31	0xbc39e824	-0.011346851
32	0xbd251efb	-0.04031275
33	0xbca1d967	-0.019756986
34	0xbd63ce23	-0.05561651
35	0xbd25d32c	-0.040484592
36	0x3dfc2ff0	0.12313831
37	0x3cafa53c	0.021441095
38	0xbb9de210	-0.0048182085
39	0x3bbd0173	0.005767995
40	0x3cbc3fca	0.022979636
41	0xbbf3c708	-0.007439498
42	0x3c7d12a6	0.015446341
43	0x3c170f96	0.009220025
44	0x3ddc551c	0.10758421
45	0xbcc39f49	-0.023879664
46	0xbd38215f	-0.0449537
47	0x3d3ca857	0.04605898
48	0xbca1c9b1	-0.019749494
49	0x3c5a8ea6	0.013339674
50	0x3cfdc2e0	0.030976713
51	0xbc91972c	-0.01777228
52	0xbcbdb7ed	-0.023158992
53	0x3d044ddf	0.032300826
54	0x3b8e426a	0.0043414133
55	0xbcd1bce1	-0.02560276
56	0xbceae9ba	-0.028675903
57	0xbca6c65e	-0.02035826
58	0xbd8b0531	-0.067880996
59	0xbda465b6	-0.08027212
60	0x3c16cafd	0.00920367
61	0xbd2de07a	-0.042450406
62	0xbccd1aad	-0.025037134
63	0xbbb9ad0c	-0.0056663807
64	0xb96bd291	-0.00022489789
65	0xbdbaf195	-0.09128109
66	0xbd1d52da	-0.03840909
67	0xbd029e50	-0.03188926
68	0xbd8eeab2	-0.06978358
69	0x3b812fce	0.0039424663
70	0xbdc4d228	-0.096103966
71	0xbbc610fa	-0.006044504
72	0xbd0bd303	-0.034136783
73	0xbc077764	-0.008268211
74	0xbc01a191	-0.007912056
75	0x3bbde356	0.005794923
76	0xbcb0b611	-0.021571191
77	0xbd1337d7	-0.035941925
78	0x3c3be4e2	0.011468144
79	0xbd0ed7f9	-0.034873936
80	0xbd3132fd	-0.043261517
81	0xbce4233c	-0.027848832
82	0x3d259c62	0.04043234
83	0x3c7a9bbb	0.015295918
84	0xbd236584	-0.039891735
85	0x3d51c6bb	0.051214915
86	0xba19f94c	-0.0005873635
87	0xbd0fd175	-0.035111863
88	0xbd904c0b	-0.07045754
89	0x3c022c22	0.007945092
90	0xbc6a760a	-0.014310369
91	0xbce13f56	-0.027496021
92	0x3c3b09e1	0.0114159295
93	0x3c10d5b2	0.008840011
94	0x3cf85ff5	0.030319193
95	0x3d3208ba	0.043465354
96	0x3ce8aeaf	0.028403608
97	0x3cd42036	0.025894266
98	0xbd2b0fb5	-0.041763026
99	0x3a75a0ce	0.000936997
100	0xbb1b28b8	-0.0023675393
101	0x3d7c44e4	0.061589137
102	0xbd829eaf	-0.06377923
103	0xbc0a29fd	-0.008432862
104	0x3c30e630	0.0107970685
105	0xbd182ed9	-0.037154052
106	0xbd717dac	-0.05895774
107	0xbb5d29a6	-0.0033746748
108	0xbd81aca5	-0.063317575
109	0xbc6f3e6d	-0.014602286
110	0xbb321991	-0.0027175883
111	0x3ca4255a	0.020037342
112	0xbd2a3629	-0.041555557
113	0x3d66887e	0.056282513
114	0xbcd3a209	-0.0258341
115	0xbd2e2f6e	-0.0425257
116	0xbd17b797	-0.03704032
117	0xbcd334b5	-0.025781969
118	0xbb9b1376	-0.0047325445
119	0xbbc77fc7	-0.0060882303
120	0xbcdb0366	-0.026735019
121	0xbd746514	-0.059666708
122	0xbcdc86b4	-0.0269197
123	0x3d356ff6	0.044296227
124	0xbd6c1cd0	-0.057644665
125	0xbd88e945	-0.06685118
126	0x3dc81909	0.097704
127	0x3cb7d533	0.022440528
128	0xbca39553	-0.019968664
129	0x3d472a63	0.048624408
130	0xbd0a9320	-0.033831716
131	0xbd95387b	-0.072861634
132	0x3d571c87	0.05251744
133	0xbc9a423e	-0.018830415
134	0xbc54f0ef	-0.012996896
135	0xbd3e6369	-0.046481524
136	0xbc2aa5a6	-0.01041547
137	0xbc9d1f74	-0.019180037
138	0xbd2180cc	-0.03942947
139	0x3c97e61d	0.018542344
140	0x3c897efa	0.01678418
141	0xbd908f53	-0.07058587
142	0x3cd0355d	0.02541607
143	0x3d4bb123	0.049729478
144	0xbce451f5	-0.027871111
145	0xbd3a969a	-0.04555378
146	0x3c07d6c0	0.0082909465
147	0xbd76db60	-0.060267806
148	0xbcba8606	-0.022768985
149	0x3cafd0c2	0.021461848
150	0x3a80f6c0	0.0009839162
151	0xbc84e781	-0.01622367
152	0x3d1f3f85	0.038878936
153	0xbae3b2d7	-0.0017372024
154	0x3ca1abdb	0.019735267
155	0xbc249c18	-0.010046981
156	0xbcc7e806	-0.02440263
157	0xbd061685	-0.03273632
158	0xbce14bc8	-0.027501956
159	0xbbaefe52	-0.005340376
160	0xbd3d7a82	-0.04625941
161	0xbd8da1ba	-0.069156125
162	0xbd0144e7	-0.03155985
163	0x3c435a21	0.011923344
164	0xbcec1a3d	-0.028821105
165	0x3c98d1c2	0.018654708
166	0x3cea670e	0.028613593
167	0xbcde8e04	-0.027167328
168	0xbd1eeeee	-0.03880208
169	0x395a4bdd	0.00020818361
170	0x3bac2edb	0.005254609
171	0xbd0fd61c	-0.0351163
172	0xbcd83236	-0.02639113
173	0xbce38a72	-0.027775977
174	0xbd2e4032	-0.04254169
175	0xbdc009f0	-0.093768954
176	0xbd33c2c3	-0.04388691
177	0x3d26ae20	0.040693402
178	0xbd12ec90	-0.035870135
179	0xbcf77a12	-0.030209575
180	0x3d0e1912	0.034691878
181	0xbd1637d3	-0.036674332
182	0x3b83ba46	0.0040200083
183	0x3c8c86d1	0.01715413
184	0xbc49e608	-0.01232291
185	0xbc4ad468	-0.012379743
186	0x3c4f4bc5	0.012652342
187	0x3d4ddc7f	0.05025911
188	0x39cbce63	0.00038872947
189	0x3ce7fec7	0.02831973
190	0xbc2de19d	-0.010612872
191	0x3a9d02c1	0.001197897
192	0x3d5d7aaa	0.05407206
193	0xbd454be3	-0.048168074
194	0xbda5da2d	-0.08098254
195	0x3c4d5fe1	0.012535066
196	0xbd818e65	-0.06325988
197	0xbd059a66	-0.03261795
198	0x3c0ff7b7	0.008787087
199	0x3d3d1234	0.046159938
200	0x3cb9f2d1	0.022698792
201	0x3d423d89	0.047421966
202	0x3d4097a4	0.047019616
203	0x3b355e98	0.002767479
204	0x3d25cc08	0.040477782
205	0x3d9a1004	0.07522586
206	0x3c5fb79b	0.013654615
207	0xbc8d67b5	-0.017261365
208	0x39139f85	0.00014078438
209	0x3cb80eff	0.022468088
210	0xbc8b5c63	-0.017011827
211	0x3cbbb963	0.022915548
212	0x3d8f5825	0.06999234
213	0xbcaa92e8	-0.020822003
214	0x3b2fa1be	0.0026799287
215	0x3bee1c8f	0.007266588
216	0x3cb17849	0.021663802
217	0xbd72f2b9	-0.05931351
218	0x3ba55bde	0.005046352
219	0x3bedb235	0.00725391
220	0xbd420cff	-0.047375675
221	0xbccda10f	-0.025101213
222	0x3ccd1cf1	0.025038214
223	0x3c922b5f	0.017842947
224	0xbd84eeae	-0.06490837
225	0xbd329656	-0.043600403
226	0xbd25045f	-0.04028737
227	0x3c9f734f	0.019464163
228	0xbcd74b61	-0.02628106
229	0xbd4a30a2	-0.049362786
230	0xbcac8396	-0.021058839
231	0xbd7a9ee9	-0.061186705
232	0xbd2d8e2b	-0.04237191
233	0xbadaf418	-0.0016704826
234	0xbc1fcea8	-0.0097538605
235	0x3d618d93	0.055066656
236	0x3d68d02a	0.056839146
237	0xbc6c46c5	-0.01442117
238	0x3c986690	0.018603593
239	0x3bf38363	0.007431434
240	0xbc8c0157	-0.017090483
241	0x3b3e8ffc	0.002907752
242	0x3d171aad	0.036890674
243	0x3d1130a0	0.035446763
244	0x3d57dded	0.05270188
245	0x3c679a35	0.014135887
246	0x3d7859db	0.060632568
247	0x3a68021b	0.00088504114
248	0x3ae2b525	0.0017296417
249	0x3d0f41e2	0.03497494
250	0x3d14e0b4	0.036347106
251	0x3c847d2f	0.016172973
252	0xbcab8a33	-0.020939922
253	0x3d319fb7	0.043365207
254	0x3cdd32bb	0.02700173
255	0xbc9242cb	-0.017854115

body.block1.conv.bias f4 [32]
0	0xbd3b722e	-0.045763187
1	0xbcd59bbb	-0.026075235
2	0xbcd804ad	-0.026369417
3	0x3d71a3a6	0.058993958
4	0xbcad2f92	-0.021140847
5	0xbcfbae09	-0.030722635
6	0xbc0a8cd0	-0.008456424
7	0x3d5d1a34	0.053980067
8	0xbd174798	-0.03693351
9	0x3d5e3530	0.054249942
10	0x3d1db497	0.038502302
11	0x3d475424	0.048664227
12	0xbc65e279	-0.014031046
13	0xbd241a50	-0.040064156
14	0x3c065a95	0.008200307
15	0x3d2aedb3	0.041730594
16	0xbd69217c	-0.0569167
17	0xbcc48b41	-0.023992183
18	0xbc5e847f	-0.013581394
19	0xbd2e1b11	-0.04250628
20	0xbc90ee3f	-0.01769173
21	0xbd43e318	-0.047823995
22	0x3ced1de6	0.02894492
23	0xbcb0ee75	-0.02159808
24	0xbd21dba5	-0.03951611
25	0xbd0bf9dc	-0.03417383
26	0xbc8a24bc	-0.01686322
27	0x3d7973e3	0.060901534
28	0xbcb99f76	-0.022659045
29	0x3d486a1b	0.048929315
30	0x3cdca7b6	0.02693544
31	0xbd1b0eec	-0.037856027

body.block1.norm.weight f4 [32]
0	0x3f866213	1.049868
1	0x3f7c61ab	0.9858653
2	0x3f7b773e	0.98228824
3	0x3f810eb5	1.0082613
4	0x3f78d2a6	0.97196424
5	0x3f81c6ae	1.0138757
6	0x3f87812d	1.0586296
7	0x3f94a4c2	1.161278
8	0x3f845208	1.0337534
9	0x3f87b55c	1.0602221
10	0x3f71b94b	0.9442336
11	0x3f7f4b23	0.99724025
12	0x3f7b2d93	0.98116416
13	0x3f7d8388	0.99028826
14	0x3f748934	0.95521855
15	0x3f694c8f	0.91132444
16	0x3f824e26	1.0180099
17	0x3f785cbc	0.970165
18	0x3f759c30	0.9594145
19	0x3f8af16b	1.0854925
20	0x3f7f935c	0.9983423
21	0x3f74d78f	0.95641416
22	0x3f703357	0.9382834
23	0x3f8158e6	1.0105255
24	0x3f7e6ac2	0.9938165
25	0x3f85210e	1.0400712
26	0x3f82f058	1.0229597
27	0x3f84efca	1.0385678
28	0x3f781ab9	0.96915776
29	0x3f837647	1.027047
30	0x3f76a3fb	0.96343964
31	0x3f829497	1.0201596

body.block1.norm.bias f4 [32]
0	0xbdad0ae9	-0.084493466
1	0xbdd066a8	-0.1017583
2	0xbcc25e6f	-0.02372667
3	0x3c99edac	0.018790089
4	0xbdc63a48	-0.09679085
5	0xbe882685	-0.26591888
6	0xbd952fa7	-0.072844796
7	0xbdb959cb	-0.0905033
8	0xbd2ae586	-0.041722797
9	0xbd9afb39	-0.07567448
10	0xbd385e37	-0.045011725
11	0xbdadb483	-0.084816955
12	0xbdbe5f0d	-0.09295473
13	0xbbac37e2	-0.005255685
14	0xbd5cd1bd	-0.05391096
15	0xbda1e5c4	-0.079051524
16	0xbde874cc	-0.11350402
17	0xbd1cfd42	-0.038327463
18	0xbdc51f41	-0.09625102
19	0xbd35c4c5	-0.044377107
20	0xbda3c631	-0.079967864
21	0xbe810972	-0.2520252
22	0xbdfb6c00	-0.12276459
23	0xbd1b3bbc	-0.037898764
24	0xbe5da697	-0.2164558
25	0xbd9a8bc8	-0.075461924
26	0xbdeec626	-0.116588876
27	0xbe03d15a	-0.1287283
28	0xbe3bc7cc	-0.18337935
29	0xbd4cc2fe	-0.049990647
30	0xbd9e0373	-0.07715502
31	0xbe341db6	-0.17589459

body.block1.norm.running_mean f4 [32]
0	0xbf076211	-0.5288401
1	0x3cfcfac3	0.030881291
2	0xbf81fd1c	-1.0155368
3	0x3e6baf36	0.23016056
4	0xbec3decf	-0.38255927
5	0xbf36df8f	-0.71434873
6	0x3f53aef9	0.8268886
7	0x3f65f0e3	0.8982069
8	0x3c896ef0	0.016776532
9	0xbd64daa8	-0.05587259
10	0xbcf9c1aa	-0.030487854
11	0xbe0ee5ab	-0.13954799
12	0xbe01c5b0	-0.12673068
13	0x3edf8794	0.43658125
14	0xbe46665f	-0.19374989
15	0xbf0dc7e2	-0.5538312
16	0xbe8fecdd	-0.281104
17	0xbfac8018	-1.3476591
18	0xbe1a556b	-0.15071647
19	0x3c3d62fc	0.011559244
20	0x3ee2ffa5	0.44335666
21	0x3eabc60d	0.33549538
22	0x3e789ac9	0.24277796
23	0x3ea8a938	0.32941604
24	0xbf19755f	-0.5994472
25	0x3f9f7dc9	1.2460262
26	0xbe126101	-0.14294817
27	0x3f2f9be0	0.6859722
28	0xbe4866fd	-0.19570537
29	0x3f90937f	1.1295012
30	0x3f8a499b	1.0803713
31	0xbf25420b	-0.645539

body.block1.norm.running_var f4 [32]
0	0x3f16f65d	0.5896967
1	0x3f69ad99	0.91280514
2	0x3f1e9094	0.6193936
3	0x3f08ab6b	0.53386563
4	0x3fbe4589	1.486497
5	0x3e4d5725	0.20052774
6	0x3f8527df	1.0402793
7	0x3e61e0bf	0.2205839
8	0x3f31a05c	0.69385314
9	0x3f163b71	0.5868445
10	0x3ee397c0	0.44451714
11	0x3ed70257	0.41993973
12	0x3f58e59c	0.84725356
13	0x40116137	2.2715585
14	0x3f7ef505	0.9959262
15	0x3f01b8f3	0.50672835
16	0x3f1dbb22	0.61613667
17	0x3fa8a1ef	1.3174418
18	0x3ed98412	0.42483574
19	0x3f98830a	1.191499
20	0x3f80a7f1	1.0051252
21	0x3eb7032d	0.3574461
22	0x3ebb8683	0.36626062
23	0x3ee33b6a	0.44381267
24	0x3e8ad466	0.27115172
25	0x3f2711c0	0.6526146
26	0x3ecc8129	0.3994229
27	0x3eeb85b4	0.46000445
28	0x3ea0168a	0.31267196
29	0x3fa701f1	1.3047467
30	0x3ebf9b81	0.37423328
31	0x3e960cd0	0.2930665

body.block2.conv.weight f4 [32, 32, 3, 3]
0	0xbccaf979	-0.024777161
1	0x3cbe1fd9	0.023208546
2	0x3cd2fa98	0.025754258
3	0x3cfb93b2	0.030710075
4	0xbd09ee74	-0.033674672
5	0x3c71d877	0.014761082
6	0x3cfd1699	0.030894564
7	0x3cf4b6b9	0.029872285
8	0x3c1d07b7	0.009584359
9	0xbc9ac975	-0.01889489
10	0xbbb396bd	-0.005480616
11	0xbc23971e	-0.00998476
12	0xbbe27f6d	-0.006912163
13	0x3c707874	0.014677156
14	0x3d851e04	0.06499866
15	0xbc4962e9	-0.012291648
16	0xbccefbcf	-0.025266556
17	0xbce65b5e	-0.02811974
18	0xbc9f04bb	-0.019411435
19	0xbba77267	-0.0051100734
20	0xbc320032	-0.010864304
21	0x3d4ad411	0.04951865
22	0xbcab28f9	-0.02089356
23	0xbd986938	-0.07441944
24	0x3da5b1eb	0.08090576
25	0xbc99bc6b	-0.018766603
26	0xbc1be7cd	-0.009515715
27	0xbcb9d9b3	-0.022686815
28	0xbd85286c	-0.065018505
29	0xbbaaf2da	-0.0052169384
30	0xbd13d999	-0.03609619
31	0x3d6d3bab	0.057918232
32	0x3d6f6ac8	0.058451444
33	0x3d0c8a79	0.034311745
34	0xbcda81e9	-0.026673274
35	0xbd01686d	-0.03159373
36	0x3d279a5a	0.040918685
37	0x3d4d0906	0.050057434
38	0x3c99fa37	0.01879607
39	0xbd3723c1	-0.044711832
40	0xbd1752af	-0.036944088
41	0x3dbe9d9f	0.093074076
42	0x3c946fb0	0.018119663
43	0xba44deab	-0.0007509987
44	0xbc9320ce	-0.017959978
45	0x3d2ff2e0	0.042956233
46	0x3c143755	0.009046395
47	0xbbd7c1de	-0.00658439
48	0xbc003ec7	-0.007827467
49	0x3c4e422f	0.012589022
50	0xbbe4d4c4	-0.0069833715
51	0xbc0f489b	-0.008745338
52	0xbcee787a	-0.029110182
53	0x3b30a13e	0.0026951577
54	0xbd83cb05	-0.06435207
55	0xbd59eefb	-0.053206425
56	0xbd2042f0	-0.039126337
57	0xbe074427	-0.13209592
58	0xbdcba0c0	-0.0994277
59	0xbcb1f5bb	-0.021723619
60	0xbc6ef879	-0.014585608
61	0x3b2010e0	0.002442412
62	0xbca35879	-0.019939648
63	0xbdfd4b17	-0.12367838
64	0x3b5a9f38	0.0033359062
65	0x3d903675	0.07041637
66	0xbdead9b6	-0.11467306
67	0x3a6aa53b	0.0008951013
68	0x3d48d292	0.04902894
69	0x37ad00a3	2.0623504e-05
70	0xbbd812ff	-0.0065940614
71	0x3baf9696	0.0053585274
72	0x3d17af3c	0.03703235
73	0x3d350a8e	0.04419952
74	0x3caa212e	0.020767774
75	0xbcd9953e	-0.026560422
76	0xbcb3cc3f	-0.021947978
77	0x3d7715a0	0.060323358
78	0xbda8eba1	-0.08248068
79	0xbd2b9316	-0.04188832
80	0xbd41e186	-0.047334217
81	0x3cfb87e9	0.030704455
82	0x3d4b146b	0.04958002
83	0x3d560e9b	0.052260023
84	0x3c6cbd86	0.014449483
85	0xbc520d26	-0.012820518
86	0x3bdb2e42	0.006688864
87	0xbbcd68a7	-0.006268579
88	0xbd1d825c	-0.0384544
89	0x3b9abf0c	0.0047224816
90	0x3d527625	0.051382203
91	0x3c7a20e5	0.015266632
92	0xbc06a48b	-0.008217941
93	0x3d1bdeab	0.03805415
94	0x3ba33943	0.0049811914
95	0x3c114e62	0.008868786
96	0xbd5fa12b	-0.05459706
97	0xbd6b6fb2	-0.057479568
98	0xbd0bd292	-0.034136362
99	0x3cfb3216	0.030663531
100	0xba23d5be	-0.00062498066
101	0xbce43fae	-0.027862396
102	0x3ccad3ee	0.02475926
103	0x3cc4fafa	0.024045456
104	0xbca59378	-0.02021192
105	0x3b8a2a2d	0.0042164535
106	0x3bb0df75	0.005397732
107	0xbc6ee205	-0.014580254
108	0x3ca27b36	0.019834142
109	0x3c561065	0.013065432
110	0xbc0141d7	-0.007889233
111	0xbb91a364	-0.0044445265
112	0xbc928759	-0.017886804
113	0xbc38fce6	-0.011290764
114	0xbcd1fd5c	-0.025633506
115	0xbc446318	-0.011986516
116	0xbba18dde	-0.004930242
117	0xbd3afac8	-0.04564932
118	0xbd3139eb	-0.043268126
119	0xbd62ae5f	-0.055342074
120	0xbc9fe873	-0.01952002
121	0xbc833aa4	-0.016019173
122	0xbd82db3b	-0.06389471
123	0xbd4fbc83	-0.05071689
124	0xbdb40d33	-0.0879158
125	0xbdcdb611	-0.10044492
126	0x3bab6147	0.005230102
127	0x3cac1ecf	0.021010784
128	0xbc08ce36	-0.008349946
129	0x3cbf53f5	0.023355464
130	0xbcbe8565	-0.023256967
131	0xbcb5227c	-0.02211117
132	0x3c312551	0.01081212
133	0xbca450b3	-0.020058012
134	0xbd9f7a56	-0.077870056
135	0xbd22f8f6	-0.03978821
136	0xbce09f87	-0.027419819
137	0xbd6c2125	-0.057648797
138	0x3d37e27e	0.044893734
139	0x3be6b38f	0.007040448
140	0xbade3565	-0.0016953169
141	0xbd0c2cfb	-0.034222584
142	0xbc4c6d68	-0.012477256
143	0xbc016bf5	-0.007899274
144	0xbd9ff8f6	-0.078111574
145	0xbd0c78df	-0.03429496
146	0xbbe0bc37	-0.0068583745
147	0xbd3e369d	-0.046438802
148	0xbcbb14df	-0.0228371
149	0xbc100e0f	-0.008792414
150	0x3d82b3b6	0.063819334
151	0x3d9baebc	0.07601687
152	0x3d856c7a	0.06514831
153	0x3c798567	0.0152295595
154	0xbc54a3b6	-0.012978485
155	0xbd293052	-0.041305847
156	0x3c130f56	0.008975824
157	0x3bb09d05	0.005389812
158	0xbd05add5	-0.032636482
159	0xbb829c1c	-0.003985895
160	0xbc046182	-0.008079888
161	0xbd0f1820	-0.034935117
162	0x3c57d373	0.013172972
163	0x3d987b3f	0.07445382
164	0xbd5da1b6	-0.054109298
165	0xbccfc402	-0.025362018
166	0xbc78819d	-0.015167621
167	0xbd25f7ff	-0.04051971
168	0x3d748a12	0.059701987
169	0x3c55ce6f	0.013049706
170	0xbc21bc18	-0.009871505
171	0xbdd8d52e	-0.10587536
172	0xbd259a43	-0.04043032
173	0x3d49bb7d	0.04925107
174	0xbd6cfb51	-0.05785686
175	0x3c1b0bcd	0.009463263
176	0xbbb1cdc3	-0.00542614
177	0x3cf3b616	0.029749911
178	0x3c786d22	0.015162738
179	0x3d7cfbfa	0.06176374
180	0xbd5a63b8	-0.053317755
181	0xbdc1b95d	-0.09459183
182	0xbd187fb0	-0.037231147
183	0xbd794545	-0.060857076
184	0xbca66c52	-0.020315323
185	0xbcad4c89	-0.021154659
186	0x3c963aa6	0.018338513
187	0x3ce413b8	0.027841434
188	0x3cd4e03d	0.025985831
189	0xbc029177	-0.007969252
190	0x3c07f8a4	0.008299027
191	0x3a77b2b3	0.00094489305
192	0xbdd4aa64	-0.10384062
193	0xbd88fc22	-0.066887155
194	0xbc719feb	-0.0147476
195	0x3d06ca33	0.032907676
196	0x3c54694e	0.01296456
197	0x3c95dea7	0.018294645
198	0x39a7ab9f	0.0003198059
199	0xbc766cd8	-0.015040599
200	0xbc93e4a6	-0.018053364
201	0x3c2c5c69	0.010520079
202	0xbc0b333d	-0.008496103
203	0x3b7cd60f	0.0038579737
204	0xbd6bcb15	-0.05756672
205	0xbce4fd25	-0.02795274
206	0xbcd361b6	-0.025803428
207	0x3d181067	0.037125017
208	0xbbdd364f	-0.006750859
209	0xbd8e97d5	-0.069625534
210	0xbd2b3632	-0.04179973
211	0xbcc79a66	-0.024365615
212	0x3bbec98e	0.005822367
213	0x3d089a04	0.033350006
214	0x3c9b551a	0.018961478
215	0x3b399b78	0.0028321426
216	0x3d296146	0.041352533
217	0xbd662683	-0.05618907
218	0xbd99ff31	-0.07519377
219	0x3b421056	0.0029611788
220	0xbbf8c811	-0.007592209
221	0xbc7b3e2f	-0.01533465
222	0xbda26794	-0.07929912
223	0xbd56e049	-0.05245999
224	0x3cfbcdcc	0.03073778
225	0xbddaddff	-0.10686874
226	0xbdd8a451	-0.10578216
227	0xbceccf52	-0.028907452
228	0xbc63c5cd	-0.01390214
229	0xbd96c0cb	-0.07360991
230	0xbb4c05c2	-0.0031131362
231	0xbc842d7a	-0.016134966
232	0x3d0449bc	0.03229688
233	0x3d19a748	0.037513047
234	0x3ce39c49	0.027784484
235	0xbd015923	-0.031579148
236	0x3d567c19	0.052364442
237	0x3ce190bd	0.027534837
238	0xbba703fc	-0.0050969105
239	0x3d36bc99	0.044613454
240	0x3d1b978c	0.037986323
241	0x3cb21d34	0.02174244
242	0xbd28e8b9	-0.041237567
243	0xbd9cb34d	-0.076513864
244	0x3be5cc91	0.0070129116
245	0x3ca4a87a	0.020099867
246	0xbd9df206	-0.07712178
247	0x3b55c6e7	0.0032619776
248	0x3d370ecc	0.044691846
249	0xbd501356	-0.05079969
250	0xbd3c3360	-0.045947433
251	0xbd067724	-0.032828465
252	0xbd4d0a83	-0.050058853
253	0x3d16fb19	0.03686056
254	0x3d0b3313	0.033984255
255	0xbd25047d	-0.040287483

body.block2.conv.bias f4 [32]
0	0xbd6995fd	-0.057027806
1	0xbd26b70f	-0.040701922
2	0x3d2eafac	0.042648003
3	0xbd786000	-0.060638428
4	0xbcd04efd	-0.02542829
5	0xbd51782b	-0.05113999
6	0x3ce1b657	0.027552767
7	0x3d488dbe	0.0489633
8	0x3d7e6da6	0.062116288
9	0x3cf1327e	0.029443022
10	0x3d3d6ce7	0.046246435
11	0xbd5b24c5	-0.053501863
12	0xbd051277	-0.032488313
13	0xbcbbab78	-0.022908911
14	0x3d4edcf5	0.05050369
15	0x3d41790a	0.047234572
16	0x3d0e0bfd	0.0346794
17	0x39b74bec	0.00034961046
18	0x3c8527aa	0.016254265
19	0xbc831ef7	-0.016005976
20	0xbc7cc2c7	-0.015427298
21	0x3d70cfc2	0.058791883
22	0xbcde13e9	-0.027109103
23	0xbb70bdb0	-0.0036734156
24	0xb9cc8c18	-0.0003901429
25	0x3c2ce740	0.010553181
26	0xbcbb4731	-0.022861095
27	0x3d814d6a	0.06313594
28	0xbd145565	-0.03621425
29	0xbb43bd9a	-0.002986765
30	0x3d4fb74e	0.050711922
31	0x3c8c827e	0.017152067

body.block2.norm.weight f4 [32]
0	0x3f7a8971	0.9786597
1	0x3f708a2b	0.9396083
2	0x3f7b3c15	0.9813855
3	0x3f778bfb	0.9669797
4	0x3f747d61	0.95503813
5	0x3f6f0c97	0.93378586
6	0x3f75dadc	0.9603708
7	0x3f852f46	1.0405052
8	0x3f7b3158	0.9812217
9	0x3f82307c	1.0171046
10	0x3f7c11fa	0.9846493
11	0x3f6c643b	0.9234044
12	0x3f7a45c0	0.9776268
13	0x3f77d805	0.96813995
14	0x3f6bc45a	0.92096484
15	0x3f738d62	0.9513761
16	0x3f7e6077	0.99365944
17	0x3f7d358d	0.98909837
18	0x3f799395	0.9749082
19	0x3f71a7d9	0.9439674
20	0x3f7d76ad	0.9900921
21	0x3f841ae7	1.032071
22	0x3f867d18	1.0506926
23	0x3f794bb9	0.9738117
24	0x3f8619b8	1.0476599
25	0x3f804ddb	1.002376
26	0x3f7d418d	0.9892815
27	0x3f794896	0.9737638
28	0x3f79c608	0.97567797
29	0x3f809603	1.004578
30	0x3f7d7c67	0.9901795
31	0x3f71c983	0.9444811

body.block2.norm.bias f4 [32]
0	0xbe6f3b41	-0.23362447
1	0xbda52015	-0.0806276
2	0xbcdabc84	-0.02670122
3	0xbd21845a	-0.03943286
4	0xbd9027e4	-0.070388585
5	0xbd4e0285	-0.05029537
6	0xbde6984b	-0.11259516
7	0xbd7b3a78	-0.061335057
8	0xbd692114	-0.05691631
9	0xbcf2f154	-0.02965609
10	0x3c218f41	0.009860815
11	0xbdb4a483	-0.088204406
12	0xbd00e8b6	-0.03147193
13	0xbe00a28a	-0.12562004
14	0xbdbdfb9f	-0.092765085
15	0xbb8fefb7	-0.00439259
16	0xbc650232	-0.013977574
17	0xbceae359	-0.028672861
18	0xbccd6366	-0.02507181
19	0xbd265fad	-0.040618587
20	0xbd8f230e	-0.06989108
21	0xbde13091	-0.109955914
22	0xbdc441f3	-0.09582891
23	0xbd967545	-0.07346586
24	0xbe93d037	-0.28869793
25	0xbcf5c743	-0.030002242
26	0xbe091554	-0.13387042
27	0xbdc87bd6	-0.09789245
28	0xbdc5133a	-0.09622808
29	0xbd8f78ad	-0.07005439
30	0xbdc07162	-0.09396626
31	0xbdfa8cec	-0.1223391

body.block2.norm.running_mean f4 [32]
0	0xbf5a50e0	-0.85279655
1	0x3e5edf97	0.2176498
2	0x3f417388	0.7556691
3	0x3e8bb3f6	0.27285737
4	0x3d3e3a8e	0.04644256
5	0xbfa4e0e7	-1.2881135
6	0x3e8ce290	0.27516603
7	0xbee9ea3b	-0.45686516
8	0xbef2b52f	-0.47403857
9	0xbf80465a	-1.002147
10	0xbf90f0ca	-1.1323483
11	0x3e8f896c	0.28034532
12	0x3f0a06b8	0.539165
13	0x3f362a99	0.7115875
14	0x3f083965	0.5321258
15	0x3e2f544d	0.17122002
16	0xbeb1bebe	-0.34715837
17	0xbefce5cb	-0.49394068
18	0xbea31dc8	-0.3185866
19	0xbf596b34	-0.84929204
20	0xbf1d5eea	-0.6147295
21	0x3e7e51a8	0.24835837
22	0x3eb1ab0b	0.34700808
23	0xbf3d26b0	-0.7388716
24	0xbf4110dc	-0.7541635
25	0xbf1af880	-0.6053543
26	0xbf09bd6a	-0.5380465
27	0x3f08564e	0.5325669
28	0xbe56ac2e	-0.20964119
29	0xbf2549ef	-0.6456594
30	0xbe99086e	-0.29889244
31	0xbe57bc44	-0.21067911

body.block2.norm.running_var f4 [32]
0	0x3e4a93f0	0.19782996
1	0x3f508368	0.8145051
2	0x3f68278f	0.9068536
3	0x3f5017e8	0.8128648
4	0x40310393	2.7658432
5	0x3f272b7a	0.65300715
6	0x3fc78e21	1.5590249
7	0x3ec6e769	0.38848427
8	0x3f03ccc9	0.5148435
9	0x3f7210ed	0.94557077
10	0x406e5d1c	3.724433
11	0x3f5859e3	0.84512156
12	0x3f419bb6	0.7562822
13	0x3f279964	0.6546843
14	0x3f85fa93	1.0467094
15	0x3f38f1a0	0.7224369
16	0x3f0e7ed9	0.55662304
17	0x3f4c85d3	0.798917
18	0x3f1e6dfb	0.61886567
19	0x40a9b0a7	5.302814
20	0x3f2ed3d0	0.6829195
21	0x3f3cd4c0	0.7376213
22	0x3f66e056	0.9018606
23	0x3fa14723	1.2599834
24	0x3e9fbc59	0.31198385
25	0x3f610eda	0.87913287
26	0x3eb377fc	0.35052478
27	0x3f2db9cc	0.6786163
28	0x3ea7e8be	0.32794756
29	0x3f054d0f	0.5207071
30	0x3f0ce3c4	0.5503504
31	0x3fbe6ca1	1.4876901

body.block3.conv.weight f4 [32, 32, 3, 3]
0	0x3cfa9215	0.030587235
1	0x3c66a9e0	0.014078587
2	0xbcb790c6	-0.0224079
3	0xbd21c500	-0.039494514
4	0x3d0f8508	0.035038978
5	0x3c90f289	0.017693775
6	0xbccf47ee	-0.025302853
7	0x3adda0a3	0.0016908835
8	0xbd960a52	-0.07326187
9	0xbc900054	-0.017578281
10	0xbd249e70	-0.04019016
11	0x3d6fa360	0.058505416
12	0x3cbee588	0.023302808
13	0xbcd65474	-0.026163317
14	0xbd411af7	-0.047144856
15	0x3ca0a589	0.019610183
16	0x3d63ff67	0.055663493
17	0x3cfc52d6	0.030801218
18	0x3cdf316a	0.027245242
19	0xbba70fc7	-0.0050983164
20	0x3abfddcf	0.0014638248
21	0x3c9b65ac	0.01896938
22	0x3c8dc232	0.017304514
23	0x3d787130	0.06065482
24	0x3aad7fbe	0.0013236923
25	0x3cf9f1c1	0.030510785
26	0xbc637a64	-0.013884161
27	0x3b8391ea	0.004015197
28	0xbb9cc1a5	-0.0047838264
29	0xbc156253	-0.009117681
30	0x3c92a686	0.01790167
31	0x3d52b280	0.051439762
32	0x3da36a85	0.07979301
33	0x3b15881f	0.002281673
34	0x3d53b275	0.05168386
35	0x3c6e9228	0.014561214
36	0x3c995393	0.01871661
37	0xbd26cc69	-0.040722284
38	0xbd4616a9	-0.048361454
39	0xbd3218d7	-0.04348072
40	0xbd30c34c	-0.043155
41	0xbc29cff8	-0.010364525
42	0x3c124fb9	0.00893014
43	0x3c54c315	0.012985964
44	0xbc5eb5fd	-0.013593194
45	0xbc325417	-0.010884306
46	0x3ccd5311	0.025064023
47	0x3ce14c7f	0.027502296
48	0xbc40677c	-0.011743423
49	0x3d33fd40	0.04394269
50	0x3d5b9a98	0.05361423
51	0xbb543e77	-0.0032385865
52	0xbc575149	-0.0131419385
53	0xbc01e202	-0.00792742
54	0x3d952b94	0.072837025
55	0x3d83ea53	0.06441178
56	0x3d319904	0.043358818
57	0xbcf43b27	-0.029813362
58	0xbcf200b1	-0.029541345
59	0x3d4c6729	0.04990307
60	0xb9dec705	-0.0004249142
61	0x3bf39762	0.0074338177
62	0xbb3808c8	-0.0028081406
63	0x3d96a432	0.073555365
64	0xbb8fa196	-0.004383276
65	0xbd610fef	-0.054946836
66	0xbd770c21	-0.0603143
67	0x3b877ed6	0.004134993
68	0x3d208160	0.03918588
69	0xbd50040b	-0.050785106
70	0x3c29be40	0.010360301
71	0xba805c34	-0.0009793104
72	0x3bcca478	0.006245192
73	0x3d72d2a6	0.05928292
74	0x3caa3e89	0.020781772
75	0xbc997156	-0.0187308
76	0x3db6bb6e	0.08922468
77	0x3c8c0bbb	0.017095437
78	0x3cf30bdf	0.029668747
79	0xba877708	-0.0010335157
80	0x3b3a4753	0.002842386
81	0xbd18310a	-0.037156142
82	0xbd9b4f4f	-0.07583486
83	0xbdadafd6	-0.08480804
84	0xbccaf368	-0.024774268
85	0xbc69005b	-0.014221276
86	0xbce33293	-0.027734077
87	0x3c6c6331	0.014427946
88	0xbbee1b20	-0.007266417
89	0x3b0125c7	0.0019706355
90	0xbcda7ac9	-0.026669877
91	0xbd8c4c86	-0.06850533
92	0xbd1ee451	-0.03879196
93	0x3c36ee57	0.011165223
94	0x3c1be78e	0.009515656
95	0xbd1717dc	-0.03688799
96	0x3c1acf86	0.0094488915
97	0xbd0cf4f3	-0.03441329
98	0xbd908f27	-0.07058554
99	0x3a8ae926	0.0010598048
100	0x3c8b285e	0.016987022
101	0xbc429b24	-0.011877809
102	0xbd452297	-0.04812869
103	0xbd114863	-0.035469424
104	0x3c9b7eb0	0.018981308
105	0xbcf0cf53	-0.029395735
106	0xbcaf9d4e	-0.021437313
107	0x3b57bf1c	0.0032920307
108	0x3cf5d9df	0.030011116
109	0x3d204e64	0.03913726
110	0x3cb73845	0.022365699
111	0x3ca6a141	0.020340564
112	0x3d78f52a	0.06078068
113	0x3c854413	0.016267812
114	0xbd1d7930	-0.03844565
115	0xbd8d399f	-0.06895756
116	0xbc26e47c	-0.010186311
117	0x3cac1cfb	0.021009913
118	0x3d31a1ad	0.043367077
119	0x3ccf28ae	0.025287952
120	0xbc5a3bd6	-0.01331993
121	0x3cb8de0b	0.022566816
122	0x3d2d3693	0.042288374
123	0x3d868714	0.06568733
124	0xbd349d1b	-0.04409514
125	0xbc8dde84	-0.017318018
126	0x3b640a68	0.0034796242
127	0x3d3eb11a	0.046555616
128	0x3d0b66c4	0.03403355
129	0xbd07e98b	-0.03318171
130	0xbd750a71	-0.05982441
131	0xb9f6fae2	-0.000471077
132	0x3d023c06	0.031795524
133	0x3b348b96	0.002754902
134	0x3d0fb60a	0.035085715
135	0x3ceb397e	0.028713938
136	0x3c16afee	0.009197218
137	0xbc5155c9	-0.0127768
138	0xbcad62e5	-0.02116532
139	0xbc540b60	-0.012942165
140	0x3aaf2184	0.0013361429
141	0xbd1e5147	-0.03865173
142	0xbca8e25c	-0.020615749
143	0x3cbee066	0.02330036
144	0xbc20c928	-0.009813584
145	0xbc08f44d	-0.008359027
146	0x3c78232d	0.015145105
147	0x3c6080db	0.013702597
148	0xbb95caeb	-0.004571309
149	0x3ae26faf	0.0017275716
150	0xbcd55792	-0.026042733
151	0x3d4892eb	0.048968237
152	0x3cf8d8bb	0.030376783
153	0xbd5fdb4b	-0.054652493
154	0xbd456e46	-0.048200868
155	0x3c5534e3	0.013013097
156	0x3da9de52	0.08294357
157	0x3d845c30	0.06462896
158	0x3cef5561	0.029215517
159	0x3bc7f31f	0.0061019803
160	0x3d03ebfb	0.03220747
161	0x3d223fe3	0.03961171
162	0xbc58b8af	-0.013227626
163	0xbc1376a2	-0.009000452
164	0xbd84836d	-0.0647038
165	0xbb01edcf	-0.0019825583
166	0xbcd4c17a	-0.025971163
167	0xbd9848e9	-0.074357815
168	0x3d481bcb	0.04885463
169	0x3caa7612	0.020808253
170	0x3d1c6fa0	0.03819239
171	0x3c8d1655	0.017222563
172	0xbcdffcef	-0.027342288
173	0x3b3e57e8	0.0029044095
174	0xbc01857d	-0.007905361
175	0xbd342fdc	-0.043990955
176	0xbcf7ac8a	-0.03023364
177	0xbd720bd9	-0.05909333
178	0xbd90741b	-0.07053395
179	0xbd3b9f43	-0.04580618
180	0xbc0233ee	-0.007946951
181	0x3cb0b50a	0.021570701
182	0x3c5900d3	0.013244825
183	0x3c0092bb	0.007847483
184	0x3d0dae7a	0.034590222
185	0x3cf18417	0.02948193
186	0x3cca733b	0.02471315
187	0x3d2a0b3f	0.04151463
188	0xbbe3279a	-0.006932211
189	0x3ce092c7	0.027413739
190	0x3e04942f	0.12947153
191	0x3d02740a	0.031848945
192	0x3c399cc4	0.01132888
193	0xbca5676c	-0.020190917
194	0xbbea76e7	-0.0071552875
195	0x3d0e937b	0.034808617
196	0xb979c71f	-0.00023820669
197	0x3ca0923b	0.019600978
198	0xbc4277a4	-0.011869345
199	0x3d45a202	0.048250206
200	0x3dcd6b0d	0.10030184
201	0x3cba258a	0.022722978
202	0xbd0a03b9	-0.033694956
203	0x3ce7d44d	0.028299475
204	0x3c9901fc	0.018677704
205	0x3cd9fce0	0.026609838
206	0x3b602eec	0.0034207655
207	0xbd0b1589	-0.033956084
208	0xbd8d7018	-0.06906146
209	0x3cc0e255	0.023545424
210	0xbdb2b2df	-0.08725523
211	0x3cf035f8	0.02932261
212	0x3d13fd51	0.036130253
213	0xbc10753e	-0.008817015
214	0x3c1d1675	0.009587874
215	0x3d27e882	0.04099322
216	0x3d0296a8	0.03188196
217	0x3d73d495	0.059528906
218	0x3d124f8a	0.035720386
219	0xbbdeee9a	-0.006803346
220	0x3cf2b41f	0.029626904
221	0xbd8c2049	-0.068420954
222	0xbdb045be	-0.08607052
223	0x3c6b2a96	0.014353415
224	0x3d1683bd	0.03674673
225	0xbd05308b	-0.032516997
226	0x3adad52a	0.0016695608
227	0xba133f5d	-0.0005617047
228	0x3cbba053	0.022903597
229	0x3c403f79	0.011733883
230	0x3c2c9f90	0.01053609
231	0xbb2e3de5	-0.0026587185
232	0xbd2820ce	-0.04104691
233	0xbc133303	-0.00898433
234	0x3d63c904	0.055611625
235	0x3c97a6ff	0.018512247
236	0x3d599f22	0.053130277
237	0xbc0eafc8	-0.008708902
238	0x3d6fbd39	0.058530066
239	0x3d1c19dc	0.0381106
240	0xbd4825ca	-0.048864163
241	0x3c316ed0	0.010829642
242	0x3c2cca72	0.010546314
243	0xbcd5a286	-0.026078474
244	0xbcc2f414	-0.023798026
245	0xbca75a4f	-0.020428805
246	0xbb0a90ae	-0.0021143365
247	0xbcead55a	-0.028666187
248	0xbb008cb3	-0.0019615113
249	0xbc368d16	-0.011142036
250	0x3d0a54fd	0.033772457
251	0xbcdcaf89	-0.02693917
252	0xbcd1bff9	-0.025604235
253	0x3ba958e5	0.0051680678
254	0x3dae6b91	0.085166104
255	0x3bd039a3	0.006354527

body.block3.conv.bias f4 [32]
0	0x3c75a4fa	0.014992947
1	0x3d1ce183	0.038301002
2	0xbd19e124	-0.037568226
3	0x3cc315cd	0.023814106
4	0x3c686673	0.014184582
5	0xbc634abf	-0.013872801
6	0x3ba2b723	0.0049656793
7	0x3c2416df	0.0100152185
8	0xbd8218bd	-0.06352375
9	0xbd2b1acf	-0.041773614
10	0xbcad395f	-0.02114552
11	0x3d1e377a	0.038627125
12	0xbcee87aa	-0.029117424
13	0xbd262e91	-0.040571753
14	0xbd33cd25	-0.043896813
15	0x3cd6dc81	0.026228191
16	0xbcf5b3e0	-0.029992998
17	0xbcd0cc6b	-0.0254881
18	0xbd47b1cb	-0.04875354
19	0x3ca1f3be	0.019769546
20	0xbcdc9079	-0.026924359
21	0xbcc65da8	-0.02421458
22	0xbd117384	-0.035510555
23	0x3d299654	0.04140313
24	0x3d0bcdd3	0.034131836
25	0xbc30d681	-0.010793329
26	0x3c98d404	0.018655784
27	0xbc9aa810	-0.018878967
28	0xbc3bcbfb	-0.011462207
29	0xbb8ece72	-0.0043581063
30	0xbc685484	-0.014180306
31	0x3c50b3af	0.012738152

body.block3.norm.weight f4 [32]
0	0x3f6d8afc	0.927902
1	0x3f6dd6c9	0.9290586
2	0x3f52dfe8	0.82372904
3	0x3f63f282	0.8904191
4	0x3f642162	0.8911344
5	0x3f57ac7c	0.84247565
6	0x3f593aad	0.8485516
7	0x3f4c3e51	0.7978259
8	0x3f5e6d60	0.86885643
9	0x3f672590	0.9029169
10	0x3f54493f	0.82924265
11	0x3f44cfa2	0.7687932
12	0x3f616f3b	0.8806035
13	0x3f666876	0.90003145
14	0x3f6aa892	0.9166347
15	0x3f4576f8	0.77134657
16	0x3f5b96f6	0.85777223
17	0x3f5d1fc8	0.8637662
18	0x3f699dd1	0.91256434
19	0x3f699e4d	0.9125717
20	0x3f6358c1	0.888073
21	0x3f662f83	0.8991625
22	0x3f638944	0.88881326
23	0x3f5b83dd	0.8574808
24	0x3f5a6dd6	0.85323846
25	0x3f61c415	0.8818982
26	0x3f57e40e	0.8433236
27	0x3f5e4363	0.86821574
28	0x3f642529	0.891192
29	0x3f576b6a	0.84148276
30	0x3f656744	0.89610696
31	0x3f55f50c	0.83577037

body.block3.norm.bias f4 [32]
0	0xbd457f39	-0.048217032
1	0xbd9ba7d1	-0.07600368
2	0xbe867413	-0.26260433
3	0xbe120c95	-0.14262612
4	0xbdfed62e	-0.12443195
5	0xbdafc503	-0.08582499
6	0xbd90105f	-0.070343725
7	0xbe55a3cf	-0.2086327
8	0xbdf128e3	-0.11775377
9	0xbe1681a6	-0.14697894
10	0xbe718cfe	-0.2358894
11	0xbe2a9b5f	-0.16660832
12	0xbdccebd7	-0.100059204
13	0xbe3a1fae	-0.18176147
14	0xbd29f710	-0.041495383
15	0xbe870399	-0.26369932
16	0xbe013f49	-0.12621798
17	0xbe2ead08	-0.17058194
18	0xbdf75b10	-0.12077916
19	0xbd4b9fd8	-0.049712986
20	0xbdcb50db	-0.09927531
21	0xbdf9f78b	-0.12205418
22	0xbe3597c7	-0.1773368
23	0xbd94de2c	-0.072689384
24	0xbe000a56	-0.12503943
25	0xbd4e468c	-0.050360247
26	0xbe37a469	-0.17933811
27	0xbdd0cfe1	-0.101959
28	0xbe171813	-0.14755277
29	0xbdbf9017	-0.09353655
30	0xbd8401fd	-0.06445692
31	0xbe0b98d5	-0.1363252

body.block3.norm.running_mean f4 [32]
0	0xbd22d05b	-0.039749485
1	0x3ee802d5	0.4531466
2	0xbd3b10c8	-0.0456703
3	0xbddab10f	-0.106783025
4	0xbeb6a3c3	-0.35671815
5	0xbe4f938e	-0.20271131
6	0x3d7b9065	0.061417002
7	0x3e408d8f	0.18804
8	0x3f2835e0	0.65707207
9	0xbe2a5215	-0.16632874
10	0xbda23560	-0.07920337
11	0x3ea5353f	0.32267186
12	0x3e3eb920	0.18625307
13	0xbdaada3d	-0.08342407
14	0xbd95680d	-0.07295237
15	0x3de85a13	0.11345305
16	0xbdc8af01	-0.09799004
17	0xbeab9999	-0.33515623
18	0xbf0de229	-0.5542322
19	0x3ef9abb3	0.4876381
20	0xbe62092a	-0.22073808
21	0x3e92ae99	0.28648832
22	0xbd901397	-0.070349865
23	0xbd889835	-0.06669656
24	0xbda68527	-0.081308655
25	0xb9a01dc1	-0.00030539747
26	0x3ea361fb	0.3191069
27	0xbdf13185	-0.11777023
28	0xbe5b28fb	-0.21402352
29	0x3ebeca8c	0.37263906
30	0xbefcdbb0	-0.49386358
31	0x3e3206a8	0.17385352

body.block3.norm.running_var f4 [32]
0	0x3f5ea804	0.8697512
1	0x3f91c501	1.1388246
2	0x3f0c17ac	0.5472362
3	0x3f8ab072	1.0835097
4	0x3fd08285	1.6289831
5	0x3f8f65ce	1.1202943
6	0x3f5bb62b	0.8582484
7	0x3f37b2b6	0.71757066
8	0x3edbfcd7	0.4296634
9	0x3f623ce9	0.8837419
10	0x3e9cc5b2	0.3061958
11	0x3f9cde12	1.225527
12	0x3f4ebac6	0.80753744
13	0x3edd19c6	0.43183726
14	0x400021b5	2.0020573
15	0x40096b0c	2.1471586
16	0x3f4dbee5	0.80369407
17	0x3eb32fc0	0.34997368
18	0x3f3e4d85	0.74337035
19	0x3f945b75	1.159041
20	0x3f7dbe6d	0.9911869
21	0x3ecb9c66	0.3976776
22	0x3f86d2e4	1.0533109
23	0x3f1ba984	0.60805535
24	0x3f3eea8d	0.74576646
25	0x3f42ed3b	0.76143235
26	0x3fbeb2ef	1.4898356
27	0x3f7c7223	0.9861166
28	0x3f11e8c3	0.5699579
29	0x3fb9389d	1.4470402
30	0x3f9f1b2c	1.2430167
31	0x3f52067c	0.82041144
