code/Output/mountains/pdl_e8000_1px_lr0.0001a35.0_up-conv5_1_W[1.0, 0.5, 0.1, 0.075, 0.075](5)/2/netG.pth (torch, 130373 bytes, 26 tensors)

head.conv.weight f4 [32, 3, 3, 3]
0	0x3c36341b	0.011120821
1	0x3d5fe16c	0.05465834
2	0xbca25556	-0.019816082
3	0x3cdebb4f	0.027188925
4	0xbd13787c	-0.036003575
5	0x3c52877f	0.012849688
6	0xbb6b40ff	-0.0035896895
7	0xbc8b12b9	-0.016976701
8	0x3c92c35a	0.017915417
9	0xbcc5870d	-0.024112249
10	0xbd09b52f	-0.033620056
11	0xbc5756fc	-0.013143297
12	0xbc3006d6	-0.010743817
13	0xbb45823b	-0.0030137438
14	0xbc52e457	-0.012871823
15	0x3ce659e3	0.028119033
16	0xbcbff7c8	-0.023433581
17	0x3caa7397	0.02080707
18	0x3c3505ca	0.0110487435
19	0xbb95f311	-0.004576095
20	0x3cbd28d8	0.023090765
21	0xbc6e10d6	-0.014530381
22	0xbbb891ea	-0.0056326287
23	0x3d2b0501	0.04175282
24	0xbc893094	-0.016746797
25	0xbd07fc95	-0.033199865
26	0x3d4eb0ae	0.050461464
27	0xbc9c21b5	-0.019059042
28	0x3bfeb3d9	0.0077729044
29	0xbc9c514c	-0.019081734
30	0xbcdfaa1f	-0.0273028
31	0xbcd0dee7	-0.025496913
32	0x3c8dac6c	0.017294131
33	0x3cf42bc2	0.029806022
34	0x3c8bc3fb	0.017061224
35	0x3c1f3768	0.0097178
36	0xbd188afa	-0.037241913
37	0x3c581abe	0.01318997
38	0x3d52c622	0.051458485
39	0xbd460823	-0.048347604
40	0x3cd4d7a2	0.025981728
41	0x3b9aeaf5	0.004727716
42	0xbcc4b580	-0.024012327
43	0xbc224734	-0.009904671
44	0xbc0138e7	-0.007887102
45	0xbc2104c5	-0.009827797
46	0xbc67ed97	-0.014155767
47	0x3cce8e39	0.025214301
48	0xbc76f049	-0.015071937
49	0xbc9825e7	-0.01857276
50	0xbc1d5d0e	-0.0096047055
51	0xbb8490e2	-0.0040455917
52	0xbc497f91	-0.012298481
53	0xbc53644e	-0.0129023325
54	0x3cd51131	0.026009174
55	0xbcb3e700	-0.021960735
56	0xbc59d849	-0.013296195
57	0xbc05cbfd	-0.00816631
58	0x3c750da0	0.014956862
59	0xbc37f964	-0.011228893
60	0x3d0839bb	0.03325818
61	0xbc43b7d0	-0.01194568
62	0xbb2ea7f7	-0.0026650408
63	0xbb30f8f1	-0.002700385
64	0x3ca46ad7	0.020070476
65	0xbd0ca023	-0.034332406
66	0x3c95f1e2	0.018303815
67	0xbcdc83e0	-0.026918352
68	0xbc98db9d	-0.018659407
69	0x3c548b3c	0.012972649
70	0xb912d399	-0.00014002471
71	0xbb629256	-0.0034572086
72	0x3c4b6122	0.012413295
73	0x3d3d3442	0.046192415
74	0xbb478fd0	-0.003045071
75	0x3d1d747a	0.03844116
76	0xbcbc6f79	-0.023002373
77	0x3c48a6c8	0.012246795
78	0x3b63951c	0.0034726327
79	0x3c9cbcf8	0.019133076
80	0xbc7a3ffa	-0.015274042
81	0xbceee324	-0.029161043
82	0x3c82707e	0.015922781
83	0xbce480de	-0.02789348
84	0xbc8fbf09	-0.017547147
85	0xbc197790	-0.009366885
86	0x3816da4c	3.596609e-05
87	0x3cdb7ecf	0.026793865
88	0x3c9c6ca3	0.01909477
89	0xbcd33afd	-0.025784964
90	0xbc12fc79	-0.008971327
91	0x3d157217	0.036485758
92	0xbd58dc6d	-0.05294459
93	0xbcc02b2e	-0.02345809
94	0x3b4ed4fe	0.0031560059
95	0x3be5cbef	0.007012836
96	0x3c812ee1	0.015769424
97	0xba3e427c	-0.0007257832
98	0x3c7141cd	0.014725161
99	0xbc86a94b	-0.016438147
100	0xbcc2f99a	-0.02380066
101	0xbc74e3e3	-0.014946911
102	0x3cd219cb	0.025647065
103	0x3c8bb2d7	0.01705305
104	0x3bf1dbf4	0.007380957
105	0xbc8bfae6	-0.017087411
106	0xbc904314	-0.01761011
107	0x3bcc2b97	0.0062307823
108	0xbc1f7aae	-0.009733839
109	0xba0545ad	-0.000508393
110	0xbc42c2a0	-0.0118872225
111	0xbd379b98	-0.04482612
112	0x3c31e68c	0.010858189
113	0x3b45659b	0.0030120376
114	0xbc09ea10	-0.008417621
115	0x3c8bf78c	0.017085813
116	0xbcef031f	-0.029176293
117	0x3afbc55d	0.0019208599
118	0x3c1e6fea	0.009670237
119	0x3c0b5105	0.008503203
120	0x3cc136d4	0.023585714
121	0xbb0e59f6	-0.0021721101
122	0x3b497109	0.003073754
123	0xbc426703	-0.01186538
124	0xbafaced0	-0.0019135121
125	0xbd6276a3	-0.055288922
126	0xb9807540	-0.0002450142
127	0xbc526c22	-0.012843164
128	0x3ba5e66e	0.0050628697
129	0x3ce9ca03	0.02853871
130	0xbb16d8cc	-0.0023017405
131	0x3cde130e	0.027108695
132	0x3cbeb34d	0.023278857
133	0xbc25e9fa	-0.010126585
134	0xbd21a1f1	-0.03946108
135	0x3d273e1a	0.04083071
136	0x3d75d0a5	0.060013432
137	0xbceed955	-0.029156366
138	0x3cbe6730	0.023242563
139	0x3a5620a8	0.00081683183
140	0x3ccf8a92	0.02533463
141	0x3d050e31	0.032484237
142	0x3cbf3aff	0.023343561
143	0xbcc64ff1	-0.02420804
144	0xbc5d0d82	-0.01349199
145	0x3d371622	0.044698842
146	0xbcb24ae6	-0.02176423
147	0xbc7bcbb7	-0.015368394
148	0xbc90136a	-0.017587382
149	0xbd07eb51	-0.0331834
150	0x3a8241b1	0.000993779
151	0xbbdeeca2	-0.006803111
152	0xbc63f215	-0.013912697
153	0x3d2df06a	0.042465605
154	0x3ca92348	0.020646706
155	0xbca64ed8	-0.020301268
156	0xbb926b8f	-0.0044683884
157	0xbce188be	-0.027531024
158	0xbb2c35f7	-0.0026277283
159	0xbca1ce26	-0.01975162
160	0xbc971485	-0.018442402
161	0x3c8d1b80	0.017225027
162	0x3b5f8ce4	0.0034111077
163	0x3cfabff1	0.030609103
164	0x3bf6a7de	0.0075273355
165	0x3c7b57df	0.015340774
166	0xb9fed023	-0.0004860173
167	0x3c8c11af	0.017098276
168	0xbc4c226e	-0.012459381
169	0x3c7c4297	0.015396736
170	0xbca775b2	-0.020441864
171	0xbbb71d12	-0.0055881822
172	0x3c79ccf0	0.015246615
173	0xbcfedc1e	-0.03111082
174	0x3c3f7e05	0.01168776
175	0x3c198e5c	0.00937232
176	0xbc1ec18d	-0.009689701
177	0xbc3bf3c0	-0.011471689
178	0xbcc222d6	-0.023698252
179	0xbd6382a7	-0.05554452
180	0xbc8d4573	-0.01724503
181	0x3cc84f5e	0.024451908
182	0xbc5cf558	-0.013486229
183	0xba2f4dd2	-0.00066873163
184	0xbc264957	-0.0101493215
185	0xbc0c60c3	-0.008567992
186	0x3b861abd	0.004092543
187	0x3c3294e7	0.010899759
188	0xbd4c9592	-0.04994733
189	0xbc20240e	-0.009774221
190	0xbbf8ea4d	-0.00759629
191	0xbd192cef	-0.037396368
192	0x3d1c915f	0.038224574
193	0x3b57e450	0.0032942481
194	0x3927f46a	0.00016017412
195	0xbd20ab3c	-0.0392258
196	0x3a192e79	0.0005843412
197	0xbcdc2482	-0.026872877
198	0x3c246600	0.010034084
199	0x3d763dda	0.06011758
200	0x3babe144	0.0052453596
201	0x3ce5d370	0.028054923
202	0x3be64419	0.007027161
203	0x3c2dfb7a	0.010619039
204	0xbc7a78a7	-0.015287555
205	0x3c2483c7	0.010041184
206	0xbb54d4e5	-0.0032475528
207	0x3a8f6b3a	0.001094199
208	0x3bd2e867	0.006436396
209	0xbb76fa4f	-0.0037685817
210	0x3ba20700	0.004944682
211	0x3b8b724e	0.0042555695
212	0xbbfdc24a	-0.0077441083
213	0xbbfcd85c	-0.0077162217
214	0x3d378d06	0.044812225
215	0xba2b1dda	-0.00065275806
216	0x3bf4fcf1	0.007476442
217	0xbc12ff51	-0.008972005
218	0xbd42ff17	-0.047606554
219	0xbc370301	-0.01117015
220	0xbd0aa43c	-0.033848032
221	0x3c507685	0.01272357
222	0x3c321663	0.010869595
223	0x3d636510	0.055516303
224	0x3d389972	0.04506821
225	0x3d0b7850	0.034050286
226	0xbcba5d03	-0.02274943
227	0xbc22903c	-0.0099220835
228	0xba1d6b58	-0.000600507
229	0xbd029a33	-0.031885337
230	0x3c9c3387	0.019067539
231	0xbbba80b4	-0.005691612
232	0xb977217d	-0.00023568231
233	0xbbb613cd	-0.0055565597
234	0x3aea04a0	0.0017854162
235	0x3be867ea	0.0070924656
236	0x3c9b65b5	0.018969396
237	0xbadb0b35	-0.0016711714
238	0x3b549cab	0.0032442014
239	0xbc114270	-0.008865938
240	0xbd1a8aa4	-0.037729874
241	0xbc1d6f3f	-0.009609043
242	0x3cd50617	0.02600388
243	0x3c5b1691	0.0133720795
244	0xbc53607e	-0.0129014235
245	0x3b85f0ea	0.004087557
246	0xbceee3ac	-0.029161297
247	0x3c01e854	0.0079289265
248	0xba8e4dc2	-0.0010856914
249	0xbc8c1e14	-0.017104186
250	0x3a68f41f	0.00088864745
251	0x3c1f71ae	0.009731693
252	0x3bf116b4	0.0073574428
253	0xbca3736d	-0.0199525
254	0x3cb2eb74	0.021840788
255	0xbd3d5574	-0.046224073

head.conv.bias f4 [32]
0	0x3e17cfdb	0.14825384
1	0x3d87dabb	0.066335164
2	0x3e324e97	0.17412792
3	0xbdd4a6b1	-0.10383356
4	0xbd608c83	-0.054821502
5	0xbe1cc531	-0.15309598
6	0x3b7a5655	0.003819843
7	0x3dacf39c	0.08444902
8	0xbd7a34db	-0.061085563
9	0xbd7096f2	-0.058737703
10	0x3e3c4115	0.18384202
11	0x3d97ebc7	0.07418018
12	0x3d96afc9	0.07357747
13	0x3d738347	0.059451368
14	0x3be80e06	0.00708175
15	0xbe0aa3ea	-0.13539091
16	0x3daabf47	0.083372645
17	0xbd4c0648	-0.049810678
18	0x3dde9e37	0.10870021
19	0xb9dab34e	-0.00041713793
20	0x3e47f224	0.19525963
21	0x3dc7516b	0.09732326
22	0x3d00e3f0	0.03146738
23	0x3d1494c0	0.03627467
24	0x3bf5a03c	0.007495908
25	0x3d99f667	0.07517701
26	0xbdb2d382	-0.08731748
27	0x37a5cf99	1.9766203e-05
28	0x3c151a64	0.00910053
29	0x3e40d477	0.18831049
30	0x3dad6baa	0.08467801
31	0x3c980ca3	0.018560713

head.norm.weight f4 [32]
0	0x3f834c00	1.0257568
1	0x3f81ff7a	1.015609
2	0x3f7ce698	0.9878936
3	0x3f8200e7	1.0156525
4	0x3f80d939	1.0066291
5	0x3f80e0b1	1.006857
6	0x3f8130d8	1.0093031
7	0x3f7dcc2d	0.9913967
8	0x3f83b91f	1.029087
9	0x3f7e443b	0.9932286
10	0x3f7c5c88	0.9857869
11	0x3f752aaa	0.95768225
12	0x3f77f8d4	0.96864057
13	0x3f72a33f	0.94780344
14	0x3f7d489d	0.98938924
15	0x3f7f1d52	0.99654114
16	0x3f7a6e98	0.97825
17	0x3f7fc795	0.99913913
18	0x3f7ad87f	0.97986597
19	0x3f7a5f59	0.9780174
20	0x3f7b50fa	0.98170435
21	0x3f7b81d2	0.98244965
22	0x3f79668f	0.97422117
23	0x3f7ada79	0.9798961
24	0x3f837f6e	1.0273263
25	0x3f7b50ad	0.98169976
26	0x3f76568a	0.962258
27	0x3f7aab76	0.9791788
28	0x3f818e12	1.0121481
29	0x3f8465fd	1.0343624
30	0x3f7fe555	0.9995931
31	0x3f780e48	0.9689679

head.norm.bias f4 [32]
0	0xbd1b27bb	-0.037879687
1	0x3d09d877	0.033653703
2	0xbcf8cc48	-0.030370846
3	0xbcec6748	-0.028857842
4	0xbd08cf0c	-0.03340058
5	0x3c95bf00	0.018279552
6	0xbb5ca210	-0.0033665933
7	0xbce21f86	-0.027602922
8	0xb85f3c76	-5.322365e-05
9	0xbc96c94c	-0.018406533
10	0xbbeb51af	-0.0071813683
11	0xbd285fd5	-0.041107018
12	0xbc0d375b	-0.008619155
13	0xbbf576d1	-0.0074909707
14	0xbcc31789	-0.023814933
15	0xbc6e2758	-0.0145357475
16	0x3ac6ddf1	0.0015172345
17	0xbca57345	-0.020196566
18	0x3cb4d531	0.022074314
19	0xbd07c3fc	-0.03314589
20	0xbd1c1192	-0.038102694
21	0xbca9bf28	-0.020721033
22	0xbd0e565f	-0.03475034
23	0xbd05ba66	-0.032648467
24	0xbb4be159	-0.003110966
25	0x3cd9b74b	0.026576659
26	0x3cac39b9	0.021023618
27	0x3d046859	0.032326076
28	0xbd715fdb	-0.058929306
29	0x3bead545	0.007166537
30	0x3cb2f3d5	0.021844784
31	0x3ae90fca	0.0017781195

head.norm.running_mean f4 [32]
0	0x3e120b54	0.14262134
1	0x3d9ce78d	0.07661352
2	0x3e2a5ce8	0.16637003
3	0xbdc2b3ef	-0.09506976
4	0xbd449c3e	-0.048000567
5	0xbe261922	-0.16220525
6	0x3c2ff51d	0.010739592
7	0x3da5edb1	0.08101977
8	0xbd8012da	-0.06253596
9	0xbd73ed5e	-0.059552543
10	0x3e3affb0	0.182616
11	0x3da524f3	0.08063688
12	0x3d7bf344	0.061511293
13	0x3d65b6bb	0.05608247
14	0x3c2bd238	0.010487132
15	0xbe13cdb5	-0.1443394
16	0x3da1c3aa	0.07898648
17	0xbd945eb5	-0.072446264
18	0x3dffd524	0.12491825
19	0xbc01daba	-0.007925684
20	0x3e3d646f	0.18495344
21	0x3db97d76	0.09057133
22	0x3d1b405a	0.037903167
23	0x3ca9fdc3	0.020750886
24	0x3c30736b	0.010769705
25	0x3da2ce7c	0.0794954
26	0xbdb2d85e	-0.08732675
27	0x3c3059d3	0.010763603
28	0x3c2a37c6	0.010389274
29	0x3e537af2	0.20652369
30	0x3dc376a6	0.09544115
31	0xbadbebe0	-0.001677867

head.norm.running_var f4 [32]
0	0x39b33fad	0.00034188983
1	0x3b08438e	0.002079222
2	0x3a80c836	0.0009825293
3	0x3a8297fa	0.0009963505
4	0x3a3b6847	0.00071490224
5	0x3a6b7c41	0.0008983054
6	0x3b116a36	0.002218855
7	0x3ac62fab	0.0015120407
8	0x39beecca	0.00036416046
9	0x3a2567fa	0.0006309744
10	0x3a6ece78	0.0009109746
11	0x3a7c3ae0	0.000962181
12	0x3ba032f5	0.004888887
13	0x3a65b721	0.0008762945
14	0x3a255328	0.0006306642
15	0x3a86d30e	0.0010286288
16	0x3a8b523e	0.0010629368
17	0x3c13f6c8	0.009031005
18	0x3b29fc2b	0.0025937657
19	0x3a98d1b6	0.0011659178
20	0x3b52dd4a	0.0032175356
21	0x3b73b7df	0.0037188453
22	0x39db68aa	0.00041848916
23	0x3b0d70d0	0.0021582134
24	0x3b04a645	0.0020240706
25	0x3a0faca8	0.0005480745
26	0x39f5ea92	0.0004690481
27	0x3a8c1688	0.0010687867
28	0x39b2ad03	0.0003407971
29	0x3bd54fa3	0.0065097376
30	0x3a295c48	0.00064605894
31	0x3b8b3c42	0.0042491267

body.block1.conv.weight f4 [32, 32, 3, 3]
0	0x3a2dab8a	0.00066249876
1	0x3c8ed8a9	0.017437296
2	0x3c5beccd	0.013423157
3	0xbbf34d6e	-0.007425002
4	0x3c92d638	0.017924413
5	0xbaf1e54c	-0.0018455177
6	0x3c1b1f45	0.009467904
7	0xbb5f8756	-0.0034107766
8	0xbc98607a	-0.018600691
9	0x3ca3e1f6	0.020005208
10	0x3cd0d6b6	0.025493007
11	0x3d255502	0.040364273
12	0xbacfa6ef	-0.0015842597
13	0xbd1197e0	-0.03554523
14	0xbcb3e2ae	-0.021958675
15	0xbb9ca45d	-0.004780336
16	0xbd5f85f4	-0.054571107
17	0xbd3912b6	-0.04518386
18	0xbae539ce	-0.0017488541
19	0xbbdc65de	-0.0067260107
20	0x3cd9ac7c	0.026571505
21	0x3c8b9d43	0.017042762
22	0x3ad58400	0.0016289949
23	0xbc9f914d	-0.019478464
24	0x3cda7ad0	0.02666989
25	0xbb7c6460	-0.0038511977
26	0x3d1deaf5	0.03855415
27	0x3ca9c1c0	0.02072227
28	0x3c8b2911	0.016987355
29	0x3cecfcea	0.028929193
30	0x3cb55d2a	0.02213915
31	0x39c2dcae	0.00037166983
32	0x3ce18132	0.027527425
33	0x3c18e2ea	0.009331444
34	0xbd50c9b4	-0.05097361
35	0xbc0965e5	-0.00838611
36	0xbc97d53b	-0.018534293
37	0x3bcffbb2	0.006347143
38	0x3cdbd67b	0.02683567
39	0x3bb61053	0.005556145
40	0xbcdfb440	-0.02730763
41	0x3c1adb47	0.009451694
42	0x3cbd7c33	0.023130512
43	0x3c486b61	0.012232632
44	0xbbc39d1a	-0.0059696557
45	0x3be61e03	0.0070226206
46	0xbcc9990c	-0.024609111
47	0x3ca46be1	0.020070972
48	0x3b77f97f	0.003783792
49	0x3c3c1aac	0.011480968
50	0x3bdfad85	0.006826105
51	0x3b0513a3	0.0020305894
52	0x3c8203c9	0.015870946
53	0xbcdad5b8	-0.026713237
54	0xbd4995a3	-0.04921497
55	0xbcbb3eca	-0.022857089
56	0x3cbcf91a	0.023068
57	0xbd3983b6	-0.045291625
58	0xbc15d62a	-0.009145299
59	0xbc9ffcfd	-0.019529814
60	0xbc2e4f57	-0.010639033
61	0x3c848817	0.016178174
62	0x3c58c74b	0.013231109
63	0xbc14595b	-0.009054507
64	0x3cc0cddb	0.02353566
65	0xbcd0b7da	-0.025478292
66	0x38e70d30	0.00011017395
67	0x3ce04553	0.027376806
68	0xbbc678c7	-0.0060568783
69	0xbb9c563d	-0.0047710226
70	0xbc3fb9c5	-0.011702006
71	0x3cc6c140	0.02426207
72	0xbc4ac0fa	-0.012375111
73	0xbcf64f51	-0.030067118
74	0xba95912d	-0.0011411064
75	0xbce82581	-0.028338196
76	0xbd22297d	-0.039590348
77	0xbcefdd45	-0.029280314
78	0xbbe91c26	-0.0071139513
79	0x3cc1788b	0.02361705
80	0x3b881c50	0.0041537657
81	0x3cfb5296	0.030679028
82	0x3cb3b286	0.021935713
83	0x3cbe0b49	0.02319874
84	0x3d920836	0.07130472
85	0x3c1fa0bd	0.009742913
86	0x3b17f7b2	0.002318841
87	0xbced568b	-0.028971931
88	0x3b6cdfd4	0.0036144154
89	0x3c13db2f	0.009024425
90	0x3ccdd037	0.025123699
91	0x3d034d37	0.03205606
92	0x3d02394a	0.031792916
93	0xbaadaa1e	-0.0013249551
94	0x3cde0042	0.027099732
95	0x3c407222	0.011745961
96	0xbbb9d385	-0.005670967
97	0xbb370856	-0.0027928553
98	0x3b94e389	0.004543726
99	0xbbf08dcc	-0.0073411223
100	0x3d0656a2	0.032797463
101	0xbcad99e5	-0.021191547
102	0xbcbee9d2	-0.023304854
103	0xbbf96059	-0.0076103625
104	0xbc63f3a3	-0.013913068
105	0x3c77ce23	0.01512483
106	0x3c04aea5	0.008098279
107	0xbc2e174c	-0.010625672
108	0x3c676d62	0.0141252
109	0xbbea392b	-0.0071479282
110	0x3cc8bba5	0.024503538
111	0x3cc9c2eb	0.024629077
112	0x3bb27ac8	0.0054467656
113	0x3c9bffbc	0.019042842
114	0x3d0cb8a9	0.034355793
115	0xbb63fb81	-0.003478736
116	0xbc78197f	-0.0151427975
117	0x3ba46c51	0.005017795
118	0x3cd3dfde	0.025863584
119	0x3afbd07d	0.0019211915
120	0x3cc886a1	0.024478259
121	0x3ba9d613	0.0051829903
122	0x3cd5a2ce	0.026078608
123	0x3c89e4a8	0.016832665
124	0x3aeaf0e6	0.0017924577
125	0x3c7f380b	0.0155773265
126	0xbbd1df7d	-0.0064048157
127	0xbca5c7d4	-0.020236887
128	0x3c917d52	0.017759953
129	0x3b061e47	0.0020464824
130	0xbd0abede	-0.03387343
131	0x3c313406	0.010815626
132	0xbc18ebdb	-0.009333576
133	0xbc41f2ef	-0.011837705
134	0xbb4435b7	-0.0029939243
135	0xbc91e8d8	-0.017811224
136	0x3b1d80f2	0.0024033156
137	0x3bcada19	0.00619055
138	0x3c1ec5dc	0.009690728
139	0xbb9d87e3	-0.0048074587
140	0x3cb051c1	0.021523358
141	0xbbba6e5e	-0.0056894263
142	0xbca84326	-0.020539831
143	0x3c945ef1	0.018111678
144	0x3a3500d8	0.0006904728
145	0xbcd60ced	-0.02612921
146	0x3c200f72	0.009769307
147	0x3aeef8b6	0.0018232081
148	0x3d2d057b	0.042241555
149	0xbce5b503	-0.028040415
150	0xbc5a6839	-0.013330513
151	0x3d01d46f	0.031696733
152	0x3d45e9eb	0.048318785
153	0x3aa825df	0.0012828669
154	0x3bf8a408	0.0075879134
155	0xbcac8fc0	-0.02106464
156	0xbc479f6b	-0.012184004
157	0xbc1e232c	-0.00965194
158	0x3c1c1340	0.009526074
159	0x3d3f031b	0.04663382
160	0xbaeab0bb	-0.0017905453
161	0x3c4570f7	0.012050859
162	0xbd192fa9	-0.037398968
163	0x3c608d20	0.013705522
164	0x3b9ec786	0.0048455624
165	0xbd28c183	-0.041200172
166	0x3d07fa97	0.033197965
167	0xbd058c88	-0.032604724
168	0xbcf4a536	-0.029863935
169	0xbc48012c	-0.012207311
170	0xbc760486	-0.015015727
171	0xbcf7ec81	-0.030264141
172	0xbc356d11	-0.011073367
173	0xbc2a43d3	-0.010392147
174	0xbc86df3c	-0.016463868
175	0xbc95623a	-0.018235315
176	0x3a3510b3	0.00069070904
177	0x3d600872	0.054695554
178	0x3bd40f39	0.0064715412
179	0x3d14754e	0.036244683
180	0x3c704ca4	0.01466671
181	0xbd6c4413	-0.057682108
182	0x3c6aff6e	0.014343126
183	0xbc61f935	-0.013792326
184	0x3a88c941	0.0010435955
185	0x3bc3a7ce	0.0059709316
186	0x3d2d2d5a	0.04227958
187	0x3bdfb134	0.006826544
188	0xbc14fefd	-0.009093997
189	0xbc61e055	-0.013786395
190	0x3d07781e	0.033073537
191	0x3bfd1d1e	0.0077244183
192	0xbcafaff7	-0.021446211
193	0x3800a681	3.0672647e-05
194	0x3bf4266f	0.0074508707
195	0x3cbe9caa	0.023268063
196	0xbd3f4a62	-0.046701796
197	0xbc321a5b	-0.010870541
198	0x3cb9b1a9	0.022667723
199	0xbc5fa00c	-0.013648998
200	0xbc5d0fad	-0.013492507
201	0xbc31c944	-0.010851208
202	0x3ca8d5dd	0.02060979
203	0x3caa2982	0.020771746
204	0x3b0e54db	0.0021718058
205	0x3c935181	0.0179832
206	0x3c6df1d7	0.014522991
207	0x3ca74599	0.020418929
208	0x3c249c3b	0.010047014
209	0xbb93a6f8	-0.004505988
210	0x3c666d52	0.01406415
211	0x3c9bcdfb	0.019019118
212	0xbd64cb6c	-0.05585806
213	0xbd2048f9	-0.039132092
214	0xbb1bd82d	-0.0023779974
215	0x3c2f708f	0.010707988
216	0xbaa06a2c	-0.0012238673
217	0x3cd87846	0.026424538
218	0x3cc1cbd9	0.023656772
219	0x3c0ea42b	0.008706133
220	0xbcef4d1b	-0.029211571
221	0x3c3a2f30	0.011363789
222	0x3c47ff72	0.012206899
223	0xbd39c76a	-0.04535619
224	0x3c95cd12	0.018286262
225	0xbc8d9d1a	-0.017286826
226	0xbc949102	-0.018135551
227	0x3b0ebc2c	0.002177964
228	0xbc51ed2b	-0.012812893
229	0x3bec31d1	0.007208087
230	0x3c73dfa6	0.014884865
231	0x3c863b61	0.016385736
232	0x3ba265f3	0.004956001
233	0xbc25250d	-0.010079634
234	0x3cd6c19a	0.026215363
235	0x3c7499a5	0.01492921
236	0x3c67395d	0.014112798
237	0x3be024cf	0.0068403254
238	0x3b2a76eb	0.0026010822
239	0x3c1c4355	0.009537538
240	0x3bcee6f3	0.0063141524
241	0x3cb22859	0.021747755
242	0x3d0f1fd7	0.034942474
243	0x3a70ac4b	0.0009180947
244	0xbd03029a	-0.031984903
245	0x3cb0494e	0.02151933
246	0xbbff74c3	-0.0077959015
247	0x3c5426cb	0.012948702
248	0x3c140e36	0.009036591
249	0x3baa56e9	0.005198349
250	0xbbb17c62	-0.005416439
251	0xbd9511ad	-0.07278762
252	0xbbff0233	-0.0077822446
253	0xbbdf0d6d	-0.0068070204
254	0x3c9d260f	0.019183187
255	0xbc082569	-0.0083097005

body.block1.conv.bias f4 [32]
0	0x3d042797	0.03226432
1	0x3bab0237	0.00521877
2	0x3cefc45a	0.029268432
3	0xbd2652f3	-0.04060645
4	0xbd2d7e1a	-0.042356588
5	0x3c963f2a	0.018340666
6	0x3aa4e21c	0.0012579593
7	0x3a9caab0	0.0011952724
8	0xbd142d50	-0.036176026
9	0x3d2bd808	0.04195407
10	0x3cc8904c	0.024482869
11	0xbd4f3a6e	-0.050592832
12	0xbc6051d6	-0.013691386
13	0xbc8a13af	-0.016855089
14	0x3d0c3aef	0.03423589
15	0xbcee91cc	-0.029122256
16	0x3d319fb1	0.043365184
17	0xbd438d5b	-0.04774223
18	0x3cbb17bb	0.022838464
19	0xbd0063e8	-0.031345278
20	0x3d2864bf	0.041111704
21	0xbd645d32	-0.05575294
22	0xbcae017c	-0.021240942
23	0xbcea841c	-0.028627448
24	0x3cbc6b94	0.023000516
25	0xbc7253bf	-0.014790474
26	0x3c99ffe9	0.018798785
27	0xbcbd9fbe	-0.02314746
28	0xb84e637b	-4.9206876e-05
29	0x3bc03927	0.005866188
30	0xbce9cee5	-0.028541038
31	0xbb84fc09	-0.0040583652

body.block1.norm.weight f4 [32]
0	0x3f7bc50e	0.98347557
1	0x3f727885	0.9471515
2	0x3f7b7880	0.98230743
3	0x3f729809	0.9476324
4	0x3f7b5898	0.9818206
5	0x3f8357d6	1.026118
6	0x3f7ddb95	0.9916318
7	0x3f7d396b	0.9891574
8	0x3f82a522	1.0206645
9	0x3f871e18	1.0556059
10	0x3f7d2ce1	0.98896605
11	0x3f7c0206	0.9844059
12	0x3f813c88	1.0096598
13	0x3f7eb3a6	0.9949287
14	0x3f83f6fd	1.030975
15	0x3f79e1e3	0.976103
16	0x3f7b1eaa	0.98093665
17	0x3f8460bb	1.034202
18	0x3f786d98	0.97042227
19	0x3f7a3fca	0.97753584
20	0x3f81495e	1.0100515
21	0x3f83eb93	1.0306267
22	0x3f81c49d	1.0138127
23	0x3f74690b	0.9547278
24	0x3f83b331	1.028906
25	0x3f7f7567	0.99788517
26	0x3f869119	1.051303
27	0x3f803795	1.0016962
28	0x3f8163bb	1.010856
29	0x3f81563d	1.0104443
30	0x3f785dab	0.97017926
31	0x3f7e64b1	0.9937239

body.block1.norm.bias f4 [32]
0	0xbd1a692e	-0.037697963
1	0xbab3a12c	-0.0013704649
2	0xbb8aa741	-0.004231364
3	0xb9f5897e	-0.0004683248
4	0xbcfe0916	-0.031010192
5	0x3b79c140	0.003810957
6	0xbd8badf4	-0.06820288
7	0xbd8615a0	-0.065470934
8	0xbd477b6d	-0.048701692
9	0xbce2a808	-0.027668014
10	0xbc45701b	-0.012050654
11	0x3c57a09e	0.013160853
12	0x3c4334d2	0.011914449
13	0xbd5336fc	-0.05156611
14	0x3b054a74	0.0020338567
15	0xbd0c8cf0	-0.034314096
16	0x3ba86d8a	0.005140011
17	0x3c6aeca9	0.014338651
18	0x3bf3592d	0.007426402
19	0xbcdc65cc	-0.02690401
20	0x3a617491	0.00086004386
21	0xbd6490cf	-0.055802163
22	0xbc9734a1	-0.018457713
23	0xbd062ae4	-0.032755747
24	0xbcaa785a	-0.020809341
25	0xbb979bf8	-0.004626747
26	0x3c886695	0.016650477
27	0xbd1e0fb7	-0.038589206
28	0x3a948ba3	0.0011333119
29	0xbd7ca3a0	-0.061679482
30	0x3bf75b25	0.007548707
31	0xbbbd18f8	-0.005770799

body.block1.norm.running_mean f4 [32]
0	0x3e38ca11	0.18045832
1	0xbe205852	-0.15658692
2	0x3d88a11d	0.06671355
3	0xbc4f0173	-0.012634623
4	0xbe9b6674	-0.30351603
5	0xbe3548bf	-0.17703532
6	0x3e3c7ea9	0.18407692
7	0x3d5f2207	0.05447581
8	0xbd42156d	-0.047383714
9	0xbea9d945	-0.33173576
10	0xbe969495	-0.29410234
11	0xbeca96a1	-0.39568046
12	0x3dc32bc8	0.09529835
13	0x3eacd1aa	0.3375371
14	0xbde8c6c7	-0.11366039
15	0x3dffb63f	0.124859326
16	0xbe433342	-0.19062522
17	0xbeebccb5	-0.46054617
18	0xbdb35165	-0.08755759
19	0xbd48a8e8	-0.048989207
20	0xbddbd428	-0.10733825
21	0x3e4cd38b	0.20002572
22	0x3bb6adaa	0.0055749016
23	0x3e21d533	0.15803985
24	0xbda7572f	-0.08170926
25	0x3e28acfc	0.16472238
26	0xbe8148c2	-0.25250822
27	0x3ec89dcf	0.39182898
28	0xbe8be005	-0.2731935
29	0xbe74d907	-0.23910914
30	0x3d3716f3	0.04469962
31	0xbe880071	-0.26562837

body.block1.norm.running_var f4 [32]
0	0x3e8443f9	0.2583311
1	0x3e3a2af7	0.18180452
2	0x3d8328ff	0.06404304
3	0x3d87e874	0.06636134
4	0x3ea1bc04	0.31588757
5	0x3e84c0ef	0.25928447
6	0x3d6d5fb0	0.057952583
7	0x3d570d20	0.05250275
8	0x3cd3f8e1	0.02587551
9	0x3df9d48d	0.12198744
10	0x3d9b2d4f	0.07577001
11	0x3dc66582	0.0968733
12	0x3d42d6f8	0.04756829
13	0x3e0d88fc	0.13821787
14	0x3da466f5	0.0802745
15	0x3d95ded0	0.07317889
16	0x3ddb19e3	0.10698297
17	0x3e0c6ff0	0.13714576
18	0x3d36d526	0.044636868
19	0x3dbef451	0.093239434
20	0x3d867323	0.06564929
21	0x3d959a41	0.07304812
22	0x3e1edcaf	0.15513872
23	0x3da5f3c0	0.08103132
24	0x3e08a009	0.13342299
25	0x3d2304ee	0.039799623
26	0x3dcdb3d8	0.10044068
27	0x3e035c85	0.12828262
28	0x3d4e0219	0.05029497
29	0x3dbe7185	0.09298996
30	0x3d422c13	0.047405314
31	0x3e245ac8	0.16050255

body.block2.conv.weight f4 [32, 32, 3, 3]
0	0xbbd154bf	-0.0063882763
1	0x3c0c19f2	0.008551108
2	0xbb421b9c	-0.0029618507
3	0x3d36c524	0.0446216
4	0xbb4968f6	-0.0030732728
5	0x3cef13e9	0.029184299
6	0xbba09e51	-0.0049016853
7	0x3c9e0285	0.01928831
8	0xbc5acf5a	-0.0133551005
9	0x3bed100e	0.00723458
10	0xbcb4f37b	-0.022088757
11	0xbb36ebda	-0.0027911575
12	0xbc658a18	-0.014009975
13	0xba3de5e8	-0.00072440365
14	0xbcda8d1e	-0.026678618
15	0xbba07a99	-0.0048974273
16	0x3c933617	0.017970128
17	0x3a5f3389	0.0008514454
18	0xbc55d3fe	-0.013051031
19	0x3cb3ed68	0.02196379
20	0x3d242647	0.040075567
21	0x3c8621cb	0.016373536
22	0x3c32f0c5	0.010921662
23	0xbb57e270	-0.0032941364
24	0xbc7ab095	-0.0153008895
25	0xba4f438d	-0.0007906489
26	0x3c3d6245	0.011559074
27	0xbba1c515	-0.004936824
28	0xbb1c560c	-0.0023855
29	0x3b2e3e8d	0.0026587576
30	0x3ccb920a	0.02484991
31	0x3ae375b4	0.0017353804
32	0xbbe75e15	-0.007060776
33	0x39aa1e65	0.00032447572
34	0x3b952168	0.0045511015
35	0x3ca815ba	0.020518173
36	0xbbe6e1b3	-0.0070459484
37	0x3cdc0bb6	0.026861053
38	0x3a4ac417	0.0007734908
39	0xbc34a065	-0.011024569
40	0xbd259f61	-0.0404352
41	0xbca14323	-0.019685334
42	0x3c3eeb5d	0.011652795
43	0x3c299833	0.0103512285
44	0x3cf16da1	0.02947122
45	0xbcc59513	-0.024118936
46	0x3d2b7b73	0.041865777
47	0x3bd6d24c	0.006555831
48	0xbccb3fee	-0.024810757
49	0x3c907d5a	0.017637897
50	0x3c2f466c	0.010697942
51	0xbb09d97b	-0.002103417
52	0xba612260	-0.0008588191
53	0xba56c5d8	-0.0008192933
54	0x3c8a067b	0.016848793
55	0xb80faee3	-3.4256733e-05
56	0x3ccc5c39	0.024946319
57	0x3c37a2e7	0.011208273
58	0x3c04da4c	0.008108687
59	0xbb8c77e9	-0.0042867553
60	0xbc14fb03	-0.009093049
61	0x3d2910f3	0.04127593
62	0xbce51e2a	-0.027968485
63	0xbc517357	-0.012783847
64	0xbcc24cb3	-0.023718214
65	0x3ca9f4c5	0.020746598
66	0xbcacc0c3	-0.02108801
67	0xbd0243e2	-0.03180302
68	0xbbd4f88d	-0.006499356
69	0x3ce6525f	0.02811545
70	0xbc7e48b4	-0.015520263
71	0xbccc67ee	-0.024951901
72	0x3cf797b4	0.030223705
73	0x3b2699b7	0.002542121
74	0x3c21c264	0.0098730065
75	0xbc471e8d	-0.01215328
76	0xbcea4f46	-0.028602254
77	0xbcd5040d	-0.026002908
78	0x3a94e728	0.0011360394
79	0x3c8ce50c	0.017199062
80	0xb9d6af9d	-0.00040948103
81	0x3c08b6a3	0.008344325
82	0xbd3c44c1	-0.045964006
83	0x3c9ce9a2	0.019154374
84	0xbbb6f64b	-0.0055835596
85	0xbc134be5	-0.008990263
86	0x3bbe6c09	0.0058112186
87	0xbbe7cbee	-0.007073871
88	0x3cff99d0	0.031201273
89	0x3cc25284	0.023720987
90	0xbc2210c6	-0.009891694
91	0xbac628a3	-0.0015118312
92	0xbc49bc76	-0.012312999
93	0xbc5ffda9	-0.013671317
94	0x3ce9e217	0.02855019
95	0x3d817889	0.063218184
96	0xbbccb54a	-0.0062471973
97	0xbc62582d	-0.013814968
98	0xba9f6073	-0.0012159481
99	0x3cce1231	0.025155159
100	0x3cb609c9	0.022221463
101	0x3c34af07	0.011028058
102	0x3c83a5ff	0.016070364
103	0xb950d4ce	-0.00019915702
104	0xbc1a86ba	-0.009431535
105	0x3bbff6ca	0.005858277
106	0xbbc935e9	-0.00614046
107	0xbced63ea	-0.028978307
108	0xbd003665	-0.031301875
109	0x3b84c4ec	0.004051795
110	0xbaa9237e	-0.0012904254
111	0xbc9727dd	-0.018451625
112	0x3c259709	0.01010681
113	0xbc0b335f	-0.008496135
114	0xbcba311f	-0.0227285
115	0xbcafcf78	-0.021461233
116	0xbcfd86f6	-0.030948143
117	0x3c3f76e2	0.011686059
118	0x3d2556df	0.04036605
119	0x3c82c8dd	0.01596492
120	0x3b9a93c0	0.00471732
121	0xbd0b78c9	-0.034050737
122	0xbba7bab0	-0.0051186904
123	0x3a90922b	0.001102989
124	0xbc980340	-0.018556237
125	0xbc101467	-0.008793927
126	0xbc861613	-0.016367948
127	0x3c307288	0.010769494
128	0x3b8ee44b	0.0043607107
129	0xbd01c6c6	-0.031683706
130	0x3c8a7821	0.016902985
131	0x3c37b73a	0.011213118
132	0x3a67389d	0.0008820387
133	0x3b267a7a	0.0025402592
134	0x3d5dc611	0.05414397
135	0x3d84da32	0.0648693
136	0xbce5b430	-0.028040022
137	0x3d4d325c	0.050096855
138	0x3cc1ace4	0.023642011
139	0x3cefcbad	0.029271925
140	0x3cb5e073	0.022201752
141	0xbcc26d65	-0.023733804
142	0xbca2a8b8	-0.019855842
143	0xbc8358b2	-0.016033504
144	0x3964db3d	0.00021825447
145	0x3b692a9b	0.0035578373
146	0x3cdf8868	0.027286723
147	0x3b15b983	0.002284617
148	0xbb1ed67f	-0.0024236736
149	0xbbe01561	-0.006838486
150	0xbbcda24d	-0.0062754513
151	0xbad21d06	-0.0016030378
152	0xbbf8c8b8	-0.007592287
153	0xbd1dd8d9	-0.03853688
154	0xbc7d27a3	-0.015451345
155	0xbc49da36	-0.012320092
156	0xbbcd83db	-0.006271822
157	0x3b13175a	0.0022444339
158	0xbbec2021	-0.0072059785
159	0xb8e3f5d0	-0.0001086999
160	0x3b994f03	0.0046786084
161	0xbc48f6c3	-0.012265864
162	0xbca6519b	-0.020302584
163	0x3c7d49b3	0.015459466
164	0x3d0ea23b	0.034822684
165	0xbcbcfe7f	-0.023070572
166	0x3d316096	0.043305002
167	0x3b1f27f1	0.0024285282
168	0x3c8c31b8	0.017113551
169	0x3d0d5926	0.034508847
170	0x3d0e7377	0.034778085
171	0x3c83e519	0.016100453
172	0x3c1d2c5b	0.009593095
173	0xbb542664	-0.0032371515
174	0x3d2bbe9e	0.041929834
175	0x3cb99251	0.022652777
176	0xbce772c0	-0.02825296
177	0xbcfbf7d7	-0.030757828
178	0x3cf286b8	0.029605255
179	0xbcbc6230	-0.022996038
180	0xbd500ce0	-0.05079353
181	0xbc2eb8ab	-0.010664145
182	0xbca35cd1	-0.01994172
183	0xbbc24332	-0.0059284205
184	0x3c93aeda	0.018027712
185	0xbcb5709e	-0.022148427
186	0x3cc296cc	0.023753546
187	0x3c8cfed7	0.01721136
188	0xbc98d52b	-0.018656334
189	0xbd09052d	-0.0334522
190	0xbce88eb1	-0.028388353
191	0xbc29057f	-0.010316252
192	0xbdb8c4eb	-0.09021934
193	0xbd27dcfc	-0.04098223
194	0xbc691475	-0.014226069
195	0xbc3d5427	-0.011555708
196	0xbc3c21fb	-0.011482711
197	0xbda2580b	-0.07926949
198	0xbd2417d7	-0.040061798
199	0x3bd1f918	0.006407868
200	0x3ba30174	0.0049745385
201	0xbbc2bcec	-0.0059429314
202	0xbc6f705a	-0.014614189
203	0x3c04aaf2	0.008097397
204	0xbcdf7eeb	-0.027282199
205	0xbb23565c	-0.00249233
206	0x3cb5df56	0.022201221
207	0xbc1ed58e	-0.00969447
208	0x3d20a1b1	0.0392167
209	0xbc93b539	-0.01803075
210	0x3c7baee5	0.015361522
211	0xbb87ac87	-0.00414044
212	0x3d1671a5	0.036729474
213	0x3c2ef690	0.010678902
214	0x3d745c55	0.059658367
215	0xbca9e17d	-0.020737404
216	0xbc3b83a3	-0.011444959
217	0xbd840464	-0.0644615
218	0x3ae8aaf9	0.0017751149
219	0xbc2aabaf	-0.010416909
220	0x3c87646d	0.016527379
221	0xbbe6bc9d	-0.0070415274
222	0x3bf81a0c	0.0075714644
223	0xbc0f35b9	-0.008740836
224	0xbceb1f0b	-0.028701326
225	0xbc97bd12	-0.018522773
226	0xbcbaab4f	-0.022786764
227	0xbc6d0ab5	-0.014467885
228	0xbc909384	-0.017648466
229	0x3ceb6fe2	0.028739873
230	0x3babd92a	0.005244394
231	0x3c479d71	0.012183533
232	0x3c098f91	0.008396045
233	0xbc2c1a70	-0.01050435
234	0x3c9ba414	0.018999137
235	0x3cf86528	0.030321673
236	0xbc0ea474	-0.008706201
237	0x3d0e2351	0.03470165
238	0xbae922dc	-0.0017786878
239	0xbd275c44	-0.040859476
240	0xbbe393d8	-0.0069451146
241	0xbbf332f8	-0.0074218474
242	0xb9ed2177	-0.00045229096
243	0x3aca46e0	0.0015432499
244	0xbbb7c5f4	-0.0056083146
245	0xbc8f0268	-0.017457202
246	0xbc5b0869	-0.013368704
247	0xbc26493d	-0.010149297
248	0x3caff9de	0.02148145
249	0xbd3952e9	-0.045245085
250	0xbbdc33e9	-0.0067200554
251	0xbcda983c	-0.02668392
252	0x3d124171	0.03570694
253	0xbcc9deae	-0.024642315
254	0x3c48676f	0.012231692
255	0x3c20a18c	0.009804141

body.block2.conv.bias f4 [32]
0	0x3c099d6b	0.008399348
1	0xbc91743a	-0.017755616
2	0x3c0255fe	0.007955072
3	0x3cc50645	0.024050841
4	0xbd63dc4c	-0.055630013
5	0xbcbd2e8c	-0.023093484
6	0xbd008b3c	-0.031382784
7	0xba92a8e9	-0.0011189255
8	0xbb9fa25d	-0.00487165
9	0x3cdb1bde	0.026746687
10	0xbbb950d7	-0.005655389
11	0x3d34cfe7	0.044143584
12	0xbd3bc9df	-0.045846816
13	0x3d004c97	0.03132304
14	0xbd43f592	-0.047841616
15	0xbccdfa1f	-0.025143681
16	0x3d1a202a	0.03762833
17	0x3d8425ef	0.06452548
18	0x3c8f8907	0.017521394
19	0xbd0b7920	-0.03405106
20	0xbd60fb1e	-0.054926984
21	0x3d325f45	0.043547887
22	0x3d30ed0b	0.04319481
23	0x3d3d3554	0.046193436
24	0xbd112ef5	-0.035445172
25	0x3c488491	0.012238638
26	0x3d23384f	0.039848622
27	0x3b4f171f	0.0031599475
28	0xbd4023ee	-0.046909265
29	0x3c0926b9	0.008371049
30	0x3c1d2be1	0.009592981
31	0x3d192134	0.03738518

body.block2.norm.weight f4 [32]
0	0x3f7f91ae	0.99831665
1	0x3f768ec7	0.9631161
2	0x3f82385d	1.0173451
3	0x3f845437	1.03382
4	0x3f7a2340	0.9771004
5	0x3f7ca0f3	0.9868309
6	0x3f7bd4fd	0.9837187
7	0x3f7cfa45	0.9881938
8	0x3f76f55f	0.96468157
9	0x3f809f25	1.0048567
10	0x3f80e6fd	1.0070492
11	0x3f883749	1.0641872
12	0x3f79bc2a	0.9755274
13	0x3f84c69f	1.0373114
14	0x3f7d359b	0.9890992
15	0x3f816b0e	1.0110795
16	0x3f86a9a8	1.0520525
17	0x3f7fa0ab	0.99854535
18	0x3f808ab6	1.0042331
19	0x3f7cbc9f	0.9872531
20	0x3f806212	1.0029929
21	0x3f808a5f	1.0042228
22	0x3f78a1b8	0.97121763
23	0x3f76904e	0.9631394
24	0x3f7c6730	0.9859495
25	0x3f765b76	0.9623331
26	0x3f808ed0	1.0043583
27	0x3f809ad4	1.004725
28	0x3f71f508	0.94514513
29	0x3f81dd86	1.0145729
30	0x3f836100	1.0263977
31	0x3f823850	1.0173435

body.block2.norm.bias f4 [32]
0	0xbd38bcd5	-0.04510196
1	0xbd40e182	-0.04709006
2	0xbcf704f7	-0.030153735
3	0xbb8a6fdb	-0.00422476
4	0xbd44de59	-0.04806361
5	0xbc4a2e4c	-0.01234014
6	0xbc4f51d5	-0.012653788
7	0xbc4d41af	-0.012527867
8	0xbd11c08a	-0.03558401
9	0x3bd51f94	0.0065040085
10	0xbd6fe5a4	-0.05856861
11	0xbc2b03c2	-0.010437908
12	0xbca91354	-0.0206391
13	0xbd06c542	-0.032902963
14	0xbcfb798c	-0.030697607
15	0xbb3a692a	-0.002844403
16	0xbd8746f8	-0.06605333
17	0x3bb18b0f	0.0054181884
18	0xbd00aa64	-0.031412497
19	0xbd10ae0a	-0.035322227
20	0xbd2a79de	-0.041620128
21	0xbd314674	-0.04328008
22	0xbc659124	-0.014011655
23	0xbd510831	-0.051033203
24	0xbd75956e	-0.05995696
25	0xbcad1443	-0.021127826
26	0xbccf15fa	-0.025279034
27	0xbc9f03e3	-0.019411033
28	0xbcdb754f	-0.026789336
29	0xbcac5a9d	-0.021039302
30	0xbcfd439a	-0.030916024
31	0x3cb6e0c2	0.02232397

body.block2.norm.running_mean f4 [32]
0	0xbdc98389	-0.098395415
1	0xbe90d8ca	-0.28290397
2	0xbe00fd26	-0.12596568
3	0xbcdcd5a9	-0.02695735
4	0x3e19136a	0.14948812
5	0xbe6f29af	-0.23355745
6	0x3ddd6c33	0.10811653
7	0xbe8970f5	-0.26843992
8	0x3e89d4e2	0.2692023
9	0x3dd61ce1	0.10454727
10	0xbaf2567e	-0.0018488911
11	0xbd020b45	-0.03174903
12	0xbdda0d4f	-0.1064707
13	0xbd2167b1	-0.03940553
14	0xbdc18c7a	-0.09450622
15	0xbed23ea7	-0.41063425
16	0xbe66c5c2	-0.22536376
17	0x3e1bf074	0.15228444
18	0xbc941f3a	-0.018081296
19	0xbeaa9c96	-0.3332259
20	0xbe85f1a3	-0.26160917
21	0xbe29821a	-0.16553536
22	0x3c063f50	0.008193806
23	0x3bb908a9	0.0056467843
24	0xbdd408a6	-0.10353212
25	0xbdd66fba	-0.10470529
26	0xbe1ac250	-0.15113187
27	0x3dc67275	0.096898
28	0x3d826a9b	0.0636799
29	0x3e1dd2a7	0.15412389
30	0xbe5271fd	-0.20551296
31	0xbe00d836	-0.12582478

body.block2.norm.running_var f4 [32]
0	0x3e2c8380	0.16847038
1	0x3d8f13d8	0.06986207
2	0x3df39df6	0.11895363
3	0x3dc35402	0.095375076
4	0x3d94cf1b	0.07266065
5	0x3dac3c36	0.08409922
6	0x3ef45301	0.47719577
7	0x3e09b991	0.13449694
8	0x3dd92bb4	0.10604039
9	0x3e1bad23	0.15202765
10	0x3dbc96d2	0.09208454
11	0x3d3aa96d	0.045571733
12	0x3e09466b	0.13405769
13	0x3d5fcb5d	0.0546373
14	0x3d6ed349	0.058306966
15	0x3d8e4067	0.069458775
16	0x3e1443c1	0.14478971
17	0x3d432963	0.04764689
18	0x3df313c7	0.118690066
19	0x3d8a8309	0.06763274
20	0x3d4263ce	0.047458462
21	0x3d94951f	0.07255005
22	0x3d835ecc	0.064145654
23	0x3d507a05	0.050897617
24	0x3cbe9f81	0.023269417
25	0x3cedcab2	0.029027317
26	0x3e8a0b4b	0.2696174
27	0x3db18db6	0.08669607
28	0x3d0dbcfc	0.034604058
29	0x3da6a3ab	0.08136686
30	0x3db49d90	0.08819115
31	0x3e117ecd	0.14208527

body.block3.conv.weight f4 [32, 32, 3, 3]
0	0xbcfae477	-0.030626519
1	0x3c67612d	0.01412229
2	0xbc6fe576	-0.01464211
3	0xbb95d190	-0.004572101
4	0x3cb5d05c	0.02219408
5	0x3ba96aab	0.0051701865
6	0x3cafaa18	0.021443412
7	0x3d24fbe5	0.040279288
8	0x3cc5b034	0.024131872
9	0x3b3f0341	0.0029146227
10	0xbc1355af	-0.0089925965
11	0x3bcd5934	0.0062667374
12	0x3ce8cf4a	0.028419156
13	0x3c1d8e29	0.009616413
14	0x3b0629a0	0.0020471588
15	0x3bbff7d5	0.0058584013
16	0x3d009e90	0.031401217
17	0xbc3f6d87	-0.011683828
18	0x3c6e236a	0.014534811
19	0x3c4915ea	0.012273291
20	0xbc9e7ab1	-0.019345613
21	0xbc60b8a0	-0.013715893
22	0x3bfa34c3	0.007635684
23	0xbd0e0980	-0.03467703
24	0xbc6b46f3	-0.014360177
25	0xbccfe6f5	-0.025378684
26	0xbd248455	-0.040165264
27	0xbc1473ae	-0.009060783
28	0xbb33e635	-0.0027450447
29	0x3c3e3b17	0.011610768
30	0x3cc7f252	0.02440754
31	0xbadfb644	-0.0017067869
32	0x3c5b56f7	0.013387433
33	0x3cf769a6	0.030201744
34	0x3ba4ebb9	0.005032983
35	0xbca8921e	-0.020577487
36	0x3ceb9422	0.028757159
37	0x3b440451	0.00299098
38	0x3c9b2011	0.018936189
39	0xbcb9d518	-0.022684619
40	0x3c04c0b1	0.008102582
41	0xbc21f7e5	-0.009885763
42	0x3b7181f6	0.0036851144
43	0xbbce2e5b	-0.006292147
44	0xbca7fee0	-0.020507276
45	0xbc7be7a1	-0.015375049
46	0x3bf3c7c8	0.0074395873
47	0x3c5d64d5	0.01351281
48	0x3b477436	0.0030434257
49	0xbbf9167b	-0.007601557
50	0x3d236485	0.039890785
51	0x3bcc64fb	0.0062376237
52	0xba3f34ea	-0.00072939566
53	0x3c25bf6d	0.01011644
54	0x3b65a147	0.0035038756
55	0xbcadd210	-0.02121833
56	0xbcd22727	-0.025653435
57	0x3c2a7f42	0.010406317
58	0x3c8e4c6d	0.017370427
59	0xbc069d83	-0.008216265
60	0x3ca38ec6	0.01996554
61	0x3cc37987	0.02386166
62	0xbb165dbc	-0.0022944054
63	0xbd354df2	-0.044263788
64	0xbca4984d	-0.020092154
65	0xbd014c7d	-0.031567086
66	0x3d2b48ec	0.04181759
67	0xbc527f0c	-0.012847673
68	0xbcd31dba	-0.02577101
69	0xbca0c95e	-0.01962727
70	0x3d087397	0.03331336
71	0xbc80a7ca	-0.015705008
72	0x3cadf33a	0.021234144
73	0xbc42cde6	-0.01188991
74	0x3cbb5395	0.022867003
75	0xbb646a6f	-0.0034853478
76	0x3cec47f7	0.02884291
77	0xbd0618da	-0.032738544
78	0x3d14b5fe	0.036306374
79	0x3cd796d0	0.02631703
80	0x3bf71296	0.0075400574
81	0x3c2c141f	0.010502844
82	0xbbf6b9c4	-0.007529469
83	0xbd40ddb1	-0.04708642
84	0xbc896afc	-0.016774647
85	0xbcdd5839	-0.027019607
86	0xbceb0803	-0.028690344
87	0xbba16d72	-0.004926377
88	0xbd4312ce	-0.047625355
89	0xbccff0f6	-0.025383454
90	0x3c2d2395	0.010567565
91	0xbc74eefc	-0.014949556
92	0xbb27b588	-0.0025590379
93	0xbba3ccf7	-0.004998799
94	0xbcd9f0f2	-0.02660415
95	0xbcb7c5c1	-0.022433164
96	0x3c14c3d2	0.00907989
97	0x3bbad2db	0.0057014055
98	0xbcd94268	-0.026520923
99	0x3cef52e5	0.029214332
100	0xbb6c3b3c	-0.0036046049
101	0xba108d6d	-0.0005514238
102	0x3c5a3ffd	0.01332092
103	0xbad817c3	-0.0016486574
104	0xbbca5138	-0.006174233
105	0xbd2cf755	-0.04222806
106	0xbcbfd8cf	-0.023418812
107	0xbd2021e3	-0.039094817
108	0xbd19628b	-0.037447494
109	0xbd0cee84	-0.034407154
110	0xbc450948	-0.012026139
111	0xbb73aa79	-0.0037180467
112	0x3ae9afbb	0.0017828861
113	0xbd04e151	-0.03244144
114	0xbb083faf	-0.0020789912
115	0x3cc3a9c3	0.02388466
116	0x3d094dbd	0.033521403
117	0xbc673da2	-0.0141138155
118	0x3c8d34e8	0.017237142
119	0xbcc42f1d	-0.023948247
120	0x3c8d2645	0.017230162
121	0x3bd67b55	0.006545464
122	0xbb16f9b5	-0.002303702
123	0xbce0665c	-0.027392559
124	0x3c91dbfd	0.017805094
125	0x3c983253	0.018578684
126	0x3ba3e15a	0.0050012292
127	0xbce38d7a	-0.027777422
128	0xbce419c9	-0.027844327
129	0xbc2bd395	-0.010487457
130	0xb8c40661	-9.3471965e-05
131	0x3ca8e2ac	0.020615898
132	0x3cd084ae	0.025453892
133	0xbc65e168	-0.014030792
134	0xbc46a18a	-0.012123475
135	0xbc91824a	-0.017762322
136	0x3d0003ca	0.031253614
137	0x3c8e31da	0.017357755
138	0xbd893871	-0.067002185
139	0xbc2c4712	-0.010514991
140	0xbd1f11fa	-0.038835503
141	0xbc39eadc	-0.011347499
142	0x3ce10122	0.02746636
143	0x3c6135c2	0.013745727
144	0x3d0188fe	0.031624787
145	0x399229e1	0.00027878492
146	0x3d1647b3	0.03668947
147	0xbcd5080b	-0.026004812
148	0xbae77185	-0.0017657733
149	0x3ce349e1	0.02774519
150	0xbc0bf640	-0.008542597
151	0x3bbff7c5	0.005858394
152	0x3d3a0b6c	0.04542105
153	0x3bf36d08	0.007428769
154	0x3a92053c	0.0011140476
155	0xbd181165	-0.037125964
156	0xbc9175ca	-0.017756362
157	0xbca6b99b	-0.020352175
158	0xbc7c8fac	-0.015415113
159	0x3d38184d	0.04494505
160	0xbb70c4ad	-0.0036738322
161	0xbc4fbcd7	-0.0126793
162	0x3c2bb038	0.010479026
163	0x3d403c71	0.04693264
164	0x3ce1c32a	0.027558882
165	0xbbd20213	-0.0064089387
166	0x3bee8a0d	0.0072796405
167	0xbd183340	-0.03715825
168	0xbbb508ed	-0.0055247457
169	0x3d245963	0.04012431
170	0xbc1939d3	-0.009352165
171	0xba14ca41	-0.000567589
172	0x3ca0d5b5	0.019633153
173	0x3b441f2b	0.0029925804
174	0x3d320622	0.04346288
175	0xbbb7a9f1	-0.0056049754
176	0x3cfc28a4	0.030781098
177	0xb9ec640a	-0.00045087963
178	0xbca16577	-0.019701703
179	0x3cb178c0	0.021664023
180	0xbd1030ba	-0.03520272
181	0xbd0f18ba	-0.03493569
182	0xbd47301a	-0.048629858
183	0x3bd8c9b6	0.0066158427
184	0xbcf21a97	-0.029553695
185	0x3d0ac5bd	0.033879984
186	0x3d2623ad	0.040561367
187	0xbb751fb5	-0.0037402932
188	0xbd2c59cc	-0.042077824
189	0xbc46e9a2	-0.012140663
190	0x3c060683	0.008180263
191	0x3c356c2b	0.011073153
192	0x3a8423d2	0.0010081476
193	0x3cbacf49	0.02280392
194	0x3bdee6d1	0.006802418
195	0xbc80d2ea	-0.015725572
196	0x3c0b907e	0.008518336
197	0x3ca65b66	0.020307254
198	0xbd2e4191	-0.042542998
199	0x3d5e5790	0.054282725
200	0xbcee7c82	-0.029112104
201	0xbd009152	-0.03138859
202	0x3c3e0bba	0.0115994755
203	0xbc13f177	-0.009029738
204	0xbb045822	-0.0020194133
205	0x3b1d45ef	0.0023997982
206	0xbba98e3a	-0.0051744254
207	0xbc826279	-0.015916096
208	0xbc9bd4bd	-0.01902234
209	0x3b67bf6e	0.0035361904
210	0x3b8fde38	0.004390504
211	0x3ca3d531	0.019999119
212	0x3b578cd5	0.003289034
213	0x3cfca498	0.030840203
214	0x3c47c10a	0.01219202
215	0x3ad67832	0.0016362725
216	0x3d1ce66c	0.038305685
217	0x3c8f3b58	0.017484352
218	0x3bdc4f33	0.0067233085
219	0x3c36ff27	0.0111692315
220	0x3bac755c	0.0052630138
221	0xbd588d1d	-0.05286895
222	0xbbabe65f	-0.0052459682
223	0x3c4e197a	0.012579316
224	0xbc1703cd	-0.009217215
225	0xbc8c1576	-0.017100077
226	0xbcebe051	-0.028793486
227	0xbc6421c1	-0.013924063
228	0x3b48465f	0.0030559523
229	0x3c1c137d	0.009526131
230	0x3b843101	0.004034162
231	0xbb4f58e1	-0.003163867
232	0xbc248664	-0.010041807
233	0x3d3e0155	0.04638799
234	0xbcd11b45	-0.025525698
235	0xbbed8f8d	-0.0072497786
236	0x3cb50d4b	0.022101065
237	0x3c0219e1	0.00794074
238	0xbcb50a5b	-0.022099664
239	0x3ca5d209	0.020241754
240	0x3d379c4c	0.04482679
241	0xba9e9014	-0.0012097382
242	0x3d5a9745	0.053366918
243	0x3cd3e4e4	0.02586598
244	0x3c4f1d84	0.012641314
245	0xbc6b6313	-0.014366883
246	0xbc02bdec	-0.007979851
247	0xbcd20af8	-0.025639996
248	0x3ce13816	0.027492564
249	0xbcd265a4	-0.025683232
250	0x3b1db596	0.0024064532
251	0x3a44ae23	0.0007502755
252	0xbcddbccd	-0.027067566
253	0xbc19df55	-0.009391625
254	0x3cc1ee22	0.02367312
255	0xbbbb0c39	-0.005708244

body.block3.conv.bias f4 [32]
0	0xbd24b204	-0.04020883
1	0x3b3628c3	0.0027795292
2	0xbc023ee6	-0.0079495665
3	0x3d625199	0.0552536
4	0xbc038de8	-0.008029439
5	0xbc0e5e62	-0.008689495
6	0x3c9a3e69	0.018828588
7	0x3d4a6bfe	0.049419396
8	0x3a2705be	0.00063714
9	0xbc7db557	-0.015485129
10	0xbcb30581	-0.02185321
11	0x3cd826b1	0.026385637
12	0x3ca20ad2	0.01978055
13	0xbd447906	-0.04796698
14	0x3c88671a	0.016650725
15	0x3cb3fd19	0.021971272
16	0xbc84b849	-0.016201155
17	0x3b576442	0.0032866155
18	0x3a7cab78	0.0009638588
19	0x3c28a9dc	0.010294404
20	0x3cdeeffb	0.027214041
21	0x3d12c7ff	0.035835262
22	0xba7e5aa5	-0.0009702838
23	0xbcc9637f	-0.024583576
24	0xbc1d76dc	-0.009610858
25	0x3cc94f20	0.024573863
26	0xbce07458	-0.027399227
27	0xbcd1e363	-0.025621122
28	0xbd29bdc5	-0.041440744
29	0x3d46adb4	0.0485055
30	0x3d008bb1	0.03138322
31	0xbbf89fc8	-0.007587407

body.block3.norm.weight f4 [32]
0	0x3f82f1c6	1.0230033
1	0x3f8356db	1.0260881
2	0x3f7b590e	0.9818276
3	0x3f7f239f	0.9966373
4	0x3f7ef817	0.99597305
5	0x3f842b93	1.0325798
6	0x3f822805	1.0168463
7	0x3f7aa209	0.97903496
8	0x3f747a1b	0.9549882
9	0x3f818775	1.0119463
10	0x3f7b890f	0.9825601
11	0x3f7d2f5f	0.9890041
12	0x3f7daf22	0.99095356
13	0x3f81e52f	1.0148066
14	0x3f83191f	1.0242041
15	0x3f749646	0.955418
16	0x3f78e27f	0.97220606
17	0x3f8264e2	1.0187037
18	0x3f87caa2	1.0608714
19	0x3f7aa161	0.97902495
20	0x3f7c671b	0.98594826
21	0x3f847660	1.0348625
22	0x3f81b4d7	1.0133313
23	0x3f797191	0.97438914
24	0x3f7c7dbe	0.9862937
25	0x3f7bc8b1	0.98353106
26	0x3f81e8d2	1.0149176
27	0x3f7923a8	0.9732003
28	0x3f7b6e0f	0.9821481
29	0x3f78630c	0.97026134
30	0x3f79f33c	0.9763677
31	0x3f7c34f5	0.98518306

body.block3.norm.bias f4 [32]
0	0xbca6df3b	-0.020370116
1	0xbca7832c	-0.02044829
2	0xbb9d72d2	-0.0048049474
3	0xbd06113a	-0.032731272
4	0xbc65e8de	-0.014032571
5	0x3b05c582	0.0020411913
6	0xbcb80cbb	-0.022467008
7	0xbca2b4f3	-0.019861674
8	0xbd0446d7	-0.03229412
9	0xbc3eac36	-0.011637738
10	0x3bdfd386	0.0068306355
11	0xbc47bf2d	-0.012191576
12	0x3b80301a	0.003911984
13	0x3b80f52a	0.003935476
14	0xbca65e46	-0.020308625
15	0xbc434584	-0.011918429
16	0xbc824f7d	-0.015907044
17	0xbb2ce87f	-0.0026383696
18	0xba9c3b8b	-0.0011919601
19	0xbc6774b9	-0.01412695
20	0xbc83296a	-0.016010959
21	0xb8ca3dca	-9.64362e-05
22	0xbb2b61ca	-0.0026150816
23	0x3c11339d	0.008862403
24	0xbb75e399	-0.0037519692
25	0x37d11d0d	2.492827e-05
26	0xbcb1bbc7	-0.021695985
27	0x3ac9d140	0.0015397444
28	0xbda38a43	-0.07985356
29	0xbcc5128e	-0.0240567
30	0xbc4eab57	-0.012614093
31	0xbc6e3707	-0.014539487

body.block3.norm.running_mean f4 [32]
0	0xbdc94251	-0.09827102
1	0xbe680114	-0.22656661
2	0xbe993adc	-0.2992772
3	0x3d98306a	0.07431109
4	0xbdf8358e	-0.1211959
5	0xbe1f496d	-0.15555353
6	0x3e047221	0.12934162
7	0x3d106c5c	0.03525959
8	0xbe82585e	-0.25458044
9	0xbe36f466	-0.17866668
10	0xbe907ca5	-0.28220096
11	0x3b61f398	0.0034477469
12	0x3dbc37d2	0.091903344
13	0xbe894238	-0.26808333
14	0x3ddd60cc	0.10809478
15	0x3e6126e2	0.21987489
16	0xbd8025d5	-0.06257216
17	0xbea1b0f7	-0.31580326
18	0xbe836a7d	-0.25667182
19	0xbc815552	-0.015787754
20	0x3cc8dbbe	0.024518844
21	0xbd309fcb	-0.04312114
22	0xbe00d81b	-0.12582438
23	0xbe64a489	-0.2232839
24	0xbe804cc2	-0.25058562
25	0xbe05fc02	-0.13084415
26	0x3d686a1d	0.056741823
27	0x3ddf9963	0.10917928
28	0xbdb8e69b	-0.090283595
29	0xbd9b13c3	-0.075721286
30	0xbdb91767	-0.09037667
31	0xbc324081	-0.010879637

body.block3.norm.running_var f4 [32]
0	0x3e81aad4	0.25325644
1	0x3d943e3a	0.07238431
2	0x3d9d0a90	0.0766803
3	0x3d23fbfe	0.04003524
4	0x3de8ddbf	0.1137042
5	0x3e184d97	0.14873348
6	0x3e565389	0.20930304
7	0x3e22c9fb	0.15897362
8	0x3e05d5af	0.13069795
9	0x3d00f5fd	0.031484593
10	0x3dedb259	0.11606283
11	0x3d73053d	0.059331167
12	0x3e2f9f90	0.17150712
13	0x3e15ac64	0.14616543
14	0x3eb30476	0.3496434
15	0x3e01b41d	0.12666364
16	0x3d188191	0.03723294
17	0x3dad2207	0.08453756
18	0x3e811fd6	0.252196
19	0x3dad6b3f	0.08467721
20	0x3e9a7432	0.30166775
21	0x3da13ee8	0.078733265
22	0x3d65d69e	0.056112878
23	0x3ec31d93	0.381085
24	0x3d756f72	0.059920736
25	0x3da6299d	0.08113406
26	0x3dee0062	0.11621167
27	0x3e302062	0.17199853
28	0x3d8bc9c1	0.06825591
29	0x3e02ca42	0.12772468
30	0x3f08fead	0.53513604
31	0x3d8ff580	0.07029247
