code/Output/seascape/pdl_e8000_1px_lr0.0001a50.0_up-conv5_1_W[1.0, 0.5, 0.1, 0.075, 0.075](1)/4/netG.pth (torch, 471621 bytes, 26 tensors)

head.conv.weight f4 [64, 3, 3, 3]
0.025884598 -0.0074845324 -0.008748746 0.0019437044 0.013884011 0.010081285 -0.018527972 -0.012034549
-0.02223239 0.0020437988 0.014444213 -0.008210123 0.014528578 -0.04300797 -0.031877957 -0.0517943
0.024537358 0.016066525 0.020365175 0.00837268 0.010511165 -0.028456287 0.003494943 0.015975224
-0.016190855 0.0025420464 -0.012480809 0.008268171 0.013393789 0.008110914 -0.0067132455 0.006910336
-0.015533272 -0.0067959307 0.011086854 -0.0048509943 -0.015028319 -0.017707126 -0.0038409135 -0.019156225
-0.014354253 -0.029588554 0.017410195 -0.030097902 -0.046569888 -0.047693882 -0.010167343 -0.002081404
0.0041296785 0.0063493135 -0.006900212 0.018670345 -0.00792988 0.018183121 0.019223837 -0.008947706
-0.01007411 0.008977908 0.022312835 0.02544953 0.026113428 -0.03839332 -0.004282545 -0.01478771
0.02704433 -0.034743924 0.008339044 0.0064996933 -0.014980786 0.022072328 -0.003945886 0.034912385
0.0005936544 0.027605746 -0.005180159 -0.00062335486 -0.026277477 -0.021742694 0.022941438 0.0042521674
-0.0005804093 0.0073677385 0.0030691708 -0.0007904362 -0.0029272488 0.02094248 -0.021888178 -0.029121075
-0.009697207 0.022531666 -0.028568605 0.0011355571 -0.011628433 -0.026624056 0.0051964475 -0.03321654
0.007299927 0.005065324 -0.0096486 0.0039772326 -0.019046968 0.004825901 -0.00016664076 0.011785648
-0.021460019 0.004472159 -0.013578982 -0.05065347 -0.00022318395 -0.0076481425 0.014568407 -0.0040248814
0.0072774463 -0.01310443 -0.010721962 -0.011934465 0.038158603 0.009271575 0.005939584 0.0030160013
-0.007164928 0.0025321085 -0.05808181 -0.00042968907 0.041822914 -0.0027557176 0.039228167 -0.017328886
-0.013861491 0.003374782 0.002866038 0.0069207465 -0.01446834 0.028746475 -0.017022794 -0.0009124721
-0.011578835 0.021110456 0.0076192725 -0.0072570047 -0.045490764 -0.0014973658 0.04316625 0.014649835
0.009038534 -0.0034535355 -0.011956593 -0.009853405 -0.03431337 -1.6763164e-05 -0.016812751 -0.008011894
-0.01858018 0.016547296 -0.006717966 0.0021925753 0.0039525027 -0.014863372 0.0078814225 -0.019942911
0.005591139 0.0040991227 -0.029156234 -0.012312486 -0.010803665 -0.017965479 0.0050583025 0.0026693086
0.02493897 0.014348104 0.024017561 -0.054252785 0.014448969 -0.017643152 0.02254817 0.0006188271
0.0091324225 0.03307073 -0.00021919758 0.004933261 -0.00027516545 0.008335162 0.017373066 0.023878314
0.019107364 -0.024823517 -0.017190317 -0.022551235 0.0023633947 0.008179639 0.01775563 -0.0028723178
-0.04195865 0.034533214 -0.0041986257 0.017675191 0.010096183 -0.041626815 0.016028943 -0.03554596
-0.0171134 -0.005166664 0.042344112 -0.011895269 -0.02181406 -0.0052427864 -0.009399445 -0.009337033
-0.0045958706 0.014841058 0.027667422 0.025713433 0.0008363626 0.0018698828 -0.00803188 0.01658421
0.0017943127 0.010733573 -0.056327656 -0.025118224 0.012632529 0.0028985748 0.009622289 -0.008273193
0.010186612 0.040540636 -0.011761146 0.002116949 -0.06403284 0.023825303 0.027575603 -0.0038576254
-0.02160351 -0.006443879 -0.01325892 -0.014842481 0.03513461 -0.012704428 0.0026952566 0.0011911286
-0.04975802 0.0022950387 0.005600665 -0.007355497 0.0178038 -0.007115539 0.007243667 -0.015154622
-0.033719297 0.02123708 -0.036977336 0.01683533 -0.026859378 0.018006898 -0.003628635 0.018795703
00000000: f00b d43c cf40 f5bb e656 0fbc e6c3 fe3a
00000010: c379 633c f92b 253c f9c7 97bc 8f2c 45bc
00000020: b320 b6bc 41f1 053b 6ca7 6c3c c083 06bc
00000030: 4609 6e3c 2029 30bd 7692 02bd 4326 54bd
00000040: 9202 c93c f29d 833c ded4 a63c 912d 093c
00000050: 0537 2c3c 291d e9bc 6a0b 653b 79de 823c
00000060: afa2 84bc 7698 263b 4f7c 4cbc 3977 073c
00000070: 9f71 5b3c a4e3 043c c9fa dbbb 1a70 e23b
00000080: 447f 7ebc 66b0 debb a3a5 353c 17f5 9ebb
00000090: 5739 76bc 890e 91bc d6b7 7bbb 84ed 9cbc
000000a0: 1a2e 6bbc b263 f2bc d39f 8e3c e08f f6bc
000000b0: 11c0 3ebd a95a 43bd ed94 26bc 2a68 08bb
000000c0: 4152 873b e70d d03b 2c1b e2bb 8df2 983c
000000d0: 54ec 01bc c5f4 943c 4f7b 9d3c 6699 12bc
000000e0: e10d 25bc 1318 133c 68c9 b63c 887b d03c
000000f0: d4eb d53c 5042 1dbd 9754 8cbb 2748 72bc
00000100: 128c dd3c a54f 0ebd 7ca0 083c 61fb d43b
00000110: f871 75bc 07d1 b43c 7e4c 81bb 4a00 0f3d
00000120: 799f 1b3a 7225 e23c 53be a9bb a368 23ba
00000130: dd43 d7bc bc1d b2bc afef bb3c c455 8b3b
00000140: 9c26 18ba 126d f13b 2424 493b 4735 4fba
00000150: 16d7 3fbb 908f ab3c d64e b3bc 528f eebc
00000160: 09e1 1ebc 5494 b83c b508 eabc f9d6 943a
00000170: 2f85 3ebc b11a dabc f646 aa3b 110e 08bd
00000180: 3a34 ef3b 04fb a53b 2915 1ebc 7253 823b
00000190: 6308 9cbc 9722 9e3b 4abc 2eb9 9718 413c
000001a0: eccc afbc 308b 923b 617a 5ebc 037a 4fbd
000001b0: 7c06 6ab9 459d fabb 54b0 6e3c 27e3 83bb
000001c0: a577 ee3b f7b3 56bc 2bab 2fbc c688 43bc
000001d0: 324c 1c3d cee7 173c d8a0 c23b 1ba8 453b
000001e0: c6c7 eabb bbf1 253b 31e7 6dbd e447 e1b9
000001f0: 814e 2b3d 4599 34bb b7ad 203d 4ff5 8dbc
00000200: 4f1b 63bc 722b 5d3b 23d4 3b3b 6ec7 e23b
00000210: 9e0c 6dbc ba7d eb3c 6373 8bbc f732 6fba
00000220: 27b5 3dbc d6ef ac3c 17ab f93b 2bcc edbb
00000230: 8654 3abd 4243 c4ba 18cf 303d dd05 703c
00000240: 5c16 143c b654 62bb 96e5 43bc 2d70 21bc
00000250: 2d8c 0cbd 9f9e 8cb7 e5ba 89bc 5244 03bc
00000260: 7635 98bc 328e 873c 6222 dcbb 4fb1 0f3b
00000270: ff83 813b 8085 73bc 1521 013c 515f a3bc
00000280: e035 b73b ef51 863b 0ed9 eebc 4fba 49bc
00000290: db01 31bc 572c 93bc 1ec0 a53b 91ef 2e3b
000002a0: d04c cc3c 4f14 6b3c 7ac0 c43c 2b38 5ebd
000002b0: 5ebb 6c3c 5f88 90bc f1b6 b83c c938 223a
000002c0: 28a0 153c 2c75 073d 67d8 65b9 31a7 a13b
000002d0: 1544 90b9 3490 083c f651 8e3c 749c c33c
000002e0: 0c87 9c3c b05a cbbc b5d2 8cbc 5ebd b8bc
000002f0: 2fe3 1a3b e403 063c 4174 913c 7f3d 3cbb
00000300: d5dc 2bbd b372 0d3d a094 89bb 90cb 903c
00000310: 766a 253c e180 2abd 214f 833c a498 11bd
00000320: 6731 8cbc 1e4d a9bb 0571 2d3d 60e4 42bc
00000330: 66b3 b2bc aecb abbb 2100 1abc 5bfa 18bc
00000340: f598 96bb e927 733c caa6 e23c faa4 d23c
00000350: 583f 5b3a db16 f53a 2598 03bc 9cdb 873c
00000360: 252f eb3a dedb 2f3c d4b7 66bd bcc4 cdbc
00000370: abf8 4e3c 04f6 3d3b cea6 1d3c 498c 07bc
00000380: bfe5 263c f00d 263d d2b1 40bc 83bc 0a3b
00000390: a623 83bd 482d c33c 3be6 e13c 37d0 7cbb
000003a0: d8f9 b0bc 2d27 d3bb f13b 59bc e12d 73bc
000003b0: 4fe9 0f3d 3c26 50bc e7a2 303b a51f 9c3a
000003c0: 11cf 4bbd 5c68 163b c985 b73b 6206 f1bb
000003d0: 46d9 913c 7829 e9bb 485c ed3b 174b 78bc
000003e0: 3f1d 0abd 63f9 ad3c 8c75 17bd 3fea 893c
000003f0: 3308 dcbc 3483 933c 65ce 6dbb 72f9 993c

head.conv.bias f4 [64]
0.022321481 -0.14255217 -0.030488737 0.1707383 0.12022878 0.14075126 -0.13311946 -0.16768342
0.061123352 -0.1480174 -0.044585012 -0.10761932 0.14855948 -0.06616694 -0.008319942 -0.18707958
-0.15083632 -0.072041556 0.025578886 -0.092314616 0.1794056 -0.18614441 0.07114371 -0.19585632
0.034021292 0.17215477 0.0021713066 0.10229741 -0.029765176 0.16053948 -0.0687123 0.14031278
0.009830092 0.03287451 -0.12121289 -0.14983325 0.0475472 -0.14858003 0.083692335 -0.13691926
-0.04508504 -0.058610085 0.14765416 -0.028889477 0.12999421 0.17426908 0.07412438 0.099949114
-0.0054217433 0.11999149 -0.12971461 0.108001135 0.024785656 -0.06051392 0.052790184 0.01627812
0.18346956 0.016274609 -0.032036208 -0.01671697 0.022801224 -0.055875253 0.14913724 0.09710189
00000000: 8adb b63c 32f9 11be 84c3 f9bc 05d6 2e3e
00000010: 823a f63d 1921 103e 7850 08be 34b5 2bbe
00000020: 7b5c 7a3d e091 17be c69e 36bd 8567 dcbd
00000030: fa1f 183e 8882 87bd 5e50 08bc ca91 3fbe
00000040: d674 1abe 868a 93bd d08a d13c 720f bdbd
00000050: 1ab6 373e a49c 3ebe cbb3 913d 8f8e 48be
00000060: e959 0b3d 5749 303e 7b4c 0e3b 4e81 d13d
00000070: 19d6 f3bc 7664 243e 09b9 8cbd 27ae 0f3e
00000080: 650e 213c 6ca7 063d 773e f8bd e36d 19be
00000090: dac0 423d 5d25 18be e366 ab3d 9034 0cbe
000000a0: 17ab 38bd 2111 70bd a732 173e a0a9 ecbc
000000b0: 341d 053e 9873 323e 86ce 973d 1fb2 cc3d
000000c0: e1a8 b1bb 19be f53d e8d3 04be b32f dd3d
000000d0: 4a0b cb3c 72dd 77bd 853a 583d b159 853c
000000e0: 72df 3b3e 5452 853c 6638 03bd 07f2 88bc
000000f0: a2c9 ba3c 73dd 64bd 6fb7 183e 5bdd c63d

head.norm.weight f4 [64]
0.9655929 1.0103847 1.0141739 0.9733981 1.0154659 1.0136105 0.9993866 1.0068166
0.9597457 0.98622787 1.0066118 1.0158474 1.047631 1.0100684 0.98137766 1.0161314
0.9871449 1.021008 1.0368714 1.0001388 0.9778099 0.99899906 1.0490806 1.0113304
1.0098488 1.0262102 0.9892931 1.0164068 0.9877991 1.0038732 0.9996905 0.9829812
0.9973803 1.0424834 1.0039017 0.9919264 1.0287852 0.9940166 1.028913 1.0061129
1.0156887 1.0032582 0.9925284 1.0246112 0.99227273 0.98837507 1.0069263 0.9916944
0.9617371 0.98367536 0.9789699 1.0273304 0.99803334 0.9674037 1.0184616 0.9943867
1.0053238 0.993427 0.99272114 0.989671 1.0272379 0.9680693 1.0034138 0.98801345
00000000: 1931 773f 4954 813f 73d0 813f 9e30 793f
00000010: c9fa 813f fdbd 813f cdd7 7f3f 5edf 803f
00000020: e5b1 753f 6e79 7c3f a8d8 803f 4a07 823f
00000030: c618 863f ec49 813f 913b 7b3f 9810 823f
00000040: 87b5 7c3f 64b0 823f 34b8 843f 8c04 803f
00000050: c051 7a3f 67be 7f3f 4648 863f 4673 813f
00000060: ba42 813f db5a 833f 5042 7d3f 9e19 823f
00000070: 67e0 7c3f eb7e 803f b7eb 7f3f a8a4 7b3f
00000080: 5154 7f3f 1970 853f da7f 803f e3ee 7d3f
00000090: 3caf 833f df77 7e3f 6cb3 833f 4fc8 803f
000000a0: 1602 823f c46a 803f 5716 7e3f 7626 833f
000000b0: 9605 7e3f 2606 7d3f f6e2 803f afdf 7d3f
000000c0: 6734 763f 26d2 7b3f c59d 7a3f 907f 833f
000000d0: 1d7f 7f3f c5a7 773f f35c 823f 2090 7e3f
000000e0: 73ae 803f 3b51 7e3f f922 7e3f 145b 7d3f
000000f0: 887c 833f 64d3 773f dd6f 803f 73ee 7c3f

head.norm.bias f4 [64]
-0.015776427 -0.015756214 -0.010098757 -0.0060526766 -0.007611803 -0.0022002119 -0.019382931 -0.0128709
-0.0010312767 -0.019003112 -0.007804136 -0.0027516312 -0.0143098775 -0.0057551134 -0.0039360696 -0.01096224
-0.01036689 0.026632113 -0.023453178 -0.01597154 -0.01927721 -0.023780342 0.023931777 0.0023306604
-0.0015973706 -0.014742886 -0.0205395 -0.0035633387 -0.010705308 -0.0009166675 0.007802921 -0.02862203
-0.004927245 -0.018086696 -0.00029771478 0.0041479985 -0.0040114624 -0.0016930994 0.010833632 0.011427339
-0.016452786 -0.014653516 -0.0029896996 -0.019820929 -0.008640538 -0.008116504 -0.009042884 0.0014827237
-0.024191132 -0.00087874447 -0.0055299443 -0.009122906 -0.009973581 -0.0059029157 -0.011572327 -0.012501292
-0.0016387895 -0.010576587 -0.022116417 -0.015938127 -0.020745153 -0.01840009 -0.010569128 -0.01602143
00000000: 913d 81bc 2d13 81bc 4275 25bc 8855 c6bb
00000010: 6e6c f9bb 6e31 10bb f4c8 9ebc 78e0 52bc
00000020: e72b 87ba 6aac 9bbc d6b9 ffbb b654 34bb
00000030: fa73 6abc 6495 bcbb 25fa 80bb f89a 33bc
00000040: e3d9 29bc 972b da3c e120 c0bc bfd6 82bc
00000050: 3deb 9dbc fece c2bc 930c c43c febd 183b
00000060: dd5e d1ba 258c 71bc 7442 a8bc e786 69bb
00000070: 5165 2fbc 844c 70ba a5af ff3b bf78 eabc
00000080: ba74 a1bb 8d2a 94bc 9a16 9cb9 efeb 873b
00000090: 9672 83bb fdea ddba 8c7f 313c bc39 3b3c
000000a0: fec7 86bc 4d15 70bc d6ee 43bb 805f a2bc
000000b0: 0b91 0dbc 16fb 04bc 9b28 14bc f457 c23a
000000c0: 7b2c c6bc 8b5b 66ba 8934 b5bb 3e78 15bc
000000d0: 3b68 23bc 3f6d c1bb dc99 3dbc 38d2 4cbc
000000e0: a7cc d6ba 6c49 2dbc 7d2d b5bc ad90 82bc
000000f0: bdf1 a9bc c9bb 96bc 232a 2dbc 603f 83bc

head.norm.running_mean f4 [64]
0.007609202 -0.16832416 -0.018110253 0.15546824 0.12048751 0.12687224 -0.13091874 -0.17956503
0.053289823 -0.15632978 -0.052980214 -0.10311609 0.14675301 -0.07795094 -0.0006963907 -0.17774512
-0.13144152 -0.09410042 0.013862058 -0.12013538 0.18015303 -0.17323495 0.06445145 -0.19250536
0.027563134 0.17511484 -0.0045945854 0.12264148 -0.026728304 0.17523655 -0.07265092 0.14160866
0.010917502 0.02624946 -0.16167545 -0.1545622 0.04732839 -0.1642959 0.084107116 -0.15381345
-0.05798895 -0.08105429 0.1525052 -0.020496963 0.16841368 0.18395096 0.04735014 0.09119518
-0.007271698 0.094249524 -0.12952797 0.09830435 0.0019507293 -0.08014354 0.048372846 0.006868438
0.20357816 0.0057405396 -0.02720514 -0.005930099 0.028047401 -0.051953975 0.14997287 0.09775788
00000000: 9d56 f93b 2b5d 2cbe f45b 94bc 1133 1f3e
00000010: 28c2 f63d ccea 013e 900f 06be e5df 37be
00000020: 6e46 5a3d ea14 20be c801 59bd 872e d3bd
00000030: 6c46 163e bea4 9fbd fd8d 36ba d102 36be
00000040: 9b98 06be b9b7 c0bd af1d 633c 8a09 f6bd
00000050: 097a 383e 8164 31be 1fff 833d 2020 45be
00000060: 15cc e13c 4e51 333e 2d8e 96bb 752b fb3d
00000070: 51f5 dabc 3671 333e 01ca 94bd dc01 113e
00000080: 53df 323c 1c09 d73c 408e 25be 8e45 1ebe
00000090: 6adb 413d 2f3d 28be 5a40 ac3d 4681 1dbe
000000a0: d285 6dbd cbff a5bd 532a 1c3e 3fe9 a7bc
000000b0: a374 2c3e a45d 3c3e 38f2 413d 8ac4 ba3d
000000c0: 6d47 eebb e505 c13d fba2 04be cb53 c93d
000000d0: 9daf ff3a 4c22 a4bd 9b22 463d a210 e13b
000000e0: cb76 503e 231b bc3b 50dd debc 4751 c2bb
000000f0: aac3 e53c b1cd 54bd 7d92 193e 4935 c83d

head.norm.running_var f4 [64]
0.0005021929 0.0019815671 0.0004980142 0.0020733047 9.838549e-05 0.00037423868 0.00027443873 0.00015923135
0.00077652273 0.0010440185 0.00021823178 0.00026789634 0.00046839906 0.00071404275 0.0007038709 0.00043980018
0.0006497107 0.000507013 0.00024997213 0.0013441782 0.0003863614 0.0016100706 8.484131e-05 0.0017297022
0.00018999416 0.00031023112 0.00035190774 0.0005743977 0.0006008428 0.0015038362 0.00014555042 0.00013261392
0.0009266238 0.00026831805 0.00944013 0.0008931833 0.00042327767 0.00041867193 0.00015168841 0.00029015588
0.00018990492 0.0024319065 0.00088804745 0.00014874636 0.002713083 0.003825528 0.0012395277 0.00013373945
0.00010142745 0.0012480015 0.00050517585 0.00016318996 0.00071237644 0.0006383247 0.0006588567 0.0013151654
0.0011754629 0.0007436436 0.0006236146 0.00048557943 0.0009881357 0.0014182328 0.0003387933 0.0007921359
00000000: 98a5 033a 2edd 013b 2b8d 023a 48e0 073b
00000010: 4f54 ce38 7735 c439 8be2 8f39 57f7 2639
00000020: 8f8f 4b3a 73d7 883a 26d5 6439 7074 8c39
00000030: 7593 f539 992e 3b3a fa83 383a fb94 e639
00000040: 5951 2a3a 11e9 043a b10e 8339 232f b03a
00000050: 8d90 ca39 0109 d33a d5ec b138 2db7 e23a
00000060: 2b39 4739 84a6 a239 4280 b839 2d93 163a
00000070: e181 1d3a 5f1c c53a e59e 1839 470e 0b39
00000080: ace8 723a 0aad 8c39 c6aa 1a3c 8424 6a3a
00000090: 5eeb dd39 3281 db39 8c0e 1f39 1020 9839
000000a0: 3721 4739 9f60 1f3b dbcb 683a ccf8 1b39
000000b0: fbcd 313b b6b5 7a3b a677 a23a 693c 0c39
000000c0: 73b5 d438 fb93 a33a c76d 043a f91d 2b39
000000d0: c6be 3a3a 3f55 273a 20b7 2c3a a161 ac3a
000000e0: fd11 9a3a 14f1 423a 117a 233a 5e95 fe39
000000f0: 5584 813a ffe3 b93a 11a0 b139 57a7 4f3a

body.block1.conv.weight f4 [64, 64, 3, 3]
-0.05603715 0.023715543 -0.03965023 0.030456508 -0.008490439 -0.010509245 0.0047649783 -0.002649073
-0.018036183 0.033411708 0.029306414 -0.02282927 -0.004070686 -0.0038825262 0.000605904 -0.03009231
0.035976946 0.033796206 -0.027589114 -0.023132104 -0.021504244 -0.010253219 0.024995161 0.017112117
0.043882485 0.033067066 0.015182121 0.024462033 0.0145991715 0.013649526 -0.013108604 0.013701528
0.011784566 0.027046433 0.014849083 0.006173071 -0.010007942 -0.0099418685 0.040649865 -0.013366458
0.0076267044 0.018513313 0.0025037455 -0.0008614468 -0.042639755 -0.018571265 0.0074515054 -0.015454581
0.006517473 -0.012092078 -0.019719608 -0.009992171 -0.0032484832 0.020632263 0.043379754 0.012106584
0.01009245 0.036067307 0.015875317 0.020189993 -0.009301468 -0.0055733835 -0.017277202 0.006858829
-0.045451563 -0.059242632 0.008423852 0.0061141998 0.018623844 0.033376556 0.0044488334 0.0078962445
0.08144915 0.04912854 -0.005225059 0.028334862 -0.0015213212 0.017077493 -0.024780419 0.026249796
0.0048108585 0.038975183 0.023653157 0.015316233 -0.01384071 0.016769862 0.030745694 -0.005618921
0.015567481 0.01476924 0.041059487 -0.003507156 0.016031336 0.005122905 0.0061144396 0.0066874498
0.02890159 0.017353876 0.029766027 0.0055559166 0.0037227552 0.0067015006 0.013726195 -0.031771604
0.017224316 0.016814122 -0.00036374934 -0.03377153 -0.0095619485 -0.00412671 0.028693331 -0.011342416
0.006499162 0.022849593 -0.0027530552 -0.017961362 -0.01469829 -0.017366193 -0.021341115 -0.019128978
-0.025038809 -0.0050182664 -0.007750749 -0.0472371 0.053962525 -0.016805459 -0.038968842 0.007584788
-0.042929847 -0.007063948 -0.008119819 0.0077717146 -0.0011945389 -0.0063862647 0.002083413 -0.010308866
-0.009032337 0.002806308 -0.011143517 0.005079729 0.025631856 -0.0024385464 -0.009602943 -0.033037994
0.015058824 -0.017303431 -0.039815847 -0.015723703 -0.048053112 -0.043457117 -0.0018962475 0.044183217
0.02853799 -0.007329944 0.012608496 -0.020733545 0.011622335 0.011994728 0.009052443 0.0037475147
0.01312141 -0.021236327 -0.01716892 0.0078052008 0.031116167 -0.0051312894 -0.009512257 -0.047017988
0.00027243 -0.025123002 -0.0009437031 -0.029653402 -0.01361083 -0.0018370022 -0.009040912 0.009932005
-0.015835917 -0.00685432 -0.026748097 -0.003069099 0.03192526 0.00029447128 -0.014668959 -0.04648026
0.004966269 0.00072415656 0.036861494 -0.016260168 -0.00210188 0.013089213 0.04530735 -0.007707323
-0.013605872 0.034476448 0.009952973 0.025081344 -0.0057936446 0.025296306 -0.022361957 -0.004037312
-0.016065046 -0.036625966 0.005587765 -0.015707776 0.051775523 0.016621863 -0.0032382102 -0.01413697
-0.013545961 0.0032704351 0.012201498 -0.038001314 -0.020970067 0.015309534 -0.019577418 0.002936682
-0.050576527 0.013480735 -0.0008674055 -0.0023816128 0.02133454 -0.013253474 -0.01133397 -0.006611813
-0.038066585 0.030863728 -0.0069085667 -0.024525443 -0.0068117715 0.02584254 -0.0069586276 -0.019028867
-0.009571796 -0.00230521 0.009393639 0.007655826 -0.012882948 -0.030571025 -0.016799772 0.00193278
0.03857466 0.035118707 0.010866373 -0.006677342 0.012249072 0.011145817 -0.021592084 0.033176925
0.01584058 -0.015125232 0.013720018 0.0020821053 0.021758134 0.005451543 0.00899938 0.032977153
00000000: 3687 65bd 1947 c23c 4868 22bd ed7f f93c
00000010: 7b1b 0bbc f82e 2cbc 8923 9c3b 129c 2dbb
00000020: 9ec0 93bc b7da 083d 0114 f03c 7304 bbbc
00000030: 6463 85bb fb71 7ebb 87d5 1e3a 2684 f6bc
00000040: 905c 133d e46d 0a3d 9102 e2bc 8a7f bdbc
00000050: ab29 b0bc 1efd 27bc a7c2 cc3c b62e 8c3c
00000060: 1fbe 333d 5571 073d 6ebe 783c 9a64 c83c
00000070: 5d31 6f3c 43a2 5f3c 78c5 56bc 607c 603c
00000080: 0d14 413c 7b90 dd3c 9149 733c 7947 ca3b
00000090: 5af8 23bc 38e3 22bc 7980 263d fdfe 5abc
000000a0: 6fe9 f93b 3ba9 973c e115 243b b7d2 61ba
000000b0: 06a7 2ebd c422 98bc c22b f43b 3635 7dbc
000000c0: 8790 d53b da1d 46bc 048b a1bc 34b6 23bc
000000d0: 81e4 54bb fe04 a93c f8ae 313d b25a 463c
000000e0: ce5a 253c 50bb 133d f40c 823c 7c65 a53c
000000f0: 2f65 18bc eea0 b6bb eb88 8dbc 07c0 e03b
00000100: 6b2b 3abd 67a8 72bd 3204 0a3c a059 c83b
00000110: 0891 983c dbb5 083d 85c7 913b 405f 013c
00000120: d0ce a63d 023b 493d f936 abbb 831e e83c
00000130: 1267 c7ba 19e6 8b3c 4e00 cbbc d009 d73c
00000140: 68a4 9d3b 71a4 1f3d 44c4 c13c f0f0 7a3c
00000150: 25c4 62bc f360 893c 65de fb3c ed1e b8bb
00000160: bf0e 7f3c affa 713c fe2d 283d 50d8 65bb
00000170: 2654 833c 0bde a73b a35b c83b 6522 db3b
00000180: 07c3 ec3c b729 8e3c e2d7 f33c 680e b63b
00000190: 78f9 733b 4398 db3b d6e3 603c f122 02bd
000001a0: 021a 8d3c c5bd 893c 9cb5 beb9 0454 0abd
000001b0: b8a9 1cbc 5a39 87bb 470e eb3c 8ad5 39bc
000001c0: ecf6 d43b 122f bb3c 9a6c 34bb b523 93bc
000001d0: 19d1 70bc 8c43 8ebc 90d3 aebc 60b4 9cbc
000001e0: 301e cdbc 4570 a4bb fff9 fdbb b07b 41bd
000001f0: cf07 5d3d 9aab 89bc cb9d 1fbd d089 f83b
00000200: 35d7 2fbd b178 e7bb fd08 05bc dea9 fe3b
00000210: 1392 9cba df43 d1bb df89 083b 85e6 28bc
00000220: 5efc 13bc 09ea 373b 4c93 36bc db73 a63b
00000230: e6f9 d13c 05d0 1fbb aa55 1dbc d952 07bd
00000240: 49b9 763c edbf 8dbc f115 23bd ffce 80bc
00000250: 57d3 44bd 1700 32bd 828b f8ba 76f9 343d
00000260: 81c8 e93c 0730 f0bb dd93 4e3c 65d9 a9bc
00000270: 9b6b 3e3c 8985 443c b350 143c dd98 753b
00000280: 2ffb 563c cef7 adbc d6a5 8cbc c5c2 ff3b
00000290: 55e7 fe3c 6024 a8bb 4cd9 1bbc ef95 40bd
000002a0: f0d4 8e39 c1ce cdbc d862 77ba b1eb f2bc
000002b0: f5ff 5ebc 91c7 f0ba 5520 14bc d9b9 223c
000002c0: 53ba 81bc 349a e0bb d31e dbbc f022 49bb
000002d0: 10c4 023d 4463 9a39 1356 70bc 1662 3ebd
000002e0: 15bc a23b 53d5 3d3a 14fc 163d 0b34 85bc
000002f0: b2bf 09bb 2374 563c 3394 393d b68d fcbb
00000300: 2aeb 5ebc 2d37 0d3d cb11 233c 6477 cd3c
00000310: 9dd8 bdbb 333a cf3c 6c30 b7bc 6e4b 84bb
00000320: d89a 83bc 1c05 16bd 9219 b73b 98ad 80bc
00000330: 9212 543d 932a 883c 2738 54bb c09e 67bc
00000340: e1ef 5dbc cc54 563b cbe8 473c 44a7 1bbd
00000350: 6bc9 abbc d7d4 7a3c d260 a0bc 5975 403b
00000360: 5529 4fbd 4dde 5c3c 9962 63ba d514 1cbb
00000370: c6c5 ae3c 1925 59bc 1eb2 39bc e8a7 d8bb
00000380: b5eb 1bbd eed5 fc3c 4261 e2bb 95e9 c8bc
00000390: 4835 dfbb bcb3 d33c 3305 e4bb 6de2 9bbc
000003a0: 06d3 1cbc 0213 17bb c7e7 193c b9dd fa3b
000003b0: 0013 53bc 1670 fabc ad9f 89bc 5655 fd3a
000003c0: 7600 1e3d a2d8 0f3d df08 323c 9bcd dabb
000003d0: 55b0 483c f29c 363c e2e1 b0bc 87e4 073d
000003e0: 1bc4 813c d2cf 77bc edc9 603c ee73 083b
000003f0: 1d3e b23c dba2 b23b 2372 133c 0d13 073d

body.block1.conv.bias f4 [64]
-0.00477868 0.015300206 -0.02068336 -0.029920174 0.038356483 -0.010724175 -0.038826823 0.007795582
-0.0151698915 -0.0028455632 0.010111161 0.005700816 0.041497607 0.029277435 0.029602738 0.011430652
-0.033359844 0.016559789 0.023001894 -0.015730767 -0.0039383443 0.031538565 0.023184998 -0.026351245
-0.006352827 -0.015658228 0.020335332 -0.033079714 -0.032709762 -0.027664168 0.0007023767 -0.009965857
-0.0032549335 0.0233895 0.038719367 0.009382467 0.022593489 -0.016304169 -0.013677244 -0.006074804
0.015413604 -0.018064952 0.022252027 0.009692117 0.010640446 0.027690526 0.02693933 0.041885585
-0.002512725 0.016918609 0.008571816 -0.028291976 -0.002681855 0.020915525 -0.017451609 -0.036180258
-0.027761213 0.009254481 0.0341111 0.029670507 0.012666322 -0.019815853 -0.008971685 0.019923585
00000000: 7996 9cbb b7ad 7a3c 2670 a9bc 271b f5bc
00000010: b01b 1d3d 73b4 2fbc e008 1fbd 1572 ff3b
00000020: 238b 78bc a17c 3abb 48a9 253c e9cd ba3b
00000030: 65f9 293d 3bd7 ef3c 7181 f23c a147 3b3c
00000040: 55a4 08bd 65a8 873c 786e bc3c cfdd 80bc
00000050: 3a0d 81bb 952e 013d 77ee bd3c 91de d7bc
00000060: 602b d0bb af45 80bc 4896 a63c 987e 07bd
00000070: acfa 05bd f79f e2bc b41f 383a d547 23bc
00000080: b950 55bb 569b bf3c 3398 1e3d ebb8 193c
00000090: fb15 b93c 5290 85bc 8516 60bc 260f c7bb
000000a0: 5789 7c3c f3fc 93bc e249 b63c afcb 1e3c
000000b0: 4455 2e3c 3ed7 e23c dfaf dc3c 3890 2b3d
000000c0: 88ac 24bb e598 8a3c cd70 0c3c 93c4 e7bc
000000d0: 10c2 2fbb 0957 ab3c adf6 8ebc c031 14bd
000000e0: 7c6b e3bc 1ba0 173c 15b8 0b3d 900f f33c
000000f0: 6886 4f3c db54 a2bc f9fd 12bc c936 a33c

body.block1.norm.weight f4 [64]
0.9902455 1.0219126 1.0026869 0.9971185 1.040631 0.98800516 1.0101985 1.0080185
0.98167497 1.0050159 1.0134991 1.010113 1.0066615 1.0047922 1.0114925 1.0223567
0.9814476 1.0328312 0.98971385 0.9697916 0.9806835 1.0089103 1.0159149 1.0046878
0.9732913 1.0094929 1.0327859 0.9888637 1.0066184 1.0172476 1.0067217 0.97536606
0.9877593 1.0223098 0.99176973 0.99756444 1.0286934 1.0034999 0.96991163 1.0225466
0.98273116 1.0066676 1.0277227 1.024918 0.99309427 0.9938695 0.9756632 0.9673035
1.0077695 1.0039223 1.034751 0.9838346 0.9972192 1.033608 0.9481838 1.0087142
1.0270612 1.0344163 0.99085367 0.98871106 0.9854849 1.0046992 0.96033686 0.99293476
00000000: bb80 7d3f 08ce 823f 0b58 803f 2843 7f3f
00000010: 6633 853f e8ed 7c3f 2f4e 813f c006 813f
00000020: 0d4f 7b3f 5ca4 803f 57ba 813f 624b 813f
00000030: 49da 803f 089d 803f 9678 813f 96dc 823f
00000040: 2640 7b3f d033 843f e35d 7d3f 4344 783f
00000050: 130e 7b3f f923 813f 8009 823f 9c99 803f
00000060: 9e29 793f 1037 813f 5432 843f 2c26 7d3f
00000070: dfd8 803f 2b35 823f 42dc 803f 97b1 793f
00000080: cbdd 7c3f 0cdb 823f 9fe4 7d3f 6260 7f3f
00000090: 3aac 833f af72 803f 214c 783f cfe2 823f
000000a0: 4594 7b3f 7cda 803f 6b8c 833f 8330 833f
000000b0: 6d3b 7e3f 3b6e 7e3f 10c5 793f 34a1 773f
000000c0: 97fe 803f 8780 803f b972 843f 96dc 7b3f
000000d0: c249 7f3f 444d 843f 2cbc 723f 8c1d 813f
000000e0: be76 833f c167 843f 96a8 7d3f 2b1c 7d3f
000000f0: bd48 7c3f fc99 803f a3d8 753f f930 7e3f

body.block1.norm.bias f4 [64]
-0.009739291 -0.0052973744 -0.038519893 -0.008023166 -0.009867796 -0.006886199 -0.022773037 -0.009796225
-0.015005601 -0.013527387 -0.0061345585 -0.002997153 -0.005969668 0.0008901197 -0.0043706046 -0.000797094
0.0040283483 -0.0024628208 0.007255286 -0.0053947824 -0.01245533 -0.012735295 -0.007085629 -0.009401144
-0.003219939 -0.025518164 -0.008061168 -0.011868342 -0.010383566 0.0024272692 -0.004607866 -0.001023419
-0.021141425 -0.024983112 -0.0030923297 -0.0077500837 -0.0053119976 -0.004426621 0.0058371834 -0.0026283837
-0.010109822 -0.015509942 -0.0056701386 -0.015658895 -0.012140506 -0.0052734436 0.0040974524 -0.019591155
0.00013581246 -0.0060162987 0.004014943 -0.013103044 -0.011009501 -0.007923016 -0.00809966 -0.01305343
-0.0031354045 -0.013052734 -0.0028989199 -0.0034258899 -0.003030946 -0.0029253052 -0.011168391 0.00023705978
00000000: 8c91 1fbc 9995 adbb 09c7 1dbd 9973 03bc
00000010: 89ac 21bc a0a5 e1bb 858e babc 5880 20bc
00000020: 0dda 75bc f9a1 5dbc 6804 c9bb e26b 44bb
00000030: 349d c3bb ec56 693a 4a37 8fbb 13f4 50ba
00000040: 3c00 843b 4767 21bb c0bd ed3b b7c6 b0bb
00000050: 7111 4cbc b3a7 50bc 902e e8bb 4207 1abc
00000060: 9d05 53bb 780b d1bc fd12 04bc 6f73 42bc
00000070: d51f 2abc d212 1f3b 95fd 96bb 3e24 86ba
00000080: c830 adbc 62a9 ccbc afa8 4abb 6af4 fdbb
00000090: 4410 aebb 300d 91bb d845 bf3b f640 2cbb
000000a0: aba3 25bc 691d 7ebc 92cc b9bb 1547 80bc
000000b0: f9e8 46bc dacc acbb ec43 863b a17d a0bc
000000c0: e168 0e39 5f24 c5bb c88f 833b 26ae 56bc
000000d0: 3261 34bc 8acf 01bc 70b4 04bc 0ede 55bc
000000e0: 5c7b 4dbb 22db 55bc cefb 3dbb e584 60bb
000000f0: d6a2 46bb 7ab6 3fbb a1fb 36bc 4093 7839

body.block1.norm.running_mean f4 [64]
0.30695736 -0.23765188 0.47679225 0.08738439 -0.17316903 -0.3494904 -0.08947809 -0.1644569
-0.40129954 0.25904608 0.3594837 0.19811732 0.049784675 -0.19886164 -0.5672937 -0.23290716
0.3551988 -0.28630996 0.09516255 -0.5244119 -0.06111141 -0.21160306 -0.004413715 0.24638733
0.006593097 -0.30189928 -0.15467395 0.18816257 0.32209477 -0.00120616 0.068412974 -0.108725846
0.15713723 -0.2849943 0.25811762 0.07533419 -0.07004622 -0.2622655 -0.5271947 -0.4201706
-0.019317616 0.0032813423 0.008872369 0.18759738 0.1371363 0.22752789 -0.21641105 0.20314531
0.062627554 0.15753196 -0.11302363 -0.13169852 -0.21135263 0.44033453 0.038260333 0.0230956
-0.29861823 -0.20733696 0.054381832 0.021177698 0.016400186 -0.007334248 -0.007688482 -0.2209119
00000000: 8429 9d3e 045b 73be 1d1e f43e 96f6 b23d
00000010: 3953 31be 68f0 b2be 4a40 b7bd 6467 28be
00000020: 2277 cdbe b0a1 843e 3f0e b83e 44df 4a3e
00000030: 04eb 4b3d 63a2 4bbe 293a 11bf 377f 6ebe
00000040: 9edc b53e 3897 92be 95e4 c23d dc3f 06bf
00000050: f54f 7abd 79ae 58be eda0 90bb f64c 7c3e
00000060: e80a d83b 8b92 9abe d962 1ebe b0ad 403e
00000070: 9be9 a43e 0418 9eba 1a1c 8c3d a8ab debd
00000080: 95e8 203e c6ea 91be fe27 843e d048 9a3d
00000090: 6574 8fbd aa47 86be 3bf6 06bf 9a20 d7be
000000a0: fa3f 9ebc ca0b 573b 6a5d 113c 8719 403e
000000b0: 756d 0c3e 12fd 683e dc9a 5dbe 5305 503e
000000c0: e042 803d 0f50 213e ef78 e7bd fadb 06be
000000d0: d36c 58be 8773 e13e deb6 1c3d fc32 bd3c
000000e0: 7de4 98be 2450 54be 7cbf 5e3d da7c ad3c
000000f0: af59 863c 2254 f0bb a9ef fbbb bb36 62be

body.block1.norm.running_var f4 [64]
0.119250886 0.2941848 0.0513606 0.26523224 0.11715785 0.14540897 0.064613186 0.043115858
0.062892064 0.09187666 0.09684892 0.034769382 0.08329919 0.051152647 0.10397585 0.093291044
0.15112329 0.06325356 0.14176251 0.068475656 0.18627758 0.057180367 0.10573696 0.08660566
0.21511643 0.071879335 0.0922345 0.05567036 0.28912723 0.062784426 0.26245356 0.09115333
0.13799316 0.0739083 0.15864871 0.13248472 0.0804331 0.08046426 0.34070885 0.07152971
0.06371509 0.14382322 0.111435294 0.08930903 0.09441825 0.0798628 0.06892731 0.10997938
0.296043 0.0661613 0.112845205 0.055317298 0.08198607 0.14012672 0.1982024 0.15814821
0.09544385 0.08067767 0.06642388 0.06685642 0.098032996 0.14397296 0.20819515 0.07870505
00000000: cf39 f43d 649f 963e 7e5f 523d 85cc 873e
00000010: 74f0 ef3d 17e6 143e eb53 843d 419a 303d
00000020: 8ecd 803d d529 bc3d ba58 c63d 576a 0e3d
00000030: c498 aa3d 7085 513d 4af1 d43d 600f bf3d
00000040: 10c0 1a3e 158b 813d 312a 113e f73c 8c3d
00000050: 8dbf 3e3e f635 6a3d 9f8c d83d 4f5e b13d
00000060: 7b47 5c3e 7935 933d 71e5 bc3d 9a06 643d
00000070: 7c08 943e 1f95 803d 5060 863e 99ae ba3d
00000080: 144e 0d3e 3c5d 973d cf74 223e 13aa 073e
00000090: 1cba a43d 72ca a43d 6471 ae3e 2b7e 923d
000000a0: 0f7d 823d 6546 133e 3038 e43d a7e7 b63d
000000b0: 5b5e c13d 1c8f a33d c329 8d3d df3c e13d
000000c0: f392 973e 937f 873d 631b e73d 6494 623d
000000d0: 50e8 a73d 617d 0f3e 92f5 4a3e 9bf1 213e
000000e0: 1178 c33d 563a a53d 3e09 883d 05ec 883d
000000f0: 86c5 c83d a66d 133e 1c31 553e 1d30 a13d

body.block2.conv.weight f4 [64, 64, 3, 3]
0.012846652 -0.009115122 0.01247287 0.0011537471 0.03291662 -0.014258238 -0.02280712 -0.00950766
-0.016482761 0.01527422 0.008395135 -0.015044628 0.0080452 0.0034398553 0.041345127 -0.015694989
-0.047556292 0.006229121 -0.026549261 0.020425074 0.028134255 0.0011544961 0.0074296175 -0.008286902
-0.010275641 0.024161173 -0.021623755 -0.03722549 -0.024615886 0.013080595 -0.0320383 -0.006125983
-0.032138772 0.0059782453 0.0025328316 0.000417084 -0.00046995052 0.029134084 0.020111457 -0.011412405
0.012220243 -0.022432819 -0.010868968 0.00066700584 0.0053613284 0.0125643 0.00694554 -0.019676553
0.03964289 0.028741688 -0.040454682 0.004245243 -0.018417504 -0.019000832 -0.024063589 0.014699001
0.021486467 0.0054962677 -0.023136443 0.010450817 -0.044701166 -0.009472051 -0.0004585687 -0.022122983
-0.015292281 -0.008556511 0.0053053773 0.008448158 0.014379287 0.006742127 -0.039167974 -0.009452157
0.023464192 -0.03503752 0.0033477882 -0.014215517 0.022540439 0.007893823 -0.015260137 -0.002738125
-0.016511017 0.015380437 -0.008568275 -0.009031679 0.008639928 -0.007191465 -0.012911076 -0.028821489
-0.041300207 0.0010331671 -0.016916033 0.025520075 0.006308943 -0.048168857 -0.029801765 -0.03471489
-0.02692276 -0.0054522804 0.0005798926 0.00797493 -0.00027274972 0.004667335 0.019202188 0.008756474
0.008694074 -0.003351452 -0.017713448 -0.0066817426 0.013279575 -0.015700113 0.009889292 -0.0016753236
0.006984244 -0.010339928 0.009338847 0.002646311 0.00779113 0.01900171 0.018554522 -0.015905324
0.011627088 0.0021983243 -0.0059309653 -0.00063067203 0.029358486 0.0062941876 0.0039231684 -0.014090914
0.008056715 -0.016051978 -0.044003733 0.01053637 0.023847654 -0.012462165 0.037407424 0.015722917
-0.00012461463 0.0040038144 -0.025968766 -0.035671394 -0.020706601 -0.0007289683 0.034022383 0.013465776
0.0061882087 -0.012069979 -0.004668833 0.040215343 -0.018890046 0.008339254 0.01463605 0.012593139
-0.014902764 -0.0115514165 -0.037206788 0.019694908 0.02717477 -0.028729174 -0.016508106 -0.010885932
-0.010575709 0.00013744496 0.010352631 -0.04248296 -0.0066926354 -0.022928044 -0.016081544 0.0021045296
0.00372326 -0.029628567 -0.0028451239 -0.0046658074 0.022127476 0.02366364 -0.037176047 -0.02231224
-0.0004841087 -0.0191468 -0.014000914 -0.01471567 -0.026046125 -0.02519067 -0.043558903 -0.005935577
0.013980214 -0.0028769455 0.003302271 0.012292806 -0.008291136 0.027254568 0.034643218 0.027428264
-0.030016305 0.007360133 -0.0064465506 -0.011215583 0.011870377 0.01259382 -0.028049348 -0.0064483513
0.0016505466 0.013834459 -0.039688095 0.013736894 -0.03390599 0.020437721 0.006859767 -0.009704423
-0.0071454593 0.0039080954 -0.010799678 0.020048698 0.0020923316 0.02377152 -0.012595456 0.029644947
-0.03227773 -0.021520706 0.005970389 0.0030217522 0.0046862015 -0.0031018755 0.0025971015 -0.00028347183
-0.028588243 0.006335518 -0.015932951 0.008800549 0.015754921 -0.014482404 -0.0044094776 0.04535464
-0.013338111 0.0016224551 6.695464e-05 -0.014106424 0.031255294 -0.030945964 -0.0025864216 0.015539292
-0.035717774 0.028632142 0.009289911 -0.015893364 -0.002353207 -0.028358707 -0.015707236 0.020473579
0.047477614 -0.014544083 -0.034483958 -0.0011708762 -0.00014372171 0.018555205 0.015196818 -0.052972455
00000000: c47a 523c 9857 15bc 025b 4c3c 5439 973a
00000010: 94d3 063d 629b 69bc ffd5 babc 04c6 1bbc
00000020: db06 87bc b940 7a3c c08b 093c be7d 76bc
00000030: 04d0 033c 326f 613b 8259 293d c792 80bc
00000040: 63ca 42bd a71d cc3b d67d d9bc 7c52 a73c
00000050: cf79 e63c 7652 973a 2674 f33b c9c5 07bc
00000060: 2a5b 28bc a7ed c53c 4d24 b1bc c179 18bd
00000070: 41a7 c9bc fe4f 563c 983a 03bd 78bc c8bb
00000080: f2a3 03bd 28e5 c33b ddfd 253b 11ac da39
00000090: b163 f6b9 9aaa ee3c c8c0 a43c 19fb 3abc
000000a0: 6a37 483c 08c5 b7bc c213 32bc 01da 2e3a
000000b0: 15ae af3b 7eda 4d3c 6a97 e33b b930 a1bc
000000c0: 9560 223d b073 eb3c cfb3 25bd ae1b 8b3b
000000d0: 4ee0 96bc a2a7 9bbc 0121 c5bc 14d4 703c
000000e0: 6304 b03c 091a b43b a388 bdbc e739 2b3c
000000f0: 9218 37bd a930 1bbc 0d6c f0b9 423b b5bc
00000100: 7a8c 7abc 9c30 0cbc bbd8 ad3b 256a 0a3c
00000110: 1a97 6b3c 0fed dc3b 996e 20bd 38dd 1abc
00000120: fa37 c03c 8183 0fbd 9166 5b3b 33e8 68bc
00000130: baa6 b83c 1855 013c a705 7abc 1d72 33bb
00000140: 1d42 87bc 3afe 7b3c f361 0cbc 9bf9 13bc
00000150: 7c8e 0d3c 61a6 ebbb fa88 53bc 0b1b ecbc
00000160: 682a 29bd 566b 873a 7e93 8abc 7a0f d13c
00000170: 40bb ce3b b54c 45bd d522 f4bc 3331 0ebd
00000180: 1f8d dcbc 0ba9 b2bb ef03 183a 48a9 023c
00000190: d9ff 8eb9 72f0 983b e84d 9d3c 5077 0f3c
000001a0: 9771 0e3c 09a4 5bbb cb1b 91bc 85f2 dabb
000001b0: 9392 593c 869d 80bc b206 223c 8896 dbba
000001c0: 16dc e43b cd68 29bc f701 193c bb6d 2d3b
000001d0: bc4c ff3b 79a9 9b3c a7ff 973c e24b 82bc
000001e0: 8b7f 3e3c c311 103b 8b58 c2bb af53 25ba
000001f0: 3581 f03c 793f ce3b ec8d 803b 94dd 66bc
00000200: 5000 043c 707f 83bc 423d 34bd bda0 2c3c
00000210: 285c c33c 1c2e 4cbc 8738 193d 59cd 803c
00000220: fcaa 02b9 6e32 833b 73bc d4bc 2b1c 12bd
00000230: e4a0 a9bc 3c18 3fba 0e5b 0b3d 8f9f 5c3c
00000240: 75c6 ca3b 29c1 45bc 03fd 98bb d8b8 243d
00000250: 4cbf 9abc 5ea1 083c 0bcc 6f3c 7453 4e3c
00000260: b92a 74bc 2742 3dbc 2566 18bd 3757 a13c
00000270: a09d de3c 7259 ebbc 023c 87bc e85a 32bc
00000280: bd45 2dbc 1a1f 1039 159e 293c 9d02 2ebd
00000290: e54d dbbb 98d3 bbbc 71bd 83bc 26ec 093b
000002a0: f001 743b 9cb7 f2bc 4275 3abb a1e3 98bb
000002b0: ae44 b53c 40da c13c e945 18bd 29c8 b6bc
000002c0: f8cf fdb9 c0d9 9cbc 1764 65bc fe19 71bc
000002d0: af5e d5bc aa5c cebc d26a 32bd 3b7f c2bb
000002e0: 440d 653c 238b 3cbb ea6a 583b c467 493c
000002f0: 8bd7 07bc f944 df3c 0ce6 0d3d 3db1 e03c
00000300: c1e4 f5bc 452d f13b 963d d3bb 91c1 37bc
00000310: f87b 423c 4f56 4e3c bfc7 e5bc b14c d3bb
00000320: 2757 d83a eda9 623c fc8f 22bd b610 613c
00000330: 02e1 0abd 026d a73c e5c7 e03b 4dff 1ebc
00000340: 7524 eabb 7b0f 803b 22f1 30bc 2b3d a43c
00000350: 801f 093b 7ebc c23c 2c5d 4ebc f6d9 f23c
00000360: a735 04bd 314c b0bc 41a3 c33b 9708 463b
00000370: b58e 993b d648 4bbb 2234 2a3b f29e 94b9
00000380: e431 eabc 2d9a cf3b d285 82bc 2e30 103c
00000390: 7710 813c 9b47 6dbc 617d 90bb c9c5 393d
000003a0: 1888 5abc 8fa8 d43a 006a 8c38 a11e 67bc
000003b0: 8d05 003d 6482 fdbc f480 29bb 8498 7e3c
000003c0: cd4c 12bd f48d ea3c b634 183c cd32 82bc
000003d0: 4338 1abb 8550 e8bc 76ac 80bc 35b8 a73c
000003e0: e377 423d 4e4a 6ebc 0d3f 0dbd 1678 99ba
000003f0: 01b4 16b9 1601 983c 13fc 783c a5f9 58bd

body.block2.conv.bias f4 [64]
-0.005156648 -0.017945005 0.025820417 0.012813935 0.021718927 -0.033847947 0.01802703 -0.03990592
0.017936064 -0.036076415 0.038138017 -0.02242077 -0.0011793642 0.017793637 -0.028363219 -0.02561933
-0.0018244116 -0.027571503 0.040443502 -0.02878627 0.006013763 0.035066023 -0.0334504 0.0109392665
0.02604615 0.015733885 -0.0140690105 0.010343224 0.034810532 0.0070244716 0.016939247 -0.0034141014
-0.02254915 -0.008659501 -0.007059129 0.024920944 -0.017365718 0.038681205 0.009240542 -0.03690295
0.036596734 0.027274633 0.022229714 0.028864782 0.0031428044 0.025492512 0.014988104 -0.037150417
-0.009701524 0.019592071 -0.03621658 -0.02363602 -0.014323978 -0.0013671946 0.035784494 -0.0227522
0.009257707 -0.009234526 -0.016123718 -0.005215081 -0.031683393 0.013720676 -0.016107919 0.0028457441
00000000: 19f9 a8bb 6701 93bc 5785 d33c 8af1 513c
00000010: e4eb b13c 25a4 0abd 6cad 933c 6474 23bd
00000020: a7ee 923c ddc4 13bd 9c36 1c3d c3ab b7bc
00000030: e594 9aba f6c3 913c fb59 e8bc a1df d1bc
00000040: 1821 efba a2dd e1bc 16a8 253d 2fd1 ebbc
00000050: 1a0f c53b 64a1 0f3d 4903 09bd 9c3a 333c
00000060: bc5e d53c 59e4 803c b581 66bc a076 293c
00000070: 7d95 0e3d 8a2d e63b 2dc4 8a3c 1ebf 5fbb
00000080: ffb8 b8bc 94e0 0dbc 4450 e7bb 0227 cc3c
00000090: 8d42 8ebc 2f70 1e3d a465 173c 8c27 17bd
000000a0: 75e6 153d 0d6f df3c 171b b63c d675 ec3c
000000b0: 82f7 4d3b acd5 d03c aa90 753c 092b 18bd
000000c0: 24f3 1ebc 8d7f a03c d657 14bd 54a0 c1bc
000000d0: 1eaf 6abc 7033 b3ba c392 123d d262 babc
000000e0: a3ad 173c 694c 17bc e315 84bc 45e3 aabb
000000f0: 72c6 01bd b0cc 603c c1f4 83bc aa7f 3a3b

body.block2.norm.weight f4 [64]
1.0153005 0.99269277 0.9935164 0.9943884 1.0070778 1.0470884 0.9773185 1.0179232
1.0010128 0.9797045 1.0104825 1.0098625 0.99139494 1.0100294 1.0208035 0.9899779
0.9973873 1.0044866 0.977334 1.0004565 0.95046747 0.9572149 0.9746733 0.9930029
1.0157654 1.0045772 1.0157062 1.0408865 0.988316 1.0033284 0.9613476 0.97256273
1.0082474 0.96588767 1.0014594 1.0154837 1.0230347 0.9732107 0.9748395 0.9363582
0.9993651 0.9985832 1.0231788 1.0038244 1.0102695 0.99173474 1.0165031 1.0340629
0.98159814 1.0236804 0.9805744 1.039939 1.0147078 1.0598717 0.9785624 1.017343
0.99625504 1.0323665 0.9905738 1.0053598 1.0518597 0.9975252 0.9653667 0.9495976
00000000: 5ef5 813f 1d21 7e3f 1757 7e3f 3d90 7e3f
00000010: ede7 803f fe06 863f 8c31 7a3f 4f4b 823f
00000020: 3021 803f eacd 7a3f 7e57 813f 2d43 813f
00000030: 0fcc 7d3f a548 813f b0a9 823f 316f 7d3f
00000040: c654 7f3f 0493 803f 9032 7a3f f50e 803f
00000050: d651 733f 090c 753f 3084 793f 7035 7e3f
00000060: 9a04 823f fc95 803f a902 823f c53b 853f
00000070: 4702 7d3f 116d 803f e01a 763f dff9 783f
00000080: 400e 813f 6a44 773f d22f 803f 5ffb 813f
00000090: cdf2 823f 5624 793f 158f 793f 2cb5 6f3f
000000a0: 64d6 7f3f 26a3 7f3f 86f7 823f 517d 803f
000000b0: 8350 813f 54e2 7d3f c61c 823f 2c5c 843f
000000c0: 044a 7b3f f607 833f ed06 7b3f b91c 853f
000000d0: f2e1 813f e0a9 873f 1183 7a3f 4c38 823f
000000e0: 920a 7f3f 9624 843f 3f96 7d3f a1af 803f
000000f0: 57a3 863f d05d 7f3f 4622 773f d418 733f

body.block2.norm.bias f4 [64]
0.009097619 -2.3091765e-05 -0.0067920894 0.005866111 -0.0026424553 -0.023143997 -0.0019573192 -0.012214713
-0.010567057 -0.0024507747 0.0060398243 -0.0028787125 -0.01909429 -0.00872572 -0.0016347325 0.009885638
-0.007053006 -0.004214073 -0.007093803 0.0006526439 -0.0040807584 -0.016228115 0.0011685134 -0.0076997573
-0.0095288 -0.007308486 0.0025718636 -0.00135749 -0.0056078024 -0.007905564 -0.008344039 0.0045634652
-0.007858152 0.0034206584 0.010677232 -0.0002326909 -0.0004912827 -0.0034948792 -0.015123236 -0.0037644487
0.0014652058 -0.016237836 -0.005540509 -6.9193666e-05 -0.00325677 -0.033196516 0.011708385 -0.0020056136
0.00040722135 -0.008920955 -0.0014542191 -0.008954337 -0.009360699 -0.0053064986 0.00078688364 -0.01128151
-0.0012094849 -0.010275025 -0.0039155674 -0.008344489 -0.0023564387 -0.0049123196 -0.009220151 -0.0044995975
00000000: 2e0e 153c 30b5 c1b7 2d90 debb 8138 c03b
00000010: 0b2d 2dbb 7b98 bdbc 5e46 00bb 3820 48bc
00000020: 7321 2dbc 2d9d 20bb b8e9 c53b c8a8 3cbb
00000030: a16b 9cbc 53f6 0ebc 8544 d6ba 5ff7 213c
00000040: e71c e7bb 3516 8abb 2273 e8bb 3116 2b3a
00000050: e2b7 85bb d3f0 84bc ce28 993a 3f4e fcbb
00000060: af1e 1cbc 067c efbb b68c 283b ceed b1ba
00000070: a8c1 b7bb 5786 01bc 70b5 08bc 1f89 953b
00000080: 7abf 00bc 202d 603b 8fef 2e3c 7dfe 73b9
00000090: 6dc9 00ba 580a 65bb 73c7 77bc f8b4 76bb
000000a0: 260c c03a 3605 85bc 288d b5bb 111c 91b8
000000b0: 896f 55bb 12f9 07bd 87d4 3f3c 9d70 03bb
000000c0: 5380 d539 3229 12bc 7f9b beba 36b5 12bc
000000d0: 9e5d 19bc 23e2 adbb de46 4e3a 15d6 38bc
000000e0: 9487 9eba 9458 28bc 294e 80bb 53b7 08bc
000000f0: 7b6e 1abb 86f7 a0bb 1e10 17bc 5c71 93bb

body.block2.norm.running_mean f4 [64]
-0.22405057 -0.21441501 0.33234692 -0.009717061 -0.07949592 -0.31670704 -0.042324953 0.016081192
-0.05997757 -0.008090174 -0.04366918 0.13312566 0.12925403 -0.26862413 0.22137013 -0.24606375
-0.06688709 0.21597832 -0.17330007 -0.21690765 -0.10968558 -0.036950193 -0.31793126 -0.085612535
-0.112584874 -0.43062413 -0.12391715 -0.29817006 0.23661663 0.18192405 0.18843764 -0.09888512
0.18534683 -0.286469 0.05385299 0.03880658 -0.10746243 0.08279132 0.29287833 -0.031614438
-0.37337604 -0.024822455 0.15577717 -0.17486186 0.11689973 0.080885015 0.04629785 0.007996191
0.2735209 0.14506297 -0.2698744 -0.18092763 0.055559974 -0.24723187 -0.15486394 -0.2318611
0.058431152 -0.0106625175 0.27472863 0.0783079 -0.25135678 -0.20099016 -0.039818212 -0.08270937
00000000: 836d 65be 9c8f 5bbe 6029 aa3e 4f34 1fbc
00000010: c2ce a2bd 6d27 a2be ee5c 2dbd b4bc 833c
00000020: 0aab 75bd a68c 04bc 74de 32bd 1852 083e
00000030: 2b5b 043e 1a89 89be daae 623e 23f8 7bbe
00000040: 19fc 88bd 6c29 5d3e 9375 31be 0a1d 5ebe
00000050: d5a2 e0bd 1659 17bd e3c7 a2be a055 afbd
00000060: e692 e6bd c47a dcbe 46c8 fdbd bfa9 98be
00000070: a14b 723e 4c4a 3a3e ccf5 403e 4884 cabd
00000080: 8fcb 3d3e 11ac 92be f494 5c3d a6f3 1e3d
00000090: 4315 dcbd 7f8e a93d 26f4 953e 247e 01bd
000000a0: 252b bfbe 7658 cbbc 0d84 1f3e fd0e 33be
000000b0: 2069 ef3d 0ba7 a53d d0a2 3d3d 7502 033c
000000c0: ee0a 8c3e 638b 143e fa2c 8abe 1845 39be
000000d0: db92 633d 5a2a 7dbe a794 1ebe ff6c 6dbe
000000e0: 8155 6f3d d7b1 2ebc 3ba9 8c3e e45f a03d
000000f0: d6b1 80be 5dd0 4dbe 6c18 23bd 8863 a9bd

body.block2.norm.running_var f4 [64]
0.18301713 0.137065 0.17912461 0.121796004 0.4645951 0.09205463 0.12309628 0.06285653
0.08623349 0.15135777 0.17308643 0.1787534 0.11226019 0.1310079 0.13176784 0.071623065
0.122838624 0.14640723 0.23406863 0.15403974 0.4852633 0.123530865 0.28925452 0.239473
0.07757646 0.23676702 0.12572858 0.119208865 0.18489729 0.14306444 0.09951133 0.17399187
0.09959419 0.35066298 0.12932122 0.19685824 0.16618396 0.10991449 0.13811827 0.057475355
0.3611041 0.11893314 0.10972007 0.14904149 0.1817524 0.0786174 0.10095257 0.14921929
0.15176977 0.119829275 0.24695691 0.19821839 0.11629686 0.079188846 0.2822162 0.12988584
0.10293654 0.11110211 0.33209085 0.16959521 0.21621828 0.14229132 0.113904625 0.13580607
00000000: d868 3b3e c45a 0c3e 716c 373e 2f70 f93d
00000010: 69df ed3e 2387 bc3d e719 fc3d edba 803d
00000020: 2f9b b03d 88fd 1a3e 923d 313e 220b 373e
00000030: ace8 e53d ef26 063e 26ee 063e 1daf 923d
00000040: d192 fb3d c7eb 153e b0af 6f3e 98bc 1d3e
00000050: 6e74 f83e c0fd fc3d 2b19 943e 6938 753e
00000060: 68e0 9e3d 0e73 723e febe 003e c723 f43d
00000070: b755 3d3e 7c7f 123e 99cc cb3d ed2a 323e
00000080: 0af8 cb3d 198a b33e c86c 043e 3595 493e
00000090: 212c 2a3e d91a e13d e06e 0d3e 476b 6b3d
000000a0: a3e2 b83e 3893 f33d ebb4 e03d 559e 183e
000000b0: 4d1d 3a3e 2902 a13d 39c0 ce3d f1cc 183e
000000c0: 8969 1b3e 0d69 f53d 46e2 7c3e c3f9 4a3e
000000d0: 0c2d ee3d c32d a23d a47e 903e cb00 053e
000000e0: 65d0 d23d 8189 e33d d007 aa3e 5eaa 2d3e
000000f0: 5368 5d3e d1b4 113e d446 e93d bf10 0b3e

body.block3.conv.weight f4 [64, 64, 3, 3]
0.0061398055 0.012441321 -0.01146103 -0.015155382 0.028130444 -0.010759942 0.0064731734 0.015485326
-0.0026734115 0.016915495 -0.03883665 -0.00937567 -0.0004389197 -0.07165613 -0.010875924 0.019079773
0.0005459864 0.018556599 0.013412741 -0.00806436 -0.009815362 0.014596568 0.038486853 0.016275348
0.012695604 -0.01859941 0.013193474 -0.02692666 -0.037905265 -0.055715963 -0.014093739 -0.0044667693
-0.0040570213 -0.038730036 -0.022884687 -0.026888978 0.017510612 -0.007976036 -0.0014740683 -0.0010352025
0.050935853 0.028580543 -0.0070400042 0.008933829 0.016790982 0.020615945 -0.00063744094 0.009735736
0.02805526 -0.011387979 0.004041609 -0.0043026735 0.010051539 0.033675253 0.013990245 0.033239685
0.0018951035 0.04234589 0.020736266 0.02341794 0.037718333 -0.045035046 0.05055282 0.0032022903
-0.015890967 0.011657235 -0.0053445618 0.0051877736 0.027323328 -0.004022024 0.0045975493 -0.014691301
0.015661214 -0.009109659 -0.00908877 -0.01116888 -0.0028524771 -0.0005938357 0.0063822325 -0.016674055
-0.009021425 -0.014145125 0.019786898 0.018539172 0.016859958 -0.0033947069 0.01522533 0.013564221
0.01093732 0.02490284 -0.038700916 -0.01709481 0.00072696357 -0.0337408 -0.023404324 -0.003349588
0.0015469231 -0.026876256 -0.042298287 -0.009702699 0.015200436 -0.00820267 -0.010305964 -0.0031287123
0.02152699 0.024938384 0.021012798 0.023101712 -0.014932846 -0.027100641 -0.0053346492 0.015043469
0.008272519 -0.002867324 -0.03271201 -0.026343886 0.013518451 0.017203318 0.0077044913 0.013413468
-0.008965653 -0.027410327 -0.017787747 -0.00851033 0.026064392 0.012455357 0.027029058 -0.0037858628
-0.02176691 -0.016535085 -0.010645062 -0.007907621 -0.025763266 0.003454136 0.022285786 -0.0007220869
-0.0008701185 -0.0068294685 0.020777011 0.0077929487 0.017845431 -0.0207372 0.01035212 0.012483892
0.01842327 0.0064698923 -0.0103168655 -0.0044679996 -0.005449559 0.004513102 -0.021245923 -0.02322779
-0.017730966 0.0004573552 0.01152068 0.0020197344 -0.007844513 0.012007501 -0.017147746 -0.03499161
-0.046554267 -0.01894131 0.0019450914 0.01318437 0.01593374 -0.041905463 0.0062921713 0.010399889
-0.023402527 0.00644118 0.004311016 0.032754384 0.028791916 -0.015668944 -0.017922066 -0.008930048
0.020945102 -0.015469907 0.012127492 0.014608938 -0.031382993 -0.01310221 0.03478241 0.03995649
-0.042159397 0.0026097817 -0.013489041 -0.0010075636 0.015851818 0.018035075 -0.010476852 -0.030420205
0.03775487 -0.0011888486 -0.015895052 -0.00475083 -0.017891083 0.013770111 -0.026718598 0.028240232
0.02449317 -0.0032489793 0.010641621 -0.01576267 0.023540752 0.0018213387 -0.0063796164 -0.00051629945
-0.0086185625 0.0048786676 0.023290038 0.007741939 0.0015359673 0.012252138 0.032938175 0.009652604
0.0033650773 0.02412033 -0.013833462 0.0008515118 0.010048919 -0.0058720643 -0.030516451 0.033858456
0.06416325 -0.005301851 -0.04542247 -0.0049637267 -0.021004615 0.0015434069 -0.0010584183 -0.02277956
0.03248164 0.028730594 -0.0351886 -0.0019057248 0.01338033 0.041905522 0.012915918 -0.038633317
-0.016620217 0.013800651 0.0071696257 -0.020866279 -0.02478594 0.018005706 -0.028088702 -0.0046826014
0.056263987 -0.0038891253 0.00911081 0.021184163 0.03246906 0.0152538335 -0.017971355 -0.02315605
00000000: 6c30 c93b afd6 4b3c 0bc7 3bbc 484e 78bc
00000010: d171 e63c 784a 30bc ea1c d43b 2ab6 7d3c
00000020: 6734 2fbb 5d92 8a3c 2e13 1fbd 699c 19bc
00000030: ce1e e6b9 73c0 92bd ee30 32bc 2f4d 9c3c
00000040: 8720 0f3a 0204 983c 1dc1 5b3c 6120 04bc
00000050: 9dd0 20bc 7226 6f3c 64a4 1d3d e153 853c
00000060: 3901 503c ca5d 98bc 7129 583c 4d95 dcbc
00000070: 8d42 1bbd 6c36 64bd 6de9 66bc fa5d 92bb
00000080: c3f0 84bb 63a3 1ebd ab78 bbbc 4646 dcbc
00000090: 6a72 8f3c ebad 02bc 8635 c1ba a2af 87ba
000000a0: 1da2 503d be21 ea3c d6af e6bb 325f 123c
000000b0: 3e8d 893c c5e2 a83c f019 27ba a382 1f3c
000000c0: 25d4 e53c a594 3abc 796f 843b 71fd 8cbb
000000d0: 36af 243c 10ef 093d 5737 653c 5626 083d
000000e0: 1f65 f83a e272 2d3d 1adf a93c fbd6 bf3c
000000f0: 8a7e 1a3d ab76 38bd 7910 4f3d 84dd 513b
00000100: c62d 82bc fdfd 3e3c 6f21 afbb 33fe a93b
00000110: 2cd5 df3c 2fcb 83bb 0aa7 963b c8b3 70bc
00000120: f24b 803c ae40 15bc 10e9 14bc aefd 36bc
00000130: a0f0 3abb a4ab 1bba 0c22 d13b 0798 88bc
00000140: 99ce 13bc f4c0 67bc 2218 a23c 76df 973c
00000150: e51d 8a3c bb79 5ebb aa73 793c 773c 5e3c
00000160: 7232 333c 0a01 cc3c da84 1ebd 6a0a 8cbc
00000170: b391 3e3a cb33 0abd 6dba bfbc c384 5bbb
00000180: 20c2 ca3a 982b dcbc f840 2dbd 12f8 1ebc
00000190: 400b 793c 7e64 06bc 59da 28bc 150b 4dbb
000001a0: 5f59 b03c 954b cc3c 0823 ac3c cd3f bd3c
000001b0: e5a8 74bc 2a02 debc 48ce aebb e278 763c
000001c0: 7689 073c b7e9 3bbb 07fd 05bd 22cf d7bc
000001d0: 7e7c 5d3c f9ed 8c3c f575 fc3b 2ac4 5b3c
000001e0: ade4 12bc 9f8b e0bc 9cb7 91bc e96e 0bbc
000001f0: fe84 d53c 8e11 4c3c 0b6c dd3c 3d1c 78bb
00000200: 8550 b2bc 9674 87bc a068 2ebc f78e 01bc
00000210: 7c0d d3bc c95e 623b ae90 b63c 6e4a 3dba
00000220: aa18 64ba bcc9 dfbb 8d34 aa3c fe5b ff3b
00000230: 9530 923c 0fe1 a9bc f09b 293c 3d89 4c3c
00000240: 66ec 963c 6401 d43b 1208 29bc 4c68 92bb
00000250: 3792 b2bb a5e2 933b ee0b aebc 3548 bebc
00000260: 8840 91bc 2dc9 ef39 3cc1 3c3c 855d 043b
00000270: 4686 00bc 1cbb 443c 6e79 8cbc 5d53 0fbd
00000280: b0af 3ebd ce2a 9bbc 70f2 fe3a 4103 583c
00000290: 7a87 823c 10a5 2bbd 8f2e ce3b 4c64 2a3c
000002a0: a8b6 bfbc 8910 d33b 6c43 8d3b 7629 063d
000002b0: 06dd eb3c 285c 80bc 4cd1 92bc 564f 12bc
000002c0: 1095 ab3c 7e75 7dbc 63b2 463c 545a 6f3c
000002d0: 748b 00bd a7aa 56bc 0078 0e3d 6ba9 233d
000002e0: 55af 2cbd df08 2b3b 2301 5dbc 3910 84ba
000002f0: acdb 813c 4bbe 933c 1aa7 2bbc cb33 f9bc
00000300: daa4 1a3d 24d3 9bba 5736 82bc daac 9bbb
00000310: 5290 92bc 089c 613c f6e0 dabc 0f58 e73c
00000320: e7a5 c83c d4ec 54bb 325a 2e3c b720 81bc
00000330: 89d8 c03c fcb9 ee3a 1a0c d1bb 4558 07ba
00000340: df34 0dbc 3bdd 9f3b c0ca be3c 17b0 fd3b
00000350: 8352 c93a 31bd 483c 2eea 063d f525 1e3c
00000360: a188 5c3b 0098 c53c bfa5 62bc fd37 5f3a
00000370: 39a4 243c 726a c0bb a3fd f9bc 2aaf 0a3d
00000380: 0668 833d 26bb adbb e90c 3abd c2a6 a2bb
00000390: df11 acbc 244c ca3a a0ba 8aba 339c babc
000003a0: 780b 053d 6c5c eb3c ec21 10bd 83c9 f9ba
000003b0: 2c39 5b3c 20a5 2b3d 499d 533c f83d 1ebd
000003c0: 1f27 88bc 201c 623c 2eef ea3b c2ef aabc
000003d0: e20b cbbc b480 933c 471a e6bc 8270 99bb
000003e0: 1175 663d b2e0 7ebb 8245 153c 698a ad3c
000003f0: 47fe 043d 37eb 793c aa38 93bc c2b1 bdbc
