Examples/stone/pdl_e8000_1px_lr0.0001a35.0_up-conv5_1_W[1.0, 0.5, 0.1, 0.075, 0.075](1)/1/netG.pth (torch, 130373 bytes, 26 tensors)

head.conv.weight f4 [32, 3, 3, 3]
00000000: f80c bbba 1e6b 203d c62b 80ba 0945 5d3c
00000010: c056 09bd edda 8f3c 2ac7 943b 17cc 6fbc
00000020: aa87 783c a60f e6bc f086 24bd 052a eebb
00000030: 792b 48bb 7001 9b3b 55a0 24bc fd0c 543d
00000040: 4700 6fbc d7eb ed3c fe17 b73c 4156 193b
00000050: 3c99 e93c b0f3 9fbb dd00 b3b9 106c de3c
00000060: bb99 da3b c4be 0abd 3893 2d3d 0b75 4fbd
00000070: 273b cfba f921 0bbd ab17 fabc 823f 15bd
00000080: 2fda 2f3c eac4 663c 56c9 643b 6156 ac3a
00000090: e27d 85bd 8030 993c 459d d83c 7739 56bc
000000a0: 4ec0 983c 2bf1 0bbb 0523 3fbc 1eb3 12bc
000000b0: c77c a63a 96ee 02bd de23 8dbb 490e 8f3b
000000c0: 6690 943b edfa debb 877a 83bc f37c 5dbb
000000d0: a690 ebba 039d 15bc 2526 393c 65d1 0dbd
000000e0: 1e00 cdbb 87a5 8fbc dad0 113b 6d4d 08bc
000000f0: c96c 053d 24a2 b8bb fd13 833c 18d1 47bc
00000100: 7e8a 923c e436 09bc cede 7e3c 0e7b 02bd
00000110: 517a cfbb 75c2 bf3c 8c43 bd3b 6a53 253c
00000120: 7a53 773b 1717 3f3d ca53 643c dd16 053d
00000130: c1ef c7bc 425b 9b3c c8e7 45bb 3b75 623c
00000140: ec20 56bc 8a2a aebc 98af 17bd 9c0f dbbc
00000150: 2248 b4bc 30e6 7abc b76d 97bb 9edb dd3b
00000160: b729 f43b 24fd eabc 42ba 64bb 0a8d 9bba
00000170: 3f85 2ebd a2c1 9ebc 519f c53b 20ff 29bb
00000180: 2f2a 4e3c 0d67 133c 9b1e 813c 2268 47bc
00000190: 3313 0abd 3ea6 28bc 8759 de3c 2179 ec3c
000001a0: b880 803b f643 96bc 7232 e1bb 2f9d 003c
000001b0: f3ed 7ebc ba65 f9ba e9f7 42bb 60ac 57bd
000001c0: 0ca3 7f3c f940 503b fe5d ef3b f00c 5e3c
000001d0: c733 37bc cab9 ba3a 0864 653c 49c8 813c
000001e0: d864 883c 2c52 4f3b 4788 f33a 93a7 133b
000001f0: 8c9e d0bb cc4b 00bd 1b3a 68bb 2776 a8bc
00000200: 398c df3b 739d a13c bc78 403b d458 143d
00000210: bd9c b43c dc41 84bc 8c23 88bc a741 e83c
00000220: 7810 813d a359 bcbc d130 243d 9a1b 2a3c
00000230: bf5e 6f3c 6e8f f53a 4aa0 023d f78e e4bc
00000240: 61b8 d6bc 7b7a 653d d625 88bb 1f08 35bc
00000250: 2e68 7fbc 2001 e9bc 1af1 42bc ca8b 5f3c
00000260: 27aa 1d3b 7edf e93c b2ef 0b3d 2e53 09bc
00000270: ea7b 53bc 421d fbbc 9195 003b 50ae 07bd
00000280: 7d2a 99bc 45bb 943c eb6b f7bb 3328 b73c
00000290: b1f4 da3c 9e44 c03c fc74 a4ba 7d88 f43c
000002a0: d2b0 e7bc 01a2 143c 5658 1dbb 6c18 92bc
000002b0: f652 fb3b 628e 98bc f7bc bc3b fa99 50bb
000002c0: 513f 98bc 3a96 09bd 6d44 d4bc ec64 e9bc
000002d0: a7b1 ccbc dfc2 613c 6e35 0dbc 3705 273b
000002e0: 88b5 b7bc 62a2 21bc eb45 d63b c7e0 ac3c
000002f0: a83a 33bc 0646 06bb 0426 26bc 7b1c fcbc
00000300: a32b ed3b a23e e3bb 3797 4a3c 3244 06bd
00000310: 7bb1 f1bb 28a4 8ebc e219 233c a9df 3f3d
00000320: d3f3 29bb 8db8 933c 3ead 133c 009e 853c
00000330: 8f97 93bc 156d 20bc 9e6a 84bc 35ea ef3a
00000340: babb b73c 57cd e13a 6f9f 0a3b 43a2 e83c
00000350: 4e58 bfbb add4 2ebb 27c7 343d bb4d 23bb
00000360: 1e58 823c d17a cf3b 09e4 22bd 3da9 3b3a
00000370: 505b 08bd f589 01bc f14d 113a ca3c 303d
00000380: 3532 fc3c 85d9 d73c 9fae 8ebc 0267 00bc
00000390: 8996 89bb 8758 21bd 997c eb39 8dec 933a
000003a0: 100c 6f3b e6b1 14ba 86ac c63a 38dd b83c
000003b0: 76a2 0c3d 9205 2b3b 1292 143b b07b 09bc
000003c0: 1a23 02bd 42f4 9abb c0d1 063d 426f 7d3b
000003d0: 718a 50bb e5ed e33b 3762 a2bc f71e c1bb
000003e0: 3456 aabb e75a be3a 33a2 513c de54 d73c
000003f0: 1cef 55bc d517 a2bc 5e5a 933c 2b7e 1fbd
-0.0014270833 0.039164655 -0.000977867 0.013505229 -0.033529997 0.017560447 0.004540344 -0.014636061
0.015169064 -0.028083634 -0.04016775 -0.0072681927 -0.003054349 0.004730396 -0.010047992 0.0517702
-0.0145874685 0.029043121 0.022350308 0.0023397359 0.02851545 -0.0048813447 -0.00034142184 0.027151138
0.006671158 -0.033873335 0.042376727 -0.05064873 -0.0015810475 -0.033967946 -0.030528864 -0.03643752
0.010733171 0.014085034 0.0034910045 0.0013148302 -0.06518151 0.018699884 0.02644218 -0.013075224
0.018646386 -0.0021353464 -0.011666064 -0.008953838 0.0012701981 -0.031965815 -0.004307254 0.0043657166
0.004533815 -0.006804815 -0.016049637 -0.00337964 -0.0017972186 -0.009131673 0.011300598 -0.034623522
-0.0062561175 -0.017534984 0.002224973 -0.008319241 0.03257445 -0.005634563 0.016000742 -0.012195848
0.017888304 -0.008374903 0.01555605 -0.031855635 -0.00633172 0.023408154 0.0057758745 0.010090688
0.0037738965 0.04665288 0.0139359925 0.032492507 -0.024406316 0.018964414 -0.0030197967 0.013821895
-0.013069373 -0.021260519 -0.037032694 -0.026740842 -0.022007052 -0.01531367 -0.0046212333 0.006770565
0.007451262 -0.02868516 -0.0034901057 -0.0011867594 -0.042607542 -0.01937944 0.006030955 -0.002593942
0.0125833 0.008996737 0.015761664 -0.012170823 -0.033709716 -0.0102935415 0.0271423 0.028866353
0.0039215945 -0.018342953 -0.0068724686 0.0078499755 -0.015559661 -0.0019027509 -0.0029749817 -0.052654624
0.015602838 0.0031777008 0.007304906 0.013552889 -0.011181778 0.0014246043 0.0140009 0.015842574
0.016649649 0.0031634672 0.0018580043 0.0022530302 -0.0063665565 -0.031322286 -0.0035435024 -0.020564152
0.0068221358 0.019728398 0.0029368838 0.036217526 0.022047395 -0.016144685 -0.016618513 0.028351618
0.06301969 -0.02299196 0.040085617 0.010382557 0.014609992 0.0018734762 0.031891145 -0.027900202
-0.026210966 0.05602501 -0.004154901 -0.0110492995 -0.015588803 -0.02844292 -0.011898303 0.013644168
0.0024057718 0.028548952 0.03416414 -0.008381648 -0.012907961 -0.0306536 0.0019620399 -0.03312522
-0.018697018 0.018155703 -0.0075507066 0.022358036 0.026728006 0.02347022 -0.0012547071 0.029850239
-0.028282557 0.009071828 -0.002400895 -0.01783391 0.007669802 -0.01862258 0.005759831 -0.0031830058
-0.01858488 -0.033590533 -0.025911534 -0.028490506 -0.024987055 0.013779371 -0.008618696 0.0025485286
-0.022425428 -0.009865375 0.0065390966 0.021103276 -0.010939278 -0.0020488515 -0.0101409 -0.0307753
0.007237868 -0.0069349566 0.012365154 -0.03277988 -0.0073758936 -0.01741226 0.009954901 0.04684416
-0.0025932684 0.018032337 0.009013472 0.016310692 -0.018016605 -0.009791632 -0.01616412 0.0018304052
0.022428382 0.0017227334 0.0021152159 0.028397685 -0.005839384 -0.0026677058 0.04413524 -0.0024918157
0.015911158 0.0063317795 -0.039768253 0.00071587024 -0.033290207 -0.007906427 0.0005542925 0.043026723
0.03078566 0.026348839 -0.01741725 -0.007837059 -0.0041988534 -0.039391067 0.00044915525 0.0011285708
0.0036475696 -0.0005672261 0.0015157617 0.022566423 0.034334622 0.002609585 0.0022670073 -0.008391306
-0.031771757 -0.004728825 0.032914877 0.003867105 -0.0031820799 0.0069558495 -0.019822223 -0.005893584
-0.0051982645 0.0014522941 0.012795019 0.026285585 -0.013057496 -0.019786755 0.017987426 -0.038938683

head.conv.bias f4 [32]
00000000: 6180 193e ce37 a33d 1d16 373e 2396 dbbd
00000010: 709d 43bd 9e1e 17be 3966 f43c 030f ad3d
00000020: 6546 43bd a662 3dbd ef11 303e ae58 b23d
00000030: 9006 8b3d 1b3d 983d 65be cc3c 37b1 15be
00000040: e08e c73d a7ee 29bd 6262 af3d 5744 203c
00000050: a959 383e 9998 633d 3b53 203d f028 323d
00000060: ee18 d5bb d94e b43d fe8f 81bd 969f 06bd
00000070: cf90 a63c 5ff3 3e3e 9211 903d 61a5 d73c
0.14990379 0.07969628 0.1787953 -0.10721996 -0.047757566 -0.14757773 0.0298339 0.08450129
-0.047674555 -0.046236657 0.17194341 0.087083206 0.06788361 0.0743353 0.024993131 -0.14618383
0.09744048 -0.041487362 0.08563687 0.0097819185 0.18002953 0.05556545 0.039141875 0.043496072
-0.006503216 0.088041015 -0.063262925 -0.032867037 0.020332722 0.18647526 0.07034601 0.026323976

head.norm.weight f4 [32]
00000000: 269a 803f 5133 803f c445 7a3f 86d9 803f
00000010: 0512 813f a4ec 7b3f bd65 813f 1614 803f
00000020: c478 7d3f 36f1 7c3f e0f3 803f 8709 7a3f
00000030: f79a 7f3f 9412 763f 1130 7d3f 24d0 7c3f
00000040: 0d8d 793f 5151 803f 0ee5 7f3f 85dd 803f
00000050: b036 803f 5842 803f 94da 7f3f da23 7d3f
00000060: 86cf 823f 3c5b 7e3f eb42 7a3f 3737 783f
00000070: 2be8 7f3f 6491 833f 5b87 783f 6f64 793f
1.0047042 1.001566 0.97762704 1.0066383 1.0083624 0.9840796 1.0109173 1.000613
0.990124 0.9880556 1.0074425 0.9767079 0.9984583 0.961221 0.9890147 0.987551
0.9748085 1.0024816 0.99958885 1.0067602 1.0016689 1.0020247 0.999429 0.9888283
1.0219581 0.9935796 0.9775836 0.9695925 0.99963635 1.0278745 0.97081536 0.97418875

head.norm.bias f4 [32]
00000000: a4fc 803b 66af cf3c 3457 0ebd 99e3 39bb
00000010: 9dbb cc3b 7522 40bd 6c54 f2bb 6a25 b43b
00000020: 4a4d 773b ff72 90bc ffc3 5fbc 1ff8 1dbd
00000030: 532d 2cbd 8ebb 30bc ccc6 103d a65f 79bd
00000040: b259 243c 3825 b0bc 9357 56bc 0019 40bc
00000050: 4ef3 37bc 5b8b c93c d406 183b 3bd9 eabb
00000060: defe 8a3c d594 3e3b 5837 a33b 9a8a ce3b
00000070: 4000 033c 6589 1cbd ee4e 9a3c 054b 1dbd
0.003936367 0.025352191 -0.034751132 -0.0028364419 0.006247951 -0.04690786 -0.007395318 0.005497624
0.0037735277 -0.01763296 -0.013657569 -0.038566705 -0.042035412 -0.010786904 0.035345837 -0.060882233
0.010031151 -0.021502122 -0.013082403 -0.01172471 -0.011227442 0.024602583 0.002319743 -0.007167009
0.016967233 0.002908041 0.0049809627 0.0063031437 0.007995665 -0.038216967 0.018836465 -0.038401622

head.norm.running_mean f4 [32]
00000000: 2dd4 153e 4134 9a3d 1a5b 2f3e 8555 efbd
00000010: 8198 5bbd 545e 0abe 61f7 1e3d edb1 903d
00000020: a3a7 4cbd ff52 46bd f136 243e 03c4 bb3d
00000030: 7386 513d 2e64 873d 9d94 b93c 1f8e 11be
00000040: c827 cd3d 64ab 73bd 73a1 af3d cec3 a6bb
00000050: 838b 2d3e acb7 603d 8064 423d 81fb 3e3d
00000060: a365 cd3b 8298 903d d680 89bd beda ffbc
00000070: 5bcc b93c 7a83 5b3e 3c15 733d ce94 c13c
0.1463172 0.07529498 0.17124596 -0.116862334 -0.053612236 -0.13512546 0.038810138 0.07065187
-0.04996456 -0.048418995 0.16036583 0.09168246 0.05115361 0.06610905 0.022653872 -0.14214371
0.10017353 -0.059489623 0.08575716 -0.0050892597 0.16947751 0.054862663 0.047459126 0.04662657
0.0062682196 0.070603386 -0.06714027 -0.031232234 0.022680452 0.21436873 0.059346423 0.023630526

head.norm.running_var f4 [32]
00000000: 8cac 4d3a c9aa 1d3b 3eeb 923a 1902 063b
00000010: 3547 d139 562d 013b 0b27 a93a ebfd e63a
00000020: 3232 cf39 f15e a43a c7b1 4a3b 442c 583b
00000030: 3cb9 9a3b 6976 8b3a 305b 633a 7914 143b
00000040: fbe9 b73a f249 253b f336 743a 5d0c f83a
00000050: 7db3 103b 3c77 863a e883 ae3a af58 533b
00000060: ba14 0e3b 13ac 333b 9fce 303a e5af 123a
00000070: c9b3 c539 3653 283c c12a 803a 8373 d23a
0.0007845841 0.0024058095 0.0011209024 0.0020448028 0.0003991664 0.001971086 0.0012905312 0.0017623281
0.00039519515 0.0012540502 0.0030928717 0.0032985369 0.0047217887 0.0010640147 0.0008672951 0.002259521
0.0014031524 0.0025221077 0.00093160494 0.0018924583 0.002207964 0.0010258923 0.0013314458 0.0032248904
0.0021679834 0.0027415797 0.0006744656 0.00055956683 0.00037708718 0.010273745 0.0009778367 0.0016056154

body.block1.conv.weight f4 [32, 32, 3, 3]
00000000: 8a1e 953b e47a e73c 4ae8 323d 81a8 70bc
00000010: daca 893c 9c40 f6ba 3bd6 30bc 2f29 a6bb
00000020: dfb2 03bd dc75 41bc af4c 913c 1293 e03c
00000030: 413a 11bc aecd 87bc a7ed 2dbc 1fad 093c
00000040: d091 b0bc 846f 26bc 7b8b d7bc 080e b1bc
00000050: 55e9 8f3c 7626 7e3b c27f 03bb 5478 edbc
00000060: e008 003c 082a cf3a 2039 023d e8d2 82ba
00000070: 4559 833c 69e3 0f3d 7e4e 043c a1a0 9e3b
00000080: e7ce 203d e91c 063d e513 dcbc 7da3 413c
00000090: 68a4 a2bc d90f 5d3c e754 f13b 873a 9a3c
000000a0: a2d4 a6bb 83f4 ef3b dbd1 03bc ac7c 99ba
000000b0: 22e0 b9bc 22ff cd3b 156b 2fbd 76ea c939
000000c0: 74f4 82bc 4ab9 97bc 7ce4 a8bc f509 f4bc
000000d0: e75d 33bc ef93 34bd a617 0fbd 1b78 fdbb
000000e0: 2e8b 413d ef53 dfbc 590c 5d3c cb6c 92bc
000000f0: ec47 d4bb 70e6 9b3c 0937 d9bb 18c2 bfbc
00000100: 2d38 e33c f502 11bd 94c9 ce3b 3116 e13c
00000110: 8633 c43b 5f7d 9abc a576 d7bc f93b e5bb
00000120: bee7 683b fbef acbc 4c16 1c3c ca5b 8a3c
00000130: c69f f5bc 28c8 acbb e062 2b3c eb9e 89bc
00000140: 25e1 beb9 3799 8dbb 392c 9fba eb8c 2ebc
00000150: d517 193d 5f98 863b b2bb df3b 31b8 7ebc
00000160: 8517 2a3c 4faa f93c 8b5f de3c 3cba 0f3d
00000170: 918e 4f3d 7e6e 4a3b a13c 113d 204e b43c
00000180: 128d 64bc a5fc 29bc 212f 53ba a00b fdbc
00000190: 4539 753c dc0e 40bc 6aea e0bc ccbc 1c3c
000001a0: e6e0 e9bb 0264 243c 036e 323c e12f 71bc
000001b0: 7ccb 0b3c 2170 7d3c ef7d 313d 7977 013d
000001c0: fb26 823a 8e2a fa3c fa95 9d3c c105 a4bc
000001d0: 1534 96bc 172e 693b 0e9d 133c 4f2b 0ebc
000001e0: f1b0 d23c c48b a5bb b294 8a3c 7e40 abbb
000001f0: 64ab afbc 6166 99bb 565a adbc cfa3 f4bc
00000200: 11b4 873b 1bda 613c 0761 c3bc d913 b2bb
00000210: 170f 81bb 30ee 9fbc 5ed6 33bc e3b2 48bc
00000220: 9227 abbb 36b3 bd3b e8cf 693c b50a 7cbc
00000230: 7964 df3c 3cae e0bb b11e 66bc cae7 193b
00000240: 8a6c e3bb 8d15 c9bc 55e0 84b8 ca51 a7bb
00000250: 21fd af3c b18b 07bd fa67 89ba 2796 043d
00000260: 60ee 133d a267 073c 42ab 9b3c e093 50bc
00000270: 4be8 1f3b ff4d da3b 3132 81ba 7c4a 1e3d
00000280: 03b1 ebbc 2b1a 9dbc 31b6 61bd 4893 6e3c
00000290: 29d9 a13c 31dc f8bc b44b 253d f9d7 e0bc
000002a0: d02c 173b 7ec9 b6bb 7861 f73b 26b4 4bbb
000002b0: b847 0ebc 909e dabc 7736 f0bc 6929 c6bc
000002c0: c1ba 39bc e34f 963c bc26 cb3b 1164 3a3c
000002d0: 9ed2 913c 0e01 67bd dcdc cc3c d5e4 7a3b
000002e0: 4b06 6a3c 9051 0c3c 6874 e93c dcb5 d73c
000002f0: 65da f2bc cc9f 8fbc 4545 c63c d68e 66bc
00000300: 6faa bcbc 3b56 bfbb 9555 b1bb ffa3 3e3d
00000310: 669e 32bd e221 0abc 38ec 57ba d217 0abd
00000320: c5ce c8bb 0f98 a5bc 55ce a43c 2087 a13c
00000330: adca fc3b 8747 9f3c 94a6 66bc 7f6d 513b
00000340: ce71 203c c792 35bc 2fc7 553b 5dca e93b
00000350: 38c4 4abd 32a1 ecbc 0422 083c fc0c 523a
00000360: 61fe a43b 8649 983c a1fd d43c 232d b43c
00000370: d5b2 62bc dee6 983c 5db2 463c d34f 0dbd
00000380: 8998 aebb b72a f6bb 558b b6bb ed84 7c3c
00000390: 09fa c8bc 831b afbb 3818 2839 873d baba
000003a0: d0b3 94bc a0b2 1fbd d2f8 f13c 63ed 9a3c
000003b0: 64cb 8f3c 6be9 d53c 8c2c 8c3c a7bc fa3c
000003c0: 2e97 b3bb 2d51 b4bb e42c d33b 0ce1 2dbc
000003d0: 54b2 fcbc 6338 933c eb51 15bc 0aeb 773c
000003e0: d266 6c3b 5c27 67ba 0f9a 3d3c 9b50 2fbd
000003f0: 27cf 52bc 93b5 4cbc 43df 19bc d6e6 013c
0.0045507597 0.028256841 0.04367856 -0.014688612 0.01682036 -0.0018787566 -0.010793264 -0.0050708274
-0.032153007 -0.011807885 0.01773676 0.027413879 -0.0088639865 -0.016577568 -0.010615743 0.008403092
-0.021553904 -0.010158423 -0.026311627 -0.021613136 0.017567316 0.0038780249 -0.0020065163 -0.028988041
0.007814616 0.0015805373 0.03179276 -0.0009981068 0.016033778 0.035128985 0.008075355 0.004840926
0.039259817 0.032742415 -0.026864955 0.011818764 -0.019853786 0.013492548 0.0073648575 0.018826736
-0.005091266 0.0073228492 -0.008045639 -0.0011710129 -0.022689883 0.0062865177 -0.04282673 0.00038512395
-0.015985705 -0.01852097 -0.020616762 -0.029789904 -0.010947681 -0.044086393 -0.034934662 -0.007735265
0.047251873 -0.027261702 0.013491713 -0.017874142 -0.0064783003 0.01903078 -0.006628875 -0.02340798
0.027736748 -0.03540321 0.006310651 0.027476402 0.0059875874 -0.01885861 -0.026301691 -0.0069956747
0.003553852 -0.021110525 0.0095268 0.016889472 -0.029983412 -0.005272884 0.010460585 -0.01679941
-0.0003640737 -0.004321243 -0.0012143917 -0.010653715 0.037376244 0.0041075195 0.006827795 -0.015546844
0.010381584 0.030476717 0.027145168 0.035089716 0.05067307 0.0030888612 0.03545821 0.02200991
-0.013949649 -0.010375177 -0.0008056034 -0.030889332 0.014967267 -0.011722293 -0.027455527 0.009566497
-0.0071374057 0.010033609 0.010890487 -0.014720888 0.008532401 0.015468628 0.04333299 0.03160808
0.000992983 0.03053787 0.019236553 -0.020022275 -0.018335382 0.003558045 0.009009613 -0.008677318
0.025719138 -0.0050520618 0.016916607 -0.005226194 -0.02144403 -0.004681394 -0.02116124 -0.029863266
0.0041413386 0.013784911 -0.023849977 -0.005434495 -0.0039385664 -0.019522756 -0.010976402 -0.012249681
-0.005223223 0.005789186 0.01427076 -0.015383412 0.027269589 -0.006856708 -0.014045403 0.0023484104
-0.006940429 -0.024546409 -6.3360356e-05 -0.0051061856 0.021483006 -0.033092204 -0.0010483258 0.03236976
0.036116004 0.008264454 0.01900256 -0.012730569 0.0024399932 0.00666213 -0.0009856877 0.038645253
-0.02877093 -0.019177517 -0.055105392 0.014561482 0.01975687 -0.030378433 0.0403554 -0.027446734
0.0023067482 -0.005578219 0.007549461 -0.0031082719 -0.008684091 -0.026686937 -0.029322846 -0.024189668
-0.0113360295 0.01834864 0.006199686 0.011376397 0.017800625 -0.05639749 0.025007658 0.0038283367
0.014283727 0.008564368 0.02849789 0.026331834 -0.029645154 -0.017532252 0.024202952 -0.014072141
-0.023030488 -0.005839137 -0.0054118135 0.046543118 -0.04360809 -0.00843093 -0.00082367985 -0.033714123
-0.0061281645 -0.020214109 0.020117918 0.019717753 0.0077145905 0.019443287 -0.014077801 0.0031956134
0.009792758 -0.011082358 0.0032619943 0.0071347193 -0.049503535 -0.028885458 0.008308891 0.0008012799
0.005035207 0.018589746 0.025999846 0.02199418 -0.013836582 0.018664774 0.012127486 -0.034499954
-0.005328242 -0.007512416 -0.005570809 0.015412551 -0.024533289 -0.005343856 0.0001603075 -0.001420901
-0.018152148 -0.03898871 0.029537592 0.018912023 0.017553039 0.026112279 0.017111085 0.030607535
-0.0054806685 -0.005502841 0.0064445604 -0.010612737 -0.030846752 0.017971223 -0.009113769 0.015131721
0.0036072028 -0.00088178157 0.011572375 -0.04280148 -0.012866772 -0.012494463 -0.009391609 0.007928571

body.block1.conv.bias f4 [32]
00000000: c7f3 0e3d d599 913c 421e e83c dba9 0fbd
00000010: c06b 2cbd 538e f83c d207 8fba 171b 99bb
00000020: ad78 edbc 5a5b 1c3d 5da7 d03c f359 23bd
00000030: ac96 88bc 509c 96bc 90ca 1e3d d21d 08bd
00000040: d1ba 433d c3b3 57bd 204f 673c 6d77 29bd
00000050: 11e2 1b3d 7564 53bd 2961 8cbc 869c ecbc
00000060: da90 d33c 5bb3 a2bc 3a69 2d3c 2c8e b4bc
00000070: 4491 f7bb 72c0 383c e4a8 03bd de36 82ba
0.034900453 0.017773548 0.02833474 -0.035074096 -0.042094946 0.030341303 -0.0010912365 -0.004672419
-0.028988207 0.038173057 0.02547043 -0.039880704 -0.016673408 -0.018385082 0.038767397 -0.033231564
0.047785584 -0.05266167 0.014117986 -0.04137366 0.03805739 -0.051609475 -0.017136173 -0.02888323
0.025825907 -0.019860914 0.01058417 -0.02204045 -0.007555159 0.011276351 -0.03214349 -0.0009934565

body.block1.norm.weight f4 [32]
00000000: 3a80 7d3f f7b5 743f 11d9 793f 4de5 753f
00000010: 5543 7f3f e989 843f 78d4 803f c8cd 803f
00000020: eff2 823f 6562 833f 36f2 7c3f 7e9c 7a3f
00000030: 1d2c 803f 4246 7d3f 1da0 853f 1dfa 7d3f
00000040: bb4c 7a3f e175 833f ca24 7d3f 324c 7d3f
00000050: 03e1 7b3f a612 823f 04aa 813f 44da 7d3f
00000060: b871 823f 0ab6 813f ffb8 813f 0cb0 803f
00000070: 8670 803f eeca 823f d955 743f 660b 843f
0.99023783 0.95590156 0.9759684 0.9605301 0.99712116 1.0354587 1.006484 1.00628
1.0230387 1.0264403 0.98807085 0.9789504 1.0013462 0.9893533 1.0439488 0.9920977
0.9777333 1.0270349 0.9888426 0.9894439 0.98390216 1.0161941 1.013001 0.9916117
1.0190954 1.0133679 1.0134581 1.0053725 1.003434 1.0218179 0.95443493 1.0315979

body.block1.norm.bias f4 [32]
00000000: 9e7f 00bd 0294 4fbd f4c1 01bd f95a 0abd
00000010: 52f5 9c3b d95c 1dbd d739 81bc e836 0dbd
00000020: 6ff9 e7ba 9c09 a5bc 4cda 09bd 637c 92bc
00000030: 3c3a 31bd 1168 69ba 1134 3dbd 7901 a93b
00000040: a336 ecbc 228d ac3c d95c 44bd 75b9 89bc
00000050: 6764 debc 0343 11bd 20ca 3bbb 5446 8a3b
00000060: 4f6c 9cbc 9d36 abbd 7833 6abb 78bd b6bb
00000070: 3f8f 80bd 1f4c 14bd be36 33bd 6e59 3dbc
-0.031371705 -0.05067826 -0.03167911 -0.033778165 0.0047899866 -0.038418625 -0.01577465 -0.03447619
-0.0017698238 -0.020146184 -0.03365545 -0.017881578 -0.043268427 -0.0008903752 -0.046192233 0.0051576463
-0.028834647 0.021063391 -0.04794011 -0.016812066 -0.027147485 -0.035464298 -0.0028654411 0.0042198095
-0.019094614 -0.08360026 -0.0035736244 -0.0055767857 -0.06277322 -0.036205407 -0.043753378 -0.011556966

body.block1.norm.running_mean f4 [32]
00000000: dbd0 fb3b 45df a8bb 2d74 adbc b9fc dcbd
00000010: 725b 06be 07c3 89be f6c1 753c a5d4 123e
00000020: fb14 11bc c269 83bd 8ad4 2b3d ab33 bd3d
00000030: bad0 e53d 0c08 d83d f4c2 993c eeb7 c33d
00000040: b49a 6abe e281 febd e273 783d 0ad6 07be
00000050: a1d0 15be dbed 8bbe c05e a5bd 23b3 a3bd
00000060: 1aa4 4d3e bd27 743e c660 b1be b3ec 3dbe
00000070: 4255 e8bc 83d4 563e 5f8d 803c 2570 22be
0.0076848096 -0.005153569 -0.021173561 -0.107903905 -0.13120821 -0.26906607 0.014999857 0.1433893
-0.0088551 -0.06416656 0.04195074 0.092383705 0.11221452 0.1054841 0.018769719 0.09556566
-0.22910577 -0.12427117 0.06065739 -0.13265243 -0.14630367 -0.27329907 -0.08074713 -0.07993152
0.20082131 0.23843284 -0.34644145 -0.18547325 -0.028360967 0.20979504 0.015692411 -0.15863092

body.block1.norm.running_var f4 [32]
00000000: c0b0 c23d 08d1 063e 71f7 013e 9f2a 863e
00000010: 1833 1a3e a340 413d da81 bb3d b00b 813d
00000020: 9504 393e 0353 ef3c d45f 373d c1fc 423d
00000030: 5196 043d 2d32 a83d 96de 333d eb7c 8b3d
00000040: 8c8d d03d 67a2 2f3e ca64 c83d 355e 2e3d
00000050: 5937 673d 3b97 323e f974 193e 82f8 493d
00000060: b599 2a3e 34a9 803d 2fba 8c3d 57e5 4f3d
00000070: 2050 ab3d dd6f f33d cf34 693e 8d9f 2f3d
0.09506369 0.13165677 0.12692048 0.26204392 0.15058553 0.047180783 0.091556266 0.06301057
0.18068154 0.029214388 0.044769123 0.047604326 0.032369915 0.08212695 0.043913446 0.068109356
0.10183248 0.17151795 0.09784849 0.04257031 0.056449268 0.17440502 0.14986028 0.04930926
0.16660197 0.06282273 0.06871449 0.050755825 0.08364892 0.118865706 0.22774051 0.04287677

body.block2.conv.weight f4 [32, 32, 3, 3]
00000000: 627b 88bc fd23 893c 07d3 aa39 3c18 083d
00000010: b66e 73bc e15c a03c 6ce6 cdbb 1672 e33b
00000020: ebd7 e7bb 15d3 ba3c 7eb3 6abc 3274 8b3b
00000030: a6ad 0fbd 8f3d c5bc 0f9d aabc 34b4 38bd
00000040: 45c1 813c e84f cc3a 7b5d a73b 4f0d a53c
00000050: e506 05bc 2d1e 25bb 39b9 0c3b 9564 b3bc
00000060: d532 7dbc e5f8 573b 15b7 dc3c 4db3 153b
00000070: e6e2 743c 1286 c03c 3ebd d83b 28c8 c43b
00000080: 4fee 97bb 23f7 b13c 6046 3c3c b0f7 093d
00000090: 5028 0fbd 1e76 643c cc9a 34bc e97f d9bb
000000a0: 1ebb e5bc 46ae 51bb 8ad8 b13c afb1 c2ba
000000b0: 97dc 6b3b 1a73 90bc d4a4 0a3d 1661 abbc
000000c0: a6df 42bc 52ec 9b3a 5575 5abc 1e53 e7bc
000000d0: 8068 4ebd e54d 4e3c 00ee 413d 2e6c e5bb
000000e0: ca30 cdbb a5e3 9f3c 4672 b0bb d5ad 46bc
000000f0: 50cf 09bc 0a48 ab3c e825 bbbc 09d6 9c3c
00000100: 5a27 0c3a 019b c3bc 5243 3e3c 10bb 8cbc
00000110: 0c65 03bd 363f c33c 4518 87bb 5681 34bd
00000120: 9e47 943c c648 e2bb 885d 0e3d d593 c8bb
00000130: f95c 41bc 7246 8e3b b795 5fbc 911c df3c
00000140: 14e9 5fba 73c6 203b 7636 2fbd c95c 17bb
00000150: e82a babc 94ea 03bd 9ca2 a6b9 7909 f0bc
00000160: b3ef 6dbc fdc1 bc3c 8e3f e2bc 69ea dcbc
00000170: 399e c0bb d8e1 883b cc40 093d 62aa 5f3d
00000180: 729b 153d 1a78 6abc f200 31bc 2708 8ebc
00000190: 823d 8cbc f7bd 68bc 2f03 c8bc 87d6 c3bc
000001a0: 73be d7bc 04e7 0fbc 88eb e23b 4bdc 4cbc
000001b0: 18cc 20bd 2852 413c 4383 25bd 1b29 8abb
000001c0: 8b76 a13c c146 38bd 70d0 2c3c aff5 f03b
000001d0: 1c2d 0bbd 122d e33b f122 e93c 047d ec3c
000001e0: dea5 8a3a 06ba 6cbd 588c c8bc 5d3a 6dba
000001f0: 93b4 d3bc 4915 ecbb 57e8 04bb 9310 973c
00000200: 0d8d dcbc 7195 19bc 2901 093d a677 1b3c
00000210: 70f8 babb bcc6 f6bc 1f10 fc3c 4a48 a83c
00000220: abdb 63bd b6b3 4a3d 558b 173c 0101 8c3c
00000230: 8201 063c c5b2 9dbc 8f31 bd3a 306e 81bc
00000240: 73cd 03bc 436e 4ebc a8e3 2f3d 360c 4c3c
00000250: dd62 88bb 066b bebb 184c d43a c059 013c
00000260: 51cd 503b 29a2 8fbc 05fa a3ba 932d febb
00000270: e28e 18bc 9363 27bd 3410 c0bc 2c11 99bb
00000280: 8a94 40bc e647 8a3c 60bd 623b 7031 69bc
00000290: addd 323d ed28 c4bc 5f06 2d3c daa0 063c
000002a0: 9ff3 87ba a3e7 a3b6 f046 313c 5533 82bb
000002b0: 4c35 f83c 24d4 81bc 3d7d 313c 3a07 85bc
000002c0: cd50 30bd 9c4e 21bd bac4 b53c a58d 2a3c
000002d0: 16d4 a3bd 757d 08bc 447c 82bc aba9 70bd
000002e0: 1cbb 1f3b fcd4 cfbc 0773 2e3c 50c8 cf3c
000002f0: 8bfa 12bc ccfc 293c ecab a53c d946 6e3c
00000300: 3255 06bd e85d c2ba 50aa c6bb 7ceb d63a
00000310: 2d71 423c c6c1 b4bc c249 bbbc 2166 5cbb
00000320: 5eb4 cebc a55e b53c 28b7 1dbc bd04 90bc
00000330: 1a1a 25bc 7c44 8b3b 7c05 5c3c 3ab1 cabc
00000340: 397f 093d 48f9 ffbb a5ad a43c f051 1fbc
00000350: cb29 e63a 913f 4dbc 5f74 8c3d baea cfbc
00000360: 6f57 a0bc 930c 5fbd dabb 3dbc 5802 98bc
00000370: bfb6 873c 4cbe a0bc 1dec 2e3a d4eb b1bb
00000380: d60b 93bc f3bf 17bd c8eb 48bc 33e0 993c
00000390: 08d9 33bb e250 5b3c 7b8b 933b 9a8e 8f3b
000003a0: bc56 b2bc f455 b4bb 0c49 d73c d742 7f3c
000003b0: 3572 c1bb 0937 733c 9328 d8bc faa5 2cbd
000003c0: 145f 79bb 5dde d5ba 45ae 033d 024e a53c
000003d0: d98d 0b3c 06fe 7cbb 0d91 64bc 6e76 b63b
000003e0: 67bf af3c 1459 b5bc 076d 033c 7f9f 1fbb
000003f0: fe37 473c 5e43 99bb f32d 88bb 35ca e6bb
-0.016660396 0.016740793 0.00032582154 0.033226237 -0.0148579385 0.019575538 -0.006283572 0.0069410903
-0.0070753 0.02280573 -0.014325021 0.004255795 -0.035077713 -0.024077205 -0.020826844 -0.04509373
0.015839228 0.0015587779 0.0051075793 0.020147948 -0.00811932 -0.0025194988 0.0021472706 -0.021898547
-0.015454014 0.003295475 0.026942769 0.0022842467 0.014946675 0.02350143 0.0066143563 0.006005306
-0.004636563 0.02172429 0.011491388 0.03368348 -0.034950554 0.013944177 -0.011023235 -0.0066375625
-0.028043326 -0.0031994744 0.0217097 -0.0014853979 0.0035989636 -0.01763301 0.0338486 -0.020920318
-0.011894142 0.001189599 -0.013333638 -0.028237876 -0.050392628 0.012591814 0.047346115 -0.0070014214
-0.0062619196 0.019517729 -0.005384716 -0.012126406 -0.008411244 0.020908374 -0.022845224 0.019145029
0.000534644 -0.023877623 0.01161273 -0.017179042 -0.032078788 0.023833852 -0.004122766 -0.044068657
0.018100556 -0.006905648 0.034757167 -0.0061211386 -0.011801952 0.004341894 -0.013646535 0.027235301
-0.0008541506 0.0024532347 -0.042776547 -0.0023096076 -0.022725537 -0.032206133 -0.0003178314 -0.029301392
-0.014522481 0.02304172 -0.027618196 -0.026967244 -0.0058782366 0.0041773133 0.03350906 0.05460585
0.036525197 -0.014310861 -0.010803448 -0.017337872 -0.017119173 -0.014205447 -0.02441558 -0.023906006
-0.02633593 -0.008783106 0.00692505 -0.012503694 -0.03925714 0.011799373 -0.040408384 -0.004216326
0.019709846 -0.04498935 0.010547742 0.0073535065 -0.033978567 0.006932863 0.028459044 0.028868206
0.0010577997 -0.057794593 -0.024480984 -0.00090495293 -0.02584294 -0.007204686 -0.0020280087 0.01844052
-0.026922727 -0.0093740085 0.033448372 0.009488976 -0.0057058856 -0.03012406 0.030769406 0.020542283
-0.055629414 0.049487792 0.009249528 0.017090322 0.00817907 -0.019250283 0.0014434325 -0.015799612
-0.008044588 -0.012599531 0.04294172 0.012454083 -0.004162176 -0.005811098 0.0016196994 0.007894933
0.003186066 -0.017533379 -0.0012510425 -0.0077568977 -0.00931141 -0.040866446 -0.023445226 -0.0046712365
-0.0117541645 0.016879987 0.003459774 -0.014232978 0.043668438 -0.023945296 0.010560601 0.008217061
-0.0010372287 -4.8847446e-06 0.0108201355 -0.0039734044 0.030298851 -0.015848227 0.010833082 -0.016238797
-0.043045808 -0.03938161 0.022188533 0.010409747 -0.079994366 -0.008330693 -0.015928395 -0.058755558
0.0024373 -0.025370114 0.010647542 0.025364071 -0.008970867 0.010375213 0.02022358 0.014543259
-0.032796092 -0.0014829012 -0.0060627833 0.0016397084 0.0118678035 -0.022065055 -0.022862319 -0.003363021
-0.02523249 0.022139857 -0.009626187 -0.017580384 -0.010077024 0.0042501073 0.013429042 -0.024742711
0.033568595 -0.007811699 0.020102331 -0.009724125 0.0017560063 -0.012527362 0.068581335 -0.025380481
-0.019572942 -0.05445535 -0.011580432 -0.018555805 0.016566632 -0.01962199 0.0006672757 -0.005429724
-0.01794998 -0.03704829 -0.012263246 0.018783664 -0.0027442593 0.013385983 0.0045027114 0.004381013
-0.021769874 -0.0055034105 0.026279949 0.015579901 -0.005903507 0.014844664 -0.026386535 -0.042150475
-0.0038051056 -0.001631688 0.03214862 0.020178799 0.008517706 -0.0038603558 -0.013950598 0.005568317
0.021453572 -0.022137202 0.0080216 -0.0024356542 0.012159346 -0.0046772202 -0.004155868 -0.007043148

body.block2.conv.bias f4 [32]
00000000: 7c22 333c e586 5abc 4f82 8f3c a4dd b73c
00000010: eb93 74bd 2403 9bbc 7a20 d4bc 3caa bfbb
00000020: a680 023c ca7a 693c 1dcc 133b 070f 683d
00000030: 088c 53bd 27ee 273d 8bcb 36bd f499 13bd
00000040: 6b94 1e3d 18b6 6e3d 2b07 c73c 5b7c 0fbd
00000050: 8ecd 4dbd 886a 3e3d 0b95 223d 1867 303d
00000060: e5f0 eebc 947c b83c c470 403d 6253 833b
00000070: 158a 15bd e33b c93b 1226 903c 5d97 1f3d
0.010933515 -0.013337825 0.01751819 0.022444554 -0.059711378 -0.018922396 -0.025894392 -0.005849151
0.0079652425 0.014250467 0.002255208 0.056654956 -0.051647216 0.040998604 -0.044627707 -0.036035493
0.03871576 0.058279127 0.02429541 -0.035030704 -0.05024486 0.046488315 0.03969292 0.043067068
-0.029167602 0.022520341 0.04698254 0.0040077427 -0.03650864 0.0061411723 0.017596278 0.03896271

body.block2.norm.weight f4 [32]
00000000: 1e92 823f 6fdd 753f 59b3 823f 981d 823f
00000010: 9b52 713f b7e9 7f3f 2967 7a3f 1340 753f
00000020: 7836 783f 6745 833f 9d0c 853f d370 843f
00000030: 09ed 763f d4d3 803f d5a3 7b3f 0fab 823f
00000040: 4d5e 813f 66b6 7a3f ea94 813f 2d11 7c3f
00000050: 385f 7f3f f636 843f 6982 7d3f e58f 803f
00000060: b91c 7a3f f3a1 783f 32c5 7f3f dda2 803f
00000070: 00ed 723f 6fb7 823f 1cb0 853f 0208 7e3f
1.0200841 0.96041006 1.0210983 1.0165281 0.9426667 0.99965996 0.9781366 0.95800894
0.9695811 1.0255555 1.0394474 1.0346931 0.96455437 1.0064645 0.9829686 1.0208453
1.0106903 0.9793457 1.012357 0.9846371 0.9975467 1.0329273 0.99027115 1.0043913
0.9770008 0.97122115 0.9991027 1.0049702 0.94892883 1.021223 1.0444369 0.9923097

body.block2.norm.bias f4 [32]
00000000: d8b6 adbb fe74 73bd 7f77 33bd 6f54 5bbb
00000010: b84e 7cbd 6ddc 60bd 9be6 1ebd 71ea b7bc
00000020: 31c2 87bd e417 603b 3a18 81bb ea02 0f3b
00000030: 6372 86bd 32aa c8bc 256d 96bd 7f90 70bc
00000040: f0a0 21bd a4f8 18bd 21ef 6dbb ab12 d2bc
00000050: aa5d 24bd 0020 13bd 04f0 8d3c c68b 73bd
00000060: 987a 82bc c232 1ebd 8ea0 f1bb 4d27 89bd
00000070: fc1a 81bd b672 85bd aff9 b53b ee5f acbb
-0.0053013377 -0.059437744 -0.043815132 -0.0033467074 -0.06159851 -0.054897714 -0.03879414 -0.022450658
-0.06628836 0.0034193927 -0.0039396556 0.0021821805 -0.06564786 -0.024495218 -0.073450364 -0.014682888
-0.039460123 -0.037346497 -0.0036305862 -0.025643667 -0.040128388 -0.03591919 0.017326362 -0.05945947
-0.015927598 -0.038622625 -0.007373876 -0.06696949 -0.06303975 -0.0651602 0.0055534462 -0.005260459

body.block2.norm.running_mean f4 [32]
00000000: 41cb 8dbe 3ed8 063d b6ee 87bd ff12 0cbe
00000010: 6ff2 cc3d cfd1 31be 7027 633e f8e2 5ebe
00000020: b7ae 893e 37f1 063d e647 cebe d57e f73c
00000030: 7055 5fbe 9372 503e f97a 0e3e 2f2d f3be
00000040: 6952 3abc 0563 4d3d dbf8 b6bd 9fe5 d3bd
00000050: 1ae8 29bd f896 dcbc a77d d9bd aea1 ec3d
00000060: bf39 05bd deaa e1bc 361e 2dbd 78ab 4f3e
00000070: c801 50bc 190c 063e eab2 28be 75af 26be
-0.27694133 0.03292107 -0.066373274 -0.13679121 0.10007178 -0.17365192 0.22183013 -0.21766269
0.2689111 0.032944884 -0.4028923 0.030211845 -0.21809936 0.20356207 0.13914098 -0.4749541
-0.011372187 0.05014326 -0.08934184 -0.10346531 -0.041481115 -0.026927456 -0.106196694 0.115542755
-0.032525774 -0.027547296 -0.04226514 0.20280254 -0.012695737 0.13090552 -0.164745 -0.16277869

body.block2.norm.running_var f4 [32]
00000000: 45a6 a93d b853 e83d fa36 ea3c 1300 833d
00000010: 6d39 013e 89e9 123d 22d6 853e ad05 7e3d
00000020: ff0b f53e d478 413e 6d5a 813d 869e 993d
00000030: c2b5 913d dfad 563d d7d6 693d a2ab 043e
00000040: 1e81 553e 0373 af3d 0697 0a3d 35d2 313d
00000050: 869c 393d 4729 a73d cf5c 753d d34b cc3d
00000060: d3ba c33e 68cf 393d c0ff c33d e6ca 673d
00000070: 2a8f 2b3d a163 133e e5cc 383d fa2d 553d
0.082836665 0.11344093 0.028590668 0.063964985 0.12619562 0.035867248 0.26139933 0.06201713
0.47860715 0.18893749 0.063160755 0.07500939 0.07114746 0.05241191 0.057089653 0.12956098
0.20850036 0.085668586 0.033835433 0.04341336 0.045315288 0.0816217 0.059902962 0.099754
0.38228473 0.045363814 0.09570265 0.056589983 0.04188458 0.14393474 0.045117278 0.0520458

body.block3.conv.weight f4 [32, 32, 3, 3]
00000000: 5f50 9bbc 0ec8 4f3c 0fb7 b9bb ad22 b13c
00000010: 1b80 1abc ed20 19bc f418 883c 755a b13c
00000020: a70b 753c 882d 323c dd9d 22bb a062 9cbc
00000030: 619e d43a 1bf9 483c ec62 90bb 9710 bcbb
00000040: a31d 013c 4c08 83bc 0c2c cd3c 9a4e c73b
00000050: 34da 91bc b378 48bc d6c0 6abc d211 31bd
00000060: bf03 963b 0688 48bc a8db ccbc d5d4 70bc
00000070: ab98 e1bb 9318 a93c 92c2 863c 867f a1bb
00000080: c4b6 223b 2b08 4f3c 8176 85ba 6293 c1bc
00000090: 0f61 3e3c 582f 313c dbab 0c3d a40d 80bc
000000a0: 993d 5c3b 01d5 153c 84b3 853a bf01 5e3c
000000b0: 7c3d 2d3c f216 8dbc 4bf3 a83c dfc0 073d
000000c0: eb04 febc 9c00 cfbc beea 703d 9f0a d3bc
000000d0: 259c 20bd 6227 113c db4d 50bc 1a16 00bd
000000e0: 6575 94bc 4130 38bc 4feb 823c aa7f e8bc
000000f0: 3758 823b 9695 19bb 4268 d9bb e776 4ebd
00000100: 6220 02bd 13c3 d4bc c630 053d 314d a8bc
00000110: bda6 ffbc 4b11 b8bc 4353 1d3d 4908 72bc
00000120: a2cb 26bc 74c7 48bc 6aef 963c f802 12bc
00000130: 8d90 143c 8880 6bbc 0bb2 e53b 3da9 423c
00000140: 7e3d 393c 3f6b e63a a47b e2bc aa8e 86bd
00000150: f189 2f3c bd85 efbc dcad b3bc f495 0c3d
00000160: 96e4 91bc 0154 563c a3a2 7cbc 5d24 24bd
00000170: 6a40 aabc 5277 bebb 0982 80bd 4204 39bd
00000180: f708 b53a 29f1 79bc 6330 58bd 87b0 083d
00000190: b9d1 4fbc a25c bbbb 3040 e93c 62d9 e93b
000001a0: a1d8 64ba 026b 6fbc aa61 cfba c0a2 3cbc
000001b0: 609f f5bc 50d7 103c f931 f03c d1dc 80bc
000001c0: 4482 663c 6cc8 3838 fd76 4dbc 3837 413c
000001d0: 4414 3e3d 3c86 70bc 0a85 913c 4fbc febc
000001e0: 2fae 5c3c 8e7e 8ebc 9d83 b5bc e0dc 29bc
000001f0: 8245 e13c 8c1a 153c 405d bfbc e5e4 cabc
00000200: 77cd d4bc 9bc6 38bc c0c8 273a 467f 4e3d
00000210: 26b7 653c 41b6 c3bb 4f63 83bc acb2 8bbc
00000220: e7aa db3c 05a4 4e3c 8a37 48bd 13b3 e2bc
00000230: 5af8 61bd 4cfc 2abd 470c 8d3c 8a90 6b3c
00000240: b6f2 3c3c 21f2 e9bb f4f8 07bc 4d6e babc
00000250: 935c 02bc f1b5 7dbc a797 46bc 2bd0 803b
00000260: e810 fd3c 13f9 be3b 6273 d0bc b68d d3bc
00000270: 9879 f53c a8c7 29bc 0e6e a2ba 812a 213d
00000280: 53c4 34bb 6c35 8dbc 1cf7 8cbc b8ba e93c
00000290: 5833 413c eca2 efbc a5a6 2bbc 7813 86bc
000002a0: 0938 cbbc 0419 053d a17e 45bc 7796 03bc
000002b0: f0ce d2ba 0dc1 75ba c19b f23b c469 44bc
000002c0: b9cd 8b3c 3a80 7fbc 2b44 f0bc 3db7 133b
000002d0: 54d6 55bc 7f48 00bd 2cb5 04bd 63e3 94bc
000002e0: 99bc 64bd 6b45 8a3c 0c0d 5f3c 51a6 fbba
000002f0: b650 36bd 7169 75bc 6a42 6f3c 3b71 433c
00000300: 9203 293c f02c e33b 124f 803c 8ef9 82bc
00000310: 599f 3cbb 223d aeb9 66b2 eebc 1220 403d
00000320: 474d 47bd f65b 96bc b49b 0d3d 02c1 53bc
00000330: 8905 be3c 66ca e03c 126e 023c 0f72 45bc
00000340: 9085 24bc 0c1f 713c 08da 74bb 7170 ac3c
00000350: 8f52 1abc a970 923c 617f 413c 9d4d c83a
00000360: c8ee 993c ac8b dd3c fb2f eb3c c4ca 203d
00000370: 8946 8b3b 526a 47bd de77 03bb a10b 7e3c
00000380: 670f a73c 300e bbba e502 d0bb 601e b8bc
00000390: 5e98 703b cc81 a43c 44c8 323c 5deb a03c
000003a0: ab19 813c b917 553c 89f4 5f3b 7624 9bbb
000003b0: 8fbe 1bba 4007 f93b feff 8ebc 9a01 713c
000003c0: ce4d 0f3d 3a66 3a3b 94cc b63c bba6 ee3c
000003d0: 4c06 b5bb 9921 79bc 224c 283c 1a03 c7bc
000003e0: 26c4 183c 7ed1 8bbb 38a1 643c cc00 793c
000003f0: 24b7 b9bb f9b9 aa3c a77b 003d 1a8b 3fbb
-0.018959222 0.012681974 -0.0056675742 0.02162298 -0.009429957 -0.009346229 0.016613461 0.021649579
0.014956391 0.010875113 -0.0024813332 -0.019089997 0.0016221517 0.012266423 -0.0044063237 -0.0057392824
0.007880601 -0.015995167 0.025045417 0.006082368 -0.017804243 -0.012235808 -0.014328202 -0.043229885
0.0045780833 -0.012239462 -0.025007084 -0.014699181 -0.0068846545 0.0206416 0.0164502 -0.004928532
0.0024828175 0.012636225 -0.0010182412 -0.023629848 0.01161982 0.01081451 0.03434358 -0.015631504
0.003360605 0.009145022 0.0010200595 0.013550221 0.010573741 -0.017222855 0.020623824 0.03314292
-0.031008204 -0.025268845 0.058817618 -0.0257619 -0.03921141 0.008859487 -0.012713875 -0.031271078
-0.018122384 -0.011241973 0.015981345 -0.028381187 0.003977801 -0.0023435107 -0.006634743 -0.050406363
-0.031769164 -0.025971925 0.032517217 -0.02054462 -0.031207437 -0.022469183 0.038409483 -0.014772483
-0.010180386 -0.012254585 0.018424708 -0.008911841 0.009067667 -0.014373906 0.0070097498 0.01188117
0.011306165 0.0017579569 -0.027646847 -0.0657018 0.01071404 -0.029238576 -0.021933489 0.034322694
-0.017809194 0.0130815515 -0.015419635 -0.04007374 -0.020782668 -0.005812564 -0.06274802 -0.045170076
0.0013811876 -0.015255251 -0.05278052 0.033371475 -0.012684279 -0.00571783 0.02847299 0.0071365098
-0.000872979 -0.014612915 -0.0015821953 -0.011513412 -0.029983222 0.008840397 0.029320704 -0.015730293
0.014069144 4.4055676e-05 -0.012540576 0.01179295 0.046406046 -0.0146804415 0.017763633 -0.031095652
0.013469263 -0.01739433 -0.022157485 -0.010367602 0.027498964 0.009100568 -0.023359895 -0.024767349
-0.02597688 -0.01127782 0.00064004585 0.050414346 0.014020717 -0.005972654 -0.016038565 -0.01705297
0.026814891 0.0126123475 -0.04888109 -0.02767328 -0.055168487 -0.041744515 0.017217768 0.0143777225
0.011532476 -0.0071394597 -0.008299101 -0.022757674 -0.007956642 -0.015485273 -0.012121118 0.0039310656
0.03089185 0.005828032 -0.025445644 -0.025824409 0.029965207 -0.010362543 -0.0012392418 0.039347176
-0.0027582839 -0.017237388 -0.017207675 0.028531417 0.011792026 -0.029252492 -0.010476743 -0.016366705
-0.024806993 0.03249456 -0.012054116 -0.008031479 -0.0016083401 -0.0009374775 0.007403821 -0.011988107
0.01706587 -0.015594536 -0.02932938 0.0022539638 -0.013051588 -0.031319138 -0.03239934 -0.018174833
-0.055843923 0.016878804 0.01361395 -0.0019199346 -0.044510566 -0.0149787525 0.014603237 0.011928852
0.010315793 0.006932847 0.015662704 -0.015988138 -0.0028781502 -0.00033233414 -0.029137801 0.046905585
-0.04865768 -0.018354397 0.03457232 -0.012924435 0.023195999 0.027440261 0.007960813 -0.0120511195
-0.010041609 0.014716875 -0.0037361402 0.02104971 -0.009419098 0.017875986 0.011810155 0.001528192
0.018790618 0.02704414 0.028709402 0.039255872 0.004250352 -0.04868538 -0.002006046 0.015505702
0.020393087 -0.0014271196 -0.0063480013 -0.022475421 0.0036711912 0.020081423 0.010912005 0.01964348
0.01575931 0.013006144 0.0034172854 -0.004734571 -0.0005941176 0.007599741 -0.017456051 0.0147098545
0.03498631 0.002844228 0.022314347 0.029132238 -0.0055244323 -0.015205764 0.010272058 -0.024293471
0.009324109 -0.004266917 0.013954453 0.015197944 -0.005667584 0.020840632 0.031367924 -0.0029227198

body.block3.conv.bias f4 [32]
00000000: 7345 15bd 3d69 c83b 0f5f 97bc 6201 4a3d
00000010: 9e7e 79bb 038c 53bc 5565 0b3d 79e2 4d3d
00000020: 5f9a 88b8 2097 89bc c01b b6bc 0fd9 053d
00000030: aca8 4e3c f450 28bd 27a4 8e3c 72e5 d53c
00000040: 089f 73bc ed00 ef3b d12c 673b 6ead 093c
00000050: 4cf9 d43c 16c8 fa3c 6156 5039 7e55 fcbc
00000060: e083 63bc 4a0f c83c d1c2 adbc 3b2f aabc
00000070: 7d3e 08bd 6cfc 343d d59e f13c fb4f 45bc
-0.036443185 0.006116061 -0.018477945 0.049317725 -0.0038069854 -0.012911799 0.034032185 0.05026481
-6.513739e-05 -0.016795695 -0.02223003 0.032677706 0.012613457 -0.041092828 0.017412258 0.026110385
-0.014869459 0.0072938115 0.0035274515 0.008403165 0.02599778 0.030612987 0.00019868604 -0.030802485
-0.013886422 0.024421353 -0.02121106 -0.020774474 -0.03326272 0.04418604 0.029494682 -0.012042995

body.block3.norm.weight f4 [32]
00000000: b93c 823f e42f 833f 6e15 813f 4e6d 773f
00000010: 1c9d 823f d054 823f e51d 823f 096b 7c3f
00000020: 6621 773f 6701 813f 4fef 783f aa32 813f
00000030: 703f 803f c4ee 823f 78dd 803f 3c18 753f
00000040: 7d00 7f3f e014 823f 1789 853f 92e2 743f
00000050: dc0d 813f f449 843f 0105 843f 04ef 7d3f
00000060: 17c1 803f fa8b 7d3f f6bb 813f 15e0 763f
00000070: 7c7e 7a3f 84b8 773f 4182 7e3f 0fea 7b3f
1.0174781 1.024899 1.0084665 0.9665116 1.0204196 1.0182133 1.0165373 0.9860082
0.96535337 1.0078553 0.97240156 1.0093586 1.001936 1.0229115 1.0067587 0.95740104
0.9961012 1.016262 1.0432462 0.9565822 1.0082355 1.0335069 1.0314027 0.99192834
1.0058926 0.9904171 1.0135486 0.9643567 0.9784925 0.96765924 0.994175 0.9840402

body.block3.norm.bias f4 [32]
00000000: 9407 2dbc b714 3f3c 383c 2fbd c501 63bd
00000010: 4802 ccbc 3366 c6bc 2505 61bd 2428 14bd
00000020: d0df 9cbd f425 81bc e728 2ebc 65e6 09bd
00000030: 518e 36bd 47f8 babd 1461 3c3b c72c 58bc
00000040: edab 45bd 50d8 67bc 3deb 8ebd ebd0 12bd
00000050: a063 e9bc 875e b0bc 4f2d 7dbd 5409 06bd
00000060: 8d9b a93c 94f4 2ebd 9361 debb 6ff5 febc
00000070: 3122 0ebd 8d4b 02bd 66ac 85bd ae9e 11bd
-0.010560889 0.011662654 -0.04278204 -0.05542161 -0.024903432 -0.024218654 -0.054936547 -0.036171094
-0.07659876 -0.015765168 -0.010629869 -0.033666987 -0.044569317 -0.091293864 0.0028744387 -0.0131942695
-0.048259664 -0.014150694 -0.06978462 -0.03584377 -0.028489888 -0.02152945 -0.061810788 -0.03272374
0.020704055 -0.042713717 -0.006786534 -0.031122891 -0.034700576 -0.031810332 -0.06527023 -0.03555172

body.block3.norm.running_mean f4 [32]
00000000: faab 2cbe 6cbb 46be 93de 10bd bb4a 5e3e
00000010: d0ae 2fbe eb6d 633b 44e3 a13d c7af e53d
00000020: 1b71 363e 4502 75be 727e bdbe 0e86 af3d
00000030: f150 0b3e 4acf ed3c 3d06 ebbd dead f93d
00000040: 14ae 27bd 58c6 043d 6854 203e 0181 9dbd
00000050: b0da 193e c1e8 1b3e 98ae 113e 43ec debd
00000060: d89b 6cbd d62a 693d 3cd6 263e 6cfe c73d
00000070: a3d8 4ebd 0f07 b13a 7db7 9bbc b75c 643d
-0.16862479 -0.19407433 -0.035368513 0.21708195 -0.1715653 0.0034702967 0.079046756 0.112151675
0.17816584 -0.23926647 -0.37010533 0.08570491 0.13605095 0.029029507 -0.11475799 0.12191366
-0.0409375 0.032415718 0.15657198 -0.07690621 0.15024829 0.15225507 0.14226758 -0.10884907
-0.05776581 0.056925617 0.16292661 0.09765324 -0.05049957 0.0013506132 -0.019008392 0.055752482

body.block3.norm.running_var f4 [32]
00000000: 0c68 d63d 8597 a13d c817 933d f4bd 933d
00000010: c4df f03e 7635 ea3d 0223 893d f861 cc3d
00000020: d359 033e a0f1 413d 0985 733d c5c0 983d
00000030: 9be4 633e 2ad7 c83d db6f 4d3d cfdf 343e
00000040: 135a d43c 4024 093e 23dd 7d3e e752 943d
00000050: a4e2 5c3e 3d30 683e 8471 263e 82af 503e
00000060: 9d23 803e 1437 f43d cbea 8c3d 2d6f 3f3e
00000070: 7aba 973d bba1 dd3d c5b9 ce3d 2f5e aa3d
0.10469064 0.07890228 0.0718227 0.07213965 0.4704572 0.11435978 0.0669613 0.099796236
0.12827234 0.047349572 0.059453044 0.07458643 0.22255175 0.09806664 0.0501555 0.17663501
0.025921857 0.13392735 0.24791388 0.07242375 0.21570832 0.22674651 0.1625424 0.20379451
0.2502717 0.11924568 0.06880721 0.18694754 0.074086145 0.10821863 0.100940265 0.08318745

tail.0.weight f4 [3, 32, 3, 3]
00000000: 02ac ef3a e4e4 e1bc 995c ad3c 5807 f3bb
00000010: a9ff 2dbd 87d5 243c 9232 72bb 96d3 683c
00000020: 7b97 92bc ab43 313c 7c6d 823d 3b20 11bc
00000030: 8c1d b4bb 7ad2 783a ebc9 a1bc 6b25 493c
00000040: 57f6 bf3c eb39 333c 2e86 583c 2e72 35bd
00000050: a801 4abc 7e45 9b3a e49a bcbc 48a3 8dbb
00000060: 8e72 80bc f495 ed3a a6d7 043d cbf7 353d
00000070: 628f bd3c c00b 4e3c bb8e a23b baab b83b
00000080: c19e 613b bc75 70bb 9e97 e83b dfd2 49bb
00000090: ad32 a8bc 8292 2abd df30 3dbd 7cf8 d23b
000000a0: 8ff4 c4bb 4303 973c 07d6 b83c ebed 9c3c
000000b0: ae52 13ba 6dbf 4c3d 5bb4 603c 25ad 1e3c
000000c0: 315c a13c ca19 563c c6c9 6abb ecf6 d83b
000000d0: a0c1 153d b8be 7a3c eb3c 463d 6107 443d
000000e0: db01 3eb9 89ee ea3b f80a 9fbc 32f6 88bc
000000f0: 1f34 693c e69b 08bc 01e2 993b 8027 19bd
00000100: f36e ebbb cde1 e6bb 8957 363c 0df0 1b3d
00000110: 8ffe 323c d2d3 1a3c fd05 aebc 238d 3b3c
00000120: 39c1 05bd 19aa 713c 8175 993c b0c2 963b
00000130: 140c e93c 9d38 643c daca 1e3b a496 ac3c
00000140: 46b3 4c3b e556 63bc 9bae 6e3c 2c54 dd3b
00000150: d34e bd3b d187 cd3c 9f0f cc3c 1e79 52bb
00000160: c9bb 5c3b 7f4e b3bb 021d 4c3c 2091 1ebc
00000170: b903 f1bb a90e e93c 0ba0 e33c ef55 14bd
00000180: 15b5 653c 8f23 733c 5637 d5bb e969 a63c
00000190: 68ca a43a ae5e fa3c 5d29 7f3c 40e3 fe3c
000001a0: d073 ec3c 4726 4a3c e306 173d bd6f 22bb
000001b0: d8d4 59ba 9c5e 9bba 151d 36bd 78d7 06bb
000001c0: b6e2 413c ee0d 7cb9 4e8e 743c a221 04bc
000001d0: 0626 20bd 205a 6c3c cb15 8b3c 2151 aa3d
000001e0: de00 a93c a15b 9e3c 491f 3b3c 06b1 71bc
000001f0: da1d eebb 55d7 a3bb faa1 bdbb 0519 14bc
00000200: d1cb 6cbc 2797 06bc 10a7 0fbb f0e4 37bc
00000210: 3468 4ebb 9ca3 25bc 06ca 7f3c a773 7d3c
00000220: 5407 493c e016 7e3c 9cf5 df3c 3e07 373d
00000230: b715 463c d4cd cf3c d1f5 083b 88dc 25bc
00000240: e40e 2dbc 59dc d63c 5a2f 7bbd d215 aa3c
00000250: e6b6 23b7 c831 6c3c d855 7abc 62e8 1dbc
00000260: 8bc3 0d3c c0de e4bb 3c89 23bd cc71 9ebd
00000270: 64ae d7bc d6f1 033d be1c 553c 6392 603c
00000280: d563 8bbb f313 37bc a481 843c 61f9 503c
00000290: 04f5 a23c e3b9 d2bc 1180 8fba b9d9 1f3c
000002a0: 72ab 88bc 2b9c a1bc 22bf cbbb 83ad d13b
000002b0: 6f3b 893b 187c c33c b5c9 44bc cbab 44bd
000002c0: 3718 a7bc e752 033c 07ce 073c ee44 0abb
000002d0: 2777 14bb 58cc cdbd a3c5 a63b a2f5 4abd
000002e0: 3fee 9fbc 8359 a7bc 6496 fbbb e443 e9bc
000002f0: 41f5 b7bc 2bfd 7a3c af8f 0b3d 6620 773c
00000300: 3eb8 fcbb 8e00 c1bc a1ce 443a 983a 2b3d
00000310: 582a 1b3c f6c0 153d 2f87 10bd a7c8 3dbd
00000320: 8a1c f43b 955c 0f3c f4f6 0fbd db0d d23c
00000330: d351 713c 8ee7 b0bc 18fe b7bc 6b41 0ebd
00000340: 9c3c 14bd a692 35bc fb7d cb3c 9e1f 273c
00000350: 83fe 613c c2ff 2a3c be49 d1bc 47f6 3c3b
00000360: ee85 edbb d6b1 1fbd b6ec 0dbd e4e4 123c
00000370: f68b 15bd dcc7 88bb 6514 79bc 278f ea3c
00000380: ebb0 283c 6c89 bbbb 39cb b53c cb18 023d
00000390: 85a0 df3a ec61 093d 4afb a33a 63f2 edbb
000003a0: f5ab 8e3a d051 193c 7a20 f5bc 176d 263c
000003b0: 49e4 a93c d202 a7bc d7be 96bc 8afe ebbb
000003c0: 2e97 e53c 4e98 39b9 328f ec3c d900 44bd
000003d0: 62db 0b3c 888c 78bd 6eed ccbc e43a 6abc
000003e0: 1ba7 813c c163 153c 91a7 93bb 9d56 1bbc
000003f0: 2c09 843b 10ef 5b3c 9b74 28bd e226 c6bc
0.0018285515 -0.027574964 0.021162318 -0.007416647 -0.042480145 0.0100606745 -0.0036956412 0.014210602
-0.017894497 0.010819356 0.06368539 -0.008857782 -0.0054966863 0.00094918127 -0.019749602 0.012276988
0.023432894 0.010939102 0.013215585 -0.044298343 -0.012329496 0.0011846272 -0.023023076 -0.004322443
-0.015679624 0.0018126355 0.03243222 0.044425767 0.02313966 0.012576044 0.0049608625 0.005635706
0.00344269 -0.003669127 0.0070981523 -0.0030795855 -0.020531977 -0.041643627 -0.046189185 0.006438313
-0.006010599 0.018434172 0.022562994 0.019156417 -0.0005619925 0.049987245 0.013714875 0.009684836
0.01969728 0.013067672 -0.0035825833 0.0066212323 0.03656161 0.01530426 0.04839794 0.0478586
-0.00018120503 0.007169549 -0.01941441 -0.016718958 0.014233618 -0.00833795 0.004696131 -0.037391186
-0.007184857 -0.0070459605 0.011129268 0.038070727 0.010924949 0.009449916 -0.02124309 0.011447224
-0.032654975 0.014750027 0.018732788 0.0046008453 0.028448142 0.013929513 0.0024229796 0.021067925
0.0031234785 -0.013875698 0.014567996 0.006754419 0.005777219 0.025089176 0.024909792 -0.0032115649
0.0033681265 -0.005472004 0.012458088 -0.009678155 -0.00735518 0.028449373 0.027786275 -0.036214765
0.014020224 0.014840021 -0.0065068407 0.020314174 0.0012572529 0.030562725 0.015573827 0.03111422
0.028863817 0.012338228 0.036871802 -0.002478584 -0.0008309609 -0.0011853757 -0.04446133 -0.0020575207
0.011833837 -0.00024037782 0.014926506 -0.008064659 -0.039098762 0.014425784 0.016978165 0.08316255
0.020630296 0.019330801 0.011421033 -0.014751678 -0.007266742 -0.005000035 -0.0057871314 -0.009039168
-0.0144528905 -0.008214748 -0.0021919645 -0.011224017 -0.0031495215 -0.010109808 0.015612131 0.015469468
0.012269814 0.0155083835 0.027338795 0.04468464 0.012090138 0.025366701 0.002089847 -0.0101233795
-0.010562632 0.026228117 -0.061324455 0.020762358 -9.7581415e-06 0.014416166 -0.015279256 -0.009637924
0.008652578 -0.0069845617 -0.0399258 -0.07736549 -0.026328273 0.032213055 0.013007341 0.013706776
-0.0042538443 -0.01117419 0.016175099 0.012754769 0.019892223 -0.025723403 -0.0010948201 0.009756499
-0.016683314 -0.019727787 -0.006217853 0.006398858 0.0041879932 0.023862883 -0.012010981 -0.048015397
-0.020397289 0.008015371 0.008288867 -0.0021098214 -0.0022654028 -0.10048741 0.005089478 -0.04955066
-0.019522784 -0.020428425 -0.00767784 -0.028474756 -0.022455813 0.015319149 0.034072574 0.015083408
-0.007712393 -0.023559835 0.0007507597 0.041803926 0.009470545 0.036560975 -0.03528517 -0.046333935
0.007449691 0.008750101 -0.035147622 0.025641372 0.014728981 -0.021594789 -0.022460029 -0.034730356
-0.036190614 -0.011082327 0.024840346 0.010200409 0.0137935905 0.010436954 -0.025547858 0.0028833316
-0.0072486317 -0.038987957 -0.034649573 0.008965705 -0.03651043 -0.0041742157 -0.015202616 0.028632713
0.010296087 -0.005723169 0.02219163 0.031761926 0.0017061388 0.03354065 0.0012510803 -0.0072615608
0.0010884987 0.0093578845 -0.029922713 0.010157845 0.020738738 -0.020387087 -0.018401546 -0.0072019743
0.02802619 -0.00017699713 0.028876875 -0.04785237 0.008536192 -0.060680896 -0.025015559 -0.014296267
0.015826752 0.0091180215 -0.0045060595 -0.009481099 0.0040294137 0.013423696 -0.04112683 -0.024188463

tail.0.bias f4 [3]
00000000: 2797 bd3c 5cf2 693c deb4 1fbd
0.023143364 0.014278974 -0.038990848
