code/Output/birds/pdl_e8000_1px_lr0.0005a5.0_up-conv5_1_W[1.0, 0.5, 0.1, 0.075, 0.075](8)/1/netG.pth (torch, 130371 bytes, 26 tensors)

head.conv.weight f4 [32, 3, 3, 3]
00000000: 9d3d 583c d4a3 5a3d 03e4 523d e7d3 d13c
00000010: 258f f5bd 05a4 99bd ba84 8d3d 8834 25bd
00000020: 02f9 70bd 71a7 9fbc 3198 0b3d 0d41 b33d
00000030: 9b64 d2bc 42c1 54bd a89b 49bd 2349 773d
00000040: dbfe c53b 2338 ab3c 31c0 5d3c 15c2 333d
00000050: 2909 523d e4a9 6e3d 0105 0c3c 3364 0d3c
00000060: 2192 053d 88e3 da3c 4bd9 a63c d446 853d
00000070: 46ed e2bb 0888 99bc 5377 8a3d ad7e 443c
00000080: 817a 57bd 40bc 00bd 760e 4bbd 865d a8bd
00000090: 41c7 a93d 3028 323d e108 62bc f0b2 113d
000000a0: 8d68 513d fc2b bc3c 04e9 c8bc 2fcb 7f3c
000000b0: 53c5 15bd 6e77 473d 44c1 863c 643c 9a3d
000000c0: 4c8d 0e3c d914 96bc e925 993d 32bb bcbc
000000d0: 7670 3f3d e00d ae3d e7f9 853c 845e a7bc
000000e0: 0407 613d 04a2 dabc bedd bd3c 47ac 04bd
000000f0: 4fa0 0bbd 9a64 a63c 00a7 a5bc f83c 073c
00000100: bac5 a1bd e9d0 17bd afbf b2bc 4775 fd3c
00000110: ae1a 00bd b665 2b3c 8697 663e f4a7 363d
00000120: 3908 87bd 03f8 87bd be5a f5bc abb0 c6bb
00000130: 1a67 9f3c ee55 cbbc 7390 383d acf1 e63d
00000140: e881 b13c ad41 f3bc 3005 0c3d 4d77 b5ba
00000150: cd6f 103c fe70 293d c34b 123d 6096 27bd
00000160: 95a6 9c3c 4555 cd3d 19b1 d4bc 1df5 08bd
00000170: 7810 353c e809 c8bc a289 31bc 0812 0bbd
00000180: dcb6 9abd 60f9 ba3a 2b3a 113e 0d57 86bd
00000190: 9cf5 1bbd 34a5 c5bc b73b 0dbd 094e 6bbd
000001a0: 26c1 15bd b3c2 6abc 176b b93c 0101 b73d
000001b0: 561d 9e3c 2e23 a33c 6c9e 1e3d 967e c8bc
000001c0: 584b 183d 81c2 1f3d d5b5 043c 2af4 833b
000001d0: 5de3 33bc db50 b63d 66ec a43d 3675 6b3d
000001e0: b558 2ebd b1b4 c63c 6a60 61bd 7947 643a
000001f0: bd89 77bd 9af8 6bbd c271 e43d 4256 963d
00000200: 2ba0 0d3d af8c 8c3d ab4f c93c e289 fc3c
00000210: e513 163d 8a7f febc 8075 2bbd 563e aa3c
00000220: f14f 273d e093 423d 80d1 cd3c d376 e7bb
00000230: c675 563c 10ce 66bd 7d7d d83c 7b2f 913d
00000240: 5204 733d 8a47 173c 8df8 853d 2dc3 27bd
00000250: 4575 e9bd be8e 78bd a515 f6bc e63b 04bd
00000260: 66f2 0abb 9e8b 693d 3530 593c 95c7 413d
00000270: b565 273d 3b3f 81bc 96bf 6b3a 100a 9d3d
00000280: a28b f13c 67d2 da3d 213f 413d f02e 2e3d
00000290: 880d a23d b69a f03c e5cd 01bd 5810 0d3d
000002a0: 9761 a63b 56cd b13c 1044 af3c 0ad8 993d
000002b0: 210f 1abd f34d e43d c614 1dbb 087c 9fbd
000002c0: f177 5c3c e343 a03d 8ed7 913d e924 8f3d
000002d0: c860 403d df05 823b d748 943c e50b 1b3d
000002e0: e133 a6bd 8ac2 6dbc 3e41 e03c fe50 71bc
000002f0: 0717 0a3d 0bb5 573d e109 c53b 9da1 6cbd
00000300: f32c 8a3d aff4 0d3d 745f 0dbc 64ae 323c
00000310: 42e5 10bd 434f 38bd 29ce 6d3c 3640 45bd
00000320: 4506 e3bd f056 103d 5a1e dd3c 71fa 28bd
00000330: bed2 4cbd f031 1abd 37be 19bd ecb4 5cbd
00000340: 11d8 26bd 6aef 8cbc f1cf 0bbd e2fd 10bd
00000350: 0b1a f53b 6eb0 0ebd d1f4 4bbb bff0 ec3c
00000360: d5dc 073d 3ca7 62bb 6d1e cfbc 677f d53d
00000370: 73c6 843d b3fe 833d 4be8 11bd e4f7 583d
00000380: a503 9f3d 6f4d 293d 53d9 c1bc 192b 2b3d
00000390: eff1 3d3d 5e64 3e3d fe53 26bc 04a6 30bd
000003a0: 454b 50bd e25b babc 78a7 843c 93f4 583d
000003b0: cf12 913d a5c3 403d d893 933c b43b 513c
000003c0: 36ae 9cbd ad79 58bd cc3e 853c e8c3 1cbd
000003d0: eb5e 27bd 21bb eb3c ae3d 293d 5cf8 5abd
000003e0: d9ec ca3d cfad 29bd 92c4 55bd 923d 36bc
000003f0: 05d1 8a3d dc6f 28bd 921c 003c 23c7 8f3d
0.0131982835 0.053378895 0.05148698 0.025613738 -0.11990193 -0.07501987 0.06910081 -0.0403333
-0.058831222 -0.019489022 0.034080688 0.08752642 -0.025682738 -0.051942118 -0.04922071 0.060372483
0.006042344 0.020900792 0.0135345915 0.043886263 0.051278267 0.05826749 0.008546115 0.008629846
0.032610063 0.026719823 0.020367285 0.0650765 -0.006925258 -0.018741623 0.067610405 0.0119930925
-0.052607063 -0.03142953 -0.049574338 -0.08220963 0.08289958 0.043495357 -0.013796062 0.03557104
0.051125098 0.022970192 -0.024525173 0.015612408 -0.036565136 0.04869788 0.016449578 0.0753105
0.00870068 -0.018320488 0.07477934 -0.02303848 0.04673811 0.0849874 0.016354514 -0.02043081
0.05493833 -0.026688583 0.023177024 -0.03239086 -0.03408843 0.020311642 -0.020221233 0.008254282
-0.078990415 -0.037064467 -0.021819917 0.030939711 -0.031275444 0.0104612615 0.22518739 0.044593766
-0.06593365 -0.06639101 -0.029950496 -0.006063541 0.019458342 -0.024821248 0.045059633 0.11276564
0.02166839 -0.029694403 0.034184635 -0.0013844759 0.008815718 0.041367523 0.035716783 -0.040914893
0.019122401 0.100260295 -0.025963353 -0.033436883 0.01105129 -0.024418786 -0.010836037 -0.033952743
-0.07554409 0.0014264993 0.14182346 -0.06559572 -0.03807603 -0.024126627 -0.034480777 -0.057447467
-0.036561154 -0.0143286465 0.022634072 0.08935738 0.019301098 0.019914236 0.0387253 -0.024474423
0.03718123 0.039003853 0.008099993 0.0040269094 -0.010979501 0.08902141 0.08052902 0.057484828
-0.042565066 0.024256082 -0.05502359 0.000870816 -0.06043409 -0.05761013 0.1115451 0.07340671
0.034576576 0.06862771 0.024574121 0.030827466 0.036640067 -0.031066675 -0.041860104 0.020781677
0.040847722 0.047504306 0.025124311 -0.0070637255 0.013089603 -0.05634886 0.026427025 0.07089134
0.059330292 0.009233365 0.06541548 -0.04095762 -0.113993205 -0.060683005 -0.030039618 -0.032283686
-0.002120161 0.057017915 0.013256122 0.047309477 0.04086848 -0.015777221 0.0008993087 0.07667935
0.029485527 0.10684662 0.047179345 0.04252523 0.07912737 0.029370647 -0.031690497 0.034439415
0.0050775516 0.021704357 0.02139476 0.07511909 -0.037612084 0.1114768 -0.002396868 -0.07787329
0.013456331 0.07825448 0.07121192 0.06989462 0.046967298 0.003967985 0.018101139 0.03785314
-0.08115364 -0.014511714 0.02737486 -0.014728783 0.033713367 0.05266289 0.0060131405 -0.057771314
0.06746855 0.034657177 -0.008628715 0.010905836 -0.035374887 -0.044997465 0.014514484 -0.04815694
-0.1108518 0.03523916 0.026992012 -0.041254465 -0.050005667 -0.03764528 -0.03753492 -0.053883478
-0.0407334 -0.017204005 -0.034133855 -0.03539837 0.007479911 -0.034836225 -0.0031121264 0.02892339
0.033169586 -0.0034584543 -0.025283063 0.10424691 0.06483164 0.064450644 -0.035621922 0.052970782
0.07764367 0.041333612 -0.023663199 0.041789148 0.046373304 0.046482436 -0.010151861 -0.043127075
-0.050853033 -0.022748891 0.016193137 0.05296762 0.070836656 0.04706158 0.018014833 0.012770582
-0.076504156 -0.052850414 0.016265295 -0.03827277 -0.040862005 0.028775753 0.041318588 -0.05345951
0.09908456 -0.041425522 -0.052189417 -0.011123078 0.067781486 -0.041122302 0.007819312 0.07020404

head.conv.bias f4 [32]
00000000: 066a 2e3e 63dc d83d 9244 573d 4d56 073e
00000010: 4278 1fbd e17b e23d 7572 dcbc 7712 11be
00000020: ba77 f8bd 0147 54bd cd9a 483e eb7c 2c3e
00000030: 553a 7abe e3b4 b6bd e783 df3d 7b98 7fbd
00000040: 2c49 18be 4e7a 84bc 965c b8bd ed21 143e
00000050: 1553 ba3d 60f0 d03d c6bb b03d 9de8 363e
00000060: b31d 053e eb95 153e f28c 17bd 7750 6a3d
00000070: 1cbb dd3d 624e 1b3e 2ad7 ef3d 7fe9 58bd
0.17032632 0.105889104 0.052555628 0.13216515 -0.038933046 0.11058784 -0.026910046 -0.141672
-0.12132211 -0.051825527 0.19590302 0.16844527 -0.24436314 -0.0892122 0.1091383 -0.062401276
-0.14871663 -0.0161716 -0.09002034 0.14466067 0.09097878 0.10202098 0.08629565 0.17862172
0.1299961 0.1460797 -0.03699965 0.057205644 0.10826704 0.1516662 0.11710961 -0.052957054

head.norm.weight f4 [32]
00000000: c1df 783f 8ebe 743f 9143 803f be20 8d3f
00000010: b98f 913f cde4 933f 5b3a 853f 8c8a 533f
00000020: 0bc2 813f 6fe0 873f c4ef 803f 0d2b 8b3f
00000030: 1500 843f 5234 643f c65b 6c3f f662 7b3f
00000040: a5aa 6d3f 9e5d 783f f94f 623f 1770 743f
00000050: d96a 7b3f 35f6 843f 7c98 6e3f 4405 893f
00000060: 5fbf 6c3f 7616 623f 9831 6b3f e959 663f
00000070: ec50 5f3f 0e09 783f 661e 673f 100d 853f
0.9721642 0.95603263 1.002062 1.1025617 1.1371986 1.15542 1.0408434 0.8263328
1.0137342 1.0615367 1.0073171 1.0872513 1.0312525 0.89142334 0.92327535 0.9819788
0.9283851 0.9701785 0.8840328 0.95483536 0.9820991 1.0387636 0.9320142 1.0704732
0.9247951 0.8831552 0.9187255 0.8998094 0.8723285 0.96888816 0.9028076 1.0394611

head.norm.bias f4 [32]
00000000: 405e d2bd 8050 d7bd e095 09be ff64 b2bd
00000010: 28e3 e7bd d561 91bb d19e d8bd 0cfa eebd
00000020: e2d6 00be f7eb c4bd 0607 3dbe ed2d a5bd
00000030: c10d 67be 5bb1 6abe 8d13 48bd 0108 95bd
00000040: ffea 0abe 7393 83be 9be7 2cbe 9f6d 7ebd
00000050: 67cb 36be 9655 e5bd b9ef f3bd 78ef a73d
00000060: f51f 10be fdb4 1cbe 2475 b7bc 6202 07be
00000070: 3450 78be 7fac 863c a58f aabe e427 48be
-0.10271883 -0.10513401 -0.13436079 -0.0871067 -0.113226235 -0.0044367113 -0.10577167 -0.116687864
-0.12581971 -0.09615319 -0.1845971 -0.080654 -0.2256384 -0.22919218 -0.04884677 -0.07276917
-0.13566206 -0.25698432 -0.16885225 -0.06211626 -0.1785103 -0.11197965 -0.11910958 0.08199972
-0.1407469 -0.15303417 -0.022394724 -0.13184503 -0.24249345 0.016439674 -0.33312717 -0.19546467

head.norm.running_mean f4 [32]
00000000: 1b48 9a3d 0415 f43b 16ea 813d 5e6c 783e
00000010: c34d 4abd e31b af3d ba72 f03d 47ac f4bd
00000020: 52db 3a3c 912f f9bc 2978 403e c323 303e
00000030: 5682 1cbe c7c1 b1bd d6f5 223e 3ae4 263c
00000040: 974b 93be 3313 123e d5a8 aabe 5415 9c3d
00000050: 8a08 623e 23fe 843e de2a 413c 96c7 023e
00000060: 562d 0cbb d71f 9d3d 2da1 fcbd 9ca0 633d
00000070: 75ff 3bbd bbca 303e d0bd 7d3e e5f6 5fbd
0.07533284 0.0074487943 0.063434765 0.24260089 -0.049390566 0.08550241 0.11740632 -0.11946922
0.011404829 -0.03041819 0.18795837 0.17201142 -0.15284094 -0.08679538 0.15914091 0.010186249
-0.28768608 0.14265136 -0.33331934 0.076212555 0.2207357 0.2597514 0.0117900055 0.12771448
-0.0021389327 0.076720886 -0.12335429 0.05557309 -0.04589792 0.17264836 0.24779439 -0.054678816

head.norm.running_var f4 [32]
00000000: 448b c43b d71a 1d3c 29ae 8e3b 6227 093c
00000010: 7343 4f3c b238 a43b 62ce 193d 7b1e 0a3c
00000020: 3c0e 033d c226 493b 624a 183b 2ba9 ce3b
00000030: 6155 033c 67e3 883c 3159 163c 2e31 743b
00000040: 43e8 c23c 23d3 803c 53a1 8c3d 7801 a83b
00000050: 8935 253c 81cc d33c fb49 1d3c 26c4 7e3b
00000060: 2d78 d53c b7ee a63c f869 7a3c 2fb2 8b3b
00000070: 1411 f83c fb90 f43a cd9f 263c dcf1 ba3a
0.005998047 0.009588919 0.0043542576 0.008371206 0.0126503585 0.0050116414 0.037550338 0.008430119
0.031995997 0.0030693267 0.0023237695 0.0063067875 0.008015961 0.016709996 0.009176538 0.0037260759
0.023792392 0.015725678 0.06866708 0.005127128 0.010083565 0.025854351 0.009600158 0.0038874238
0.02605828 0.0203775 0.015284054 0.0042631845 0.030281581 0.001865893 0.010169935 0.0014262754

body.block1.conv.weight f4 [32, 32, 3, 3]
00000000: ff41 923c 5197 3a3d fb31 5e3d 1a8d 7c3d
00000010: fabe 59bb 1c64 c73c a15f 9b3d 8acb 963b
00000020: 9c16 60bd 0c8a a13d e7ff 8d3c 866d 523d
00000030: 9696 103e 4c19 583d d4ae 8bbc d18c 8e3d
00000040: 1b1f a0bb 2631 67bc c4d3 97bb 4983 893c
00000050: bec0 8d3c 2504 f0bc f2ce 4dbc d4d9 743d
00000060: 06a8 e63b 89b9 80bc 2fba 003d 39c8 75ba
00000070: f804 0d3c 0c9b 173d 2e2b 18bd dd9b 963b
00000080: 2550 a03d 29bc 52bc b1bc 4abd a552 80bd
00000090: c0a4 24bc b01d 4e3d 5822 3c3d acda fb3c
000000a0: a76a cd3c 68b8 c0bc 13fa 033d 0755 50bc
000000b0: de34 593c 65d5 6dbd a721 0bbd 7d31 863d
000000c0: 9af1 afbd 93e7 07bc 9d97 813d 28fc 22bd
000000d0: 88b3 eebc e2b8 3ebd 1548 0e3d e43a 363b
000000e0: a19e c63c 858c cebd 1674 93bd 1b1a 7abd
000000f0: b090 b5bd 49eb 21bd 25ed 81bd ebac 1cbd
00000100: 98c5 63bd e3d1 e5bc 953b 113d 4ea0 0d3c
00000110: 938c 013d a7fb 87bd 433f e0bc ee9e 2abd
00000120: f7c3 1ebb a660 6ebc 41e2 e53b 17b9 01bd
00000130: 121e 7cbc ccb4 453d f27a d6bc ba02 3dbd
00000140: b351 473c 4154 533c 1325 c33d 63ea 27bc
00000150: 7be5 7e3d aeba b33d 8725 b0bb 88b5 adbd
00000160: 7620 333c 7e85 c1bd 2c24 88bc b0c9 9ebd
00000170: f49a c7bd 2020 173c c5b7 e1bc f6f9 73ba
00000180: f9b9 80bc d7b8 adbc cd47 093d f862 af3d
00000190: cc0e a73c 204f 873d 6743 1d3d d7fa 91bc
000001a0: c66a d93c eb5b 0dbb 5e04 90bd 4bd8 5ebd
000001b0: f93b babd eabe 64bd 7e5d 53bd 7d5d 2d3c
000001c0: 5518 673d b807 d53d 5333 603d 80f9 bb3c
000001d0: 113e 003e 2271 e5bd 59a1 b4bd 2e39 72bd
000001e0: 67a1 f9bb 2eaf cabc 3f51 403c 7ffd ff3a
000001f0: 046a 823c 6460 24bd 3f25 59bd 6c3e 0ebd
00000200: b034 40bc 99eb c3bd 9059 efbc 3194 ae3c
00000210: 2da9 70bd 2db2 a43c bb43 993c 8210 67bd
00000220: 7c08 51bd 5369 a0bd ed95 69bc e6f0 98bc
00000230: 93c2 323d 944c 48bd ebe1 0239 f7a6 e3bb
00000240: a21a 5839 bd6d e93c 2fe4 21bd 0211 b3bc
00000250: 2a68 45bc 5fc6 08bc a09d 0b3d b2da bdbb
00000260: 901f ebbc 75e7 493b 3898 a6bd 1243 2abc
00000270: 5809 043d 1e31 5ebc 7f9f b53c 616d 4f3d
00000280: fd74 68bc a1ac bf3c 32f1 9bbc 7440 4abc
00000290: f9cb 50bc 86e7 d6bd 1832 15bd 1f8a 50bc
000002a0: 4d1c 1cbd 5c45 0c3d 58a6 fb3c 2f26 363b
000002b0: a07c 3b3d d5e8 e13d 8d66 75bb 9968 df3c
000002c0: c68b c63c f787 013e fe9c 893d b275 da3c
000002d0: ae2f 753c eb06 8d3b 0f42 ebbc eccf d73c
000002e0: 1835 91bc 0a5c 1dbe ff4e d2bc bea7 88bd
000002f0: 806c 53bd 0d49 233c 7e0f 8b3b 6b44 20bd
00000300: 4a0e 6b3c 1f80 75bd d1b8 5bbd fd70 f8bc
00000310: d5b5 84bd 9369 c3bc 61b3 03bd 57d7 2bbd
00000320: a09a 133d 1728 93bd bf98 2abd 19c0 b53c
00000330: 73ee 48bd f3c7 ccba 411c af3c 86d9 1fb9
00000340: bfe2 e73c 30a7 a83d ae1a 673d 0c26 1ebc
00000350: 4d8f 203c 589e 95bc 647e 47bb e9a1 743c
00000360: e737 88bd 853c f4bc b9f3 083b 45e1 f6bc
00000370: f9c6 e63c f57e 6a3d 052e 6b3d 7c31 2e3d
00000380: 9da1 093c 499d 953b 28e7 493b 393f 233c
00000390: d33f d539 602b 8b3c 1798 063d 03fe ccbd
000003a0: 58f4 c5bd 9eb4 263c 41e3 c6bc 8a87 f13c
000003b0: 1fce b33c 624a f3ba 34f9 bfbc dc13 8e3d
000003c0: 4a16 6fbd 5d4e 19bd 8fdf a63c eef3 1f3d
000003d0: 2995 283d db41 6ebb 0e10 08bc 5938 d53c
000003e0: 6790 7d3d cbd3 65bd def4 b3bc 0fe7 92bc
000003f0: cf6a bfbb a26d a5bb fed7 9abc f9d6 52bd
0.017853735 0.045554463 0.054246884 0.061658002 -0.0033225403 0.024339728 0.07586599 0.0046019005
-0.054709062 0.078876585 0.017333938 0.05137398 0.14119944 0.0527585 -0.017051138 0.06960452
-0.0048865206 -0.014110839 -0.0046333987 0.016786234 0.01730382 -0.029298851 -0.012561547 0.05977805
0.007039073 -0.01571347 0.03142756 -0.0009375844 0.008607142 0.0370131 -0.037150554 0.004596217
0.07827786 -0.012862244 -0.049496356 -0.06265763 -0.010049045 0.05032128 0.04593119 0.03074392
0.02507527 -0.023525432 0.03222091 -0.012715585 0.013257233 -0.058064837 -0.03396764 0.06552408
-0.08591004 -0.008294958 0.06327746 -0.039791256 -0.029138342 -0.046563037 0.03473671 0.0027806098
0.024245562 -0.10085396 -0.07199876 -0.061060052 -0.088654876 -0.039531026 -0.0634406 -0.038250845
-0.055608362 -0.028054183 0.035457212 0.008644177 0.031628203 -0.06639796 -0.027373916 -0.041655473
-0.002422569 -0.01454941 0.007015497 -0.031670656 -0.015388029 0.048268124 -0.026181672 -0.04614518
0.012165475 0.012898506 0.09528556 -0.010248753 0.06223057 0.08775841 -0.0053755674 -0.0848189
0.010933032 -0.0944929 -0.01661881 -0.077533126 -0.09746352 0.009223968 -0.027553448 -0.00093069614
-0.015713679 -0.021206303 0.03351574 0.08563799 0.020392798 0.06606889 0.038394358 -0.017819805
0.026540171 -0.002156968 -0.07032083 -0.05440549 -0.0909347 -0.055846132 -0.051602833 0.010581371
0.05641969 0.10401863 0.054736447 0.02294612 0.12523676 -0.11203219 -0.08819837 -0.059136562
-0.0076181176 -0.024741735 0.011738121 0.0019530504 0.015919693 -0.040130988 -0.053014036 -0.0347275
-0.011731312 -0.09566421 -0.029217511 0.021310898 -0.05875509 0.020104492 0.018709054 -0.056412227
-0.051033482 -0.07832589 -0.0142569365 -0.018669557 0.04364259 -0.048901156 0.00012481927 -0.006947394
0.00020609287 0.02849471 -0.039524253 -0.021858696 -0.01204876 -0.008348077 0.03408587 -0.005793893
-0.028701574 0.0030808125 -0.08134502 -0.010391967 0.032235473 -0.013561515 0.02217078 0.05064142
-0.014188048 0.023397746 -0.01903591 -0.012344468 -0.012743943 -0.10493378 -0.036424726 -0.012728243
-0.038112927 0.034245834 0.030718967 0.0027793755 0.04577315 0.11030737 -0.0037445158 0.027271556
0.024236571 0.12649523 0.06719397 0.02666745 0.014964981 0.004303803 -0.028718023 0.026344262
-0.017725512 -0.15367141 -0.025672434 -0.06672619 -0.051617146 0.009966147 0.00424379 -0.03912775
0.0143466685 -0.05993664 -0.05364305 -0.030327315 -0.06479994 -0.023854053 -0.03215349 -0.04195341
0.036036134 -0.07185381 -0.041649576 0.022186326 -0.049055528 -0.0015623554 0.021375777 -0.00015244455
0.028306363 0.082350135 0.056421928 -0.009652626 0.009799791 -0.01826398 -0.0030440325 0.0149311805
-0.066512875 -0.029814014 0.0020897223 -0.030136714 0.02817105 0.057249982 0.057416935 0.04252766
0.008400348 0.004565869 0.0030807946 0.009963804 0.0004067408 0.016988456 0.032859888 -0.100093864
-0.096657455 0.010174898 -0.024278285 0.029483575 0.021948872 -0.0018561597 -0.023434259 0.069373816
-0.058370866 -0.03742825 0.020370273 0.03905099 0.041157875 -0.003635517 -0.008304609 0.026027845
0.06190529 -0.056110185 -0.021967348 -0.017932443 -0.00584159 -0.0050484696 -0.018901821 -0.051474545

body.block1.conv.bias f4 [32]
00000000: f825 2fbd a9d4 5abc 1ac3 64bd eef1 423d
00000010: f3cd 66bc 8586 6c3c bb92 8e3c 5c5f 353c
00000020: 44a0 c23c f62f 1fbd f7f4 a7bc c591 16bc
00000030: b9ee 01bd fb4d 373d c632 45bd 9c5b 153d
00000040: 8e45 c1bc dfb9 233b 27d8 5c3d fd7e 85bb
00000050: 5f1b 29bd b4b1 13bd dc9f 803c 6c07 febc
00000060: 935d 533d 4512 e4bc 3bd1 ba3c 2f50 78bd
00000070: 3491 073d ae8f c4bc 41c4 bfbb babb b8b9
-0.04276082 -0.013356366 -0.055850126 0.047594003 -0.014087188 0.014436369 0.01740395 0.011070099
0.023758061 -0.0388641 -0.02050255 -0.009190028 -0.031721804 0.044752102 -0.048144124 0.03646432
-0.023592737 0.0024982614 0.053917076 -0.004073976 -0.04128587 -0.036058143 0.015701227 -0.031009398
0.05160291 -0.027840743 0.022804847 -0.060623344 0.03309746 -0.023994293 -0.0058522527 -0.00035235082

body.block1.norm.weight f4 [32]
00000000: c9e2 843f d5b8 6e3f 8523 7e3f 9dd1 803f
00000010: 3018 7f3f c859 853f 17cc 7a3f 2bc7 6a3f
00000020: 1d8a 893f dbb1 7f3f 3be6 843f 748f 8c3f
00000030: 4fa5 783f 84ab 773f 70a4 7a3f fb9d 813f
00000040: cb73 883f 84e8 843f 819b 7f3f 9b23 6f3f
00000050: 4f2b 7e3f 4ed7 813f 7749 643f 5272 763f
00000060: 85c5 6e3f e55f 813f df22 773f 46d5 813f
00000070: 4c97 743f b50b 723f bc73 813f b6b1 793f
1.0381709 0.9325078 0.9927295 1.0063969 0.9964628 1.0418024 0.97967666 0.91710156
1.0745274 0.9988076 1.0382761 1.0981278 0.9712724 0.9674609 0.9790716 1.0126337
1.0660337 1.0383458 0.99846655 0.93413705 0.99284834 1.0143831 0.891746 0.9626819
0.9327014 1.010739 0.96537584 1.0143211 0.9554336 0.94549114 1.0113444 0.9753679

body.block1.norm.bias f4 [32]
00000000: eef0 46bd a4d6 07bd 8017 e1bd 8f45 2e3c
00000010: 21a2 41bc 07d9 00be 4381 49be 3874 01be
00000020: c1c3 babd 18a3 a9bd 63b7 c7bd d0c8 be3c
00000030: 0ecf a3be 7d04 0abe 8c07 e6bd f6d5 04bd
00000040: 8fa3 6ebd 98a0 a9bd 80aa 65bd a4f2 1dbe
00000050: eab7 b7bd 6cab 7dbe c264 58be ab91 24be
00000060: 2d4f 16be 4e13 c0bd 5098 bcbd 040c 84be
00000070: 8cc9 5dbe 22e0 bfbd 6c8a f6bb 2862 1fbe
-0.048569612 -0.03316368 -0.109908104 0.010636701 -0.01181844 -0.1258279 -0.19678216 -0.1264199
-0.09119368 -0.08283061 -0.09751775 0.023289114 -0.31993908 -0.13478275 -0.11231908 -0.03243061
-0.05826145 -0.08282584 -0.056070805 -0.15424591 -0.08970626 -0.24772424 -0.21132186 -0.16071193
-0.1467864 -0.09378682 -0.09208739 -0.25790417 -0.21658915 -0.09368922 -0.0075238254 -0.15564787

body.block1.norm.running_mean f4 [32]
00000000: 9b82 d0be 502e 11be d9cf 02bf a254 2b3f
00000010: 5e1c b7bf c2f5 4ebf f6cd babf 9930 543f
00000020: d634 06bf 4e8c cbbe dea8 a73f 2017 e43e
00000030: c3d8 a7bf fcbf 233e 7f8d 9ebd 0d9b 8c3e
00000040: bf21 8d3e b3d9 313f f01d ea3c f460 613e
00000050: 3623 673f f671 30bf 46d3 92be 2b01 48bf
00000060: 5474 3d3f 2d5e eabe 4408 5a3e 3790 44bf
00000070: 7f69 13bf e31d e43e 4b4c 943e 65e8 0a3f
-0.40724644 -0.14177823 -0.510984 0.66926014 -1.4305532 -0.80843747 -1.4594104 0.82886654
-0.5242437 -0.3975548 1.3098409 0.44548893 -1.3113025 0.15991205 -0.07741832 0.27462044
0.2756481 0.6947281 0.028578728 0.22009641 0.902881 -0.6892389 -0.28676814 -0.7812678
0.7400563 -0.45774975 0.21292216 -0.76782554 -0.5758285 0.44554052 0.28964457 0.54260856

body.block1.norm.running_var f4 [32]
00000000: 1abc 863f 56ce 7f3f 65cc c83e 800f e73e
00000010: ee26 3e3f f907 313f 086f de3e 8f8c 9b3f
00000020: 4252 9c3e c617 5e3f d36c 013f acce 393f
00000030: 1a64 a83e 4c96 8b3f 9b51 bd3f 9e25 df3e
00000040: f7d8 003f 0706 7f3f bd43 f03f a05a a73f
00000050: 9d70 553f 5af7 df3e c423 fc3e 1f1d 243f
00000060: 3790 bc3f fabf 033f 9b6b 0e40 2ae4 8b3e
00000070: 78bc 493e 556c bb3f 08dd 063f 98fd eb3e
1.0526154 0.9992422 0.3921844 0.45129013 0.7427815 0.6915279 0.43444085 1.215227
0.30531508 0.86755025 0.5055668 0.7258098 0.3288887 1.0905242 1.4790529 0.43583387
0.5033106 0.9961857 1.8770672 1.3074532 0.8337496 0.43743402 0.49246037 0.64106935
1.4731511 0.5146481 2.2253177 0.27322513 0.19700801 1.4642435 0.52681017 0.46091914

body.block2.conv.weight f4 [32, 32, 3, 3]
00000000: 3411 fdbc 2851 0cbd d1b9 253d ddcf f6bc
00000010: 9add 3e3c 5e2a 0f3d 6020 03bc 2a17 723c
00000020: dded 1f3c eb6b 9bba 7dca f23b 3daf e13b
00000030: 3441 5c3d 5bcb 65bc a211 463a 24a3 923a
00000040: 9d51 e43c 543f 103d 9875 5d3d a209 2e3d
00000050: 5ce0 a7bc bde9 05bb 28c4 7b3b c83f 893c
00000060: ebf4 6b3d a2cb fe3b a698 8e3d 9779 9dbc
00000070: fb87 b3bd 26be ebbd da49 e13c 9c1e e73b
00000080: a044 a5bc 91a2 33bc e698 82bc 7b21 a7bd
00000090: 85f1 babc 8d0d 5f3d b711 413c 07ab adbc
000000a0: 496f 18bc 615a 4cbd acab adbd 0bdf 8cbd
000000b0: 0de8 08bd a0d5 82bc 7e9e 07bd 930a 4fbc
000000c0: f748 16bd 3021 70bc d574 033d f1e1 34bc
000000d0: 2a63 2bbd ace5 7d3a b154 b93c ffa9 d33c
000000e0: a960 263c 8a5f 4d3d 348f 133d 2b0d c93c
000000f0: 953f 2f3d b2e8 a73d f2c4 1abc d2c7 4dbc
00000100: d606 3f3c 9d6e 1fbd 76b0 96bd 4211 2dbd
00000110: d394 bebb 6666 7fbc 0b1f 8dbc af5e 953b
00000120: 8a5f 5b3d a6ef 093d a3a7 d03d 3043 d83c
00000130: 9690 79bb 33db 683c fc2f 88bc 6849 8bbb
00000140: 2099 cc3c 7e6b 123c c382 51bc 797b dc3c
00000150: 34a1 653c 0be7 5c3c 1284 75bc cfb8 fabb
00000160: c8c6 923c 79df 90bb 0685 35bd cd00 b6bd
00000170: 402c 15bd 0f4c 3cbd 9a1f 56bd 229a 54bd
00000180: 9d9f ac3d 5f8c 9b3d 755e af3d e1b3 31bc
00000190: 1d80 6dbd 7f97 63bd b633 33bd e27f d6bb
000001a0: 688c b9bd 3d04 d8bd a62a 7dbd 0cb1 a5bd
000001b0: 996e e03a bf21 ba3c e81c a53c 36db f7bc
000001c0: a6c0 a6bc abf8 e2bb 166b a23c 5ec5 97bd
000001d0: 2a7c bebd 2d21 f3bb 993e 18bc 21f1 f5bb
000001e0: 13cb 5dbc 75f5 28bc 081e 24bd 9d3d 03be
000001f0: 97e5 00be 6ee2 e8bd 1da1 973b d1f5 21bd
00000200: 4369 58bd a319 d13a 3d1e 81bc 996c 82bb
00000210: 4a69 7a3d f8b6 483d 7653 6e3b 921b 2dbc
00000220: cd9e 9b3c a3ae 13bd d6bc 89bc 4640 de3c
00000230: 5c5d c7bc 28ed 31be ed07 0abe 6cee 09be
00000240: b62a 03bd c78e 75bd fda8 c4bd e9f5 d5bb
00000250: 49d6 31bd 614d 713c 3488 9a3c 30ec 60bb
00000260: 50cf 5b3d 19a2 1ebd 9c0f 1bbd 363d 24bd
00000270: b049 8f3c 5341 b03b d504 69bd 48ea 883c
00000280: 4b62 4ebd 4475 cfbd f633 95bd def7 46bd
00000290: 9be8 f1bc e16a 6b3c 31e2 edbc b5e5 dcbb
000002a0: c1f3 0838 c711 2bbd fb11 f9bb 9e8b 0fbd
000002b0: 7edd 45bc 08e9 7bbc 1960 6a3c 726f 243b
000002c0: 9096 4e3d b929 9f3d 981a ae3d 4945 ce3d
000002d0: 91b4 e7bc 66af cbbc 280d 1b3b 8063 83bc
000002e0: 5a23 b63c b7a3 b63b f695 02bd d820 ce3c
000002f0: 2bf0 9eba 94ee c63c 8718 cebb f497 ebba
00000300: 404a 2a3d 64d2 ef3b 6b38 143d 93cf 183d
00000310: 7aa2 583d 82e3 d33c c64f 663d e8fd 843d
00000320: cc0b f53c 6d89 aebb b255 743d f128 3abd
00000330: 54fc c2bc 73ba 43bb 2a10 8cbd 2a95 ed3c
00000340: 12ef 983b a752 923c 3357 a1bb 1293 75bc
00000350: 55e3 1a3d ce8e 9e3b deba f43b 0ed1 eb3d
00000360: 8977 3fbd 178a 1fbd df69 2cbd 3b60 84bc
00000370: b54a 8abd dee5 66bd 03ca 5cbc 9b24 7cbc
00000380: a07d fbbc 7d4d df3b ace9 83bd f5cc 6d3c
00000390: cf53 13bd 9b92 c13b 77b8 fd3c 7866 cabd
000003a0: aa3a 48bd 8194 02bd a05c 4fbc 5e3e 22bc
000003b0: 1ed9 6abc 3c42 a6bc 435a 40bc d0db bdbb
000003c0: 7dd8 39bc cb39 32bc 6137 603d e898 603d
000003d0: a90a 083d ce33 ec3b 588f b73d 53e5 e43c
000003e0: 7054 043d e96e 1a3d f03b ae3c 66b1 2ebd
000003f0: 3ffd ac3c 5c07 70bd a6f4 c8bc a710 b33c
-0.030891992 -0.034257084 0.04046041 -0.030128414 0.011649514 0.034952514 -0.008003324 0.014776031
0.009761301 -0.0011857724 0.0074093924 0.006887345 0.05377312 -0.0140255345 0.0007555728 0.0011187536
0.027870947 0.035216644 0.054067224 0.042489655 -0.020492725 -0.0020433508 0.0038416479 0.016754046
0.05760662 0.0077757398 0.06962709 -0.019223018 -0.087661706 -0.11510877 0.027501035 0.0070532095
-0.020174325 -0.010964052 -0.015942048 -0.08160683 -0.022820244 0.054456282 0.011784009 -0.021199716
-0.009303876 -0.04989088 -0.084800094 -0.068784796 -0.033424426 -0.015971005 -0.033110134 -0.012636798
-0.03669068 -0.01465635 0.03209384 -0.011040197 -0.041842617 0.0009685408 0.022623392 0.025837896
0.0101548815 0.05013994 0.03602524 0.024542412 0.042785246 0.0819868 -0.0094463695 -0.012559848
0.011659345 -0.03892385 -0.07357876 -0.042252786 -0.005816081 -0.0155883785 -0.017226717 0.0045584063
0.05355791 0.033675812 0.10188224 0.026399225 -0.0038080565 0.014212417 -0.016624443 -0.004250694
0.02497536 0.008936761 -0.012787524 0.026914345 0.014015485 0.013482819 -0.014985101 -0.0076514254
0.017917052 -0.0044211713 -0.044316314 -0.088868715 -0.036419153 -0.045970973 -0.05227623 -0.051904805
0.08428881 0.07595133 0.08562938 -0.010846109 -0.057983506 -0.0555644 -0.043750487 -0.0065460065
-0.090599835 -0.105476834 -0.06180825 -0.0809041 0.0017122804 0.02272117 0.020155385 -0.030255895
-0.020355534 -0.006926616 0.019826453 -0.07410692 -0.09301026 -0.0074197263 -0.009292268 -0.0075055514
-0.013537186 -0.010312428 -0.040067703 -0.12816472 -0.12587582 -0.11371313 0.0046273605 -0.03954107
-0.05283476 0.0015953075 -0.015761489 -0.003980231 0.061135568 0.049002618 0.0036365665 -0.010565655
0.01899662 -0.03605522 -0.016813677 0.027130257 -0.02433651 -0.17375624 -0.13479586 -0.13469857
-0.032023154 -0.059950616 -0.096025445 -0.006529559 -0.04341725 0.014727921 0.018863775 -0.0034320466
0.053664505 -0.038728807 -0.037856683 -0.040097438 0.017491192 0.005378881 -0.056889374 0.016713277
-0.05038671 -0.101297885 -0.072853014 -0.04857623 -0.02952986 0.014368744 -0.02903852 -0.0067412504
3.265194e-05 -0.041765 -0.0076010204 -0.03504526 -0.012076734 -0.015375383 0.014305138 0.002509084
0.050436556 0.0777163 0.08501166 0.10071809 -0.028284343 -0.02486391 0.0023658965 -0.016038656
0.022233654 0.0055737155 -0.031881295 0.025162145 -0.0012126019 0.024283685 -0.006289545 -0.0017974363
0.041574717 0.0073187817 0.036186617 0.037307333 0.052889325 0.02586532 0.05622842 0.06493741
0.029912852 -0.005326441 0.059652038 -0.0454492 -0.02380196 -0.002986577 -0.068390206 0.029001791
0.0046671713 0.017861677 -0.004923725 -0.014988678 0.037814457 0.004838801 0.0074685654 0.115144834
-0.046744857 -0.038950052 -0.042093154 -0.016159168 -0.067525305 -0.056371562 -0.013475898 -0.015389587
-0.030699551 0.0068146572 -0.06441054 0.014514198 -0.035968598 0.0059073693 0.030971749 -0.098828256
-0.04888407 -0.031879906 -0.012656361 -0.009902565 -0.014333991 -0.020295255 -0.01174027 -0.005794026
-0.011343119 -0.010878037 0.054740313 0.054833323 0.03321329 0.007208324 0.089628875 0.027941382
0.03230709 0.03770343 0.021268815 -0.04264965 0.02111685 -0.05860077 -0.02453072 0.021858526

body.block2.conv.bias f4 [32]
00000000: a325 c6bc 39f0 4c3c 1a5f 253c 00dc 09bd
00000010: cd87 273d 411e 8dbc 4846 39bd dc58 5fbd
00000020: 564d a8bb 4735 f0bc 336f 683d d79f f6bc
00000030: 0342 d2bc ca72 7abd c25c 25bd f029 d43c
00000040: 0408 583d b5fe be3c 2adb 95bc bdfa 0dbd
00000050: 9dbc e83b bafb 143c 0563 43bb 02e2 10bd
00000060: ac56 8dbc 7e87 cabc cf48 253d 8f6b 1c3d
00000070: d3b9 fe3c a43e 853d d3ab 0cbc edaa 0d3d
-0.024187868 0.012508445 0.010093475 -0.033657074 0.040900994 -0.01722634 -0.04523304 -0.054528102
-0.0051361723 -0.02932228 0.056746673 -0.030105514 -0.025666242 -0.061144628 -0.040371664 0.025898904
0.05274202 0.023314813 -0.018292982 -0.03466295 0.0071025626 0.009093219 -0.002981366 -0.035371788
-0.017253242 -0.02472281 0.04035264 0.038188513 0.031094467 0.065060884 -0.008585888 0.034586836

body.block2.norm.weight f4 [32]
00000000: 54fc 783f fa16 7e3f 8e9f 753f 21ea 7a3f
00000010: c100 7f3f 7de6 773f ad7b 843f fd99 7e3f
00000020: 6453 6a3f 7010 803f 1e60 753f affe 8e3f
00000030: 98eb 883f 138a 703f 8df8 7f3f c932 6d3f
00000040: 27ed 713f a146 833f 76bf 883f ed23 843f
00000050: eac5 6a3f ad00 743f c152 793f 531e 8b3f
00000060: 4e48 853f 43f7 853f 8ffc 723f 5294 7d3f
00000070: 1901 6f3f 2050 823f fb91 653f 8ce6 6f3f
0.9726002 0.9925381 0.95946586 0.980135 0.99610525 0.9683607 1.0350243 0.9945372
0.91533494 1.0005016 0.9584979 1.1171473 1.0696898 0.93960685 0.99988633 0.92655617
0.9450249 1.0255929 1.0683429 1.0323464 0.9170824 0.9531353 0.973919 1.0868629
1.0412691 1.0466083 0.94916624 0.99054444 0.9336105 1.0180702 0.89675874 0.9371116

body.block2.norm.bias f4 [32]
00000000: 5bc2 98bc ff5a 21be 441b 22be ebb5 87bd
00000010: 59a5 99be 8cf2 afbd b8d6 17be 9393 80bc
00000020: e0b9 ecbd bc58 0abe 50b8 89bd 1f9b 04be
00000030: 27f2 553d 6055 b6be 1544 09be 771a 38be
00000040: 733a a0bd 657a cfbd a911 40be aabd 6cbd
00000050: 4cf1 86bd 5ab9 33be b8fd 4bbd ac22 89bc
00000060: ce6e cebd dcc3 b4bd 0ec8 f3bd fcbf 0ebe
00000070: 53a5 12be ff5d e0bc 34cf 09be 071f 9bbd
-0.018647363 -0.15757369 -0.15830714 -0.06626495 -0.30008963 -0.08591184 -0.14828002 -0.015695369
-0.1155889 -0.13510412 -0.06724608 -0.12949799 0.052232888 -0.3561201 -0.13404877 -0.17978846
-0.07823648 -0.10130767 -0.18756737 -0.057798065 -0.065889925 -0.17551175 -0.049802512 -0.016740166
-0.10079728 -0.0882642 -0.11903392 -0.13940424 -0.14320879 -0.02738857 -0.13457948 -0.07574277

body.block2.norm.running_mean f4 [32]
00000000: 374f 67bf 262d b2be 89d5 f43e f293 bcbe
00000010: bb61 20bf 0598 32be d360 69bf d76d 583f
00000020: e56f 8ebf aca3 efbe b5f9 5d3d 9b80 62bf
00000030: c9eb bf3e e9d1 26bf 059b fbbe cbf4 c6be
00000040: 4363 ddbd 0cae 1abf 9402 73be 391d 96be
00000050: 3163 933e 4619 45be 7cfd 92be 130c 23be
00000060: fa72 3ebd 1d1b 37bf 36af 573b 8d75 40be
00000070: 0870 26be e036 44be d7af 293f 8be6 393f
-0.9035525 -0.3480007 0.47819164 -0.36831623 -0.62649125 -0.17440803 -0.9116337 0.845426
-1.1127898 -0.4680456 0.054193217 -0.88477486 0.37484577 -0.6516405 -0.49141708 -0.38858637
-0.10809948 -0.60421824 -0.23731452 -0.2931917 0.28786615 -0.19247922 -0.28709018 -0.15922575
-0.04649637 -0.71525747 0.003291083 -0.18794842 -0.16253674 -0.19161558 0.66283935 0.72617406

body.block2.norm.running_var f4 [32]
00000000: cfa0 e83f ce9d 0c3f 9075 de3e c9f5 723e
00000010: 111d 793e e010 fe3e daec 4d3f 390f 563f
00000020: 6bf2 7b3f d765 8c3e 1696 673f b902 1b3f
00000030: eaf5 3f40 62cd 013e 5971 923e 476a 973e
00000040: 8f6f 173f 81ec a03e a52a 343f 05a3 6e3f
00000050: 938d 383f 7eb9 9d3e e39d 1b3f 7545 a33f
00000060: ffc8 463f 7cbd 393f f7d2 063f be85 f73e
00000070: b5fb 073f ab6f 463f e906 953f 95a7 883f
1.8174075 0.5492829 0.43449068 0.23726572 0.24327494 0.4962225 0.8043953 0.8361698
0.98416775 0.27421448 0.9046339 0.6055103 2.9993844 0.12676004 0.28602102 0.2957327
0.591546 0.31430438 0.7037757 0.932175 0.72091025 0.30805582 0.6078779 1.2755572
0.77650446 0.72554755 0.52665657 0.48344225 0.5311845 0.7751414 1.1642734 1.0676142

body.block3.conv.weight f4 [32, 32, 3, 3]
00000000: e314 38bd 06a0 03bc bcbc 0cbc aba8 b13c
00000010: 3628 753b 7cc5 003c aea9 cc3b 5245 bcbc
00000020: 4093 38bd 269e f73c 1b79 573b c2bc 1d3c
00000030: 1bf9 113d f0aa 6d3c 4a0f cc3d ef56 46bd
00000040: 6e66 9b3c 9260 873d b755 44bc 541b 33bd
00000050: ed02 37bd 001f 3fbd 0e98 2d3d 8ee1 99bc
00000060: 039f b8bd fa90 18bd 0691 d5bb ea40 9dbd
00000070: d15a 3fbd 91fe 8bbc 9dfa 9a3d d7b3 5c3b
00000080: ef6e b03d 444e 0ebc a727 17bc 16b0 0fbd
00000090: 3139 4d3d 3c6a 903b 1b90 7a3c 01f6 a33c
000000a0: 248b 4abd 4a27 7ebd dbe0 cb3c 0117 12bd
000000b0: 5d34 fa3c 7613 863d 02e5 0f3d 180a 0abd
000000c0: f96f 643d 4115 e03c 7d52 acbd e270 ebba
000000d0: 70a8 6b3c c62d 693d fa05 043d cc76 7f3d
000000e0: 166c ad3d a227 c03c d087 ae3d 6e73 073d
000000f0: 0316 523d 7f6e d43c c1dc 7c3d e4a1 b03d
00000100: dc36 393d ba6d 573c d089 09bc 6208 433c
00000110: a294 e2b9 4880 50bd 684b 68bc 04c1 45bd
00000120: d046 e03c 9fde 1ebd 3e0e 7d3d 216d acbc
00000130: 649a 033d 28d3 593d 1bff 3fbc d068 c53d
00000140: e0c6 903d 1c25 e6bb 6e89 d03c fd70 463a
00000150: 57b0 57bc f377 75bd f271 82bd dea7 b33c
00000160: f795 b63d 4763 053e fed3 66bc 9e2f e5bc
00000170: d8d2 01bd 2543 37bc 5ac4 443b 39d9 eb3c
00000180: 07fa 8c3d a3c8 903d 7596 12bd 318c 6fbc
00000190: 19f4 a93c 1e91 a33d ab6a 243d b748 013d
000001a0: 072b 203d aa9a 24bd 0ec8 c43c 6b07 313d
000001b0: 768e 083d 7b8b 7bbd 791b cabc 8edb a33d
000001c0: 2e41 013c 1664 e4bd d07a bdbb a1bc 85bd
000001d0: 6ecc 27be 2403 f1bc fc7b ec3b 8052 9ebd
000001e0: 5d90 753c d99f dbbc adac 233d 9037 8cbd
000001f0: 8aba c13c 8267 89bc 13c2 2dbb 6df4 d3b9
00000200: f4bd 65bc 9b06 823c 55d0 4e3d fec1 fa3c
00000210: c7c2 953c 0e1a abbc d58b 5f3d 063d 28bc
00000220: ac63 c03c 59e0 02bd 45a3 fcbc 727a 843c
00000230: d56e 3c3c 770b 51bd dcf3 e73c f3b7 7a3d
00000240: 5425 9abd fd0e db3b bc2a 55bd 9a4b 303d
00000250: 7bed 8b3d c0ee c93c 1835 0c3d 95fa 863d
00000260: 5570 103d 8287 593d ae07 423d 75ac 51bd
00000270: 93e8 c23d 5c09 b13c 28fc 213d e61e 5a3d
00000280: b9f3 003d f84a 81bc da4e 95bd 300b 353d
00000290: f23a 813d 23bf 07bd 9f76 123c f1c8 49bb
000002a0: dbf5 bd3c 4386 cc3d 12a2 483d 58d7 bc3c
000002b0: b350 bdbd 709a 5cbd 686c 3fbd fc69 94bc
000002c0: cd4b c8bc 1ce6 18bd 8f4d 57bc 5841 85bd
000002d0: ceb0 913c 7613 183c 903b 97bd 3ab1 893c
000002e0: 0bbf 1b3d 38c4 053c 8460 c3bc b92c 24bc
000002f0: 3e99 af3b 1530 423d d3fc db3b 2c82 4cbc
00000300: 360c a43c 54bb 343c 0a21 853d 1789 9abb
00000310: ac57 3bbd 5dc1 31be 04d7 e4bc db39 ce3c
00000320: 946e ed3c b5b2 26bd 529e 183d e08e a5bb
00000330: 0a76 ccbc 7ccd 7a3c 9c5c 5abd 4350 4c3c
00000340: 26fe 1f3d 5cb9 9c3d 10cb 02bd 2f5c 76bd
00000350: 4bf9 e7bc e231 95bc bf63 2abe ea4d aabc
00000360: e6cc 883d cf37 ec3c 54cb 9f3d 864d 8a3d
00000370: 6ebc 883c 701d 4d3d 37b7 6c3d 481a e23b
00000380: 5646 ecbc 982e ea3b 25b0 6a3b c773 89bd
00000390: f061 363d 83c4 843d f0b3 8b3d 0cc0 27bd
000003a0: 5ae6 89bc 74e8 4fbd fdf3 9e3d dd1f 3ebd
000003b0: d521 8e3c 45fc 833c 8833 ad3b 2cbf aeb5
000003c0: 9a23 303c 10b3 04bd 16e4 98bb cf02 2abd
000003d0: 43c5 adbc 1a2d d5bd fafb 3e3d 56be 403d
000003e0: 9068 a7bd 8e9c 72bd e1ef 5abd ebe6 2bbc
000003f0: d7c4 5ebc cd33 31bd 25d7 d73c 15b8 cf3b
-0.044941794 -0.008033758 -0.00858992 0.021686872 0.0037408 0.007859584 0.0062458133 -0.022982273
-0.045062304 0.030226778 0.003287858 0.009627523 0.035637956 0.014506087 0.09963854 -0.04842275
0.01896974 0.06610216 -0.011983327 -0.043727234 -0.044680525 -0.046660423 0.04238134 -0.01878431
-0.09014704 -0.037247635 -0.0065175323 -0.07678397 -0.04671747 -0.01708916 0.07567332 0.003367653
0.08614909 -0.008685652 -0.009225762 -0.035080038 0.05010337 0.0044071954 0.0152931465 0.020014765
-0.0494491 -0.062049188 0.024887493 -0.03566647 0.030542547 0.06546681 0.03513051 -0.033701032
0.055770848 0.027353885 -0.08414171 -0.0017962719 0.01438342 0.05692842 0.032232262 0.062369153
0.084678814 0.023456398 0.08521998 0.033069067 0.051290523 0.025931595 0.061733965 0.08624628
0.045218334 0.013148719 -0.0083946735 0.011903854 -0.0004321682 -0.05090359 -0.0141781345 -0.048279777
0.027377516 -0.038786527 0.06178116 -0.02104813 0.03212966 0.05317989 -0.011718537 0.09639132
0.070691824 -0.0070234668 0.025456157 0.0007569937 -0.013164601 -0.059928846 -0.063693896 0.021930631
0.08915322 0.13026153 -0.014088629 -0.027976807 -0.031695217 -0.011185442 0.0030024261 0.028790103
0.068836264 0.070695184 -0.03578802 -0.014620827 0.020746278 0.07986663 0.04014079 0.031563487
0.039103534 -0.04018656 0.024021175 0.043219965 0.033338986 -0.061412316 -0.024671303 0.08000861
0.007889075 -0.111519024 -0.0057824627 -0.06530119 -0.16386577 -0.029420443 0.0072169285 -0.077305794
0.014988032 -0.02680962 0.0399596 -0.06846535 0.02364852 -0.01677299 -0.0026513382 -0.00040427168
-0.014022339 0.01587229 0.05049165 0.03061008 0.018281354 -0.020886447 0.054576714 -0.010268455
0.023485027 -0.031952236 -0.030839572 0.016171668 0.011501034 -0.051036324 0.028314523 0.061210584
-0.07526651 0.0066851364 -0.052042708 0.04304085 0.06832405 0.024649978 0.03423032 0.065907635
0.03526338 0.053107746 0.047370605 -0.05118986 0.09517016 0.021610908 0.039547116 0.053252123
0.031482432 -0.015782818 -0.0729043 0.044200122 0.06310071 -0.033141267 0.008939414 -0.0030789936
0.023188522 0.09986546 0.048982687 0.023051903 -0.09243908 -0.05385822 -0.046734244 -0.018116944
-0.024450207 -0.037328824 -0.01314105 -0.06506604 0.017784502 0.009281984 -0.073844075 0.016808141
0.03802399 0.008164458 -0.023849733 -0.010020428 0.005358844 0.047409136 0.0067134886 -0.012482207
0.020025354 0.011030991 0.06500442 -0.0047160494 -0.045737907 -0.17358918 -0.027934559 0.025174072
0.028983392 -0.040697772 0.03726036 -0.0050524324 -0.02495863 0.01530778 -0.053310975 0.012470308
0.039060734 0.07652542 -0.031931937 -0.060146507 -0.028317114 -0.018212263 -0.16639613 -0.020789105
0.06679706 0.028835205 0.07802454 0.06753068 0.016691413 0.050076902 0.057791915 0.0069001056
-0.028842133 0.0071466677 0.0035810557 -0.06711536 0.044526994 0.06482794 0.0682143 -0.040954635
-0.016833473 -0.050758794 0.07761381 -0.046417106 0.017350117 0.016111502 0.005285684 -1.3019649e-06
0.010750676 -0.03239733 -0.004665862 -0.041506585 -0.021212226 -0.10408993 0.046627022 0.04705652
-0.081742406 -0.059231333 -0.053451423 -0.010492067 -0.013596735 -0.04326229 0.026347706 0.006339083

body.block3.conv.bias f4 [32]
00000000: b5e2 c9bc cea8 81bd fed7 27bd 5c7a 413d
00000010: 7c4d 7c3b d70e fbbc f135 e2bc 5064 e23c
00000020: 020d 133d 1470 0b3d 36c7 503c aefc 2ebd
00000030: f8c6 74bd 65c5 bcbb f219 0dbd 8df8 bd3b
00000040: 3030 093d f59c 3abd fedb 81bc 234f d23b
00000050: 8f4c b13c 0a1d 3a3c 915f 6cbd 74f5 9f3c
00000060: cb79 c53c b133 053d 2595 edbb 8f4e 65bd
00000070: 967b 753d bdf5 84bd 2bbd 5f3d b394 0fbd
-0.024644235 -0.06331025 -0.04097747 0.04723583 0.0038498333 -0.030646725 -0.027613612 0.027635723
0.035901077 0.034042433 0.012742808 -0.042721443 -0.059760064 -0.005760836 -0.03444857 0.005797452
0.03349322 -0.045559842 -0.01585197 0.0064181252 0.021642951 0.0113594625 -0.057708327 0.01952622
0.024105927 0.03252 -0.0072504454 -0.055983122 0.059932314 -0.06492183 0.054623764 -0.03505392

body.block3.norm.weight f4 [32]
00000000: 085e 6b3f 32a9 5c3f 1a9d 5c3f 2016 5c3f
00000010: 00cf 5d3f 2994 663f d351 4d3f f170 4e3f
00000020: a549 453f 8b91 413f 1dca 583f 268a 3f3f
00000030: a4dc 5a3f 2aa2 4f3f 824c 383f 4168 433f
00000040: c7d3 553f bfb8 463f fef5 3f3f 83af 423f
00000050: fedf 5f3f ec6d 493f 591c 4c3f 2ec0 553f
00000060: 5b5a 5b3f cf6c 623f 2c08 503f eed3 4b3f
00000070: 5ce3 563f 018c 6e3f 5247 663f c259 413f
0.91940355 0.8619567 0.8617722 0.8597126 0.8664398 0.90069824 0.8020298 0.80641085
0.770655 0.75612706 0.846834 0.7482017 0.8549292 0.8110682 0.7199174 0.76330954
0.8352627 0.7762565 0.7498473 0.7604906 0.8745116 0.7868335 0.79730755 0.8349637
0.85684747 0.8844728 0.8126247 0.79620254 0.8394067 0.9318238 0.89952576 0.75527585

body.block3.norm.bias f4 [32]
00000000: 6251 74be 3000 33be b95d 7bbe 7c61 70be
00000010: 6929 0bbe 079f 2ebe 1041 3dbe ab90 bdbd
00000020: 340b 3abe 7195 5abe 9aac 10be 1714 f9bd
00000030: 90cc a3be 35e6 58be 70b3 52be f4f0 84be
00000040: a216 7ebe ee37 2dbe bd57 55be 188e 20be
00000050: adfc 00be c3d6 cdbd d861 98be 1946 08be
00000060: 27c1 49be c039 2abd 0444 57be 10fd 78be
00000070: 2c6e 04be 5298 81be d32c 8dbd 17e9 62be
-0.2385917 -0.1748054 -0.24547471 -0.23474687 -0.13590015 -0.17052852 -0.1848185 -0.09256109
-0.18168336 -0.2134607 -0.14128342 -0.12162035 -0.31992006 -0.21181567 -0.20576262 -0.25965083
-0.24813321 -0.16915867 -0.20834251 -0.15679204 -0.12596388 -0.10050728 -0.2976215 -0.1330799
-0.19702588 -0.04155898 -0.2102204 -0.24315286 -0.12932652 -0.25311524 -0.06893315 -0.22159229

body.block3.norm.running_mean f4 [32]
00000000: 9e82 29bd a197 dfbe 3792 8a3d 5394 b3bd
00000010: cf58 25bf becb d2be 0cbe f4be 7055 09bf
00000020: 999e 71bd 330f b73d e9b3 bcbe 54b8 11be
00000030: 37e3 85bd 255f 65be 3fce efbe 3d02 15bd
00000040: 6cc1 8b3e f1e3 f5bd c350 88be fbfa debe
00000050: 0b4b adbd f753 d1bc 3386 b5be 9874 b7be
00000060: 538d 76bc e8ec 30bf 86d7 0cbf d1bd b8be
00000070: bc64 7e3e 4687 56bf fbd5 c9be d8ae 57bf
-0.041384332 -0.4367037 0.067661695 -0.08768525 -0.64588636 -0.41171068 -0.47801244 -0.5364599
-0.05898914 0.08938446 -0.3685601 -0.14230472 -0.065374784 -0.22399576 -0.4683704 -0.036379088
0.27296007 -0.12006367 -0.26624116 -0.43550858 -0.08461579 -0.025552733 -0.35453948 -0.3583114
-0.015048343 -0.6911149 -0.5501636 -0.36082318 0.24843115 -0.8380016 -0.39421067 -0.84251165

body.block3.norm.running_var f4 [32]
00000000: 5387 543f 9314 973f 645e c93f 9704 103f
00000010: 9b4a 0e40 8891 d33e 79dd c33f ed83 ad3f
00000020: 8c47 623f db04 4640 39c4 e73f 93c6 9f3f
00000030: 9907 c73e 5d4e a53f a7ab 543f 3537 8b3f
00000040: 4089 4b3f 1a1c a43f 1b84 a53f f6d6 263f
00000050: 3be8 1240 5318 9d3f 9245 ca3e 3130 a43f
00000060: 1d48 973f b669 a83f 3d28 093f 7386 b63f
00000070: ff4f 263f 656a e83e c0a8 d63f c30f 4240
0.8301899 1.1803154 1.5731931 0.56257004 2.2233036 0.4132197 1.5301963 1.3555886
0.8839042 3.0940464 1.8106757 1.2482475 0.38872984 1.291454 0.8307442 1.0876223
0.795063 1.2821076 1.293094 0.65171754 2.2954242 1.2273048 0.39506203 1.2827207
1.1818882 1.315726 0.53577024 1.4259781 0.64965814 0.45393673 1.6770248 3.032212

tail.0.weight f4 [3, 32, 3, 3]
00000000: c554 873d 2a1d ff3d 2a20 88bb 8eac f4bc
00000010: 6bb8 033d 90db adbc 2f39 743c ae2b 04bb
00000020: c6ca de3b 4c9a d4bb 9028 d0bc 1dee cabb
00000030: b245 bc3c aab7 a03c ae5b a33c e22c 083d
00000040: 3dd0 623b 257a e539 081d 9ebd 18b6 d2bd
00000050: d796 6abc 95b3 9fbd 11a7 8ebc 3b9d a1bc
00000060: 1df3 dabb 44f9 003d fe7a c8bc b8cd 02bc
00000070: 93d1 27ba 0a3b 9a3c 893e 68b9 5742 3cbd
00000080: 1113 f4bc a559 733c 57f5 d43c 5c49 3dbc
00000090: 028f 2abd 19e2 3b3b 82e1 fc3b 12ee e83b
000000a0: 6689 a23c 3b83 04bd d237 34bd b94c c23b
000000b0: 1954 cc3c 5180 043d f0c3 6cbd efe3 9a3c
000000c0: d51f 16bd b5c6 a83d 00df 603c 0aab 243c
000000d0: 10c0 66bc 97fb 2bbc f883 9d3b 1c33 53bc
000000e0: 0a42 c03c 7299 1b3d 743a cbbc cfb2 473c
000000f0: c949 723c ee5a 2fba e6ce 243d 49ed dcb9
00000100: f0ff c73c ec3f b33d 1c76 873c 398a 8b3c
00000110: ce9a b03c 644e 96bc cd26 863c cde3 8e39
00000120: a422 7e3b c895 003b 7622 ca3a 4fa0 03bc
00000130: a9e0 2cba 7a55 7abb eb4e 143c a82f 743c
00000140: 7171 8c3c 7cd9 c8ba d8c6 e3bc 8ce2 f73c
00000150: cab2 b43c ce02 c0bc 02c8 74bc aaf1 1cbc
00000160: b8d3 33bc 11a0 6ebc b5c6 a13c 745f d83c
00000170: de39 f339 a449 26bb 302f c2bc f2fa 4d3b
00000180: 1161 0e3d 2b01 9b3b 37df 693c edde 5dbb
00000190: 979a 67bc a9a3 b03c 78e5 68bc c340 b83b
000001a0: b160 023c cf8f 853b 8596 56bc ff5e 92ba
000001b0: 2f7b 8f3c b0f5 833b abba 3c3d ee9a 133c
000001c0: f85b 13bd 331c 053c 5f8c 7abc 8527 c23c
000001d0: 3f68 8bbc 14b1 47bc 4ab8 27bc d77d 2d3c
000001e0: 4776 17bd 97d0 073c b97a ed3c 1aa5 88b9
000001f0: ad88 003d c49d 3b3d 331d eebb d367 dcbc
00000200: b1a7 b53b 4ace ecbb 61b0 393d 8e1d 4a3c
00000210: 233b e1bc f6a7 353b 3d35 dcbb eca0 5ebb
00000220: d317 17bd 18a6 12bd 0e36 0e3c 6103 b23a
00000230: 6828 4e3c 9cac d73b 3891 eb3b 50ec 893c
00000240: 1c19 aa3c a2da b33c 33b2 f8bc c8c4 c4bc
00000250: 590b bf3c aa02 dfbc 8a4a 17bd 9269 ebbc
00000260: 9f8a 99bd c2bd 2b3d e5c6 4e3c 2e45 47ba
00000270: 2570 4fbc 6451 adbc 090b 02bd 7cb6 e83b
00000280: cd7a ef3c c8dd b5b8 bf30 203c 111b f8bb
00000290: cec3 203d 8771 16bc 5a1a 87bc ab83 0abc
000002a0: c67d 663b 276c babc 4d55 0cbc d6f1 113d
000002b0: 396c a8bb 5065 a0bc 5721 2c3c d79e c1bc
000002c0: b574 283d ae8e 063c f848 643b 1b21 1ebd
000002d0: 76d0 e1bb d5a4 9bbb b671 1739 e28d 17bd
000002e0: 5822 86bc 4ab0 d5bc c21f 1dbc 1d16 dfbc
000002f0: 246b 8abd ea14 d33b bd11 023d 1d6e cd3c
00000300: 4c25 1f3d 9529 47bd c2fe 8fbd b1d5 7fbc
00000310: 7325 96bb 83b1 823c a488 36bd 43cb a23d
00000320: 7ad3 77bc df07 ff3b 4455 0fbd 3df8 2f3c
00000330: c757 1e3c f277 dfbc 5de8 623c f05a 1b3c
00000340: 9cd0 da3c 537e 81bb c0ad d83c 7374 41bd
00000350: ce78 153c 1dd0 903b 40a0 fdbc 6107 443c
00000360: 62a6 40bd 07b8 6c3a f8ce 323d 7697 b73a
00000370: 6c8b 92bc 55ea b2bb 6b92 193d 5d83 dc3a
00000380: 49fc bdbc 5232 a23c 55fe 84bc f3e4 dfba
00000390: bae9 3ebc 4243 2b3d af11 e9bc 32fd f33c
000003a0: 5e1e 773d 6264 1abd 06c0 443d 20ea 9e3b
000003b0: 93f5 18bd 579d 11bd 87e4 cabc a3c6 bd3c
000003c0: a6bc a83c 6d65 5abc c423 613c 1cac 95bc
000003d0: 3a67 bcbb 51b9 8f3c 3b98 eab8 e894 7f3c
000003e0: d062 f83c 7a7a 1fbc abe0 71bc 3487 dfbb
000003f0: 1ef2 203c 1634 00bc 68d5 80bd 53ef b13c
0.066079654 0.124567345 -0.004154225 -0.029867437 0.032158297 -0.02122286 0.014906212 -0.0020167637
0.006799075 -0.00648812 -0.025409967 -0.006192936 0.022982452 0.019618828 0.019941177 0.03324593
0.0034608983 0.00043769288 -0.07720381 -0.10288638 -0.01431819 -0.077979244 -0.017413648 -0.019728294
-0.0066818134 0.03148772 -0.02447271 -0.0079836175 -0.00064017734 0.01882698 -0.0002214854 -0.045961704
-0.029794248 0.014852916 0.025995893 -0.011553135 -0.04164029 0.00286687 0.0077173123 0.0071084583
0.019840907 -0.032351714 -0.043998547 0.005929556 0.024942445 0.032348935 -0.057804048 0.018907515
-0.03665145 0.08241025 0.013725042 0.0100505445 -0.014083877 -0.010496995 0.0048069917 -0.012890603
0.02346899 0.037988134 -0.024808146 0.012188627 0.0147881 -0.000668927 0.040236376 -0.0004213846
0.024414033 0.087524265 0.016535811 0.017033683 0.021558192 -0.018347926 0.016375924 0.00027254075
0.0038777972 0.0019620527 0.0015421647 -0.008033826 -0.0006594756 -0.003819792 0.009052019 0.01490394
0.017143937 -0.0015323604 -0.027804777 0.030259393 0.02205791 -0.023438837 -0.014940264 -0.009579102
-0.010975771 -0.01456453 0.019748071 0.026412703 0.00046391686 -0.0025373483 -0.023704141 0.0031430093
0.03476054 0.004730364 0.01427441 -0.0033854798 -0.014135978 0.021562414 -0.014214866 0.0056229546
0.007957623 0.004075981 -0.01309741 -0.0011167227 0.017514793 0.004027091 0.046076458 0.009009106
-0.03597638 0.008124399 -0.015292256 0.023700485 -0.017017482 -0.012188215 -0.010236809 0.010589085
-0.036978032 0.008289478 0.028989183 -0.00026062952 0.031380344 0.045804754 -0.0072666644 -0.026904976
0.005543672 -0.00722674 0.045334224 0.012336148 -0.027494019 0.002771852 -0.0067202137 -0.0033970429
-0.036887955 -0.03580293 0.00867988 0.0013581329 0.012582876 0.006581856 0.0071889423 0.016836315
0.020763926 0.021954838 -0.03035841 -0.024019614 0.02332084 -0.02722295 -0.03693632 -0.028736863
-0.07497143 0.041929014 0.012620662 -0.0007601556 -0.012661015 -0.021156974 -0.031748805 0.007101832
0.02923336 -8.6720625e-05 0.009777247 -0.007571586 0.039249234 -0.00918234 -0.016492058 -0.008454244
0.0035170182 -0.02275665 -0.008565259 0.035631023 -0.0051398543 -0.01957956 0.010505996 -0.023635311
0.041126925 0.008212728 0.0034833532 -0.03860579 -0.0068913056 -0.004749874 0.00014442843 -0.037000544
-0.016373798 -0.026085038 -0.009590091 -0.027232224 -0.06758717 0.006441702 0.031755198 0.02507692
0.03885393 -0.04862364 -0.07031013 -0.015614913 -0.004582101 0.015953785 -0.044563904 0.07948925
-0.015126104 0.0077829207 -0.034993425 0.010740337 0.009664482 -0.027278874 0.013849345 0.00948213
0.0267108 -0.0039518266 0.026450038 -0.047230195 0.00912304 0.0044193403 -0.030960202 0.01196465
-0.047033675 0.0009030108 0.043654412 0.0014006931 -0.017888747 -0.0054600635 0.03749315 0.0016823817
-0.023191588 0.019799385 -0.016234556 -0.0017081782 -0.011652404 0.04181219 -0.028450815 0.029783819
0.060331695 -0.03769339 0.04803469 0.004849687 -0.037343573 -0.03555044 -0.024767173 0.023166006
0.020597767 -0.013329846 0.013741437 -0.018270545 -0.0057496103 0.01754442 -0.00011186345 0.015599467
0.030320555 -0.0097337905 -0.014763038 -0.0068215374 0.00982335 -0.007824918 -0.06290704 0.021720564

tail.0.bias f4 [3]
00000000: 44f4 ab3c e591 aabc e8fb 653c
0.020990498 -0.020821521 0.01403711
