code/Output/balloons/pdl_e8000_1px_lr0.001a5.0_up-conv5_1_W[1.0, 0.75, 0.2, 0.2, 0.2](1)/4/netG.pth (torch, 471621 bytes, 26 tensors)

head.conv.weight f4 [64, 3, 3, 3]
0.0693244 -0.0072564417 -0.074110396 0.0062980265 -0.046990313 -0.12472751 -0.077347614 -0.061093085
-0.014349579 0.013786503 -0.021709329 -0.0990283 -0.07754623 -0.21183784 -0.18095991 -0.21884255
-0.08101874 0.058924735 0.021451095 0.031768262 0.0028696903 -0.035970297 -0.013265164 0.014499979
-0.08285674 -0.0093739275 0.06771722 -0.26867282 0.046277665 0.065786615 -0.08675058 0.031721123
0.0025190625 0.03285326 0.035864737 0.016016556 -0.09584214 0.10462962 0.020298433 0.035053235
0.08606853 0.019405212 0.11813055 -0.052529447 -0.07508893 -0.13982368 -0.00027524398 -0.17629907
0.048900086 0.022684092 -0.15690419 0.13277748 9.453451e-05 -0.0721659 -0.05804868 -0.05803898
-0.097476475 0.027358927 -0.0037934713 -0.10051452 0.047752388 -0.093862414 -0.12175272 -0.0007228212
0.03132215 -0.0831972 0.25646427 0.15379211 0.006668316 0.28771263 0.1406766 0.1063291
-0.042346235 -0.014493265 -0.0689679 0.0667926 0.031201465 -0.044214666 0.15227093 0.110752836
0.060202815 -0.1656387 -0.024412518 0.09639759 -0.064238444 0.05705267 0.062645815 -0.13351722
-0.06930357 0.032458264 -0.039980628 0.07729527 0.0028781644 0.050990406 0.14188458 0.02703921
0.08030215 0.057993658 0.016928583 -0.07948165 -0.01575978 -0.117136866 -0.035017617 0.005641627
-0.18549556 -0.016656606 -0.063035846 -0.2167194 0.013547641 -0.066600986 -0.048823483 -0.030027186
-0.0017691554 -0.024264166 -0.083652794 0.0033821205 0.08284589 0.12769008 -0.027958514 -0.11501919
0.101917796 0.03416481 -0.12570094 0.077728696 0.15189897 0.03555903 0.13448593 -0.037285645
-0.10226367 0.112304814 0.050259933 -0.04425056 0.06437503 0.10444899 -0.014347852 -0.11066816
-0.117448546 -0.006798759 -0.05019842 -0.15233465 -0.09966754 0.018297542 0.14201382 0.2017013
0.067660086 0.050331913 0.075468175 -0.041894183 -0.13127492 -0.031988498 -0.07190602 -0.015939195
0.0056180586 0.15223849 0.10514374 0.054158088 0.022510653 -0.027997838 0.0042318725 -0.055228274
0.010725266 0.02065093 0.01987206 0.064198025 0.0052676857 0.014522392 0.12235625 -0.03379951
0.11633514 0.09085339 -0.067865916 -0.06913026 0.02214717 -0.022796 0.082537994 0.20349325
0.06966285 0.2401989 0.21836418 0.059552778 -0.03138668 -0.0074844705 0.0076372707 -0.037710257
0.006153949 -0.07003661 -0.08297619 -0.076063 -0.07717366 0.058800943 0.13713844 0.13294303
-0.0713378 0.08204617 0.060895257 0.006863467 0.0060883984 -0.06566847 0.033136826 0.0077904547
0.0104936445 -0.049385052 0.030857785 -0.069723725 -0.049072765 -0.04880625 -0.094251156 0.0816543
0.10190248 0.10286639 0.05279114 0.084063776 0.023892038 0.0033576363 -0.01347744 -0.00035904208
0.09045959 -0.01757697 -0.21373786 -0.0049484107 0.033499468 -0.004780818 -0.069473214 0.012979939
0.08129566 0.018471502 -0.014942304 -0.002451179 -0.124294184 0.10493129 0.1335229 -0.08523642
0.02891182 0.08173642 -0.11260132 -0.005622378 0.09794486 -0.14166495 0.046810117 0.12621956
-0.20060828 -0.011035897 0.0735878 0.088293366 0.09626286 0.037674785 0.06581999 0.009378174
-0.041068662 0.054309383 -0.0309056 0.0150811095 0.042983994 0.022456229 -0.03651037 0.1491037
00000000: f3f9 8d3d 72c7 edbb 31c7 97bd ad5f ce3b
00000010: ea78 40bd 2371 ffbd 6d68 9ebd be3c 7abd
00000020: 7f1a 6bbc c9e0 613c c3d7 b1bc 59cf cabd
00000030: 8fd0 9ebd 05ec 58be 8e4d 39be 4318 60be
00000040: 27ed a5bd 105b 713d 35ba af3c 701f 023d
00000050: 6a11 3c3b 9755 13bd 2156 59bc 5291 6d3c
00000060: cbb0 a9bd 1a95 19bc 53af 8a3d 7c8f 89be
00000070: a68d 3d3d 22bb 863d 4aaa b1bd 02ee 013d
00000080: db16 253b 2491 063d e7e6 123d 2735 833c
00000090: e248 c4bd 0e48 d63d e648 a63c fb93 0f3d
000000a0: b344 b03d aef7 9e3c 6eee f13d 1e29 57bd
000000b0: 3ac8 99bd f02d 0fbe 9f4e 90b9 be87 34be
000000c0: 754b 483d fdd3 b93c 7eab 20be d2f6 073e
000000d0: d440 c638 b7cb 93bd 74c4 6dbd 48ba 6dbd
000000e0: bfa1 c7bd d41f e03c e39b 78bb 8fda cdbd
000000f0: 0298 433d f03a c0bd 7d59 f9bd b67b 3dba
00000100: a84b 003d 4b63 aabd 494f 833e ae7b 1d3e
00000110: e481 da3b 124f 933e 870d 103e 12c3 d93d
00000120: 3f73 2dbd 2975 6dbc 0b3f 8dbd 8fca 883d
00000130: 379a ff3c 701a 35bd e9ec 1b3e 62d2 e23d
00000140: 3a97 763d 319d 29be c3fc c7bc 1a6c c53d
00000150: 728f 83bd 0fb0 693d 734c 803d bdb8 08be
00000160: 08ef 8dbd f5f2 043d bac2 23bd fc4c 9e3d
00000170: 969f 3c3b 51db 503d 314a 113e 5581 dd3c
00000180: 7475 a43d c28a 6d3d d0ad 8a3c 46c7 a2bd
00000190: a71a 81bc 74e5 efbd a26e 0fbd 66dd b83b
000001a0: 8cf2 3dbe 6f73 88bc f018 81bd b1eb 5dbe
000001b0: edf6 5d3c 1966 88bd 22fb 47bd 93fb f5bc
000001c0: 01e3 e7ba a5c5 c6bc 2852 abbd 91a6 5d3b
000001d0: 1bab a93d 30c1 023e 4109 e5bc 2e8f ebbd
000001e0: 47ba d03d 66f0 0b3d bfb7 00be 3930 9f3d
000001f0: 678b 1b3e 58a6 113d aeb6 093e d5b8 18bd
00000200: 9d6f d1bd 1100 e63d 5cdd 4d3d 1340 35bd
00000210: 0ed7 833d 5ae9 d53d 4113 6bbc fda5 e2bd
00000220: dd88 f0bd 20c8 debb dc9c 4dbd 9dfd 1bbe
00000230: 7f1e ccbd bae4 953c 126c 113e c98a 4e3e
00000240: 5f91 8a3d d628 4e3d 0f8f 9a3d 3c99 2bbd
00000250: ef6c 06be 5f06 03bd 7743 93bd ea92 82bc
00000260: b117 b83b 68e4 1b3e 9a55 d73d dfd4 5d3d
00000270: 4368 b83c b95b e5bc 85ab 8a3b 0b37 62bd
00000280: 07b9 2f3c 242c a93c bbca a23c 417a 833d
00000290: 8d9c ac3b 54ef 6d3c ea95 fa3d 5b71 0abd
000002a0: 1e41 ee3d 5811 ba3d 49fd 8abd 2a94 8dbd
000002b0: fb6d b53c adbe babc ae09 a93d 8960 503e
000002c0: 65ab 8e3d b3f6 753e dc9a 5f3e 9ded 733d
000002d0: 528f 00bd 4a40 f5bb 1242 fa3b 1276 1abd
000002e0: 11a7 c93b 5b6f 8fbd 6cef a9bd ebc6 9bbd
000002f0: 390d 9ebd 42d9 703d 056e 0c3e 3822 083e
00000300: 8d19 92bd d307 a83d 4e6d 793d efe6 e03b
00000310: 3081 c73b 317d 86bd 7bba 073d 1247 ff3b
00000320: 89ed 2b3c fb47 4abd 77c9 fc3c 50cb 8ebd
00000330: 8600 49bd 10e9 47bd c006 c1bd 5f3a a73d
00000340: 3fb2 d03d 9dab d23d 863b 583d a129 ac3d
00000350: 3cb9 c33c ca0b 5c3b 7bd0 5cbc d03d bcb9
00000360: e142 b93d 94fd 8fbc 19de 5abe 4726 a2bb
00000370: bd36 093d 68a8 9cbb f947 8ebd cfa9 543c
00000380: 577e a63d 8c51 973c 91d0 74bc f6a3 20bb
00000390: f38d febd 37e6 d63d 3aba 083e 6f90 aebd
000003a0: 7bd8 ec3c 6d65 a73d 859b e6bd ed3b b8bb
000003b0: 5197 c83d 9e10 11be f7bb 3f3d b33f 013e
000003c0: 426c 4dbe e8cf 34bc 33b5 963d 27d3 b43d
000003d0: 7625 c53d e050 1a3d a2cc 863d eaa6 193c
000003e0: 9d37 28bd 8473 5e3d be2d fdbc c216 773c
000003f0: fc0f 303d 20f6 b73c e68b 15bd a4ae 183e

head.conv.bias f4 [64]
0.03817856 -0.18535265 -0.036838464 0.24508111 0.12546928 0.058692355 -0.15292697 -0.18671873
0.4251923 -0.116211675 -0.051819593 -0.09668001 0.024548685 -0.06182422 -0.042508498 -0.17895551
-0.050587304 -0.119505726 0.079155825 -0.1002718 0.28819072 -0.15927795 0.14153573 -0.10669655
0.05599807 0.03576957 0.021909151 0.11517773 0.0021716761 0.16167182 -0.12400163 0.11230265
0.0019258339 0.035002496 -0.14557083 -0.11348734 0.309577 -0.24297263 0.06583234 -0.18949503
-0.035363365 0.11728315 0.19998121 -0.011697831 0.16159533 0.09796542 0.08327217 0.05923283
0.02378801 0.09009845 -0.2416399 0.22367589 -0.010625401 -0.052547965 0.060202986 0.063095614
0.20923257 0.028769411 -0.07135149 -0.066165306 0.047335293 -0.19561346 0.1302263 0.097385585
00000000: 1f61 1c3d 16cd 3dbe eee3 16bd 8bf6 7a3e
00000010: 057b 003e 6567 703d e398 1cbe 3233 3fbe
00000020: ceb2 d93e 6300 eebd c840 54bd 2b00 c6bd
00000030: 531a c93c 653b 7dbd 641d 2ebd 1d40 37be
00000040: a234 4fbd 6bbf f4bd 731c a23d 4d5b cdbd
00000050: bc8d 933e c219 23be beee 103e b983 dabd
00000060: 3b5e 653d 1d83 123d d27a b33c 4de2 eb3d
00000070: ae52 0e3b 4c8d 253e 91f4 fdbd effe e53d
00000080: 436c fc3a c75e 0f3d 8510 15be 0d6c e8bd
00000090: e080 9e3e d1cd 78be 1bd3 863d fc0a 42be
000000a0: 2dd9 10bd 2632 f03d e0c7 4c3e 42a8 3fbc
000000b0: 3f79 253e 18a2 c83d 998a aa3d 209e 723d
000000c0: 13df c23c 8985 b83d 7370 77be 4b0b 653e
000000d0: 2916 2ebc 893c 57bd 6897 763d 4638 813d
000000e0: 1041 563e d4ad eb3c bb20 92bd ad81 87bd
000000f0: a7e2 413d e54e 48be 0b5a 053e 1872 c73d

head.norm.weight f4 [64]
0.82585216 0.8925075 1.0032179 0.9667034 1.1374856 0.95515287 1.0937809 1.0240791
1.0015326 0.7898479 0.8666847 1.1145947 1.1127791 0.96287966 0.9546434 1.0363446
0.9929318 0.9734274 0.90605223 0.9517764 0.98877496 1.1273412 1.1063588 1.0355756
0.9488997 1.0533837 1.0496161 0.96976876 0.8347012 1.1294293 1.0558919 0.90680736
0.8782563 1.0912765 0.84738886 0.8979255 1.1039248 1.0562072 0.9227692 1.015498
1.135848 0.9885826 0.8971107 0.89946806 0.9486882 0.9101992 1.0600349 0.86410344
0.8492584 0.846195 1.0123773 1.0477698 0.75027996 0.87037873 0.7915018 0.975462
1.0102106 0.72411 0.8627139 1.0143625 0.8192533 1.052284 0.804234 0.78719586
00000000: 0c6b 533f 5f7b 643f 7269 803f e079 773f
00000010: 2199 913f e684 743f 0301 8c3f 0615 833f
00000020: 3832 803f 7933 4a3f 0cdf 5d3f 0aab 8e3f
00000030: 8c6f 8e3f 487f 763f 8363 743f f1a6 843f
00000040: c730 7e3f 8a32 793f 0af3 673f 9ea7 733f
00000050: 5b20 7d3f b74c 903f 2a9d 8d3f be8d 843f
00000060: 17eb 723f 47d5 863f d259 863f c442 783f
00000070: faae 553f 2491 903f 7727 873f 8724 683f
00000080: 68d5 603f f3ae 8b3f 7aee 583f 72de 653f
00000090: 684d 8d3f cc31 873f 9a3a 6c3f d7fb 813f
000000a0: 7863 913f c013 7d3f 0ca9 653f 8a43 663f
000000b0: 3bdd 723f d102 693f 39af 873f e235 5d3f
000000c0: 0069 593f 3ca0 583f 9495 813f 521d 863f
000000d0: 5912 403f 24d1 5e3f dd9f 4a3f e1b7 793f
000000e0: 954e 813f 465f 393f d1da 5c3f a1d6 813f
000000f0: 96ba 513f 3eb1 863f 48e2 4d3f ab85 493f

head.norm.bias f4 [64]
-0.34977594 -0.56046855 0.06279189 -0.4958399 -0.13385926 -0.07400831 -0.08995336 0.20691764
-0.4620361 0.0378987 -0.53081244 -0.07810731 -0.4647374 -0.53977436 0.01764271 -0.042835318
-0.6045439 0.046211813 -0.2370992 -0.0027890368 -0.47992706 -0.042959016 -0.41144195 0.09101454
-0.6859679 0.14825943 -0.23291284 -0.3367879 -0.3163698 0.16438892 -0.04584059 -0.47006005
-0.017637687 -0.22391792 -0.36483672 -0.37735948 -0.3043136 -0.37948406 -0.43561742 -0.070620194
-0.29973125 -0.18108098 -0.49688002 -0.47688118 0.056929395 -0.018148134 -0.0032083576 -0.05911859
-0.5192244 -0.386242 0.08618585 -0.44098312 -0.32813844 -0.17699766 -0.44530883 -0.38187894
-0.49069667 -0.44918153 0.11362319 -0.5667189 -0.7348916 -0.3638264 -0.4 -0.36897302
00000000: d515 b3be de7a 0fbf 0999 803d bade fdbe
00000010: 6712 09be ab91 97bd 7839 b8bd 38e2 533e
00000020: ff8f ecbe ab3b 1b3d 53e3 07bf baf6 9fbd
00000030: 0ff2 edbe a72e 0abf 7287 903c 1674 2fbd
00000040: 64c3 1abf 9948 3d3d 22ca 72be 46c8 36bb
00000050: 00b9 f5be cbf5 2fbd 85a8 d2be d565 ba3d
00000060: 989b 2fbf 52d1 173e b480 6ebe 776f acbe
00000070: 39fb a1be 9255 283e 58c3 3bbd b6ab f0be
00000080: e97c 90bc bd4a 65be e1cb babe 4335 c1be
00000090: fece 9bbe bc4b c2be 3f09 dfbe 52a1 90bd
000000a0: 6076 99be 4b6d 39be 0f67 febe c529 f4be
000000b0: cc2e 693d 65ab 94bc 4f43 52bb 5626 72bd
000000c0: e4eb 04bf 83c1 c5be 3582 b03d 8ac8 e1be
000000d0: c301 a8be e03e 35be 85ff e3be a385 c3be
000000e0: 983c fbbe 1ffb e5be 46b3 e83d 7d14 11bf
000000f0: db21 3cbf 7447 babe cdcc ccbe 08ea bcbe

head.norm.running_mean f4 [64]
-0.007167048 -0.20735344 0.115747906 0.20039071 0.19835971 0.10426444 -0.15987869 -0.17646398
0.42809138 -0.0956979 -0.094895706 0.03929754 0.009680939 -0.04143888 0.07074855 -0.16313796
-0.20879963 0.017431831 0.16026393 0.03210802 0.2696166 -0.13674255 0.13675131 -0.001894174
-0.118592754 0.09338294 0.15170443 -0.02855173 -0.047200747 0.1715222 -0.20123602 0.0032083169
0.15029737 0.16564229 -0.06250935 -0.24033718 0.3116459 -0.26578215 -0.06261093 -0.038342196
-0.030153953 0.15785928 0.2111857 -0.0021966146 0.19544286 0.20543516 0.21750267 0.1789581
-0.036847226 0.23207264 -0.24651518 0.2240984 -0.039930284 0.05610952 -0.021377847 -0.025592968
0.03154759 -0.059636276 0.019274129 -0.084284864 -0.012497572 -0.18166538 0.06667687 0.009860292
00000000: 8ed9 eabb 7654 54be 3d0d ed3d 3933 4d3e
00000010: cf1e 4b3e 9888 d53d 3db7 23be f9b2 34be
00000020: cb2e db3e 43fd c3bd ae58 c2bd 75f6 203d
00000030: cd9c 1e3c d1bb 29bd 9ee4 903d a30d 27be
00000040: 92cf 55be 33cd 8e3c 3a1c 243e b383 033d
00000050: 300b 8a3e 3d06 0cbe 8908 0c3e ef45 f8ba
00000060: c2e0 f2bd 8e3f bf3d 6858 1b3e 51e5 e9bc
00000070: 9255 41bd 84a3 2f3e d110 4ebe a042 523b
00000080: 8ee7 193e 229e 293e e704 80bd f31a 76be
00000090: 0d90 9f3e 9914 88be 293a 80bd b50c 1dbd
000000a0: 6c05 f7bc dda5 213e 1041 583e 14f5 0fbb
000000b0: 2c22 483e 985d 523e 05b9 5e3e cb40 373e
000000c0: 1eed 16bd 73a4 6d3e 7a6e 7cbe 0d7a 653e
000000d0: f08d 23bd 19d3 653d 9820 afbc 58a8 d1bc
000000e0: 0c38 013d 2b45 74bd c7e4 9d3c 8b9d acbd
000000f0: 9ec2 4cbc 7d06 3abe e28d 883d 108d 213c

head.norm.running_var f4 [64]
0.08376563 0.013015001 0.0900322 0.028578175 0.029436823 0.008614 0.03361113 0.025437681
0.010063958 0.0377208 0.018219147 0.062435366 0.0060005216 0.004276198 0.074614085 0.07128173
0.04491097 0.041765515 0.023129469 0.038914133 0.005872628 0.04599462 0.014766583 0.062302433
0.04577018 0.026115105 0.033288162 0.05516613 0.051599227 0.04017054 0.038609054 0.029863616
0.09721271 0.03323705 0.045885652 0.067740194 0.0053710425 0.024191225 0.049915683 0.10662185
0.011587688 0.004759684 0.005201846 0.0048629423 0.013222839 0.0995354 0.075103335 0.03954121
0.008451024 0.05074212 0.022637775 0.009535656 0.026247436 0.033930194 0.016190773 0.03915384
0.05107593 0.05539318 0.049228206 0.007931723 0.055717897 0.0061452077 0.045792576 0.029112443
00000000: 518d ab3d df3c 553c cd62 b83d c71c ea3c
00000010: 7e25 f13c bc21 0d3c d3ab 093d af62 d03c
00000020: 4de3 243c 2081 1a3d 5240 953c 3abc 7f3d
00000030: 06a0 c43b 591f 8c3b 45cf 983d 28fc 913d
00000040: 91f4 373d 5112 2b3d 037a bd3c 6d64 1f3d
00000050: 2d6f c03b db64 3c3d 8aef 713c d630 7f3d
00000060: 8379 3b3d 58ef d53c 2b59 083d e1f5 613d
00000070: b659 533d dd89 243d 8724 1e3d 8ba4 f43c
00000080: 7517 c73d 9323 083d 98f2 3b3d 5fbb 8a3d
00000090: 92ff af3b ad2c c63c 6374 4c3d 8e5c da3d
000000a0: 49da 3d3c 20f7 9b3b 3f74 aa3b 5159 9f3b
000000b0: 9ba4 583c 37d9 cb3d c7cf 993d f7f5 213d
000000c0: 2a76 0a3c f8d6 4f3d db72 b93c 713b 1c3c
000000d0: dd04 d73c 63fa 0a3d 83a2 843c c75f 203d
000000e0: ff34 513d f6e3 623d 84a3 493d 0ff4 013c
000000f0: 7338 643d bd5d c93b ff90 3b3d 387d ee3c

body.block1.conv.weight f4 [64, 64, 3, 3]
-0.075190835 -0.014641287 -0.06532434 -0.008540609 -0.07550483 -0.008376929 -0.036138173 -0.06806519
-0.082509205 0.05010927 0.019703567 -0.040457055 0.11556623 -0.042974543 -0.058273982 0.14051853
0.07279663 0.03534934 -0.083803385 0.0016432644 -0.051176913 -0.09764298 -0.019877803 -0.055642165
-0.039333746 -0.05253691 -0.05290255 0.2700031 0.12306511 0.16031556 0.15592436 0.08085279
0.019673467 0.15747547 0.05351391 -0.015603775 -0.05900988 -0.024087975 0.03302183 -0.050994344
-0.07617434 0.014592905 -0.009726003 -0.015916757 -0.0149104055 -0.1450911 -0.046917275 0.002132211
0.15443242 0.12513152 0.0003971147 0.015017966 0.052315596 0.08325549 0.003693064 -0.035063073
0.0041279295 -0.043777253 -0.031163737 -0.06480482 -0.14829226 -0.12980583 -0.09286333 0.02872656
-0.021016434 -0.008751176 0.0698722 0.037937418 0.020151116 0.002636259 -0.0032455488 0.12996879
-0.034954615 0.07280361 -0.20817 0.11850931 0.03919007 -0.00790494 0.05121916 0.039774116
-0.12358335 0.08610089 0.046915147 0.028816814 -0.012788652 -0.03409803 -0.05170494 -0.054632664
-0.087923184 -0.0740997 0.12826143 0.008833168 0.061578974 0.08662262 0.020317174 0.031547148
0.22403133 0.095871665 0.0010899454 -0.058604304 -0.022672987 0.0025409434 -0.08695628 -0.053521354
0.02107134 -0.043193296 -0.024567693 -0.053961527 -0.030328829 -0.05935376 -0.060527194 -0.16421048
-0.1508708 -0.00049602566 0.14579304 -0.0126718925 -0.04437213 0.055901725 -0.028967597 -0.12787297
-0.047813926 -0.09217722 -0.113072984 0.12049713 0.06390599 0.10912926 0.103829 0.1597473
0.086133264 0.062128626 0.050677564 0.035776302 -0.013317678 0.011677792 0.03808995 -0.120797604
-0.0826345 -0.008104533 -0.07432772 -0.008451116 -0.025453025 -0.061051045 -0.023829611 -0.088001855
-0.08430012 -0.083314255 -0.037431594 0.043508876 -0.05623064 -0.04240278 0.08338554 0.092965715
0.09191757 0.02495913 -0.023250852 0.059837118 0.004879646 -0.0103375865 0.05109837 0.044535723
0.0060322955 -0.16520917 0.09070401 0.0672491 0.09990043 -0.01730352 -0.010539326 -0.0534695
-0.029276857 -0.061368875 -0.0483437 -0.13495217 -0.10803661 -0.10060531 -0.030952714 -0.0062039904
0.061844543 0.041221734 -0.041844957 -0.072615355 -0.03399423 -0.061301347 -0.11025852 0.02879953
0.12660661 0.06427897 0.10020711 -0.08322182 -0.02359452 -0.090194464 0.05009688 -0.05512068
0.022158468 0.099716276 0.06723409 0.0954819 0.00025708962 -0.10646105 -0.07308161 0.03321811
0.10723153 0.04270336 0.14654078 0.062295705 0.08574699 -0.10051977 -0.046222277 0.06400793
0.054655194 0.11706204 0.11435268 0.023788415 0.019126875 -0.03802245 -0.07381776 0.071675494
-0.17273162 -0.059927467 -0.0150214145 -0.052986708 -0.043755036 0.0022121533 0.03526183 -0.0070160176
0.009519449 0.1789797 -0.06636767 -0.044653106 -0.055030733 -0.012159727 -0.0022004552 -0.12938513
-0.010918692 0.030971508 -0.008404892 -0.06434432 -0.11207575 -0.047124166 -0.07633461 -0.0046082693
0.09760572 0.05392948 0.012525287 -8.861864e-05 0.07823537 0.119621314 -0.08414546 0.02602818
0.09757609 0.077486314 0.061662447 0.08999681 0.06570468 0.016495312 0.023220126 0.10241643
00000000: a7fd 99bd 02e2 6fbc c4c8 85bd e9ed 0bbc
00000010: 47a2 9abd 633f 09bc 9f05 14bd c365 8bbd
00000020: 96fa a8bd 613f 4d3d 6069 a13c 4cb6 25bd
00000030: fdad ec3d 1306 30bd b3b0 6ebd 17e4 0f3e
00000040: 6616 953d 78ca 103d 1ca1 abbd ce62 d73a
00000050: e29e 51bd 0bf9 c7bd c6d6 a2bc 0ae9 63bd
00000060: 6c1c 21bd f130 57bd 58b0 58bd d93d 8a3e
00000070: 8f09 fc3d c329 243e a3aa 1f3e 2696 a53d
00000080: 402a a13c 4041 213e 6731 5b3d faa6 7fbc
00000090: 58b4 71bd 2554 c5bc e641 073d 72df 50bd
000000a0: 4b01 9cbd 1417 6f3c d059 1fbc dc63 82bc
000000b0: c64a 74bc c392 14be 542c 40bd 91bc 0b3b
000000c0: 8823 1e3e 7a22 003e d533 d039 ea0d 763c
000000d0: e148 563d db81 aa3d 5507 723b 4c9e 0fbd
000000e0: 9543 873b c74f 33bd 184b ffbc 64b8 84bd
000000f0: edd9 17be d2eb 04be 212f bebd f653 eb3c
00000100: a82a acbc 1861 0fbc 2819 8f3d 4464 1b3d
00000110: f413 a53c 16c5 2c3b 46b3 54bb 8a16 053e
00000120: 922c 0fbd 0f1a 953d 842a 55be 02b5 f23d
00000130: c485 203d b983 01bc 2fcb 513d 2fea 223d
00000140: 4419 fdbd aa55 b03d 192a 403d 3d11 ec3c
00000150: 7f87 51bc 60aa 0bbd 8fc8 53bd 80c6 5fbd
00000160: 1211 b4bd 95c1 97bd f756 033e feb8 103c
00000170: 3c3a 7c3d 3367 b13d 3470 a63c 9537 013d
00000180: 7868 653e 5d58 c43d 80dc 8e3a 110b 70bd
00000190: b3bc b9bc f585 263b 2216 b2bd 3539 5bbd
000001a0: ce9d ac3c 74eb 30bd 3042 c9bc c306 5dbd
000001b0: 2a74 f8bc ee1c 73bd 5deb 77bd cb26 28be
000001c0: e07d 1abe b807 02ba c54a 153e c59d 4fbc
000001d0: 8dbf 35bd 35f9 643d 744d edbc 22f1 02be
000001e0: 89d8 43bd 69c7 bcbd cf92 e7bd 33c7 f63d
000001f0: 25e1 823d 297f df3d 4ca4 d43d cc94 233e
00000200: a366 b03d 967a 7e3d 4793 4f3d 2c8a 123d
00000210: 6432 5abc 3654 3f3c 3504 1c3d bc64 f7bd
00000220: 473c a9bd e0c8 04bc 2239 98bd 8d76 0abc
00000230: dd82 d0bc a910 7abd 5136 c3bc 513a b4bd
00000240: 8ba5 acbd aaa0 aabd df51 19bd 5d36 323d
00000250: 1952 66bd 8aae 2dbd 0ac6 aa3d cf64 be3d
00000260: 473f bc3d 1777 cc3c 9278 bebc c417 753d
00000270: 70e5 9f3b fb5e 29bc 864c 513d 176b 363d
00000280: 90aa c53b 982c 29be 06c3 b93d e5b9 893d
00000290: 9998 cc3d 1dc0 8dbc 23ad 2cbc d602 5bbd
000002a0: 05d6 efbc ee5d 7bbd 0b04 46bd e730 0abe
000002b0: 4c42 ddbd 280a cebd 8c90 fdbc d84a cbbb
000002c0: b450 7d3d 1fd8 283d 9e65 2bbd 5cb7 94bd
000002d0: 893d 0bbd 1f17 7bbd 38cf e1bd feec eb3c
000002e0: 2aa5 013e b1a4 833d 6339 cd3d 3470 aabd
000002f0: 4b49 c1bc e0b7 b8bd 6332 4d3d 39c6 61bd
00000300: ad85 b53c 0c38 cc3d 07b2 893d 048c c33d
00000310: fcc9 8639 4008 dabd d0ab 95bd b70f 083d
00000320: 349c db3d b8e9 2e3d c90e 163e c829 7f3d
00000330: 1e9c af3d 4fdd cdbd 9253 3dbd 9716 833d
00000340: 20de 5f3d 39be ef3d bd31 ea3d ecdf c23c
00000350: f7af 9c3c 6ebd 1bbd c42d 97bd 9aca 923d
00000360: 8fe0 30be 8176 75bd 611c 76bc 9708 59bd
00000370: 7b38 33bd c6f9 103b b56e 103d 9fe6 e5bb
00000380: 77f7 1b3c 7446 373e c6eb 87bd 2de6 36bd
00000390: e867 61bd 9739 47bc 8335 10bb 897d 04be
000003a0: 50e4 32bc f6b7 fd3c acb4 09bc f4c6 83bd
000003b0: f987 e5bd 4505 41bd 5255 9cbd f700 97bb
000003c0: 82e5 c73d 29e5 5c3d dd36 4d3c c5d8 b9b8
000003d0: de39 a03d 05fc f43d 7454 acbd 0d39 d53c
000003e0: f9d5 c73d 25b1 9e3d c391 7c3d 3f50 b83d
000003f0: 2d90 863d 2d21 873c 2238 be3c b5bf d13d

body.block1.conv.bias f4 [64]
-0.002905415 0.023775924 -0.00940347 -0.034018934 0.033162165 -0.0064047216 -0.06104096 0.005174619
-0.012691702 -0.008657083 0.012464772 0.013406199 0.06410028 0.02179492 0.03945013 0.008212254
-0.031125234 0.00685314 0.021531846 -0.012326558 -0.01204176 0.0485407 0.035142004 -0.022749875
-0.010429104 -0.026838165 0.022065092 -0.030596549 -0.032456912 -0.030798756 -0.0010688845 -0.012093546
-0.00415631 0.022411145 0.049252126 0.007225709 0.0145900985 -0.030833522 -0.016575117 -0.0043691196
0.021591334 -0.02488149 0.024460327 0.009506181 0.006360964 0.033708524 0.028231297 0.042063676
-0.0012246429 0.022888219 0.0134470295 -0.039749574 -0.015630273 0.019984948 -0.019464836 -0.04302412
-0.01708808 0.011056122 0.029471822 0.033841502 0.010319756 -0.025468985 0.0006492424 0.022086173
00000000: c668 3ebb bac5 c23c 0311 1abc 7057 0bbd
00000010: 0dd5 073d b3de d1bb 1606 7abd da8f a93b
00000020: dbf0 4fbc 70d6 0dbc 0b39 4c3c ada5 5b3c
00000030: 0247 833d 438b b23c 7696 213d b18c 063c
00000040: 59fa febc 4e90 e03b 8e63 b03c 55f5 49bc
00000050: cd4a 45bc 9dd2 463d 10f1 0f3d f25d babc
00000060: d5de 2abc b6db dbbc dac1 b43c 9da5 fabc
00000070: 8af1 04bd ac4d fcbc d019 8cba 0224 46bc
00000080: a831 88bb 9497 b73c 99bc 493d a4c5 ec3b
00000090: 4f0b 6f3c 9596 fcbc 8ac8 87bc d52a 8fbb
000000a0: 4fe0 b03c 44d4 cbbc 0661 c83c d0bf 1b3c
000000b0: a26f d03b f311 0a3d 5245 e73c f64a 2c3d
000000c0: 3284 a0ba 1380 bb3c ee50 5c3c 73d0 22bd
000000d0: 0f0b 80bc 79b7 a33c b874 9fbc 0f3a 30bd
000000e0: 4dfc 8bbc bd24 353c e46e f13c 639d 0a3d
000000f0: 3214 293c 55a4 d0bc ec31 2a3a 10ee b43c

body.block1.norm.weight f4 [64]
0.8460106 1.0672859 1.0120014 1.0505944 1.0471191 0.9886231 0.98184144 0.8290318
0.98728794 1.1624124 0.8842643 1.0681334 1.0710762 1.0346969 1.0378748 1.0076458
0.92459196 1.1184157 0.94232756 1.2325426 1.0365205 0.95279086 0.9986688 0.88572705
0.9059185 1.019571 0.88685995 0.90616924 0.90456426 0.86115617 0.9158429 0.9758553
0.87880886 0.9884826 1.0414252 0.86368567 1.0923474 1.0393589 0.7909054 1.0440538
0.9037169 0.972482 0.98424673 1.0307498 0.88260853 0.9698249 0.7999368 0.94551724
0.9373195 0.941601 0.92456686 1.0338633 1.0953906 0.91577834 0.9022806 0.8728275
1.022192 1.0863093 1.0158783 1.0299857 0.9036137 1.0619171 0.9959981 0.8151515
00000000: 2794 583f d39c 883f 4389 813f e179 863f
00000010: 0008 863f 6716 7d3f f659 7b3f 6e3b 543f
00000020: e7be 7c3f eec9 943f 255f 623f 98b8 883f
00000030: 0619 893f f370 843f 15d9 843f 8afa 803f
00000040: 0fb2 6c3f 3f28 8f3f 613c 713f f5c3 9d3f
00000050: b4ac 843f 1aea 733f c2a8 7f3f 02bf 623f
00000060: 46ea 673f 4d81 823f 4109 633f b5fa 673f
00000070: 8691 673f bb74 5c3f ae74 6a3f a7d1 793f
00000080: 9ef9 603f 320d 7d3f 6c4d 853f 811a 5d3f
00000090: 0ad2 8b3f b609 853f c778 4a3f 8ea3 853f
000000a0: fe59 673f 95f4 783f 98f7 7b3f 9cef 833f
000000b0: a2f2 613f 7246 783f a8c8 4c3f 6b0d 723f
000000c0: 2cf4 6f3f c30c 713f 6ab0 6c3f a255 843f
000000d0: c235 8c3f 7370 6a3f ddfb 663f 9f71 5f3f
000000e0: 30d7 823f 2f0c 8b3f 4d08 823f 92d6 833f
000000f0: 3a53 673f e6ec 873f bbf9 7e3f c5ad 503f

body.block1.norm.bias f4 [64]
-0.67162675 -0.044894964 -0.054734215 -0.2687706 -0.057935942 -0.010960737 -0.10752043 -0.49433362
-0.3991665 -0.51175493 -0.51553464 -0.31252763 0.19621277 -0.21316685 -0.415082 -0.045899916
-0.14903729 -0.7899553 -0.09348121 -0.39278486 -0.08419914 -0.20566592 -0.38258535 -0.44144383
-0.3430898 -0.08128609 -0.44556484 -0.45442733 -0.4512703 -0.4613924 -0.11746932 -0.62261754
-0.49682993 -0.39192262 -0.31541014 -0.50337774 -0.07294455 -0.411744 -0.40882203 -0.47911084
-0.11723171 -0.5903495 -0.21397622 -0.11882481 -0.55334455 -0.23639111 -0.43818513 -0.14091946
-0.3252712 -0.12734178 -0.44773886 -0.34469807 0.007181949 -0.26535073 -0.64625305 -0.4529811
-0.10076702 -0.057871796 -0.20278215 -0.5049599 -0.63109547 -0.17526527 -0.5779072 -0.50137544
00000000: bbef 2bbf c8e3 37bd fc30 60bd 4d9c 89be
00000010: 3d4e 6dbd aa94 33bc ac33 dcbd 4c19 fdbe
00000020: 8d5f ccbe 5f02 03bf 14fa 03bf 9f03 a0be
00000030: 00ec 483e 6948 5abe a185 d4be 8d01 3cbd
00000040: 3b9d 18be 833a 4abf 1473 bfbd 191b c9be
00000050: 9970 acbd 169a 52be 3ae2 c3be ed04 e2be
00000060: 77a9 afbe 5279 a6bd 1321 e4be b3aa e8be
00000070: e70c e7be a03b ecbe c193 f0bd dd63 1fbf
00000080: 7e60 febe 15aa c8be 707d a1be 5ddd 00bf
00000090: f463 95bd 1cd0 d2be 1f51 d1be 044e f5be
000000a0: 2e17 f0bd 2521 17bf 951c 5bbe 6c5a f3bd
000000b0: fda7 0dbf 8310 72be cd59 e0be 314d 10be
000000c0: f289 a6be e265 02be 073e e5be 447c b0be
000000d0: 8e56 eb3b 0ddc 87be d770 25bf 24ed e7be
000000e0: f05e cebd fa0a 6dbd 20a6 4fbe 0d45 01bf
000000f0: 798f 21bf bd78 33be baf1 13bf 245a 00bf

body.block1.norm.running_mean f4 [64]
0.5214926 -1.7451793 -1.0751988 -1.4998661 -0.5185505 -1.3723744 -1.1494642 1.377941
-3.2786412 -0.72888213 -1.4162135 -2.6284904 -1.2896203 -1.5322508 -0.068944275 -0.7134888
0.09363687 -0.87706566 -0.59329236 -4.575223 -1.391974 -3.3951807 -1.093396 1.6136496
-2.0061321 -0.07338749 -2.008247 1.5177131 5.80188 -2.3137836 1.0787268 1.5240166
-1.8017526 -2.2842562 0.69988567 -0.28864166 -1.5878279 0.35557362 2.0512156 -2.5532029
-1.5506029 1.4894367 0.15837894 -0.97297233 -1.6633183 -1.4998884 -2.3696516 -0.21542668
1.4136857 -1.5214019 -1.840363 0.5273678 -0.88587964 3.7536805 -1.385184 -2.5749059
-1.2710489 -1.37512 -3.602764 -1.2987633 2.559311 1.1938968 -1.027024 -1.9058253
00000000: 8a80 053f 0962 dfbf 1da0 89bf 9dfb bfbf
00000010: babf 04bf f7a9 afbf a521 93bf 5f60 b03f
00000020: 42d5 51c0 0598 3abf 7c46 b5bf 3039 28c0
00000030: 4712 a5bf cb20 c4bf a832 8dbd 34a7 36bf
00000040: b0c4 bf3d 6087 60bf 02e2 17bf 3a68 92c0
00000050: 342c b2bf a44a 59c0 66f4 8bbf 128c ce3f
00000060: 7864 00c0 2e4c 96bd 1e87 00c0 6c44 c23f
00000070: 00a9 b940 0815 14c0 b813 8a3f fa12 c33f
00000080: d49f e6bf 4131 12c0 b52b 333f d7c8 93be
00000090: f23d cbbf bf0d b63e 1e47 0340 ad67 23c0
000000a0: 287a c6bf dda5 be3f 172e 223e b714 79bf
000000b0: 9de7 d4bf 58fc bfbf 5fa8 17c0 d098 5cbe
000000c0: a7f3 b43f 4cbd c2bf 0491 ebbf 9301 073f
000000d0: 02c9 62bf 4d3c 7040 b64d b1bf 42cb 24c0
000000e0: bbb1 a2bf ef03 b0bf af93 66c0 e03d a6bf
000000f0: c0cb 2340 9cd1 983f 8675 83bf 15f2 f3bf

body.block1.norm.running_var f4 [64]
5.60982 22.829807 19.467276 3.3759356 10.191734 51.97114 22.551184 5.703953
13.440471 1.687328 3.855604 5.9188704 22.755714 4.2474313 3.5063243 56.704315
53.02277 4.353399 7.2259 9.490505 14.747982 8.925283 9.250039 7.536938
12.01259 28.147665 5.4605803 6.4684105 17.606256 18.470913 41.537796 4.436067
7.520027 3.6235368 8.040528 4.50777 19.637453 6.864647 5.740074 7.5487742
20.232515 9.349664 38.289722 12.195295 11.3673525 22.53102 12.267104 31.016602
10.222603 27.2397 7.970443 6.663398 12.674254 13.582866 9.875976 8.605811
35.501057 37.87382 13.544105 2.941235 8.486667 6.330056 3.11396 13.211663
00000000: a583 b340 72a3 b641 fbbc 9b41 540f 5840
00000010: 5811 2341 73e2 4f42 d368 b441 c886 b640
00000020: 2b0c 5741 5dfa d73f 37c2 7640 6367 bd40
00000030: b40b b641 f5ea 8740 9e67 6040 38d1 6242
00000040: 5117 5442 0b4f 8b40 933a e740 1cd9 1741
00000050: bcf7 6b41 f6cd 0e41 2900 1441 992e f140
00000060: 9233 4041 6b2e e141 13bd ae40 38fd ce40
00000070: 9dd9 8c41 6ec4 9341 b426 2642 43f4 8d40
00000080: 10a4 f040 07e8 6740 01a6 0041 a73f 9040
00000090: 8119 9d41 30ab db40 b0ae b740 8f8f f140
000000a0: 31dc a141 3998 1541 ad28 1942 ee1f 4341
000000b0: ade0 3541 873f b441 0f46 4441 0022 f841
000000c0: c88f 2341 e8ea d941 de0d ff40 8e3a d540
000000d0: bfc9 4a41 6b53 5941 ff03 1e41 67b1 0941
000000e0: 1501 0e42 cb7e 1742 a7b4 5841 323d 3c40
000000f0: 63c9 0741 d28f ca40 1f4b 4740 f962 5341

body.block2.conv.weight f4 [64, 64, 3, 3]
-0.049369227 -0.005320205 0.050645996 0.051520173 0.050409794 0.016229346 -0.014782144 -0.03281079
-0.008900618 0.1477586 -0.02934392 0.05085926 0.056864098 -0.03011536 0.09390184 -0.08130584
-0.1991961 -0.00824589 0.043782752 -0.017937923 -0.074447066 0.14217603 0.03858005 -0.07860257
0.1656415 0.13306917 -0.011527691 -0.1345257 0.20640424 0.24161145 -0.15048337 -0.10138044
0.037755396 -0.20292868 -0.12257872 0.0058604027 0.023889152 0.003705376 -0.068840854 0.04248696
0.0073600058 -0.062377878 0.15273198 0.087027386 0.07581309 0.21723633 0.08664009 -0.050131146
0.21145497 0.06916051 -0.14435007 0.0967889 -0.03760782 -0.16109686 0.11936305 0.22650817
0.15353951 0.041244823 0.08482974 0.04001118 -0.0720158 -0.08975942 -0.14870124 -0.16665316
-0.018526778 0.08382139 -0.06785888 0.011907009 0.15391311 -0.1004576 -0.07910876 0.053742904
0.010656813 -0.059437837 0.07180452 -0.042346377 0.03289737 0.056378454 0.014870698 0.00021664627
-0.026237005 0.024872728 -0.03801016 0.045156285 0.009968494 -0.065174416 0.060762882 -0.039470907
-0.09839671 0.07705063 -0.020877717 0.1202951 0.054945692 -0.057760153 -0.003443729 0.03837735
-0.05217711 -0.06097205 0.029264957 -0.035146136 -0.0461657 0.08986218 -0.027602825 -0.007615587
0.072205134 0.06134117 0.006060244 0.053774945 0.013375389 -0.04869595 -0.14432658 -0.04652466
0.03596926 -0.053802516 0.0564836 -0.011172194 -0.041251652 0.036657013 -0.22733872 -0.24073863
0.14511177 -0.013550208 -0.20040968 0.107179195 0.2527903 0.16450799 -0.025611086 -0.2694463
-0.084251545 -0.19036403 -0.11726017 0.119509295 -0.01900957 0.26515448 0.19298889 0.15114003
-0.019079508 -0.20480584 0.071126476 -0.10807338 -0.23897243 -0.031054458 -0.117967054 -0.2205566
0.06930631 -0.022067055 -0.1106671 0.13432102 -0.060526624 -0.13603264 0.11091726 -0.033155713
-0.12322263 0.019416198 -0.058439225 0.02660085 0.039206278 0.00544504 -0.013000828 -0.06076658
0.09665254 0.008231037 0.10906856 -0.068931855 0.07660469 -0.11420748 -0.24816082 0.053588226
0.0074015963 -0.044969566 0.043420758 -0.06808735 -0.029245457 0.012936685 -0.21404627 -0.089874126
0.0064974236 0.047607962 0.052357264 0.14196722 0.09970557 -0.03557345 -0.091965385 0.16372257
0.11026396 -0.03635197 0.07574214 -0.07248971 -0.1419486 0.16546749 0.22862664 0.13932315
0.03741506 0.16121222 0.09191129 -0.2168124 -0.1274616 -0.075820215 -0.07653243 -0.11524285
0.07629386 0.16749264 -0.12503682 -0.001242868 -0.044159107 -0.06522967 -0.04113012 0.015427701
-0.20394033 -0.14676861 0.032403745 -0.054409627 -0.009738579 0.12353268 0.12154449 0.16909601
-0.0827692 0.0100574065 0.11444218 -0.03202289 0.019256132 0.092419095 -0.038933057 0.038865533
0.08598836 0.09455975 -0.09970225 -0.2631402 0.09742566 -0.12483076 -0.21531752 0.07349767
-0.16755979 -0.17933396 -0.080759294 -0.080049254 0.15137683 -0.033742018 -0.028935524 0.12502778
-0.01841846 0.036607593 0.03692446 -0.013960829 -0.022050524 -0.16025648 -0.008649466 0.05664632
0.06261167 0.055352937 -0.0715839 0.13147512 -0.13037033 -0.05981002 -0.010829802 -0.14174008
00000000: 6337 4abd 1d55 aebb 2d72 4f3d d106 533d
00000010: 807a 4e3d 68f3 843c ce30 72bc 9b64 06bd
00000020: e6d3 11bc 084e 173e a962 f0bc cd51 503d
00000030: 54ea 683d 7db4 f6bc 9c4f c03d ad83 a6bd
00000040: 10fa 4bbe c519 07bc 8b55 333d 8df2 92bc
00000050: b477 98bd 9896 113e 1d06 1e3d 62fa a0bd
00000060: ed9d 293e 4943 083e a4de 3cbc 1bc1 09be
00000070: a25b 533e fe68 773e 5018 1abe 8ca0 cfbd
00000080: 67a5 1a3d 89cc 4fbe 8d0a fbbd 9f08 c03b
00000090: 2fb3 c33c e5d5 723b 6ffc 8cbd ce06 2e3d
000000a0: 342c f13b f27f 7fbd c665 1c3e 6a3b b23d
000000b0: e543 9b3d 3373 5e3e 5c70 b13d 5156 4dbd
000000c0: a787 583e 07a4 8d3d 81d0 13be 4239 c63d
000000d0: a80a 1abd 93f6 24be 9d74 f43d c2f1 673e
000000e0: 7639 1d3e 55f0 283d 37bb ad3d c3e2 233d
000000f0: 057d 93bd c9d3 b7bd 2345 18be 20a7 2abe
00000100: 78c5 97bc 8daa ab3d 99f9 8abd 9e15 433c
00000110: 669b 1d3e b7bc cdbd c603 a2bd 8521 5c3d
00000120: ea99 2e3c 1775 73bd 400e 933d 6573 2dbd
00000130: 65bf 063d 18ed 663d 3aa4 733c 8a2b 6339
00000140: fdee d6bc e4c1 cb3c 8bb0 1bbd ccf5 383d
00000150: e552 233c 2a7a 85bd 80e2 783d 3fac 21bd
00000160: 3784 c9bd b8cc 9d3d bf07 abbc 475d f63d
00000170: bc0e 613d e995 6cbd 2fb0 61bb 9131 1d3d
00000180: aab7 55bd d4bd 79bd 10bd ef3c 65f5 0fbd
00000190: 3f18 3dbd aa09 b83d 521f e2bc 2d8c f9bb
000001a0: 49e0 933d e140 7b3d 0395 c63b 1e43 5c3d
000001b0: 7324 5b3c 6875 47bd 59ca 13be a490 3ebd
000001c0: 8154 133d 0760 5cbd 595b 673d 940b 37bc
000001d0: 7ef7 28bd aa25 163d 7bcb 68be 3084 76be
000001e0: 2e98 143e b101 5ebc 3238 4dbe c480 db3d
000001f0: bb6d 813e c874 283e 57ce d1bc def4 89be
00000200: 138c acbd caee 42be 1a26 f0bd 4ac1 f43d
00000210: f5b9 9bbc 54c2 873e e19e 453e 74c4 1a3e
00000220: a14c 9cbc 9fb8 51be c2aa 913d 9455 ddbd
00000230: 30b5 74be eb65 febc b698 f1bd 97d9 61be
00000240: 77f0 8d3d f8c5 b4bc 6fa5 e2bd 738b 093e
00000250: c4ea 77bd 244c 0bbe 9728 e33d 49ce 07bd
00000260: 255c fcbd b80e 9f3c f85d 6fbd 07ea d93c
00000270: c396 203d 4e6c b23b 6d01 55bc 61e6 78bd
00000280: c4f1 c53d 79db 063c 565f df3d 252c 8dbd
00000290: ebe2 9c3d 9ce5 e9bd df1d 7ebe 547f 5b3d
000002a0: 1789 f23b 0232 38bd f7d9 313d 6171 8bbd
000002b0: 2b94 efbc 64f4 533c f22e 5bbe ed0f b8bd
000002c0: 57e8 d43b 9100 433d 9274 563d db5f 113e
000002d0: 6f32 cc3d 77b5 11bd 5958 bcbd e4a6 273e
000002e0: 12d2 e13d cee5 14bd b21e 9b3d 7c75 94bd
000002f0: f95a 11be 4f70 293e 1a1d 6a3e baaa 0e3e
00000300: 8940 193d d114 253e fd3b bc3d 1204 5ebe
00000310: 4b85 02be a147 9bbd 09bd 9cbd 7104 ecbd
00000320: f53f 9c3d 3183 2b3e a709 00be bbe7 a2ba
00000330: 2ee0 34bd 2297 85bd 0f78 28bd 78c4 7c3c
00000340: bcd5 50be 834a 16be cab9 043d a1dc 5ebd
00000350: 908e 1fbc b4fe fc3d 51ec f83d 8127 2d3e
00000360: e682 a9bd d2c7 243c a960 ea3d 6f2a 03bd
00000370: 09bf 9d3c 3946 bd3d 4578 1fbd 7731 1f3d
00000380: aa1a b03d 8ba8 c13d b130 ccbd 50ba 86be
00000390: 1b87 c73d 45a7 ffbd 327c 5cbe f285 963d
000003a0: cb94 2bbe 52a3 37be 2165 a5bd ddf0 a3bd
000003b0: 8702 1b3e 1235 0abd 310a edbc 4807 003e
000003c0: 4fe2 96bc d8f1 153d 1a3e 173d f6bb 64bc
000003d0: 4da3 b4bc 461a 24be 7db6 0dbc f905 683d
000003e0: 8c3a 803d c3b9 623d 949a 92bd 6aa1 063e
000003f0: cd7f 05be 5afb 74bd 7b6f 31bc 5024 11be

body.block2.conv.bias f4 [64]
-0.01870461 -0.02006325 0.02785702 0.022019055 0.020534584 -0.035846606 0.033726774 -0.044432428
0.020832442 -0.038664207 0.028711703 -0.038228624 0.00034169044 0.045041285 -0.03035944 -0.026482766
-0.0014144726 -0.03412304 0.037188273 -0.026914917 -0.0025200092 0.03975886 -0.042466808 0.013054651
0.044560086 0.0071563274 -0.010544736 0.01771756 0.038944557 0.011586741 0.012442828 0.0015775104
-0.028875213 -0.015119116 -0.009848581 0.008792726 0.020381069 0.03196403 0.010490549 -0.027838493
0.03231401 0.017367145 0.013099784 0.025155984 0.0070504462 0.021888722 0.02315729 -0.039152175
-0.033254415 0.017880639 -0.042516924 -0.040856875 -0.011700002 0.0047827107 0.03544503 -0.019270774
0.022538077 -0.019675989 -0.018887544 -0.008030866 -0.03901976 -0.009026282 -0.016794804 0.005018985
00000000: 693a 99bc af5b a4bc 6834 e43c 4e61 b43c
00000010: 2538 a83c e4d3 12bd 1625 0a3d c7fe 35bd
00000020: cca8 aa3c 5c5e 1ebd ce34 eb3c 9e95 1cbd
00000030: ea24 b339 367d 383d 5cb4 f8bc 63f2 d8bc
00000040: d365 b9ba 9ac4 0bbd bb52 183d ac7c dcbc
00000050: bd26 25bb 30da 223d adf1 2dbd 2de3 553c
00000060: a384 363d a07f ea3b d4c3 2cbc 6b24 913c
00000070: 5484 1f3d 50d6 3d3c 01dd 4b3c 77c4 ce3a
00000080: b68b ecbc 2bb6 77bc f15b 21bc 5e0f 103c
00000090: 33f6 a63c b7ec 023d 8de0 2b3c 8d0d e4bc
000000a0: b25b 043d 8b45 8e3c 7aa0 563c ec13 ce3c
000000b0: 6e07 e73b fa4f b33c 5bb4 bd3c 085e 20bd
000000c0: c835 08bd 6b7a 923c 3a26 2ebd 8a59 27bd
000000d0: 5db1 3fbc 49b8 9c3b cf2e 113d bedd 9dbc
000000e0: c6a1 b83c 8a2f a1bc 0dba 9abc e593 03bc
000000f0: 2fd3 1fbd f8e2 13bc 4295 89bc 4c76 a43b

body.block2.norm.weight f4 [64]
1.0546304 0.899583 0.9224238 0.9199506 0.83221817 1.0688372 0.9977049 0.93004155
0.9981058 0.91867703 1.0806097 0.9576892 1.1017106 0.99538714 1.0077353 1.0212761
0.9478861 0.93564534 0.84831303 0.9198795 0.755841 0.95280206 0.8670252 0.9066001
0.93221647 0.9152343 0.9511878 0.9918917 0.97234845 0.98381394 0.81907547 0.95044684
0.7934706 0.90402496 0.8509911 0.86033887 0.99630755 0.96095586 0.95050216 0.9342166
0.978952 1.0145632 0.94307244 0.97486216 0.9113291 0.829131 1.022601 0.93565935
1.0613025 0.9404949 0.96154463 1.1167266 0.9077033 1.0008419 0.940115 0.9981817
0.85597825 1.0543301 0.8795803 0.9032658 0.97837496 0.9675647 0.8162388 0.8538353
00000000: 21fe 863f 124b 663f f723 6c3f e281 6b3f
00000010: 400c 553f a8cf 883f 9769 7f3f 3417 6e3f
00000020: dd83 7f3f 6b2e 6b3f 6b51 8a3f 1f2b 753f
00000030: da04 8d3f b1d1 7e3f 78fd 803f 2db9 823f
00000040: aaa8 723f 7486 6f3f 0b2b 593f 397d 6b3f
00000050: cc7e 413f d6ea 733f 5df5 5d3f f216 683f
00000060: bda5 6e3f cc4c 6a3f 0b81 733f 9dec 7d3f
00000070: d4eb 783f 3bdb 7b3f eeae 513f 7c50 733f
00000080: e420 4b3f 2e6e 673f 8dda 593f 2b3f 5c3f
00000090: 030e 7f3f 3401 763f 1c54 733f d228 6f3f
000000a0: 999c 7a3f 35dd 813f 326d 713f 9190 793f
000000b0: dd4c 693f ee41 543f 97e4 823f 5f87 6f3f
000000c0: c3d8 873f 46c4 703f ca27 763f e6f0 8e3f
000000d0: 3e5f 683f 961b 803f 60ab 703f d688 7f3f
000000e0: 6421 5b3f 4af4 863f 2d2c 613f 6d3c 673f
000000f0: c876 7a3f 52b2 773f 07f5 503f f394 5a3f

body.block2.norm.bias f4 [64]
-0.68967927 -0.15700895 -0.44800544 -0.17685045 -0.38308847 -0.33534893 -0.25697565 -0.4856283
-0.5301513 -0.3182 0.011643799 -0.42954704 -0.4691984 -0.06326555 -0.3636268 -0.5427805
-0.30552202 -0.45181137 -0.3800725 -0.2355413 -0.49973845 -0.16138777 -0.20438978 -0.23930177
-0.24429496 -0.22356111 -0.068940856 -0.09555995 -0.44879213 0.0021042258 -0.24380505 -0.29494014
-0.5453303 -0.46452782 -0.47156522 -0.3093036 -0.074960575 -0.41548473 -0.20822896 -0.110630125
-0.3374822 -0.041819386 -0.13715428 -0.31330448 -0.5545293 -0.24190913 -0.12905245 -0.35684747
0.0155001385 -0.4323601 -0.18973123 -0.06768009 -0.38169128 -0.40487617 -0.4165271 -0.4748281
-0.38363287 -0.5068417 -0.42761895 -0.29369903 -0.41211322 -0.3636621 -0.49041545 -0.47072583
00000000: d28e 30bf f4c6 20be f860 e5be 4918 35be
00000010: 2c24 c4be dbb2 abbe 5092 83be 46a4 f8be
00000020: ffb7 07bf 1ceb a2be a2c5 3e3c 97ed dbbe
00000030: c63a f0be 5e91 81bd 4b2d babe aaf3 0abf
00000040: 626d 9cbe d253 e7be dd98 c2be bd31 71be
00000050: b8dd ffbe d642 25be 8e4b 51be 860b 75be
00000060: 7528 7abe 34ed 64be dd30 8dbd efb4 c3bd
00000070: 15c8 e5be 0de7 093b 08a8 79be 6502 97be
00000080: c49a 0bbf 97d6 edbe ff70 f1be 0b5d 9ebe
00000090: ee84 99bd 6aba d4be f939 55be 0c92 e2bd
000000a0: 78ca acbe ce4a 2bbd 2c72 0cbe 7269 a0be
000000b0: a2f5 0dbf 07b7 77be 5326 04be b6b4 b6be
000000c0: 4bf4 7d3c 4e5e ddbe e748 42be dc9b 8abd
000000d0: 0a6d c3be ee4b cfbe 0a43 d5be ab1c f3be
000000e0: 876b c4be 61c0 01bf dff0 dabe b85f 96be
000000f0: 8100 d3be eb31 babe bc17 fbbe fa02 f1be

body.block2.norm.running_mean f4 [64]
0.5609953 2.1066144 -0.06580236 -0.19323756 -0.16494156 -0.8398323 0.6774797 0.49172312
-2.0535445 0.20786445 -0.13205804 -1.2760972 -2.2966452 -0.061661202 0.296631 -0.8315345
-0.9733036 -0.008424342 -0.472482 0.90174437 -1.160978 -2.0740612 -0.64649826 1.777964
0.07660202 -1.3139601 1.0217475 1.589621 -0.48260406 2.1043725 0.6789891 -1.7074394
0.7367938 1.4332637 0.48520184 -0.5436518 -0.19162333 1.0335572 1.8912423 -1.9718556
-2.9062529 -0.41296357 2.410841 1.9596065 0.50003207 -1.8987417 -0.4479693 0.38790268
-2.3972595 0.71936494 -1.4360985 -0.5615345 0.31224373 -1.3164655 -0.10544025 -0.24099381
1.5306121 0.08092726 1.7733225 -0.17593591 -1.3228397 2.5599885 0.40559673 1.7285138
00000000: 639d 0f3f c5d2 0640 63c3 86bd 11e0 45be
00000010: 71e6 28be 40ff 56bf 4f6f 2d3f 22c3 fb3e
00000020: 466d 03c0 6bda 543e 393a 07be 2757 a3bf
00000030: 3cfc 12c0 7590 7cbd 05e0 973e 72df 54bf
00000040: 6d2a 79bf 4006 0abc 29e9 f1be b8d8 663f
00000050: ed9a 94bf 6bbd 04c0 e980 25bf 5394 e33f
00000060: 85e1 9c3d d82f a8bf 9fc8 823f b378 cb3f
00000070: e117 f7be 0aae 0640 3bd2 2d3f 608d dabf
00000080: 859e 3c3f 2f75 b73f 606c f83e c42c 0bbf
00000090: e838 44be 9a4b 843f 3a14 f23f c465 fcbf
000000a0: 0c00 3ac0 f66f d3be 384b 1a40 63d4 fa3f
000000b0: 1a02 003f f809 f3bf 3b5c e5be 2e9b c63e
000000c0: b36c 19c0 4d28 383f 13d2 b7bf bac0 0fbf
000000d0: 69de 9f3e f181 a8bf 0ff1 d7bd 15c7 76be
000000e0: 19eb c33f 31bd a53d 3bfc e23f 8b28 34be
000000f0: d052 a9bf dad6 2340 60aa cf3e f13f dd3f

body.block2.norm.running_var f4 [64]
4.115991 8.222835 7.0957255 20.812487 3.1391551 4.194863 9.380884 6.6053514
5.167482 7.1124215 4.3091807 3.0823371 2.4888825 18.969975 4.678577 2.1925673
3.1810145 5.026089 12.626526 26.400883 4.4881787 4.459242 3.5686498 10.528735
4.586606 13.491707 27.612707 12.900122 3.7864854 13.282901 5.0125556 4.391835
8.74201 12.114795 5.506097 8.936406 5.194327 11.015492 7.220405 11.5335865
3.3171096 28.14735 6.74336 7.2391863 3.812408 15.804702 7.405199 5.0332417
14.969804 5.488415 11.097714 5.8273373 3.233837 5.930013 2.733474 22.423723
6.6263714 3.48925 5.141611 8.068597 1.9519299 6.312764 2.0727108 5.1208806
00000000: 33b6 8340 bb90 0341 2f10 e340 f97f a641
00000010: ebe7 4840 513c 8640 1a18 1641 0a5f d340
00000020: 035c a540 f598 e340 cfe4 8940 0345 4540
00000030: da49 1f40 82c2 9741 e7b6 9540 0653 0c40
00000040: be95 4b40 b9d5 a040 4006 4a41 0235 d341
00000050: 299f 8f40 1cb2 8e40 c264 6440 b375 2841
00000060: 7ac5 9240 08de 5741 d3e6 dc41 e666 4e41
00000070: c755 7240 c386 5441 db66 a040 ea89 8c40
00000080: 46df 0b41 33d6 4141 f231 b040 85fb 0e41
00000090: ed37 a640 753f 3041 8f0d e740 9289 3841
000000a0: 864b 5440 c62d e141 9bc9 d740 6aa7 e740
000000b0: 7efe 7340 0fe0 7c41 64f7 ec40 5110 a140
000000c0: 5184 6f41 18a1 af40 3d90 3141 8c79 ba40
000000d0: 2ff7 4e40 abc2 bd40 3df1 2e40 c963 b341
000000e0: 3c0b d440 df4f 5f40 1488 a440 f918 0141
000000f0: d7d8 f93f 2a02 ca40 4ba7 0440 41de a340

body.block3.conv.weight f4 [64, 64, 3, 3]
0.14406286 0.2273713 -0.10798581 -0.3149443 -0.05577421 -0.041039277 0.085493095 0.22748645
0.09321597 -0.10974313 -0.17413127 -0.10647802 -0.02200872 -0.17836963 -0.034018144 0.019312354
-0.009340899 0.044031933 0.057448708 -0.0037230984 -0.04828934 0.019963104 0.037432525 0.082737796
-0.01994406 -0.049641516 0.055001233 -0.19639292 -0.34429705 -0.20144354 -0.11898109 -0.023653904
-0.033856425 -0.112555906 -0.104759075 -0.047551118 -0.018476803 -0.072097994 -0.09069353 -0.042529866
0.01641615 0.051361907 -0.059099894 -0.12968665 -0.038780242 -0.03592133 0.053713888 0.049907923
0.07860035 0.030810121 -0.14930312 -0.089967206 -0.036841907 0.080070354 -0.0130333835 0.05197988
0.02511412 0.02735461 -0.0035427574 -0.08982865 0.043403413 -0.10651674 -0.08923752 0.0028718773
-0.06560485 -0.0026080376 0.025016718 0.046906456 0.03194931 -0.03435482 -0.01146883 -0.12229799
0.25422975 0.15058857 0.10009801 0.02542271 -0.00037155638 -0.019599961 0.076473944 -0.05501281
-0.15668885 -0.048168104 -0.034969 -0.027049627 0.04262145 0.13515356 0.1289072 0.0054455153
-0.02024435 -0.057169113 0.010261072 0.090495326 -0.13050562 -0.026262693 0.036730945 0.07019891
-0.026088068 -0.09110997 -0.19633327 -0.014352525 -0.027940279 0.017092347 0.009557636 -0.03714325
-0.01718996 0.049210012 -0.011461786 0.0707078 -0.06874006 -0.010108085 -0.09209225 0.14387429
0.118271746 0.086949505 -0.043150246 -0.03184412 0.019509865 0.06325939 0.0876276 0.040719215
-0.0073516252 -0.027294349 0.04658922 0.10242252 0.13509922 0.049575858 0.033431206 0.007592542
-0.09439874 -0.012252684 0.038905412 0.102496035 0.1233901 -0.011428054 -0.11352056 -0.07246652
0.11700249 0.064391226 0.19988081 0.10740736 0.040912356 0.019069538 -0.00330587 -0.1019614
-0.022609262 0.15364781 0.09414934 0.08619222 0.021934265 0.10272937 -0.07289038 0.05703354
0.05716178 0.035544556 0.0441451 0.035226453 -0.031982217 -0.021756561 -0.1693194 -0.08709534
-0.124365576 -0.016947957 0.14642063 0.051288124 0.02606627 -0.016657902 -0.04738278 -0.06063074
0.11699454 0.077311 0.09919786 -0.037418086 -0.038544897 -0.016119055 -0.13139738 -0.04078951
0.10149345 -0.0023352213 0.015484316 0.026275136 0.1982095 0.12501284 0.015224496 0.20290059
0.01758515 0.008525815 0.0072720693 -0.11267619 -0.094633356 0.04665205 -0.033829946 -0.032333866
-0.042815868 -0.016546022 -0.09721871 -0.21796034 -0.133294 -0.07468423 -0.13486454 -0.12776588
-0.04663423 -0.06459705 -0.0031743543 -0.10968881 -0.17624387 -0.23500636 -0.18247975 -0.01611956
-0.08501303 -0.00742992 0.023629276 0.00935099 -0.0017172131 -0.00550084 0.06861794 0.13635202
-0.11730172 -0.009203364 -0.06456635 -0.048609797 0.019658882 -0.025184352 0.09033772 0.09571615
0.14637284 -0.06917871 -0.018093262 0.00012471613 -0.13619308 -0.06894539 -0.09674335 -0.17982276
-0.076104425 -0.10038583 -0.08009976 -0.11151554 -0.11987937 0.06427404 -0.027525691 -0.16441399
-0.15354857 -0.17390835 -0.15603098 -0.0962084 0.00029994076 0.05183134 -0.006235178 -0.029480688
-0.013460396 -0.08738089 -0.0146521 -0.009447111 -0.00014814326 -0.05453381 0.03803246 0.037606463
00000000: 3785 133e 06d4 683e aa27 ddbd 6140 a1be
00000010: 7f73 64bd cd18 28bd 0117 af3d 35f2 683e
00000020: 04e8 be3d 02c1 e0bd 784f 32be 2611 dabd
00000030: a24b b4bc 87a6 36be 9c56 0bbd f134 9e3c
00000040: 920a 19bc d45a 343d 564f 6b3d 3aff 73bb
00000050: 0bcb 45bd aa89 a33c d952 193d 6f72 a93d
00000060: ba61 a3bc e754 4bbd f948 613d 3a1b 49be
00000070: b447 b0be 3747 4ebe 5cac f3bd d5c5 c1bc
00000080: 09ad 0abd b683 e6bd ed8b d6bd f6c4 42bd
00000090: aa5c 97bc 1da8 93bd 88bd b9bd cc33 2ebd
000000a0: 297b 863c dd60 523d bb12 72bd 94cc 04be
000000b0: 08d8 1ebd 3f22 13bd 1803 5c3d 406c 4c3d
000000c0: 38f9 a03d 8265 fc3c ebe2 18be ba40 b8bd
000000d0: 8ae7 16bd edfb a33d f989 55bc dbe8 543d
000000e0: 21bc cd3c c616 e03c 9b2d 68bb 15f8 b7bd
000000f0: c7c7 313d 7325 dabd 29c2 b6bd 1b36 3c3b
00000100: d65b 86bd 9ceb 2abb dcef cc3c fc20 403d
00000110: 48dd 023d a4b7 0cbd c2e7 3bbc 5e77 fabd
00000120: 672a 823e e433 1a3e 2f00 cd3d 4a43 d03c
00000130: 74cd c2b9 1990 a0bc 5f9e 9c3d 1d55 61bd
00000140: 0b73 20be eb4b 45bd a73b 0fbd 2e97 ddbc
00000150: d493 2e3d b265 0a3e 4000 043e 4b70 b23b
00000160: 7bd7 a5bc 292a 6abd 0e1e 283c 9d55 b93d
00000170: 44a3 05be dc24 d7bc 3073 163d 72c4 8f3d
00000180: a5b6 d5bc dd97 babd 970b 49be da26 6bbc
00000190: 03e3 e4bc 4005 8c3c a297 1c3c 8523 18bd
000001a0: f6d1 8cbc 7090 493d 37ca 3bbc 40cf 903d
000001b0: 97c7 8cbd 629c 25bc dd9a bcbd c853 133e
000001c0: 7538 f23d 9512 b23d 50be 30bd fb6e 02bd
000001d0: 27d3 9f3c 248e 813d 1976 b33d 31c9 263d
000001e0: e7e5 f0bb 6698 dfbc 57d4 3e3d e6c2 d13d
000001f0: 7357 0a3e 0e10 4b3d 29ef 083d dcca f83b
00000200: 2054 c1bd 7bbf 48bc 485b 1f3d 71e9 d13d
00000210: f3b3 fc3d bc3c 3bbc 787d e8bd 5469 94bd
00000220: 009f ef3d 8cdf 833d 8ead 4c3e 64f8 db3d
00000230: b793 273d b837 9c3c 4ca7 58bb 23d1 d0bd
00000240: 0f37 b9bc da55 1d3e 5fd1 c03d 8c85 b03d
00000250: 7daf b33c c763 d23d 8d47 95bd 009c 693d
00000260: 7822 6a3d 2b97 113d 7ed1 343d 9d49 103d
00000270: c9ff 02bd d13a b2bc 1162 2dbe 0b5f b2bd
00000280: 61b3 febd 71d6 8abc 4aef 153e 7f13 523d
00000290: ee88 d53c 2776 88bc 7214 42bd f057 78bd
000002a0: d59a ef3d 3b55 9e3d 3f28 cb3d b543 19bd
000002b0: 41e1 1dbd 1c0c 84bc 098d 06be e712 27bd
000002c0: ccdb cf3d 830a 19bb eeb1 7d3c f43e d73c
000002d0: 6ef7 4a3e 5e03 003e 2a70 793c 2cc5 4f3e
000002e0: bc0e 903c dcaf 0b3c 8a4a ee3b c6c2 e6bd
000002f0: 22cf c1bd 3816 3f3d 4591 0abd 8470 04bd
00000300: b15f 2fbd 868b 87bc 9a1a c7bd ff30 5fbe
00000310: 397e 08be 0cf4 98bd ee19 0abe 0fd5 02be
00000320: 8903 3fbd 754b 84bd d408 50bb 87a4 e0bd
00000330: 4679 34be 82a5 70be f9db 3abe 2b0d 84bc
00000340: 501b aebd b076 f3bb 2f92 c13c e534 193c
00000350: 1c14 e1ba 6440 b4bb 9087 8c3d dd9f 0b3e
00000360: e23b f0bd b5c9 16bc 5d3b 84bd 111b 47bd
00000370: aa0b a13c 6a4f cebc fc02 b93d d406 c43d
00000380: c3e2 153e 91ad 8dbd 5238 94bc 3bc6 0239
00000390: 3376 0bbe 3e33 8dbd 6121 c6bd 7523 38be
000003a0: a3dc 9bbd 1697 cdbd 580b a4bd 4262 e4bd
000003b0: 5183 f5bd 1ca2 833d 8f7d e1bc 245c 28be
000003c0: d63b 1dbe 0815 32be 96c6 1fbe e908 c5bd
000003d0: 5e41 9d39 194d 543d 7750 ccbb 7c81 f1bc
000003e0: fe88 5cbc c1f4 b2bd 5d0f 70bc 0ec8 1abc
000003f0: e756 1bb9 d85e 5fbd edc7 1b3d 3c09 1a3d

body.block3.conv.bias f4 [64]
0.024544084 0.036221206 -0.010021461 -0.021525227 0.029488135 0.02113608 0.01085632 0.007962322
-0.028948067 -0.058477283 0.027930913 -0.011062971 0.03845434 0.043676827 0.045080815 -0.008550005
-0.027805 0.0066604554 0.02991688 0.042724043 0.058318563 -7.456429e-05 -0.035086304 -0.00483442
-0.033808913 0.050983153 -0.011302912 0.017117718 0.0012054404 0.011417831 0.03554685 -0.042795524
-0.005231729 -0.026743049 -0.033797856 -0.0219178 0.017581526 0.029960457 -0.010340699 -0.042915802
-0.006246535 -0.037571117 -0.024121925 -0.044988863 -0.0024498405 0.028000701 0.00677856 -0.025478989
0.03222513 0.00055436546 -0.02117438 0.015546638 0.018938672 0.028230159 0.016395764 0.036332987
0.032825682 -0.03609486 0.014496922 0.024155844 0.039126016 -0.030783135 -0.03979744 0.025684444
00000000: ad10 c93c b05c 143d 0e31 24bc ac55 b0bc
00000010: 1a91 f13c 9325 ad3c b5de 313c 6674 023c
00000020: 7f24 edbc e085 6fbd 5fcf e43c 7741 35bc
00000030: 4c82 1d3d 79e6 323d a9a6 383d 5215 0cbc
00000040: 50c7 e3bc f33f da3b 3f14 f53c 68ff 2e3d
00000050: 72df 6e3d 665f 9cb8 a8b6 0fbd 0e6a 9ebb
00000060: 377b 0abd b6d3 503d d92f 39bc 753a 8c3c
00000070: deff 9d3a db11 3b3c 9399 113d 5c4a 2fbd
00000080: ec6e abbb 3d14 dbbc 9f6f 0abd f58c b3bc
00000090: 2207 903c a26f f53c 096c 29bc 7bc8 2fbd
000000a0: bcaf ccbb 2ce4 19bd 589b c5bc 3e46 38bd
000000b0: 818d 20bb ba61 e53c af1e de3b 50b9 d0bc
000000c0: 7ffe 033d d652 113a e575 adbc 53b7 7e3c
000000d0: 4625 9b3c ef42 e73c 6950 863c e6d1 143d
000000e0: 3974 063d 34d8 13bd 7f84 6d3c 7ae2 c53c
000000f0: 9a42 203d ea2c fcbc a402 23bd 2f68 d23c
